LSTM/lstm_model.pth (torch, 205666 bytes, 9 tensors)

lstm.weight_ih_l0 f4 [256, 1]
000000 9c c1 84 bd 26 41 d3 bd da 90 f0 3d 0f e0 e7 bd
       -0.064822406 -0.103151605 0.11746378 -0.11322033
000010 c3 9c 60 be a4 9a 7f bc aa bd a9 be b4 a1 0f bd
       -0.219348 -0.015600834 -0.33152515 -0.03506632
000020 2d 16 b1 bc fb 37 f1 bb 28 38 44 bd 8f ac dd 3c
       -0.02161702 -0.0073614097 -0.047905117 0.027059821
000030 d7 ec 3b be c5 d1 d7 bd ee e3 13 3e a7 73 57 be
       -0.18352066 -0.10538057 0.14442417 -0.21040212
000040 1c fa d5 bc aa 16 57 3d e7 f5 04 bd de 5c 5e bd
       -0.026120238 0.05251185 -0.032461073 -0.054287784
000050 df 64 54 be d8 5a 80 bc f6 0e 97 be de 6f ea bd
       -0.20741604 -0.015668318 -0.29503602 -0.11447118
000060 3d 8f 6f bd e6 88 4f be c7 8d 2c be 57 51 38 bd
       -0.058486212 -0.20267066 -0.16850959 -0.044999447
000070 84 a8 85 3b 1c e1 cb bc a8 98 84 be 1b 9a 3f 3e
       0.0040789265 -0.024887614 -0.25897717 0.1871113
000080 49 da 3b be 13 b9 2e be 7d 78 58 be 9f 4d 90 ba
       -0.18344988 -0.17062788 -0.21139713 -0.0011009461
000090 97 fb 27 be 17 50 8d be f3 00 18 be 11 c0 a8 be
       -0.16404568 -0.27600166 -0.14844112 -0.32959035
0000a0 81 06 16 be 2d 7e a6 be aa a4 5e be e6 c3 32 3d
       -0.14650919 -0.3251814 -0.21742502 0.043643855
0000b0 75 97 f7 bc 86 3c 45 be 11 37 39 3d 39 82 5e be
       -0.030223588 -0.19261369 0.04521853 -0.21729364
0000c0 ff d2 ec 3d 79 d5 6b be 0f 91 8c be 65 92 8d bd
       0.11563682 -0.23030652 -0.2745442 -0.06912688
0000d0 b1 e0 03 bd fa 99 a8 bd 13 ee 19 be 3a d9 94 3d
       -0.032196704 -0.08232494 -0.15032224 0.07267995
0000e0 22 5d 0f be 6d 9e cc bd f8 b6 81 be d6 eb 89 bc
       -0.14000371 -0.09991155 -0.25334907 -0.016836088
0000f0 1e 79 d0 bd 04 f0 b7 bd 44 7c 09 be 3b 7e d7 bd
       -0.10179351 -0.08981326 -0.1342631 -0.105221234
000100 3f 34 2e be 14 05 e1 bd 3d 98 a0 3d be bd 83 3e
       -0.17012118 -0.10987297 0.07841537 0.257307
000110 82 de 3e be 1d 97 f5 bd 77 fb b8 be 6c bf 2c 3e
       -0.18639567 -0.11991713 -0.36129352 0.16869897
000120 09 3d e9 3d ab 0d a1 be e9 f7 9b 3d 8d b9 a6 3d
       0.11388595 -0.3145574 0.076156445 0.0814086
000130 57 91 1a be ab d4 98 be 5f 16 34 bc 9b 08 3c bd
       -0.15094505 -0.29849753 -0.010991662 -0.045906644
000140 db ac 83 be c4 56 2a bf c9 7c e2 bd 48 50 e4 bd
       -0.25717816 -0.66538644 -0.11058957 -0.11148125
000150 89 8a 20 be 9c 4f 95 3d 66 aa 4f 3e 81 f1 76 bc
       -0.15677847 0.07290575 0.20279846 -0.015072227
000160 65 89 73 be d7 53 f5 bd e3 6c 31 be 13 6f 02 3e
       -0.2378288 -0.11978882 -0.17326693 0.12737684
000170 1c 13 8d bd fe c6 df 3d 24 d5 92 bd 03 f6 75 3e
       -0.068884104 0.109266266 -0.071695596 0.24019627
000180 70 47 4f 3d 3d 38 9b be 02 4c 89 be ae 81 0c 3e
       0.050605237 -0.30316344 -0.26815802 0.13721344
000190 4b 08 25 be 4f 00 4c be 63 c3 ce bd 7d 60 f9 be
       -0.16116445 -0.19921993 -0.10095861 -0.48706427
0001a0 9c 56 0a be f9 87 c6 be 63 d0 22 bc aa a1 6b 3e
       -0.13509601 -0.38775614 -0.009937379 0.23010889
0001b0 43 ee d3 bd c8 e2 07 3d e5 16 6a 3e 22 f6 e1 3d
       -0.10348179 0.03317526 0.22860296 0.11033274
0001c0 b5 56 25 3e 9e d0 86 be 17 9b 4a 3d a0 3c bb bc
       0.16146357 -0.26331037 0.04946431 -0.022856057
0001d0 7f 29 ae be 15 99 06 be 97 91 81 3d 1c 28 6a 3e
       -0.34016034 -0.13144334 0.06326597 0.22866863
0001e0 eb 88 31 be 6d b2 95 bd aa 39 11 be 1d d2 10 be
       -0.17337386 -0.07309423 -0.14182153 -0.14142652
0001f0 58 9d a1 be 14 bc 4b bd 90 e0 97 bd 21 6f 1e be
       -0.31565356 -0.049739912 -0.07415879 -0.1547208
000200 62 f8 6d be e7 14 60 be 87 b9 03 be 93 91 f8 bd
       -0.23239282 -0.21882974 -0.12863742 -0.12137141
000210 fc b5 6a 3e d9 22 04 bf e0 4c 5f 3e 4f 95 5c 3e
       0.22920984 -0.51615673 0.21806669 0.21541332
000220 18 41 fc ba 84 c2 5e be b5 36 97 3e 80 a7 39 3e
       -0.0019245474 -0.2175389 0.29533926 0.18130302
000230 46 32 33 3e c4 97 d7 be 69 da ba 3d 9a ad bd be
       0.17499647 -0.42107975 0.0912369 -0.3704651
000240 9c c9 8b 3e 4d c8 de be 10 50 54 be 60 c1 4d 3e
       0.27302253 -0.43512192 -0.20733666 0.20093298
000250 fc 22 46 3e af 77 af 3e 95 f8 9e be 88 0d 8e 3e
       0.19349283 0.34271 -0.31049028 0.277447
000260 d2 6d 58 3d d2 a1 a2 be de 20 93 bb 30 18 6d bd
       0.052839108 -0.31764084 -0.004490002 -0.057884395
000270 9f 25 47 be 3d 5a 13 3e 60 23 76 be b7 58 56 be
       -0.19447945 0.14389892 -0.24036932 -0.2093228
000280 2a c6 5b 3e fc 35 82 be d1 e0 b2 3e db 7e 31 be
       0.21462312 -0.25431812 0.34937146 -0.17333548
000290 1d 95 b4 be f6 02 53 be d8 cf ac be b6 21 8e 3e
       -0.35270014 -0.20606598 -0.33752322 0.27760094
0002a0 ab d8 4c be 80 4f 9a be 41 dd 5d 3e 4a a4 13 be
       -0.20004527 -0.3013878 0.21666433 -0.1441814
0002b0 aa 96 78 3e 39 dc 85 3e bc 3f f5 ba 50 bb 47 be
       0.24276224 0.2614458 -0.0018711011 -0.19505048
0002c0 cc 39 26 3e 04 84 0c 3e 4d d1 be bd 9f ec 67 3e
       0.16232985 0.13722235 -0.09317265 0.22648858
0002d0 d2 c5 9a bd ae 71 4b be f0 a1 98 bc b9 b6 2e 3e
       -0.075572625 -0.19867584 -0.018631905 0.1706189
0002e0 bb 0c 1f be b4 f9 b4 be 32 10 47 3e 15 ec b4 3e
       -0.155322 -0.35346758 0.19439772 0.35336366
0002f0 bf 38 5f be f4 8b 55 3e 25 e7 a8 be 0e 0c 8f 3e
       -0.2179899 0.20854169 -0.3298885 0.27938884
000300 57 20 8a be 59 82 20 be 51 26 68 3e a9 68 43 3e
       -0.26977798 -0.15674724 0.22670867 0.19082893
000310 21 b7 f8 bd fc 57 54 bd 21 0f 97 be bb 48 41 3e
       -0.12144304 -0.05184172 -0.2950373 0.188754
000320 90 76 b9 3c 6e 6b 88 be ea 0f 2c bd 8b 8c 50 3e
       0.022639543 -0.26644462 -0.042007364 0.20366113
000330 a2 41 af be f0 af 91 be 93 bd 7d 3e 6a 82 31 be
       -0.3422976 -0.28454542 0.24779348 -0.17334905
000340 05 34 fe bd c5 4f 82 bc 5c 72 a1 be 9a a1 99 3d
       -0.12412266 -0.015907178 -0.31532562 0.07501526
000350 4b e6 bd bc 51 aa aa 3d 04 41 4a bd b2 3a 9e 3d
       -0.023181101 0.083332665 -0.04937841 0.07726039
000360 d4 09 67 3e 5f 8f 83 bd 2f bd 8b be 51 f9 9a 3e
       0.22562343 -0.0642383 -0.27292773 0.30268338
000370 0f 5b 3a bd 61 c0 30 3e 3f f9 9b be 0c 22 a8 3d
       -0.045496996 0.17260887 -0.30463597 0.08209619
000380 bc 48 02 be c5 93 9d be ae e1 c6 bd 36 cc a6 bd
       -0.12723058 -0.30776802 -0.09711014 -0.08144419
000390 0c b4 64 be 9c 36 11 be 08 07 80 be 49 a2 80 be
       -0.22334307 -0.14180988 -0.25005364 -0.25123814
0003a0 93 4c 75 be b9 86 42 be 9c 04 08 3d 50 46 3f 3e
       -0.23954992 -0.18996705 0.03320752 0.18679166
0003b0 70 f8 91 3d ed ca bc bd e9 e2 b3 3e aa 91 ad be
       0.07127464 -0.092183925 0.35134056 -0.33900195
0003c0 40 99 8a 3e 0a 9f 08 bd 5b 40 70 be 68 29 a2 be
       0.27070045 -0.033354796 -0.2346205 -0.31672215
0003d0 59 a8 51 be 47 b8 bb be 2d 1c aa be 5b b5 71 3e
       -0.20474376 -0.3666403 -0.3322462 0.23604338
0003e0 ae c6 c5 bd bc 35 e0 be 60 13 80 be 01 86 f7 3d
       -0.09657036 -0.43790996 -0.25014782 0.12086106
0003f0 39 55 c0 be be f1 ce 3d 23 d4 6b be 30 29 92 be
       -0.3756502 0.101047024 -0.23030142 -0.2854705

lstm.weight_hh_l0 f4 [256, 64]
000000 9c 64 9a bd b2 7f af 3d 09 b7 21 be 28 d9 03 be
       -0.07538721 0.08569278 -0.15792479 -0.12875807
000010 d7 97 a0 3c 1c 03 86 be 63 95 0e 3d 37 e2 94 3d
       0.019603653 -0.26174247 0.034810435 0.072697096
000020 17 e5 af bd 15 6d c1 3d 54 2b ca 3e 1d 3f 03 3e
       -0.08588617 0.09444634 0.39486182 0.12817045
000030 3b 87 6b bd 13 c2 1e be 23 92 2e 3e 89 06 88 be
       -0.057502013 -0.15503721 0.17047934 -0.26567486
000040 58 67 84 bd 8c 6b 2e 3d ef 61 47 bb 70 57 c0 3d
       -0.06465024 0.042583033 -0.0030423363 0.093916774
000050 b7 75 07 be 6e 02 bc 3e 4e 92 8f be 1c ed 5f 3e
       -0.13228498 0.36720604 -0.2804131 0.21867794
000060 0d ac 2d 3d 50 3d 0b bd d8 cd f8 bc 4a b5 90 be
       0.04240041 -0.03399402 -0.030371591 -0.28263313
000070 bd 15 a8 bc e1 51 62 bd 34 33 15 3e 8b e7 5a be
       -0.020518178 -0.055253867 0.14570314 -0.21377389
000080 38 ec 1b 3c fb 6a 5f 3c d1 ac c7 3b 26 65 3b be
       0.009516768 0.013636346 0.0060935994 -0.18300304
000090 36 94 e0 bc 39 38 cf bc 94 51 35 3c 47 10 bb 3d
       -0.027414422 -0.025295364 0.011066813 0.09133964
0000a0 5d 60 5f 3d ec 86 c2 bc 31 e8 c0 3b 68 58 3f be
       0.05453526 -0.023745976 0.0058870544 -0.18686068
0000b0 6d 6f 52 3e 34 da 00 3d d0 31 9b be 7c 9c db 3d
       0.20550318 0.031458095 -0.3031144 0.107232064
0000c0 70 88 fc 3d d8 af 0c be 5f 2f 05 3e e3 34 ce 3c
       0.12330711 -0.13738954 0.13006352 0.025171703
0000d0 bd e8 a2 3b 21 e8 8e 3e 62 df 8a 3b 8d f6 b8 3e
       0.004971592 0.27911475 0.004238055 0.36125603
0000e0 13 4e c9 3d 49 b8 04 be 9c 54 2d be d8 b8 90 3e
       0.098293446 -0.12960924 -0.16926807 0.28266025
0000f0 cb 00 98 3d 75 72 d4 3c 68 c0 81 3a fe aa 26 be
       0.07422026 0.025933484 0.000989926 -0.16276166
000100 46 33 81 bc 37 f0 35 bd bc 96 45 3b 84 38 22 3c
       -0.01577152 -0.04441854 0.003014966 0.00990117
000110 9f ba db bd 49 73 e2 bd c3 0b b9 bd 11 37 b3 bd
       -0.107289545 -0.11057145 -0.090354465 -0.087507375
000120 b6 aa 3d 3d f6 79 19 3e 48 cf fc 3d 97 f2 26 3c
       0.04630538 0.1498793 0.12344223 0.010189674
000130 f8 4d c5 3c 61 fe c3 bc fe 79 ec 3d ca bb a5 3d
       0.02408503 -0.023925008 0.11546706 0.080924585
000140 f4 27 e7 3c 03 54 11 bd 66 0d 97 3d 50 a6 b9 3c
       0.028217293 -0.03548051 0.073756024 0.022662312
000150 1b 1f 0b be 22 bf b7 3c cd 1a 2a bd a8 4c 89 bc
       -0.13586085 0.022430006 -0.041529465 -0.016760185
000160 99 d2 8d bd 9a d4 80 3d 5c 77 01 be e8 8c ec 3c
       -0.06924934 0.062905505 -0.12643188 0.028875783
000170 69 e6 e0 3d 7d c2 14 be 16 f5 56 bd d7 f4 b7 bd
       0.10981447 -0.14527316 -0.052479826 -0.08982246
000180 89 72 d3 3d 9a d5 28 3d 3a 69 d1 bd ee b4 18 bd
       0.1032458 0.04121933 -0.102251485 -0.037281923
000190 aa f8 87 bd c4 e6 25 3d 53 b2 6d bd 38 0d 06 be
       -0.06639226 0.04050328 -0.05803139 -0.1309098
0001a0 d5 a9 c3 3d da 87 0b bd 14 47 ba 3c ee 9b c4 bd
       0.09553877 -0.034065105 0.02273897 -0.09600054
0001b0 b1 29 02 3e e7 8b 3e 3d da 7a d2 bd c5 27 0d 3d
       0.12711217 0.04652014 -0.10277338 0.034461755
0001c0 b8 2c 1b bd d4 6b c2 bd 02 3c a5 bd 8d f8 e6 bd
       -0.037884444 -0.09493223 -0.08068086 -0.11277876
0001d0 e3 e2 e1 3b bf 34 67 3e 74 18 0a bd 1b 0f 25 3e
       0.006893502 0.22578715 -0.033714727 0.16119044
0001e0 5d 2e a4 3b f9 60 f3 3d 43 e6 9a bc d7 73 83 bd
       0.0050104097 0.118837304 -0.018908625 -0.06418579
0001f0 1d 13 d5 3d 90 f8 20 3e fb 13 99 3c 66 42 84 bd
       0.10404036 0.15719819 0.018686285 -0.06457977
000200 4e f5 39 bc fc 32 98 3e ec b3 29 be 9e 9b 15 bd
       -0.011349989 0.29726398 -0.16572541 -0.03652536
000210 db 61 7b be e1 d8 ab 3d 43 b6 11 be b4 d5 af bc
       -0.24549048 0.08390976 -0.14229684 -0.021464206
000220 ea 83 2e 3d 46 10 80 bc d1 e0 f5 bd 31 2a 27 3d
       0.04260627 -0.01563276 -0.12005771 0.04081172
000230 7d 15 22 3d 83 b0 2c 3e 1a e5 a6 3d 15 d8 86 3e
       0.039571274 0.16864209 0.081491664 0.26336733
000240 8a 6f d5 bd f2 8b 93 3d 33 c8 51 3e 90 22 f7 bd
       -0.10421665 0.07204427 0.20486526 -0.12067139
000250 4d 43 7d be fd cb 2e be 84 d1 24 3d 12 40 e3 bd
       -0.24732704 -0.17070003 0.040238872 -0.11096205
000260 1a 2b b1 3b 29 ad 6c 3e 11 4e ad bd 46 1b 14 bb
       0.0054067494 0.2311293 -0.084621556 -0.0022599264
000270 b1 e9 9c 3b d9 f7 4d bd 89 92 b0 3e 4b 37 6e 3c
       0.0047886004 -0.050285194 0.34486797 0.01453955
000280 95 3e 21 be 9d ca 8c 3e b3 2c c8 be 6e e5 1a 3e
       -0.1574653 0.27498332 -0.39096603 0.15126583
000290 e8 df 93 3d 20 09 9b 3c d0 05 57 bc 1b b2 9b bd
       0.07220441 0.01892525 -0.013123944 -0.0760233
0002a0 f5 1a 63 3e 76 e1 84 3d c3 c6 ce 3a 6d 66 ad 3d
       0.22178252 0.06488316 0.0015775788 0.08466802
0002b0 d5 19 39 3d bc 26 18 be dd 5f 2e 3d 7b 61 06 3f
       0.04519065 -0.14858526 0.04257189 0.52492493
0002c0 5b e9 1a bc 79 aa 5e be 03 12 ae 3d 57 f0 c3 3b
       -0.00945505 -0.21744718 0.08499529 0.0059795785
0002d0 01 73 6c be 8e 4a 68 3e 66 c4 c4 bd 5d b4 f5 bd
       -0.23090746 0.2268469 -0.096077725 -0.11997292
0002e0 19 2f 4c 3e 32 50 7c 3e 1b 8d 46 be e7 0d 33 3e
       0.19939841 0.24639967 -0.19389765 0.17485772
0002f0 d8 ec 15 3e ae 1a 14 be 83 a6 6e 3e c8 68 97 be
       0.1464113 -0.14463302 0.23305707 -0.2957213
000300 56 02 07 3e 33 be 86 3e 7e 86 42 be 8d a8 33 be
       0.13184485 0.26316985 -0.18996617 -0.17544766
000310 54 26 be be 24 f1 d4 3d 2a 0d 0e be a0 97 a0 bd
       -0.37138617 0.103975564 -0.13872209 -0.0784142
000320 09 ef 13 3c 71 bf 5c bd c3 d1 f5 bd bd 73 09 be
       0.009029158 -0.05389351 -0.120028995 -0.13423057
000330 d0 42 c9 3d b3 76 98 3d 93 27 97 3d 82 58 38 3e
       0.098271966 0.07444515 0.07380595 0.18002513
000340 dd 42 17 be ea ef d9 3d c2 f8 87 3e 55 b8 b2 bd
       -0.147716 0.10641463 0.26556975 -0.08726565
000350 bd dc 08 bd b3 41 75 be 9a 77 33 3e 0e 88 b5 3c
       -0.033413637 -0.23950844 0.17526093 0.022159602
000360 71 52 e3 3b 26 29 22 3e aa 21 67 bd 2c aa eb 3d
       0.006937318 0.1583601 -0.05642859 0.11507067
000370 ad 6c da bd 43 3a 77 bd d1 3f 6e 3e 7d f0 d3 3c
       -0.106652595 -0.060358297 0.23266532 0.02587151
000380 1f d1 08 be 96 95 81 3e 59 81 c6 bd 33 80 b3 3d
       -0.13361023 0.25309438 -0.0969264 0.087646864
000390 75 ee 42 3e 78 3f 85 3e 52 58 04 3d ea 9b c3 bd
       0.19036277 0.26024985 0.03231079 -0.095512226
0003a0 5c 3f 12 3e 8b d0 e0 3c 9d 78 15 be bb 13 07 be
       0.14281982 0.027443191 -0.14596792 -0.1319112
0003b0 0e e4 19 bc 6f ae ff ba a9 55 06 be b3 67 c3 3d
       -0.009392751 -0.0019506941 -0.13118614 0.095412634
0003c0 dc 4d 0d 3d 15 6f c1 be 57 49 9b 3d f0 ac 12 bb
       0.03449808 -0.3778006 0.07582348 -0.002238091
0003d0 79 60 d1 be bd f6 37 3e e3 07 12 be 11 39 e9 bd
       -0.40893915 0.17965217 -0.14260821 -0.11387838
0003e0 e8 f5 7c 3e a8 7c 6d 3d 1b 16 95 be 2c d3 84 3d
       0.24703181 0.05798021 -0.29118428 0.0648559
0003f0 0d 29 ef 3d 65 b9 ba bd c4 e9 3e 3e a0 5c 1d be
       0.11677752 -0.091173925 0.18643862 -0.15367365

lstm.bias_ih_l0 f4 [256]
000000 bc 6d 25 3e ea ca 21 bd 5f e1 bd 3c be 63 1a 3e
       0.16155142 -0.039500155 0.023178754 0.15077111
000010 a6 22 d6 3d 45 dc 85 3e 99 97 20 bd fe 1e 11 3e
       0.104558274 0.26144615 -0.039207075 0.14171979
000020 ab 42 e5 b9 fa a8 29 3e a6 f1 38 3e 86 a0 30 3e
       -0.00043727955 0.16568366 0.18060932 0.17248735
000030 0d 0c 4e 3b 5c 59 71 3e 7b ad 11 3e a9 78 5b 3d
       0.0031440288 0.23569244 0.14226334 0.053581867
000040 e3 2c e1 3d 8c b4 93 3e 35 8a eb bb d9 8d 2c 3e
       0.109948896 0.28848684 -0.0071881064 0.16850986
000050 a7 18 00 3e 28 3b 64 bc db 65 1a 3d b5 e6 2d 3e
       0.12509404 -0.01393012 0.037694793 0.16982539
000060 6a 8a 24 bd d5 4d 9c 3c 9a e3 dd 3c f2 12 1e 3e
       -0.040171064 0.019080082 0.027086068 0.15436915
000070 27 91 4a 3e a5 ac 43 3e 9d 0d 1d 3e 78 51 82 ba
       0.19781934 0.19108827 0.15337224 -0.0009942492
000080 ad 76 01 3e 8a a8 9f 3c e1 05 29 3e d6 f6 ac 3d
       0.12642927 0.019489545 0.16506149 0.08445518
000090 bd 6f 78 3d e1 aa 53 3e c8 b0 83 3e 65 de a6 3e
       0.060653437 0.20670654 0.2572081 0.3259155
0000a0 f6 34 ba 3d 7d 8c 15 3e 8e c2 6b bb 36 11 40 3d
       0.09092133 0.14604373 -0.0035974118 0.046891414
0000b0 32 5e 91 bb f2 60 22 3e 70 01 84 3e 1a 39 19 3e
       -0.004436278 0.15857294 0.25782347 0.14963189
0000c0 d9 2a 21 3e 93 b1 9b 3c 29 9c ba 3d 7d 87 34 3e
       0.15739001 0.019005572 0.091118164 0.1762981
0000d0 67 8e 2d 3e 34 36 c0 3d f8 58 2d 3e 2a f2 3e 3b
       0.16948853 0.093853384 0.1692847 0.002913604
0000e0 76 ec e5 3d 8c ed 22 3e 42 ed 31 3d 7c 1a 24 3e
       0.11226742 0.1591093 0.043439157 0.16025728
0000f0 94 65 32 3e 81 8c b9 3d dd d7 ce 3d 8e 6e d6 3d
       0.17421561 0.09060002 0.100997664 0.104703054
000100 b8 e9 bf bc 29 62 b9 bd b8 cf 47 3d 29 e6 ef bb
       -0.023426875 -0.09051926 0.04878208 -0.0073211384
000110 4c 2e c0 bd de 0b 93 bc 25 90 e2 bc e7 6b 07 bd
       -0.093838304 -0.017949995 -0.027656624 -0.033061888
000120 ed 44 14 3d 22 6f 64 bd 3a d8 f0 bc 22 ba 02 3e
       0.036198545 -0.055770047 -0.02939998 0.12766317
000130 75 cb 50 bd 7a 7c 00 be 05 f5 f5 3d 84 15 ca bd
       -0.05097528 -0.12547484 0.120096244 -0.09867385
000140 34 7e bb 3c ff 6f b6 3d b0 22 21 bd 67 50 8c 3d
       0.022887327 0.0890808 -0.03933972 0.06851273
000150 31 32 83 3c ca 4c 0b be 0b 6f bd bd 09 ab b1 bd
       0.016015144 -0.13603511 -0.092496954 -0.086752005
000160 73 51 9f 3d 3e 65 98 bc 6f 8b e5 3d 34 9e 41 3d
       0.07779207 -0.018602964 0.112082355 0.047270015
000170 6f aa 1d 3d 85 6e 41 bc 46 87 c3 3d 0e 23 90 3d
       0.038492616 -0.011806135 0.09547286 0.07037936
000180 11 cd 3c bd d5 01 05 3e 07 d2 a3 3d df ef 03 3e
       -0.046094004 0.1298898 0.07999044 0.12884472
000190 31 a7 dc 3d 52 3b 08 3d ff ab d0 3d 52 db 35 be
       0.10774077 0.033259697 0.10189056 -0.17759445
0001a0 0a 30 92 3d 33 26 ac bd f8 74 3a 3d d8 9c 5c 3e
       0.07138069 -0.084057234 0.045521706 0.21544206
0001b0 e7 84 10 bb c9 fe 36 bd a8 58 97 3d fb d3 a2 3c
       -0.0022051872 -0.044676576 0.07389957 0.01987647
0001c0 04 57 27 3d a5 b7 fa 3d 5a 36 24 3e 2a 20 d6 bd
       0.04085447 0.12242059 0.16036358 -0.104553536
0001d0 9d 4a b3 3d c1 b6 eb bc df 40 9f 3d a5 e8 e4 3d
       0.08754466 -0.028773667 0.07776045 0.11177186
0001e0 4e 41 3d bd 94 df 7f 3d 7c 7e 8a 3d 95 a1 c5 bd
       -0.046204858 0.06246908 0.06762406 -0.0964996
0001f0 97 60 7f 3e 56 4d 94 3d 44 30 93 3d da 9f 33 3d
       0.2493919 0.07241313 0.0718694 0.04385362
000200 a8 d2 27 3e ff 69 58 bd ac 98 de bd 5b ff cc 3c
       0.16388953 -0.05283546 -0.108689636 0.025024107
000210 ca 14 ca bd 84 b1 7b be e3 f1 17 be 1b d7 25 3e
       -0.098672464 -0.24579436 -0.14838366 0.16195337
000220 aa 54 1b be b9 f0 be bd 92 14 fa 3d d6 8e d9 3d
       -0.15169016 -0.09323258 0.12210955 0.10622947
000230 9d 0c 5b 3d 4f ee 77 3c 93 ff 57 3e bf e6 3b bd
       0.053478826 0.015132501 0.21093588 -0.045874353
000240 eb 04 02 be 0a 4f e2 3d 7b 0d ef 3b 3e 27 28 3c
       -0.12697189 0.11050232 0.007295308 0.010263262
000250 d8 50 ba bc d5 6c 2b 3c 4f f3 9d 3b 74 71 f7 3d
       -0.022743627 0.010462959 0.0048202644 0.12082186
000260 f0 4a a5 3d 4f ae f9 3b 67 f3 db bd 4a c8 28 be
       0.08070934 0.007619656 -0.10739785 -0.16482654
000270 aa 23 18 bd b1 5d 7c bd cf 37 ea 3d e8 45 eb bd
       -0.037143387 -0.06161279 0.11436426 -0.11487943
000280 5e fd be 3d b6 75 9c bb c9 61 d0 bd 86 20 f7 bd
       0.0932567 -0.0047747744 -0.10174901 -0.1206675
000290 51 14 ff 3d a9 82 12 3c c7 30 3e 3e 89 2f 0d bd
       0.12455047 0.008942285 0.18573295 -0.03446916
0002a0 82 81 31 3e 2b e3 8f bc ca 4c 91 3c ab ad 55 bd
       0.1733456 -0.017564377 0.017736811 -0.052167576
0002b0 7e f8 c8 3d 74 ee 25 bd 17 b9 41 be 91 56 8f 3d
       0.09813021 -0.04051061 -0.18918262 0.06998933
0002c0 b0 0c 1b 3e 0d 9c 9f bd d5 e1 42 3d 8a 08 f2 bd
       0.15141559 -0.07793436 0.04757865 -0.11818035
0002d0 07 5a 8d 3d 94 e0 bd 3d fb b6 46 3c 1a d3 f6 3d
       0.06901937 0.092713505 0.012128587 0.12051983
0002e0 b1 7b 58 3d 53 89 99 bd df f2 52 bd 2f 45 f8 3d
       0.052852336 -0.07496896 -0.05150115 0.12122571
0002f0 87 e4 9f 3d 45 37 c8 3d 6d ea b5 3d b4 52 da bd
       0.0780726 0.09776167 0.08882604 -0.106603056
000300 71 4b 16 3e 52 a0 86 bc 6d 77 33 3e a3 d9 11 bd
       0.14677216 -0.016433869 0.17526026 -0.035607945
000310 20 e4 9f 3c 85 b8 88 3e 66 24 5f 3e e2 c1 09 3e
       0.019517958 0.26703277 0.21791229 0.13452867
000320 d3 5c db 3d 8f b8 e8 3d 0d 78 37 3e 04 59 31 3e
       0.10711064 0.11363327 0.1791689 0.17319113
000330 22 9f d0 3c 39 f6 b3 3e 77 ac 40 3e 39 55 1f 3e
       0.025466505 0.3514879 0.1881579 0.15559854
000340 79 c4 d2 3d 70 6a 56 3e 1b 97 49 3c bf d4 bd 3d
       0.102913804 0.2093904 0.012304093 0.09269094
000350 64 6e 10 3c 71 e2 93 3a 99 be 03 3d 25 7e b9 3d
       0.008815382 0.0011282695 0.03216419 0.09057263
000360 87 de cb bb 33 fa a0 3d ac c4 2b 3e 7c 46 87 3b
       -0.0062215957 0.07860222 0.16774243 0.0041282754
000370 8e 32 cf 3d f0 51 06 3e c0 a5 97 3d 2d 68 ed 3d
       0.101170644 0.13117194 0.07404661 0.115921356
000380 3c 7e 82 bd ce ba a3 3d e3 88 36 3e 31 7e 5e 3e
       -0.063717335 0.079946145 0.17825656 0.21727826
000390 5e 02 ff 3d 3a bb 71 3d c1 b9 31 3e bc d8 26 3e
       0.124516234 0.059016444 0.17356016 0.16293615
0003a0 2d 27 98 3d 0d 1b e1 3d 7e 81 b1 bc b1 d6 5e 3d
       0.07429347 0.10991488 -0.021668192 0.054403964
0003b0 6d 3f 3c 3e 88 23 14 3d de b0 06 3e 83 52 1c 3d
       0.1838357 0.036166698 0.13153407 0.038164627
0003c0 32 6b 8d ba a2 41 30 3e 04 82 95 bd e4 56 db 3d
       -0.0010789393 0.17212537 -0.07300189 0.107099324
0003d0 32 72 41 3e 7c 3e 2c 3e d4 00 31 3d 5b bd 9a 3d
       0.18891218 0.16820711 0.04321368 0.07555648
0003e0 16 97 85 3d b4 15 73 3e 1b 29 0e 3b a5 92 29 3e
       0.06522958 0.23738748 0.0021691981 0.16559847
0003f0 36 b9 11 3e 06 8d 07 3c dc 98 17 bd d8 4b 98 3d
       0.14230809 0.008273369 -0.037011012 0.07436341

lstm.bias_hh_l0 f4 [256]
000000 ae b2 1c 3e 06 c0 dd bc 98 8e 62 3e 6a f7 53 3c
       0.15302536 -0.027069103 0.22124708 0.012937406
000010 90 3d 9d bc cc 40 a9 3e 76 44 b0 3d f2 e4 b3 bc
       -0.019194394 0.3305725 0.08606808 -0.021959756
000020 0a bc 09 3e 8d 3e 8d 3e bc f0 f7 3d ac ce 27 3c
       0.13450637 0.27586785 0.12106463 0.0102421455
000030 31 f8 c5 3b e4 15 ae 3e 29 ca 19 3e ba 3e 4a 3e
       0.0060415496 0.34001076 0.15018524 0.19750491
000040 14 fb 33 3e 06 75 59 3e 54 5a f6 bb 4f d2 33 3e
       0.17576247 0.21236047 -0.007518092 0.17560695
000050 cf 68 b1 3d df 12 d3 3d 73 e7 02 3d 0d f5 f9 3d
       0.08662569 0.10306334 0.03195901 0.12204943
000060 ff 8b c9 bd 2a 6c 63 3e 60 40 1a 3e d1 30 ba bc
       -0.09841155 0.2220923 0.1506362 -0.022728356
000070 ab e6 64 3e fd 4f 50 3e df ad 1b 3e 8f 50 38 3e
       0.22353618 0.20343013 0.15203045 0.1799948
000080 aa 6a 8e 3d 95 69 4b 3d 30 5f 49 bb 63 9f 6e 3e
       0.06953938 0.049661238 -0.0030726902 0.23302989
000090 a5 1c 26 3e 1f 62 01 3e d4 04 a6 3e 7f d6 12 3e
       0.16221865 0.12635086 0.3242556 0.14339636
0000a0 9a 5b 3b 3e 1a d6 e9 3d f1 0c d2 3d 30 3a 0b bc
       0.18296662 0.1141779 0.102563746 -0.00849776
0000b0 2c 44 13 3c 7a 70 20 3d bb d3 55 3d 59 63 fc bc
       0.008988421 0.039169766 0.052203875 -0.030809091
0000c0 e6 e5 1f bd d4 fe 72 3d e5 ee db 3d 35 f3 21 3e
       -0.039037608 0.059325054 0.10738925 0.15815432
0000d0 e1 3f 9a 3e 4a 8e 50 3d 76 51 e5 3d 36 2e f8 3d
       0.3012686 0.050916947 0.11197178 0.12118189
0000e0 e1 4a 74 bd 06 71 7b 3e a9 7e a5 3d a6 65 7c 3e
       -0.059641723 0.24554834 0.08080799 0.24648151
0000f0 11 30 5e 3d b1 fd b6 bc 0c 4c da 3c d7 1b 08 3e
       0.05424506 -0.022337766 0.02664759 0.1329187
000100 50 b4 b9 3d 77 21 d5 bd 8c 4c 17 bd aa 80 c2 bd
       0.09067595 -0.104067735 -0.036938235 -0.09497197
000110 60 5a 85 3d 9a 18 06 3e cb 33 fc bc 12 3a 99 3c
       0.06511378 0.13095322 -0.030786416 0.018704448
000120 3c e7 37 3e fb 66 09 3e 58 b8 9e 3c 95 b1 ff 3d
       0.17959303 0.1341819 0.019375011 0.12485043
000130 d1 29 3f 3d 0e 92 d9 bd e5 9b ba 3d 58 dc be bd
       0.04667074 -0.10623561 0.09111766 -0.09319371
000140 7a dd 11 bd 69 b6 81 3d 1b 3d df 3d a6 c9 2a 3c
       -0.035611607 0.0633362 0.10900327 0.010424053
000150 44 f2 4d bd b9 b8 3a bd c2 73 22 3d d5 93 de bd
       -0.05027987 -0.04558632 0.039661177 -0.108680405
000160 5b 61 32 3d f0 3c b3 3c 49 00 04 3d 4a 1a ed 3c
       0.043549877 0.021879643 0.032226834 0.0289432
000170 9e bb ce 3d 52 40 94 bc ff 17 e8 3d c2 24 86 3d
       0.10094379 -0.018097077 0.11332702 0.0654998
000180 38 bf 84 bc c9 92 33 bc 59 cc 0e 3e c8 2c 0f 3d
       -0.016204461 -0.010960289 0.1394514 0.034954816
000190 eb 21 75 3d a3 6a 0a bd 44 47 00 3e 1e 8c 4d be
       0.0598468 -0.033793103 0.12527186 -0.20072982
0001a0 a7 48 07 bd 4a 1f 76 bd f0 ec fa 3d 09 f6 d5 3d
       -0.03302827 -0.060088433 0.122522235 0.10447318
0001b0 6c c2 fd bc 49 f5 8c 3d bc 67 53 3d 84 c7 74 3d
       -0.030976497 0.06882722 0.0516126 0.059760585
0001c0 1b 4e 0c 3e c3 a7 9e 3d ea 03 73 bc 93 c4 05 3e
       0.1370167 0.07746842 -0.014832476 0.13063268
0001d0 7a 51 74 3d 96 16 15 3e 65 4c 22 3c 97 71 b7 bd
       0.059648015 0.14559397 0.009905909 -0.089572124
0001e0 92 ce 87 bc fb 14 e9 bd 6a bc cb 3d 7a 03 04 bd
       -0.016577993 -0.11380955 0.099480465 -0.032229878
0001f0 1a ee 83 3e c3 54 27 3d 86 f5 df bd 33 a0 06 3d
       0.25767595 0.04085232 -0.10935502 0.03286762
000200 96 09 2e 3e b9 07 b0 3d 0c 06 27 bd 15 c8 58 3c
       0.16995844 0.08595223 -0.04077725 0.013231297
000210 84 89 ec 3d 44 2a 79 be f9 82 39 3c 5f 2d 91 3d
       0.115496665 -0.2433253 0.01132273 0.07088732
000220 64 49 14 be 79 84 8a 3d 83 a8 7f bd 38 99 76 bd
       -0.14481121 0.067635484 -0.062416565 -0.060204715
000230 f4 4f 89 bd b1 c2 db 3d 83 8a 57 3e 6b 27 2e be
       -0.06704703 0.10730494 0.21048932 -0.17007224
000240 c9 18 0e be 3c bc 32 3d 9b d7 2e bd 26 ee ad 3d
       -0.13876642 0.043636546 -0.042686086 0.08492689
000250 05 23 2e 3d 92 7f cb 3d d1 71 88 bc 1a 4b 8c 3d
       0.042513866 0.099364415 -0.016655834 0.06850262
000260 0a b7 c6 3d a7 4f 98 3d 14 b3 1d be 7b 1b 16 bd
       0.09702881 0.074370675 -0.15400344 -0.0366473
000270 92 4a 17 be 78 27 bd 3d 21 27 b5 bd 69 2c b7 bd
       -0.1477454 0.09236044 -0.08845354 -0.089440174
000280 b6 ef 5a 3c 92 ae 1c 3e 98 dc 60 bc 79 6d 34 be
       0.013362816 0.15300968 -0.013724469 -0.17619886
000290 b5 80 f5 3d c5 a7 03 3d f2 3f e1 3d c5 1b 9a bd
       0.119874395 0.03214242 0.10998525 -0.07524828
0002a0 64 4c 29 3e a3 a8 30 bc f2 24 41 3d 4f 1a c8 bd
       0.16533047 -0.010782394 0.047154374 -0.09770643
0002b0 0e 97 00 3e d2 95 fe bd 17 6c 47 be 6f 23 0d be
       0.12557623 -0.1243092 -0.19474827 -0.13783048
0002c0 66 8d 96 3d 1e f8 19 3e b1 77 c9 bd 38 b8 bb 3d
       0.07351188 0.15036055 -0.098372824 0.09165996
0002d0 ed 6f 29 bd 72 97 9d bd 60 ef f3 bc ab 98 3d bd
       -0.041366506 -0.076949015 -0.029777229 -0.046288174
0002e0 e0 28 ba 3d 8f d5 99 bc 18 89 1b be 7f 52 ea 3d
       0.090898275 -0.01877859 -0.15189016 0.11441516
0002f0 e7 d5 06 3e d9 8a e3 3d b9 58 08 3c 06 8c 16 3d
       0.13167535 0.111104675 0.008321934 0.03675463
000300 ce ed a2 3d 4a dc 1a 3e b5 e8 0c 3e 75 e7 0e 3d
       0.07955514 0.15123096 0.13760646 0.034888703
000310 ea f9 8b bc e5 53 92 3e 74 fc 01 3e 02 0a 0a bc
       -0.017086942 0.2857963 0.1269396 -0.008425238
000320 21 a5 17 3e 90 18 53 3e 0b 4d 38 3d aa 44 a7 bc
       0.14809085 0.20614839 0.04499535 -0.020418484
000330 91 53 25 bd 78 ea aa 3e 7d 9c c4 bc 9d 85 0a 3e
       -0.0403629 0.3338201 -0.0240004 0.13527532
000340 c3 5d c1 3d c7 77 a8 3e 83 be 76 bd 22 ca 15 3e
       0.09441712 0.32903883 -0.06024028 0.14627889
000350 1b 7b d9 3c 90 0d db 3d e7 dd a6 3d 86 36 89 3d
       0.02654796 0.10695946 0.08147793 0.06699853
000360 79 db 8a 3b 4c f9 19 3c 65 29 2e bd 2f 3e 19 bc
       0.004237589 0.009397816 -0.042519946 -0.009353205
000370 d3 38 de ba 5b 9e 19 bc 2d f5 61 3d f3 6e 03 bd
       -0.0016954191 -0.009376134 0.05516546 -0.03208823
000380 5f 26 09 bd 20 78 d8 3d 5e e4 11 3e 0a c0 45 3e
       -0.03348386 0.10569787 0.14247271 0.19311538
000390 8d 47 5c bc d5 40 58 3e 5a 1c 77 3e 62 42 85 3e
       -0.013444793 0.21118481 0.24131909 0.2602721
0003a0 b7 34 bb 3d e6 77 88 3d 12 e1 6f 3d bb ee 1f 3d
       0.09140914 0.06663494 0.058564253 0.03904603
0003b0 f4 16 3b 3e ee 3e 26 3e 13 8e 1b 3e 18 fd fe 3d
       0.18270475 0.16234943 0.15190916 0.124506176
0003c0 38 ba a0 3d 00 39 61 3e 76 63 b9 3b 74 a4 81 3d
       0.078480184 0.219944 0.0056576086 0.06330195
0003d0 e2 8e c3 3d 9f 4d ed 3b bf 8f 02 3e a6 9f ff 3d
       0.09548737 0.007241919 0.12750147 0.124816224
0003e0 80 a1 08 bb 00 ba 40 3e ae 0d 14 bd 17 62 07 3e
       -0.0020848215 0.18820953 -0.03614586 0.13221012
0003f0 4a 03 50 3e 9c 22 fe bc 55 05 92 3d e7 d2 c3 3d
       0.20313755 -0.031022362 0.07129923 0.09561711

lstm.weight_ih_l1 f4 [256, 64]
000000 ec 9f c2 bd 7c 49 df 3d 5d 87 e2 3d c2 44 12 3e
       -0.09503159 0.10902688 0.11060975 0.14284042
000010 ef 52 84 bc 8f 91 01 bd 34 aa 72 3d f6 ea fa bc
       -0.016152827 -0.031632956 0.05924435 -0.030629616
000020 3f 47 d6 bd e9 9c 2b 3e b0 27 84 3d a8 d4 48 bd
       -0.10462808 0.16759075 0.06452882 -0.04903093
000030 ee 6f 8f be 98 81 40 be d4 e8 1c 3e 6e 70 4f 3c
       -0.28015083 -0.18799436 0.15323192 0.012661083
000040 58 eb 19 be 4c e0 83 bc fa fc 77 3c 17 10 2b 3d
       -0.15031183 -0.016098164 0.015135998 0.04176339
000050 11 b5 53 3d 79 52 72 3d e3 b6 43 bd 87 a8 f8 3c
       0.05168635 0.059160683 -0.047781836 0.030353798
000060 4a 32 a2 3d 1d 12 86 bd 2b d0 09 be 2f 10 4f bd
       0.07919748 -0.065464236 -0.13458316 -0.050552543
000070 3f c2 a3 3d 8d 9e a2 3c ab 9d 33 bd eb 56 f8 bd
       0.07996034 0.019850994 -0.043851536 -0.12125953
000080 96 df eb 3c 16 f0 9c bd 33 fe 28 bd c3 08 b1 bb
       0.028793138 -0.0766298 -0.04125805 -0.005402656
000090 74 e9 84 bd 64 ee 0d be de df d6 3c 60 3f 67 bd
       -0.0648984 -0.1386047 0.026229795 -0.056456923
0000a0 de 41 37 bc 6a 81 56 3d b3 60 3a 3c 78 37 16 be
       -0.011185138 0.052369513 0.011375594 -0.14669597
0000b0 fe c0 b0 bc d5 20 74 3d 01 c5 4c bd 70 f7 18 3e
       -0.0215764 0.059601624 -0.049992565 0.1493814
0000c0 a7 3d 2d 3e ef f0 2c bc f8 0d ec bd dd 3c b7 3d
       0.1691805 -0.01055549 -0.11526102 0.089471556
0000d0 6d 20 f8 bd 24 75 7b 3e 87 97 84 3e 62 dd 05 3e
       -0.1211556 0.24556404 0.25896856 0.13072732
0000e0 69 e3 3b bd 88 1c 82 bd e3 df 43 bd b9 8c d3 bc
       -0.045871172 -0.06353098 -0.047820937 -0.025823938
0000f0 99 16 2b 3d d4 6c 1c 3e e3 56 44 3d cc 77 ca bc
       0.041769598 0.1527589 0.047934424 -0.024715327
000100 2a 84 e6 3d 8e 11 6b 3d ed 53 86 3d a1 62 a2 3d
       0.11255677 0.05738979 0.06558976 0.07928968
000110 27 3b 9a bd 96 16 8a bd db ba 0d 3c d1 29 4f 3d
       -0.07530814 -0.06742589 0.008650507 0.05057699
000120 4b ba fe bd ff cc df 3d 3f 39 6a bd 3a 24 dc 3b
       -0.12437876 0.10927772 -0.0571835 0.0067181857
000130 51 c3 79 bd 9a ad fa bd 3a ec 25 3e 1c 02 d0 bd
       -0.060977284 -0.12240143 0.16203395 -0.10156652
000140 61 20 25 be 9d 81 8d bd eb 5b 27 bd 09 4a 64 bd
       -0.16125633 -0.069094874 -0.040859144 -0.055734668
000150 10 c4 37 be 31 f2 c4 3d 16 93 c7 bd 19 18 00 bb
       -0.17945886 0.09616507 -0.09744851 -0.0019545613
000160 b4 8e c0 3d f6 ac 90 3d d0 b1 95 bd bf ca 1a 3b
       0.094022185 0.0706424 -0.07309306 0.0023619381
000170 ff 5f 27 3e d0 3e c8 bb 40 f6 bb 3d 36 e8 15 3d
       0.16345213 -0.0061110035 0.09177828 0.036598407
000180 47 e7 0e 3d b8 66 89 3d 1b 85 e9 bd 9f 16 19 bd
       0.034888532 0.06709045 -0.11402341 -0.03737509
000190 50 c6 94 3d b5 03 0b be e8 57 ae 3d 78 f5 38 3d
       0.072643876 -0.13575633 0.085128605 0.045155972
0001a0 de 9a 65 3c 0e 2f 66 bd 0a e5 4e 3d 50 5d 11 be
       0.014013974 -0.05619722 0.050511397 -0.14195752
0001b0 47 a1 aa bd e4 5b 15 3e 76 79 24 be a6 0c 8c bd
       -0.083315425 0.14585835 -0.16061959 -0.0683835
0001c0 3c 7a 90 3d 13 6a 86 3d 7a 39 70 ba e3 b4 08 3c
       0.07054564 0.06563201 -0.0009163838 0.008343908
0001d0 99 9a 10 3d ba bb 6a 3e 4b eb 39 3d d0 b9 94 3d
       0.035303686 0.22923175 0.04539041 0.072620034
0001e0 3c fd 4f 3c 7d 60 d5 3c 61 8a 83 bd 41 d1 86 3d
       0.012694653 0.026046986 -0.06422878 0.06582881
0001f0 13 e2 37 bd 8a 47 92 bd f1 b2 14 3e 0d 97 aa 3d
       -0.044893336 -0.07142551 0.14521386 0.08329592
000200 a7 83 5e 3e 2a 85 41 3e c7 5f 30 3e 6b 83 59 3e
       0.21729909 0.18898454 0.17224036 0.21241538
000210 27 b6 37 be d0 ae b5 3e 1a 41 fa bd bb 25 90 3c
       -0.1794058 0.35484934 -0.122194484 0.017596116
000220 0e 61 25 3d 10 38 bd 3e e8 2b 96 be 2f ef 5c 3d
       0.04037576 0.36956835 -0.29330373 0.05393904
000230 fb 5e 68 bd e7 40 1f 3f 4a 50 3b bd 5c 05 d6 3e
       -0.056731205 0.6220841 -0.045730866 0.41800964
000240 13 1a 81 be a1 f3 1e 3f d3 1f 6c 3e 61 bd b2 3d
       -0.25215206 0.620905 0.23059015 0.087275274
000250 86 f6 f5 3c 58 ca 2d be f9 dc a1 3e 8d ba 45 be
       0.030024778 -0.1697172 0.316139 -0.19309445
000260 ac ba 6c 3d a4 31 7a 3e 0c 19 a5 bd 11 a2 e7 bd
       0.05779521 0.24432999 -0.08061418 -0.113102086
000270 60 f2 8b 3e 9e d3 93 3e 4c 26 11 3e 5a 4a c0 bc
       0.27333355 0.2887239 0.14174765 -0.023472954
000280 e4 ff a3 be e1 03 5b 3e b8 87 57 be d4 f7 9a 3d
       -0.32031167 0.21388198 -0.21047866 0.07566801
000290 97 93 76 3e 18 22 11 3e 60 fd 6e 3e 6e 0e e5 be
       0.24079739 0.14173162 0.23338842 -0.4473757
0002a0 46 80 65 3e 8d 2c d5 3e c2 df 87 bd 12 73 0a be
       0.22412214 0.41635552 -0.06634475 -0.13520458
0002b0 85 ac 70 be 49 d1 8c be 9f 4a a7 bd 89 b4 03 3e
       -0.23503311 -0.27503422 -0.0816853 0.12861837
0002c0 ec bc 18 be 4f 5a 52 be 57 54 57 3e ac d8 c8 be
       -0.14915818 -0.20542262 0.21028267 -0.39227808
0002d0 be 5f 59 3e 9d fe 22 3e 66 69 84 be 62 52 4b be
       0.21227929 0.1591744 -0.25861663 -0.19855645
0002e0 c4 8b 2a 3e 33 5a 05 3e 1c 40 a7 bd eb a0 be be
       0.16654879 0.1302269 -0.08166525 -0.37232146
0002f0 90 1b 12 3e 60 d5 61 be fa 10 80 3d 63 da b8 be
       0.14268327 -0.22054052 0.06253238 -0.36104116
000300 7e 99 55 bd d1 10 14 3e dc 20 02 3e af 53 b7 39
       -0.052148335 0.1445954 0.12707847 0.0003496683
000310 57 ad 23 3d 46 87 b8 bd 92 88 d0 bc 1b 26 01 be
       0.03996023 -0.09010176 -0.025455747 -0.12612192
000320 48 56 51 be 1a bf fa 3d f4 ed e7 3d e4 ce a5 3d
       -0.2044307 0.12243481 0.11324683 0.08096102
000330 ee 1b c8 bd 69 58 f4 bd ff 29 d5 bc 8e 8b 2c 3c
       -0.09770952 -0.119309254 -0.026021002 0.010531319
000340 54 01 18 bd 0f 3b c6 3c d5 dd 18 bc 25 1f 05 be
       -0.03711064 0.024198083 -0.009330233 -0.13000162
000350 8c 4d aa 3c 00 58 0c 3e b7 2e a8 3d fa 60 a1 bd
       0.02078893 0.13705444 0.08212035 -0.07879825
000360 23 14 94 bd f8 4f 46 3e 81 fa 5b 3a 64 cb a7 3c
       -0.07230403 0.19366443 0.0008391515 0.020482726
000370 5c 2f a1 3d d9 25 b5 3d 82 99 ba 3d 96 94 f7 bd
       0.07870361 0.088451095 0.091113105 -0.120888874
000380 f5 5b 2d 3d 16 ec 2c 3d 2d cc 9b 3c ff 31 de 3c
       0.042324025 0.042217337 0.019018257 0.02712345
000390 37 a3 e6 3d 44 dc 62 bd 14 40 13 3e 1d b7 e8 bc
       0.112615995 -0.055385843 0.14379913 -0.028407628
0003a0 5c 17 e3 3d c0 1d 14 3e 75 b0 b9 3c 7c c4 12 3d
       0.1108844 0.14464474 0.02266715 0.035831913
0003b0 92 7c 0e be 1b 51 99 3d 04 03 17 be ad 6a 4d 3e
       -0.13914707 0.07486173 -0.14747244 0.20060225
0003c0 cf 2f 1c bd ea 9e 42 be ec 4e 07 bd 2d d9 ef bd
       -0.03813153 -0.19005933 -0.03303425 -0.11711345
0003d0 7c 01 aa bd 3a 32 4c 3e bc 27 73 bc 02 e9 ca 3d
       -0.08301064 0.19941035 -0.014841016 0.09907724
0003e0 10 1a 91 3d 99 46 ca 3d 88 6b 76 bc 5c 0b 88 3d
       0.07085049 0.09876747 -0.015040286 0.06642792
0003f0 a2 cf 27 3e d5 ca 21 3e 22 dd 71 bc eb fa 04 3d
       0.163878 0.1580003 -0.014762195 0.032465857

lstm.weight_hh_l1 f4 [256, 64]
000000 13 e4 ed 3c 41 bd 31 bd a5 5e 24 be fd 6c 09 bd
       0.029039418 -0.043393377 -0.16051729 -0.033551205
000010 1d 8c b4 3d 49 1e 6d 3e 49 37 f1 3d 9a e8 20 be
       0.08815787 0.23156084 0.11778123 -0.1571373
000020 1c 7b a7 3d ee 2f fe 3c c8 af 26 be 2a 79 8e 3c
       0.08177778 0.031028714 -0.16277993 0.01739176
000030 d4 af 57 3e 8f ce 7f bd 30 97 3b be 98 4f e4 bd
       0.21063167 -0.06245285 -0.18319392 -0.11147994
000040 04 b4 fd bd 1b f8 d5 3d 5f 05 de ba ed 6b 72 bd
       -0.12387851 0.10447713 -0.0016938857 -0.059184957
000050 f4 31 7f bd dd 63 38 3e a0 6b 19 be 63 61 3c 3e
       -0.0623035 0.18006845 -0.14982462 0.18396525
000060 55 d4 88 3d 60 1c 16 be 75 6b 94 be bb 22 72 3b
       0.06681124 -0.14659262 -0.28988233 0.003694697
000070 61 56 0e 3e e6 1c 89 3e 8c e9 17 3e 3b 9a 47 3c
       0.13900138 0.2677986 0.14835185 0.0121827675
000080 6f 32 2c be 44 12 c8 bd ab 11 88 bd 10 57 55 3e
       -0.16816114 -0.09769109 -0.06643995 0.20833993
000090 18 c3 1d be 78 c6 fb bc 2d 22 21 3c a7 d5 2d 3e
       -0.15406454 -0.030734286 0.009834808 0.16976033
0000a0 1e bd cf bd ef 70 67 3d 08 57 e4 3c e1 ac 18 3e
       -0.10143493 0.056504186 0.027873531 0.14909698
0000b0 0a 36 87 3c 7e eb b9 bd af 71 ca bc ad c0 30 3e
       0.01650526 -0.0907812 -0.024712412 0.17261
0000c0 be e8 db 3c 73 c0 73 bd 2a f0 d5 bd fa e2 2d be
       0.026844379 -0.059509706 -0.10446198 -0.16981116
0000d0 66 04 22 be df 29 77 bd b3 df 62 bc 00 a7 a5 3c
       -0.1582199 -0.060342666 -0.013847279 0.020221233
0000e0 6c 57 13 bd 20 bd c4 3d 40 3f ca bc cd 7b 41 be
       -0.035972044 0.09606385 -0.024688363 -0.18894883
0000f0 b7 d5 0b be e7 c5 03 bd eb b1 3f bd 33 e9 1b bd
       -0.13655744 -0.032171156 -0.046800535 -0.038064193
000100 26 fd 91 bd 91 61 f5 3d 90 04 e2 bd 3a 75 28 3d
       -0.07128362 0.119815 -0.110360265 0.04112742
000110 6e 20 f5 bd 82 08 5b 3a bd 36 08 be 3b 83 7e be
       -0.11969076 0.0008355455 -0.13302131 -0.24854748
000120 ee 01 81 3d 93 a8 ed 3d 5d b4 95 bd 4b f4 80 be
       0.06299196 0.116044186 -0.07309792 -0.2518638
000130 d9 3a cb 3d 03 c9 0c bd 78 c5 bb 3d 01 db 46 3d
       0.09923334 -0.034371387 0.091685236 0.048548702
000140 12 2d 08 3d 83 64 66 be 50 53 26 be 23 40 cb bc
       0.033246107 -0.2249928 -0.16242719 -0.024810856
000150 9e 70 10 bd b5 32 3e 3c 87 5c 8c be da f0 8e 3d
       -0.03526365 0.011608769 -0.27414343 0.069795325
000160 e5 89 38 bd 81 b3 21 be fc be 9e be 94 dc 29 be
       -0.04505338 -0.15791132 -0.31005085 -0.1658805
000170 6a 83 53 be e3 34 7d 3e c5 58 ae 3d 14 74 b9 3d
       -0.20655599 0.24727206 0.08513025 0.09055343
000180 6d f1 a4 bd 0b d0 a7 3d 4b 74 f7 3d 63 59 0e bb
       -0.08053861 0.08193978 0.12082728 -0.002172076
000190 39 23 b5 3d 14 00 1f bd 3d 6e 99 bd ba f5 ee 3c
       0.08844609 -0.038818434 -0.074917294 0.029169906
0001a0 cb 7e af 3b 20 90 c1 bd f8 41 2b 3c 8d d0 99 3d
       0.005355691 -0.09451318 0.01045274 0.07510481
0001b0 d5 21 bd 3c 2a bf b4 bd de be d9 bd d3 3a ec 3c
       0.023087421 -0.08825524 -0.10632108 0.028836643
0001c0 3d ab 92 3c cb 14 0a bd 9d 52 08 be f7 b8 aa 3c
       0.017903918 -0.033711236 -0.13312764 0.020840151
0001d0 8f d9 76 3d 73 f6 df 3d e1 85 ad bc 10 2a f2 bd
       0.060266074 0.10935678 -0.021182002 -0.11824429
0001e0 32 89 83 3e eb b9 a2 bc 11 cb 08 be a9 36 27 bd
       0.2569061 -0.019864043 -0.13358714 -0.040823612
0001f0 43 d5 df bd dc d7 fe bd 50 a3 1d 3e ee 74 cb 3d
       -0.10929348 -0.12443516 0.1539433 0.09934412
000200 ee d5 c1 3d 78 fd 38 3e ea 9b e2 3d c0 3f 17 bd
       0.09464632 0.1806544 0.110648945 -0.03692603
000210 9c d8 33 bd 67 c2 73 be 6d d1 34 be 0a 86 ea 3c
       -0.043907747 -0.23804627 -0.17658015 0.028628368
000220 85 b9 81 3e dc 92 ad 3d 2b bc b3 bd 40 11 84 be
       0.25336853 0.08475277 -0.087761246 -0.2579441
000230 2c 68 aa bd 7c 0a 88 3a a2 15 ba bd 0b 5f 5a 3d
       -0.083206505 0.0010379101 -0.090861574 0.053313296
000240 63 9a 8b 3d 4b 13 cd 3d c3 5b d0 bd ac 36 d2 bb
       0.06816556 0.100134455 -0.10173752 -0.006415209
000250 c0 72 61 bd 05 8a fb bd e3 64 9b 3d 1e fa 6e 3d
       -0.055041075 -0.122821845 0.07587602 0.058344
000260 d7 ea 18 3e eb c6 09 3d a5 7d 54 be 2a 18 29 be
       0.14933334 0.03363697 -0.20751055 -0.16513124
000270 a7 5f 4b bc 23 64 99 bc fc 0b b6 3d 14 be 7f be
       -0.012412942 -0.018724507 0.088890046 -0.24974853
000280 a0 25 3d be 4e 3d 92 3e c5 18 0e 3d c7 95 3d 3e
       -0.18471384 0.28562397 0.03469159 0.18514167
000290 bb 88 2b be 90 8e 59 3e 7f 1c 03 bc f9 30 45 3c
       -0.16751377 0.2124579 -0.0080023995 0.012035602
0002a0 43 4a d7 bd 68 d4 37 be f3 24 45 bc 58 e3 c4 3c
       -0.10512211 -0.1795212 -0.012032735 0.024034187
0002b0 71 12 47 3e b9 fd d4 bc 6d 15 e6 bd 72 ed 94 be
       0.19440629 -0.02599989 -0.112345554 -0.29087406
0002c0 5e c2 81 be 8e f2 b9 3e 7b 1c d0 3d fa 41 e7 bc
       -0.25343603 0.36317867 0.10161682 -0.028229702
0002d0 e2 6c ce bd ca 9a 2d 3e 92 3c 5e 3d 04 3d c2 bc
       -0.100793615 0.16953579 0.054256983 -0.023710735
0002e0 0b 18 35 3e d0 71 41 bc c9 47 e1 bd d1 46 8c bc
       0.17684953 -0.01180692 -0.1100002 -0.017123612
0002f0 a9 a3 87 be d2 9c 40 bd 67 7a 4a 3d 8c 42 49 3d
       -0.2649205 -0.047024556 0.04943314 0.04913573
000300 0e 3e 4d 3d f7 1e 7e bc 84 7c 2b bd 10 82 d9 3d
       0.050108008 -0.015510312 -0.041866794 0.106205106
000310 31 bc a5 3d 00 4a f5 bb 8a 3d 1d be 42 42 93 bc
       0.08092535 -0.007485628 -0.15355507 -0.01797593
000320 cd ab c4 3c e9 18 1d 3e 54 f2 3d 3c 60 89 18 be
       0.024007702 0.15341534 0.01159342 -0.14896154
000330 c1 3f 41 3e 71 41 59 3e 1e fe ca bd 6c 4d 83 bd
       0.18871976 0.2121637 -0.0991175 -0.064112514
000340 69 a8 bc bc 79 1d 1d 3e d5 26 8a 3c 4e 8f 1e bd
       -0.023029523 0.15343274 0.01686422 -0.038710885
000350 22 5c 19 bd 13 5b a1 3e aa e8 52 bd 1d 5c 38 bd
       -0.03744138 0.31514797 -0.051491417 -0.04500972
000360 c3 e7 2b bd e1 6b ba bd 97 4d 1a 3e 74 74 00 be
       -0.041969072 -0.091026075 0.1506866 -0.12544423
000370 a6 07 86 bb 67 b4 08 3e 0e 8a 45 3e 07 ec 04 3e
       -0.0040902672 0.13350068 0.19290945 0.12980662
000380 6a 1c 14 3d 28 c8 35 3d dc 1e 9a bd b5 de 15 be
       0.03615991 0.044380337 -0.07525417 -0.14635737
000390 6b 15 4c 3e db b4 5e be ed f2 11 3e 1e 66 55 3d
       0.19930045 -0.21748678 0.14252825 0.05209934
0003a0 a2 d3 99 bd 2b 30 21 bd 24 ad 06 3e 7e a8 4a 3d
       -0.07511069 -0.039352577 0.13151985 0.049477093
0003b0 ca df 2c be 35 fd 91 bd 5b 50 1a 3e 5e 78 a5 bc
       -0.16882244 -0.071283735 0.15069716 -0.020198997
0003c0 3a 6b 35 3e 76 7c 91 3d 96 b4 81 3d 5d 91 cf bd
       0.17716685 0.07103817 0.06333272 -0.10135148
0003d0 0b 05 d1 bd b8 97 95 bc 41 9f bb bd ee 73 0c be
       -0.1020604 -0.018260822 -0.09161235 -0.13716099
0003e0 69 4e 2a be 60 42 de 3c d6 46 c2 3d 82 a2 85 3d
       -0.16631474 0.02713126 0.09486167 0.065251365
0003f0 59 ea fb 3d cc 72 b0 bd 2c 1d 47 be f7 b1 0c be
       0.12300558 -0.08615646 -0.19444722 -0.13739763

lstm.bias_ih_l1 f4 [256]
000000 12 8e 28 3e 08 a5 3a 3e 8c 14 02 3e b6 bc 2f 3e
       0.16460446 0.18227017 0.1270315 0.17161831
000010 55 ff 86 3e 49 1b f2 3d fb bf 1a 3d b1 55 56 bd
       0.26366678 0.118216105 0.037780743 -0.052327815
000020 a8 1c f3 3d 05 15 a3 3d 69 9c 9f 3d 0b bf 2e 3e
       0.118707 0.079629935 0.07793505 0.17065065
000030 b6 bf f6 3d 84 05 67 3e d5 93 28 3c 71 0b ad 3c
       0.12048285 0.22560698 0.010289152 0.02112362
000040 41 4f 96 3c 96 04 95 3e 27 45 37 3e 2e 6c 46 3e
       0.018348338 0.2910506 0.17897473 0.19377205
000050 eb 9b 9e 3d ee 7c 2b 3e d5 cb fd 3d e9 dd 18 3e
       0.07744583 0.16746876 0.123923935 0.14928402
000060 a6 1f bf 3d 1f ea 31 bd 45 13 f9 3d 30 72 e5 3d
       0.09332208 -0.043436166 0.121618785 0.1120342
000070 45 3a c3 3e b9 de 05 3e a7 1a 23 3e 2b 6b 1a 3e
       0.38130394 0.13073243 0.15928136 0.15079944
000080 70 23 04 3d 9d d8 dd 3e 89 c6 e5 3c 81 b2 d5 3d
       0.03226036 0.43329325 0.02804877 0.104344375
000090 d5 03 33 3d 80 50 87 3e 81 44 55 3e d1 5e aa 3e
       0.043704826 0.26428604 0.20826913 0.33275464
0000a0 3a 03 a7 3d 4f 09 b3 3b ca e8 2b 3e 3d 58 4b bd
       0.08154912 0.005463756 0.1678802 -0.049644697
0000b0 52 39 a7 ba 6a 6f 86 bd c3 07 12 3e ad e3 b6 3d
       -0.0012758172 -0.06564219 0.14260773 0.089301445
0000c0 f9 84 b4 bc 40 51 85 3e 9c 00 0f bd b0 96 ac 3d
       -0.022036063 0.2603855 -0.03491269 0.08427179
0000d0 16 9f 5e 3e d0 0d cb bc 16 07 53 3e 51 6c b9 bc
       0.21740374 -0.02478686 0.20608172 -0.022634657
0000e0 79 db 7c 3e fa 0f 86 3d df 59 d3 bd 98 6d 32 3e
       0.24693097 0.06546016 -0.10319876 0.17424619
0000f0 76 42 c3 3d c7 e4 c5 3c 7d 18 3d bd 22 4f 7b 3d
       0.09534161 0.024156941 -0.046165932 0.061354764
000100 99 44 b2 3d 41 10 4a 3d c7 f8 4f 3d ff fd 53 bd
       0.0870449 0.049331907 0.050774362 -0.0517559
000110 55 66 8a 3d 21 ff 6f 3e 1c 2e 0c bd f9 43 aa 3c
       0.067577995 0.23437168 -0.03422366 0.020784365
000120 6b 4c 01 3e f9 8d 12 3e 53 36 19 bd 62 7a fd 3c
       0.12626807 0.14311971 -0.037405323 0.030942146
000130 4c 06 91 bd 91 7f 1f 3e 75 41 8c 3d 87 a7 f7 3c
       -0.07081279 0.15576006 0.068484224 0.03023125
000140 48 0b 8a 3c 16 d0 37 bd ee 23 37 3e 11 2e c0 bd
       0.016851082 -0.04487618 0.178848 -0.093837865
000150 84 cd a3 bd 8e 01 19 3e 83 52 58 bd 9c 9c 74 bc
       -0.07998183 0.14942 -0.052813064 -0.014929917
000160 ba f9 7d 3d 00 e7 fa 3d e4 b0 f8 bc b5 e4 aa bd
       0.062005736 0.12251091 -0.030357786 -0.08344404
000170 5f 7e 66 bd 11 97 c7 3d 0e 09 0e bc d8 b8 34 3d
       -0.05627286 0.097456105 -0.008669151 0.044121593
000180 51 19 07 bd 16 44 16 bc 8f 39 ab bc 11 67 f6 3c
       -0.032983128 -0.009171506 -0.02090147 0.030078443
000190 aa 8b 88 3d 2d c5 ba 3d c8 13 eb 3d a2 e1 12 3e
       0.06667264 0.091196395 0.11478382 0.14343885
0001a0 c4 d8 08 3d 0a 7f 7a 3d 56 f6 19 3c 41 b0 69 bd
       0.03340985 0.06115631 0.00939711 -0.057052854
0001b0 19 4b 15 3e 34 77 b8 bc f2 3e 1c 3c 2c 17 f6 3d
       0.14579429 -0.022517778 0.009536492 0.120161384
0001c0 13 ae 07 3e b1 f0 d9 bd 35 cf 95 bd af f8 9a 3d
       0.13249998 -0.10641611 -0.07314912 0.07566964
0001d0 05 12 17 3b b6 5f de 3d f1 c8 24 3d 4c 49 bf bc
       0.0023051512 0.10858099 0.040230695 -0.02335038
0001e0 32 4f ec 3d 6f 33 41 bd ce 6a 51 3d 1b 23 56 bd
       0.11538543 -0.04716819 0.051127248 -0.052279573
0001f0 c6 76 ac bc ce e6 95 3d f7 87 96 be 2d 98 bc bd
       -0.02105273 0.07319413 -0.29400608 -0.09208713
000200 d9 89 5c bc 70 59 be 3d 24 69 ad bc d6 c1 36 3d
       -0.0134606 0.092944026 -0.021168299 0.04461845
000210 d3 54 db 3c a1 ac 2e bd a5 f8 db bd 64 42 9f bc
       0.026773846 -0.0426451 -0.107407846 -0.019440837
000220 52 e8 0e 3e 24 c3 dc bc 58 22 b0 3d 91 d9 20 bd
       0.1395581 -0.026948519 0.086003006 -0.039269987
000230 2b 27 a4 3d ff 8e 1c 3e 77 f0 ca bd aa ce 9f bd
       0.08015283 0.15288924 -0.09909146 -0.0780309
000240 15 a8 c6 bc 36 a4 21 3e ca 7c c8 3d 77 c8 00 3d
       -0.02425007 0.15785298 0.097894266 0.03144118
000250 2f 37 a7 bc 6e 56 1d 3e fb 16 92 3d fe 9e c1 3d
       -0.020412056 0.15365002 0.071332894 0.094541535
000260 da 94 0e be bc 45 0d bd bf 16 ab bd 50 da 62 3d
       -0.1392397 -0.034490332 -0.08353948 0.05538398
000270 17 99 ac 3c ce 52 39 bd 52 e2 e4 bd 99 ce 2d bd
       0.021069093 -0.045244984 -0.1117598 -0.042433355
000280 96 d0 10 bd 90 b7 77 3d b4 64 09 be e4 e0 86 bd
       -0.035355173 0.060477793 -0.13417321 -0.06585863
000290 16 f2 97 3d 07 1b aa bd 0d 5b ef 3d ba a4 3c 3d
       0.07419221 -0.08305936 0.116872884 0.046055533
0002a0 4d 68 04 be 72 c5 82 bd 63 2c 9a bd d3 51 dc 3c
       -0.12930413 -0.06385316 -0.07527997 0.026894486
0002b0 26 22 2f 3c 18 79 2f bd 20 85 e7 3d a9 ef 5b bd
       0.010689294 -0.042840093 0.113046885 -0.053695355
0002c0 7d 49 8f bc 46 8a 32 3d 80 ed df 3d 9a b4 64 bd
       -0.017491097 0.0435889 0.109339714 -0.055836298
0002d0 2d c3 5e bd ba 29 39 bc 4f 59 18 3d 97 b7 a3 bd
       -0.054385353 -0.011301452 0.037194546 -0.07994001
0002e0 ca bc b6 3d d2 d2 0a 3d 5d 13 f7 bc 29 25 08 be
       0.089227274 0.03389246 -0.0301606 -0.13295425
0002f0 48 e7 4f 3b 34 3c 83 3d 59 3c 26 ba d4 8c 14 3e
       0.0031723548 0.06407967 -0.000634139 0.14506847
000300 ae 38 fb 3b bf f0 b6 3d 3f 62 e5 3d 57 91 b3 3c
       0.007666669 0.089326374 0.112003796 0.02191989
000310 1e 0a 5d 3e 97 bf 0e 3e f4 78 60 3b 7e 41 13 3c
       0.2158589 0.13940273 0.0034251781 0.0089877825
000320 58 c9 f7 3d 9b 6b 24 3d 4f 71 90 3d 18 09 81 3d
       0.1209895 0.040141683 0.07052862 0.063005626
000330 5a 13 64 bb 01 f8 71 3e 18 50 d1 b9 10 a4 fa 3d
       -0.0034801573 0.23629762 -0.0003992326 0.12238324
000340 34 de cb 3d e4 09 a6 3e 19 1f 41 3c 13 ee bd 3d
       0.09954491 0.3242942 0.011787199 0.09273925
000350 33 80 11 3e da 5a 17 3e 97 23 2c bc 90 76 ae bc
       0.1420906 0.14780751 -0.010506532 -0.02129677
000360 f7 fe 5b 3d d4 81 84 3d 26 66 36 3e b2 30 3b 3c
       0.05370995 0.06470075 0.17812404 0.011425184
000370 99 fb 8f 3e 45 8b bd bc 67 57 18 3e 0e 1d 9e 3d
       0.2812164 -0.023137698 0.14877091 0.077203855
000380 5f e1 e7 3b 22 3c 93 3d 8a 0e 8a 3d a0 df 83 3e
       0.007076427 0.07189204 0.06741054 0.2575655
000390 f2 8c 19 3e af 1d e5 3c 66 bf fc 3b 2c 25 cb 3d
       0.14995173 0.027968256 0.007713246 0.09919199
0003a0 40 73 01 3e 28 16 4f 3d e0 cd ae ba 8f 6e 2c 3e
       0.1264162 0.05055824 -0.0013336502 0.1683905
0003b0 1f 3b a9 3d 82 86 4b 3a 3b 35 90 3d 52 8b 29 3e
       0.082632296 0.00077638787 0.07041403 0.16557053
0003c0 a0 3a 0d 3e 62 d4 51 3e 1b 83 26 b9 7b 94 d2 3d
       0.13791895 0.20491174 -0.00015879834 0.10282227
0003d0 aa 0e 34 3e 58 50 78 bd fd 3c 21 3e f5 66 22 3e
       0.17583719 -0.060623497 0.15745921 0.15859587
0003e0 32 c4 b0 3d 09 b9 5f 3e 08 a7 3a 3d ad 21 85 3d
       0.08631171 0.21847929 0.04556945 0.06500564
0003f0 e9 50 05 bd 19 f4 69 3d 51 ba b2 3d dc cb 5c 3d
       -0.032547865 0.057117555 0.08726943 0.053905353
