LSTM/models/sensor_data_2_pm25_lstm_model.pth (torch, 206060 bytes, 9 tensors)

lstm.weight_ih_l0 f4 [256, 1]
-0.036513172 0.09985406 0.016976088 -0.072310485 -0.0060210587 0.0020711944 0.114944436 0.18396641
0.12924305 -0.047982007 -0.09781052 -0.038525157 0.043439753 0.05008324 -0.09628943 0.03382619
0.03569283 -0.08551756 0.09112225 -0.03474413 0.122693844 0.16756664 0.20018065 -0.20768362
-0.07141292 -0.12187325 0.046589796 0.055781085 0.24187359 -0.08068727 -0.08745487 0.08710601
-0.0022140576 -0.0031041813 -0.005860717 0.26012033 -0.116510026 0.048075818 0.15583324 0.163075
-0.07986701 -0.10055656 0.14398019 0.01627274 0.21233432 0.093142286 0.2303713 0.018894749
0.050376154 -0.11806101 0.019130984 0.07295308 -0.12073761 0.034263007 0.17791067 -0.0887844
0.07810972 0.20705664 0.06432402 0.1297956 -0.030135468 0.13319406 0.13402487 0.03437259
-0.0011829722 -0.009701714 -0.18261266 0.06833819 0.026430462 -0.04688037 -0.16529958 -0.054720692
-0.15165432 0.054495152 0.057233863 0.053327397 0.06665967 -0.013546048 -0.16450539 0.08829392
-0.14145058 -0.05664972 0.15059751 -0.122741885 0.10002314 0.08811991 0.19865729 -0.02098651
0.06592801 -0.17194727 -0.06976413 -0.029238427 0.011448012 -0.26711792 0.12009319 0.029737901
-0.07070433 0.03956335 0.1096107 -0.17726228 -0.049113907 -0.025223665 0.07695206 0.06008241
-0.030398201 0.027781565 -0.0010856283 0.09925234 1.88009e-05 0.10772387 0.00023383502 -0.0806186
0.0010253876 -0.11948686 0.14619024 -0.00049450045 0.04061496 0.015456656 0.15616351 -0.06806438
-0.08296825 -0.007859183 0.020111542 -0.076747686 -0.015595264 0.18229286 0.116074234 0.0416007
-0.1482594 0.029083498 0.2961624 0.1033363 -0.013135101 0.22195211 0.19295764 -0.21359272
0.23410892 -0.21995144 0.033648193 0.008164257 0.29872873 -0.27432445 0.18650264 0.19576412
-0.014167643 0.00034493944 -0.24467905 0.15294015 0.032542653 0.17897134 0.21417633 0.0975401
-0.01009701 -0.121734686 0.2528432 -0.15919527 0.15775903 -0.18096054 -0.013166952 -0.22108965
-0.2572248 0.22541884 0.22584413 -0.14068173 -0.09396642 0.21228702 -0.22643557 -0.0778764
-0.118600324 -0.0650416 -0.24641085 -0.03185947 -0.18906406 -0.17182575 -0.21009704 -0.13580629
-0.23609544 -0.121002674 0.11886096 -0.16074798 -0.042063855 0.08826225 -0.07531581 0.06630873
-0.247646 0.19583611 0.11611725 -0.17587961 -0.22364773 -0.16891907 -0.10515592 -0.21841869
-0.10598486 0.13241898 0.11953312 0.027489904 0.004173422 0.0216635 0.19467452 0.02394422
0.09674229 0.060382366 0.09214118 -0.12388514 0.06394176 0.037760716 0.011619 0.20144755
-0.020312373 -0.12460053 0.17958403 -0.16048951 0.08413927 0.102152504 0.21379262 -0.17764892
-0.0015897285 -0.06542147 0.19857986 0.13499552 0.23268546 -0.06406514 0.07915631 0.11322199
0.2065955 0.17475465 0.13962248 0.055489205 -0.15448481 0.04638612 0.079347216 -0.001711947
0.010734523 -0.013535784 0.11901986 -0.03053938 0.16323243 0.17581302 0.13490312 -0.16312316
0.17490588 -0.16106102 -0.05102428 0.20602736 -0.11808371 0.14024626 0.17509003 0.12133155
0.21236119 0.12819777 -0.084937654 0.0109642465 0.03874175 0.24849847 -0.0266108 0.15376529
00000000: d68e 15bd 4980 cc3d 7011 8b3c 8517 94bd
00000010: 4d4c c5bb e0bc 073b fd67 eb3d b161 3c3e
00000020: 4a58 043e c888 44bd e250 c8bd 8ecc 1dbd
00000030: e2ed 313d 1524 4d3d 6533 c5bd 558d 0a3d
00000040: a532 123d d523 afbd 4d9e ba3d dc4f 0ebd
00000050: e946 fb3d 9796 2b3e 28fc 4c3e 04ab 54be
00000060: f040 92bd af98 f9bd f1d4 3e3d b57a 643d
00000070: b6ad 773e 5e3f a5bd 8a1b b3bd a364 b23d
00000080: b919 11bb 856f 4bbb 420b c0bb 7e2e 853e
00000090: cf9c eebd 26eb 443d c092 1f3e 22fd 263e
000000a0: 5191 a3bd 99f0 cdbd 8b6f 133e 694e 853c
000000b0: 2b6e 593e 62c1 be3d 74e6 6b3e 29c9 9a3c
000000c0: 3a57 4e3d f9c9 f1bd 95b8 9c3c 6d68 953d
000000d0: 4845 f7bd 5e57 0c3d 372e 363e 98d4 b5bd
000000e0: fdf7 9f3d a806 543e 50bc 833d 23e9 043e
000000f0: a8de f6bc 0664 083e d13d 093e 46ca 0c3d
00000100: f60d 9bba f0f3 1ebc d0fe 3abe e5f4 8b3d
00000110: b284 d83c a105 40bd 4b44 29be ce22 60bd
00000120: 454b 1bbe 4f36 5f3d 0e6e 6a3d d46d 5a3d
00000130: dd84 883d 3ef0 5dbc 1a74 28be 71d3 b43d
00000140: 6cd8 10be 8909 68bd 3c36 1a3e 1960 fbbd
00000150: efd8 cc3d 3678 b43d d16c 4b3e e7eb abbc
00000160: 4405 873d f212 30be 7fe0 8ebd 6d85 efbc
00000170: 7190 3b3c aec3 88be 6bf3 f53d e69c f33c
00000180: 6fcd 90bd 2e0d 223d 937b e03d 3e84 35be
00000190: aa2b 49bd dca1 cebc 0b99 9d3d f918 763d
000001a0: a605 f9bc 2a96 e33c a44b 8eba d044 cb3d
000001b0: a0b6 9d37 559e dc3d 9c31 7539 5d1b a5bd
000001c0: 4c66 863a 87b5 f4bd e5b2 153e 5da1 01ba
000001d0: df5b 263d ea3d 7d3c 54e9 1f3e 5665 8bbd
000001e0: 42eb a9bd cdc3 00bc f6c0 a43c e42d 9dbd
000001f0: 4783 7fbc fbaa 3a3e 54b8 ed3d 7f65 2a3d
00000200: 50d1 17be 8440 ee3c 99a2 973e fba1 d33d
00000210: 9b34 57bc 6a47 633e b096 453e 0db8 5abe
00000220: 40ba 6f3e f33a 61be b0d2 093d 60c3 053c
00000230: f9f2 983e 4174 8cbe 8cfa 3e3e 6476 483e
00000240: 671f 68bc fdd8 b439 258d 7abe 589c 1c3e
00000250: 724b 053d 4344 373e 0a51 5b3e 1bc3 c73d
00000260: ee6d 25bc 0950 f9bd aa74 813e 1604 23be
00000270: 958b 213e b84d 39be 33ba 57bc 5365 62be
00000280: f8b2 83be 32d4 663e af43 673e df0e 10be
00000290: 7771 c0bd c561 593e bade 67be a97d 9fbd
000002a0: bae4 f2bd 8834 85bd 2053 7cbe 137f 02bd
000002b0: 029a 41be 17f3 2fbe ae23 57be ce10 0bbe
000002c0: 01c3 71be 40d0 f7bd 606d f33d 1e9b 24be
000002d0: 264b 2cbd d7c2 b43d 2d3f 9abd dfcc 873d
000002e0: ea96 7dbe 4389 483e e1ce ed3d c919 34be
000002f0: e903 65be 1ff9 2cbe fd5b d7bd 26a9 5fbe
00000300: 970e d9bd d798 073e c8cd f43d 8232 e13c
00000310: 34c1 883b a777 b13c c258 473e ab26 c43c
00000320: d220 c63d 8053 773d 84b4 bc3d 7eb7 fdbd
00000330: e6f3 823d fbaa 1a3d 9e5d 3e3c 4448 4e3e
00000340: 2266 a6bc 902e ffbd e0e4 373e 5d57 24be
00000350: 3651 ac3d 5535 d13d 74ec 5a3e 99e9 35be
00000360: 705e d0ba b1fb 85bd 8558 4b3e 443c 0a3e
00000370: 1945 6e3e 9634 83bd b41c a23d eee0 e73d
00000380: c58d 533e e2f2 323e 32f9 0e3e a648 633d
00000390: 4431 1ebe 5fff 3d3d cb80 a23d 6963 e0ba
000003a0: dadf 2f3c 31c5 5dbc afc0 f33d b92d fabc
000003b0: 6726 273e 5408 343e 0b24 0a3e c209 27be
000003c0: 871a 333e 2eed 24be d6fe 50bd d6f8 523e
000003d0: dfd5 f1bd b79c 0f3e cd4a 333e ad7c f83d
000003e0: 3675 593e 4746 033e cbf3 adbd 62a3 333c
000003f0: abaf 1e3d 6276 7e3e e4fe d9bc a674 1d3e

lstm.weight_hh_l0 f4 [256, 64]
-0.027564412 -0.16302823 -0.15344748 -0.032802626 -0.13364808 -0.052292842 -0.014489808 -0.08904799
-0.11767624 0.056673903 -0.056473374 -0.11452981 0.018514534 0.031869486 0.021923738 0.14882438
-0.03773915 -0.023965837 -0.13652399 0.022650039 0.12828405 -0.01724257 0.057017755 -0.106559314
-0.12301417 -0.026648397 0.058691293 -0.03179093 0.23602837 0.08771805 -0.044161633 0.0085081225
-0.04523708 -0.01195772 -0.103760034 -0.023611616 0.119622834 -0.0657801 -0.03557876 0.06884397
0.02767727 0.012219214 0.011322888 -0.07458259 -0.1908132 -0.19994046 -0.06048817 -0.08263662
-0.08286405 -0.04153034 0.1521223 -0.08974092 0.0038415683 0.04714352 -0.05313284 -0.059665687
-0.0017133744 0.15768471 -0.0121179875 -0.08213018 0.07456202 0.08312679 -0.13815948 -0.075418346
-0.15829347 -0.12067408 -0.045333553 -0.09661286 -0.13626003 0.03786824 0.10575104 -0.049691956
-0.054850284 -0.04902356 0.020414481 0.01847427 0.1139699 -0.14762323 0.11849595 0.03049934
0.06403791 -0.023266712 -0.13822494 -0.11985227 0.0050808275 0.054899048 0.001969454 -0.02979064
-0.1162556 0.10157078 0.08303834 -0.008884834 0.10604438 -0.12587748 0.0013548537 -0.17318146
-0.14074695 0.16719653 0.1702786 -0.16492674 0.065858714 0.027680106 -0.12775335 -0.1464305
-0.08273369 0.08006319 -0.16607691 0.0011709057 -0.15940987 -0.16717859 -0.107551195 0.10977292
-0.15922643 0.09874043 0.024019651 0.04890608 -0.030800657 0.009682891 -0.09808313 -0.087509245
-0.19045244 0.13750224 -0.058365203 -0.15758367 0.074412785 -0.0033844383 -0.08712663 -0.16439165
0.18951088 -0.16067953 -0.08479797 -0.0025315918 -0.1186441 -0.074367605 -0.17739293 -0.12398129
-0.16383733 -0.19591919 0.14952429 -0.0054775467 0.032743555 -0.0041472423 0.009894726 0.18623695
0.020818224 0.11566816 -0.25076124 -0.018547336 0.0024728014 0.043644074 0.06542937 -0.16188721
-0.320271 0.11467137 -0.035682496 0.091125496 0.30645555 0.18538044 0.2999873 -0.07789891
-0.15037028 0.007423761 0.09320737 -0.3533424 0.108642906 0.10985439 -0.1565075 -0.17216784
0.044664722 0.2089604 0.00699303 0.2690892 -0.20657523 -0.29588604 0.00935075 0.1683671
-0.108470656 -0.014455804 0.2560974 -0.085335016 -0.025746116 0.18832086 -0.22579345 -0.029148629
-0.21764417 0.03366207 -0.12509458 -0.29688442 -0.014472947 -0.17274293 -0.0914968 -0.056355376
0.040662926 -0.0028567044 -0.04953021 -0.051159915 0.09118246 -0.035721082 0.0074548 -0.022902543
0.0025249077 0.09649165 0.08110162 -0.0979563 -0.20181334 -0.036542453 -0.0831886 -0.1577842
0.13243082 0.038893167 0.05267547 -0.019477392 0.13202408 -0.16256972 -0.014089147 -0.067805775
0.015683932 -0.03299644 -0.07290608 0.03255515 -0.06103554 0.12753935 0.037088152 -0.06366331
0.005720933 -0.10794879 -0.15493244 0.13192315 0.12203102 -0.0060707345 0.022687836 0.0059891623
-0.04394023 0.07414591 0.052121717 0.013218787 0.13403814 0.10189983 0.0480955 0.14268418
0.18374826 0.026804434 -0.11510019 0.090729386 0.08552732 0.08614524 0.020340802 0.0636471
0.10933698 0.024965163 -0.14557678 0.1547849 -0.030553622 0.16092911 -0.0633006 0.13612631
00000000: c3ce e1bc dff0 26be 5621 1dbe 0c5c 06bd
00000010: 0bdb 08be 0531 56bd a966 6dbc cb5e b6bd
00000020: 3e00 f1bd e522 683d a050 67bd 9b8e eabd
00000030: cbab 973c 9489 023d 6999 b33c 6b65 183e
00000040: 5e94 1abd 0154 c4bc f2cc 0bbe 938c b93c
00000050: e55c 033e 4a40 8dbc 738b 693d c53b dabd
00000060: daee fbbd bd4d dabc 4866 703d 3537 02bd
00000070: 6cb1 713e 85a5 b33d d4e2 34bd a765 0b3c
00000080: 844a 39bd 50ea 43bc 2480 d4bd 266d c1bc
00000090: d1fc f43d b8b7 86bd 09bb 11bd 11fe 8c3d
000000a0: 71bb e23c 1933 483c a283 393c c2be 98bd
000000b0: 8964 43be 31bd 4cbe 71c2 77bd 633d a9bd
000000c0: a1b4 a9bd b81b 2abd f3c5 1b3e 16ca b7bd
000000d0: d2c2 7b3b 9019 413d d2a1 59bd 0264 74bd
000000e0: 4e93 e0ba 1a78 213e 868a 46bc de33 a8bd
000000f0: f9b3 983d 613e aa3d ae79 0dbe ef74 9abd
00000100: af17 22be f923 f7bd adaf 39bd f7dc c5bd
00000110: c087 0bbe ba1b 1b3d 0094 d83d cb89 4bbd
00000120: b1aa 60bd eecc 48bd 453c a73c 5a57 973c
00000130: 0d69 e93d 8b2a 17be 01ae f23d c0d9 f93c
00000140: 4f26 833d d599 bebc d78a 0dbe 1b75 f5bd
00000150: 127d a63b d3dd 603d f511 013b 800b f4bc
00000160: 6a17 eebd 5704 d03d 0110 aa3d b291 11bc
00000170: cc2d d93d 07e6 00be 5995 b13a 7b56 31be
00000180: f81f 10be 9135 2b3e 835d 2e3e 8ee2 28be
00000190: efe0 863d 64c1 e23c c6d1 02be e1f1 15be
000001a0: 4870 a9bd 2bf8 a33d 1110 2abe 1379 993a
000001b0: 573c 23be dd30 2bbe cd43 dcbd a0d0 e03d
000001c0: 410c 23be 6c38 ca3d dcc4 c43c be51 483d
000001d0: a951 fcbc fda4 1e3c cfdf c8bd 0c38 b3bd
000001e0: f705 43be 63cd 0c3e 5a10 6fbd 9d5d 21be
000001f0: bb65 983d 74cd 5dbb 726f b2bd 4956 28be
00000200: 240f 423e 2d89 24be 8faa adbd 10e9 25bb
00000210: aefb f2bd 0b4e 98bd 7ea6 35be e7e9 fdbd
00000220: f9c4 27be 0a9f 48be e51c 193e fe7c b3bb
00000230: 1b1e 063d 97e5 87bb 7d1d 223c e6b4 3e3e
00000240: fb8a aa3c 6ee3 ec3d c763 80be 95f0 97bc
00000250: b90e 223b 21c4 323d d5ff 853d c3c5 25be
00000260: 8ffa a3be d3d8 ea3d cf27 12bd 01a0 ba3d
00000270: bee7 9c3e 5fd4 3d3e ef97 993e 7789 9fbd
00000280: abfa 19be 0543 f33b 81e3 be3d 4ce9 b4be
00000290: 2c80 de3d 57fb e03d 8143 20be c44c 30be
000002a0: 5bf2 363d b7f9 553e ca25 e53b 0fc6 893e
000002b0: 7588 53be 607e 97be e333 193c 6d68 2c3e
000002c0: dd25 debd 09d8 6cbc 331f 833e 20c4 aebd
000002d0: 85e9 d2bc 2fd7 403e 6636 67be 1bc9 eebc
000002e0: 1dde 5ebe 3de1 093d cb18 00be 3c01 98be
000002f0: f11f 6dbc 86e3 30be ad62 bbbd e5d4 66bd
00000300: 2b8e 263d 8c37 3bbb 31e0 4abd 0f8d 51bd
00000310: dfbd ba3d 4550 12bd 6547 f43b 1d9e bbbc
00000320: ec78 253b 6a9d c53d 9b18 a63d 509d c8bd
00000330: 28a8 4ebe 8aad 15bd c95e aabd 2e92 21be
00000340: f29b 073e 714e 1f3d 3cc2 573d 0d8f 9fbc
00000350: 5231 073e ad78 26be 2ad6 66bc c1dd 8abd
00000360: 977b 803c 4627 07bd c84f 95bd 8d58 053d
00000370: 6700 7abd ad99 023e bfe9 173d e961 82bd
00000380: aa76 bb3b 4114 ddbd 9ca6 1ebe dd16 073e
00000390: 66eb f93d 03ed c6bb d7db b93c bc40 c43b
000003a0: acfa 33bd d0d9 973d 957d 553d 9c93 583c
000003b0: 4b41 093e dcb0 d03d c9ff 443d cd1b 123e
000003c0: 8128 3c3e f994 db3c a6b9 ebbd 54d0 b93d
000003d0: f328 af3d ea6c b03d c1a1 a63c 6959 823d
000003e0: 11ec df3d be83 cc3c 1412 15be ef7f 1e3e
000003f0: 974b fabc 9aca 243e bfa3 81bd b264 0b3e

lstm.bias_ih_l0 f4 [256]
-0.0015603867 0.05449116 0.1355148 0.10839249 -0.0065083266 0.11894606 0.335112 0.07106107
0.2983597 0.17405199 -0.03508863 -0.041168902 0.26342055 0.10109838 0.20632756 0.17931251
0.024685113 -0.034544703 0.008258187 0.09748278 0.18013199 0.0938119 0.16544606 0.08396259
0.15909241 -0.0148359835 0.087398335 0.29112756 0.020426406 0.10694364 0.053741816 0.02686549
0.052737154 0.29826838 0.05291571 0.1672894 0.008106102 0.12577622 0.069563866 0.09982753
0.17213361 0.021309534 0.1769258 0.08135612 0.03734571 0.03112648 0.14857951 0.19286945
0.048991714 0.07866606 0.0360817 0.16356677 0.08835263 0.019331489 -0.027737232 -0.0041114534
0.1999563 0.0846407 0.14409359 0.18506779 0.23015715 0.12687139 0.026070941 0.09673889
0.018206475 0.027955253 -0.10225797 -0.069925666 -0.066212036 -0.045971908 -0.030881573 -0.13807087
-0.120187774 0.06881618 -0.09802006 0.0059713908 -0.08625055 -0.057014883 0.092708364 0.016951721
0.0094016865 0.024681978 0.013359582 -0.08051851 -0.047578942 0.13121952 0.012698657 0.015744446
0.077871196 -0.01484683 -0.026710112 -0.090626255 -0.007890371 -0.060230352 0.1083639 -0.050703924
-0.116592996 0.08695779 0.060691137 0.04367146 -0.084631436 -0.1077942 -0.017921757 0.10919822
-0.030513031 -0.071959645 0.015420534 -0.04771316 0.021986067 -0.0009963099 -0.13417731 0.03202837
-0.04630771 0.03927468 0.08856131 0.031480663 0.063843556 0.033832755 -0.04661728 0.06452109
-0.01059035 0.075943515 0.0636823 0.07021065 -0.036204513 0.091682546 0.06496423 -0.08851785
0.06234402 -0.044527657 -0.04024146 -0.14782746 -0.16315757 -0.046545945 -0.12071356 0.13979892
-0.049569618 -0.11338697 0.03084893 -0.041887645 0.036173213 -0.0076559647 -0.12166893 -0.062059384
0.1565671 -0.03333455 -0.114421785 -0.12972939 0.022545785 -0.02499025 0.035716362 -0.08522383
-0.12875967 0.1240749 -0.07378362 0.09655934 0.04881242 0.027054438 0.120906174 -0.14893717
-0.0065156664 -0.08274325 -0.02474297 -0.11324033 0.052406747 -0.09139852 0.097205676 -0.18290152
0.08739594 0.18148446 0.052970663 0.057234164 -0.054981127 -0.1797316 0.05505013 0.07475572
-0.120895445 0.087741576 0.08701657 0.072030134 0.112374425 0.11322873 -0.12552781 0.008342565
0.0024738642 0.04091674 -0.1606279 -0.1677585 0.09461656 0.02563766 -0.060980704 -0.08476501
0.026175836 -0.0005242947 0.1578761 0.062968045 -0.07669611 0.14469045 0.12666917 0.2285035
0.13779867 0.05847359 0.11149762 0.019016273 0.21835583 0.19061989 0.21881302 0.22980386
0.131752 -0.017294677 0.22808856 -0.018826742 0.094431505 0.030788204 0.11133468 0.12083135
0.06559619 -0.042003155 0.18181813 0.23446678 0.011272723 0.2531484 0.015617071 -0.014095834
0.2749898 0.09567738 0.15620996 0.2583169 0.07198851 0.2292055 0.19670396 0.06571891
0.1224877 -0.054918204 0.23885812 0.057396088 0.19476299 0.05277795 0.12843822 0.19510001
0.16474067 0.024265684 0.13145491 0.0689308 0.03737428 0.070960976 -0.028664496 0.03756239
0.05098745 0.22989851 0.12929133 0.20803772 0.04456836 0.054590642 0.15045893 0.2506428
00000000: e485 ccba 1f32 5f3d 64c4 0a3e e2fc dd3d
00000010: cd43 d5bb fe99 f33d cd93 ab3e 7788 913d
00000020: 9ac2 983e af3a 323e 18b9 0fbd b9a0 28bd
00000030: 0fdf 863e ab0c cf3d 8847 533e b39d 373e
00000040: 6f38 ca3c bf7e 0dbd 594d 073c 0da5 c73d
00000050: 8574 383e 7420 c03d b16a 293e 94f4 ab3d
00000060: 1fe9 223e a012 73bc e6fd b23d ac0e 953e
00000070: 4755 a73c 4405 db3d 6120 5c3d 0415 dc3c
00000080: ea02 583d a2b6 983e 25be 583d ea4d 2b3e
00000090: 75cf 043c 7bcb 003e 8077 8e3d 6072 cc3d
000000a0: cb43 303e 5591 ae3c 092c 353e 0a9e a63d
000000b0: d1f7 183d f6fc fe3c 3a25 183e 927f 453e
000000c0: 89ab 483d ac1b a13d 68ca 133d 0c7e 273e
000000d0: 39f2 b43d 125d 9e3c 3139 e3bc 5fb9 86bb
000000e0: 58c1 4c3e 1a58 ad3d 458d 133e 6982 3d3e
000000f0: 51ae 6b3e 93ea 013e ba92 d53c 0a1f c63d
00000100: bf25 953c 6a02 e53c a06c d1bd 3035 8fbd
00000110: 2d9a 87bd 0a4d 3cbd 5afb fcbc 7362 0dbe
00000120: 0225 f6bd 7fef 8c3d bebe c8bd a8ab c33b
00000130: 21a4 b0bd 7088 69bd e2dd bd3d 56de 8a3c
00000140: 8809 1a3c dc31 ca3c 26e2 5a3c e3e6 a4bd
00000150: 23e2 42bd 695e 063e 070e 503c 7ffa 803c
00000160: ef7a 9f3d 1e40 73bc 2acf dabc 429a b9bd
00000170: 9d46 01bc 1ab4 76bd e4ed dd3d ebae 4fbd
00000180: 4fc8 eebd ed16 b23d 4597 783d d8e0 323d
00000190: 3f53 adbd 35c3 dcbd a6d0 92bc 51a3 df3d
000001a0: 77f6 f9bc 945f 93bd 68a6 7c3c e06e 43bd
000001b0: 201c b43c 9d96 82ba c765 09be 2e30 033d
000001c0: 27ad 3dbd 7dde 203d a25f b53d def1 003d
000001d0: 69c0 823d 3794 0a3d c3f1 3ebd a223 843d
000001e0: 2683 2dbc 4688 9b3d de6b 823d 9aca 8f3d
000001f0: 2f4b 14bd 0fc4 bb3d f70b 853d d948 b5bd
00000200: 715c 7f3d a262 36bd 3bd4 24bd 1560 17be
00000210: c712 27be f6a6 3ebd ac38 f7bd 7327 0f3e
00000220: 8309 4bbd 6d37 e8bd e5b6 fc3c 6192 2bbd
00000230: 5d2a 143d e3de fabb 8f2d f9bd fb31 7ebd
00000240: 2053 203e cf89 08bd f855 eabd c8d7 04be
00000250: f0b1 b83c 5ab8 ccbc 524b 123d d589 aebd
00000260: 93d9 03be fb1a fe3d de1b 97bd e7c0 c53d
00000270: 88ef 473d 45a1 dd3c a89d f73d fc82 18be
00000280: 5f81 d5bb 4b75 a9bd c5b1 cabc 8cea e7bd
00000290: 75a8 563d 262f bbbd c513 c73d 894a 3bbe
000002a0: a5fc b23d 10d7 393e c4f7 583d 5f6e 6a3d
000002b0: e433 61bd 900b 38be 3f7c 613d 8719 993d
000002c0: 0898 f7bd dbb1 b33d be35 b23d 8984 933d
000002d0: 9024 e63d 77e4 e73d 5d8a 00be 41af 083c
000002e0: 8e20 223b 5098 273d a47b 24be e2c8 2bbe
000002f0: 54c6 c13d 1206 d23c e7c6 79bd 4799 adbd
00000300: b56e d63c d270 09ba 46aa 213e 64f5 803d
00000310: da12 9dbd bc29 143e 90b5 013e d2fc 693e
00000320: 181b 0d3e 0182 6f3d dd58 e43d 04c8 9b3c
00000330: ac98 5f3e dc31 433e 8510 603e b451 6b3e
00000340: ffe9 063e 91ad 8dbc 0c90 693e 8a3a 9abc
00000350: 4e65 c13d 8b37 fc3c 7003 e43d 6d76 f73d
00000360: 4c57 863d 800b 2cbd 882e 3a3e 0f18 703e
00000370: 3ab1 383c ab9c 813e bede 7f3c 37f2 66bc
00000380: 77cb 8c3e 81f2 c33d 81f5 1f3e 1d42 843e
00000390: b66e 933d d9b4 6a3e c36c 493e a397 863d
000003a0: d5da fa3d e9f1 60bd 3997 743e 2918 6b3d
000003b0: f36f 473e b12d 583d 4f85 033e 4cc8 473e
000003c0: c7b1 283e d4c8 c63c 1e9c 063e 972b 8d3d
000003d0: c615 193d fd53 913d ced1 eabc 05db 193d
000003e0: 37d8 503d 846a 6b3e f264 043e d707 553e
000003f0: 508d 363d 709a 5f3d e811 1a3e 4154 803e

lstm.bias_hh_l0 f4 [256]
0.1630405 0.047729816 0.18538013 0.13111725 -0.071974084 0.1071513 0.22448233 0.08429482
0.24820074 0.09178896 0.09145293 -0.04914817 0.11527708 0.117700905 0.03802286 0.2294433
0.16938448 0.035842817 0.19180082 -0.051942486 0.09906845 0.16134198 0.013430208 0.13530052
0.29346898 -0.031512268 0.050022326 0.249825 0.19913329 0.23501824 0.06375277 0.055624742
0.20855923 0.061494183 0.19321829 0.2120454 0.056197777 0.20229343 0.15893401 0.019740801
0.21794291 0.028491126 0.26448786 0.051864125 -0.013163721 0.12942488 0.1264545 0.20593512
0.25002337 0.04071281 0.18368042 0.0117586395 0.16736953 0.13605069 0.2057579 0.13539873
0.07433126 0.029587278 0.063767165 0.23157577 0.12278307 0.116093464 0.04395298 0.17162123
0.09107771 0.0962674 -0.089978635 -0.086823136 -0.007779816 0.075205006 -0.09469751 -0.003917934
-0.113175824 0.11800109 0.112512484 -0.06751553 -0.097286955 0.0044877585 0.05932001 0.031994916
0.12792449 -0.08348045 0.062409878 0.029204715 0.07726123 -0.10309191 -0.042778395 0.067927636
0.042080097 0.11122228 -0.11556661 0.04476037 0.13446735 0.020561717 -0.049223617 -0.096545085
-0.06873957 0.096440576 0.042588588 0.041486762 -0.054648668 0.025405739 0.09065305 0.00051380566
-0.1116429 -0.05200531 0.013305329 -0.13140911 0.066136464 0.06786249 -0.07645108 -0.011888505
0.09639669 0.095672034 0.05675025 -0.10682776 0.14995684 0.04782984 0.09395749 -0.027685829
-0.047882587 -0.14786711 -0.035287827 0.035753593 0.029718908 -0.13722077 0.15899742 0.08031335
0.1230971 -0.08230235 -0.14709283 -0.13979796 -0.17641495 0.043248124 -0.08791443 -0.019234654
-0.047431152 0.09267718 0.1564705 -0.111651264 -0.02499549 0.002107964 -0.05123406 0.048759717
0.1663988 0.07224881 -0.006559867 -0.13088217 0.13296774 -0.048277795 0.094814815 -0.10438486
-0.18093404 0.14872725 -0.017192047 -0.03887763 0.15686442 0.09440208 0.09369767 0.050204687
0.08484211 0.13469227 0.0138735855 -0.16432133 0.13914594 0.0033950065 -0.068586566 -0.12934051
0.018103663 0.13012487 -0.03207761 0.09435984 -0.120141156 -0.10895424 -0.0063617383 0.061789893
-0.14388603 0.037639216 0.09505831 -0.03961187 0.17025115 0.1400998 -0.13144153 0.17364162
0.021707166 0.011840553 0.0079781655 -0.103789374 -0.03827145 -0.0498289 -0.15176345 0.1147593
0.12852757 -0.007930133 0.26929584 0.026178699 0.094337314 0.16393073 0.23035608 0.13517737
0.13102865 -0.008571617 0.12349673 0.034429457 0.0787877 0.1843344 0.03899408 0.12320116
-0.035162427 0.028493548 0.23439412 0.07602558 0.06802197 0.240472 0.079164684 0.06361251
0.13042669 0.16169813 0.14783323 0.24050255 0.18310048 0.027125657 0.015486104 0.089694254
0.09535136 0.21156617 0.1742116 0.13264579 0.07037421 0.16960792 0.16959634 -0.02391076
0.08378463 0.016600808 0.13120967 -0.017790377 0.0294164 0.17439252 0.16703214 0.049183607
0.050215747 0.04829399 0.16992396 0.19084328 0.051988985 0.13621172 0.123004995 -0.03953235
0.12742677 0.1255636 0.191313 0.049572855 0.13809058 0.09479898 0.1171701 0.06735287
00000000: 17f4 263e 5780 433d 4ad4 3d3e 9a43 063e
00000010: 2667 93bd 2472 db3d b2de 653e c3a2 ac3d
00000020: 5628 7e3e dafb bb3d ac4b bb3d 974f 49bd
00000030: 6416 ec3d 2c0d f13d dcbd 1b3d 2ff3 6a3e
00000040: 2073 2d3e ebcf 123d 6f67 443e a5c1 54bd
00000050: 66e4 ca3d d536 253e 600a 5c3c 388c 0a3e
00000060: 9141 963e 0213 01bd 36e4 4c3d 20d2 7f3e
00000070: 99e9 4b3e 9fa8 703e d090 823d c5d6 633d
00000080: 8d90 553e 53e1 7b3d 04db 453e 6e22 593e
00000090: a42f 663d 0226 4f3e 99bf 223e 76b7 a13c
000000a0: 6d2c 5f3e 3966 e93c f46a 873e 7a6f 543d
000000b0: a6ac 57bc f587 043e 4a7d 013e a8e0 523e
000000c0: 1003 803e 7ac2 263d b816 3c3e 4fa7 403c
000000d0: eb62 2b3e df50 0b3e 33b2 523e f7a5 0a3e
000000e0: fd3a 983d 0561 f23c 5c98 823d 3322 6d3e
000000f0: b175 fb3d 69c2 ed3d 0a08 343d 7abd 2f3e
00000100: f386 ba3d d827 c53d b846 b8bd 54d0 b1bd
00000110: d4ed febb 1505 9a3d c5f0 c1bd 0362 80bb
00000120: bac8 e7bd 8eaa f13d f26c e63d 9545 8abd
00000130: 623e c7bd 0c0e 933b 8af9 723d 1a0d 033d
00000140: a3fe 023e ccf7 aabd 80a1 7f3d ba3e ef3c
00000150: 233b 9e3d da21 d3bd 6638 2fbd a51d 8b3d
00000160: 2e5c 2c3d 82c8 e33d 30ae ecbd a656 373d
00000170: cfb1 093e 0c71 a83c b49e 49bd 6eb9 c5bd
00000180: 55c7 8cbd a382 c53d 5f71 2e3d 06ee 293d
00000190: 48d7 5fbd b21f d03c 4ea8 b93d eab0 063a
000001a0: 08a5 e4bd 8503 55bd 98fe 593c 1c90 06be
000001b0: 8e72 873d 7dfb 8a3d 6292 9cbd 01c8 42bc
000001c0: a16b c53d b3ef c33d f372 683d 83c8 dabd
000001d0: 498e 193e 39e9 433d c96c c03d 64cd e2bc
000001e0: 8820 44bd 7a6a 17be f889 10bd 5c72 123d
000001f0: 1175 f33c 9a83 0cbe 38d0 223e 537b a43d
00000200: 551a fc3d 228e a8bd 819f 16be 3227 0fbe
00000210: 1fa6 34be f224 313d 7b0c b4bd fe91 9dbc
00000220: 2b47 42bd 89cd bd3d ce39 203e 6ba9 e4bd
00000230: 58c3 ccbc c425 0a3b ceda 51bd 45b8 473d
00000240: 7264 2a3e 2ff7 933d 27f4 d6bb fa05 06be
00000250: b228 083e f0be 45bd 452e c23d bbc7 d5bd
00000260: c646 39be f54b 183e 56d6 8cbc 263e 1fbd
00000270: 11a1 203e e155 c13d 90e4 bf3d 6ea3 4d3d
00000280: b3c1 ad3d c5ec 093e 094e 633c da43 28be
00000290: 467c 0e3e c27e 5e3b 1d77 8cbd d771 04be
000002a0: 224e 943c 743f 053e d063 03bd bb3f c13d
000002b0: 910c f6bd 6723 dfbd 2176 d0bb 6617 7d3d
000002c0: dc56 13be 942b 1a3d eead c23d 0e40 22bd
000002d0: 5156 2e3e 5276 0f3e 9c98 06be 1ccf 313e
000002e0: 3ad3 b13c e1fe 413c dab6 023c 868f d4bd
000002f0: 86c2 1cbd 6319 4cbd e167 1bbe ed06 eb3d
00000300: bb9c 033e 63ed 01bc 25e1 893e b674 d63c
00000310: ec33 c13d 75dd 273e 77e2 6b3e f06b 0a3e
00000320: 602c 063e f86f 0cbc dbeb fc3d e705 0d3d
00000330: 725b a13d 28c2 3c3e 42b8 1f3d e450 fc3d
00000340: 7a06 10bd 4d6b e93c 0305 703e 4db3 9b3d
00000350: 1a4f 8b3d 4b3e 763e 1821 a23d 4747 823d
00000360: 938e 053e 3294 253e 9861 173e 4d46 763e
00000370: b17e 3b3e a036 de3c 6eb9 7d3c 9fb1 b73d
00000380: 9347 c33d cda4 583e 8764 323e 4cd4 073e
00000390: 5b20 903d b3ad 2d3e aaaa 2d3e 80e0 c3bc
000003a0: 4797 ab3d 6bfe 873c d45b 063e 20bd 91bc
000003b0: a9fa f03c f493 323e 790a 2b3e c074 493d
000003c0: 07af 4d3d ebcf 453d 8c00 2e3e 6c6c 433e
000003d0: 67f2 543d 167b 0b3e 0bea fb3d acec 21bd
000003e0: 2a7c 023e bf93 003e 8ee7 433e e80c 4b3d
000003f0: 9e67 0d3e f825 c23d e1f6 ef3d 4df0 893d

lstm.weight_ih_l1 f4 [256, 64]
-0.11020706 -0.029687362 0.033355836 0.04479557 0.020374933 0.049513817 -0.06685627 -0.0011528216
0.08054544 -0.04793694 -0.048597027 0.013660545 0.0288532 -0.046424143 -0.0468069 -0.0040020235
0.033095177 -0.051680885 -0.14797017 -0.093450084 -0.039867744 0.14615479 -0.0031727597 -0.09602544
-0.06393018 0.02556351 0.08845195 -0.0014009913 0.19245993 -0.037362967 0.035818357 -0.19805801
0.060545996 0.15557986 0.107122794 -0.05130271 -0.0902487 0.08668472 0.0063665058 -0.028469067
0.100142196 0.010909665 -0.014488378 -0.043312036 -0.049795922 -0.091027915 -0.112901494 0.098274656
-0.020400634 0.032624904 -0.0661667 0.006253949 -0.03547147 0.10654668 -0.025197547 0.083831206
-0.10029026 0.18122347 0.01047273 -0.18524285 -0.077058606 -0.039636686 0.037781466 0.013949728
0.029617459 0.039699186 -0.046288792 -0.11791197 0.0587911 0.017056208 -0.09255757 -0.02078362
0.020427898 -0.063918 -0.10299143 -0.08503612 0.008461592 0.10143165 -0.0024679634 -0.021226957
-0.017679986 0.040437113 0.12223042 -0.100509405 0.002372605 -0.1287106 0.0793139 -0.015118465
0.06581211 -0.017699497 -0.03434069 0.059104208 0.03164303 -0.060294535 -0.073099755 -0.07973713
0.079542905 0.02455238 0.05629662 0.015268273 0.05300314 -0.15349774 0.0235746 0.018917229
0.10782115 -0.1019939 0.097782366 0.10592971 -0.07372101 0.09689165 0.097367465 0.13606326
-0.058145735 0.0023964066 0.07530263 -0.04897024 -0.038451493 0.045475148 0.01315724 0.08278748
0.07933263 -0.12648979 0.09340347 -0.0063268035 -0.054993525 -0.007943073 -0.08167405 0.05713901
0.13542084 0.019853555 0.18346092 -0.06119918 -0.13475882 0.2274214 0.083972625 0.00030422892
0.026722739 -0.00778943 0.13730417 -0.0837745 0.08564825 -0.15027612 -0.021838823 0.17962672
0.10034364 0.23211835 -0.14449881 -0.029747138 0.25468588 0.15627807 0.16737056 0.017106028
-0.050616868 -0.026362488 0.03385674 -0.18587087 0.20418747 -0.091761574 0.11303364 -0.048013642
-0.1279078 0.08382229 0.18933485 -0.15668154 0.04483779 0.1880282 -0.16817944 -0.23628551
0.00025152217 0.13148658 -0.0451088 0.11043214 -0.16254139 -0.22510037 -0.2032092 0.10509029
-0.07076115 0.091940716 0.19376871 -0.0951879 0.06954948 0.20245263 -0.18070623 0.18328604
-0.11991184 0.25257882 -0.014387705 -0.1411299 -0.20041557 -0.13167676 -0.13229223 -0.09349068
-0.037053213 0.042693432 -0.10618429 -0.08756354 -0.09144076 -0.16639088 -0.111982144 -0.036181625
0.009081883 -0.05649687 0.10952804 -0.14098854 -0.015007326 -0.114756495 -0.016890867 0.07750524
0.08711467 0.106731474 0.01833431 0.054468732 0.19693497 -0.073459245 0.1267453 -0.13906342
-0.19378848 0.026158998 -0.051159114 0.039887346 0.013304375 -0.013706215 0.019374011 -0.13363467
-0.04331137 -0.0009139172 0.06973794 -0.017249731 -0.029751208 -0.16201216 -0.018337982 -0.1102554
0.018229702 0.058382478 0.050981905 0.021214074 -0.0026237005 -0.032937407 -0.10367553 0.0017767197
-0.104681246 -0.018043114 0.08261706 0.13592805 -0.034764767 0.1674818 -0.03631494 0.10669497
0.031969428 0.036440764 -0.022236846 -0.01143316 0.11587062 -0.08993793 -0.19598572 0.11004552
00000000: 3db4 e1bd e932 f3bc 21a0 083d 8f7b 373d
00000010: 55e9 a63c 00cf 4a3d f1eb 88bd 461a 97ba
00000020: 02f5 a43d 8659 44bd ad0d 47bd 7bd0 5f3c
00000030: 8c5d ec3c 3e27 3ebd 98b8 3fbd 6823 83bb
00000040: cf8e 073d 56af 53bd 7e85 17be c262 bfbd
00000050: 5c4c 23bd 9aa9 153e 13ee 4fbb fca8 c4bd
00000060: d4ed 82bd 916a d13c 4c26 b53d 78a1 b7ba
00000070: 3714 453e e909 19bd 45b6 123d b8cf 4abe
00000080: 14ff 773d 5450 1f3e 3263 db3d ca22 52bd
00000090: 4fd4 b8bd c287 b13d 1f9e d03b f637 e9bc
000000a0: 5a17 cd3d 74be 323c a960 6dbc f667 31bd
000000b0: cff6 4bbd d86c babd e638 e7bd 3944 c93d
000000c0: 3b1f a7bc b1a1 053d 6882 87bd eded cc3b
000000d0: 884a 11bd 2535 da3d 166b cebc b2af ab3d
000000e0: fb64 cdbd a592 393e d095 2b3c 4db0 3dbe
000000f0: e7d0 9dbd 145a 22bd bdc0 1a3d 668d 643c
00000100: 50a0 f23c 9d9b 223d 5199 3dbd d57b f1bd
00000110: f0ce 703d 76b9 8b3c d38e bdbd 6942 aabc
00000120: 6858 a73c 71e7 82bd 2ced d2bd 6b27 aebd
00000130: 7da2 0a3c 66bb cf3d 8ebd 21bb 28e4 adbc
00000140: 9ed5 90bc 63a1 253d f153 fa3d e0d7 cdbd
00000150: b57d 1b3b b6cc 03be 536f a23d 70b3 77bc
00000160: 80c8 863d 89fe 90bc d3a8 0cbd 4117 723d
00000170: 1f9c 013d 67f7 76bd 53b5 95bd 384d a3bd
00000180: 64e7 a23d 1322 c93c 4997 663d c727 7a3c
00000190: d219 593d 832e 1dbe 851f c13c 4ef8 9a3c
000001a0: 56d1 dc3d 2ee2 d0bd 1f42 c83d adf1 d83d
000001b0: 0afb 96bd 216f c63d 9868 c73d 2b54 0b3e
000001c0: 392a 6ebd 080d 1d3b 4438 9a3d 0595 48bd
000001d0: 507f 1dbd 2644 3a3d 7791 573c 7b8c a93d
000001e0: 2579 a23d 8a86 01be 524a bf3d 1351 cfbb
000001f0: e440 61bd aa23 02bc b944 a7bd 980a 6a3d
00000200: c3ab 0a3e eca3 a23c 2edd 3b3e feab 7abd
00000210: 37fe 09be 28e1 683e d7f9 ab3d ea80 9f39
00000220: a5e9 da3c 7a3e ffbb 7799 0c3e f791 abbd
00000230: 5a68 af3d fce1 19be 55e7 b2bc 11f0 373e
00000240: f780 cd3d 6fb0 6d3e 7ff7 13be 45b0 f3bc
00000250: 3066 823e 5c07 203e 3063 2b3e f121 8c3c
00000260: a253 4fbd 25f6 d7bc 5dad 0a3d ef54 3ebe
00000270: 8516 513e 7eed bbbd 2e7e e73d f4a9 44bd
00000280: 43fa 02be 05ab ab3d ffe0 413e 2071 20be
00000290: d5a7 373d 778a 403e 3b37 2cbe d4f4 71be
000002a0: bcde 8339 6ba4 063e 01c4 38bd 3f2a e23d
000002b0: 4071 26be b680 66be 1316 50be 9439 d73d
000002c0: 39eb 90bd 6a4b bc3d 4e6b 463e e0f1 c2bd
000002d0: f56f 8e3d be4f 4f3e 0e0b 39be 56af 3b3e
000002e0: 5794 f5bd 0352 813e 69ba 6bbc 5b84 10be
000002f0: bd39 4dbe 46d6 06be 9d77 07be 0b78 bfbd
00000300: 1cc5 17bd 4fdf 2e3d 2677 d9bd 8354 b3bd
00000310: 4b45 bbbd 5f62 2abe e556 e5bd 2f33 14bd
00000320: 2ecc 143c 4369 67bd 3d50 e03d 4d5f 10be
00000330: 4ae1 75bc 7405 ebbd b75e 8abc 11bb 9e3d
00000340: 2d69 b23d 0896 da3d d631 963c 9b1a 5f3d
00000350: 52a9 493e cd71 96bd 85c9 013e a466 0ebe
00000360: 7d70 46be 654b d63c 388c 51bd ea60 233d
00000370: 98fa 593c 0890 60bc 3fb6 9e3c 87d7 08be
00000380: 4367 31bd f293 6fba c4d2 8e3d 4f4f 8dbc
00000390: ceb8 f3bc 84e6 25be 8939 96bc 95cd e1bd
000003a0: 7556 953c 7722 6f3d 67d2 503d 23c9 ad3c
000003b0: 64f2 2bbb 60e9 06bd d653 d4bd d2e0 e83a
000003c0: 1f63 d6bd 27cf 93bc 2233 a93d b930 0b3e
000003d0: 8065 0ebd 5980 2b3e f9be 14bd e482 da3d
000003e0: 60f2 023d e942 153d 0c2a b6bc 2652 3bbc
000003f0: 934d ed3d 6131 b8bd 7bb0 48be 8c5f e13d

lstm.weight_hh_l1 f4 [256, 64]
0.04258254 -0.019733215 -0.124300316 0.07631776 0.013298635 -0.08080985 0.064374626 -0.056567002
-0.018231237 -0.07606838 -0.091641836 0.02196864 0.12679598 0.07364363 -0.04878116 0.107977144
0.03191973 0.16610263 -0.098919176 0.018285468 0.016287949 0.09463993 -0.08655201 0.11203971
0.16461658 0.07038348 -0.08578243 0.006311007 0.00807264 0.072853394 0.06797775 -0.0778721
0.12471136 0.13755377 0.02992806 -0.02577417 -0.086323984 -0.039845325 0.05263395 -0.0532539
-0.026275352 -0.06714763 0.098228395 0.023523511 0.06885218 0.11963838 0.066831045 0.09071941
-0.0075485623 0.112798974 -0.023940736 -0.003837817 0.13866723 -0.10838361 0.18722028 -0.042143196
0.00033941172 0.11721128 0.015406325 -0.02971515 0.0042779353 -0.07523402 0.025352634 -0.14421381
0.11643568 0.08914924 0.07438583 0.058010507 0.109536536 -0.08513572 0.06743192 0.04076423
0.13527001 0.023315573 0.0767287 0.06274519 0.071111575 0.09566847 0.034637265 0.10212348
0.009718136 0.13055126 -0.11773645 0.008595277 0.081227444 0.028611002 -0.041546147 -0.09138928
-0.07367612 -0.0033408406 -0.12738119 0.10606984 -0.005033645 0.030434128 0.0041989773 0.08189187
-0.018706527 0.10377217 -0.0011358286 0.12974663 0.024233272 -0.083474286 0.09550973 -0.1048968
0.09774759 -0.090276785 0.077038296 0.0055148285 -0.101006 0.1211081 -0.0009375372 -0.069774605
0.089004226 -0.04908001 0.13194111 0.0825128 -0.01634757 -0.113904476 0.0071158027 -0.089066215
0.021742808 -0.026175242 0.014774193 0.035476413 0.043512613 -0.13068675 -0.0180474 0.054545853
0.061170902 -0.030138562 -0.10741173 0.013386438 -0.09689486 0.11989197 -0.03939682 0.1051694
-0.124226555 -0.21710964 -0.038897067 0.08753377 0.2309895 0.043614987 0.07014206 -0.021295736
0.04050999 -0.018414004 0.09890863 -0.028273981 0.10317067 -0.042091995 -0.04486354 0.008052694
0.114869185 0.058636453 0.022245185 -0.20863174 0.07697203 -0.15689135 0.12707487 -0.15163907
0.10133136 0.040515702 -0.028283866 0.12716225 0.02619616 -0.13246179 0.017065676 -0.0025352822
0.040399317 -0.17644101 -0.004147107 0.025624346 -0.066502705 0.008623381 0.17439738 0.009598125
0.054568417 0.090201214 0.068964675 -0.049368475 0.010305564 -0.080808036 0.13951503 0.0680585
-0.13021846 0.02316277 0.09036256 -0.04844368 -0.135851 -0.07679202 -0.08042502 -0.057359938
0.049036853 -0.008059819 -0.019998752 -0.03365172 0.09870496 0.17734829 -0.014534448 0.12343845
0.13619483 0.06090052 -0.13917011 0.060944136 0.033521354 -0.1511621 0.028135443 0.11208837
-0.10258579 0.07129589 -0.0032508655 -0.031292684 -0.083911255 0.058362313 -0.008324404 -0.08260487
0.18856966 -0.107070856 -0.16451173 -0.088716365 0.026384274 0.0059975493 0.10201952 -0.01376481
-0.048096996 0.027510464 0.11441345 -0.022675566 -0.037769206 -0.0448666 -0.16393687 0.014717677
0.10082899 -0.104057565 0.034260344 0.15212336 0.12849657 0.0859549 -0.071929395 -0.03223741
-0.09752097 0.12413126 0.13646649 -0.15534863 0.04978262 -0.04922201 -0.016116463 0.04098599
-0.0365625 0.06711349 0.10393797 -0.024062568 0.074934535 -0.06773991 0.019344985 -0.0847701
00000000: 086b 2e3d 8da7 a1bc 2a91 febd 7c4c 9c3d
00000010: 85e2 593c a27f a5bd d8d6 833d cdb2 67bd
00000020: ad59 95bc bdc9 9bbd b7ae bbbd 94f7 b33c
00000030: ced6 013e 79d2 963d c1ce 47bd 1f23 dd3d
00000040: 43be 023d cf16 2a3e 2396 cabd 68cb 953c
00000050: 4e6e 853c 94d2 c13d 2e42 b1bd 1375 e53d
00000060: 4091 283e 3725 903d b3ae afbd 90cc ce3b
00000070: 1b43 043c 2934 953d eb37 8b3d 687b 9fbd
00000080: ab68 ff3d e5da 0c3e b12b f53c 5a24 d3bc
00000090: a1ca b0bd da34 23bd b296 573d c320 5abd
000000a0: 683f d7bc b284 89bd f82b c93d 61b4 c03c
000000b0: 5f02 8d3d f804 f53d b7de 883d 19cb b93d
000000c0: ee59 f7bb 2603 e73d 5d1f c4bc e383 7bbb
000000d0: c8fe 0d3e 3af8 ddbd acb6 3f3e 589e 2cbd
000000e0: 12f3 b139 780c f03d d06a 7c3c 306d f3bc
000000f0: ec2d 8c3b 4b14 9abd 54b0 cf3c c9ac 13be
00000100: d475 ee3d e093 b63d 9957 983d 6d9c 6d3d
00000110: b154 e03d a35b aebd bf19 8a3d 65f8 263d
00000120: 3984 0a3e 4d00 bf3c f023 9d3d 8d80 803d
00000130: f2a2 913d d5ed c33d cedf 0d3d 1d26 d13d
00000140: d138 1f3c 3baf 053e cf1f f1bd 34d3 0c3c
00000150: 935a a63d 9f61 ea3c 4b2c 2abd 4e2a bbbd
00000160: 81e3 96bd 01f2 5abb 3770 02be 253b d93d
00000170: 46f1 a4bb fe50 f93c 9397 893b edb6 a73d
00000180: 6e3e 99bc 8186 d43d 15e0 94ba 4ddc 043e
00000190: db84 c63c 91f4 aabd 9b9a c33d 22d4 d6bd
000001a0: e32f c83d 09e3 b8bd 41c6 9d3d bcb5 b43b
000001b0: 3cdc cebd 8607 f83d 0ec5 75ba fde5 8ebd
000001c0: d947 b63d 1f08 49bd 921b 073e 79fc a83d
000001d0: 57eb 85bc c046 e9bd ae2b e93b 5968 b6bd
000001e0: f91d b23c 766d d6bc 750f 723c b74f 113d
000001f0: 483a 323d bfd2 05be 24d8 93bc 796b 5f3d
00000200: 578e 7a3d 25e5 f6bc aefa dbbd ca52 5b3c
00000210: d070 c6bd ec89 f53d 8f5e 21bd 0e63 d73d
00000220: 7e6a febd fd51 5ebe 8852 1fbd e844 b33d
00000230: 8388 6c3e a1a5 323d a4a6 8f3d 6574 aebc
00000240: ceed 253d f7d8 96bc 9c90 ca3d d69e e7bc
00000250: 254b d33d a868 2cbd d5c2 37bd 72ef 033c
00000260: 8940 eb3d c72c 703d 893b b63c 8fa3 55be
00000270: 83a3 9d3d 20a8 20be ea1f 023e 4647 1bbe
00000280: d186 cf3d cbf3 253d 91b3 e7bc d236 023e
00000290: 5499 d63c 10a4 07be 51cd 8b3c fa26 26bb
000002a0: c179 253d f4ac 34be 74e4 87bb 26ea d13c
000002b0: 9232 88bd 1549 0d3c 3a95 323e 7441 1d3c
000002c0: 2283 5f3d 6abb b83d 5a3d 8d3d 9936 4abd
000002d0: abd8 283c af7e a5bd 07dd 0e3e 4162 8b3d
000002e0: fd57 05be d9bf bd3c 0110 b93d e16c 46bd
000002f0: 861c 0bbe 2245 9dbd dfb5 a4bd 41f2 6abd
00000300: deda 483d 550d 04bc 6cd4 a3bc 63d6 09bd
00000310: d325 ca3d ca9a 353e e521 6ebc 4ccd fc3d
00000320: a876 0b3e d372 793d 9c82 0ebe 8fa0 793d
00000330: b04d 093d 3dca 1abe 4d7c e63c 968e e53d
00000340: 8018 d2bd 9403 923d 790c 55bb c22c 00bd
00000350: aad9 abbd 520d 6f3d 1563 08bc be2c a9bd
00000360: 6818 413e f747 dbbd c375 28be edb0 b5bd
00000370: d523 d83c 1787 c43b 9cef d03d cc85 61bc
00000380: 5b01 45bd a05d e13c 9951 ea3d 1cc2 b9bc
00000390: e2b3 1abd 0ac6 37bd 11df 27be 6922 713c
000003a0: 6e7f ce3d 221c d5bd 9354 0c3d 3ac6 1b3e
000003b0: 9b94 033e 1f09 b03d b84f 93bd 600b 04bd
000003c0: 13b9 c7bd 8838 fe3d dfbd 0b3e b613 1fbe
000003d0: dce8 4b3d 059d 49bd ac06 84bc ede0 273d
000003e0: 8fc2 15bd cc72 893d 6edd d43d dd1e c5bc
000003f0: 4777 993d 39bb 8abd 6079 9e3c f29b adbd

lstm.bias_ih_l1 f4 [256]
0.17996505 0.07901117 -0.017305916 0.16425464 0.13193908 0.107111044 -0.03787953 0.113821544
-0.020313751 0.13712683 0.04022514 0.07265324 0.16884896 0.20495851 0.07440895 0.13533723
0.08404777 0.21942608 -0.010808557 0.15562437 0.27657598 0.080847554 0.11930758 0.25333712
0.088452496 0.08603055 0.19699481 0.16946769 0.048340518 0.28737417 0.19859385 0.12577939
0.087755024 -0.09107266 -0.018554786 0.12418993 0.15552352 0.09412728 0.00999455 0.15751754
0.13202247 0.18685594 0.03847325 0.07424088 0.17569268 -0.0149049675 0.06912808 0.048333447
0.15641989 0.26323965 0.06778248 -0.05711929 0.16477 0.05051774 0.069285825 0.12865277
-0.016099887 0.07062226 0.20112099 -0.0028260679 0.07885139 0.22644857 0.064975075 0.19861084
-0.019298626 -0.04123566 0.005347695 0.1445278 -0.079504475 -0.040167395 0.055157468 0.046100277
-0.011169115 0.098253235 0.110544726 0.03720033 0.030690378 -0.046989568 -0.057042096 0.09600927
0.075828575 0.046426482 0.06679562 0.12082691 -0.061112046 0.12898201 0.06171059 -0.14824519
0.03571268 0.02168731 -0.14047125 -0.027733432 0.113850676 0.029157698 -0.0803761 0.06842215
-0.046683885 -0.0136387525 0.058139358 0.052759066 -0.0004593285 -0.090681955 0.031054446 0.12765677
-0.027201382 0.06953975 -0.10617029 0.025901427 -0.14075221 -0.044952873 -0.0006932056 0.1155885
-0.14751072 -0.07453348 0.08785504 -0.113588944 -0.058695834 -0.08963249 -0.11910975 0.041540224
-0.03452541 0.07711444 -0.09881599 0.04992579 -0.10864707 -0.056903236 -0.1175838 -0.011462458
-0.053964395 -0.13040473 -0.10504427 0.04221211 -0.10175924 -0.08433426 0.039384242 0.13543458
-0.018172389 -0.04382282 -0.11204117 0.036294226 0.09448623 0.11785693 -0.060764227 0.117484085
-0.012070905 0.13762593 -0.038555942 0.07521549 0.007906609 -0.0064045335 -0.013291284 0.05373426
0.07533276 -0.04036617 0.09527988 0.034860216 0.01652319 -0.025084147 -0.042669334 -0.048721053
0.06306985 0.13122565 0.06982066 0.10101717 -0.08508727 -0.056771483 -0.12937322 -0.06193551
-0.038481213 -0.02509103 0.018248044 0.12061499 0.108819425 -0.027413432 0.0006275583 0.054314032
0.024495529 0.03411162 0.13027291 0.037902564 0.08430101 -0.0477481 0.11607232 -0.07878623
-0.06344665 -0.099049814 0.033668548 0.06871794 -0.1257379 -0.03474371 -0.12685443 -0.10690014
-0.038484253 -0.027844923 0.22090024 0.0031160144 0.13571446 0.23479284 -0.015514872 -0.0838072
0.014300411 0.013554865 0.12111432 0.19637917 0.12052931 0.13016604 0.2688393 0.13191198
0.19928007 0.006434694 0.095447354 0.04216095 0.22682823 -0.06253374 0.076961264 0.1972147
0.16799203 0.05568779 -0.022933701 0.16778956 0.21905637 0.11518443 0.20911457 -0.06420738
0.15695849 0.11060906 -0.065478705 0.010557327 0.08320555 0.018867414 0.07833051 -0.04010842
0.109915815 0.28556946 0.016017087 -0.068553 0.0867946 0.11564941 0.12510857 0.05898125
0.10282795 0.23532082 0.14189173 0.0323955 0.15922675 0.06186618 -0.04387117 0.17675158
-0.0438202 0.027793307 0.08441974 0.04641578 0.11551692 0.05832813 -0.0787691 0.20320234
00000000: c248 383e 9cd0 a13d 23c5 8dbc 5e32 283e
00000010: 0a1b 073e 095d db3d 9127 1bbd 451b e93d
00000020: 0669 a6bc fa6a 0c3e 1ec3 243d 39cb 943d
00000030: bee6 2c3e a5e0 513e b863 983d d895 0a3e
00000040: 3d21 ac3d 3bb1 603e 6016 31bc ff5b 1f3e
00000050: 5e9b 8d3e 6793 a53d 8857 f43d 67b5 813e
00000060: 9526 b53d c930 b03d 02b9 493e f088 2d3e
00000070: b500 463d b522 933e 305c 4b3e 50cc 003e
00000080: e8b8 b33d 4e84 babd 3500 98bc 4a57 fe3d
00000090: 8f41 1f3e cec5 c03d 2ec0 233c 474c 213e
000000a0: e630 073e 2a57 3f3e 2096 1d3d 9a0b 983d
000000b0: c8e8 333e f733 74bc 0693 8d3d 4bf9 453d
000000c0: 892c 203e 59c7 863e 8ad1 8a3d ebf5 69bd
000000d0: 78b9 283e b1eb 4e3d bae5 8d3d 8dbd 033e
000000e0: e9e3 83bc 67a2 903d a9f2 4d3e 8d35 39bb
000000f0: d67c a13d 22e2 673e a711 853d a460 4b3e
00000100: 2718 9ebc b9e6 28bd b83b af3b 18ff 133e
00000110: 3ed3 a2bd 9186 24bd ccec 613d a5d3 3c3d
00000120: aafe 36bc fe38 c93d 4665 e23d 605f 183d
00000130: 636a fb3c 2278 40bd f9a4 69bd 82a0 c43d
00000140: 034c 9b3d b229 3e3d 24cc 883d 1974 f73d
00000150: a050 7abd dc13 043e 3ec4 7c3d 96cd 17be
00000160: 7647 123d 96a9 b13c b2d7 0fbe 3931 e3bc
00000170: 8b2a e93d 20dc ee3c 3a9c a4bd ea20 8c3d
00000180: 9a37 3fbd 1375 5fbc 8923 6e3d e419 583d
00000190: 07d2 f0b9 76b7 b9bd e565 fe3c 75b8 023e
000001a0: 6fd5 debc db6a 8e3d cf6f d9bd 3b2f d43c
000001b0: 5921 10be 8120 38bd 3eb8 35ba aab9 ec3d
000001c0: 0d0d 17be 02a5 98bd 58ed b33d 52a1 e8bd
000001d0: 0b6b 70bd 3d91 b7bd d0ef f3bd 1526 2a3d
000001e0: 846a 0dbd 2dee 9d3d 0a60 cabd fc7e 4c3d
000001f0: 5b82 debd 5e13 69bd c6cf f0bd 09cd 3bbc
00000200: c509 5dbd d188 05be 7321 d7bd 9be6 2c3d
00000210: 2667 d0bd 71b7 acbd 5f51 213d 5daf 0a3e
00000220: 43de 94bc 8f7f 33bd d775 e5bd 41a9 143d
00000230: ff81 c13d f95e f13d e9e3 78bd 7f9b f03d
00000240: 0cc5 45bc d0ed 0c3e d6ec 1dbd 940a 9a3d
00000250: b98a 013c 1fdd d1bb b0c3 59bc 7518 5c3d
00000260: 1048 9a3d ff56 25bd 1922 c33d 96c9 0e3d
00000270: a45b 873c 457d cdbc 0ac6 2ebd ba8f 47bd
00000280: c42a 813d 0460 063e 22fe 8e3d 17e2 ce3d
00000290: 3c42 aebd 3789 68bd 6a7a 04be 17b0 7dbd
000002a0: 7a9e 1dbd b48b cdbc ec7c 953c fe04 f73d
000002b0: b8dc de3d 2292 e0bc b982 243a 6478 5e3d
000002c0: d9aa c83c a0b8 0b3d 4366 053e b83f 1b3d
000002d0: 02a6 ac3d 8393 43bd 53b7 ed3d ad5a a1bd
000002e0: 51f0 81bd a1da cabd 08e8 093d febb 8c3d
000002f0: 70c1 00be 6c4f 0ebd 21e6 01be 76ee dabd
00000300: aaa1 1dbd 091b e4bc ac33 623e 0c36 4c3b
00000310: bbf8 0a3e 896d 703e 1732 7ebc 1ca3 abbd
00000320: 454c 6a3c 3915 5e3c c90a f83d 9f17 493e
00000330: 12d8 f63d 3f4a 053e 4ea5 893e ef13 073e
00000340: 1310 4c3e 20da d23b e779 c33d f6b0 2c3d
00000350: a945 683e b111 80bd de9d 9d3d a6f2 493e
00000360: 1a06 2c3e e118 643d 75df bbbc 07d1 2b3e
00000370: 5050 603e d0e5 eb3d 2122 563e 297f 83bd
00000380: bab9 203e 0187 e23d b319 86bd a4f8 2c3c
00000390: ac67 aa3d d68f 9a3c bf6b a03d ba48 24bd
000003a0: 8b1b e13d 2936 923e 4436 833c 8465 8cbd
000003b0: 5ec1 b13d 99d9 ec3d 761c 003e 5396 713d
000003c0: 7697 d23d f1f7 703e 114c 113e 25b1 043d
000003d0: 560c 233e 6467 7d3d 42b2 33bd 5efe 343e
000003e0: cf7c 33bd caae e33c 42e4 ac3d 791e 3e3d
000003f0: 2394 ec3d 7ae9 6e3d b251 a1bd 4614 503e

lstm.bias_hh_l1 f4 [256]
0.13279428 0.118811354 0.1309062 -0.052202925 0.1742193 0.20261863 0.034228176 0.10877634
0.043660775 0.024492495 0.028991286 0.02845748 0.13801539 0.12690808 0.18546292 0.14606047
0.05330533 0.088846296 0.10639023 0.093895905 0.23530458 0.0788373 0.15487197 0.13037093
0.136086 0.14328909 0.18664753 0.29582876 0.07156084 0.20281784 0.1045673 0.18267083
0.19720578 0.06340707 0.019368637 0.07892763 -0.026136518 0.08254614 0.06506573 0.03966601
0.093496166 0.12486795 -0.071159855 0.007642577 0.019079495 0.01860117 0.063362814 0.13442038
0.20526186 0.101121284 0.048106052 -0.06255783 -0.017662091 0.14340164 0.15113017 0.11891921
0.15258998 0.03984822 0.19210756 0.12193425 -0.058368918 0.095167145 -0.045171335 0.15164934
0.024255129 -0.04804978 -0.037138246 0.054059643 0.027775187 -0.019018076 0.042957705 0.075748816
0.0042164554 0.0054724477 -0.1049045 0.058616176 -0.124033466 0.029456174 0.055510398 0.10733993
-0.07586549 0.04744176 -0.037943974 -0.075260915 -0.11626167 -0.0037921208 0.018735386 -0.0069424403
-0.108068705 -0.04051921 0.08064119 -0.05771226 0.1419379 0.05171641 0.116505414 0.06235457
-0.12139117 -0.06393291 -0.042609405 0.039228357 0.115243256 -0.026361393 0.010894738 -0.0072270166
-0.049372673 -0.03354692 0.09180381 -0.0496331 -0.113477066 -0.0695553 -0.022213291 0.006321357
-0.08656813 0.005677544 0.13386115 0.064690724 -0.095129125 -0.07086637 -0.016354619 0.12503336
-0.031661376 -0.0718499 0.058284186 0.027700417 -0.012274917 -0.033306636 -0.07241309 -0.07757981
0.028312875 -0.1334512 -0.09507408 -0.07532038 0.101271436 0.07051534 -0.10743961 0.0065441313
0.1192317 0.067800984 -0.036021348 0.094059266 -0.0144112175 -0.0014746023 -0.053347923 0.13173634
0.054459862 0.036474906 0.113734685 -0.041521877 0.018729901 -0.06181158 0.10936113 -0.05869563
0.02276205 -0.11912509 -0.12932616 -0.020418752 0.04791939 0.011329028 0.13243365 -0.08038208
0.003337103 0.12511903 0.11240934 0.09903503 -0.047951054 -0.095442 -0.0074034384 0.027296234
0.08091768 -0.0061281584 0.05697278 0.03659944 -0.019061692 0.10383046 0.036907684 0.11400329
-0.08766758 0.01916954 0.053401597 -0.1208617 0.11458789 -0.09975869 0.11264841 0.096716054
0.005282364 0.13244623 -0.021909945 -0.117066935 -0.079341985 -0.062106445 -0.046217524 -0.10408923
-0.044093966 -0.08152277 0.09806481 0.122052945 0.14521213 0.11502582 0.0008232942 -0.10739109
-0.034745574 -0.054810565 -0.06642664 0.173202 0.13127096 0.16581419 0.19403578 0.061252397
0.25380322 0.10939607 -0.023920609 0.17831679 0.08865718 0.13476844 0.040364314 0.0050143437
0.12445673 0.059621528 0.11450351 0.1977954 0.11458296 0.2314141 0.3412365 0.02750692
0.03861668 0.08785915 -0.05237972 0.03862916 0.00082907366 0.12226811 0.038768675 0.115815
0.06418977 0.24687396 -0.022838702 -0.0017265956 0.14341216 -0.015638033 0.20476402 -0.097161576
0.20025842 0.25772372 0.18951395 0.08871694 -0.064448446 0.18796878 0.04817704 0.012695335
0.14346896 0.14773527 0.09353781 0.09204136 0.009242136 0.238869 -0.00051390775 0.2233297
00000000: 39fb 073e 5e53 f33d 460c 063e bcd2 55bd
00000010: 8b66 323e 427b 4f3e d832 0c3d 21c6 de3d
00000020: a4d5 323d 7ca4 c83c 227f ed3c a91f e93c
00000030: e853 0d3e 31f4 013e fee9 3d3e e090 153e
00000040: b156 5a3d 0cf5 b53d 1fe3 d93d 7f4c c03d
00000050: aff3 703e 7375 a13d c296 1e3e f57f 053e
00000060: 215a 0b3e 60ba 123e 8820 3f3e de76 973e
00000070: 7d8e 923d 7baf 4f3e 6127 d63d 100e 3b3e
00000080: 50f0 493e 91db 813d faaa 9e3c cfa4 a13d
00000090: 401c d6bc f30d a93d 2e41 853d d378 223d
000000a0: eb7a bf3d c5ba ff3d 42bc 91bd 956e fa3b
000000b0: 9a4c 9c3c 7b61 983c 5dc4 813d 7fa5 093e
000000c0: 2a30 523e ad18 cf3d da0a 453d 521e 80bd
000000d0: 17b0 90bc e1d7 123e dec1 1a3e ea8b f33d
000000e0: 8c40 1c3e e337 233d d8b7 443e aab8 f93d
000000f0: 3f14 6fbd fee6 c23d 9405 39bd f749 1b3e
00000100: b1b2 c63c d9cf 44bd 461e 18bd a56d 5d3d
00000110: ca88 e33c cccb 9bbc 6bf4 2f3d 3222 9b3d
00000120: 312a 8a3b 3852 b33b 2cd8 d6bd 8417 703d
00000130: 4205 febd 134e f13c df5e 633d 0ad5 db3d
00000140: 5e5f 9bbd 4a52 423d 246b 1bbd 6522 9abd
00000150: 991a eebd 3b85 78bb f47a 993c 697d e3bb
00000160: 2053 ddbd 79f7 25bd 3527 a53d b163 6cbd
00000170: 2b58 113e 96d4 533d 649a ee3d 8167 7f3d
00000180: ef9b f8bd 42ef 82bd 3387 2ebd eaad 203d
00000190: a804 ec3d d9f3 d7bc d87f 323c 9cd0 ecbb
000001a0: 003b 4abd 7f68 09bd a303 bc3d 144c 4bbd
000001b0: aa66 e8bd 0273 8ebd a6f8 b5bc 6323 cf3b
000001c0: a24a b1bd b10a ba3b e612 093e 927c 843d
000001d0: 0fd3 c2bd 6322 91bd 1ffa 85bc bf08 003e
000001e0: 5caf 01bd 0a26 93bd 66bb 6e3d fceb e23c
000001f0: bc1c 49bc 8a6c 08bd 504d 94bd 2ae2 9ebd
00000200: 67f0 e73c 6ea7 08be 33b6 c2bd 9241 9abd
00000210: 6667 cf3d 596a 903d 4c09 dcbd 2770 d63b
00000220: c02f f43d 3edb 8a3d 1f8b 13bd 25a2 c03d
00000230: 071d 6cbc 7147 c1ba 5a83 5abd e4e5 063e
00000240: 4e11 5f3d b666 153d bbed e83d d812 2abd
00000250: 736f 993c 242e 7dbd baf8 df3d d46a 70bd
00000260: 7b77 ba3c dbf7 f3bd 146e 04be 3a45 a7bc
00000270: 1f47 443d 639d 393c b09c 073e 5c9f a4bd
00000280: 4cb3 5a3b 341f 003e de36 e63d e1d2 ca3d
00000290: 5368 44bd 1877 c3bd 8b98 f2bb 5a9c df3c
000002a0: 2bb8 a53d b8ce c8bb 4a5c 693d 4be9 153d
000002b0: 4427 9cbc 10a5 d43d 832c 173d 8f7a e93d
000002c0: 0f8b b3bd 7009 9d3c a2bb 5a3d 5786 f7bd
000002d0: 0ead ea3d 494e ccbd 36b4 e63d 1113 c63d
000002e0: ae17 ad3b fc9f 073e 7c7c b3bc cac0 efbd
000002f0: 0d7e a2bd 5463 7ebd 964e 3dbd bc2c d5bd
00000300: e09b 34bd 69f5 a6bd 34d6 c83d e5f6 f93d
00000310: 7db2 143e a892 eb3d 57d2 573a dcef dbbd
00000320: 6051 0ebd 0b81 60bd b10a 88bd dd5b 313e
00000330: e56b 063e 32cb 293e 51b1 463e cbe3 7a3d
00000340: 7ff2 813e 0c0b e03d 27f5 c3bc ad98 363e
00000350: e591 b53d bd00 0a3e 0d55 253d 5d4f a43b
00000360: 2ce3 fe3d b435 743d d180 ea3d e18a 4a3e
00000370: 79aa ea3d d1f7 6c3e 8db6 ae3e 3156 e13c
00000380: 862c 1e3d 7fef b33d 1e8c 56bd 9c39 1e3d
00000390: 3156 593a b467 fa3d e7cb 1e3d 6a30 ed3d
000003a0: ed75 833d 87cc 7c3e 3b18 bbbc ef4e e2ba
000003b0: a3da 123e 551b 80bc a9ad 513e a6fc c6bd
000003c0: 8b10 4d3e 5df4 833e f20f 423e 3ab1 b53d
000003d0: 8cfd 83bd e37a 403e 4a55 453d 1800 503c
000003e0: 87e9 123e ea47 173e c090 bf3d 2e80 bc3d
000003f0: 546c 173c 139a 743e c4b7 06ba 8ab0 643e
