LSTM/models/sensor_data_2_co_lstm_model.pth (torch, 206032 bytes, 9 tensors)

lstm.weight_ih_l0 f4 [256, 1]
0	0x3cfb6c26	0.030691218
1	0x3dadccab	0.08486303
2	0x3e3e62ac	0.18592328
3	0x3d1ca95f	0.038247462
4	0x3cff2c3c	0.031149022
5	0xbd2e4a34	-0.042551234
6	0xbcd64d1b	-0.026159814
7	0x3d848976	0.06471531
8	0x3e0eaa81	0.1393223
9	0xbd1b175b	-0.03786407
10	0x3d239625	0.03993811
11	0xbd0fe430	-0.035129726
12	0x3d88496a	0.066546276
13	0x3e39ce7a	0.18145171
14	0xbe29a7cc	-0.16567916
15	0x3da3203d	0.07965133
16	0x3e896710	0.26836443
17	0x3d81e11f	0.063417666
18	0x3db7a500	0.08967018
19	0x3c91032a	0.017701704
20	0x3e4dd39f	0.20100258
21	0x3d674714	0.05646427
22	0x3e6c421b	0.23072092
23	0x3d2b9b32	0.041896053
24	0xbbcfac5b	-0.006337685
25	0x3be67768	0.0070332773
26	0x3e028468	0.12745821
27	0xbe23bd18	-0.15990102
28	0x3df615fc	0.12015912
29	0xbe14a1e7	-0.14514886
30	0xbe090b09	-0.13383116
31	0x3de3c205	0.11120991
32	0xbd92c557	-0.07166546
33	0x3cbed650	0.023295552
34	0xbdd17b6b	-0.10228618
35	0x3e5e7a3a	0.21726313
36	0x3ae27c7c	0.0017279531
37	0x3d1383a8	0.03601423
38	0x3e0477ec	0.12936372
39	0x3cf74d57	0.030188246
40	0x3c6b1359	0.014347875
41	0x3e0a476b	0.13503806
42	0x3d4cd0b9	0.05000374
43	0xbe10ada7	-0.14128743
44	0xba0cc98b	-0.00053706084
45	0x3e46281c	0.19351238
46	0x3dd884ef	0.1057223
47	0x3dbd493a	0.092424825
48	0x3e0313c6	0.12800512
49	0x3cc526d0	0.024066359
50	0x3e33f944	0.17575556
51	0xbd7413f2	-0.059589334
52	0x3da6bc0a	0.08141334
53	0xb8686c1e	-5.5413802e-05
54	0x3d67c178	0.05658099
55	0xba75eddd	-0.00093814527
56	0x3d35a729	0.04434887
57	0xbcd3b61b	-0.02584367
58	0x3c6fce08	0.014636524
59	0x3ce4bc3d	0.02792179
60	0x3c305904	0.0107634105
61	0xbe7ab8f8	-0.24484622
62	0x3e399adb	0.18125479
63	0xbde14c8a	-0.11000927
64	0x3d2303ac	0.039798424
65	0x3e1c6b1e	0.15275237
66	0x3b730154	0.003707965
67	0xbba581a8	-0.0050508566
68	0xbe118a8c	-0.14213008
69	0x3d113207	0.0354481
70	0xbdc71708	-0.0972119
71	0x3e18ba0e	0.14914724
72	0xbda24386	-0.07923035
73	0xbd6397f0	-0.05556482
74	0x3e3b445e	0.18287799
75	0xbe94656b	-0.28983626
76	0xbe61bab3	-0.22043876
77	0x3dcc9343	0.099890254
78	0xbd1cd8f4	-0.03829284
79	0x3e0dc48e	0.13844511
80	0x3e1c2108	0.15246975
81	0xbe1cc0e7	-0.15307961
82	0x3d6f2c27	0.058391716
83	0x3dcb73c0	0.09934187
84	0x3d2f219b	0.042756658
85	0xbc8dc4ee	-0.017305817
86	0xbc04a068	-0.008094884
87	0xbdf08db4	-0.11745778
88	0xbd956544	-0.072947055
89	0x3c9809fd	0.01855945
90	0x3db8f811	0.0903169
91	0x3d853650	0.065045
92	0x3d6e2f5e	0.05815064
93	0x3ca7dc66	0.020490836
94	0xbdae6970	-0.08516204
95	0x3c8f7317	0.017510934
96	0xbce7781b	-0.028255513
97	0x3a581ab2	0.0008243724
98	0x3d65ab19	0.056071375
99	0xbd4b8c28	-0.04969421
100	0x3e226b11	0.15861155
101	0xbe246e23	-0.16057639
102	0xbcf33964	-0.029690452
103	0x3c23d005	0.009998326
104	0x3ddd78fd	0.10814092
105	0xbd874017	-0.06604021
106	0x3dfcc002	0.1234131
107	0xbdc0ca27	-0.094135575
108	0x3dd85190	0.10562432
109	0x3b169590	0.002297733
110	0x3e2630f2	0.16229609
111	0x3e139419	0.14411964
112	0xbcd36b08	-0.025807872
113	0xbd173220	-0.036913037
114	0xbc63bae6	-0.0138995405
115	0x3ca58f80	0.020210028
116	0xbd8752a4	-0.06607559
117	0xbd574fe6	-0.05256643
118	0xbd2aa8e6	-0.04166498
119	0x3c9ab137	0.01888333
120	0x3d55b766	0.052176856
121	0xbda3d5c2	-0.079997554
122	0xbd947161	-0.07248188
123	0xbdb07ec3	-0.08617928
124	0x3d6172ec	0.05504124
125	0xbdaf5661	-0.08561397
126	0x3d36409a	0.044495203
127	0xbe0e448c	-0.13893336
128	0x3e234ab1	0.15946461
129	0x3e1d87ab	0.15383784
130	0x3e2417dc	0.16024727
131	0x3dd8386d	0.10557637
132	0x3e0a05f9	0.13478841
133	0x3d771dc5	0.060331125
134	0x3d959110	0.07303059
135	0x3e36170e	0.17782232
136	0x3e2a4ea3	0.1663156
137	0xbdae2142	-0.08502437
138	0x3e1c8e48	0.15288651
139	0xbe01d8c6	-0.12680349
140	0xbd4a81fa	-0.04944036
141	0xbe770c9b	-0.24125902
142	0x3e46609a	0.19372788
143	0xbe1975e0	-0.14986372
144	0x3e905f0b	0.28197512
145	0xbd113146	-0.03544738
146	0xbe332d45	-0.17497738
147	0x3e788e2c	0.24272984
148	0xbe73a7a8	-0.23794425
149	0x3e6658b2	0.22494772
150	0xbe5a65a6	-0.21327838
151	0x3d9c25ad	0.076243736
152	0xbdd7982c	-0.10527071
153	0x3e417a1e	0.1889424
154	0xbe028e92	-0.12749699
155	0x3d498cc2	0.049206503
156	0xbe3acc8a	-0.18242088
157	0xbe15ec2e	-0.14640877
158	0xbc1a50c1	-0.009418667
159	0xbea09541	-0.31363872
160	0x3d4df60f	0.050283488
161	0xbd4997c3	-0.049216997
162	0x3c9fbe94	0.019500054
163	0xbe530afe	-0.20609662
164	0xbe18af9f	-0.14910744
165	0xbe14d405	-0.14534004
166	0x3e478ccc	0.19487303
167	0xbe25115c	-0.16119903
168	0x3e468d9f	0.19389962
169	0x3e2fecb5	0.1718014
170	0xbe3a6dae	-0.18205902
171	0x3ccc2857	0.02492158
172	0xbe2583d6	-0.16163573
173	0x3e0239c2	0.12717345
174	0xbe1ecd25	-0.15507944
175	0xbe18daae	-0.1492717
176	0xbe0754bc	-0.13215917
177	0x3cecef14	0.028922595
178	0xbe3813bf	-0.17976283
179	0x3e126bae	0.14298889
180	0x3e6c468a	0.23073784
181	0xbe7244ec	-0.23659104
182	0xbea37b64	-0.31930077
183	0xbe27092c	-0.16312093
184	0x3e5309f7	0.2060927
185	0xbe2bd80e	-0.16781637
186	0x3e2c635c	0.16834778
187	0xbe2cb3a9	-0.1686541
188	0x3db235a0	0.087016344
189	0x3e0edfe1	0.1395259
190	0x3e68e37e	0.22743031
191	0xbda8afe8	-0.082366765
192	0x3dfb4a03	0.12269976
193	0x3dfd5726	0.12370138
194	0x3e7644c3	0.24049668
195	0x3d18f6aa	0.037344612
196	0xbe4e3b50	-0.20139813
197	0x3ca60753	0.020267164
198	0xbe241003	-0.16021733
199	0x3d6ecb09	0.0582991
200	0x3cdf5741	0.027263286
201	0xbd045443	-0.03230692
202	0x3df4a860	0.119461775
203	0xbded1896	-0.11576955
204	0xbdb53a06	-0.08848958
205	0x3e35a488	0.17738545
206	0xbe2242dc	-0.15845817
207	0x3c87f6e7	0.016597224
208	0x3d27e62c	0.040990993
209	0xbe0f1723	-0.1397367
210	0x3e345d0b	0.17613618
211	0x3dfe0cbf	0.12404775
212	0x3db6da48	0.089283526
213	0x3e50cc79	0.203905
214	0x3d5d5e79	0.054045174
215	0xbc95a662	-0.018267814
216	0x3d18a9c6	0.037271284
217	0x3e041be2	0.12901261
218	0x3e159926	0.14609203
219	0xbc6f157c	-0.014592525
220	0x3d05d669	0.03267518
221	0xbe5bcae8	-0.21464121
222	0xbe197deb	-0.1498944
223	0x3ddb8967	0.10719567
224	0xbe4903d3	-0.19630365
225	0x3e123f6f	0.1428201
226	0x3d17d736	0.037070476
227	0x3e7061db	0.23474829
228	0x3e457ebb	0.19286625
229	0xbd0ff14a	-0.03514222
230	0x3e329ffc	0.17443842
231	0xbcb0a55f	-0.02156323
232	0x3e1e3260	0.15448904
233	0x3db929a1	0.09041143
234	0xbd0e2c08	-0.03470996
235	0x3d817747	0.063215785
236	0x3e3bc683	0.18337445
237	0x3e5d2706	0.21596918
238	0x3e2153c0	0.15754604
239	0x3e389b2a	0.1802794
240	0x3dbef2be	0.09323643
241	0xbd9cfdff	-0.076656334
242	0x3d3f13b4	0.04664965
243	0xbe45f0a2	-0.19330075
244	0x3d31e1da	0.04342828
245	0x3c5158ad	0.01277749
246	0x3e0f9d5e	0.14024875
247	0xbc86bd36	-0.016447645
248	0x3dee3581	0.11631299
249	0x3e3f0fa6	0.18658313
250	0x3cedeb7f	0.029042957
251	0x3d8e2fb4	0.069426924
252	0xbe157d5c	-0.14598602
253	0xbde193f9	-0.11014552
254	0x3e18a986	0.14908418
255	0xbd4a81e4	-0.04944028

lstm.weight_hh_l0 f4 [256, 64]
0	0xbe231c9a	-0.1592888
1	0xbdc661ac	-0.09686598
2	0x3d56e5d9	0.052465294
3	0x3d63658b	0.05551676
4	0x3d85dd75	0.0653638
5	0xbe125973	-0.14291935
6	0x3e2b9f43	0.16759972
7	0xbd53ec22	-0.051738866
8	0x3dd7ab6b	0.10530742
9	0x3dee9bb7	0.11650794
10	0x3db1a332	0.08673705
11	0xbd35df70	-0.04440254
12	0xbd91258d	-0.0708724
13	0x3d81e856	0.06343143
14	0xbd3fef26	-0.04685893
15	0xbcf9f89d	-0.030514056
16	0x3d6076e1	0.05480087
17	0xbd99c006	-0.07507329
18	0x3df8267f	0.121167175
19	0x3d955c94	0.072930485
20	0xbe182783	-0.14858823
21	0x3d37e707	0.04489806
22	0xb92393e5	-0.00015599986
23	0xbd0269af	-0.03183907
24	0xbe2fa622	-0.17153218
25	0x3e15e74c	0.14639014
26	0x3d5b4361	0.053531054
27	0x3ce16d7d	0.027518028
28	0x3d804a02	0.06264116
29	0x3d115bbf	0.035487887
30	0x3e0177ae	0.1264331
31	0xbdb8cbcd	-0.09023247
32	0xbe170f2a	-0.14751878
33	0xbe02c5af	-0.12770723
34	0x3dc9b0bf	0.09848165
35	0xbe0fb8a3	-0.14035277
36	0x3e18e674	0.14931661
37	0x3e0d4c9a	0.13798752
38	0x3d72ae2b	0.05924813
39	0xbcba93ef	-0.022775618
40	0x3d967a9c	0.07347605
41	0x3cbbdace	0.022931483
42	0xbe2f002e	-0.17089912
43	0x3dd6a3c7	0.10480457
44	0xbdcb4aaa	-0.099263504
45	0x3b6f77ad	0.0036539838
46	0xbca8c094	-0.02059964
47	0xbe25b34a	-0.16181675
48	0xbdb93afc	-0.090444535
49	0x3ddeaa4f	0.108723275
50	0x3d34b04f	0.044113453
51	0xbd0178bc	-0.031609282
52	0x3c63e002	0.013908388
53	0x3d2f505a	0.04280124
54	0xbe1911ec	-0.14948243
55	0x3d7c9e18	0.061674207
56	0x3cfa1749	0.030528681
57	0xbcec0493	-0.028810775
58	0xbdb62770	-0.08894241
59	0xbd9f1e56	-0.07769458
60	0xbc6a3b50	-0.014296368
61	0xbe139190	-0.14410996
62	0x3e20b1f6	0.15692887
63	0x3d64cafb	0.05585764
64	0xbdca5015	-0.09878556
65	0xbc9ab7d4	-0.018886484
66	0x3c0a4f40	0.008441746
67	0x3d4da0f9	0.050202344
68	0x3c99fac8	0.01879634
69	0x3c606a5e	0.013697235
70	0x3d7a7b5c	0.0611528
71	0x3d15da17	0.03658494
72	0xbcc8514e	-0.024452832
73	0x3c7a0137	0.015259079
74	0x3d062780	0.032752514
75	0x3d04c919	0.032418344
76	0xbd6c60a1	-0.05770934
77	0x3c64d5d9	0.013967001
78	0xbd145774	-0.036216214
79	0xbd8eaecf	-0.06966936
80	0x3d6013da	0.054706432
81	0xbd8305ec	-0.06397614
82	0x3db3bed6	0.087766334
83	0x3e047972	0.12936953
84	0xbde53079	-0.11190886
85	0x3dceb605	0.10093311
86	0xbe076919	-0.13223685
87	0x3dc5ef6d	0.096648075
88	0x3d293a89	0.04131559
89	0x3ddcc7d5	0.107803024
90	0x3bdb9c34	0.0067019705
91	0xbd47e92d	-0.048806358
92	0x3d859bde	0.0652387
93	0x3d13ad4d	0.036053944
94	0xbd83b6c5	-0.06431345
95	0xbdcf6bca	-0.10127981
96	0x3d9d72fa	0.07687946
97	0x3dd708d1	0.104997285
98	0x3e05bafe	0.13059613
99	0xbddd82c8	-0.1081596
100	0xbdc7c2e3	-0.097539686
101	0xbd94cb8d	-0.07265387
102	0x3d70088c	0.0586019
103	0xbc3fd34d	-0.011708093
104	0x3e178b52	0.1479924
105	0x3dad2af9	0.08455462
106	0xbe047cff	-0.12938307
107	0x3d038f01	0.0321188
108	0xbb95a4e4	-0.0045667756
109	0xbd346c2e	-0.04404848
110	0xbdf147ee	-0.117812976
111	0x3c5ed295	0.013600011
112	0xbe1a7bc1	-0.15086271
113	0x3e2b443a	0.16725245
114	0x3c32e7c7	0.010919518
115	0x3dc44da5	0.09585122
116	0x3e1949f2	0.14969614
117	0xbde3896d	-0.11110196
118	0xbdf65aec	-0.12029061
119	0x3d028690	0.03186661
120	0xbce47a18	-0.02789025
121	0x3db42060	0.087952375
122	0x3c8655f8	0.016398415
123	0xbdccb2eb	-0.099950634
124	0xbd00cd51	-0.031445805
125	0xbb230939	-0.0024877323
126	0x3dfe196d	0.12407193
127	0x3dd19ab4	0.102345854
128	0xbdeaf00c	-0.114715666
129	0xbd2a8e9f	-0.04163992
130	0x3de3efc6	0.111297175
131	0xbe150e9f	-0.14556359
132	0xbe2bc641	-0.16774847
133	0xbe245cd1	-0.16051032
134	0x3d02c67e	0.03192758
135	0xbd118ba2	-0.035533555
136	0xbdf938d9	-0.12169046
137	0x3dc461e2	0.09588982
138	0xbc9025ee	-0.017596211
139	0xba81ab3e	-0.0009892953
140	0xbe39ee95	-0.18157418
141	0xbd3ee07b	-0.0466008
142	0xbe72bbae	-0.23704407
143	0x3d154bb5	0.036449153
144	0xbd98317d	-0.07431314
145	0x3be90f4b	0.0071124188
146	0x3c9e73b2	0.019342277
147	0x3da35f71	0.079771884
148	0x3e000d2d	0.12505026
149	0xbcef6ef5	-0.029227713
150	0xbc9d339b	-0.019189646
151	0xbe6023d9	-0.21888675
152	0x3d0891fc	0.033342347
153	0x3df7b7ea	0.12095626
154	0x3d96908f	0.07351791
155	0xbe1cc03d	-0.15307708
156	0xbd5f98ef	-0.05458921
157	0x3e2bff2d	0.1679656
158	0x3bd1a5e9	0.006397952
159	0x3dbf9303	0.09354212
160	0xbe3b93fc	-0.1831817
161	0xbe6715d4	-0.2256692
162	0x3c80ef60	0.015739143
163	0xbdb518d2	-0.08842625
164	0x3d15f8a8	0.03661409
165	0x3e1892bb	0.14899723
166	0x3d088458	0.033329338
167	0x3d463354	0.048388794
168	0xbd330e25	-0.04371466
169	0x3d2f9c91	0.042873923
170	0x3d834d7f	0.064112656
171	0xbe634357	-0.22193657
172	0xbdeedb74	-0.11662951
173	0xbd5ce963	-0.053933512
174	0xbda85ac6	-0.08220439
175	0xbd484eb7	-0.048903193
176	0x3ba08ff6	0.004899974
177	0x3da61178	0.08108801
178	0xbd24aec6	-0.04020574
179	0xbd9fad4d	-0.077967264
180	0xbda3bdf5	-0.07995216
181	0x3e053504	0.13008505
182	0x3d9ace67	0.075588994
183	0x3deabe6c	0.11462101
184	0xbe0117a6	-0.12606677
185	0x3db7084f	0.089371316
186	0x3d17ddae	0.037076645
187	0xbda2a3fe	-0.07941435
188	0xbd719787	-0.0589824
189	0xbdcf00ff	-0.10107612
190	0xbda6534b	-0.081213556
191	0x3e0be930	0.13663173
192	0xbdc4193d	-0.09575126
193	0x3dbfdd61	0.093683966
194	0x3e060fb3	0.13091926
195	0xbd043e2a	-0.032285847
196	0xbdeb4c70	-0.11489189
197	0xbe1956b0	-0.14974475
198	0xbda32f8e	-0.07968055
199	0x3cca1313	0.024667298
200	0x3d8a437d	0.067511536
201	0xbc8dc927	-0.017307831
202	0xbd47543f	-0.048664328
203	0x3d84a49b	0.064767085
204	0xbcef5226	-0.029213976
205	0xbd6a1f48	-0.05715874
206	0xbde11bc0	-0.10991621
207	0xbe1afe9d	-0.1513619
208	0x3ddbf623	0.10740306
209	0xbd508148	-0.050904542
210	0x3dff323b	0.124607526
211	0x3e3d4272	0.18482378
212	0xbde686dd	-0.11256192
213	0x3cc130c3	0.023582822
214	0xbe292e04	-0.1652146
215	0x3d1de360	0.03854692
216	0xb93ddfe6	-0.00018107853
217	0x3e0e2c2e	0.1388404
218	0x3c32fc02	0.010924341
219	0x3d917489	0.071023054
220	0x3dfb32b0	0.12265527
221	0xbd493592	-0.049123354
222	0xbdc43a36	-0.09581415
223	0xbc03b61c	-0.008039024
224	0xbd9de1f9	-0.077091165
225	0xbc8976c6	-0.016780268
226	0x3dcf6c65	0.101280965
227	0x3c408611	0.011750714
228	0x3c708d85	0.014682178
229	0xbd40ec8a	-0.04710058
230	0x3d43372b	0.047660034
231	0x3daceb4e	0.08443318
232	0x3d7784b7	0.0604293
233	0x3d6f1d58	0.058377594
234	0xbdef0f23	-0.11672809
235	0x3d1deb3f	0.038554426
236	0xbde3fda6	-0.11132364
237	0xbe0343ec	-0.12818879
238	0x3e179be0	0.14805555
239	0x3ce51040	0.02796185
240	0xbd17b0a7	-0.037033703
241	0xb8ce8c9c	-9.849036e-05
242	0xbb3d04cd	-0.0028841973
243	0x3dc072da	0.09396906
244	0x3dae1538	0.08500141
245	0x3d597339	0.0530884
246	0x3d33738f	0.043811377
247	0xbd84cb2d	-0.06484065
248	0xbdb0c25d	-0.08630822
249	0x3d49b46b	0.049244326
250	0xbd85c995	-0.06532589
251	0x3d850fa2	0.06497122
252	0x3dc58fa8	0.09646541
253	0xbd3c5634	-0.045980647
254	0x3cde60c3	0.027145749
255	0xbdc4b3cc	-0.09604606

lstm.bias_ih_l0 f4 [256]
0	0x3c62a33d	0.013832864
1	0x3e15c954	0.14627582
2	0x3e4aed76	0.19817147
3	0x3e0b9ca2	0.1363397
4	0x3e5af1cd	0.21381302
5	0xbd35b9ad	-0.044366527
6	0x3d5a528b	0.053301375
7	0x3de4af40	0.11166239
8	0x3e42205a	0.18957654
9	0xbd7e817c	-0.062135205
10	0x3d6c7963	0.05773295
11	0x3e507acf	0.20359348
12	0x3e2ba8b2	0.16763571
13	0x3d2444d6	0.04010471
14	0x3e29e27b	0.16590302
15	0x3e32f46b	0.1747605
16	0x3d9ac56f	0.07557189
17	0xbcb6c7af	-0.022312013
18	0x3e522e06	0.20525369
19	0x3c874409	0.016511934
20	0x3ccf3193	0.025292194
21	0x3e089e8f	0.13341735
22	0x3e472b68	0.19450152
23	0xbd9ff918	-0.07811183
24	0x3c34d3e0	0.011036843
25	0x3e28a9db	0.16471045
26	0x3debc721	0.1151259
27	0x3df8ce8d	0.121487714
28	0x3db5746f	0.088600986
29	0x3d200e83	0.03907634
30	0x3d765c9a	0.060146905
31	0x3db11ba4	0.0864785
32	0x3dfeafec	0.12435898
33	0x3e2cb1a0	0.16864634
34	0x3cfa79e0	0.030575693
35	0x3e26bb19	0.1628231
36	0x3e07dc78	0.13267696
37	0x3e7c32c3	0.24628739
38	0x3e65f4f8	0.2245673
39	0x3e03c6f1	0.12868859
40	0x3e7fa97c	0.24966997
41	0x3ea85443	0.32876787
42	0x3da8aa11	0.082355626
43	0x3e11c76d	0.14236231
44	0x3d080920	0.033211827
45	0x3e1c4b0c	0.15263003
46	0x3dda9770	0.10673416
47	0x3dcaab82	0.09895994
48	0x3d87d665	0.066326894
49	0xbda151ad	-0.078769065
50	0x3d32fff0	0.043701112
51	0x3dce2261	0.10065151
52	0x3e9578f7	0.2919385
53	0x3dadb173	0.084811114
54	0x3e74da46	0.2391139
55	0x3d936b7b	0.07198235
56	0x3e89ec4b	0.2693809
57	0x3e4d012d	0.2001998
58	0xbc5e73f8	-0.013577454
59	0x3e701bad	0.23448057
60	0x3e3178c7	0.17331229
61	0x3e1b73b3	0.15180854
62	0x3e199f46	0.15002164
63	0x3d87360a	0.06602104
64	0x3e1b5b28	0.15171492
65	0xbd5a534a	-0.053302087
66	0x3d3b0b3f	0.045665022
67	0xbd85ac66	-0.06527023
68	0x3de2ba8f	0.110707395
69	0x3d82f4ab	0.06394323
70	0x3d285a82	0.04110194
71	0xbdd04d8c	-0.10171041
72	0x3d7bb69a	0.06145344
73	0x3d096871	0.03354687
74	0x3d42be78	0.047544926
75	0xbd841276	-0.06448834
76	0x3d691447	0.056904104
77	0xbcd620a6	-0.026138615
78	0x3d0b4f47	0.03401115
79	0xbdfa5e87	-0.12225061
80	0x3d0bd200	0.03413582
81	0x3dbd1230	0.092319846
82	0x3dd4b59f	0.10386204
83	0xbd0d292d	-0.034463096
84	0xbe1986de	-0.14992854
85	0xbc8b53ca	-0.017007727
86	0xbd9ec552	-0.077524796
87	0xbd64287c	-0.05570267
88	0xbde94cc9	-0.11391599
89	0xbdc5b307	-0.096532874
90	0x3dd95c03	0.10613253
91	0x3d1560e9	0.036469374
92	0x3c7f550a	0.01558424
93	0xbd01d083	-0.031692993
94	0xbd0e5c72	-0.03475613
95	0xbd46f5b7	-0.048574176
96	0x3c949160	0.018135726
97	0x3d8a024c	0.06738719
98	0x3d7cbc1e	0.06170284
99	0xbd74fca3	-0.059811246
100	0x3c6c93f9	0.014439576
101	0x3cac0298	0.02099733
102	0x3d84bbcb	0.06481131
103	0x3c14a0e0	0.009071559
104	0x3d8ccffd	0.06875608
105	0xbcc438d2	-0.023952875
106	0x3e07c65a	0.13259259
107	0xbc3d2a31	-0.011545704
108	0x3de9709d	0.113984324
109	0xbd8b584b	-0.0680395
110	0xbd825f15	-0.06365792
111	0xbd85519d	-0.06509707
112	0x3d518bc4	0.05115868
113	0x3cd1eac3	0.025624638
114	0xbe10e8a4	-0.14151245
115	0xbdd44d1f	-0.10366272
116	0xbd0100d4	-0.03149493
117	0xbe18e80d	-0.1493227
118	0xbafa6206	-0.00191027
119	0xbc844ab2	-0.016148899
120	0x3d131bb3	0.035915088
121	0xbd0c943f	-0.034321066
122	0xbcd26da5	-0.025687048
123	0x3db28de3	0.08718469
124	0x3cf10efd	0.029426092
125	0xbd8fde7f	-0.0702486
126	0xbd5cc37b	-0.053897362
127	0xbd9daae5	-0.07698611
128	0x3d0ca4f2	0.03433699
129	0xbd613fa9	-0.05499235
130	0x3e073a20	0.13205767
131	0xbc4ecd89	-0.012622246
132	0xbe09cd33	-0.13457184
133	0xbd880af4	-0.06642714
134	0x3e15ea79	0.14640225
135	0x3de0f824	0.10984829
136	0x3e0d38fe	0.13791272
137	0x3d2de180	0.04245138
138	0x3d2269e5	0.03965177
139	0x3dc74b7f	0.097311966
140	0xbd05f873	-0.032707643
141	0xbdd585d9	-0.1042592
142	0xbe10b9f5	-0.14133437
143	0xbe0680f2	-0.13135126
144	0x3d479b90	0.04873234
145	0x3e10e078	0.14148128
146	0xbdb90648	-0.09034401
147	0x3d56175a	0.052268364
148	0x3c602c53	0.013682443
149	0x3dc4ca2f	0.09608876
150	0xbdf006be	-0.11720036
151	0xbd1100ae	-0.03540104
152	0xbc2895d0	-0.010289624
153	0x3e0f7507	0.14009486
154	0xbd52941a	-0.051410772
155	0xbce4159e	-0.02784234
156	0x3d26b5f2	0.04070086
157	0x3e041631	0.1289909
158	0x3e058f8d	0.13043042
159	0xbdac5627	-0.0841487
160	0xbe26fafa	-0.16306677
161	0x3cd20c4a	0.025640626
162	0x3c1eea8b	0.009699474
163	0x3d467eb6	0.048460685
164	0xbd3f60fd	-0.046723355
165	0x3df0a59d	0.11750338
166	0x3d4e9f36	0.050444804
167	0xbca4a0b5	-0.020096162
168	0x3db31b3e	0.087454304
169	0x3cc50210	0.024048835
170	0xbde632c1	-0.11240149
171	0x3d4f5e7a	0.05062721
172	0xbe1a59e8	-0.15073359
173	0x3d0e981b	0.034813028
174	0xbda82832	-0.08210792
175	0xbe0ace20	-0.13555193
176	0x3c54f80e	0.012998594
177	0x3dde75d6	0.10862319
178	0x3d5ddb47	0.054164197
179	0xbe14f4ab	-0.14546458
180	0xbd7d1c79	-0.06179473
181	0xbcadafc0	-0.021201968
182	0xbceacb45	-0.02866138
183	0xbc1611e5	-0.00915954
184	0xbe050071	-0.1298845
185	0x3c931f55	0.017959276
186	0x3d2acd99	0.04169998
187	0xbd93931b	-0.072057925
188	0xbdc5ef4e	-0.09664784
189	0xbdabd5fe	-0.08390425
190	0x3daf81d6	0.08569686
191	0x3e114f63	0.1419044
192	0x3defaafe	0.11702536
193	0x3e426230	0.18982768
194	0x3e88edbd	0.2674388
195	0xbd1fae6e	-0.03898471
196	0x3e61b3f6	0.22041306
197	0xbcb0863f	-0.021548389
198	0xbdc01a71	-0.09380043
199	0x3debad60	0.11507678
200	0x3e5a1149	0.21295656
201	0x3e3528e9	0.17691387
202	0x3e36d56c	0.17854851
203	0x3e4c5d57	0.19957481
204	0x3ca52f36	0.020164113
205	0x3e549ef9	0.20763768
206	0x3ddb378c	0.10703954
207	0x3df53e20	0.1197474
208	0x3e833242	0.2562428
209	0x3d919c70	0.07109916
210	0x3d57d4fb	0.05269335
211	0x3e4197cf	0.18905567
212	0x3e79ad31	0.24382474
213	0x3e8635d5	0.26212946
214	0x3d5df4e9	0.054188643
215	0x3d5a022c	0.053224728
216	0x3e3848f8	0.17996585
217	0xbc3ecea7	-0.011645949
218	0x3e0f1446	0.13972577
219	0x3da50f10	0.080595136
220	0x3e0d8332	0.13819578
221	0x3e6a159a	0.22859803
222	0xbb94be13	-0.00453926
223	0x3e4cea97	0.20011364
224	0x3d41c4f7	0.04730698
225	0x3c8b7506	0.017023575
226	0x3d4cfb67	0.050044443
227	0x3d82f5c4	0.06394532
228	0x3e4e3db7	0.2014073
229	0x3e2ef7dc	0.17086738
230	0x3d08df25	0.033415932
231	0x3e2051e3	0.15656237
232	0x3ccdd8e0	0.025127828
233	0x3e34234a	0.17591587
234	0x3d4f13b8	0.050555915
235	0x3df36cc8	0.11885983
236	0x3e56f7fe	0.20993039
237	0x3bac98a9	0.005267222
238	0xbcf214b2	-0.029550884
239	0x3e339e54	0.17540866
240	0x3ba8c5c4	0.0051505286
241	0xbd1bb7a1	-0.03801692
242	0x3e1672be	0.14692208
243	0x3de37708	0.11106688
244	0x3e65292a	0.22378984
245	0x3e44e149	0.19226564
246	0x3e9ddab4	0.3083092
247	0x3e3a0732	0.18166807
248	0x3e835d06	0.2565691
249	0x3e849f43	0.25902757
250	0x3e170b57	0.1475042
251	0x3e5ecfc8	0.2175895
252	0x3e25c5b1	0.16188695
253	0x3d35ad5a	0.044354774
254	0x3d84ea66	0.064900205
255	0x3e209459	0.1568159

lstm.bias_hh_l0 f4 [256]
0	0x3e308f0a	0.17242065
1	0x3d22073d	0.039557684
2	0x3df54bab	0.11977323
3	0x3e0f7627	0.14009915
4	0x3c941472	0.018076155
5	0x3c584e20	0.01320222
6	0x3ccbbb2d	0.024869526
7	0x3dd0de84	0.101986915
8	0x3da76610	0.08173764
9	0x3da0ba85	0.07848076
10	0x3e344cee	0.17607471
11	0x3ea575f5	0.32316557
12	0x3d93072c	0.07179102
13	0x3e066c78	0.13127315
14	0x3df75fe6	0.12078838
15	0x3e293dd5	0.16527493
16	0x3e7bc27f	0.24585913
17	0x3c97ee6a	0.018546302
18	0x3decf159	0.11569471
19	0x3e6bf372	0.23042086
20	0x3e785bb4	0.24253732
21	0x3d0f2ec3	0.034956705
22	0x3e34c736	0.17654118
23	0xbd922810	-0.071365476
24	0x3e28a9ee	0.16471073
25	0x3de500d1	0.11181796
26	0x3cbdf194	0.023186482
27	0x3dbe7d9b	0.09301301
28	0x3d92dec1	0.07171393
29	0x3ddacd41	0.1068368
30	0xbd2c416d	-0.042054582
31	0x3e7029a0	0.23453379
32	0x3e0a1086	0.13482866
33	0x3dd4cc6c	0.10390553
34	0xbd1bef87	-0.038070228
35	0x3e0af1a7	0.13568746
36	0x3d12663d	0.035742033
37	0x3e81e734	0.25371706
38	0x3c18e393	0.009331602
39	0x3e381fc8	0.17980874
40	0x3e126f43	0.14300255
41	0x3e4ab4ee	0.19795582
42	0xbc1808eb	-0.00927947
43	0x3dbb12a2	0.09134413
44	0x3dcc1226	0.09964399
45	0x3e2a51f7	0.1663283
46	0x3e10ce2f	0.14141153
47	0x3d580e22	0.052747853
48	0x3dadc45b	0.084847175
49	0xbd9cbb5d	-0.07652924
50	0xbd161968	-0.036645323
51	0x3e11d708	0.14242184
52	0x3dbc88af	0.09205758
53	0x3d8c480b	0.068496786
54	0x3e517e72	0.20458391
55	0x3e3d585c	0.18490738
56	0x3e75fdb6	0.24022564
57	0x3e71f0f4	0.23627073
58	0x3e36da4c	0.17856711
59	0x3c6d1bef	0.014471992
60	0x3c248b0d	0.010042918
61	0x3e7165cb	0.23573987
62	0x3e88c58d	0.2671322
63	0xbcc76524	-0.02434022
64	0x3d63a40a	0.05557636
65	0x3ce1e896	0.027576726
66	0xbd9f0515	-0.07764641
67	0xbc58eec8	-0.013240524
68	0x3b2788fc	0.0025563827
69	0xbd07def8	-0.033171624
70	0x3da92e24	0.08260754
71	0xbe150bd6	-0.14555296
72	0xbe025c63	-0.12730555
73	0xbd9084d2	-0.070565835
74	0xbd952a92	-0.0728351
75	0xbdeb6461	-0.11493755
76	0x3d76826d	0.060182977
77	0x3cbd4166	0.023102473
78	0x3b187599	0.0023263453
79	0xbd77905b	-0.060440402
80	0x3d0e82cc	0.034792706
81	0x3d602bfe	0.054729454
82	0xbca49e59	-0.020095037
83	0x3c066ab2	0.008204149
84	0x3da9a5b8	0.082835615
85	0xbde58572	-0.11207093
86	0xbdde3254	-0.10849443
87	0xbd7f895f	-0.062386867
88	0xbceaf277	-0.02868007
89	0xbdce2535	-0.100656904
90	0x3dd893b3	0.105750464
91	0x3dcc1784	0.09965423
92	0xbd02adc8	-0.031904012
93	0x3c1cad71	0.009562836
94	0x3dc7cbdf	0.09755682
95	0xbe0277e8	-0.12741053
96	0xbdac5512	-0.084146634
97	0x3dca5932	0.09880294
98	0x3deef500	0.11667824
99	0xbddaa2b1	-0.10675562
100	0xbca1bcef	-0.01974341
101	0xbd056f24	-0.032576695
102	0xbe15fb76	-0.14646706
103	0xbd7ce0a5	-0.061737675
104	0xbd803ec8	-0.062619746
105	0xbd656536	-0.056004725
106	0xbd43e444	-0.047825113
107	0xbdd068a1	-0.101762064
108	0x3bc35544	0.005961092
109	0xbddfa08c	-0.10919294
110	0xbd8934ff	-0.06699561
111	0xbd77ada6	-0.06046834
112	0xbdd8edeb	-0.10592254
113	0xbdc494ed	-0.09598718
114	0x3d611c6b	0.054958742
115	0x3dff5e41	0.124691494
116	0x3ba39068	0.00499158
117	0x3d6ebb82	0.05828429
118	0x3da763f9	0.08173365
119	0xb92d476a	-0.0001652517
120	0x3d25ea27	0.04050651
121	0x3db46bc6	0.08809619
122	0x3c76d1ac	0.015064638
123	0x3d27a6c6	0.040930532
124	0x3bb5a070	0.0055428073
125	0x3d0f0c4b	0.034923833
126	0xbd6381d6	-0.055543743
127	0x3cd5d84e	0.026104119
128	0xbdeaa935	-0.11458055
129	0xbc86b8e1	-0.016445579
130	0x3de6a916	0.11262719
131	0xbdc6ce08	-0.09707266
132	0xbe00d5ec	-0.12581605
133	0xbe07d220	-0.1326375
134	0x3d645c1e	0.055751912
135	0xbc93ca83	-0.018040901
136	0x3d14de09	0.03634456
137	0x3de1b2cc	0.11020431
138	0x3c9edca9	0.019392328
139	0x3d91cfb8	0.07119697
140	0xbd8a714d	-0.06759892
141	0xbc6feecb	-0.014644335
142	0xbde5ac0d	-0.11214457
143	0x3dbf4a5d	0.093403555
144	0x3d5c352c	0.053761646
145	0x3d92cf9a	0.07168503
146	0x3dd50c4a	0.104027346
147	0x3e036aa5	0.1283365
148	0xbde702ce	-0.11279832
149	0x3da49739	0.08036656
150	0x3dbc2461	0.09186626
151	0xbe149437	-0.14509664
152	0x3ae4cc70	0.0017455947
153	0x3cd1de43	0.025618678
154	0xbe0f0a40	-0.13968754
155	0xbe0c81dc	-0.13721412
156	0xbc67f3df	-0.0141572645
157	0x3e0bf70a	0.13668457
158	0x3e17c220	0.14820147
159	0xbcc85f97	-0.024459643
160	0xbd825667	-0.06364136
161	0xbdc2bb67	-0.095084004
162	0x3df641d4	0.120242745
163	0xbdf45bad	-0.11931548
164	0x3da15132	0.07876815
165	0x3d3241d0	0.043519795
166	0x3dbe4afc	0.09291646
167	0x3dba37dc	0.090926856
168	0x3ccf73bb	0.02532374
169	0xbd81c04a	-0.06335504
170	0xbe24ce4b	-0.1609432
171	0xbdc52cb4	-0.09627667
172	0xbdae579f	-0.08512806
173	0x3c99bac5	0.018765816
174	0x3dc151dc	0.094394416
175	0xbe4b5709	-0.1985742
176	0xbd907d46	-0.07055144
177	0x3e1eaf9c	0.15496677
178	0xbd463a8d	-0.048395682
179	0xbd0fa4cf	-0.035069283
180	0x3c3afd6d	0.0114129605
181	0x3df3becb	0.11901625
182	0xbe20b131	-0.15692593
183	0x3deb700d	0.11495981
184	0x3b06ad39	0.0020550026
185	0x3d4973be	0.049182646
186	0xbd98adc0	-0.07455015
187	0x3ce19adc	0.027539663
188	0xbd86f1b5	-0.06589071
189	0xbe34b440	-0.17646885
190	0x3dadd273	0.08487406
191	0xbbe53832	-0.0069952244
192	0x3e0ddb4d	0.13853188
193	0x3e65e6c5	0.22451313
194	0x3d5301de	0.051515453
195	0x3dde7860	0.108628035
196	0x3e64b58f	0.22334884
197	0x3dec1739	0.11527867
198	0x3c922fd2	0.017845068
199	0x3da92324	0.08258656
200	0x3dc4cd5b	0.09609481
201	0xbd56b012	-0.052414007
202	0xbd067aba	-0.032831885
203	0x3e05c62c	0.13063878
204	0x3e295ccd	0.16539307
205	0x3d4185c5	0.047246713
206	0xba733578	-0.0009277682
207	0x3d9a2aa6	0.07527666
208	0x3e6d9001	0.23199464
209	0xbd12b5ad	-0.03581779
210	0x3cdbe33d	0.026841754
211	0x3e17b66e	0.14815685
212	0x3e69d1db	0.2283396
213	0x3e5b364d	0.21407433
214	0x3e4cdf8a	0.20007148
215	0xbda79b44	-0.081839114
216	0x3d34f28c	0.044176623
217	0x3d6592f1	0.056048337
218	0x3ab312af	0.0013662184
219	0xbd81ec4a	-0.06343897
220	0x3e33a43b	0.17543118
221	0x3e20d3d1	0.15705802
222	0x3d1c6c24	0.03818907
223	0x3e198536	0.14992222
224	0xbd792fa0	-0.060836434
225	0x3c520d42	0.012820544
226	0x3d71f01d	0.05906688
227	0x3e59070b	0.21194093
228	0x3dcb62ab	0.09930929
229	0x3dae387d	0.08506868
230	0x3e520072	0.20507982
231	0x3e8f0620	0.2793436
232	0x3e6295a1	0.22127391
233	0x3e543c05	0.2072602
234	0x3a6738f7	0.0008820439
235	0x3db731c4	0.08945039
236	0x3e0c87d8	0.13723695
237	0x3e324bbd	0.17411704
238	0x3e4c56cb	0.19954984
239	0x3cf4d611	0.029887231
240	0xbcf91991	-0.030407699
241	0xbd8ea9dc	-0.06965992
242	0x3e1f493b	0.15555279
243	0x3dea610c	0.114442915
244	0x3e411684	0.18856245
245	0x3ddcebbf	0.107871525
246	0x3dc4c185	0.096072234
247	0x3e5c2c50	0.21501279
248	0x3e355014	0.17706329
249	0x3ddc35dd	0.10752461
250	0xbcb5c1dd	-0.022187168
251	0x3e269bef	0.16270421
252	0xbb854884	-0.0040674824
253	0x3dcf35a0	0.1011765
254	0x3d924631	0.07142294
255	0xba34f739	-0.0006903294

lstm.weight_ih_l1 f4 [256, 64]
0	0x3db6747c	0.089089364
1	0x3dfda2bd	0.123845555
2	0x3e08392a	0.13303056
3	0x3d9cc216	0.076542065
4	0xbc4979e0	-0.012297124
5	0x3d1a64c2	0.037693746
6	0x3e3120f5	0.17297728
7	0x3d61b044	0.05509974
8	0x3d8d0fae	0.06887756
9	0x3e0d9014	0.13824493
10	0x3de3216f	0.11090361
11	0xbd0b3b9b	-0.03399239
12	0xbd870335	-0.065924086
13	0xbda657e8	-0.081222355
14	0xbdd05545	-0.10172514
15	0xbdd5d880	-0.10441685
16	0xbca0df58	-0.019637749
17	0x3d63e625	0.055639405
18	0xbd41c2e4	-0.047305003
19	0xbcc68ec5	-0.024238
20	0xbdf3569d	-0.118817545
21	0x3df2b146	0.118502185
22	0xbe46b4bc	-0.19404882
23	0xbd0b5236	-0.03401395
24	0xbd20e9a1	-0.039285306
25	0x3d8bfec7	0.06835704
26	0xbe3ef173	-0.18646793
27	0xbe0d9739	-0.13827218
28	0xbd28091b	-0.04102431
29	0x3da06b05	0.07832912
30	0x3e41f48d	0.18940945
31	0xbcf349e9	-0.029698329
32	0xbdb4ad04	-0.088220626
33	0xbdd504a3	-0.10401275
34	0x3e1ca1f9	0.15296163
35	0xbc1871ae	-0.009304447
36	0xbdb8e819	-0.09028644
37	0xbd69fb4a	-0.057124414
38	0x3e70074f	0.23440288
39	0x3dc284fd	0.09498022
40	0x3c85482f	0.016269771
41	0x3d2666a1	0.04062522
42	0xbe0aa1b5	-0.13538249
43	0xbd8d5245	-0.06900457
44	0xbe3c07a4	-0.1836229
45	0xbd2df5e2	-0.04247082
46	0xbdfb298d	-0.122637846
47	0xbe63c9e6	-0.22244987
48	0xbd8fc353	-0.07019677
49	0x3e06f317	0.13178669
50	0xbb405ab5	-0.002935094
51	0x3b0aa3d1	0.002115477
52	0x3dc4aca9	0.09603245
53	0xbdcfbdf8	-0.101436555
54	0xbd2faad7	-0.042887535
55	0xbdf24555	-0.1182963
56	0xbd7ae13d	-0.06124996
57	0xbd9ddae3	-0.07707765
58	0xbdabb832	-0.08384742
59	0xbd889531	-0.06669081
60	0xbd5fd569	-0.054646883
61	0xbe204236	-0.15650257
62	0x3c218d58	0.009860359
63	0xbd605377	-0.0547671
64	0xbdf7511a	-0.12076016
65	0xbe0145bc	-0.12624258
66	0x3e976b95	0.29574266
67	0xbe4da021	-0.20080616
68	0xbe7a3398	-0.24433744
69	0xbe7490e9	-0.23883404
70	0x3e6807d0	0.2265923
71	0x3dab5090	0.083649755
72	0x3e6c3d22	0.23070195
73	0x3d8c7857	0.068588905
74	0x3db4cb56	0.08827846
75	0xbe6655ae	-0.22493622
76	0xbe37f336	-0.17963871
77	0xbdadd0a3	-0.0848706
78	0xbc5cf6b3	-0.013486552
79	0xbe5cbee6	-0.21557197
80	0x3df1ef2f	0.11813199
81	0x3e173588	0.14766514
82	0x3dbe598a	0.09294422
83	0x3e0bda95	0.13657601
84	0xbde60f3a	-0.11233373
85	0x3e004d71	0.12529542
86	0xbe823658	-0.25432086
87	0xbe8b02a5	-0.27150455
88	0x3d2d29fd	0.04227637
89	0x3e697eb2	0.22802237
90	0xbe99117d	-0.29896155
91	0xbdaf57cb	-0.08561667
92	0xbd8732f5	-0.06601516
93	0x3e40f399	0.18842925
94	0x3e3a0f09	0.18169798
95	0x3cd069f4	0.025441147
96	0xbe81313e	-0.2523288
97	0xbda3b2d7	-0.07993095
98	0x3e869525	0.26285663
99	0xbdb3e79e	-0.08784412
100	0xbd330a03	-0.04371072
101	0x3d0d973b	0.034568053
102	0x3e500d3c	0.20317549
103	0x3df1a78a	0.11799534
104	0x3e291bf4	0.1651457
105	0xbd2c578f	-0.04207569
106	0xbe4eee43	-0.20208077
107	0xbe5990d8	-0.2124666
108	0xbea1e2eb	-0.31618437
109	0x3e22bcf5	0.15892394
110	0x3db01b49	0.08598954
111	0xbeaa5f6c	-0.33275926
112	0xbe90ce2b	-0.28282294
113	0x3e3ae0be	0.18249795
114	0xbcdc82dd	-0.02691787
115	0xbd8b3c07	-0.06798559
116	0x3dc57e4a	0.09643228
117	0x3dac2fff	0.08407592
118	0xbe570390	-0.20997453
119	0xbe205c14	-0.15660125
120	0xbdcede3c	-0.101009816
121	0x3d3fb3a0	0.046802163
122	0xbb992991	-0.0046741446
123	0xbc084568	-0.008317329
124	0x3d167672	0.036734052
125	0xbcdd136e	-0.026986804
126	0x3df30605	0.118663825
127	0x3da88876	0.08229153
128	0x3d59b69c	0.053152665
129	0xbd66d15d	-0.056352008
130	0x3dec3aa4	0.11534622
131	0xbe43a0e8	-0.1910435
132	0xbdb66669	-0.08906252
133	0xbe2f2c46	-0.17106733
134	0x3dfdffc8	0.12402302
135	0xbc3e2742	-0.0116060395
136	0xbd4c2292	-0.049837656
137	0x3bf94975	0.0076076337
138	0xbdadfc09	-0.084953375
139	0x3d13294e	0.035928063
140	0xbd59c067	-0.053162005
141	0xbe6c30e9	-0.23065533
142	0x3baeeaf2	0.0053380663
143	0xbd0978e5	-0.03356256
144	0x3da5a518	0.0808813
145	0xbc342125	-0.01099423
146	0x3dbac8a9	0.09120304
147	0x3e3d87fc	0.18508905
148	0xbd08b33e	-0.033374064
149	0x3c9272fe	0.017877098
150	0x3c7153f5	0.01472949
151	0xbde81532	-0.11332168
152	0x3d837dc4	0.06420472
153	0x3be9206e	0.0071144616
154	0xbd573067	-0.052536394
155	0xbe107fe1	-0.14111282
156	0x3dbffc42	0.09374286
157	0x3d6beab9	0.057596896
158	0x3ce1a9b1	0.027546735
159	0x3d5d6736	0.054053508
160	0xbd20e446	-0.0392802
161	0xbe0be2f1	-0.1366079
162	0x3b607b06	0.0034253015
163	0x3b851dd2	0.0040623927
164	0x3d984dbc	0.07436702
165	0x3cd67d2b	0.026182732
166	0x3d881e5a	0.06646414
167	0x3d137d3a	0.036008097
168	0x3e171dfa	0.14757529
169	0x3d33bf1c	0.043883428
170	0xbe144284	-0.14478499
171	0xbd25df19	-0.040495966
172	0xbe6bf7e3	-0.2304378
173	0xbd0a30c6	-0.03373792
174	0x3dc3001d	0.09521506
175	0xbe0a0bba	-0.13481036
176	0xbe3bba34	-0.1833275
177	0x3c37d8b8	0.011221103
178	0x3ccaf0ff	0.024773119
179	0xbd958284	-0.073002845
180	0xbe2ca60d	-0.16860218
181	0x3d2e52b3	0.042559337
182	0xbdad67cf	-0.084670655
183	0x3ddb4302	0.1070614
184	0xbd8a92af	-0.06766259
185	0x3cbeb888	0.02328135
186	0xbe2538b0	-0.16134906
187	0x3e2311e7	0.15924798
188	0x3d6a5c07	0.05721667
189	0xbe1d5094	-0.1536277
190	0xbd1413d5	-0.036151726
191	0x3e407eea	0.18798414
192	0xbd931948	-0.071825564
193	0xbce1b522	-0.027552191
194	0x3e0d8e34	0.13823777
195	0xbd99f6c1	-0.07517768
196	0x3b9dce2a	0.0048158364
197	0xbdd4207b	-0.10357758
198	0x3c954742	0.018222455
199	0x3c1c74f4	0.009549368
200	0x3e3583c0	0.1772604
201	0xbc1214aa	-0.0089160595
202	0xbc793c7e	-0.015212176
203	0x3e58a01a	0.21154824
204	0xbdc200f6	-0.094728395
205	0x3d14fc46	0.0363734
206	0xbde31e54	-0.11089769
207	0x3bc29309	0.005937938
208	0x3de2a735	0.110670485
209	0x3dd36481	0.10321904
210	0x3ca8793c	0.020565622
211	0x3e56fc71	0.20994736
212	0xbe25ad66	-0.16179428
213	0x3e2c6d4a	0.16838565
214	0x3d3977b9	0.045280192
215	0xbcc618db	-0.024181774
216	0xbd887f50	-0.06664908
217	0x3e032fc7	0.12811194
218	0xbd942b00	-0.07234764
219	0xbd129362	-0.035785086
220	0xbd8362ba	-0.06415315
221	0xbcb5d1e5	-0.022194812
222	0x3d0e2c57	0.034710255
223	0xbd64b9e4	-0.05584134
224	0x3b0fdc69	0.0021951443
225	0xba96278f	-0.0011455881
226	0x3e276b92	0.16349629
227	0xbded2869	-0.11579973
228	0x3ca36b8a	0.01994874
229	0xbd61c5fb	-0.05512045
230	0x3e176330	0.14783931
231	0xbd4e3ac8	-0.050349027
232	0x3e511ce3	0.20421176
233	0xbdd91520	-0.105997324
234	0xbe22763e	-0.15865418
235	0xbd67df9c	-0.056609735
236	0xbdac5e0d	-0.08416376
237	0x3e10b9da	0.14133397
238	0xbd684ae6	-0.056712054
239	0xbe5c2a28	-0.21500456
240	0xbe09bf3e	-0.1345186
241	0x3db1e871	0.08686913
242	0xbe0c6b2f	-0.13712762
243	0x3d717a35	0.058954436
244	0x3d4d2e15	0.050092775
245	0xbd4bba50	-0.04973823
246	0xbdef6cee	-0.116906986
247	0x3d98defe	0.074644074
248	0xbe0a82c8	-0.13526452
249	0xbdb5706a	-0.08859332
250	0x3e00ecb2	0.12590292
251	0xbd009c93	-0.03139932
252	0x3cdbd5b8	0.026835307
253	0x3d26b286	0.040697597
254	0x3dd7d1a8	0.10538036
255	0x3d95bab1	0.07310999

lstm.weight_hh_l1 f4 [256, 64]
0	0xbcb5d56a	-0.02219649
1	0xbe53b0f8	-0.20672977
2	0xbd586ec4	-0.05284001
3	0x3dc795e1	0.09745384
4	0xbe189733	-0.14901428
5	0x3cc7c209	0.024384515
6	0xbe0b885b	-0.13626234
7	0xbe0296c0	-0.12752819
8	0x3d3a6b86	0.0455127
9	0x3d8a5e79	0.067563005
10	0x3cab8f84	0.020942457
11	0xbbe774aa	-0.007063468
12	0xbd5ae480	-0.05344057
13	0xbe2ef40c	-0.17085284
14	0x3d70481b	0.058662515
15	0xbdd5bf83	-0.104369186
16	0xbe20cda7	-0.1570345
17	0x3c41877b	0.011812086
18	0x3c9f064b	0.01941218
19	0xbe14ffb4	-0.14550668
20	0xbe1da973	-0.15396671
21	0xbd3a9644	-0.04555346
22	0xbe573d01	-0.21019365
23	0x3dd09205	0.10184101
24	0x3ce5a1de	0.028031286
25	0xbdfa889d	-0.12233088
26	0xbceed6f7	-0.029155238
27	0x3dc2dd96	0.095149204
28	0xbd8055bc	-0.062663525
29	0xbd3adacf	-0.04561883
30	0xbd03d6fa	-0.03218744
31	0x3dfcbe25	0.12340955
32	0x3d9c78bb	0.07640215
33	0xbca20ca7	-0.019781424
34	0x3d158446	0.0365031
35	0xbd5cbaac	-0.05388896
36	0x3cc731c9	0.024315732
37	0xbdee4d6e	-0.11635862
38	0x3cd440a2	0.025909726
39	0xbe0da544	-0.13832575
40	0xbc76d7df	-0.015066116
41	0x3dd7b3b3	0.10532322
42	0xbd486fb8	-0.04893467
43	0xbcce830e	-0.025208976
44	0xbc81c812	-0.015842471
45	0x3b804b77	0.003915246
46	0x3d41dee2	0.0473317
47	0x3d176e23	0.03697027
48	0xbdabbffe	-0.08386229
49	0x3d6e17ed	0.058128286
50	0xbc99f2ef	-0.018792598
51	0x3d339a69	0.04384843
52	0x3db99c6a	0.09063037
53	0x3d0ff84a	0.035148896
54	0xbd83da3d	-0.0643811
55	0xbd61a0fb	-0.055085164
56	0x3d4203fe	0.04736709
57	0x3b5db1d3	0.0033827915
58	0xbe328a6d	-0.17435618
59	0xbcaae256	-0.020859879
60	0x3dfafa32	0.12254752
61	0x3e0dcb11	0.13846995
62	0x3de0b428	0.10971862
63	0xbd3ea8b1	-0.046547595
64	0xbe2a46db	-0.16628592
65	0x3dc416f4	0.095746905
66	0xbd516650	-0.051122963
67	0xbc06d3f7	-0.008229247
68	0x3dde134d	0.10843525
69	0x3dfbe127	0.12298804
70	0xbd860370	-0.065436244
71	0xbcd50f1b	-0.02600818
72	0xbd63616a	-0.055512823
73	0xbdbf628c	-0.09344968
74	0x3ce96500	0.028490543
75	0x3e19f986	0.15036592
76	0x3dce9fd4	0.100890785
77	0xbe3935da	-0.18086949
78	0xbe12099c	-0.14261478
79	0x3e6dc335	0.23218997
80	0x3db01326	0.08597402
81	0xbe16196f	-0.1465814
82	0xbd409f76	-0.047027074
83	0xbd922195	-0.071353115
84	0x3d182eb8	0.03715393
85	0xbe101607	-0.14070903
86	0x3de9278f	0.11384498
87	0xbd6e024d	-0.058107663
88	0xbc3eaec2	-0.011638345
89	0x3ce72d3f	0.028219817
90	0xbdc09066	-0.09402542
91	0xbd13e7b2	-0.036109634
92	0x3dcf9f47	0.101378016
93	0xbdc9f636	-0.09861414
94	0xbdcfc386	-0.10144715
95	0x3dcd5616	0.10026185
96	0x3ceb4e75	0.028723935
97	0x3e597a8d	0.21238156
98	0x3d510084	0.051025882
99	0xbdb64c03	-0.08901217
100	0xbe498191	-0.19678332
101	0xbdb4e9d4	-0.08833662
102	0x3e9a6072	0.30151707
103	0xbd389ae6	-0.045069598
104	0x3e216f91	0.15765215
105	0x3c1fca5a	0.009752834
106	0xbdd6e5d6	-0.104930565
107	0xbe30fd3f	-0.17284106
108	0xbd6e2e84	-0.05814983
109	0xbc5b26fa	-0.013375992
110	0x3bf0d5ac	0.0073496904
111	0xbe0bbcdd	-0.13646264
112	0x3e0cc1c0	0.13745785
113	0x3e1f4299	0.15552749
114	0x3cd2b1b5	0.025719503
115	0xbddc56cf	-0.10758745
116	0xbe3361f2	-0.17517832
117	0xbe0c8ad3	-0.13724832
118	0xbd7ac590	-0.061223567
119	0xba635307	-0.0008671735
120	0xbd6338dd	-0.05547415
121	0xbdc2c1cd	-0.09509621
122	0xbda26815	-0.07930008
123	0xbc92e154	-0.01792971
124	0x3e3a8850	0.18216062
125	0x3c634d81	0.013873459
126	0x3e3fa3bf	0.18714808
127	0xbdc4a799	-0.09602279
128	0x3ceb69ec	0.02873703
129	0xbde47486	-0.111550376
130	0x3cdb98d7	0.026806278
131	0xbdad3d02	-0.08458902
132	0xbd58c377	-0.052920785
133	0x3e186153	0.14880876
134	0xbd26f8ff	-0.040764805
135	0xbde84170	-0.11340606
136	0xbd2fa353	-0.042880367
137	0xbdeecd10	-0.11660206
138	0xbdc27be5	-0.09496287
139	0x3d76dc9e	0.06026899
140	0xbb6e62eb	-0.0036374878
141	0x3dd3dc0d	0.10344706
142	0x3cfc6e2d	0.030814255
143	0x3e1236ce	0.14278719
144	0x3d8b63bf	0.068061344
145	0xbce08a76	-0.027409773
146	0xbe269dbd	-0.1627111
147	0xbe41600a	-0.18884292
148	0xbdf075c4	-0.11741212
149	0xbde95280	-0.11392689
150	0xbe13edba	-0.14446154
151	0xbdff9dbd	-0.12481258
152	0xbd38f3db	-0.045154434
153	0xbe1e136b	-0.15437095
154	0xbcdae452	-0.0267202
155	0xbbb5118b	-0.005525773
156	0x3e41b136	0.18915257
157	0xbdf7ccf1	-0.12099636
158	0xbdab353d	-0.08359764
159	0x3e086dc9	0.1332313
160	0x3e4e0821	0.20120288
161	0x3e4ea504	0.20180136
162	0x3dc2e7df	0.09516882
163	0xbe2e8251	-0.170419
164	0xbceeb254	-0.029137768
165	0xbb9642a0	-0.004585579
166	0x3e091127	0.1338545
167	0x3d29df5a	0.04147277
168	0x3e41f22d	0.18940039
169	0x3d81d0b0	0.06338632
170	0xbd927889	-0.071518965
171	0xbdef91bf	-0.11697721
172	0x3d3ef5af	0.04662102
173	0xbdd9f4e5	-0.10642413
174	0xba887465	-0.0010410665
175	0x3c0b2738	0.008493237
176	0x3dea19b1	0.114306815
177	0xbcd5b90d	-0.026089216
178	0xbd31ecb7	-0.04343864
179	0x3b6d9ec4	0.0036257962
180	0x3d483eea	0.048888125
181	0xbc2cde76	-0.010551086
182	0xbe0b7401	-0.1361847
183	0xbd868f81	-0.0657034
184	0xbdb3d40f	-0.08780681
185	0x3bc98468	0.0061498173
186	0x3dbdb4fa	0.09263034
187	0xbd16cce8	-0.036816508
188	0x3d174f08	0.036940604
189	0x3d665137	0.056229796
190	0xbc52f1e5	-0.012875055
191	0x3d11b602	0.035573967
192	0x3d33a51d	0.043858636
193	0xbe47aadb	-0.1949877
194	0xbcd6ed07	-0.02623607
195	0x3dbbe744	0.0917497
196	0x3d8f1a6d	0.06987462
197	0xbd99676d	-0.0749043
198	0xbd87dfe9	-0.06634504
199	0x3de3f750	0.111311555
200	0xbd3da252	-0.04629738
201	0x3d96da23	0.07365825
202	0x3ddc6584	0.1076155
203	0xbd561c19	-0.05227289
204	0xbd4841a8	-0.04889074
205	0xbe7402a2	-0.2382913
206	0x3e0d433f	0.13795184
207	0xbceafc3e	-0.028684732
208	0xbe51a5f8	-0.20473468
209	0x3d13f11f	0.036118623
210	0x3d58c88e	0.05292564
211	0x3ca2be24	0.019866057
212	0xbdd86f34	-0.10568085
213	0xbce4abed	-0.027914012
214	0xbde71dca	-0.11284979
215	0x3d481404	0.048847213
216	0xbd3d9f2c	-0.046294376
217	0x3d85cded	0.06533418
218	0xbd9eecaf	-0.077599876
219	0xbe0bddda	-0.13658848
220	0x3d7d5577	0.061849084
221	0xbc7d230b	-0.015450249
222	0xbdc529b9	-0.096270986
223	0xbd85754c	-0.06516513
224	0xbde3b44e	-0.11118375
225	0xbdb96d35	-0.09054033
226	0x3b5143d4	0.0031931298
227	0xbe16d436	-0.1472939
228	0xbd97ac40	-0.07405901
229	0xbcb420b0	-0.021988243
230	0xbd4b7262	-0.04966963
231	0xbdc92d43	-0.09823086
232	0xbda92b9d	-0.08260272
233	0x3ca35340	0.019937158
234	0xbe17bed3	-0.14818887
235	0xbdbcc9eb	-0.092182
236	0xbe4f13d1	-0.20222403
237	0xbc7b587d	-0.0153409215
238	0x3cac2bb3	0.021016931
239	0xbde1af26	-0.11019735
240	0xbdae5450	-0.08512175
241	0xbe605ce7	-0.2191044
242	0xbdbd56a5	-0.09245042
243	0xbd1d8edf	-0.03846633
244	0x3cddef40	0.027091622
245	0x3dbc459a	0.09192963
246	0xbd34b961	-0.044122104
247	0x3d0512d8	0.032488674
248	0x3dd5f190	0.10446465
249	0xb9b691c0	-0.00034822337
250	0xbe25d175	-0.16193183
251	0x3c2cdfb7	0.010551385
252	0xbc934d84	-0.017981298
253	0x3e59253d	0.21205612
254	0x3e3391e5	0.17536123
255	0x3ce3f0fb	0.02782487

lstm.bias_ih_l1 f4 [256]
0	0x3e014a78	0.12626064
1	0x3e96f9a8	0.29487348
2	0x3e42f17b	0.1903743
3	0x3e8757e7	0.26434252
4	0x3e56039f	0.20899819
5	0xbcbcef61	-0.023063364
6	0x3bba0af8	0.005677577
7	0x3e2f750f	0.17134498
8	0x3dafca97	0.08583563
9	0x3d199599	0.037496183
10	0x3dd5d15a	0.10440321
11	0x3d906d51	0.070521004
12	0x3df99f8f	0.121886365
13	0x3e8d17cd	0.2755722
14	0x3e299454	0.16560489
15	0x3de2f3d3	0.11081662
16	0x3e2f2a20	0.17105913
17	0xbda5c354	-0.080938965
18	0x3d58d03b	0.05293296
19	0x3dee5a07	0.11638265
20	0x3d92d550	0.071695924
21	0xbd732883	-0.059364807
22	0x3e52d79d	0.20590062
23	0x3ea96ed9	0.33092383
24	0x3e492312	0.19642285
25	0x3d9652f4	0.07340041
26	0x3e310729	0.17287888
27	0x3e2ecff5	0.17071517
28	0xbc17a147	-0.00925476
29	0x3deec5d7	0.11658829
30	0x3dfc25b2	0.12311877
31	0x3e1d18df	0.15341519
32	0x3e7e85a7	0.24855672
33	0x3d5e9234	0.05433865
34	0x3e35e174	0.17761785
35	0xbd3ef474	-0.046619847
36	0x3e1c6003	0.15271
37	0x3d92ae1a	0.071621135
38	0x3c52d702	0.012868645
39	0xbd74aa8f	-0.05973297
40	0x3db1d5e9	0.08683378
41	0xbb8ad148	-0.004236374
42	0x3e00f892	0.12594822
43	0x3e503677	0.20333277
44	0x3e19f217	0.15033756
45	0x3dee9647	0.11649757
46	0x3c4f0d99	0.012637519
47	0x3c8ac0f2	0.016937707
48	0xbd094e4e	-0.033521943
49	0x3e7107f4	0.2353819
50	0xbd1597d3	-0.036521744
51	0x3df7cb72	0.12099351
52	0x3e4d3202	0.20038608
53	0x3d3c21a6	0.045930527
54	0x3d06db1f	0.032923814
55	0x3c640617	0.013917468
56	0x3df1f9b2	0.11815204
57	0x3e293312	0.16523388
58	0x3e848171	0.25880006
59	0x3e0d4959	0.13797511
60	0x3d66884b	0.056282323
61	0x3d3e37de	0.046439998
62	0x3db16872	0.086624995
63	0x3e8a8507	0.27054617
64	0x3d89e1c9	0.06732518
65	0x3e19e978	0.15030468
66	0x3a716c13	0.0009209525
67	0xbe08ac09	-0.13346876
68	0xbd25cf1f	-0.04048073
69	0xbd58fee3	-0.052977454
70	0xbc13ea68	-0.009028055
71	0x3deb0f13	0.114774846
72	0xbd7d4f77	-0.06184336
73	0x3c802495	0.015642444
74	0x3da170b0	0.078828216
75	0x3da290bf	0.079377644
76	0xbd9c946a	-0.07645495
77	0x3d0411a4	0.032243386
78	0xbde258c6	-0.110520884
79	0xbcb4209e	-0.02198821
80	0x3d887a59	0.06663961
81	0xbdece2f2	-0.11566724
82	0xbd365c56	-0.044521652
83	0x3d20e69d	0.03928243
84	0xbd882ebb	-0.06649538
85	0xbd49f4dd	-0.049305785
86	0xbb53af7b	-0.003230064
87	0xbdb8ff39	-0.09033055
88	0xbdcfc1d8	-0.10144395
89	0xbdf8e78c	-0.12153539
90	0x3e1a4bca	0.15067974
91	0x3d659dd9	0.05605874
92	0xbdc7287f	-0.09724521
93	0x3da75a98	0.08171576
94	0xbd91406d	-0.07092366
95	0x3dbc7a2d	0.09202991
96	0x3ce9de5f	0.028548418
97	0xbc5f74c8	-0.013638683
98	0xbda8df77	-0.082457475
99	0xbc100d46	-0.008792227
100	0xbe05bd3d	-0.1306047
101	0xbda2dbb0	-0.07952058
102	0xbc90a052	-0.017654572
103	0xbd939aec	-0.072072834
104	0xbc3a0c7c	-0.011355516
105	0xbd8ad65e	-0.067791685
106	0x3db59406	0.08866124
107	0x3d81a9ae	0.06331192
108	0x3da62dd2	0.08114208
109	0xbdd4061e	-0.10352729
110	0xbdf97470	-0.12180412
111	0x3d70e29f	0.058809873
112	0xbbc8ebcf	-0.006131626
113	0xbdb19b7d	-0.08672235
114	0xbd6fdf2f	-0.058562454
115	0x3bb2821d	0.0054476396
116	0x3dd946e1	0.10609222
117	0x3e0ed2a6	0.13947544
118	0xbbe4286f	-0.006962828
119	0x3c390afd	0.011294124
120	0xbd5b4ee5	-0.053542037
121	0xbdf68725	-0.120374955
122	0x3c7e797f	0.015531897
123	0xbdf36751	-0.118849404
124	0xbdf3bb7c	-0.11900994
125	0x3baa825d	0.005203529
126	0xbdcdc57e	-0.10047434
127	0xbdfbf672	-0.12302865
128	0xbd0293d9	-0.03187928
129	0xbcc99e98	-0.024611756
130	0xbc9ea070	-0.019363612
131	0xbb79ebaa	-0.0038134851
132	0x3c3e91cf	0.011631443
133	0x3dc8ac36	0.09798472
134	0x3caeaf6b	0.02132388
135	0xbd2c0777	-0.041999307
136	0xbe1b316b	-0.1515557
137	0xbdaeeaf6	-0.08540909
138	0xbc1a6851	-0.009424285
139	0x3e09adf2	0.13445261
140	0x3cc6c7c9	0.024265187
141	0xbde7d85f	-0.113205664
142	0xbda62ca2	-0.08113982
143	0x3d95d2e3	0.07315614
144	0xbdc52981	-0.09627057
145	0xbdb6e2f3	-0.08930006
146	0xbe0e59e8	-0.13901484
147	0x3d3e43b0	0.04645127
148	0x3d20e463	0.039280307
149	0xbe130658	-0.14357889
150	0xbdce26f7	-0.10066026
151	0xbe164fe3	-0.14678912
152	0xbdfa9764	-0.12235907
153	0xbc6df33c	-0.014523324
154	0xbd879ea8	-0.06622058
155	0x3de2e52e	0.11078869
156	0xbd403ed0	-0.046934903
157	0x3ddfac4b	0.10921534
158	0xbdae51c5	-0.0851169
159	0x3d5da8bc	0.054115996
160	0x3cc282b5	0.023743967
161	0x3e056730	0.13027644
162	0x3dbabc84	0.09117988
163	0xbdabf417	-0.08396166
164	0xbc2241ff	-0.00990343
165	0xbe05623e	-0.13025758
166	0xbd03f7d5	-0.032218773
167	0xbdf24ae6	-0.11830692
168	0x3dd2f777	0.103011064
169	0x3df5e609	0.12006766
170	0xbd7f0edc	-0.06227003
171	0x3d697696	0.056997858
172	0xbc95be64	-0.018279262
173	0x3d500c82	0.05079318
174	0x3dd328bc	0.10310504
175	0x3d776e89	0.06040815
176	0x3cb75568	0.022379592
177	0x3bc5ceb9	0.006036606
178	0x3c0a852c	0.008454602
179	0xbda293ff	-0.07938384
180	0x3da72755	0.08161799
181	0xbdc5b59f	-0.09653782
182	0xbda2122e	-0.07913624
183	0xbde847ac	-0.11341795
184	0xbd45e85a	-0.04831729
185	0x3d1791d5	0.03700431
186	0xbdc2833e	-0.09497689
187	0xbdc3795b	-0.09544631
188	0x3e0834a4	0.13301331
189	0x3db86648	0.090038836
190	0xbbf6034b	-0.007507717
191	0xbaf21b51	-0.0018471276
192	0x3dd2af38	0.102873266
193	0x3d5c9848	0.053856164
194	0x3db94151	0.09045661
195	0x3e33f1b4	0.17572671
196	0x3e3321ca	0.17493358
197	0x3df14cbf	0.11782216
198	0x3db4597c	0.0880613
199	0x3d55d7e9	0.05220786
200	0x3e68a992	0.22720936
201	0x3d95630e	0.07294284
202	0x3cb31837	0.021862132
203	0x3e4f4afb	0.20243447
204	0x3de79fc1	0.113097675
205	0x3e76466d	0.24050303
206	0x3e7eea1c	0.24893993
207	0x3d4a900d	0.049453784
208	0x3e1bf23f	0.15229128
209	0xbd8e9b2b	-0.0696319
210	0xbda946d7	-0.08265465
211	0x3df9741c	0.12180349
212	0x3d166e03	0.03672601
213	0xbd4d9b71	-0.05019707
214	0x3e4bf0cb	0.19916074
215	0x3e7d6623	0.24745993
216	0xbbd1e05a	-0.0064049186
217	0x3d34316e	0.043992452
218	0x3e55e68b	0.20888726
219	0x3e2d68a0	0.16934443
220	0xbcb8481d	-0.022495324
221	0xbd1f7a99	-0.038935278
222	0x3d9a8628	0.075451195
223	0x3ca6092f	0.020268051
224	0x3d71f081	0.059067253
225	0xbb9f8782	-0.0048684487
226	0xbc22645c	-0.009911623
227	0x3de7c235	0.11316339
228	0x3df57445	0.11985067
229	0x3d27293c	0.04081081
230	0x3e18a209	0.14905562
231	0x3d926f53	0.0715014
232	0x3dd6c9b5	0.10487691
233	0x3df8d46d	0.12149892
234	0x3e30eefe	0.17278668
235	0x3d723a73	0.059137773
236	0xbc867535	-0.01641331
237	0x3e5d4039	0.2160653
238	0x3cdca55f	0.026934324
239	0x3d78bcad	0.06072681
240	0xbc98bc49	-0.018644469
241	0x3e967561	0.29386428
242	0x3d00b5c9	0.031423364
243	0x3e02eab3	0.12784843
244	0x3ccd3bda	0.025052954
245	0x3da57530	0.08078992
246	0x3def0426	0.11670713
247	0x3e4be827	0.19912778
248	0x3d9fa2a9	0.07794697
249	0x3dd1eb29	0.10249931
250	0x3e278131	0.16357876
251	0x3e2c32d0	0.16816258
252	0xbd0c0022	-0.034179814
253	0x3dd0de9f	0.101987116
254	0x3e0ee9eb	0.1395642
255	0x3e6f40b2	0.23364523
