LSTM/models/sensor_data_2_pm10_lstm_model.pth (torch, 206060 bytes, 9 tensors)

lstm.weight_ih_l0 f4 [256, 1]
0	0xbdf08258	-0.11743611
1	0xbd7861d2	-0.060640164
2	0x3dc9e3fd	0.098579384
3	0xbe051e3a	-0.12999812
4	0x3e1292b1	0.14313771
5	0xbd4981e2	-0.04919613
6	0xbe6e0e75	-0.23247702
7	0x3c1b9c95	0.009497781
8	0xbd2d2856	-0.042274795
9	0x3cb807cd	0.022464657
10	0xbdafe9a2	-0.08589484
11	0x3e3df9af	0.18552278
12	0x3d348144	0.04406859
13	0x3e261dc6	0.16222295
14	0x3d8c40c4	0.068482906
15	0x3d91f1a0	0.071261644
16	0x3da5f969	0.08104212
17	0x3df4ffe3	0.11962869
18	0xbdc888ce	-0.097917184
19	0xbc1040f8	-0.008804552
20	0x3cf101bd	0.029419774
21	0xbd5039fb	-0.050836544
22	0x3daeed45	0.08541349
23	0x3d84e526	0.06489019
24	0x3d0c2390	0.034213603
25	0x3d8f0cd5	0.069848694
26	0xbe3b2495	-0.18275674
27	0x3de3cf43	0.111235164
28	0xbdc13aec	-0.094350666
29	0xbd931e6a	-0.071835354
30	0xbd414911	-0.047188822
31	0x3b4be702	0.0031113033
32	0x3b5119fd	0.003190636
33	0x3d2d790e	0.042351775
34	0x3dbb1752	0.09135307
35	0x3c8ae8f1	0.016956778
36	0x3d0bac5f	0.034099933
37	0xbd84cff2	-0.06484975
38	0xbbac73d4	-0.005262831
39	0x37b1b633	2.1184887e-05
40	0xbcaca4ce	-0.021074679
41	0xbe0221a3	-0.12708144
42	0xbdabd760	-0.08390689
43	0x3e01fbdf	0.12693737
44	0x3e1891b9	0.14899339
45	0x3e16d505	0.14729698
46	0xbe2800fd	-0.16406627
47	0x3de1e813	0.11030593
48	0xbd636d8a	-0.055524386
49	0xbe0b148f	-0.13582061
50	0x3d82f960	0.06395221
51	0xbe55fead	-0.20897932
52	0xbd93e817	-0.07222002
53	0xbe2b4737	-0.16726385
54	0x3caae7d2	0.020862494
55	0x3dfdb3b8	0.12387794
56	0x3dbeaed8	0.093106925
57	0x3c697720	0.014249593
58	0x3d194555	0.037419636
59	0xbdb9e77f	-0.090773575
60	0x3b3e60fa	0.0029049502
61	0x3d0aadc2	0.033857115
62	0x3d34efbd	0.044173945
63	0x3d52a56b	0.051427286
64	0x3d5c6d81	0.05381537
65	0x3e005351	0.12531783
66	0x3d9a5bbe	0.0753703
67	0xbb02aafb	-0.0019938338
68	0x3dc59dbd	0.09649227
69	0xbd8e363e	-0.069439396
70	0xbe3176a5	-0.17330416
71	0xbda6d9cb	-0.081470095
72	0x3e259fef	0.16174291
73	0x3d9198dc	0.07109234
74	0xbdf287ed	-0.11842332
75	0x3e02101f	0.12701462
76	0x3dcc8819	0.09986896
77	0x3e117a62	0.14206842
78	0xbd35b851	-0.04436523
79	0xbe08f32c	-0.13374013
80	0xbde09297	-0.1096546
81	0x3ddb1efd	0.1069927
82	0xbda5f070	-0.081025004
83	0xbd4a4b04	-0.049387947
84	0x3e275748	0.16341889
85	0xbb6b98ee	-0.0035949307
86	0x3d419150	0.04725772
87	0xbcf6feff	-0.030150888
88	0x3e062a16	0.13101992
89	0x3dfd46f3	0.12367048
90	0xbe28e1b8	-0.16492355
91	0x3e384dd4	0.17998439
92	0xbdb2a91c	-0.08723661
93	0xbdd1bc16	-0.10240953
94	0xbdbe9dc5	-0.09307436
95	0x3d650b48	0.05591896
96	0xbdc51b0c	-0.096242994
97	0x3dbffd69	0.09374506
98	0x3e24f801	0.16110231
99	0x3d21762f	0.03941935
100	0x3ddda2b6	0.1082205
101	0x3de9992b	0.114061676
102	0x3da7802c	0.08178744
103	0x3d82b9c2	0.06383087
104	0x39905671	0.00027530224
105	0xbe0951ea	-0.13410154
106	0x3cc7de43	0.024397975
107	0x3e26a9b4	0.16275674
108	0x3cd2e76e	0.02574512
109	0x3dc78b90	0.09743416
110	0xbe1b862c	-0.15187901
111	0xbd13a42d	-0.036045242
112	0x3e04be99	0.12963332
113	0xbda29a76	-0.07939617
114	0x3de06d3f	0.10958337
115	0xbe3ac23e	-0.1823816
116	0x3e0d21eb	0.1378247
117	0xbe000e21	-0.1250539
118	0x3dbd13f9	0.09232325
119	0x3dde9b37	0.10869449
120	0x3d7786b9	0.060431216
121	0x3e21a11d	0.15784116
122	0x3e098200	0.13428497
123	0x3bbf13d7	0.0058312225
124	0xbd78deab	-0.060759228
125	0xbdcd3c98	-0.10021323
126	0xbdef9d57	-0.11699932
127	0x3ba2bb3c	0.0049661677
128	0xbd1a96c2	-0.03774143
129	0xbe003d82	-0.12523463
130	0x3e558206	0.20850381
131	0xbdbd6c05	-0.09249119
132	0xbe15eb48	-0.14640534
133	0xbe3134dd	-0.17305322
134	0xbe159326	-0.14606914
135	0x3e4766e9	0.19472851
136	0x3e53089f	0.20608757
137	0x3de961ec	0.1139563
138	0x3e323273	0.17402057
139	0x3d0298f5	0.031884152
140	0xbe43190e	-0.19052526
141	0xbde6ddcb	-0.112727724
142	0xbddd4d58	-0.10805768
143	0xbe2611d5	-0.1621774
144	0x3d97e5c7	0.074168734
145	0x3d89a0a2	0.067200914
146	0xbccdd369	-0.025125222
147	0xbdcd91a8	-0.10037547
148	0x3e3e0f4b	0.18560521
149	0xbdd62af4	-0.104574114
150	0x3e2e228c	0.17005366
151	0x3e226ee0	0.15862608
152	0x3e370cbb	0.1787595
153	0xbe0d5aaf	-0.13804124
154	0x3db0aafd	0.086263634
155	0xbe2a520e	-0.16632864
156	0x3dac32b8	0.08408111
157	0xbd5b8430	-0.05359286
158	0xbe328892	-0.1743491
159	0x3e57fdf8	0.21092975
160	0x3deffa66	0.117176816
161	0x3d795cc7	0.060879495
162	0x3df031e1	0.11728264
163	0x3e1c1418	0.1524204
164	0xbd8ead13	-0.06966605
165	0xbe0c59a3	-0.13706069
166	0xbe2350ac	-0.15948743
167	0xbe4d968a	-0.20076957
168	0x3e0eeabc	0.13956732
169	0x3c9138f3	0.01772735
170	0x3e4b8703	0.19875722
171	0xbe1dcd92	-0.1541045
172	0xbc380e04	-0.01123381
173	0xbe28af2a	-0.1647307
174	0x3e2a4442	0.16627601
175	0xbe21c59f	-0.15798043
176	0xbe52d6c0	-0.20589733
177	0xbe5dd3bc	-0.21662802
178	0xbda29878	-0.07939237
179	0x3dfa68c9	0.122270174
180	0x3e21f5ed	0.1581647
181	0x3deee25e	0.1166427
182	0x3e3c4613	0.18386106
183	0x3e465c88	0.19371235
184	0xbe4cb80a	-0.1999208
185	0xbe3cdf36	-0.18444523
186	0xbc577eeb	-0.013152818
187	0x3d368ed1	0.044569794
188	0xbe48a786	-0.19595155
189	0xbe1b6fe8	-0.15179408
190	0x3e2e0960	0.16995764
191	0xbe27716f	-0.16351865
192	0xbd70b41a	-0.05876551
193	0x3e0b3c04	0.13597113
194	0x3da0d42e	0.0785297
195	0xbd80269b	-0.062573634
196	0x3ce846d7	0.028354092
197	0x3df21299	0.118199535
198	0xbe847124	-0.2586757
199	0xbe2a9bea	-0.16661039
200	0xbbdf7444	-0.00681928
201	0xbdfb306d	-0.12265096
202	0x3a69dbcc	0.0008920997
203	0x3d833950	0.06407416
204	0xbd0cdfb2	-0.03439302
205	0x3e3e1100	0.18561172
206	0x3a0a7b7c	0.0005282683
207	0xbd1e1100	-0.03859043
208	0xbd2c2147	-0.042023923
209	0xbd987322	-0.07443835
210	0xbe052b20	-0.13004732
211	0xbd20e6b3	-0.039282512
212	0x3da6e02b	0.081482254
213	0x3e017635	0.12642749
214	0x3d8997e5	0.06718425
215	0x3dd0436a	0.10169108
216	0xbd25e574	-0.040502027
217	0x3cb3cb1f	0.021947442
218	0xbc61a57b	-0.013772364
219	0x3e709391	0.23493792
220	0xbe301028	-0.17193663
221	0xbe313656	-0.17305884
222	0x3e18b6ce	0.14913484
223	0x3d4d2f6d	0.050094057
224	0xbe628b9f	-0.22123574
225	0x3dfbefde	0.123016104
226	0x3e203084	0.15643507
227	0xbe0c1c4f	-0.13682674
228	0xbcf4cde3	-0.02988333
229	0x3db9df40	0.09075785
230	0x3dccff8a	0.10009678
231	0xbae75445	-0.0017649016
232	0xbd487747	-0.048941877
233	0xbce037f0	-0.027370423
234	0xbd85ec75	-0.06539241
235	0x3da3e773	0.0800313
236	0x3dc56ac7	0.09639507
237	0xbc41a6cc	-0.011819553
238	0xbe58dad3	-0.21177225
239	0x3e6357a3	0.222014
240	0x3cd71664	0.026255794
241	0xbddad6db	-0.10685512
242	0x3e14a072	0.1451433
243	0xbc91bcea	-0.017790277
244	0x3cb5418a	0.022125978
245	0xbdf162b5	-0.11786405
246	0x3dd3497c	0.103167504
247	0x3dbf3272	0.093357936
248	0xbdc65806	-0.09684758
249	0x3d186ba0	0.037212014
250	0x3d803ac0	0.06261206
251	0x3d130ceb	0.03590099
252	0x3d372ec9	0.044722352
253	0xbdea437e	-0.11438654
254	0xbcaf4c5a	-0.021398712
255	0x3d035323	0.032061707

lstm.weight_hh_l0 f4 [256, 64]
0	0xbd90757f	-0.070536606
1	0xbddac2b8	-0.10681671
2	0x3ced2160	0.028946579
3	0x3dc50e07	0.09621816
4	0x3c0f5f32	0.008750724
5	0xbdb8729d	-0.09006236
6	0xbd773b8c	-0.060359523
7	0x3cee62a9	0.02909978
8	0xbd66e45b	-0.05637012
9	0xbd0bbe21	-0.034116868
10	0xbdefc2fe	-0.11707114
11	0x3d4e9aa8	0.05044046
12	0x3d7d788e	0.061882548
13	0x3d79f36f	0.061023172
14	0x3d939e52	0.072079316
15	0x3c8595b2	0.016306732
16	0xbe20b28b	-0.15693109
17	0x3dc5adeb	0.09652313
18	0xbd1004fc	-0.035161003
19	0xbdaa9028	-0.08328277
20	0x3d2002f3	0.039065313
21	0x3dbb9d18	0.09160823
22	0xbdd9e946	-0.106401965
23	0x3d1f8eef	0.03895467
24	0xbde59b08	-0.112112105
25	0xbe06fc99	-0.13182296
26	0x3db43a13	0.08800139
27	0xbbbfea8e	-0.0058568185
28	0xbdf93145	-0.121676005
29	0xbd80dcb6	-0.06292097
30	0xbde8759f	-0.113505594
31	0x3c3c3439	0.01148706
32	0xba22daec	-0.00062124315
33	0x3df8425b	0.12122031
34	0x3dde07dd	0.108413436
35	0xbe1154c4	-0.14192492
36	0xbdae243a	-0.085030034
37	0xbd950419	-0.07276172
38	0xbd9f1637	-0.07767909
39	0x3d785409	0.060627017
40	0xbdd524c2	-0.104074016
41	0xbcfb2a8d	-0.030659938
42	0xbe242893	-0.16031103
43	0xbc5d7641	-0.013516963
44	0xbbc61e7a	-0.0060461136
45	0xbcab2b26	-0.020894598
46	0x3dae07ca	0.084975794
47	0x3d0068ff	0.031350132
48	0xbd7ce13c	-0.061738238
49	0x3d5ac675	0.05341192
50	0xbccfe4bf	-0.02537763
51	0xbe0860d1	-0.13318183
52	0x3db6ab0a	0.08919342
53	0xbe07fe30	-0.13280559
54	0x3dc550af	0.0963453
55	0xbdba5060	-0.090973616
56	0x3d86ded2	0.06585468
57	0x3cf70a5f	0.030156313
58	0xbd08d4c6	-0.03340604
59	0x3ddaa87b	0.10676666
60	0x3d08ac2c	0.03336732
61	0x3ce590ed	0.028023208
62	0xbdb02dcf	-0.08602487
63	0xbdb60828	-0.088882744
64	0xbd87e7b6	-0.06635992
65	0x3d9be641	0.07612277
66	0x3d5dd1f1	0.054155294
67	0x3c841930	0.016125292
68	0xbd4829b9	-0.048867915
69	0x3d6d180f	0.057884272
70	0xba926e65	-0.0011171816
71	0xbd08dd4f	-0.03341418
72	0x3dade1f5	0.084903635
73	0xbcd4cde2	-0.025977079
74	0x3d9dc6e9	0.07703955
75	0x3d944058	0.07238835
76	0xbe0850f2	-0.13312128
77	0xbc830c43	-0.015997058
78	0xbba70242	-0.0050967047
79	0xbd87534d	-0.06607685
80	0xbd33de58	-0.043913215
81	0x3e2a9c53	0.16661195
82	0x3c078f0e	0.008273853
83	0x3cfe0084	0.031006105
84	0xbd026773	-0.031836938
85	0xbd8ad7f7	-0.06779473
86	0xbc6bed5a	-0.014399851
87	0xbd1924e6	-0.037388705
88	0xbdc7c4d4	-0.09754339
89	0xbdd7b624	-0.105327874
90	0x3b624e7c	0.0034531644
91	0xbdda66ee	-0.106641635
92	0x3ac01d90	0.0014657248
93	0x3de512c6	0.111852214
94	0x3d8ace6b	0.06777652
95	0xbdb9457d	-0.09046457
96	0xbd86eed8	-0.065885246
97	0xbd71bcb0	-0.059017837
98	0x3e08b21d	0.13349195
99	0xbdf5317d	-0.1197233
100	0x3d2cf647	0.042227056
101	0xbdbe51c5	-0.0929294
102	0xbd3deadd	-0.04636656
103	0xbc20bd19	-0.009810709
104	0xbd9ee5f8	-0.07758707
105	0x3d7a9ac6	0.06118276
106	0xbd209b53	-0.03921063
107	0xbd9c857a	-0.07642646
108	0xbd6fce7c	-0.05854653
109	0xbdc1deae	-0.09466301
110	0xbcfa4040	-0.030548215
111	0x3c2cb56c	0.010541301
112	0xbd6ab023	-0.057296883
113	0xbd162768	-0.036658674
114	0xbc1878d9	-0.009306156
115	0x3cf2f307	0.0296569
116	0x3d682963	0.056680094
117	0xbd4f8f69	-0.050673876
118	0x3debad7a	0.115076974
119	0xbd42c60e	-0.04755216
120	0xbcc0aedd	-0.023520881
121	0x3abff179	0.0014644108
122	0x3e041fc3	0.12902741
123	0x3e0b3c79	0.13597287
124	0xbdac4d10	-0.08413136
125	0x3cfdfed7	0.031005306
126	0xbd36ca2d	-0.044626404
127	0xbce5a345	-0.028031955
128	0xbe0fa820	-0.14028978
129	0xbdc0f4fc	-0.09421727
130	0x3a3b26e1	0.00071392773
131	0xbd6a8922	-0.057259686
132	0xbe0ff5b4	-0.14058572
133	0xbc2dfb13	-0.010618943
134	0x3e2aaf30	0.16668391
135	0xbe1d02be	-0.15333077
136	0x3c8b6aa2	0.01701862
137	0xbdbd1d9a	-0.09234162
138	0xbe1e40c6	-0.15454397
139	0x3e2bc13b	0.1677293
140	0xbbef8cbf	-0.0073104794
141	0x3d505089	0.050858054
142	0xbdea22f0	-0.11432445
143	0xbd565f23	-0.052336823
144	0xbd4a47d8	-0.04938492
145	0x3e109279	0.14118375
146	0xbcd1b346	-0.02559818
147	0xbe1644e7	-0.14674722
148	0x3e284919	0.16434135
149	0xbd26b165	-0.04069652
150	0x3de5322b	0.111912094
151	0x3d9ad218	0.075596035
152	0xbc304586	-0.010758763
153	0x3db07c04	0.08617404
154	0xbd91fe04	-0.07128528
155	0xbd8929d8	-0.06697434
156	0xbcfa8ecc	-0.030585669
157	0x3cdfc1f2	0.02731416
158	0xbd506988	-0.050881892
159	0xbb87c92e	-0.0041438555
160	0xbd11db1e	-0.035609357
161	0x3d9aa299	0.07550544
162	0x3d794bc1	0.06086326
163	0xbd171193	-0.036881994
164	0xbd90c281	-0.07068349
165	0xbc630438	-0.013855986
166	0x3d4062c4	0.04696919
167	0xbd647aef	-0.0557813
168	0x3df94778	0.12171835
169	0xbda71b8d	-0.08159552
170	0xbe2b81f5	-0.16748793
171	0xbd3d8b7c	-0.0462756
172	0x3e2d1949	0.16904177
173	0x3cf4ec67	0.029897882
174	0xbdc7a985	-0.0974913
175	0xbe1879eb	-0.14890258
176	0x3d5893a8	0.05287519
177	0x3d41b07b	0.047287446
178	0xbe22889e	-0.15872428
179	0x3d89114e	0.06692754
180	0xbd9089e1	-0.07057548
181	0x3ba00b01	0.0048841243
182	0x3d193f69	0.03741399
183	0x3e2f5587	0.1712247
184	0x3d18897f	0.0372405
185	0x3aaa9f7c	0.0013017501
186	0xbcfc0250	-0.030762821
187	0xbd2b4d54	-0.041821793
188	0x3da629d2	0.08113445
189	0x3db46b9d	0.08809588
190	0xbb04fb37	-0.0020291337
191	0xbde1a68c	-0.110180944
192	0xbdc0e44a	-0.09418543
193	0xbd65ae2f	-0.056074318
194	0x3dd80282	0.10547353
195	0x3d16cbad	0.036815334
196	0xbb45acb1	-0.0030162747
197	0xbd9c3652	-0.07627548
198	0xbdb63928	-0.088976204
199	0x3c35cb5c	0.011095848
200	0x3d9f8960	0.07789874
201	0xbddc73c8	-0.10764271
202	0xbd6e949e	-0.0582472
203	0x3de8d8dc	0.11369488
204	0x3b051fd8	0.002031317
205	0xbdb89149	-0.09012086
206	0xbd99fda6	-0.07519083
207	0x3d54325f	0.05180585
208	0xbe0ee4ba	-0.1395444
209	0xbd93d6cb	-0.07218703
210	0x3e10c7f2	0.14138773
211	0xbc22aea7	-0.009929336
212	0x3e2986b4	0.16555291
213	0xbdce533d	-0.1007447
214	0x3da374d2	0.07981266
215	0xbd6cf311	-0.057848994
216	0x3dedd34f	0.116125695
217	0x3d2b1185	0.041764755
218	0xbcdbf8e2	-0.026852075
219	0xbe288787	-0.1645795
220	0x3dcb740f	0.09934246
221	0x3e02b0ed	0.12762804
222	0xbb5aae57	-0.0033368075
223	0xbe00b3fa	-0.12568656
224	0xbe1eda4a	-0.15512958
225	0xbd88420a	-0.06653221
226	0x3e35c321	0.17750217
227	0xbdf69c44	-0.12041524
228	0x3da984fe	0.08277319
229	0xbc9afac0	-0.018918395
230	0x3d2acdcb	0.041700166
231	0xb915d6c4	-0.00014289754
232	0x3ba181d8	0.0049288087
233	0xbbb56480	-0.005535662
234	0xbd475e1f	-0.048673745
235	0x3c87fd4a	0.01660027
236	0xbd52b6e5	-0.051443953
237	0x3c544d01	0.012957812
238	0xbd9c56f0	-0.076337695
239	0xbd6b87ca	-0.057502545
240	0x3ca72f0e	0.02040818
241	0xbd8947ae	-0.06703125
242	0xbd9c0b7b	-0.07619377
243	0x3d502045	0.050812025
244	0x3e159d21	0.14610721
245	0x3d6e2be4	0.058147326
246	0x3cee4791	0.02908686
247	0x3dfb5484	0.122719795
248	0x3d8eb2a1	0.069676645
249	0xbd4c7368	-0.049914747
250	0x3dc3df03	0.095640205
251	0xbd636905	-0.055520076
252	0xbdb15586	-0.086588904
253	0x3d3d9c92	0.046291895
254	0xbcca888f	-0.02472332
255	0xbe012e2a	-0.12615266

lstm.bias_ih_l0 f4 [256]
0	0x3e017ed6	0.1264604
1	0xbd9d1220	-0.07669473
2	0x3cdcaad4	0.026936926
3	0x3da873f3	0.082252406
4	0x3d83fe52	0.06444992
5	0x3e18ddf6	0.14928421
6	0x3e06b3e9	0.13154568
7	0x3e1be7d9	0.15225162
8	0x3e45db59	0.19321956
9	0x3daa1ace	0.08305894
10	0xbd85e9c5	-0.065387286
11	0xbd5f7baf	-0.054561313
12	0x3e2d6171	0.16931702
13	0xbd563d6f	-0.05230468
14	0x3e0f57c5	0.13998325
15	0xbd872fb7	-0.06600898
16	0x3e207d30	0.15672755
17	0x3e299cd7	0.16563736
18	0xbda2b13c	-0.07943961
19	0x3df3f61d	0.11912177
20	0x3e318304	0.17335135
21	0x3e13c040	0.14428806
22	0x3cf9a987	0.030476345
23	0x3dcb075b	0.09913512
24	0xbc3a4e5e	-0.011371223
25	0x3e2cfd43	0.16893487
26	0xbd509e77	-0.050932374
27	0x3e33bd63	0.17552714
28	0x3c069881	0.008215071
29	0x3b83a5df	0.004017576
30	0x3d7ce6a9	0.061743412
31	0x3e3fb64c	0.18721884
32	0x3d2d5fa2	0.04232753
33	0x3dabb943	0.08384945
34	0x3dfcd128	0.12344581
35	0x3e499fbc	0.1968984
36	0x3ce5cd69	0.028052049
37	0xbc9a9439	-0.018869506
38	0x3d8c9a53	0.068653725
39	0x3e284197	0.1643127
40	0xbd32edd0	-0.043683827
41	0x3d9daeb2	0.07699336
42	0x3d9e34d3	0.07724919
43	0x3c81dac6	0.01585139
44	0xbd56161e	-0.052267186
45	0x3e0fc301	0.14039232
46	0x3e060c04	0.13090521
47	0x3e0073fc	0.12544245
48	0x3e35e3c7	0.17762671
49	0x3df57074	0.11984339
50	0x3d65a9a2	0.056069978
51	0x3d24eef1	0.040266935
52	0x3d6f3b69	0.058406267
53	0xbd237fef	-0.03991693
54	0xbd3873e8	-0.04503241
55	0x3d4a2781	0.04935408
56	0xba7821e0	-0.0009465497
57	0xbc1aa7c4	-0.0094394125
58	0xbd25c389	-0.04046968
59	0x3df8a225	0.121403016
60	0x3e006b90	0.12541032
61	0xbd67fd58	-0.05663809
62	0xbc33e098	-0.01097884
63	0x3e0c28a7	0.13687383
64	0x3dff066e	0.12452398
65	0x3dee6809	0.11640937
66	0xbde6a486	-0.11261849
67	0xbd85f323	-0.06540515
68	0x3d85d745	0.065352
69	0xbdedfdc8	-0.116206706
70	0xbcaf96df	-0.021434246
71	0xbddf364f	-0.108990304
72	0x3dc68f74	0.0969533
73	0x3d8861df	0.066592924
74	0xbd98dc3c	-0.074638814
75	0xbd6cbc5c	-0.05779682
76	0x3dab0d40	0.083521366
77	0x3dc2f673	0.09519663
78	0x3cd64a33	0.026158428
79	0xbd9184a3	-0.071053766
80	0x3d7f1a11	0.06228072
81	0xbce38bef	-0.027776686
82	0x3dbcc189	0.092166014
83	0xbd44ea2c	-0.048074886
84	0xbc54dba4	-0.0129918195
85	0x3e06a8c6	0.1315032
86	0x3d995c81	0.07488347
87	0xbd108ae4	-0.035288706
88	0x3e03bae9	0.1286427
89	0x3dc70c38	0.097191274
90	0xbd6e3e03	-0.058164608
91	0x3b20b31b	0.0024520818
92	0xbd282149	-0.04104737
93	0x3c723065	0.014782046
94	0x3c84cc95	0.016210834
95	0x3ce16481	0.027513744
96	0xbc296859	-0.01033982
97	0xbd078955	-0.033089954
98	0x3de47f01	0.111570366
99	0xbd7a8f57	-0.061171856
100	0x3df847c7	0.121230654
101	0xbcdef658	-0.027217075
102	0xbd3872e4	-0.045031443
103	0xbd897e26	-0.06713514
104	0xbd7a76cb	-0.061148446
105	0xbb5f87fe	-0.0034108157
106	0x3d2bc343	0.041934263
107	0xbd97576d	-0.07389722
108	0x3de7b81b	0.11314412
109	0x3d7fa0f4	0.062409356
110	0x3df52143	0.11969235
111	0x3d7699f5	0.06020542
112	0x3d93b3e6	0.07212047
113	0x3d55333a	0.052050807
114	0x3e13b974	0.14426214
115	0xbcce7afd	-0.02520513
116	0xbe09eee9	-0.13470043
117	0x3dcbb079	0.09945769
118	0xbdcc3b35	-0.0997223
119	0xbc449bcd	-0.012000036
120	0x3d7dd9e2	0.061975367
121	0xbdd9ac33	-0.106285475
122	0x3e0171fb	0.12641136
123	0xbd25f8f0	-0.04052061
124	0x3ce60bef	0.028081862
125	0x3c875885	0.016521702
126	0xbd430ef8	-0.047621697
127	0x3d81c670	0.06336677
128	0xbdc2cc8b	-0.0951167
129	0x3d4e458a	0.050359286
130	0x3c22896e	0.009920461
131	0x3dc2c661	0.09510494
132	0xbdc605ac	-0.096690506
133	0x3c5db430	0.01353173
134	0x3e294688	0.16530812
135	0x3d30c330	0.043154895
136	0xbdf73e10	-0.12072384
137	0xbd87ec1e	-0.06636833
138	0xbd6816c0	-0.05666232
139	0x3d00f0af	0.031479534
140	0xbd997375	-0.07492725
141	0xbcd91297	-0.026498122
142	0xbdff59d3	-0.124683045
143	0x3d9d7c44	0.076897174
144	0xbe10d9be	-0.14145562
145	0x3d6cb534	0.057789996
146	0x3d7c91c0	0.061662436
147	0xbddb5d02	-0.10711099
148	0x3d9468b8	0.07246536
149	0x3d176d95	0.03696974
150	0x3cd224e5	0.025652358
151	0x3dcb12d4	0.099157006
152	0x3df00802	0.11720277
153	0x3b96523a	0.004587439
154	0xbe128f31	-0.14312436
155	0xbd475df7	-0.048673596
156	0xbddc0b48	-0.10744339
157	0x3e0a12ca	0.1348373
158	0xbd5dad8f	-0.054120596
159	0xbc4ab373	-0.012371886
160	0xbe013c5d	-0.12620683
161	0xbdd31178	-0.10306066
162	0x3e0a1ce8	0.1348759
163	0xbbd9ebca	-0.0066504227
164	0xbe1d4e72	-0.15361956
165	0xbe0df996	-0.1386474
166	0xbc3b500a	-0.011432657
167	0x3d8d3247	0.06894355
168	0x3db5096a	0.08839686
169	0xbdeeb6ed	-0.11655984
170	0xbde65e09	-0.112484045
171	0x3d76f5a2	0.060292847
172	0x3e01cbe0	0.12675428
173	0xbda8166f	-0.08207404
174	0xbda7acee	-0.081872806
175	0xbdb2be7c	-0.08727738
176	0xbda915e3	-0.08256128
177	0x3dd10f90	0.102080464
178	0xbd6fcdc9	-0.05854586
179	0xbdc0fc74	-0.094231516
180	0x3dbf9eb6	0.093564436
181	0xbe049e82	-0.12951091
182	0x3ddbe246	0.107365176
183	0x3d93d7f7	0.072189264
184	0x3c740cae	0.014895601
185	0xbdcdab41	-0.1004243
186	0x3e26f51e	0.16304442
187	0x3e044766	0.12917861
188	0x3d741fa4	0.059600487
189	0x3d467b85	0.04845764
190	0xbd4482ae	-0.04797619
191	0xbc333893	-0.010938781
192	0xbc1acbb8	-0.009447984
193	0x3c8fbfa7	0.017547442
194	0x3d86e4c6	0.06586604
195	0x3e14e1db	0.14539282
196	0xbd00ba99	-0.031427953
197	0x3e064b1f	0.13114594
198	0x3e279a40	0.16367435
199	0x3df6fcdc	0.12059948
200	0x3dba3d11	0.09093679
201	0xbcf24a54	-0.029576458
202	0x3e0638a6	0.13107547
203	0xbcd0427a	-0.025422323
204	0x3e24aa62	0.16080621
205	0x3ca0df25	0.019637654
206	0x3e2b4d1d	0.16728635
207	0x3c96ffd0	0.018432528
208	0x3d574290	0.052553713
209	0xba075e11	-0.00051638583
210	0x3d2fd11e	0.04292404
211	0xbd4b654e	-0.04965716
212	0x3d293936	0.041314326
213	0x3ca5bc2d	0.02023133
214	0x3dc23178	0.09482092
215	0x3e2326a3	0.15932707
216	0xbc1d6dd2	-0.009608703
217	0x3d8f2be2	0.06990792
218	0x3dad1238	0.084507406
219	0x3e32de3a	0.17467585
220	0x3c766b46	0.015040224
221	0x3ccbde4f	0.024886278
222	0x3dd4cdc7	0.103908114
223	0x3e269f64	0.1627174
224	0x3e2a98b5	0.16659816
225	0x3df70f8b	0.120635115
226	0x3d859019	0.06521625
227	0x3e3637ec	0.1779477
228	0x3e229d41	0.158803
229	0xbd0a59b2	-0.033776946
230	0x3d1523be	0.03641104
231	0x3c2649c7	0.010149426
232	0x3da9f9bf	0.082995884
233	0x3e2a2514	0.16615707
234	0xbcef99f9	-0.029248225
235	0x3dc428d0	0.09578097
236	0xbd18ee49	-0.03733662
237	0x3e21db40	0.15806293
238	0x3cb4327c	0.02199673
239	0xbd19df45	-0.037566442
240	0x3d76e51b	0.060277086
241	0x3cfd8b6f	0.030950276
242	0x3e02779a	0.12740937
243	0x3d5e7913	0.054314684
244	0x3c4fd32b	0.012684624
245	0x3b9d6000	0.004802704
246	0x3dafbb1e	0.08580612
247	0x3d940534	0.07227555
248	0x3cc311b9	0.023812162
249	0x3e1b2016	0.15148959
250	0x3d8bded5	0.06829611
251	0xbd9dbe71	-0.077023394
252	0x3e0c6644	0.13710886
253	0x3d6fe148	0.058564454
254	0x3d8bab12	0.068197384
255	0xbd9c5427	-0.07633238

lstm.bias_hh_l0 f4 [256]
0	0x3dfa479f	0.12220692
1	0xbcd9dcac	-0.026594482
2	0xbd223f92	-0.039611407
3	0x3d915041	0.07095385
4	0x3b719b8f	0.0036866402
5	0x3ddbe125	0.10736302
6	0x3e508a9d	0.20365377
7	0x3e2fea67	0.17179261
8	0xb990eac6	-0.0002764074
9	0x3d097d72	0.0335669
10	0x3e0c805f	0.13720845
11	0x3db75d9a	0.089534
12	0x3cee5e49	0.029097693
13	0xbc140444	-0.00903422
14	0x3cbe7fcb	0.023254296
15	0x3dc87a21	0.09788919
16	0x3e12f9ff	0.14353178
17	0x3dddc84c	0.10829219
18	0x3e1f0144	0.15527827
19	0x3d508979	0.050912354
20	0x3c0b3c28	0.008498229
21	0xbd83f598	-0.06443328
22	0x3dea70c7	0.11447292
23	0x3dbedb45	0.09319166
24	0x3e0105d1	0.12599875
25	0xbd763f70	-0.060119092
26	0x3e1e9087	0.1548482
27	0x3d87d049	0.06631524
28	0x3d4bbda1	0.04974139
29	0x3c5ad4ac	0.013356369
30	0xbb9944d8	-0.0046773963
31	0x3e47a956	0.1949819
32	0x3d969be0	0.073539495
33	0xbd64720a	-0.05577282
34	0x3e1e8d7b	0.15483658
35	0x3c56ee6d	0.013118369
36	0x3dbd7695	0.09251133
37	0x3c6abe0d	0.014327538
38	0x3e2270cc	0.15863341
39	0x3e212181	0.15735437
40	0xbd4ac5d5	-0.049505074
41	0x3da53278	0.08066267
42	0x3cbb30f0	0.022850484
43	0x3d332154	0.043732956
44	0x3e2d1f36	0.16906437
45	0x3e461ebb	0.1934766
46	0x3d13a847	0.036049154
47	0x3da807c9	0.0820461
48	0xbd0ec314	-0.03485401
49	0x3de0ada3	0.109706186
50	0xbd557edc	-0.052122936
51	0x3d2bc5eb	0.041936796
52	0x3d742553	0.059605908
53	0x3e0dca28	0.13846648
54	0x3c84aa36	0.016194444
55	0x3e2485f4	0.16066724
56	0x3e2f0581	0.17091943
57	0x3d847d83	0.06469252
58	0x3b933ac2	0.0044930885
59	0x3c33ce0c	0.010974418
60	0x3e41f8b6	0.18942532
61	0x3df2c845	0.11854605
62	0x3b7e18fb	0.0038772214
63	0x3d8e3697	0.06944006
64	0xbdd9788e	-0.10618697
65	0x3d6923b0	0.0569188
66	0x3db1c5ea	0.08680327
67	0x3cf12205	0.029435167
68	0xbcb110c2	-0.021614436
69	0xbceb706c	-0.02874013
70	0x3e0aaeb1	0.13543202
71	0xbda01f93	-0.07818522
72	0x3e020e02	0.12700656
73	0xbd4e27f1	-0.05033106
74	0x3d604848	0.054756433
75	0x3d165cbd	0.036709536
76	0x3c713275	0.014721503
77	0x3e0f27cd	0.13980027
78	0x3caa7529	0.02080782
79	0x3d12bd69	0.035825167
80	0x3d6e072a	0.0581123
81	0x3d79edfe	0.061017983
82	0x3db1fbe5	0.08690623
83	0x3e0bbd99	0.13646545
84	0xbd9038d0	-0.07042086
85	0x3dbd9a42	0.09257938
86	0x3d681031	0.056656066
87	0x3d8d8741	0.06910563
88	0x3b08c6d0	0.0020870455
89	0x3c187b63	0.009306761
90	0x3c8f62a6	0.017503094
91	0xbc894091	-0.01675442
92	0xbd760fcf	-0.06007367
93	0x3e1d1034	0.15338212
94	0xbd5d6ca6	-0.054058693
95	0xbcc44cec	-0.02396246
96	0x3cb6761a	0.022273112
97	0x3df9cb5d	0.121969916
98	0xbd9c319b	-0.07626649
99	0x3dbbf9fb	0.09178539
100	0xbd394bb5	-0.045238215
101	0x3dd7364d	0.10508404
102	0x3cd26367	0.025682164
103	0xbe16e79e	-0.14736792
104	0x3d041022	0.032241948
105	0x3d08b763	0.033378016
106	0xbdf8fa89	-0.12157161
107	0x3dcbe15d	0.09955094
108	0xbd9381ad	-0.07202468
109	0xbd8768b2	-0.06611766
110	0x3df65eb8	0.12029785
111	0xbd6c9852	-0.05776245
112	0xbdbb096a	-0.09132655
113	0xbdd5eb0b	-0.104452215
114	0x3d072769	0.03299657
115	0xbd419c39	-0.047268126
116	0xbd41c418	-0.04730615
117	0x3cf64dcd	0.030066395
118	0x3df06693	0.117383145
119	0x3d39180e	0.045188956
120	0x3d4cfa5e	0.050043456
121	0x3bb5ffc6	0.005554172
122	0x3d2e7ee7	0.042601492
123	0xbd2ba15e	-0.04190194
124	0xbde4f0fd	-0.11178777
125	0x3d8dec29	0.069298096
126	0x3db034e2	0.086038366
127	0xbc8dde24	-0.017317839
128	0xbd944abf	-0.07240819
129	0xbd831049	-0.063995905
130	0xbdb13b6d	-0.08653913
131	0xbd31006c	-0.043213293
132	0xbe0f2137	-0.13977514
133	0xbb93a6a0	-0.004505947
134	0x3e1e6ffa	0.15472403
135	0xbe0853e4	-0.13313252
136	0x3dc7ce80	0.097561836
137	0xbdbfbb28	-0.09361869
138	0xbdaba769	-0.0838154
139	0x3dbc3f00	0.09191704
140	0xbd7d6512	-0.061863966
141	0xbc2f5fee	-0.010704024
142	0x3d9c2c4f	0.07625639
143	0x3d943b76	0.07237904
144	0xbd3da8d4	-0.046303585
145	0x3d6de140	0.058076143
146	0x3dba3f0c	0.090940565
147	0xbddc9a2c	-0.107715935
148	0x3d7cba7d	0.061701287
149	0xbdbc5b56	-0.091971084
150	0xbd84f0f1	-0.064912684
151	0xbd82a5c8	-0.063792765
152	0xbd8357a3	-0.064132
153	0xbddd3b04	-0.10802272
154	0xbdc1c53c	-0.094614476
155	0xbd1e5172	-0.03865189
156	0xbd1411bf	-0.036149736
157	0x3d3977ef	0.045280393
158	0x3d52ea05	0.05149271
159	0xbdb57a37	-0.08861201
160	0xbcfba1ae	-0.030716743
161	0x3deec4ec	0.116586536
162	0x3e324f3e	0.17413041
163	0xbdc98e05	-0.09841541
164	0xbdb775c0	-0.08958006
165	0x3cf1ba5d	0.02950781
166	0x3caf3f40	0.021392465
167	0xbc306998	-0.010767363
168	0xbd2a7bf8	-0.041622132
169	0xbe22a589	-0.15883459
170	0x3b8a84b7	0.0042272466
171	0xbdf642af	-0.12024438
172	0x3e25ed89	0.16203894
173	0x3df259ff	0.11833572
174	0xbc9d17ef	-0.019176451
175	0xbdb950e4	-0.09048632
176	0x3d431bd5	0.047633965
177	0xbd2685ab	-0.04065482
178	0xbe1cc164	-0.15308148
179	0x3d4e42d3	0.050356697
180	0xbdd9e314	-0.10639015
181	0xbdf77beb	-0.12084182
182	0x3cf22834	0.029560186
183	0x3defdf8f	0.11712562
184	0x3d97dd9f	0.07415318
185	0xbd9a4af9	-0.07533831
186	0x3bc3ae98	0.005971741
187	0x3e0adc56	0.13560614
188	0x3cbb5a27	0.022870136
189	0x3dc00c19	0.093773074
190	0x3a9828ba	0.0011608817
191	0xbc99a296	-0.018754285
192	0x3d13deed	0.03610127
193	0x3de89bd6	0.11357848
194	0x3dc1feb1	0.09472407
195	0xbd84ae3c	-0.06478545
196	0x3d85cc06	0.06533055
197	0xbcd89dde	-0.026442464
198	0xbb469070	-0.0030298494
199	0x3d953059	0.07284612
200	0x3e201f11	0.15636851
201	0x3cac4a47	0.021031512
202	0x3d80639a	0.062689975
203	0x3ce753be	0.028238174
204	0x3daabf94	0.08337322
205	0x3d9a619f	0.07538151
206	0x3e2a6802	0.16641238
207	0x3d3ea460	0.04654348
208	0xbd383361	-0.044970874
209	0x3d855bce	0.06511651
210	0x3cab28fb	0.020893564
211	0x3ba081e0	0.004898295
212	0x3c0baf2e	0.008525653
213	0x3d89144d	0.06693325
214	0xbc81f77b	-0.015865078
215	0x3e38a1fc	0.18030542
216	0x3d9caff5	0.07650749
217	0x3da07922	0.07835604
218	0x3e3272ce	0.17426607
219	0x3b4785d1	0.003044475
220	0x3ded396c	0.11583218
221	0xbd3bfa92	-0.04589326
222	0xbd74b6e3	-0.059744727
223	0x3df484bc	0.119393796
224	0x3d8aa35c	0.067694396
225	0xbcb5d60f	-0.022196798
226	0x3decfc3f	0.115715496
227	0xbcbe11fa	-0.023201931
228	0x3d9b1ed2	0.07574238
229	0xbd6f5feb	-0.058441084
230	0x3d414c0a	0.047191657
231	0x3cfbe905	0.03075076
232	0x3d68c7bb	0.056831103
233	0x3dc32fb9	0.09530587
234	0xbd42bb00	-0.04754162
235	0xbd6b6ba8	-0.057475716
236	0x3e18e361	0.14930488
237	0xbd0f9d2e	-0.035062008
238	0x3cf2ffce	0.029662993
239	0x3e1bf3f6	0.15229782
240	0x3cacd9fa	0.021100033
241	0x3d1aeee8	0.037825495
242	0x3bb85eb3	0.0056265234
243	0x3dd32f58	0.103117645
244	0xbd3dcac4	-0.04633595
245	0x3e0a3d16	0.13499865
246	0x3d893334	0.06699219
247	0x3d66c8da	0.05634389
248	0x3d8c5a65	0.06853179
249	0xbd08a4fa	-0.03336046
250	0xbd70f5af	-0.058828052
251	0xbd484630	-0.04889506
252	0x3e05e60d	0.13076039
253	0x3de27b4e	0.11058675
254	0xbc4e50cc	-0.012592506
255	0x3e088e36	0.13335499

lstm.weight_ih_l1 f4 [256, 64]
0	0xbe262afe	-0.16227338
1	0xbd9f0752	-0.07765068
2	0x3ca0e3e9	0.019639926
3	0xbddb387b	-0.10704132
4	0x3d2e9bf9	0.042629216
5	0x3d75066c	0.059820578
6	0x3df0acc0	0.117516994
7	0x3da7ca66	0.08192901
8	0xbce1ed86	-0.02757908
9	0xbc8c2cfa	-0.01711129
10	0x3c0d3796	0.00861921
11	0xbcdf16c9	-0.027232544
12	0x3da5a69f	0.08088421
13	0xbe089e5a	-0.13341656
14	0x3d59f2ce	0.053210072
15	0xbdb425db	-0.08796283
16	0x3d851c2d	0.06499515
17	0xbd478dea	-0.048719324
18	0x3bcddaf7	0.006282206
19	0xbdd3a9ba	-0.10335107
20	0xbd898638	-0.06715053
21	0x3b290164	0.0025788182
22	0x3e1733b8	0.14765823
23	0xbd4178dc	-0.0472344
24	0x3da44381	0.08020688
25	0x3d831046	0.06399588
26	0xbcbfdd61	-0.023420991
27	0xbe019db5	-0.12657817
28	0xbe0b8f26	-0.13628826
29	0x3dd7488d	0.10511885
30	0xbd85f6a0	-0.065411806
31	0x3e02fee2	0.12792543
32	0xbcd4159f	-0.025889216
33	0xbd57ef7b	-0.05271862
34	0x3d66e3ee	0.056369714
35	0xbdc61a13	-0.09672942
36	0x3da3ab15	0.07991616
37	0xbd3d1d4b	-0.046170514
38	0xbdc05226	-0.093906686
39	0x3d85aba4	0.065268785
40	0x3e19514d	0.1497242
41	0xbc4c2799	-0.012460613
42	0x3cc03e27	0.023467137
43	0xbd1fb668	-0.038992316
44	0x3cfaaeab	0.030600866
45	0xbd3e35d0	-0.04643804
46	0x3d526bac	0.051372215
47	0x3b259d12	0.0025270623
48	0xbd8f2b3f	-0.069906704
49	0xbc5ed288	-0.013599999
50	0xbd74408c	-0.05963187
51	0xbdfecb9d	-0.1244118
52	0x3c54fc84	0.012999658
53	0x3db15467	0.086586766
54	0x3b5aba00	0.0033375025
55	0xba1cb749	-0.00059782394
56	0x3db86bdf	0.0900495
57	0xbe22157c	-0.15828508
58	0x3dd6d913	0.10490622
59	0x3cf6375b	0.030055692
60	0x3db9d811	0.090744145
61	0xbdb14907	-0.08656507
62	0xbd25af74	-0.04045053
63	0x3d8729df	0.06599783
64	0xbe132140	-0.14368153
65	0x3d82c405	0.06385044
66	0x3bee74cb	0.0072771064
67	0x3d527fd1	0.051391426
68	0x3cfd7940	0.030941606
69	0x3dcf5430	0.10123479
70	0x3e312cb3	0.17302208
71	0x3c81eee8	0.01586099
72	0x3d97e37a	0.074164346
73	0x3d166a65	0.03672256
74	0xbe1e9fc9	-0.1549064
75	0x3dc6fc20	0.09716058
76	0xbb95c3ab	-0.0045704446
77	0xbdb32d75	-0.087489046
78	0x3d6eeef9	0.05833337
79	0x3d9bd789	0.076094694
80	0xbe27b01a	-0.16375771
81	0x3bab540d	0.0052285255
82	0xbd208efe	-0.039198868
83	0x3d18f64e	0.03734427
84	0x3de6c374	0.112677485
85	0xbd47d2e2	-0.048785098
86	0xbd55ff46	-0.0522454
87	0xbdbd893c	-0.09254691
88	0xbe164276	-0.1467379
89	0x3cb8a7a1	0.02254087
90	0xbbe41035	-0.00695994
91	0x3dae72dc	0.085180014
92	0xbd029902	-0.0318842
93	0xbd2cd95d	-0.04219948
94	0xbd1f004b	-0.03881864
95	0x3d5f687f	0.054543015
96	0xbe6b48fb	-0.22977059
97	0x3dbbd29f	0.09171032
98	0x3decc08d	0.11560164
99	0x3a187782	0.0005816148
100	0xbd862505	-0.0655003
101	0xbe04cf2f	-0.1296966
102	0x3d94b91e	0.07261871
103	0x3e091143	0.13385491
104	0xbd4702ca	-0.048586644
105	0xbe2fcdc3	-0.17168336
106	0xbd8b2ca7	-0.06795626
107	0xbc4b28ca	-0.012399862
108	0x3e055737	0.13021551
109	0x3ce368ee	0.027759995
110	0xbca0c035	-0.019622901
111	0xbdb59ae9	-0.088674374
112	0xbd2cd097	-0.042191114
113	0x3c9f6e11	0.019461663
114	0xbc1fe15f	-0.0097583225
115	0xbe194ea5	-0.14971407
116	0x3cb9f9f8	0.022702202
117	0xbd8c1f71	-0.068419345
118	0xbdb196f0	-0.08671367
119	0x3e2a2149	0.1661426
120	0x3c03df9b	0.008048917
121	0x3ae45372	0.0017419888
122	0x3e28ea64	0.16495663
123	0x3da0bec5	0.078488864
124	0xbbc51058	-0.006013911
125	0x3b8980e4	0.004196273
126	0xbd84ea97	-0.06490057
127	0xbd9b8aaa	-0.075948074
128	0x3c61242d	0.013741535
129	0xbd9a8245	-0.07544378
130	0x3db13c52	0.08654083
131	0xbe05bc28	-0.13060057
132	0x3d804756	0.06263606
133	0xbc23e2a3	-0.010002765
134	0xbd856ff6	-0.065154955
135	0x3c81455b	0.015780142
136	0x3db1416b	0.086550556
137	0x3d2d2ea6	0.042280816
138	0xbcec4a65	-0.028844068
139	0xbd8d1715	-0.06889168
140	0xbcff681f	-0.031177578
141	0xbdd19dc3	-0.10235169
142	0x3d01ee78	0.031721562
143	0xbe11abc6	-0.14225683
144	0x3d4e9eab	0.050444286
145	0x3dce0e79	0.10061354
146	0xbc8be604	-0.017077453
147	0x3d60e0d1	0.0549019
148	0x3df74813	0.12074294
149	0xbdd95286	-0.10611443
150	0x3db31f30	0.08746183
151	0x3c87bfc5	0.016570935
152	0xbd219d2e	-0.03945654
153	0xbe2e75b2	-0.17037085
154	0x3dace528	0.084421456
155	0xbce38c83	-0.027776962
156	0xbd35947c	-0.04433106
157	0x3c587d13	0.013213414
158	0xbe1b31aa	-0.15155664
159	0x3da21022	0.07913233
160	0x3d78eed8	0.060774654
161	0x3da392c6	0.07986979
162	0xbd5d996e	-0.0541014
163	0xbd155550	-0.036458313
164	0xbd3f79b1	-0.046746913
165	0xbc2d30ed	-0.010570747
166	0xbe2f49dd	-0.1711802
167	0xbe37fa9c	-0.17966694
168	0x3e1e0a01	0.15433504
169	0x3d85a511	0.065256245
170	0x3ddeef28	0.10885459
171	0xbd318812	-0.043342657
172	0xbd55ffb7	-0.05224582
173	0x3d8249af	0.0636171
174	0x3d079602	0.033102043
175	0xbd85122f	-0.06497609
176	0xbb5d6c88	-0.0033786613
177	0xbd86eb95	-0.065879025
178	0x3d8372ae	0.06418358
179	0x3d9ff4cd	0.07810364
180	0x3df0f17d	0.1176481
181	0xbb4f07b7	-0.0031590292
182	0x3d1da9c5	0.038491983
183	0x3e0f84a4	0.14015442
184	0xbd98e4b5	-0.074654974
185	0x3cccbd7a	0.024992693
186	0xbd774c96	-0.060375772
187	0xbd9cd2aa	-0.076573685
188	0xbcf6320c	-0.030053161
189	0xbde15f77	-0.110045366
190	0x3dac1c6d	0.08403859
191	0xbe1a4bcd	-0.15067978
192	0xbe353717	-0.17696796
193	0xbe27cbef	-0.16386388
194	0x3c704b21	0.01466635
195	0x3ce924c9	0.028459923
196	0x3d620e1f	0.05518925
197	0xbe293fbc	-0.16528219
198	0x3d2405c5	0.040044565
199	0xbc8f69e8	-0.017506555
200	0x3d4361fe	0.047700875
201	0xbcde5de2	-0.027144376
202	0x3dc0055a	0.09376021
203	0xbd646101	-0.055756573
204	0xbd6c09fb	-0.057626706
205	0xbe0c8017	-0.13720737
206	0xbd688c82	-0.056774624
207	0xbbb9ed86	-0.005674067
208	0xbd7b35cb	-0.061330598
209	0x3e050057	0.12988411
210	0xbd87f6a8	-0.06638843
211	0x3d65080a	0.05591587
212	0x3dd4216a	0.10357936
213	0x3d374a87	0.04474881
214	0x3bf99c28	0.007617492
215	0xbcd5385c	-0.02602785
216	0x3dee3be4	0.11632517
217	0x3d910243	0.070805095
218	0x3d199560	0.03749597
219	0xbde46be7	-0.11153393
220	0x3d73cf6f	0.059523996
221	0x3d4f0790	0.05054432
222	0xbdb2a288	-0.087224066
223	0x3d8cfe62	0.06884457
224	0x3dda2497	0.1065151
225	0x3e0230ad	0.12713881
226	0xbd95a8a5	-0.07307557
227	0x3bc72f81	0.006078661
228	0xbe046de1	-0.1293254
229	0xbdae98f8	-0.0852527
230	0xbe341a11	-0.17588069
231	0xbe08ceec	-0.13360184
232	0x3b9b25a8	0.0047347136
233	0xbd9a17cc	-0.0752407
234	0x3dd6054e	0.104502305
235	0xbd8d97bc	-0.06913707
236	0x3e284ec5	0.16436298
237	0xbd967fe7	-0.07348614
238	0xbdaba4b5	-0.08381025
239	0xbcb91d94	-0.022597112
240	0xbdb0aa0a	-0.086261824
241	0xbdf35f3a	-0.118833974
242	0x3ba37a49	0.0049889428
243	0xbd265e2f	-0.040617164
244	0xbd1d00ec	-0.038330957
245	0xbd57469e	-0.05255758
246	0x3e0e75c6	0.13912115
247	0x3e2d7dbe	0.16942498
248	0x3d2785e8	0.040899187
249	0xbc514f68	-0.01277528
250	0xbd966444	-0.07343343
251	0x3dca5d32	0.09881057
252	0xbcbb62c6	-0.022874247
253	0x3cd6da93	0.026227271
254	0x3dcd47de	0.10023473
255	0xbda81bfc	-0.082084626

lstm.weight_hh_l1 f4 [256, 64]
0	0x3deb402a	0.11486848
1	0x3c8ec8a1	0.017429652
2	0x3d1a3e55	0.0376571
3	0xbd826d2c	-0.06368479
4	0x3dea4642	0.11439182
5	0x3bfffa95	0.007811854
6	0x3d9eb740	0.07749796
7	0x3d7f1921	0.062279824
8	0x3c0c300f	0.00855638
9	0xbe2963ba	-0.16541949
10	0x3d853052	0.06503357
11	0x3d99d3cc	0.075111
12	0x3d41e8f3	0.0473413
13	0xbd68b04b	-0.05680875
14	0xbd81075b	-0.06300231
15	0x3d3ed93c	0.04659389
16	0x3da062df	0.07831358
17	0xbdb8f3e4	-0.090308934
18	0x3d87ab3c	0.06624457
19	0xbdc61918	-0.09672755
20	0x3d7d8f5d	0.0619043
21	0xbcfd97a5	-0.030956099
22	0xbdba5a0a	-0.09099205
23	0xbdf9308d	-0.121674635
24	0x3c57ff0d	0.013183367
25	0x3d2dc75e	0.04242646
26	0x3ae46026	0.0017423674
27	0x3d63901c	0.055557355
28	0x3dabcee3	0.0838907
29	0xbd8ba013	-0.06817641
30	0x3c3884d4	0.011262137
31	0x39d132eb	0.00039901523
32	0x3ce01b8c	0.027356885
33	0xbce23af9	-0.027616011
34	0x3d5e1505	0.054219265
35	0x3d767c3d	0.060177077
36	0xbdd9a1af	-0.10626542
37	0x3d08ed9b	0.033429723
38	0x3da842f4	0.08215895
39	0x3d570533	0.052495193
40	0xbcbf813f	-0.023377059
41	0xbd60da8b	-0.05489592
42	0xbd91f1e9	-0.07126219
43	0x3d666b91	0.056254927
44	0xbd75920c	-0.059953734
45	0x3d52ee00	0.051496506
46	0x3e094abb	0.13407414
47	0x3d8bbe2f	0.06823384
48	0xbde03858	-0.10948247
49	0xbd931be0	-0.07183051
50	0x3cf14921	0.029453816
51	0xbdbfa627	-0.09357863
52	0x3df8d6a3	0.12150314
53	0xbe12a743	-0.14321618
54	0xbca5b36f	-0.020227162
55	0xbd041cb9	-0.032253955
56	0x3e112fc4	0.14178377
57	0x3b4b849b	0.003105438
58	0xbc521abf	-0.01282376
59	0x3cc65f6f	0.024215428
60	0xbd98a755	-0.07453791
61	0xbdac3c34	-0.0840992
62	0x3d76f852	0.06029541
63	0xbe035c57	-0.12828194
64	0x3e01a41c	0.12660259
65	0xbd5db265	-0.05412521
66	0xbe5671a2	-0.20941785
67	0x3d4bb4b8	0.049732894
68	0xbbc0855b	-0.005875272
69	0xbe01b36f	-0.12666105
70	0xbc8bda13	-0.01707176
71	0x3d9e7d62	0.077387586
72	0xbdcf18f4	-0.10112181
73	0x3caf1e67	0.021376802
74	0xbd57fb8f	-0.05273014
75	0xbce4bec4	-0.027922995
76	0x3c5c3753	0.013440925
77	0x3ddbb8ac	0.10728583
78	0x3ce292cf	0.027657894
79	0xbd853e59	-0.065060325
80	0x3d9c8b23	0.07643726
81	0xbd89ed43	-0.06734707
82	0x3b37f988	0.0028072316
83	0x3daedb1c	0.085378855
84	0xbd923b9a	-0.07140274
85	0xbd84b31b	-0.06479474
86	0xbccaa383	-0.024736172
87	0xbd85bffb	-0.06530758
88	0x3d336a5e	0.04380261
89	0xbd6b1300	-0.057391167
90	0x3d9f7b18	0.0778715
91	0xbdd86454	-0.10566011
92	0xbe25d016	-0.1619266
93	0x3d5168e3	0.05112542
94	0x3cb9757a	0.022639025
95	0xbdbd011d	-0.09228728
96	0xbdb1a4e0	-0.086740255
97	0xbc3c0522	-0.011475833
98	0xba80f571	-0.0009838772
99	0xbc9e1853	-0.019298708
100	0xbd97485d	-0.07386849
101	0xbdd157c0	-0.10221815
102	0x3e0294bc	0.1275205
103	0xbe2b0f30	-0.16705012
104	0xbd0a0047	-0.03369167
105	0xbd80659e	-0.06269382
106	0x3dd57361	0.104223974
107	0xbd20ae71	-0.03922886
108	0x3c91953d	0.017771358
109	0x3e025de2	0.12731126
110	0x3d2631d9	0.040574882
111	0xbd7fa724	-0.062415257
112	0xbdca46dc	-0.098767966
113	0xbda009ce	-0.0781437
114	0xbe05e399	-0.13075103
115	0xbc3ccc34	-0.011523295
116	0x3d15ebf6	0.036601983
117	0xbde2738a	-0.110571936
118	0x3d602d67	0.0547308
119	0x3b68d2e0	0.0035526082
120	0x3dcc48b6	0.09974806
121	0x3d8dd5c5	0.06925539
122	0xbdeb2683	-0.11481955
123	0x3c3f282a	0.011667291
124	0x3c0bc1f5	0.00853013
125	0x3d8ccda8	0.06875163
126	0xbe38e327	-0.18055402
127	0xbd316fae	-0.043319397
128	0x3da22ae9	0.07918341
129	0xbd1dfb49	-0.038569722
130	0x3d03965c	0.032125816
131	0x3d3784cf	0.04480439
132	0xbd8df277	-0.06931012
133	0xbe0880fc	-0.13330454
134	0x3d858cb2	0.06520976
135	0xbbf0b078	-0.0073452555
136	0x3d89eac5	0.06734232
137	0x3bca6dae	0.0061776256
138	0x3d7f5f93	0.062347006
139	0x3dc98c49	0.098412104
140	0x3d08dd1d	0.033413995
141	0xbbfb6e53	-0.007673064
142	0xbd96f6c4	-0.073712856
143	0xbcfbf1a0	-0.030754864
144	0x3bea289c	0.0071459543
145	0x3cb9ffb4	0.022704937
146	0x3cf408eb	0.029789409
147	0x3d95a102	0.073061004
148	0x3cb5e9be	0.022206184
149	0x3cdc4f94	0.026893415
150	0x3c88e52a	0.016710836
151	0x3dae1c52	0.085014954
152	0xbd047437	-0.032337394
153	0x3c6dffed	0.0145263495
154	0xbc8410d9	-0.016121315
155	0xbd9df915	-0.07713524
156	0xbd888956	-0.0666682
157	0xbd291172	-0.041276403
158	0x3df55601	0.119792946
159	0xbddcc4f5	-0.10779754
160	0xbdb8e7ae	-0.090285644
161	0xbdcf7414	-0.10129562
162	0x3c219529	0.009862223
163	0xbd83b6bb	-0.064313374
164	0xb95efcec	-0.0002126579
165	0x3d5ad415	0.053424913
166	0x3db38c94	0.087670475
167	0xbd6b6adc	-0.057474956
168	0x3e0c1237	0.13678823
169	0x3ce96ad2	0.028493319
170	0xbd84d06f	-0.06485068
171	0xbd856e68	-0.06515199
172	0x3c3381ac	0.010956209
173	0xbd2a435f	-0.041568156
174	0x3d90a551	0.070627816
175	0xbdadadff	-0.08480453
176	0xbcb4e5bf	-0.022082208
177	0xbad93987	-0.0016572931
178	0xbd8608df	-0.06544661
179	0xbdef081d	-0.11671469
180	0xbd9fe758	-0.07807797
181	0xbd77c2fa	-0.06048868
182	0x39ef0d6e	0.00045595638
183	0x3caa2d94	0.020773686
184	0xbd81e4bf	-0.06342458
185	0x3d95e6bf	0.07319402
186	0xbdedabe7	-0.116050534
187	0x3e0da9e8	0.13834345
188	0x3d3118d7	0.04323658
189	0xbcbd141a	-0.023080874
190	0xbd8c3326	-0.06845693
191	0x3c99c6c4	0.018771537
192	0x3d2b58ba	0.041832663
193	0xbe258c14	-0.16166717
194	0x3d8b34e8	0.067972004
195	0xbdc62e66	-0.096768185
196	0x3c9a3b65	0.01882715
197	0xbe0c9855	-0.13729985
198	0x3d8c2dd6	0.0684468
199	0xbd58a49b	-0.052891355
200	0xbdbe3d62	-0.092890516
201	0xbd9205da	-0.07130022
202	0xbd13f30b	-0.036120456
203	0x3c92e304	0.017930515
204	0x3d84c986	0.0648375
205	0xbccb4d67	-0.024817182
206	0xbcbbf338	-0.022943124
207	0x3df56300	0.119817734
208	0xbd9b5119	-0.075838275
209	0xbd559d23	-0.05215181
210	0x3d88da5a	0.06682272
211	0xbd19b276	-0.03752371
212	0x3c89d366	0.016824435
213	0x3d10762f	0.03526896
214	0x3d87eff3	0.066375636
215	0xbd61932b	-0.05507199
216	0x3d8524ad	0.06501136
217	0x3cc842a6	0.024445843
218	0xbd5e2984	-0.05423881
219	0x3d36f061	0.044662837
220	0x3d1ad5a4	0.0378014
221	0x3cfa690b	0.030567667
222	0xbcd3dc9a	-0.025862027
223	0xbcfb8717	-0.030704064
224	0xbd051579	-0.03249118
225	0xbd13e1dc	-0.03610407
226	0x3d3bb4f3	0.045826863
227	0xbc9a8b7c	-0.01886534
228	0xbd17fa2e	-0.037103824
229	0x3d870b70	0.065939784
230	0xbd8af35f	-0.067847006
231	0xbda815a5	-0.08207253
232	0xbc7cf932	-0.015440272
233	0x3cb22407	0.021745695
234	0x3e03a4a7	0.12855779
235	0x3d788075	0.06066938
236	0x3b1ba1ca	0.0023747557
237	0xbd50c5b1	-0.050969783
238	0x3da0d311	0.07852758
239	0x3cc7d514	0.024393596
240	0x3d439d29	0.0477573
241	0x3d8dc2d5	0.06921927
242	0xbe0f1b09	-0.13975157
243	0xbc9bf1d2	-0.019036207
244	0x3e231889	0.15927328
245	0x3d49fa90	0.04931122
246	0xbbe3debf	-0.0069540436
247	0x3e03fe0c	0.1288988
248	0xbd90671d	-0.07050917
249	0x3e22df19	0.15905418
250	0xbcd1c2cd	-0.025605584
251	0xbd707be1	-0.05871189
252	0x3d7ce24a	0.061739244
253	0x3dfd8f36	0.12380831
254	0xbda992d5	-0.08279959
255	0xbcc67854	-0.024227299

lstm.bias_ih_l1 f4 [256]
0	0x3dbecb65	0.09316138
1	0x3d805312	0.062658444
2	0x3e074ab7	0.13212095
3	0x3b846f84	0.004041614
4	0xbc7c1567	-0.015385962
5	0x3df463c3	0.119330905
6	0x3e09653d	0.13417526
7	0x3da5206a	0.08062823
8	0x3e0d86e1	0.13820983
9	0x3e79d25f	0.24396656
10	0x3e379b37	0.17930304
11	0xbc5ee176	-0.013603559
12	0x3d04a58b	0.032384437
13	0xbd804285	-0.062626876
14	0x3e246390	0.16053605
15	0x3c835616	0.01603226
16	0x3e156bf0	0.14591956
17	0x3dfd7934	0.12376633
18	0x3e121612	0.14266232
19	0x3d1f23f5	0.03885265
20	0x3e1939dd	0.1496348
21	0x3e30b6ca	0.17257228
22	0xbda00f15	-0.07815377
23	0x3d920361	0.07129551
24	0x3db4af47	0.08822494
25	0x3da095a1	0.078410394
26	0x3a63e0eb	0.0008692878
27	0x3e2ebd4d	0.170644
28	0x3dbc97c7	0.09208637
29	0xbbf707c3	-0.007538767
30	0x3db0bca5	0.08629731
31	0x3e2d86a3	0.16945891
32	0xbc27c2aa	-0.010239283
33	0x3e070d60	0.13188696
34	0x3cdb8ba9	0.026799994
35	0x3d64ad7a	0.055829503
36	0x3d5a09d0	0.053232014
37	0x3d935595	0.07194058
38	0x3ddfcb37	0.10927432
39	0xbd66dac0	-0.05636096
40	0xbd41aecc	-0.04728584
41	0x3e199732	0.14999083
42	0x3e20ee20	0.15715837
43	0x3bf3b892	0.007437774
44	0x3dc07ca8	0.09398776
45	0xbdcc08ff	-0.09962653
46	0xbcdb696d	-0.02678367
47	0x3e1f9a1f	0.15586136
48	0x3e083163	0.1330009
49	0xbcc3c962	-0.023899738
50	0x3e2e48e7	0.17019998
51	0x3d86bb03	0.065786384
52	0x3e229e8f	0.15880798
53	0xbd3bf65a	-0.045889236
54	0x3e06eeeb	0.13177077
55	0x3dccb456	0.09995334
56	0x3dc85ff5	0.09783927
57	0x3e2c9303	0.16852956
58	0x3e26c3f5	0.16285689
59	0x3e236fee	0.15960667
60	0x3dadbf64	0.084837705
61	0xbce8303f	-0.028343318
62	0xbd93731e	-0.07199691
63	0xbd36b1e9	-0.044603262
64	0xbdc6b260	-0.09701991
65	0xbd53e52e	-0.051732235
66	0x3dd93357	0.106054954
67	0x3d5a08e0	0.05323112
68	0x3a953c7b	0.0011385822
69	0xbdd0c7ae	-0.10194336
70	0xbd2e5631	-0.042562667
71	0x3d69940c	0.057025954
72	0x3dd67912	0.10472311
73	0xbd32d5ba	-0.043660857
74	0x3d037aea	0.03209964
75	0xbdb1ca1e	-0.08681129
76	0xbc4b75e3	-0.012418243
77	0x3d9652d4	0.07340017
78	0x3e12b7f6	0.14327988
79	0x3d6d2fd6	0.057906948
80	0xbda7bba3	-0.08190086
81	0xbe1113f0	-0.14167762
82	0xbb4519dc	-0.0030075228
83	0x3db1eeaa	0.086881
84	0x3ddd4306	0.10803799
85	0xbd1ac642	-0.03778673
86	0xbd3af554	-0.04564412
87	0xbd26b140	-0.040696383
88	0x3dd4a90a	0.10383804
89	0x3cc902b8	0.02453743
90	0xbd0ac707	-0.033881214
91	0x3bd334c6	0.0064455
92	0xbd869cb1	-0.06572855
93	0xbd8b225d	-0.06793664
94	0x3df257a5	0.11833123
95	0x3de78929	0.11305458
96	0xbcaa7c47	-0.020811213
97	0xbdebc8a9	-0.11512882
98	0xbd8d2b89	-0.06893069
99	0x3dcb16de	0.09916471
100	0xbb2d238e	-0.0026418897
101	0x3d9478a5	0.072495736
102	0xbcc984c3	-0.024599439
103	0x3cad70b9	0.021171914
104	0x3d858ea3	0.065213464
105	0xbcecd4ea	-0.02891012
106	0x3ce165ad	0.027514303
107	0xbd87354d	-0.06601963
108	0xba8161b9	-0.0009871043
109	0x3d9230e0	0.071382284
110	0xbce331bf	-0.027733682
111	0xbd802d0a	-0.062585905
112	0x3daaa13a	0.08331533
113	0x3de0828b	0.10962399
114	0xbd7273d7	-0.059192505
115	0xbd31141a	-0.04323206
116	0xbdb60ba7	-0.08888941
117	0xbda52050	-0.08062804
118	0x3daebc9e	0.085320696
119	0xbdfa5573	-0.122233294
120	0xbdb2649a	-0.087105945
121	0xbd4badd0	-0.049726307
122	0xbcbc19eb	-0.022961577
123	0xbd9127eb	-0.07087692
124	0x3de35b70	0.11101425
125	0x3d09dbd1	0.0336569
126	0x3d18e548	0.037328035
127	0xbd96a16a	-0.07355006
128	0x3e0e70e9	0.1391026
129	0xbcc7aac5	-0.024373421
130	0xbcec93d3	-0.028879082
131	0xbde18e17	-0.110134296
132	0xbdd43db7	-0.10363334
133	0xbe0a5499	-0.13508834
134	0x3cc7b2cb	0.024377247
135	0xbd5d2b55	-0.053996403
136	0xbd2bba30	-0.04192561
137	0xbda85392	-0.08219065
138	0x3dde5a55	0.10857073
139	0x3c90a1f6	0.017655354
140	0xbda39374	-0.07987109
141	0x3dfba16c	0.12286648
142	0xbe37a5a1	-0.17934276
143	0xbd0ab24b	-0.03386144
144	0xbc3ee416	-0.01165106
145	0x3d88cf06	0.066801116
146	0x3dac2e6c	0.08407292
147	0x3de48673	0.11158457
148	0xbe096a3f	-0.13419436
149	0x3e00cddc	0.12578529
150	0xbc4feaf0	-0.012690291
151	0xbd43c5cc	-0.047796056
152	0x3d8279c9	0.06370885
153	0x3de3f081	0.11129857
154	0xbd0680c0	-0.03283763
155	0xbde62279	-0.11237044
156	0xbd564d68	-0.052319914
157	0xbd8d6fd8	-0.06906098
158	0x3e0450b8	0.12921417
159	0xbdfcd62b	-0.12345537
160	0xbd9f4f6a	-0.07778819
161	0x3d415481	0.04719973
162	0x3d80e3f5	0.06293479
163	0xbd984c8e	-0.07436477
164	0xbdd567ef	-0.104202144
165	0x3d25aef8	0.040450066
166	0xbdb1fa2e	-0.08690296
167	0xbd2c7743	-0.042105924
168	0x3da30d03	0.07961466
169	0x3d7b831d	0.061404336
170	0x3c8187e6	0.015811872
171	0x3d2acea0	0.04170096
172	0xbd0a5500	-0.03377247
173	0x3da6f1bf	0.08151578
174	0xbda98674	-0.08277598
175	0x3d810645	0.06300024
176	0xbcbb31a7	-0.022850825
177	0xbcadae39	-0.02120124
178	0xbd42b87f	-0.04753923
179	0xbdaa79a0	-0.083239794
180	0x3d5d6f49	0.054061208
181	0xbdb799d3	-0.089648865
182	0x3dbdce68	0.092678845
183	0x3d8702a8	0.065923035
184	0xbd202145	-0.03909423
185	0x3da00397	0.07813185
186	0x3d50eae3	0.051005255
187	0x3e03defd	0.12878032
188	0x3ddc4270	0.107548594
189	0x3e05a96d	0.13052912
190	0xbe02ba3a	-0.12766352
191	0xbd205157	-0.03914007
192	0x3d8fd78f	0.070235364
193	0x3d8bac1c	0.06819937
194	0xbd860713	-0.06544318
195	0x3df08422	0.11743952
196	0xbd0c4ad4	-0.03425105
197	0x3e034ec1	0.12823011
198	0x3e02e0cb	0.12781064
199	0xbd6f3a8f	-0.058405455
200	0x3cd7319a	0.026268769
201	0x3de43320	0.11142564
202	0x3ce49dee	0.027907338
203	0x3c166aa7	0.009180701
204	0x3da52fd6	0.080657646
205	0xbcabe942	-0.02098525
206	0x3e08ec09	0.1337129
207	0x3cc3448c	0.023836397
208	0xbbf20505	-0.0073858523
209	0x3de74d6e	0.112940654
210	0x3dca51a5	0.09878854
211	0x3da137c8	0.078719676
212	0x3bb565f7	0.005535837
213	0x3cbeef9e	0.023307618
214	0x3d0a8375	0.033816773
215	0x3e333683	0.17501263
216	0x3d3b2ae9	0.04569522
217	0xbc8c30ed	-0.017113173
218	0xbd0f4df8	-0.034986466
219	0x3d8c87bb	0.06861826
220	0x3e2479dc	0.1606211
221	0x3dbd2fd3	0.09237637
222	0x3e123367	0.14277421
223	0x3dfc52db	0.12320491
224	0x3c926408	0.017869964
225	0x3cb63f95	0.022247115
226	0xbcb9bdf2	-0.02267358
227	0x3e0edeca	0.13952175
228	0xbda9a496	-0.082833454
229	0x3e07c64b	0.13259237
230	0x3c745d90	0.014914885
231	0xbd48210a	-0.048859634
232	0xbd876281	-0.06610585
233	0x3e093e77	0.13402735
234	0x3c27cdf9	0.010241979
235	0x3e2b84d6	0.16749892
236	0xbd72b41a	-0.05925379
237	0x3c1d3b3b	0.009596641
238	0xbd531103	-0.051529896
239	0x3e015d60	0.12633276
240	0xbcc9ea55	-0.024647871
241	0xbd443c7f	-0.047909256
242	0x3d51f870	0.05126232
243	0x3d7eff86	0.062255405
244	0x3e34e189	0.1766416
245	0x3d33ada9	0.043866787
246	0xbd10203c	-0.03518699
247	0x3e062fa6	0.13104114
248	0x3de42934	0.11140671
249	0x3ded0441	0.11573077
250	0x3d308f4f	0.04310542
251	0xbbec4af1	-0.007211082
252	0xbd05a803	-0.03263093
253	0x3e25ef14	0.16204482
254	0xbcdae3a7	-0.026719881
255	0x3d0e1e61	0.03469694
