LSTM/models/sensor_data_3_pm10_lstm_model.pth (torch, 206060 bytes, 9 tensors)

lstm.weight_ih_l0 f4 [256, 1]
000000 c3 ec 5b 3d 6a ba e3 3c a5 4d 36 3e b9 c5 87 bd
       0.05369259 0.02779885 0.17803057 -0.066295095
000010 34 a8 0a 3a ce 67 c8 3d b5 35 2d 3d 3e 2d 0e 3e
       0.00052893464 0.09785424 0.042287547 0.13884446
000020 25 4e d6 3d 47 66 b6 3d 10 be 5b bb b6 d6 99 bd
       0.10464124 0.089062266 -0.0033530034 -0.07511656
000030 af de 51 bd c0 75 20 3e 79 b0 2a 3e 9a 48 20 3d
       -0.05123776 0.15669918 0.16668881 0.03913174
000040 96 15 1d 3d 21 dc 23 bd e5 7a 88 3d 6f 0e e4 bd
       0.038350664 -0.040004853 0.06664065 -0.111355655
000050 01 60 10 3e 20 80 4c 3d 3e d2 fb 3d a9 68 b7 bd
       0.14099123 0.049926877 0.1229596 -0.08955509
000060 a8 9c 21 3e 3a 0c 04 bc 81 a3 45 be b1 4d 15 3d
       0.15782416 -0.008059556 -0.19300653 0.036451045
000070 7a 4a fd 3d 24 a3 81 3c 22 23 cc bd 26 15 01 bd
       0.12367721 0.015824862 -0.099676386 -0.03151431
000080 a7 96 3d 3e 3e ed 98 3d 90 69 7e 3d 2f ec 99 bb
       0.185145 0.07467125 0.06211239 -0.0046973447
000090 2e dd eb bd 7a 6e 08 3e 2e 44 05 bd f7 57 7b bd
       -0.11516796 0.13323393 -0.032535724 -0.061363187
0000a0 fb cb 2e 3e 12 37 54 3c 04 0c 06 3d 1f 97 45 bc
       0.1707 0.012952583 0.032726303 -0.012059956
0000b0 31 9e 5d 3e b1 4e 2c bd b5 01 14 3e c4 75 fc 3d
       0.21642376 -0.042067233 0.14453776 0.123271495
0000c0 9e 94 d4 3d 8f 2d 91 3c b6 f9 c2 bd 69 52 82 bd
       0.10379909 0.01772192 -0.09520285 -0.06363375
0000d0 40 e3 c6 bd f7 3c e4 b9 9c 2d b3 bc e9 64 e4 bd
       -0.09711313 -0.0004353297 -0.021872334 -0.111520596
0000e0 4b ec d6 bd 7a 75 e3 bd 8f 52 b6 3d 59 31 f6 3c
       -0.10494288 -0.11106391 0.089024656 0.030052828
0000f0 38 6d d5 3c 8b 62 5f 3c ca ac ec bd 26 9c 0e 3d
       0.026053056 0.013634334 -0.115563944 0.034816884
000100 a3 67 3b 3d 88 34 23 bb 68 42 e4 3d 3e 7c fb 3c
       0.045753133 -0.0024903137 0.111454785 0.030698892
000110 84 ed 03 be 8f c3 d5 bd 8a 91 73 bd 35 c7 d8 bc
       -0.12883574 -0.104376905 -0.05946497 -0.026462177
000120 af e4 12 3e 8f ed 8a 3d f2 4d 14 3e 51 02 64 bc
       0.14345048 0.06783592 0.14482859 -0.013916568
000130 8d 8c 72 bc 50 ec 59 3d 59 e7 cb 3d c4 92 8e bd
       -0.014804018 0.05320388 0.099562354 -0.06961587
000140 de 0b ee 3d 9e 68 1e 3c 30 c6 d0 3d ff b3 9a 3c
       0.11623357 0.009668497 0.10194051 0.018884657
000150 39 13 34 3e 9f 4f 08 3d 4f 40 fa 3d 12 70 8c 3c
       0.17585458 0.033279058 0.12219297 0.017143283
000160 73 f1 06 3e af 6a 33 3e 4d 69 e5 bd 89 b6 00 3d
       0.13178043 0.17521165 -0.11201725 0.03142408
000170 11 51 a9 3d db ff 7f bd d1 41 2f be 9d 6f 12 bd
       0.08267415 -0.062499862 -0.1711495 -0.035750974
000180 57 9e b5 3c 2b df 0e 3d 30 de 2a 3c 56 21 c0 bb
       0.022170229 0.0348808 0.01042895 -0.005863349
000190 4f 8e 1d be d9 eb 87 3d ed 06 1b be 16 25 27 be
       -0.15386318 0.06636781 -0.1513936 -0.16322741
0001a0 8c 10 13 3e a1 38 da bd f1 bb aa 3d 22 58 da bd
       0.14361781 -0.10655332 0.08336628 -0.10661341
0001b0 70 3c 0f 3e 39 18 67 bd 8b bb 36 3e 97 14 be bd
       0.13987899 -0.056419585 0.1784498 -0.09281271
0001c0 97 3c e3 3d 53 ac 01 3e 78 04 de 39 c7 3d 1a be
       0.11095541 0.12663393 0.0004234647 -0.15062629
0001d0 15 aa a8 bb 75 e6 36 bd 0f 6c a4 3b 6f f5 cc bd
       -0.0051472285 -0.044653375 0.0050177644 -0.1000775
0001e0 64 84 1c 3d bc e1 3e bc 03 1d 8d 3c 85 90 26 3d
       0.038212195 -0.011650499 0.017225748 0.04066517
0001f0 0a 8e 0d be a4 78 7e 3d 9f 28 ec bd 8a 2f 92 bb
       -0.13823715 0.06212677 -0.11531185 -0.0044612335
000200 d7 7c 10 be dd 51 06 be b4 01 38 3e d5 3b 30 3e
       -0.14110123 -0.13117166 0.179694 0.17210324
000210 d3 c8 21 3e dc c6 2d 3e 03 ea 4b be 91 e8 1a 3e
       0.15799265 0.1697039 -0.19913487 0.1512778
000220 7c ca 0b 3e 6a e9 36 be d1 e6 40 3c 6a cc de bd
       0.1365146 -0.17862478 0.011773781 -0.10878833
000230 b2 5e 4a be 88 ea d7 3d dc fc 3a be 63 ea 37 be
       -0.19762686 0.1054278 -0.1826052 -0.17960505
000240 19 fc f1 3d d0 a8 38 be 0b f6 50 be 59 0a 03 bd
       0.11815662 -0.18033147 -0.20406358 -0.03199229
000250 68 f8 ea bd 28 cf ee 3d da 2c de bd 9f e3 b1 3d
       -0.11473161 0.11660606 -0.108483985 0.086859934
000260 99 68 2a be e8 c6 f3 3d 2e c0 35 3e 94 8b 12 3e
       -0.16641463 0.11903173 0.17749092 0.14311057
000270 d3 12 fa 3d 98 29 42 3e 8e 99 fb bd 89 ff 55 3e
       0.12210622 0.1896118 -0.122851476 0.2089826
000280 74 5a 24 3d 94 66 14 be ed 59 ca 3d fb 6a 9f 3d
       0.040125325 -0.14492255 0.09880433 0.07784077
000290 ce c8 f1 bc d4 80 37 be 36 3e 2c be 84 6f 93 bd
       -0.029514696 -0.17920238 -0.16820607 -0.07199004
0002a0 5b 58 fa 3d 15 93 76 3d 8c 8f da 3d 69 45 fb 3d
       0.12223884 0.060198862 0.10671911 0.12269098
0002b0 e8 77 d1 3d 36 39 57 3e e5 71 04 3e 67 8b 4a 3e
       0.102279484 0.21017918 0.12934072 0.1977974
0002c0 58 c8 b3 3d c5 4f 24 be ec 80 3b be d1 f4 59 bc
       0.08778447 -0.16046055 -0.18310899 -0.013302998
0002d0 f9 59 1a 3e 20 1d fa 3d d1 a9 3b bd 20 99 4b 3e
       0.15073384 0.122125864 -0.045816246 0.19882631
0002e0 55 5b 05 3e 6c 6f 14 bd db f2 41 3e 88 a7 62 3e
       0.13023122 -0.036239073 0.18940298 0.2213422
0002f0 8f 80 1d be 0f 19 49 3e 5a ee 33 3c 0b 37 84 bd
       -0.15381072 0.19638465 0.01098212 -0.06455811
000300 d2 4d 24 3e 54 8b cc bd 38 2c cf 3d a8 5e 04 3d
       0.16045311 -0.09987512 0.10115856 0.032316834
000310 7e d2 3e 3c a2 fa da bd 57 a8 81 bd 24 98 4a 3e
       0.011646865 -0.10692336 -0.063309364 0.197846
000320 8a d8 39 3e c6 f3 dc bd eb b3 2f 3d a6 a4 ea 3c
       0.1814901 -0.107886836 0.042896193 0.028642964
000330 9e 1d a9 3d 28 29 46 bc 17 5f 42 3e 92 12 39 3e
       0.08257602 -0.012094773 0.18981586 0.1807349
000340 f3 04 fb 3d 78 20 5f bd e6 61 f1 bc e4 0e 26 bc
       0.12256803 -0.054474324 -0.029465627 -0.010135386
000350 fb e3 03 3e 06 2e 44 3d ef aa 42 3e 8b a2 4f bc
       0.12879936 0.047895454 0.19010518 -0.012673031
000360 80 d9 94 3d 95 69 3b 3e 2e fb 5b be 05 54 22 3e
       0.07268047 0.18301995 -0.21482536 0.15852363
000370 0b 87 dd 3d 9c ac ef 3c b6 d4 34 3d 80 b9 cc 3d
       0.10816773 0.029257111 0.04414817 0.09996319
000380 30 86 59 3e 15 e7 00 3e 1a ea bf bc 0e e7 39 3e
       0.21242595 0.12588151 -0.023427058 0.18154547
000390 f9 fa 17 3d 91 36 8e 3d 2f 45 6e 3c 68 6c af bd
       0.03710458 0.069440015 0.014542862 -0.08565599
0003a0 9c ad 27 3d d7 b1 e5 3d 9c b9 81 bd 37 61 4c be
       0.04093705 0.11215561 -0.0633423 -0.1995896
0003b0 62 6b 24 3e 67 29 7e bc 0a 3f 45 3c a3 1e 04 3e
       0.16056588 -0.015512801 0.012038955 0.12902312
0003c0 84 a6 3c 3e 52 6b a0 3d 91 26 ff bd f6 35 d6 bb
       0.18422896 0.0783297 -0.12458528 -0.0065371944
0003d0 e1 8f 26 be 0f c7 95 bd bd 33 d3 bc cc 8b 27 bd
       -0.16265823 -0.07313358 -0.025781507 -0.040904805
0003e0 a6 18 8d bd ae f9 f1 bd a0 1e 0a bd ce 53 be 3d
       -0.06889467 -0.11815201 -0.033720613 0.09293328
0003f0 69 55 23 be 44 6c 36 3d 99 6b 94 bd ff e1 14 3d
       -0.1595055 0.044536844 -0.07247085 0.03634834

lstm.weight_hh_l0 f4 [256, 64]
000000 15 4f a6 3d 5e 2d a6 3c 48 09 76 3c 63 01 8f 3d
       0.081205525 0.020285305 0.015016861 0.06982686
000010 a3 34 bb bd e5 9c e0 bd 9f 3f 8a 3d 24 e8 14 3e
       -0.09140899 -0.10967425 0.06750416 0.1454168
000020 86 16 96 bd bd f5 15 3e df ce 03 bd af e1 f6 3d
       -0.07328515 0.14644523 -0.03217971 0.120547645
000030 c4 a8 ff 3c 97 61 74 3d a5 44 f0 3c 7a a8 ae bd
       0.031208403 0.05966338 0.029329607 -0.08528228
000040 b5 8f 9a 3c 45 f5 a9 bd dd bb 8f 3c e2 ac d2 bc
       0.018867353 -0.082987346 0.017545635 -0.025717203
000050 f3 2d 73 3d 89 01 93 3d 19 be 99 bd 9a b4 23 3d
       0.059369992 0.07178027 -0.075069614 0.039967157
000060 d0 1c 03 be 07 cb c5 3c df 7d ef bd a0 bb 87 bd
       -0.1280396 0.024144663 -0.1169393 -0.066275835
000070 5c 34 a7 bd 83 d3 6d bd cf 4b 26 bd 6d eb b8 bd
       -0.08164284 -0.05806304 -0.04059964 -0.09029279
000080 b4 83 1b bd c2 6a 96 bd 4e 6a 50 3d d2 7d 83 bd
       -0.0379674 -0.07344581 0.05088263 -0.06420483
000090 ba 05 b1 3d fc 50 42 bd 0b 5c f9 3d 46 40 13 bd
       0.086436704 -0.047440514 0.12175759 -0.035949968
0000a0 59 a2 c2 bd b2 8d 23 3e c2 25 fd 3d 28 3d 15 bd
       -0.095036216 0.15972021 0.12360717 -0.036435276
0000b0 14 81 84 bc c8 10 17 bd 60 8a f0 3d 49 12 d6 bd
       -0.01617483 -0.03688124 0.11745143 -0.10452706
0000c0 99 60 d4 3c 32 ae a8 bd 41 89 fb 3c 50 03 b8 bd
       0.025924968 -0.0823635 0.030705096 -0.08985007
0000d0 e8 18 9c bd 50 a5 f0 bc 71 37 e3 3d ff 36 04 be
       -0.07621938 -0.029375702 0.11094559 -0.12911604
0000e0 f5 74 c9 bd 14 7f 20 3d 9c 34 99 bd df d7 99 bd
       -0.09836761 0.03918369 -0.074807376 -0.07511877
0000f0 73 81 54 3d f1 13 db 3b 90 5a 81 bd 2e 12 02 be
       0.051881265 0.006685727 -0.063161016 -0.12702248
000100 5e a6 c9 bd 93 a3 fc bc 4d b1 c5 bc 68 d4 ce bd
       -0.09846185 -0.030839717 -0.024132395 -0.10099107
000110 89 57 a1 3d c7 e7 ef 3b 94 dc 9f 3d e8 46 f1 3c
       0.07878024 0.007321331 0.07805744 0.029452756
000120 2a a8 32 3e 0a c3 00 be 59 72 4e bd 5f 7e 8b bd
       0.17446962 -0.12574401 -0.05040202 -0.06811213
000130 f1 ee b5 3c 32 4f 1e 3e f3 c5 a6 3b 50 00 90 bd
       0.022208663 0.15459898 0.0050895154 -0.070313096
000140 b0 83 8f 3d 50 50 55 3d 73 b3 62 3c c5 97 3f bd
       0.07007539 0.052078545 0.013836729 -0.046775598
000150 5b 9c 3c 3d 7c 78 0f 3e 3a cc ea 3c 21 7a 90 bd
       0.04604755 0.14010805 0.028661836 -0.07054544
000160 3a 24 18 be dc a9 31 bd 3e 0e df bd be 89 f5 bc
       -0.1485757 -0.04337488 -0.10891388 -0.029972907
000170 f0 28 9b 3b c9 bb b6 bd a6 95 68 3d 3f e6 83 3d
       0.0047351047 -0.08922536 0.05678334 0.064404
000180 07 65 08 bd 25 97 af bd c7 c2 b5 bc 6e 63 1b bd
       -0.033299472 -0.085737504 -0.022187604 -0.03793662
000190 d7 79 8e bd 2a 3b 53 bc f7 74 3c bd c3 4b 22 bc
       -0.06956833 -0.012892524 -0.046009984 -0.009905758
0001a0 b2 34 0a 3e f0 3b 6b 3d 8b e6 9e bc 53 a6 a3 bd
       0.13496664 0.057430208 -0.01939704 -0.07990708
0001b0 41 c2 58 3d 30 e6 93 3b b0 2a cb bc 31 d7 54 3d
       0.05291963 0.0045135245 -0.024800628 0.051963035
0001c0 14 d0 77 3d c1 a7 0e be 59 1d d5 bd eb 2a 2f bd
       0.060501173 -0.1393118 -0.10405988 -0.04276554
0001d0 bb 5e 57 bd 15 2e 4d bc a5 6b 4f 3c 4f dd 84 bd
       -0.052580576 -0.012523194 0.012659942 -0.06487524
0001e0 21 6b 03 bd cc 10 23 3e da 4c be bc 83 88 64 3d
       -0.032084588 0.15924376 -0.023230005 0.05579425
0001f0 60 ba b1 3d 6d 6a 52 bd a4 60 9b bd b4 f5 10 be
       0.08678126 -0.051371027 -0.07586792 -0.14156228
000200 a6 f6 1c be be 8d a0 3d 4f cc 81 3b f4 c1 c9 bd
       -0.15328464 0.07839535 0.003961123 -0.09851447
000210 9e 67 03 be 6d 2c 9b 3d d3 82 80 bd 2b 20 2d 3b
       -0.12832496 0.07576833 -0.06274953 0.0026416879
000220 e9 49 2e 3d ad b7 08 bd c8 0a 70 bd 2c f4 e8 bc
       0.042550955 -0.033378292 -0.05860403 -0.028436743
000230 26 94 0e 3e e8 54 94 3d 97 7d bf bc be 98 a4 bd
       0.13923702 0.07242757 -0.023375316 -0.08036946
000240 cb 9b bb 3c 73 6c d6 3d 96 84 06 bd 1c 48 44 bd
       0.022901436 0.10469904 -0.032841288 -0.04792033
000250 24 1e da bd 5d 5f d3 3d 38 b9 1a be a4 bf bb bc
       -0.1065028 0.103209235 -0.15109718 -0.02291853
000260 44 da 61 bc 40 95 aa 3d 3e a4 2d be 01 c2 ab bc
       -0.013784949 0.083292484 -0.16957185 -0.020966532
000270 15 1a 87 bd 9f 55 a7 bd 5d 6c cb 3d 78 df c5 bd
       -0.06596772 -0.08170628 0.09932778 -0.09661764
000280 02 fb c5 3d d1 1a 08 be a8 eb fd 3d a1 e4 d7 bc
       0.096670166 -0.1329148 0.123984635 -0.026354136
000290 64 ff 14 3e bc 06 46 3c a9 39 a4 bc 4b 12 aa 3d
       0.14550549 0.012086567 -0.020047026 0.0830427
0002a0 9c 4f 3e 3d c5 dd 13 3e 64 7c 33 3c 77 68 18 3d
       0.04646264 0.14440067 0.01095495 0.037209
0002b0 3b 82 dc bc ab a7 b4 bd ae 9b 81 3c d8 4b ec bb
       -0.026917567 -0.088210426 0.015821304 -0.0072111897
0002c0 86 db 2a bd 65 64 a5 3d f1 d7 2d bd e5 7a cc bd
       -0.04171326 0.08075789 -0.042442266 -0.09984378
0002d0 e2 e7 16 be 28 3c 58 3d 81 bd 3f 3e 76 4e 6b bd
       -0.14736894 0.052791744 0.18724634 -0.057447873
0002e0 4d 2b fb 3c b4 d7 ae 3b 49 27 64 bd 31 02 1d 3c
       0.030660296 0.0053357724 -0.055701528 0.009583042
0002f0 c3 d4 c6 bc af e0 35 3d 6a 34 19 be 44 c8 73 bd
       -0.024271375 0.044403728 -0.149614 -0.05951716
000300 f6 f3 14 be ed da a7 bd 69 1a a3 3d 86 29 31 3b
       -0.14546189 -0.08196054 0.07964022 0.0027032807
000310 a8 5a a4 bd dc fb 8c 3d 7a 55 81 bd 11 fc 37 3e
       -0.08025104 0.06883976 -0.063151315 0.1796725
000320 54 05 c9 3b 9e b7 20 3c 53 ac 17 3e 84 03 14 3e
       0.0061346684 0.009809403 0.1481183 0.14454466
000330 55 d3 4d 3c 92 34 f9 3d bc 8d 4f 3d 45 41 98 bd
       0.0125625925 0.1216823 0.050672278 -0.07434324
000340 75 05 63 3d 31 5d 34 3d 83 69 62 bd ba 51 c7 3d
       0.055425126 0.044034187 -0.055276405 0.09732385
000350 e9 95 b8 bb 21 3a 07 3d 6d 05 94 bc ca e5 c3 3d
       -0.005633105 0.03301442 -0.018068993 0.09565313
000360 27 3b 6a bd 7c 27 15 bd e8 b9 97 bd a6 16 8f 3d
       -0.05718532 -0.03641461 -0.07408506 0.06986742
000370 07 60 b9 3d ba 49 9b 3d 02 93 9e 3d 02 bc 89 bd
       0.09051519 0.075824216 0.07742883 -0.06725313
000380 b5 5a 4e bb 9f 6a 83 bd 1c 0e aa 3c 03 bb 15 3e
       -0.003148717 -0.06416821 0.020758681 0.1462212
000390 b9 79 1c 3e 40 ca e1 bd ce 41 32 bc 10 16 9d 3d
       0.15280809 -0.11024904 -0.010879947 0.07670224
0003a0 1e 67 1c bd b5 f2 78 bc d8 62 13 bd cf 5f 55 3d
       -0.038184278 -0.015194585 -0.035982937 0.052093323
0003b0 85 a4 5e 3b 13 01 09 bd 12 26 ac 3d dc 42 29 3d
       0.0033972573 -0.03344829 0.08405699 0.041323528
0003c0 a5 11 08 3e b9 14 33 3d 08 ba 35 3d b3 17 99 bd
       0.13287981 0.043720935 0.044366866 -0.074752234
0003d0 05 b9 54 3c 98 a4 a5 3d d1 af 91 3d 1a f4 44 bd
       0.012983565 0.080880344 0.071136124 -0.048084356
0003e0 3f a9 67 3d 06 02 82 3c af 34 84 3d 48 93 2d 3e
       0.05655789 0.015870105 0.06455361 0.16950715
0003f0 35 f0 93 3c f3 23 b8 bd ad 42 26 be 60 ca 6b bb
       0.018058876 -0.08991232 -0.16236372 -0.003597878

lstm.bias_ih_l0 f4 [256]
000000 b4 e6 dc 3d 85 9e fc 3d 1d 1f 96 3d a3 2d 63 bd
       0.10786191 0.12334923 0.07330153 -0.055463444
000010 2e 6a 81 3c df 44 b3 3c c5 24 31 3d 76 66 2a 3c
       0.0157977 0.021883426 0.043247957 0.010400405
000020 26 51 07 3e e5 89 2f 3e e8 47 91 bd a8 6a 63 3d
       0.1321455 0.17142446 -0.07093793 0.055521637
000030 18 26 32 3e 8e 0e 2e 3d f4 55 05 bd 6c 53 48 bc
       0.17397344 0.04249435 -0.032552674 -0.012226921
000040 13 f6 6e b9 08 5f 78 3c dc c2 f0 3c fc 60 90 3d
       -0.00022789119 0.015159376 0.029389791 0.07049748
000050 87 61 2d 3e ef 14 97 3d b9 87 4d bc 0d 87 3c 3d
       0.16931735 0.0737704 -0.012544566 0.046027232
000060 0d 3d df 3c 2a f4 b6 3c 5d 56 a2 3d 22 4d b9 3d
       0.027250791 0.022333223 0.07926629 0.09047915
000070 9b 29 b1 3b e1 11 0c 3e 58 bf d9 3d a7 b7 56 3e
       0.005406571 0.13678695 0.10632199 0.20968495
000080 c2 20 50 bd ea 2b 60 3c a0 04 30 3e 65 d3 93 3d
       -0.05081249 0.013682345 0.17189264 0.07218055
000090 25 e7 d9 3d 79 39 43 3e 8a e0 1d 3c 3d de 3d bd
       0.106397904 0.19064893 0.009636054 -0.04635452
0000a0 ad 8e ce 3d a2 0d a8 bd 72 0b 43 3e c0 47 c6 3d
       0.10085807 -0.08205725 0.19047335 0.09681654
0000b0 56 bf 2e 3e 7b 28 28 3e a2 63 73 3d 9e 68 20 bd
       0.17065176 0.16421692 0.05942119 -0.03916227
0000c0 31 85 19 3e 10 8a 1c 3e 31 1a 98 3c 39 69 1a 3d
       0.14992215 0.15287042 0.018567177 0.037698004
0000d0 1f 68 60 bd 5a 30 c8 38 ce 72 fc bc f6 26 3c bb
       -0.054786798 9.545749e-05 -0.030816462 -0.0028709746
0000e0 87 09 ee 3d ac 72 0d 3e bf e9 d8 3d 07 30 a2 bb
       0.11622911 0.13813275 0.105914585 -0.004949573
0000f0 3d 94 b0 3d 05 55 b5 3d 0a 4f bc bc 3e a7 94 bd
       0.08622024 0.08854107 -0.022986908 -0.072584614
000100 5d c8 c5 bd ea 08 59 3d 82 e5 c1 3d 3d ee 47 bd
       -0.09657357 0.052987017 0.09467603 -0.048811186
000110 49 dc 3f bc ce 46 f3 bc 0d 57 c2 bd 1a 0e f6 3d
       -0.011710235 -0.029696848 -0.0948926 0.120144084
000120 78 87 9b 3d 36 af 29 bb e6 c1 27 3d b2 f7 bd bd
       0.07594198 -0.0025891787 0.0409564 -0.0927576
000130 0a 83 7b 39 61 38 1f 3e 16 43 a4 3d 02 cd a9 3d
       0.00023986041 0.1554885 0.08020608 0.08291055
000140 3c f1 59 bc cf cc 68 bd a2 44 06 bd 60 1a b0 3d
       -0.013302144 -0.056835946 -0.032780297 0.08598781
000150 f1 58 ec 3b 21 97 a3 bd 96 ac fe 3d 4e 01 a6 bc
       0.007212751 -0.0798781 0.12435262 -0.020264294
000160 46 85 b1 3d b5 26 b6 3d 72 b5 01 3e 4f c2 4a 3d
       0.08667998 0.088941015 0.12666872 0.049501713
000170 1b d1 82 bd 42 d5 64 3d f2 46 c5 bb de 25 22 bd
       -0.0638754 0.05586744 -0.00602042 -0.039586894
000180 e3 59 85 bd 16 17 5a bd a2 ab 1a 3c 83 96 02 3e
       -0.06511285 -0.053244673 0.0094403345 0.12752728
000190 90 17 f8 3d 29 af c3 3d 40 f1 df bd f8 60 18 bc
       0.12113869 0.095548935 -0.10934687 -0.009300463
0001a0 06 6d 6d 3d db 9c f0 3d a1 6a 1e 3e 7d 08 70 bd
       0.0579653 0.11748668 0.15470363 -0.058601845
0001b0 46 99 2b 3d 91 48 d4 3c 26 f8 a9 bc ec 98 9a 3d
       0.04189422 0.025913509 -0.02074821 0.07548699
0001c0 5d b2 54 3b 1e a0 8a bd 18 4a a2 3d 7d c9 6d bd
       0.0032454946 -0.06768821 0.079242885 -0.058053482
0001d0 a3 a0 da 3d 4a bd bc bd 71 da 59 3d 59 09 dd bd
       0.1067517 -0.092157915 0.053186838 -0.107927985
0001e0 c6 00 4e 3d d4 7e 17 3e 9e 2d 24 3c 92 af 3c bd
       0.050293706 0.14794475 0.010020642 -0.046065874
0001f0 9c e6 7c 3d 6d 72 b3 bd 14 ba ae bd 99 d8 b9 3d
       0.061743364 -0.08762059 -0.08531585 0.09074516
000200 74 b8 d8 bc b5 8a 73 3c 2f 73 1d bd be 1b 0e be
       -0.026455142 0.014864613 -0.038439926 -0.1387777
000210 84 20 87 bd 7c ce 8b bd f4 fd a5 bd f3 90 ca 3d
       -0.06597999 -0.06826493 -0.08105078 0.09890928
000220 19 af bc 3b 8d f4 70 3d 26 37 00 3e 40 8a 49 3d
       0.005758178 0.05882697 0.12521037 0.04920411
000230 e9 80 cc 3d c9 cf de 3d 7a 5d 39 3d 8c dd 08 be
       0.09985525 0.108794756 0.04525516 -0.13365763
000240 d0 b0 15 3d 4a 95 81 3d b9 7e 26 3c bf ea 8c ba
       0.036545575 0.06327303 0.010162049 -0.0010751112
000250 24 d9 29 bd 0e c2 20 bd ee 17 ee bd c4 76 0e bd
       -0.041466847 -0.039247565 -0.11625658 -0.034781232
000260 86 83 a3 bd c7 da e1 3d 7b 5a 27 be 55 18 a3 3d
       -0.079840705 0.110280566 -0.1634311 0.07963625
000270 61 66 f9 3d 1f 7c b4 bd d4 45 ce 3d a7 4f 02 3c
       0.1217773 -0.08812737 0.100719124 0.007953561
000280 c0 db bf 3d f4 90 98 bd c9 0e 87 bd c3 c6 3e 3e
       0.09368086 -0.074495226 -0.06594617 0.18630509
000290 38 43 bb 3d 2f 01 d9 bd 51 cb 36 3d 83 74 94 3d
       0.0914368 -0.10595929 0.04462749 0.07248785
0002a0 dd d7 a3 bd 1c c3 8e 3d 49 ea 8c 3d d6 17 de bd
       -0.08000157 0.06970808 0.06880624 -0.1084439
0002b0 99 0c 1a 3d 5f 3b a8 bd 6f d9 5e 3d 69 45 4e bd
       0.03760967 -0.08214449 0.05440658 -0.050359163
0002c0 99 e2 30 3d 5b 21 ec bc 6f bf 8c 3d 8d c6 3d be
       0.04318485 -0.028824499 0.068724506 -0.18532772
0002d0 cd 3e f5 bd ea d1 1f be 04 b9 82 bb d6 da 84 bd
       -0.11974869 -0.1560742 -0.0039893407 -0.06487052
0002e0 1d d7 01 be 36 22 e5 3d 9f d8 8e bd 0f 7a df 3d
       -0.12679715 0.11188166 -0.06974911 0.10911953
0002f0 01 54 54 3c 83 84 d7 bd e7 fb 00 be 12 3c 83 bb
       0.012959481 -0.105233215 -0.12596093 -0.0040049637
000300 58 29 8b bd 48 d6 38 3d 57 a5 e4 3d e2 cc 9c 3d
       -0.06794995 0.04512623 0.111643486 0.07656266
000310 aa 64 1b 3e 6c 42 22 3e aa d6 f7 3d 8b 09 5f 3d
       0.15175119 0.1584565 0.12101491 0.05445246
000320 3e ea fa 3d 5d 9c 26 3d 65 1a ee bc fd fb e5 3d
       0.122517094 0.040676463 -0.02906532 0.112297036
000330 bc 1a 0e 3e d5 5a f2 3d f3 a2 75 39 6b 54 ff 3b
       0.13877386 0.11833731 0.00023425724 0.007792046
000340 3a 2d 30 3e a3 9c 3b 3e 19 b8 e3 3d ea 1c 1b 3d
       0.17204753 0.18321471 0.11119098 0.03786937
000350 42 83 1c 3e 94 96 6c 3c b6 03 56 3d e5 d3 85 bd
       0.15284446 0.0144401975 0.052249633 -0.06534556
000360 14 b0 9d 3d 64 33 9f 3d d6 7a fe 3b 45 f1 be bc
       0.076996 0.07773474 0.007766108 -0.023308406
000370 ee fe 08 bd 27 5f 1c 3e 60 38 fc 3c 30 51 4e b9
       -0.033446245 0.15270673 0.0307886 -0.00019675936
000380 3d 8e 00 bd 43 86 1c bd bb 58 7c bd c5 f1 09 bd
       -0.03138565 -0.03821398 -0.061608057 -0.033677835
000390 8f 6b 94 3c 9a b0 32 3e c5 75 e1 bc b5 13 ff 3c
       0.018117694 0.1745018 -0.027521977 0.031137327
0003a0 f3 a6 32 3d 7a d5 ae 3d 3b 97 cc 3d 17 0d 5b 3b
       0.043616246 0.08536811 0.099897824 0.003342455
0003b0 12 83 4a 3d ca 70 ed 3d 67 db da 3d 1e 03 23 3e
       0.049441405 0.115937784 0.10686379 0.15919158
0003c0 4b fb 3f 3d 94 24 7c 3d b3 6b 10 bd b9 5d cd 3d
       0.04687051 0.06155832 -0.03525896 0.10027642
0003d0 47 07 92 3d 9e 57 3e 3e 59 46 41 3d 43 ad da bc
       0.07130294 0.18588111 0.04718623 -0.026693946
0003e0 5f 27 0a 3e 43 64 8f 3d df b2 25 3e f0 c5 88 3c
       0.13491581 0.07001545 0.16181515 0.016695946
0003f0 f3 7d b3 3d 2b cc c2 3d d1 c4 f3 3d ce c7 c5 bd
       0.08764257 0.09511598 0.11902774 -0.0965725

lstm.bias_hh_l0 f4 [256]
000000 64 43 86 bd db 8b 6a 3c 5e 5a f9 3c f8 fe f9 3b
       -0.065558225 0.014315571 0.030438598 0.0076292716
000010 9d 89 11 3e 56 06 81 3d 05 80 4d 3e 58 94 53 3e
       0.14212652 0.063000366 0.20068367 0.20662057
000020 a2 67 12 3e 87 b0 8b 3d 61 af 84 3b 85 44 54 3d
       0.14297345 0.06820779 0.004049227 0.051823158
000030 7a 3e 4a 3d 05 b5 33 3e 5d 23 45 3e 39 a5 52 3d
       0.04937599 0.17549522 0.19251771 0.0514271
000040 df a2 2b 3e 2b 33 3b 3d 6c ad 41 3e c8 b4 10 3e
       0.16761349 0.045703094 0.18913811 0.14131463
000050 62 a6 15 3e 04 48 95 3d e6 f4 f6 3c 9a 8d 9f bd
       0.14614251 0.072891265 0.030146074 -0.0779068
000060 f4 3a 5e 3e 62 d5 40 3c d6 12 93 3d ce 31 36 3e
       0.21702176 0.011769624 0.07181327 0.17792436
000070 6a 2a 3a 3e 28 b2 3a 3d 1a 19 a7 3d a8 62 ca 3d
       0.18180242 0.04558006 0.081590846 0.098820984
000080 4e 5b 25 bd ee e0 d0 3d bd 93 25 3e bf 2f 3e 3e
       -0.040370278 0.10199152 0.16169639 0.18572901
000090 f9 b2 ec 3d 79 de 40 3e 8f 89 f7 bb 29 b2 a3 3c
       0.11557574 0.18834867 -0.00755424 0.019982414
0000a0 34 72 3f 3b d8 d9 b7 bd 62 a0 21 3e 22 86 b1 3d
       0.0029212357 -0.08977097 0.15783837 0.08668162
0000b0 e9 9a 80 3d 5f 16 25 bd cc 81 c9 3d d9 bb e9 3c
       0.06279547 -0.040304538 0.0983921 0.028531956
0000c0 8a f1 09 3e 0a 08 ce 3d af 96 66 3c 7a 81 31 bc
       0.13471046 0.10060127 0.014074012 -0.010834092
0000d0 50 61 eb 3d 6c 9a 80 3d 00 29 46 3a 8f 8b 14 3e
       0.1149317 0.06279454 0.000755921 0.14506362
0000e0 89 27 2f bc 10 74 0e 3e 8a ee 31 bc d2 4e 2c 3e
       -0.010690578 0.13911462 -0.010860095 0.16826943
0000f0 71 92 d4 3b 9f 97 33 3e 10 91 1d 3e 00 34 3b bc
       0.0064871837 0.17538308 0.15387368 -0.011425972
000100 f1 b9 d2 3d f8 50 ba bd c4 ac c1 3d a1 40 09 3d
       0.10289372 -0.09097475 0.094567806 0.0335089
000110 07 6e 14 bc 8e 8d 2e bc 4d c4 bb bd 20 c6 03 bb
       -0.009059436 -0.010653866 -0.09168301 -0.0020107105
000120 cb 55 b2 3a a4 3a 45 3d 2e 09 dd bc 00 09 94 3d
       0.001360589 0.048151627 -0.026981916 0.07228279
000130 70 05 aa 3d 56 6f c3 3d ed 24 48 ba c0 2c 30 ba
       0.08301818 0.0954272 -0.0007634897 -0.00067205355
000140 1f dd 43 3d 2e c5 17 bd d9 95 1a 3d 8c 95 cc 3c
       0.0478183 -0.03705328 0.037740562 0.024973653
000150 e7 c8 07 3d 49 a2 2b bd eb 4d ba 3d 58 83 a9 bd
       0.03315058 -0.041902814 0.09096893 -0.08277005
000160 82 c1 2c bd b8 1c 2c 3c 07 c5 77 3d 2b 5c 10 3d
       -0.04217673 0.010504894 0.060490634 0.03524415
000170 42 85 97 3d 3a b2 0e bc a3 aa d5 bd 4b 27 92 3c
       0.07398464 -0.008709485 -0.10432937 0.017841002
000180 f5 e0 06 3e 76 8f 3b bd 84 94 05 3d 67 bc 70 bd
       0.13171752 -0.045791112 0.03261234 -0.058773424
000190 d0 77 d3 3d 07 87 8b 3d ca 0c 03 3d eb 2b 01 bd
       0.10325587 0.06812864 0.03199462 -0.031536024
0001a0 ea ae 19 bd a3 8a c4 3d 4e b2 17 3e f8 8a 7c 3d
       -0.037520327 0.09596755 0.14814112 0.06165597
0001b0 1e 27 be bd f7 1a 7b bd 16 25 b9 bd 56 a0 a2 bd
       -0.09284805 -0.061305013 -0.09040277 -0.07940738
0001c0 ee f4 55 3d 02 7f dd bd 1f d2 9e 3c 34 34 9c bc
       0.052235536 -0.108152404 0.019387303 -0.019067861
0001d0 32 f0 5f bd 41 cf f2 3c 12 2e d0 3d a5 ee ed bd
       -0.054672427 0.029639842 0.10165037 -0.116177835
0001e0 87 f1 05 3e 91 d6 d1 3d 64 09 48 bd b6 f0 ed bd
       0.13080417 0.102460034 -0.04883708 -0.116181776
0001f0 68 51 22 bd c7 39 56 bc b6 40 4f 3d bd 11 fc 3c
       -0.039628416 -0.013075299 0.050598823 0.030770177
000200 9e 79 00 be b9 52 cf 3b 6d db ef 3d 91 ce dd bb
       -0.12546393 0.006327 0.11711774 -0.0067690094
000210 f6 cf e9 3c 1c 1a 5b bc 22 58 dd b8 b5 8b c9 3d
       0.028541546 -0.013372924 -0.00010554517 0.098411
000220 d6 31 0f 3e 5b c4 b0 3d ff 1b 4e 3d 35 22 b0 3c
       0.13983855 0.08631202 0.050319668 0.021500686
000230 d6 cf 7a bd 4a 6e b3 3d 4b e4 2d bb 4e d9 94 3d
       -0.061233364 0.0876127 -0.0026533778 0.0726801
000240 15 13 e1 3d c0 92 82 3c 10 65 a6 bd ad ae 19 3e
       0.10989968 0.015939116 -0.08124745 0.1500804
000250 0d 48 30 3c d5 a5 f1 bc aa 1a e2 3c 29 8a e4 bd
       0.010759366 -0.02949802 0.027600605 -0.111591645
000260 bd 96 7f bd f1 36 2e 3e cf 0e f3 bd 85 b8 ea 3d
       -0.062399615 0.17013146 -0.11868059 0.114609756
000270 b5 a4 af bd 8c 04 02 3d ee 93 ee 3d 7e 30 43 3d
       -0.08576337 0.031742617 0.11649309 0.047653668
000280 13 97 40 3e 9f 57 03 be 8b b2 ec 3d 22 d5 28 3e
       0.1880763 -0.12826394 0.11557492 0.16487554
000290 63 2e 8e 3d 58 70 d8 bb 0f 77 08 3e f9 68 3c 3d
       0.06942441 -0.0066051893 0.13326667 0.045998547
0002a0 8d 4a c6 3d 5e cf c2 3d d7 0f 0d 3e 32 a7 a8 bc
       0.09682188 0.095122084 0.13775574 -0.020587537
0002b0 89 70 14 3e 98 b8 cf 3a 4b b1 75 3d 38 84 0d bc
       0.14496054 0.001584786 0.059983533 -0.00863748
0002c0 5a 77 f4 3d 15 3a 9a bd 66 8b 21 3d 74 a4 20 be
       0.11936827 -0.075306095 0.03943958 -0.15687734
0002d0 1b af eb bd 95 8d 01 be 9d ea 27 3e 09 7b 3b 3d
       -0.11508008 -0.12651666 0.16398092 0.045771632
0002e0 9c d8 a6 bd af 54 2b 3e eb c4 24 3c 9e 5e 90 3d
       -0.08146784 0.16731523 0.0100567145 0.07049297
0002f0 64 99 80 3d ce 59 03 3b 55 f1 b9 bd 89 c5 fa bd
       0.06279257 0.0020042541 -0.090792336 -0.12244708
000300 66 04 8b 3c 6b 9d 38 3e 90 af 2c 3c 0c 5f 3c 3e
       0.01696987 0.180288 0.010539904 0.18395633
000310 bd d3 bf 3d dc d3 a5 3d 6e e4 d7 3d 0d e0 4b 3e
       0.09366558 0.080970496 0.105416164 0.19909687
000320 c9 36 82 3d 66 5a 33 bd 30 8b 08 bd 22 ee 19 3e
       0.06358106 -0.043787383 -0.033335865 0.15032247
000330 26 34 70 3d 19 75 84 3d 15 e9 1c 3e 8a c0 19 3e
       0.058643483 0.06467647 0.15323289 0.15014854
000340 8d 50 b5 3d b1 de 3b 3e 4f 88 16 3e d2 ba 0e bd
       0.088532545 0.18346669 0.14700435 -0.034846134
000350 d1 82 26 3e 5d 97 d8 3d 26 26 0e 3e 58 8e b3 3c
       0.1626084 0.10575745 0.1388174 0.02191846
000360 ab 04 15 3e 8b 6b 69 bc 94 ff ec 3d 86 05 e3 3d
       0.14552562 -0.014246832 0.11572185 0.11085038
000370 16 e7 66 3d ea 42 54 bd ff 1a 5b 3d 37 33 12 3e
       0.056372724 -0.051821627 0.053492542 0.1427735
000380 c9 0b 07 3e 41 f3 ec 3d c7 fa da bc 35 86 d0 3d
       0.1318809 0.115698345 -0.026730908 0.10181848
000390 df 37 99 bb 08 5c 47 3e 0d da e1 3d b4 80 17 3d
       -0.00467585 0.19468701 0.11027918 0.036987975
0003a0 e2 80 46 3e ae 11 9c 3d 05 e1 af 3d fe 14 5e 3d
       0.19385102 0.0762056 0.08587841 0.05421924
0003b0 af ff 23 3c a2 cf 05 bd 33 27 ac 3d 7b c5 c3 3d
       0.01000969 -0.032668717 0.08405914 0.09559151
0003c0 15 8d 1a 3e c4 9f 1f 3e a3 cc e8 bc 92 af 1b 3e
       0.15092881 0.1558829 -0.02841789 0.15203694
0003d0 d9 85 3f bd 6d 9c e6 bc 16 08 ea 3d 39 43 0d 3e
       -0.046758506 -0.028150762 0.114273235 0.13795175
0003e0 a3 df 22 bd 89 0b 21 3a c7 6a 10 3e cf d3 43 3e
       -0.039764058 0.00061433815 0.14103232 0.19123767
0003f0 80 5a 08 3e 32 c4 b1 3d 96 96 23 bd 6c ab b6 bd
       0.13315773 0.086799994 -0.03993853 -0.08919415

lstm.weight_ih_l1 f4 [256, 64]
000000 f5 f6 d6 3d 59 1f 53 3d 35 79 cd bc 42 1c 01 3d
       0.10496322 0.051543567 -0.02508221 0.03152109
000010 f8 33 64 3d 95 90 4f 3d be d8 73 bb a0 c9 7a 3d
       0.055713624 0.050674994 -0.0037208046 0.06122744
000020 ce fc b2 3d 4f 76 93 3b 91 ae c4 3d 2c 72 95 bd
       0.08739625 0.0045001875 0.096036084 -0.07297167
000030 25 d7 aa 3d d8 1f 99 bd ba 18 70 3d 50 dc da bd
       0.08341817 -0.07476777 0.05861733 -0.106865525
000040 a1 66 dc 3c 7f cd 1b bd 4f a5 8c bd 58 5a 01 3e
       0.026904406 -0.038037773 -0.068674676 0.1263212
000050 5d 98 9f bd d0 0f e2 bc ef 04 c2 3c a3 e9 ca bd
       -0.07792733 -0.02759543 0.023683993 -0.09907844
000060 f9 05 12 bd fc 99 a6 bd 23 e4 04 bd fa 86 95 3d
       -0.035650227 -0.08134839 -0.03244413 0.07301135
000070 bc 4c 0e 3e e8 c3 bb 3d 16 15 ff 3d b4 4b 95 3d
       0.1389646 0.091682255 0.12455194 0.0728983
000080 81 d0 06 3e b6 61 bd bd fd 59 15 3e 1f 58 7f 3b
       0.13165475 -0.092471525 0.14585109 0.0038962436
000090 50 6b f1 bb bd 8a 95 bd 37 5d af 3d 3e e8 88 3d
       -0.007367529 -0.07301853 0.08562701 0.06684922
0000a0 c2 8c 55 bd ad 84 f7 3d f8 7a 0d 3d c6 f8 96 3d
       -0.05213619 0.12085853 0.0345411 0.073716685
0000b0 d8 4f 20 3d 00 d0 af bd 32 a7 09 3e e1 3e a1 bd
       0.039138645 -0.08584595 0.13442686 -0.07873321
0000c0 57 ce 9d 3c c1 54 77 3d b4 aa 99 bd 3c 64 4d bb
       0.01926343 0.060383562 -0.07503262 -0.0031340262
0000d0 18 d2 99 bc ac 77 08 be 23 f3 4e 3c 87 c7 d7 bd
       -0.018776938 -0.13326901 0.0126312105 -0.10536104
0000e0 aa 1d d6 3d 25 db fc bc ff 42 c2 3c 71 e0 0e 3e
       0.10454877 -0.030866215 0.023713587 0.13952805
0000f0 a0 e7 b8 3d 0a a3 7f bd eb cb 77 3d ec 46 d0 bd
       0.09028554 -0.062411346 0.060497206 -0.10169777
000100 8d 25 49 3d d2 99 77 bd 5e 95 11 3e bd 2f ce 3c
       0.049108077 -0.06044943 0.14217135 0.025169248
000110 22 8e 5e bd 50 63 89 bc 01 5f 9c 3d cc 1b 84 3d
       -0.054334767 -0.016770989 0.07635308 0.06450614
000120 e4 5d f0 3d 28 88 1e ba 18 14 b0 3c 4d 09 2c 3c
       0.11736658 -0.00060475105 0.021493956 0.010500264
000130 3e 3d 7c 3d 42 81 35 3e 08 f1 1a bc 93 13 1e be
       0.061581843 0.17725089 -0.00945688 -0.15437154
000140 fa da cf 3d 08 8b bc bd f4 24 13 be ac 68 2b bb
       0.10149188 -0.092062056 -0.14369565 -0.0026154919
000150 d3 19 33 ba 74 51 c3 3d 52 6c e6 3a b6 50 4d 3d
       -0.0006832156 0.0953702 0.0017579889 0.0501258
000160 e9 b5 c9 bd eb 6d 1d 3d b6 05 9c 3d 23 5e 11 3e
       -0.0984915 0.038434904 0.07618277 0.14196067
000170 98 7c aa bd 7d b8 a8 bd 08 d6 7d 3d a0 3d 4f bd
       -0.083245456 -0.08238313 0.061971694 -0.05059588
000180 01 6a 59 bd 30 f7 b3 bd 68 c3 e3 3d db a2 4a bc
       -0.05307961 -0.08787382 0.11121255 -0.012367929
000190 a3 5c 2c bc a8 3a cd bd 10 f0 8c bd 22 c2 c9 3c
       -0.010520133 -0.100209534 -0.06881726 0.024628703
0001a0 43 72 09 3e 39 15 26 3d d7 f0 77 3d 94 3d 22 be
       0.13422494 0.040547583 0.060532417 -0.15843803
0001b0 91 10 41 3e 47 41 8c 3c 72 a9 d1 bb f8 32 48 3d
       0.18853976 0.01712097 -0.0063983733 0.048876733
0001c0 dc 4f 0f 3d 3f 7f 8f bd 07 10 d2 bd 90 4d 19 be
       0.03498827 -0.07006692 -0.10256963 -0.14970994
0001d0 95 8d aa bb 60 35 af bd c1 3d a4 3c 72 bc e3 3c
       -0.005204866 -0.08555102 0.020048978 0.027799819
0001e0 00 ab bc 3d 07 f4 49 3c 80 18 88 39 24 02 5a 3d
       0.09212303 0.012326247 0.00025958195 0.053224698
0001f0 67 d2 ea 3d 17 53 b9 bc ab c2 eb bb 6c 73 1a be
       0.11465912 -0.022622628 -0.007194837 -0.15083092
000200 1f 91 23 be 5d 0a 15 be 87 d9 ac 3d 37 17 93 bd
       -0.15973328 -0.14554735 0.084399275 -0.07182162
000210 94 ef cb 3d 90 29 26 3c 46 a6 12 bd 54 90 5b bc
       0.09957805 0.010141745 -0.035803102 -0.01340111
000220 6b d3 e5 3d 7d 29 1f be 00 22 96 bd b5 b0 95 bd
       0.112219654 -0.1554317 -0.07330704 -0.07309095
000230 0e e6 21 3c fa d7 02 3e dc 85 a9 bd 34 68 07 be
       0.0098815095 0.12777701 -0.08277485 -0.13223344
000240 c8 a3 c9 3d 2e ea 47 be 04 9b c3 3b f4 63 1c bc
       0.09845692 -0.19522926 0.005969407 -0.009545315
000250 dd e6 50 be a5 51 24 bd 4e e7 43 be 8c 27 93 bb
       -0.20400567 -0.040116925 -0.19131204 -0.0044907983
000260 53 9e e9 bd 82 f3 98 3d 79 b0 ec 3d 62 a7 06 bc
       -0.11407151 0.074683204 0.11557097 -0.008218618
000270 73 47 9d 3d 6c 5b 0b 3e f4 58 82 3d 6e 1a 61 bc
       0.076796435 0.13609093 0.06364623 -0.0137392115
000280 e3 ec ae 3d 09 4f 03 bd de 90 99 3d 1e a8 c3 3d
       0.08541276 -0.032057796 0.07498334 0.0955355
000290 70 00 41 3c 0b ad d3 bd ef 5c 03 bd f8 49 d0 3b
       0.011779889 -0.1033574 -0.03207105 0.006356474
0002a0 41 2a 10 3e c6 47 10 3e 94 71 76 bd bb ff 81 bd
       0.14078619 0.1408988 -0.06016691 -0.06347605
0002b0 e0 cc 86 3d 65 a5 21 3e dc b0 53 3e ac ce 91 3d
       0.065820456 0.1578575 0.20672935 0.07119498
0002c0 02 30 bc 3d 5a ca 82 bd 36 b8 24 be 37 24 e8 bd
       0.09188844 -0.06386252 -0.16085896 -0.113350324
0002d0 9f 36 ad bd 33 ca 3b bc f7 a3 11 bd b4 14 af 3d
       -0.08457684 -0.011461782 -0.03555676 0.08548871
0002e0 aa 72 d9 bd b6 f9 1f 3b 60 83 1c 3e ac e4 27 3e
       -0.106175736 0.0024410314 0.1528449 0.16395825
0002f0 64 19 96 bd d7 2e 3e 3e 97 10 18 be e0 8c 27 bc
       -0.073290616 0.18572555 -0.14850079 -0.010226458
000300 09 b6 d6 3d 44 21 0f bc 1a a7 c8 bd 6b 0d 41 be
       0.10483939 -0.0087359585 -0.09797497 -0.18852775
000310 c0 37 c6 bc c5 51 b1 bc 00 d9 3b bc 5a b1 be 3c
       -0.024196506 -0.021645436 -0.011465311 0.023277927
000320 64 09 51 bd ad b6 ed bc a9 9d b9 3c 15 ec 29 3d
       -0.051034346 -0.02901777 0.022658186 0.04148491
000330 11 4d 9f 3a c5 2d 98 3d 59 7a 05 3d 5b b6 e8 3b
       0.0012153705 0.07430605 0.032587383 0.0071018166
000340 2b 6c 69 3d ee c0 c0 3d f0 ed 22 bd fd 4b 2a 3e
       0.056987923 0.094117984 -0.039777696 0.1663055
000350 c6 7f 1e 3e 65 0d b2 3d f8 fd 07 3e 07 c4 04 be
       0.15478429 0.08693961 0.13280475 -0.12965403
000360 30 ef dd bd 2e e6 06 3e 4b 8c bc bd 8e 3c d3 3b
       -0.10836637 0.13173744 -0.09206446 0.0064464277
000370 a9 93 bf 3d 63 00 28 bc 8c 5d f5 3d 40 5f cd bc
       0.09354336 -0.010253998 0.11980733 -0.025069833
000380 69 06 9a 3d 94 23 a1 3d 6e 6c b7 bc 52 26 0e 3e
       0.07520754 0.07868114 -0.02239057 0.13881806
000390 61 38 95 3d ac 6b 2a bc dc 70 93 bd 31 a2 36 bc
       0.07286144 -0.010401648 -0.071992606 -0.011147068
0003a0 ac c9 e3 bd 4b 7d 52 bd 74 22 0c 3e f2 21 e0 bc
       -0.1112245 -0.05138902 0.13685018 -0.027359936
0003b0 ef 1f 98 bd 3e 20 e7 bd ee 3e 46 bd 6e 12 3f 3d
       -0.07427966 -0.112854466 -0.04839986 0.046648435
0003c0 59 f1 ba bd 38 e5 83 3d 64 8c 3f 3d 5f 18 7b 3d
       -0.09128065 0.064402044 0.046764746 0.06130254
0003d0 f3 3d 32 be 4e f5 cb 3c ab a6 80 bd fa 63 98 bd
       -0.17406444 0.024897244 -0.062817894 -0.07440944
0003e0 a7 13 7d 3d ec 0e e5 3d a8 28 0d bd e2 64 f6 3b
       0.06178632 0.11184487 -0.0344626 0.0075193504
0003f0 14 f1 41 3b 47 6b cb bd bd 73 f6 bc 60 32 1e be
       0.0029593157 -0.09932571 -0.030084485 -0.15448904

lstm.weight_hh_l1 f4 [256, 64]
000000 4f d1 71 3d bf 26 11 bb 36 e3 e7 3c a7 fe dc 3d
       0.059037503 -0.0022148339 0.028306585 0.107907586
000010 8d 07 a8 bc 46 24 01 3e d4 97 e1 bc 3a 55 af 3d
       -0.020511413 0.12611493 -0.027538218 0.085611776
000020 cc b1 b8 3d 13 03 e1 bd 5c 5e c9 3c b2 41 37 bd
       0.09018287 -0.109869145 0.024581127 -0.044740386
000030 cd f7 80 bd a1 69 f4 bd a3 e5 a3 bd 56 2a 88 3d
       -0.06297264 -0.119342096 -0.08002784 0.066487
000040 a8 3e fb bd 16 a9 e1 bd e5 19 de 3d 4c aa 21 bd
       -0.1226781 -0.11018579 0.10844783 -0.03946905
000050 8c d5 60 bd ff 59 b3 bc 12 24 8a bd f3 80 05 3e
       -0.054891154 -0.0218935 -0.06745161 0.13037471
000060 3d cc 8e 3d 66 2c c3 3d a5 16 9d 3d 1c a0 36 3c
       0.06972549 0.09529953 0.07670335 0.0111465715
000070 c1 0d db 3d 28 af fe 3d 32 48 d8 3d e4 5c b7 3d
       0.10695983 0.12435752 0.10560645 0.08953264
000080 4a a3 65 3d be 08 e5 3d ac 7d c8 3d f7 a2 4c bd
       0.056063928 0.11183308 0.09789595 -0.049960103
000090 aa ec c4 bd 22 32 9b 3b a4 56 19 bd 2e 80 e4 3d
       -0.096154526 0.004736201 -0.037436143 0.11157261
0000a0 50 58 24 bb 56 a1 61 3c 0e 62 1d 3d 41 65 b6 bd
       -0.0025077052 0.013771376 0.03842359 -0.089060314
0000b0 31 95 b0 bd 93 16 9e 3d 8c 76 bf 3b 8d 5c a8 3d
       -0.08622206 0.077191494 0.0058429893 0.08220778
0000c0 d7 4a 01 3d d9 c8 15 bd 0f 86 90 bd 91 ea 65 3c
       0.031565513 -0.036568496 -0.0705682 0.014032976
0000d0 28 6d f6 bc 09 54 91 bd 25 94 88 3d f7 b8 b1 3d
       -0.030081347 -0.070961066 0.06668881 0.08677857
0000e0 a9 5e c6 bd 71 44 df bd 0a 5d c7 bc ea bd ac bd
       -0.09686024 -0.10901726 -0.024336357 -0.08434661
0000f0 e0 06 1e 3d ae 6a b7 bb d9 7a 6b bd 85 03 88 3d
       0.038580775 -0.005597434 -0.057490204 0.06641296
000100 e6 44 6e 3d db 4f 3c 3d 02 8c 5c 3d da be f3 bc
       0.058171175 0.045974594 0.05384446 -0.029754091
000110 87 df c3 3d 11 2b 1c 3d 95 26 c1 3c 5e a2 aa bd
       0.09564119 0.03812701 0.023577968 -0.0833175
000120 e4 1c ee bc a8 41 93 3d 54 d2 3b 3d f6 68 c4 bc
       -0.02906651 0.07190257 0.04585488 -0.02397583
000130 78 e8 0f 3d 5d 36 a6 bc a0 29 32 bd 3e a0 a5 bd
       0.03513381 -0.020289594 -0.043496728 -0.080872044
000140 81 59 6f bd 2b 5e 0b 3e e8 fb 27 bc 30 90 0e 3d
       -0.058434967 0.13610141 -0.01025293 0.034805477
000150 a0 f2 0b 3e fe 8c 98 3d 4a ac bf bd e7 dc b8 3d
       0.13666773 0.07448767 -0.093590334 0.09026509
000160 a6 3c 16 bc 9b 81 23 bd 4b 36 19 be 11 7c da bd
       -0.009169733 -0.039918523 -0.14962117 -0.10668195
000170 0d 1d 1f 3c 94 64 46 bd 1f 13 98 bd fb 1f 8c 3d
       0.009711516 -0.048435763 -0.07425522 0.06842037
000180 f7 36 07 be 99 e3 fc bc 3c 86 92 bc b7 db 82 bd
       -0.13204561 -0.030870246 -0.017886274 -0.063895635
000190 cd 3b 2c be 04 45 9d bd 60 e2 36 3d 14 f9 56 3d
       -0.16819687 -0.07679179 0.04464948 0.052483633
0001a0 99 68 69 bc d3 d4 36 3d 6b f3 c7 3d 16 15 de 3d
       -0.014246129 0.04463656 0.09763225 0.108438656
0001b0 14 4c c3 bd 3c f4 95 bc 57 2a c6 3d 14 c4 d0 bd
       -0.09535995 -0.018304937 0.096760444 -0.10193649
0001c0 10 2c 80 bd 47 f9 87 bd b8 32 96 bd d9 32 1c bd
       -0.06258404 -0.06639343 -0.073338926 -0.03813443
0001d0 6d 5b 48 bc cc c6 69 3d 87 f1 13 be ae 62 19 be
       -0.012228829 0.057074353 -0.14447604 -0.1497905
0001e0 ed f1 6a 3d 06 e9 d4 3b 76 9b b6 bd ec 88 00 be
       0.057359625 0.006497505 -0.089163706 -0.12552232
0001f0 d9 5c 15 3e 24 dc 87 bd e4 42 cb 3d f8 bf b3 3d
       0.145862 -0.06633785 0.09924868 0.087768495
000200 be 86 59 bd 44 bf 5b 3d a5 75 81 bd 24 cc a8 3d
       -0.053107016 0.053649202 -0.06321267 0.08242062
000210 11 4c c1 bd 7d d1 c1 3d 2f 82 28 3e 95 cb f0 bd
       -0.09438337 0.09463785 0.16455911 -0.1175758
000220 bc ec f1 3c cc 3c 3d bc 1f ac 4c bd c2 1a 67 3d
       0.029531829 -0.01155014 -0.049968835 0.056422003
000230 a6 68 e1 3d 9a db c0 bd 0d f2 16 be 74 de 16 be
       0.11006288 -0.09416886 -0.14740773 -0.14733297
000240 b9 8f d0 bd fc 6e 12 3e ee 44 39 3d 71 fe db 3d
       -0.10183663 0.1430015 0.045231752 0.1074189
000250 80 48 01 3d a9 4d 02 bd 78 3f bf 3d 82 30 8b bd
       0.031563282 -0.031812344 0.093382776 -0.067963615
000260 84 7c 0b be 7d 28 16 bd 75 cf d1 bd 83 75 27 be
       -0.13621718 -0.036659706 -0.102446474 -0.16353421
000270 32 d8 14 bd 86 77 9a bd b9 9f 9e bd 59 e6 e3 3d
       -0.036338992 -0.075423285 -0.077453084 0.1112792
000280 b2 bf be bd 33 8d 22 3d f4 a4 06 3c 09 a3 84 bc
       -0.09313907 0.03968544 0.008218039 -0.016191022
000290 bb 9a 07 bd 91 73 52 bd 40 13 d4 bd 49 5c d1 bd
       -0.033106547 -0.051379744 -0.10355234 -0.1022268
0002a0 87 a2 04 3e dd 9c 81 bd 91 a8 c9 3d c2 e8 1d 3e
       0.12952624 -0.063287474 0.098466046 0.15420821
0002b0 0f b8 58 bd 09 ed 8b 3d 73 de c9 bc c1 ce c6 bd
       -0.052909907 0.0683232 -0.024642205 -0.09707404
0002c0 ff bd f0 bd 5e c7 9c 3d f1 a8 b6 3d 11 ee 1b 3e
       -0.11754989 0.07655214 0.08918942 0.15227534
0002d0 32 68 0f 3e e4 b0 66 3d ed a4 9f 3c 5c 2e 84 bc
       0.14004591 0.05632104 0.019487822 -0.016135387
0002e0 09 bf bc 3d 91 65 0d be 3f f0 cf 3b af 20 7e bd
       0.092161246 -0.13808276 0.0063457782 -0.06204289
0002f0 a9 62 85 bd 82 9e be bc de e8 7c bd 1f a3 8b 3c
       -0.065129586 -0.023268942 -0.061745517 0.017045556
000300 05 05 75 bd 75 00 90 3d 3c 08 41 3e 1d 35 89 3b
       -0.05981924 0.07031337 0.18850797 0.00418724
000310 a8 b7 9c bd 8d 52 ce 3d 7c aa ac bd d2 cd 8c bd
       -0.07652217 0.10074339 -0.08430955 -0.068751946
000320 0e f2 9a 3d b7 00 73 3c 9d 19 da bd 5f 58 21 bd
       0.075656995 0.014831713 -0.106494166 -0.039390918
000330 7a 5f 20 bd dc f5 02 bd c7 62 61 bd 2c ac ad 3c
       -0.039153554 -0.03197275 -0.055025842 0.021200262
000340 af 2b 04 bc 82 5d 8f 39 35 9a ae bc 99 0a 3e bc
       -0.008067056 0.00027344754 -0.021313766 -0.011599206
000350 9e 63 c8 bd 7b 62 ea bd 8a eb b5 3d 95 6f d8 3b
       -0.097846255 -0.11444565 0.08882816 0.0066050985
000360 dc 03 bb bd 87 34 ce bd 91 54 89 bd e3 80 a0 3d
       -0.091315955 -0.100686125 -0.06705583 0.07837083
000370 c4 ca 0c be 51 97 a5 bb b7 4b 76 3d 58 dc dd bc
       -0.13749224 -0.0050534387 0.0601308 -0.027082607
000380 1a ba b9 bc c6 7d a8 3d 62 2d 01 be 23 cc f7 3d
       -0.022671748 0.082271144 -0.12614968 0.12099483
000390 d3 0a a6 bc bc c9 08 bd e9 91 8c bd f7 62 df 3d
       -0.020268833 -0.033395514 -0.06863768 0.10907548
0003a0 97 04 e7 3d 04 27 49 3e 76 7a ee 3c 27 70 8b 3b
       0.11280172 0.1964379 0.029111128 0.004255313
0003b0 c2 39 d7 3c 63 a4 a3 3d db a7 85 3c 53 67 bf bd
       0.026272658 0.07990339 0.016315391 -0.093458794
0003c0 c4 08 ea bd c7 4c 12 3e 1a 44 d0 bd f0 e2 48 3d
       -0.11427453 0.142871 -0.10169239 0.04904455
0003d0 0e d6 65 3c 28 62 e2 bd 55 19 e9 3c 64 0e 09 be
       0.014028085 -0.11053878 0.028454462 -0.13384396
0003e0 cb fa 9f bc 48 e0 e4 bd 7e 7d d8 3d f1 52 f5 3c
       -0.019528767 -0.11175591 0.10570811 0.029946776
0003f0 d8 d9 cb 3d e3 6a f7 bd f0 2e 93 3d bc eb 58 bd
       0.0995366 -0.12080934 0.07186687 -0.05295919

lstm.bias_ih_l1 f4 [256]
000000 93 22 71 bd 85 82 e7 3d 42 8e 58 3a 38 2d e4 bc
       -0.058870863 0.113041915 0.0008260944 -0.027853593
000010 fc cb 95 3d 9d 8e 15 3c 69 60 0f bc 04 b6 8a 3d
       0.073142976 0.00912824 -0.008751013 0.06772998
000020 e9 55 bc 3d 74 ff 83 3d 6a d7 8f 3c 69 7f 04 3e
       0.091960736 0.06445208 0.017558772 0.12939228
000030 48 50 54 3d 8e de d1 3d 49 9c 21 3e 55 54 4e 3b
       0.051834375 0.10247527 0.15782274 0.0031483371
000040 59 db cc 3d c1 7e 95 3b b3 a1 47 3e 45 72 25 3d
       0.10002775 0.0045622294 0.19495277 0.04039218
000050 8c 85 80 3d 88 b7 ab 3d dd 2d 12 3e 23 ae 7a bd
       0.06275472 0.08384615 0.14275308 -0.061201226
000060 b1 ec 9b 3d f1 40 c3 3d 55 ff 0d 3e 86 7c 29 3e
       0.07613505 0.09533871 0.13866933 0.16551408
000070 49 27 17 3b 3d e7 0c 3e e3 50 10 3d 3e fd 02 bd
       0.0023064187 0.13760085 0.03523339 -0.03197979
000080 ca 5f 05 3d ab 12 9e 3c 2a 4f 07 3e 02 c6 2d 3e
       0.032562055 0.019296011 0.13213792 0.16970065
000090 1f c2 1f 3e 7c 0c c9 bd 9a ce 9e 3c 01 99 20 3c
       0.15601395 -0.09816834 0.019385625 0.009802104
0000a0 47 54 79 3d ea 69 2a 3e 7b c6 97 bc aa 91 de 3d
       0.06087139 0.16641966 -0.01852726 0.10867627
0000b0 40 c5 c6 3d 31 f2 e1 3d ef 3b 9e bd 0d 22 6d bc
       0.09705591 0.110325225 -0.07726275 -0.01447345
0000c0 db b0 1f 3e 28 0f 7d bd 81 99 e0 bc 52 f5 97 3d
       0.15594809 -0.061782032 -0.027416946 0.07419838
0000d0 75 59 d0 bb b5 37 35 3d 9d 70 06 3c 03 d8 05 3d
       -0.0063583204 0.04424258 0.00820556 0.032676708
0000e0 a1 fa fc 3d e3 7c 57 3d ff b3 18 3d 19 f2 32 3d
       0.12352491 0.052609336 0.037281033 0.043687914
0000f0 9e 9e 87 bd 97 da 84 3d e0 f0 6e 3d 06 d2 9b 3d
       -0.06622051 0.06487005 0.058335185 0.07608418
000100 9b 8f 88 3d 2b 9c a2 bc a3 7a 06 3d d9 0a 49 bd
       0.066680156 -0.019849857 0.0328318 -0.04908261
000110 67 d4 d9 bc 74 06 92 bd a7 45 c0 bc 48 72 1b bd
       -0.02659054 -0.07130137 -0.023470713 -0.037950784
000120 b0 da 8c bd 7a 65 bb bd ef b2 7b bd 3d 27 b8 3d
       -0.06877649 -0.091502145 -0.06144994 0.08991859
000130 e9 10 db 3b 07 85 e5 3d 17 f3 1f bd f7 8d 5e 3d
       0.0066853655 0.112070136 -0.039050188 0.054334607
000140 ab bc e4 bd 44 03 7f 3d 7a 40 06 bc 55 ce 9b 3d
       -0.11168798 0.062258974 -0.008194083 0.07607714
000150 cb 0a 25 bd 84 19 08 bd 15 22 ab 3d e3 43 30 3d
       -0.040293496 -0.03322746 0.0835611 0.04303349
000160 b9 00 c5 3d 8d c8 f8 3d 7d 40 c8 bd 3d 04 83 3d
       0.096192785 0.12147627 -0.09777925 0.06397293
000170 f3 a1 c5 3d 11 52 5f 3d 86 76 15 bc b0 60 88 bd
       0.0965003 0.054521624 -0.0091224965 -0.06659067
000180 fd f9 e4 3d 36 06 67 3b 0a 4f bb bd 2c e2 c0 bd
       0.11180494 0.0035251505 -0.09145935 -0.09418139
000190 2e 68 a6 bd f8 1a b2 b9 5b 76 d0 bd 10 1b 46 3c
       -0.081253394 -0.000339709 -0.101788245 0.012091413
0001a0 42 5f be 3d 42 d8 2f bc 53 d6 c7 bc 90 76 7f bd
       0.09295513 -0.010732712 -0.02439419 -0.06236893
0001b0 c7 b6 fd 3d 44 4c 04 be 64 ee e9 bb e1 42 43 3c
       0.12388378 -0.12919718 -0.007139014 0.011917801
0001c0 4e 31 ce 3d 1b aa f4 3d 67 05 d6 bd 0d 6c e6 3d
       0.10067998 0.119465075 -0.10450249 0.11251078
0001d0 e8 7c 40 3d 70 26 69 bd c7 36 80 3c d1 64 ba 3d
       0.04699412 -0.056921422 0.01565112 0.091012605
0001e0 2e 59 85 bd 30 e6 3b 3d 2b 17 7c 3d fa f6 df bd
       -0.0651115 0.04587382 0.061545532 -0.10935779
0001f0 3a 0f 0f 3d 09 a8 4d bd c4 f6 cb 3d 78 b5 d8 3c
       0.03492663 -0.05020908 0.09959176 0.026453719
000200 ec 0f a1 bd 62 22 f9 bd a5 89 b0 3d b9 29 35 3d
       -0.07864365 -0.12164761 0.086200036 0.044229243
000210 f4 57 6a bc ac c3 11 3c 58 f1 a9 3d 28 8b 6b 3d
       -0.014303196 0.0088967495 0.08297986 0.057505757
000220 57 c1 ad bd 4f 4f d1 3d ff a9 dd 3d 32 bc 60 3d
       -0.08484142 0.10220205 0.1082344 0.054866977
000230 10 a8 a4 bd 25 8d 0c 3d d4 03 4e bd 87 8f 51 bd
       -0.08039868 0.034314293 -0.05029662 -0.05116227
000240 a2 25 cf 3d 2c 98 c5 3d b6 6b 0b 3e 2a 5b 2e 3d
       0.101146 0.09648165 0.13615307 0.04256741
000250 db 2f e1 bd 9f ef de bd bb 4c aa 3d 5d b8 8f 3d
       -0.10995456 -0.10885548 0.083154164 0.070175864
000260 3b 54 ae 3c 6c 18 b9 3a a1 34 4d 3c 27 47 e8 3c
       0.021280399 0.0014121658 0.012524755 0.02835424
000270 cd 8e ce bd 73 dc c7 bc 45 35 e6 bc 74 e5 23 3c
       -0.10085831 -0.02439711 -0.028101573 0.010003436
000280 92 0a 57 bd db 02 19 bd 3a 16 b2 bc 3c cc b3 bc
       -0.052500315 -0.03735624 -0.021739114 -0.021947972
000290 82 36 8e 3d 37 b2 07 3e 8e 5a b4 3d 99 10 dd 3d
       0.0694399 0.13251577 0.088063344 0.107941814
0002a0 39 b4 f3 3c 0b 3d 54 3d ff 95 e4 bd 64 cb d2 3d
       0.029749023 0.051816028 -0.11161422 0.102927
0002b0 b7 20 b3 bd b2 46 9e 3d 68 f8 5c 3a 25 dd 01 be
       -0.08746474 0.07728328 0.00084293494 -0.12682016
0002c0 75 29 a0 bd 23 24 f5 3d a1 3f aa bc 8d f6 a5 3a
       -0.07820407 0.11969783 -0.020782294 0.0012661979
0002d0 77 35 0b 3e e3 2f 81 bd 85 1b 02 be f6 2a c1 bd
       0.13594614 -0.06307962 -0.1270581 -0.09432022
0002e0 9e a3 cc bd 9b bd ea bd 99 13 f7 3d ac cc e1 bc
       -0.09992145 -0.114619456 0.12064285 -0.027563415
0002f0 95 44 7a 3c 76 e4 6f 39 11 27 d9 3d 03 89 0f bd
       0.01527514 0.00022877924 0.106031545 -0.035042774
000300 88 99 ff 3d aa e5 16 3e 40 28 09 3e d1 63 7e 3d
       0.12480456 0.14736047 0.1339426 0.06210691
000310 77 83 2d bd 4c 35 c9 3d 7e 92 19 3d a0 b6 0d 3e
       -0.042361703 0.09824619 0.03749322 0.13839197
000320 9d 23 a6 3c 6a 10 10 3e 50 d0 72 3d d1 20 45 3e
       0.020280654 0.14068761 0.059280694 0.192508
000330 77 2d 05 3e c3 ee bb 3d 72 fe 8e bb 19 ed 92 3d
       0.13005625 0.091763996 -0.0043638283 0.07174129
000340 fc ab 01 3e cb 17 0b 3e 9d d9 df 3d a2 60 ba 3d
       0.12663263 0.13583295 0.10930178 0.091004625
000350 d6 33 95 3d 1a 90 9c 3d b1 ef ef 3d a0 1a 10 bd
       0.072852775 0.07644673 0.117156394 -0.03518164
000360 31 94 9f bc 0d b6 25 3d 89 40 48 3e d8 0d 77 3c
       -0.019479843 0.04045682 0.19555868 0.015078984
000370 8b 50 08 3b 8b 93 19 bc 99 59 db 3d cb f0 d2 3d
       0.002079996 -0.009373556 0.10710449 0.10299834
000380 be 32 be 3c 0e 25 be 3d 8d ce 8e bd 7d 89 99 bc
       0.023217555 0.09284411 -0.0697299 -0.018742317
000390 33 ad 10 3e 37 92 66 bd 94 54 be 3d 72 5c 65 3c
       0.1412857 -0.056291785 0.09293476 0.013999091
0003a0 98 96 5a 3d cc 67 a8 3d ce 51 d3 3c ab 6e 7e 3d
       0.053366274 0.08222923 0.025795843 0.06211726
0003b0 fd 69 a8 3d 62 89 0c 3e c9 4c f4 3a da e0 bd bd
       0.08223341 0.13724282 0.0018638606 -0.09271403
0003c0 3f 6a 37 bd 64 a0 3b 3b e5 27 13 3d 99 83 25 3d
       -0.04477906 0.0028629536 0.03592672 0.040408704
0003d0 e0 5b 2b 3c 78 73 54 3d f3 9b ce 3d 09 a0 fb 3d
       0.010458916 0.051867932 0.10088339 0.12286384
0003e0 7e bc 1a 3e 8b 77 20 3e 1d 19 2c 3e 28 71 35 bd
       0.15110967 0.15670602 0.16806455 -0.044297367
0003f0 60 ea 0b bd 96 32 d8 3d f4 19 f1 3d 28 62 2c 3e
       -0.034159064 0.105565235 0.11772528 0.16834319
