LSTM/models/sensor_data_2_pm1_lstm_model.pth (torch, 206046 bytes, 9 tensors)

lstm.weight_ih_l0 f4 [256, 1]
0	0x3dea0e28	0.11428481
1	0x3d490219	0.049074266
2	0x3dfaa8ee	0.12239252
3	0xbbfe5d5f	-0.0077625955
4	0xbce9ea6a	-0.02855416
5	0x3e129dbc	0.14317983
6	0x3da3dd09	0.080011435
7	0x3e449ffc	0.19201654
8	0xbd930055	-0.07177798
9	0xbce970a4	-0.028496094
10	0x3dfa88c7	0.122331195
11	0x3cc35df5	0.023848513
12	0xbd9b7ad3	-0.07591786
13	0x3ca3c782	0.019992594
14	0xbdf91a95	-0.12163273
15	0xbc4e09ba	-0.012575561
16	0xbc0b61e0	-0.008507222
17	0x3c5c357f	0.013440489
18	0xbd8cccd1	-0.06875003
19	0x3d995060	0.074860334
20	0x3db43c76	0.088005945
21	0x3dfa2b20	0.12215257
22	0x3ad6e19e	0.0016394143
23	0x3d8773bf	0.06613874
24	0xbd887d05	-0.066644706
25	0xbc8cb424	-0.017175741
26	0x3d89801c	0.06713888
27	0xbe22cc57	-0.15898262
28	0xbddd4f1c	-0.108061045
29	0x3d9f39d1	0.077746995
30	0x3d4fec29	0.05076233
31	0xbb9b7551	-0.00474421
32	0x3da037fe	0.0782318
33	0x3b3610fb	0.0027781117
34	0x3dbd65f2	0.0924796
35	0xbdc5bc77	-0.096550874
36	0x3d6c48d1	0.05768663
37	0x3e2d8860	0.16946554
38	0x3dd5c4e7	0.10437947
39	0x3e21945e	0.15779254
40	0xbcf0dba2	-0.029401604
41	0xbdf51935	-0.119676985
42	0x3e163e59	0.14672221
43	0x3bbe66c1	0.005810589
44	0xbdbf02fd	-0.09326742
45	0x3c8e4db5	0.017371038
46	0xbc3ca427	-0.011513746
47	0x3d8adc71	0.06780327
48	0x3de5918b	0.11209401
49	0xbd4139f5	-0.047174413
50	0x3df6b3ee	0.120460376
51	0xbd2c9049	-0.04212979
52	0x3d45e824	0.04831709
53	0xbd7552e0	-0.05989349
54	0xbc04e5b9	-0.008111411
55	0xbd43aaa2	-0.04777015
56	0x3d255efd	0.04037379
57	0xbe1bc032	-0.15210035
58	0x3dbec4b5	0.09314863
59	0x3d046f97	0.032332983
60	0xbde8b3b1	-0.113623984
61	0x3c5298e1	0.012853832
62	0x3dde2cfe	0.10848425
63	0x3e3a1a3f	0.18174075
64	0x3da4d8d8	0.08049172
65	0xbddce885	-0.10786537
66	0x3d9f56bb	0.077802144
67	0x3e021e03	0.12706761
68	0xbe2e6b4e	-0.17033121
69	0xbda5965a	-0.08085318
70	0x3d184c42	0.0371821
71	0x3e096dea	0.13420835
72	0xbd8a3096	-0.06747548
73	0xbe1b65a2	-0.15175489
74	0x3e0764e7	0.13222085
75	0x3d78f757	0.060782757
76	0xbd17f47d	-0.037098397
77	0xbc9a6d3c	-0.018850915
78	0xbc8f2f57	-0.017478628
79	0x3dfe9a7d	0.1243181
80	0x3cee8c1f	0.02911955
81	0x3df8aa67	0.12141877
82	0x3c8b0123	0.016968315
83	0x3de64c82	0.112450615
84	0x3d5d454f	0.054021176
85	0x3ca1c2c6	0.019746196
86	0xbcd0c6f2	-0.02548549
87	0x3bade8c1	0.0053072874
88	0x3d8999bc	0.06718776
89	0x3db0dbdc	0.08635685
90	0x3d7454de	0.05965125
91	0xbe375e7f	-0.17907141
92	0xbc773e59	-0.015090548
93	0x3dff1204	0.12454608
94	0x3df3eded	0.11910615
95	0xbdc2ee8f	-0.09518158
96	0x3d9c3d44	0.07628873
97	0x3d201332	0.039080806
98	0x3d5fe5b9	0.05466244
99	0xbe384f24	-0.1799894
100	0x3ce9fbce	0.028562453
101	0xbd8ed5ba	-0.06974359
102	0xbe0531a1	-0.13007213
103	0xbd364edc	-0.0445088
104	0x3e3080df	0.1723666
105	0x3c0c6481	0.008568884
106	0xbb15f6e0	-0.0022882745
107	0xbdd14109	-0.102174826
108	0xbd467f18	-0.04846105
109	0xbd8b7431	-0.06809271
110	0xbd9140d5	-0.07092444
111	0x3d45ec0d	0.04832082
112	0x3de00795	0.10938946
113	0x3d9b2df6	0.07577126
114	0x3d16ec00	0.03684616
115	0xbc59a84d	-0.013284755
116	0xbd8f05b4	-0.0698351
117	0xbe282de3	-0.16423754
118	0xbd675b18	-0.05648336
119	0xbc0814ad	-0.008305711
120	0xbde204d1	-0.11036075
121	0xbdbe2b69	-0.092856236
122	0x3e073ee5	0.13207586
123	0xbdf81c66	-0.121147916
124	0x3da6b8b9	0.08140702
125	0xbd1005e4	-0.035161868
126	0xbd3ee48c	-0.046604678
127	0x3e188402	0.14894107
128	0xbe2b7eed	-0.16747637
129	0xbe1a81e9	-0.1508862
130	0x3e484725	0.1955839
131	0xbdd4b15d	-0.10385392
132	0xbe034d00	-0.12822342
133	0x3d775bb1	0.060390178
134	0x3d0bfac5	0.0341747
135	0x3e2c92bf	0.16852854
136	0xbe3c7cbf	-0.18406962
137	0xbdbb5e1d	-0.0914881
138	0xbdf34cad	-0.11879859
139	0xbe49b60e	-0.19698355
140	0xbdd4aa51	-0.10384048
141	0xbde4362c	-0.11143145
142	0xbe47c7f5	-0.19509871
143	0x3e207d78	0.15672863
144	0xbe19f0e1	-0.15033294
145	0xbe2f1446	-0.17097577
146	0x3dd2c859	0.102921195
147	0xbe4a0a54	-0.19730502
148	0x3de52e05	0.11190418
149	0xbe059d1b	-0.13048212
150	0x3e137043	0.14398293
151	0x3df1ae21	0.118007906
152	0xbe4be618	-0.19911993
153	0xbe1fd140	-0.15607166
154	0xbdc5b850	-0.096542954
155	0x3d5351f1	0.051591817
156	0x3c9617d1	0.018321903
157	0xbcc06316	-0.023484748
158	0xbe2fc4b5	-0.17164882
159	0xbda7748a	-0.08176525
160	0x3e3d234c	0.18470496
161	0xbdefab04	-0.117025405
162	0xbda5331f	-0.08066391
163	0x3e50b587	0.20381747
164	0xbe473544	-0.19453913
165	0xbe3e985f	-0.18612812
166	0x3dce7824	0.10081509
167	0x3e3eda1a	0.18637887
168	0x3e5e402d	0.21704169
169	0xbdea7954	-0.11448923
170	0x3dfceb8a	0.12349613
171	0x3cb6e66f	0.022326676
172	0x3e357538	0.17720497
173	0x3e509474	0.2036913
174	0xbdf3dc71	-0.1190728
175	0xbe37f9fe	-0.17966458
176	0xbe490c8e	-0.19633695
177	0xbe2cdf51	-0.16882063
178	0xbe12c956	-0.14334616
179	0xbe39d98f	-0.18149398
180	0x3d075bc4	0.0330465
181	0x3e4e5548	0.2014972
182	0xbe10150a	-0.14070526
183	0xbe30dabb	-0.17270939
184	0xbe38d066	-0.18048248
185	0xbe0ed3df	-0.1394801
186	0x3e3227e5	0.17398031
187	0xbd4874fd	-0.048939694
188	0xbd8070ec	-0.06271538
189	0xbe051cb9	-0.12999238
190	0xbe3ea975	-0.1861933
191	0x3e0cc281	0.13746072
192	0xbc19f003	-0.009395602
193	0xbe383c62	-0.17991784
194	0x3de9d12f	0.11416852
195	0x3e1892cc	0.14899749
196	0xbde57d8b	-0.11205586
197	0x3d2bb558	0.04192099
198	0xbcc4bdb7	-0.024016244
199	0x3e483fdd	0.19555612
200	0xbe3dae4a	-0.18523517
201	0xbe126f81	-0.14300348
202	0x3e0b145d	0.13581987
203	0xbe06f90d	-0.13180943
204	0xbe4b9e04	-0.19884497
205	0xbd0e6b8e	-0.03477054
206	0xbca4f763	-0.020137494
207	0xbcfee01c	-0.031112723
208	0x3c716380	0.014733195
209	0x3dd757c4	0.10514787
210	0x3c6a9b52	0.014319258
211	0x3c2aa1d6	0.010414561
212	0x3de0ae12	0.10970701
213	0x3dd3853e	0.10328148
214	0x3d4f43d6	0.050601803
215	0x3e3c4608	0.1838609
216	0x3d9d6626	0.07685499
217	0x3e253e11	0.16136958
218	0x3cdf4d49	0.027258532
219	0xbe2fe6e0	-0.17177916
220	0xbd5fcf24	-0.054640904
221	0x3b96b1ce	0.0045988327
222	0xbbb20548	-0.0054327585
223	0xbe3138fd	-0.17306896
224	0xbd201b31	-0.03908843
225	0xbccdee3c	-0.025138013
226	0x3d41b685	0.047293205
227	0xbe2aa018	-0.16662633
228	0x3dd83d5a	0.10558577
229	0x3e235c28	0.15953124
230	0xbd8f551b	-0.069986545
231	0x3ddb22ea	0.10700019
232	0x3e4ab83d	0.19796844
233	0x3dbb21aa	0.0913728
234	0x3e69374b	0.22774999
235	0x3cfafcc9	0.030638115
236	0x3d86e1aa	0.06586011
237	0xbc1db330	-0.009625241
238	0x3d3e11b9	0.04640362
239	0x3d990fca	0.07473715
240	0x3dfef77d	0.124495484
241	0xbe0ff847	-0.14059554
242	0x3d8a98bc	0.06767413
243	0xbd954fc9	-0.072906084
244	0xbe2a32a2	-0.16620877
245	0xbe4b0598	-0.19826353
246	0xbe401234	-0.18756944
247	0xbe15549d	-0.14583059
248	0x3c7278d7	0.014799318
249	0xbe23083e	-0.15921113
250	0x3d4ea58c	0.050450847
251	0xbdb549f2	-0.088519946
252	0xbd8726a3	-0.06599166
253	0xbe29f9f7	-0.1659926
254	0xbda79110	-0.08181965
255	0x3e0307bd	0.1279592

lstm.weight_hh_l0 f4 [256, 64]
0	0xbde4da45	-0.11174444
1	0x3df98a0b	0.12184533
2	0xbd9420be	-0.072328076
3	0xbd757022	-0.05992139
4	0x3d68baae	0.056818657
5	0xbd708a02	-0.058725365
6	0xbd4bf58f	-0.04979473
7	0x3e031734	0.1280182
8	0x3d9e91a3	0.07742622
9	0xbd66c790	-0.05634266
10	0xbe223c3d	-0.15843292
11	0xbc23409e	-0.009964136
12	0x3dd16420	0.102241755
13	0x3d464ea9	0.04841486
14	0xbd2871a0	-0.041123986
15	0xbcaaf12f	-0.020866958
16	0x3dae9691	0.08524812
17	0xbe121812	-0.14266995
18	0x3c11d36a	0.008900503
19	0x3d8f5f1e	0.07000564
20	0xbcd62579	-0.026140915
21	0xbddc5934	-0.10759202
22	0xbc19f19e	-0.009395985
23	0xbd03ddb7	-0.032193866
24	0xbccfa527	-0.025347305
25	0xbdb93f94	-0.0904533
26	0x3db338fc	0.08751103
27	0xbe31a4a9	-0.17347969
28	0xbd9263a1	-0.07147909
29	0xbde3b5e2	-0.11118676
30	0xbc983755	-0.018581072
31	0xbb6c0359	-0.0036012738
32	0xbdce8ed0	-0.10085833
33	0xbe088dd6	-0.13335356
34	0xbd81f4d6	-0.06345527
35	0xbd816fad	-0.063201286
36	0x3cb3595b	0.021893194
37	0x3db022f0	0.08600414
38	0xbcffa142	-0.031204823
39	0xbd3e95a8	-0.046529442
40	0xbd69f2ba	-0.057116248
41	0xbcb15fbd	-0.021652097
42	0x3e20f76d	0.15719385
43	0x3daf1b1e	0.08550094
44	0xbe08f96b	-0.13376395
45	0x3bf7c77b	0.0075616217
46	0xbd3eec2d	-0.046611954
47	0x3d0c1774	0.034202054
48	0xbccdb36c	-0.02510997
49	0xba0323c9	-0.0005002586
50	0x3d7a31bf	0.061082598
51	0x3d973522	0.07383181
52	0x3d413463	0.0471691
53	0xbe10e022	-0.14148
54	0x3de42ce6	0.11141376
55	0x3e330d8f	0.17485641
56	0x3d082f9e	0.033248536
57	0x3c28d3b9	0.010304385
58	0xbd8b36e6	-0.067975804
59	0xba9d741d	-0.0012012754
60	0xbe112e61	-0.14177848
61	0xbcc88231	-0.024476143
62	0x3cd3c888	0.025852457
63	0xbdc10654	-0.09425035
64	0x3cf89f84	0.0303495
65	0xbcfb5759	-0.030681299
66	0x3c284532	0.010270404
67	0xbe5f10c6	-0.21783742
68	0x3e14dc72	0.14537218
69	0x3e2906b9	0.1650647
70	0x3d68bdab	0.056821506
71	0x3d2484e6	0.040165804
72	0x3de4f49a	0.111794665
73	0x3d858e84	0.06521323
74	0xbe55fe09	-0.20897688
75	0x3c5f7043	0.013637605
76	0xbc83cc39	-0.016088592
77	0x3da1ef9b	0.07907029
78	0x3b154bee	0.0022780853
79	0x3db8c738	0.09022373
80	0xbe140a4c	-0.14457053
81	0xbd072924	-0.03299822
82	0xbcf8335d	-0.03029793
83	0xbcd96c2c	-0.026540838
84	0x3d6d7623	0.057973992
85	0xbd5ebe43	-0.054380666
86	0x3cad6a11	0.02116874
87	0x3e4e1807	0.20126353
88	0xbbaca71a	-0.0052689435
89	0xbafe22b0	-0.0019389
90	0xbd470dda	-0.048597194
91	0x3d74cfc7	0.059768464
92	0xbcbb597d	-0.02286982
93	0xbe10c986	-0.14139375
94	0xbde495fb	-0.11161419
95	0x3ca7fb26	0.0205055
96	0x3c4d8b55	0.012545426
97	0xbd0aa444	-0.033848062
98	0xbdf01111	-0.11722005
99	0xbdbccbb2	-0.09218539
100	0xbdaccc95	-0.084374584
101	0xbe688b6a	-0.22709432
102	0x3df5678c	0.119826406
103	0x3da27026	0.07931547
104	0x3e4817cd	0.1954033
105	0x3d640c2f	0.05567568
106	0x3dfc363a	0.123150304
107	0x3e364b3f	0.17802142
108	0xbdc7ca27	-0.097553544
109	0xbd9bc176	-0.07605259
110	0x3da091be	0.07840298
111	0xbdbda53f	-0.09260034
112	0xbe066bb4	-0.13127023
113	0xbd97da08	-0.07414633
114	0xbdea3bbd	-0.114371754
115	0x3da68b1f	0.08132004
116	0xbe0e23e9	-0.13880886
117	0xbde9e2d6	-0.11420219
118	0xbd72c16b	-0.05926649
119	0x3d25d515	0.040486414
120	0x3deef25e	0.116673216
121	0x3d36c540	0.044621706
122	0x3e181929	0.14853348
123	0xbdc2c8b9	-0.09510941
124	0xbe0348f8	-0.12820804
125	0x3c08cae9	0.008349159
126	0x3c48baa4	0.01225153
127	0x3e265be1	0.16245987
128	0xbdedc22a	-0.116092995
129	0x3d0ba41b	0.03409205
130	0xbd7a91f7	-0.06117436
131	0x3c08381c	0.008314159
132	0x3dc18d79	0.09450812
133	0xbd77a252	-0.060457535
134	0x3e56439f	0.20924233
135	0x3c8a1210	0.016854316
136	0x3dfd8ca2	0.12380339
137	0x3dd811a9	0.105502434
138	0xbce61883	-0.02808786
139	0x3e2eda04	0.17075354
140	0xbcfd869b	-0.030947974
141	0xbd8c946f	-0.06864249
142	0x3e1010bc	0.14068884
143	0x3dd2c9fb	0.10292431
144	0x3d5ad456	0.053425156
145	0xbc4e05dd	-0.01257464
146	0x3e143147	0.14471923
147	0xbc75d205	-0.015003686
148	0x3d38921f	0.045061227
149	0xbc52456b	-0.012833933
150	0xbddb7714	-0.10716072
151	0x3d4a0daa	0.049329437
152	0xbdf38626	-0.11890821
153	0x3c4cb8dc	0.012495246
154	0xbdacd3bc	-0.084388226
155	0x3bce6ff8	0.006299969
156	0xbde8d854	-0.11369386
157	0xbe5ceea5	-0.2157541
158	0xbdc82945	-0.097734965
159	0x3e34a1fd	0.17639919
160	0xbdab1649	-0.0835386
161	0x3dabe4f7	0.08393281
162	0xbd1b3410	-0.037891448
163	0xbe24c692	-0.16091374
164	0x3d8e5b45	0.06951002
165	0x3d049227	0.032365944
166	0x3d147832	0.03624744
167	0x3d65831a	0.05603323
168	0x3cc1bf4a	0.023650784
169	0xbc7baa01	-0.015360356
170	0x3d4c9fe5	0.049957175
171	0x3d43445c	0.047672614
172	0xbdf4e417	-0.11957567
173	0xbdb5c3c1	-0.08875228
174	0xbd9fcdb0	-0.07802904
175	0x3dec1127	0.11526709
176	0x3dcc238a	0.09967716
177	0x3df2fc95	0.118645824
178	0x3d2f5a9d	0.042811025
179	0x3cb19f91	0.021682533
180	0xbdf4f6d9	-0.11961145
181	0xbb2c5f8e	-0.0026302072
182	0x3dbe0b87	0.092795424
183	0xbd66e2b3	-0.05636854
184	0x3d8889b0	0.06666887
185	0x3ddcb22a	0.107761696
186	0x3ddb6db8	0.107142866
187	0xbd1cf8e5	-0.0383233
188	0xbca44137	-0.020050628
189	0x3e0247d7	0.12722717
190	0xbd0b4d72	-0.034009404
191	0xbd3fa14e	-0.04678469
192	0x3d29a16f	0.04141372
193	0x3e161b69	0.14658894
194	0x3d8d9d06	0.069147155
195	0xbbe0115c	-0.006838007
196	0x3e02fdc8	0.12792122
197	0x3da4b0b0	0.08041513
198	0x3d5a773c	0.053336367
199	0xbd8aa9ac	-0.067706436
200	0x3d1c096e	0.03809493
201	0x3da90732	0.082533255
202	0x3d951297	0.07278936
203	0x3e1d0caf	0.1533687
204	0xbccd071a	-0.0250278
205	0x3b8660ec	0.0041009095
206	0x3d878079	0.06616301
207	0x3b922e44	0.0044610817
208	0x3bddd714	0.006770024
209	0xbdad05f6	-0.084484026
210	0xbd7d8b4d	-0.061900426
211	0xbd779a7e	-0.06045007
212	0x3db74633	0.08948936
213	0x3d48f1b1	0.04905862
214	0xbd67bdad	-0.056577373
215	0xbc31aeea	-0.010844925
216	0x3e03c569	0.12868275
217	0xbdfe514a	-0.124178484
218	0xbd99372f	-0.074812286
219	0xbdbd9546	-0.09256987
220	0xbd78a2b5	-0.060702045
221	0xbdd0627f	-0.10175037
222	0xbcd5e40c	-0.026109718
223	0xbbbd58d5	-0.005778412
224	0xbcbd2d81	-0.023092987
225	0x3dc0b442	0.094093814
226	0xbd8f15b0	-0.069865584
227	0xbdb63a1b	-0.088978015
228	0x3d6ea30e	0.05826097
229	0x3d6f2ea0	0.058394074
230	0xbda5d72d	-0.08097682
231	0x3be0fcc8	0.0068660714
232	0x3d335553	0.043782543
233	0xbd3aa04e	-0.045563035
234	0x3d58611e	0.052826993
235	0x3d05568f	0.03255325
236	0xbd7e3b66	-0.062068366
237	0x3d96f8a7	0.073716454
238	0x3d63168c	0.055441424
239	0xbd7025c0	-0.05862975
240	0xbd1d039c	-0.03833352
241	0x3d781966	0.060571097
242	0x3ce0d433	0.027444934
243	0x3bb901aa	0.0056459503
244	0xbde87e47	-0.113522105
245	0xbc9006c1	-0.017581346
246	0x3d7f35d1	0.062307183
247	0xbcf11cbf	-0.029432653
248	0x3e04d668	0.12972414
249	0xbd0de99f	-0.034646627
250	0xbd9d00c0	-0.07666159
251	0xbe0b4c60	-0.13603354
252	0x3d7f2c99	0.06229839
253	0x3db9d232	0.09073295
254	0x3c088b7a	0.008334035
255	0x3daccbc0	0.084373

lstm.bias_ih_l0 f4 [256]
0	0x3d9dc0f1	0.07702816
1	0x3df4ce12	0.11953367
2	0x3cebceff	0.028785227
3	0xbd6a42ad	-0.057192493
4	0x3e47e595	0.19521172
5	0x3e0bde32	0.1365898
6	0xbc1b27e1	-0.009469957
7	0x3ce05f5e	0.027389225
8	0x3c804c01	0.015661241
9	0x3ca9b211	0.020714791
10	0x3e3c3dc7	0.18382941
11	0x3c1574de	0.009122102
12	0x3e45ee4b	0.19329183
13	0x3daf2bc6	0.08553271
14	0x39e03176	0.0004276146
15	0x3c9e151c	0.019297175
16	0x3dea8b73	0.11452379
17	0xbd80da22	-0.062916055
18	0x3d769296	0.06019839
19	0x3e307e7c	0.1723575
20	0xbb6bab82	-0.003596038
21	0xbd224dc6	-0.03962495
22	0x3df743b7	0.120734625
23	0x3dbb0ba5	0.091330804
24	0x3daf2916	0.085527584
25	0xbd43b333	-0.04777832
26	0x3cbb1414	0.022836722
27	0x3e151f47	0.14562713
28	0xbd5489e3	-0.05188931
29	0xbdda6f79	-0.10665793
30	0x3d8bf7de	0.06834386
31	0x3deb2719	0.11482067
32	0xbbfc325d	-0.0076964335
33	0x3e192f57	0.14959465
34	0x3d174aad	0.03693645
35	0x3e5b0059	0.21386851
36	0xbd43fe1d	-0.047849763
37	0xbd104ece	-0.035231404
38	0xbd71a9f5	-0.058999974
39	0x3a9137be	0.0011079235
40	0xbd396808	-0.045265228
41	0x3dac4c3e	0.084129795
42	0x3cd69044	0.026191838
43	0xbd51c9dd	-0.051217902
44	0x3daf6a68	0.08565217
45	0x3c74d108	0.014942415
46	0x3df72b45	0.120688
47	0x3dfc43a7	0.12317591
48	0x3da4cf2c	0.080473274
49	0x3c580dfe	0.01318693
50	0x3d217c82	0.03942538
51	0x3d9515f0	0.07279575
52	0x3e243801	0.16036989
53	0x3e516cf2	0.20451716
54	0xbc022e61	-0.007945628
55	0x3dda6736	0.10664217
56	0x3e0e1d23	0.13878302
57	0x3cf8e20e	0.030381229
58	0x3e0f447b	0.13990967
59	0xbc90d741	-0.017680766
60	0x3d8c85fb	0.06861492
61	0x3dd701b0	0.10498369
62	0x3d81131f	0.06302475
63	0x3d9ed5a0	0.077555895
64	0xbdb3caf0	-0.08778942
65	0xbdb9af2a	-0.09066613
66	0x3d90fd29	0.070795365
67	0xbdba9f06	-0.091123626
68	0xbd6ae6fe	-0.057349198
69	0xbd110e57	-0.035414066
70	0xbd3ff712	-0.046866484
71	0xbc8d01db	-0.017212799
72	0x3c883798	0.016628072
73	0x3da2db28	0.07951957
74	0x3dd190a5	0.10232667
75	0xbdf0547a	-0.117348626
76	0x3d5f94c3	0.05458523
77	0x3a853e72	0.0010165705
78	0xbdf678cd	-0.1203476
79	0xbc9786dd	-0.018496925
80	0x3d4824f0	0.04886335
81	0x3c57cf2a	0.01317195
82	0x3cfd272f	0.030902473
83	0x3a077b8a	0.000516825
84	0x3d5d5b62	0.054042228
85	0xbc951929	-0.018200474
86	0x3d741c09	0.05959705
87	0xbdbe4de6	-0.09292202
88	0xbe08c429	-0.13356079
89	0xbd6b3a30	-0.05742854
90	0xbda4fac4	-0.08055642
91	0x3d9fabfe	0.07796477
92	0xbd70a16e	-0.0587477
93	0xbce71efd	-0.028213019
94	0xbccdfe32	-0.025145624
95	0x3e0b81f0	0.13623786
96	0x3d0d2875	0.03446241
97	0x3da13d53	0.07873025
98	0x3e0d0fa8	0.13775504
99	0x3d5babbc	0.053630576
100	0x3b8f5392	0.004373976
101	0x3c475808	0.012166984
102	0x3e006a4e	0.12540552
103	0x3d7c83f9	0.061649296
104	0xbcd8d5d9	-0.026469158
105	0xbcce9a09	-0.025219934
106	0x3d4bc10e	0.04974466
107	0x3ddb04a3	0.10694244
108	0x3990360f	0.00027506097
109	0x3dc73ce9	0.097284146
110	0x3ba81e44	0.005130561
111	0x3c6778c8	0.014127918
112	0xbe004974	-0.1252802
113	0xbd5fadda	-0.054609157
114	0xbda81680	-0.082074165
115	0x3dcd4359	0.10022611
116	0xbd17e83c	-0.03708671
117	0x3e00fdbe	0.12596795
118	0xbd5c787a	-0.053825833
119	0x3db9d6f9	0.09074206
120	0x3ceb53b8	0.028726444
121	0x3da10cfa	0.07863803
122	0x3dd98ef2	0.10622968
123	0x3d8f0d21	0.06984926
124	0x3dcd0887	0.10011392
125	0xbda91640	-0.08256197
126	0x3de8ac05	0.11360935
127	0xbd26c5ac	-0.04071586
128	0xbdce6c19	-0.10079212
129	0x3cfe820c	0.03106787
130	0xbd7902d3	-0.06079371
131	0xbc9222a3	-0.017838782
132	0x3d58e12b	0.052949112
133	0x3dd4443d	0.10364578
134	0x3dd4ce9d	0.10390971
135	0x3b1765c8	0.0023101438
136	0xbd7920b9	-0.060822222
137	0x3d473ef8	0.048644036
138	0xbe30b818	-0.17257726
139	0x3e03a679	0.12856473
140	0x3a0aed82	0.00052996736
141	0xbda75d04	-0.08172038
142	0x3d7120bf	0.05886912
143	0x3d2feaea	0.04294864
144	0xbb631f75	-0.00346562
145	0xbd2ff8e1	-0.04296196
146	0x3ca14222	0.019684855
147	0xbd9c6684	-0.07636741
148	0x3d9100f1	0.07080258
149	0xbd70f5c4	-0.05882813
150	0xbde229e2	-0.11043145
151	0x3db70c8c	0.0893794
152	0xbdab3f73	-0.08361711
153	0xbd919be5	-0.07109813
154	0x3d4c66a8	0.049902588
155	0xbde4cfd5	-0.11172453
156	0xbe16b41a	-0.14717141
157	0xbe03a6aa	-0.12856546
158	0x3db6ecad	0.08931861
159	0x3d89c16e	0.06726347
160	0xbe031b68	-0.12803423
161	0xbd7df1aa	-0.061998047
162	0xbd5f47ca	-0.054511823
163	0xbdf6c9ff	-0.120502464
164	0x3ccde437	0.025133235
165	0xbcb4b442	-0.02205861
166	0x3d69e902	0.05710698
167	0x3b54b385	0.0032455635
168	0xbcab2f7d	-0.020896668
169	0xbdadf857	-0.08494633
170	0x3d1d359d	0.038381208
171	0x3dda4894	0.106583744
172	0xbdb6490c	-0.08900651
173	0x3cc66bff	0.024221418
174	0x3d3e5ef4	0.046477273
175	0x3ddc860a	0.107677534
176	0x3d0cf2b1	0.034411136
177	0x3d0fb4bf	0.035084482
178	0x3d5ec538	0.0543873
179	0x3c5a042c	0.013306659
180	0xbe28c210	-0.16480279
181	0xbdf249be	-0.118304715
182	0x3d4b15c3	0.0495813
183	0x3e086a47	0.13321792
184	0x3e03abc9	0.128585
185	0x3e042d85	0.1290799
186	0xbc9b9d53	-0.018995916
187	0xbe2866f0	-0.16445518
188	0xbe06b200	-0.13153839
189	0x3de18396	0.11011426
190	0x3cc0d1a8	0.023537472
191	0x3d523b90	0.051326334
192	0x3da6f773	0.08152666
193	0x3dbf3aad	0.093373634
194	0x3c505434	0.012715388
195	0xbcaef8cc	-0.02135887
196	0x3d0bb6d9	0.034109924
197	0xbd8fac67	-0.07015305
198	0xbd25b1e5	-0.040452857
199	0xbcf716b2	-0.03016219
200	0x3d233e9c	0.03985463
201	0x3d0c9876	0.034325086
202	0x3d9dccc2	0.0770507
203	0xbd0f537b	-0.034991723
204	0xbcc31bef	-0.02381703
205	0x3dc044eb	0.09388145
206	0x3e0596d0	0.13045812
207	0x3deb3b31	0.11485899
208	0x3de01475	0.10941402
209	0x3dfac7a6	0.12245111
210	0x3e119691	0.14217593
211	0x3e208377	0.1567515
212	0xbd09d930	-0.03365439
213	0xbd2cb00e	-0.042160086
214	0xbccc0dfb	-0.02490901
215	0x3d450075	0.04809614
216	0x3e3bf889	0.18356527
217	0x3e05bb0d	0.13059635
218	0xbd8e1a50	-0.069386125
219	0x3d98d138	0.0746178
220	0xbce2eed9	-0.027701782
221	0x3dab9971	0.08378876
222	0xbd7f23ec	-0.062290117
223	0xbc3a6822	-0.011377366
224	0x3e0ab41d	0.1354527
225	0x3d179fb6	0.037017547
226	0x3da53469	0.08066637
227	0x3dc1846c	0.094490856
228	0x3e15f099	0.14642562
229	0x3b867287	0.004103008
230	0xbdc472b9	-0.09592194
231	0x3df0942b	0.11747011
232	0xbd10abd2	-0.03532011
233	0xbd69c53c	-0.057072863
234	0x3e01b414	0.1266635
235	0x3d9edf74	0.07757464
236	0x3d6e481d	0.05817424
237	0xbd48fc38	-0.04906866
238	0xbc625a96	-0.013815543
239	0x3c866f31	0.016410442
240	0x3e456cbc	0.1927976
241	0x3e06bf0f	0.1315882
242	0x3da7cd9e	0.08193515
243	0x3e2877ff	0.16452025
244	0xbb970e73	-0.004609877
245	0x3b018a82	0.0019766395
246	0xbd093f11	-0.03350741
247	0x3d8bab99	0.06819839
248	0x3d058f1b	0.03260718
249	0xbcc3ae29	-0.023886757
250	0x3df569de	0.11983083
251	0x3e293291	0.16523196
252	0xbdae0228	-0.08496505
253	0x3d30eeea	0.043196596
254	0x3e0c2617	0.13686405
255	0x3e7345de	0.23757121

lstm.bias_hh_l0 f4 [256]
0	0x3e04a73f	0.12954424
1	0x3db66de7	0.08907681
2	0xbcb1dff5	-0.021713236
3	0x3c52de74	0.01287042
4	0x3e321ad0	0.1739304
5	0xbd9bfeb9	-0.07616944
6	0xbbbebd7f	-0.0058209295
7	0x3d3fa91b	0.04679213
8	0x3d4de312	0.05026538
9	0xbd818399	-0.063239284
10	0x3c6b3537	0.014355949
11	0x3db0c27c	0.08630845
12	0x3d53d81a	0.051719762
13	0x3e01830f	0.12647651
14	0x3de78a49	0.11305673
15	0x3e2b0a9f	0.1670327
16	0x3dad244b	0.08454188
17	0xbd7b0cb2	-0.061291404
18	0xbd06a158	-0.032868713
19	0x3dce6b08	0.10079008
20	0x3d23e52f	0.04001349
21	0x3d4eec60	0.050518394
22	0x3d2bb45b	0.041920047
23	0xbc852279	-0.01625179
24	0x3de00dcf	0.10940134
25	0xbc54145a	-0.012944305
26	0xbd4fb96b	-0.050713938
27	0xbd02fe30	-0.031980693
28	0xbd45966d	-0.04823916
29	0x3d04903a	0.032364108
30	0x3b8c4e4b	0.004281794
31	0x3d8a45cd	0.06751595
32	0x3d2a6d7c	0.04160832
33	0x3df18040	0.1179204
34	0x3e079869	0.13241734
35	0x3bd12209	0.006382231
36	0x3d974fd1	0.07388271
37	0xbcd60051	-0.026123198
38	0xbd6b934f	-0.05751353
39	0x3df8a501	0.12140847
40	0x3d762e0c	0.060102507
41	0xbd2d9522	-0.042378552
42	0x3e6c50a4	0.23077637
43	0xbd10d1be	-0.035356276
44	0x3e136e81	0.14397623
45	0x3dcebed2	0.1009499
46	0x3e284ee8	0.1643635
47	0x3d592599	0.05301437
48	0xbc0ee328	-0.00872115
49	0x3dcb4d63	0.0992687
50	0x3e0d38be	0.13791177
51	0x3d9a252e	0.07526623
52	0x3aa91ccc	0.0012902259
53	0x3d74e430	0.05978793
54	0xbd0c45f7	-0.03424641
55	0xbd25730e	-0.040392928
56	0xbd576632	-0.052587695
57	0x3d4aa7fa	0.0494766
58	0xbcb467af	-0.022022096
59	0x3d63fac6	0.055659078
60	0x3dc88638	0.09791225
61	0x3c02f702	0.007993462
62	0x3e28fb0f	0.16502021
63	0x3e35fc8b	0.17772119
64	0xbd77f1e1	-0.060533408
65	0xbdbd94ea	-0.09256919
66	0xbde8d3a9	-0.11368496
67	0x3df12a52	0.1177565
68	0xbd1852ec	-0.037188455
69	0xbd3cb48f	-0.04607063
70	0x3e0b4f5c	0.13604492
71	0xbd4fb20b	-0.050706904
72	0x3d146294	0.036226824
73	0x3d686bb4	0.05674334
74	0xbc4c4472	-0.0124674905
75	0x3d933922	0.071886316
76	0xbdd5b743	-0.10435345
77	0xbdc264d5	-0.094918884
78	0xbd3d940a	-0.04628376
79	0xbd7cd061	-0.061722163
80	0x3dbf7d14	0.09350029
81	0x3de1edc7	0.110316806
82	0x3b527992	0.0032115919
83	0x3c6b3bfd	0.014357564
84	0x3d8d79fb	0.069080316
85	0x3d8abd6e	0.06774412
86	0x3da8197b	0.08207985
87	0x3d93e3ba	0.0722117
88	0x3b1a2524	0.0023520673
89	0xbd598fee	-0.053115778
90	0x3d67a9ab	0.056558292
91	0x3d96f1fb	0.07370373
92	0xbc4f5bdf	-0.012656181
93	0x3e09968a	0.13436332
94	0x3d49b77f	0.04924726
95	0x3dc712c5	0.09720377
96	0x3d762900	0.060097694
97	0xbd90cc3b	-0.07070204
98	0x3d4f8670	0.05066532
99	0xbc1166bd	-0.008874592
100	0x3d01fe3b	0.031736594
101	0xbdaa00aa	-0.08300908
102	0x3de4b0ea	0.11166556
103	0x3d43e045	0.047821302
104	0xbd7916de	-0.060812823
105	0xbd850faa	-0.06497128
106	0x3e080bfa	0.13285819
107	0x3d8348d0	0.06410372
108	0x3d6f6a00	0.0584507
109	0xbdd55975	-0.10417453
110	0xbd05bf35	-0.032653052
111	0x3daeb8e8	0.08531362
112	0x3d54868f	0.051886138
113	0xbdb406d9	-0.087903686
114	0xbdf7c57a	-0.120982125
115	0xbd8954d3	-0.06705632
116	0x3cae3341	0.021264674
117	0xbdd204ea	-0.102548435
118	0xbddbfa2d	-0.107410766
119	0x3d8baa37	0.06819575
120	0x3d522fc8	0.0513151
121	0xbd0126df	-0.03153121
122	0x3ca4a867	0.020099832
123	0xbb92e63f	-0.004483014
124	0x3c3c6d65	0.011500691
125	0xbd9deb86	-0.07710938
126	0xbd89ef38	-0.067350805
127	0xbd855ad5	-0.065114655
128	0xbd7c0473	-0.06152768
129	0x3e1b8b4a	0.15189853
130	0x3c711807	0.014715201
131	0xbe044a74	-0.12919027
132	0x3d733e55	0.059385616
133	0x3dbc5cef	0.09197413
134	0x3dedc155	0.11609141
135	0x3d77ff28	0.06054607
136	0x3e0e5b7e	0.13902089
137	0x3d0de670	0.03464359
138	0xbe21c4b8	-0.15797698
139	0x3d44a6fe	0.04801082
140	0x3e3010c5	0.17193897
141	0x3e003ef8	0.1252402
142	0x3e05030a	0.1298944
143	0xbd8cce7c	-0.06875321
144	0xbccbdac6	-0.024884593
145	0xba2bfdc7	-0.0006560948
146	0xbc85c896	-0.016330998
147	0x3c4056ff	0.0117394915
148	0x3df37a3b	0.11888548
149	0xbdd24c82	-0.10268499
150	0xbd89ebcf	-0.0673443
151	0x3dec82a9	0.11548359
152	0x3d66c102	0.05633641
153	0x3d3d0102	0.04614354
154	0xbdbcca9e	-0.09218334
155	0xbdde20a3	-0.10846069
156	0x3ca4256f	0.020037381
157	0x3d5fb3d1	0.054614846
158	0xbd5dfc87	-0.054195907
159	0x3d8847d4	0.06654325
160	0x3daf1d33	0.08550491
161	0x3cfd2763	0.03090257
162	0xbe152d40	-0.14568043
163	0x3c129d39	0.008948618
164	0xba28c4a5	-0.0006437994
165	0xbd9db172	-0.07699861
166	0xbd9fe1d7	-0.078067474
167	0x3dac6645	0.08417944
168	0x3defa298	0.11700934
169	0x3e09aba4	0.13444382
170	0x3d051eb1	0.032499973
171	0x3cd511f6	0.026009541
172	0xbce17180	-0.027519941
173	0xbdf7ce80	-0.120999336
174	0x3c404767	0.011735774
175	0x3d91cd28	0.071192086
176	0xbd799287	-0.060930755
177	0x3dffee05	0.124965705
178	0xbdc37704	-0.09544185
179	0xbc69bf41	-0.01426679
180	0xbddc6e39	-0.10763211
181	0xbd93377f	-0.071883194
182	0x3e034021	0.12817432
183	0xbcaafd19	-0.02087264
184	0x3de6a1c7	0.11261325
185	0x3dc8a0e2	0.09796311
186	0x3e088499	0.13331832
187	0xbdcde315	-0.10053078
188	0xbc799df1	-0.01523541
189	0x3c000117	0.00781276
190	0x3dcb1ed1	0.09917987
191	0xbd77aff6	-0.060470544
192	0x3d65a634	0.056066707
193	0x3d8f1c35	0.06987802
194	0x3b7930ca	0.0038023465
195	0xbda6ca54	-0.0814406
196	0x3e01f949	0.12692751
197	0xbd3850db	-0.044998985
198	0x3db80131	0.08984602
199	0x3d115015	0.035476763
200	0x3dc084c5	0.09400324
201	0xbd3df9d3	-0.04638083
202	0x3c98c4a1	0.018648447
203	0xbd0bf3e8	-0.034168154
204	0x3d8b4ff9	0.06802363
205	0x3e1a34d7	0.1505922
206	0x3ba7e1e0	0.005123362
207	0xbcfd629d	-0.030930812
208	0x3e0a99af	0.13535188
209	0x3d9877fa	0.07444759
210	0x3dc27652	0.09495224
211	0xbcca4f47	-0.024696006
212	0xbceab780	-0.028651953
213	0x3e2235ed	0.15840884
214	0x3e58b8f6	0.21164307
215	0x3e15ad1f	0.14616822
216	0x3c881192	0.01660994
217	0xbd665ce9	-0.05624095
218	0x3cee03d9	0.02905457
219	0x3c31a7f9	0.01084327
220	0x3cd6b9db	0.02621167
221	0x3d95dc62	0.07317425
222	0x3dfc1c24	0.12310055
223	0xbc7c2d67	-0.015391684
224	0x3dd2d8d2	0.102952614
225	0x3e34e529	0.17665543
226	0xbcb9d4ca	-0.022684474
227	0x3e19a005	0.15002449
228	0x3dcd7d3f	0.100336544
229	0x3daaa620	0.08332467
230	0xbd802e41	-0.06258822
231	0xbd73c095	-0.059509832
232	0x3e2a0529	0.16603531
233	0x3e064713	0.1311305
234	0x3e0ab8b4	0.13547021
235	0x3dc2e33b	0.09515997
236	0xbc53f3bd	-0.01293653
237	0xbb61e511	-0.003446881
238	0xbd39bafb	-0.045344334
239	0xbd6970e8	-0.05699244
240	0x3d97c152	0.0740992
241	0x3e4fede9	0.203056
242	0x3dc32b7e	0.0952978
243	0x3e21b2af	0.15790819
244	0xbd0785b5	-0.033086497
245	0x3b3f0a4e	0.002915043
246	0x3d1d2f4c	0.038375184
247	0xbd4b8c0f	-0.049694117
248	0x3df05eaa	0.11736806
249	0x3e374031	0.17895581
250	0xbd8426a8	-0.064526856
251	0x3d4faec4	0.05070378
252	0xbdcae08f	-0.099061124
253	0x3e01aa6d	0.12662669
254	0x3cd0c3de	0.025484022
255	0x3e5e72ce	0.21723482

lstm.weight_ih_l1 f4 [256, 64]
0	0x3bf114a7	0.0073571983
1	0xbdc8ba66	-0.09801178
2	0x3c82439d	0.015901381
3	0xbe20a125	-0.15686472
4	0x3d54a189	0.051911864
5	0xbd40808e	-0.0469976
6	0x3d8a9503	0.06766703
7	0xbcbd2094	-0.023086824
8	0x3dcb264c	0.09919414
9	0xbc847d67	-0.016173078
10	0x3d02d822	0.0319444
11	0xbd2ba745	-0.041907568
12	0x3e117768	0.14205706
13	0xbd65ad20	-0.056073308
14	0x3d8cfc75	0.0688409
15	0x3da46a76	0.08028118
16	0xbd62ce5d	-0.055372585
17	0xbe0eca52	-0.13944367
18	0x3e15d8a0	0.14633417
19	0xbe1f64ef	-0.15565847
20	0x3e446ddc	0.19182533
21	0xbe1139ed	-0.14182253
22	0xbdf135f4	-0.11777869
23	0x3dac2357	0.08405178
24	0xbdfc7b3f	-0.12328195
25	0x3d506ba2	0.050883897
26	0xbd49e30f	-0.049288806
27	0x3b3cd51b	0.0028813544
28	0xbe00b79d	-0.12570043
29	0xbe15b2a9	-0.14618935
30	0xbb31bd42	-0.0027120863
31	0x3dec2cba	0.115319684
32	0xbd21da67	-0.039514925
33	0x3ca483de	0.02008241
34	0xbe3cf42f	-0.18452524
35	0xbd0fb945	-0.035088796
36	0xbe1989bc	-0.14993948
37	0xbdef1506	-0.11673932
38	0xbdc84e32	-0.097805396
39	0x3db97b57	0.09056728
40	0xbd949f49	-0.07256944
41	0xbdd138b4	-0.102158934
42	0x3d45b78f	0.04827076
43	0xbca424ca	-0.020037074
44	0x3d6c4a77	0.057688203
45	0x3c4af62b	0.012387793
46	0xbca0cbb8	-0.01962839
47	0x3a7ae9b2	0.00095715665
48	0xbe24311b	-0.16034357
49	0x3de838d7	0.11338966
50	0x3d35c6ae	0.04437893
51	0xbbdac5f6	-0.006676431
52	0x3cfef88b	0.031124374
53	0x3d685c13	0.056728434
54	0x3d7893da	0.060687877
55	0x3dc754a5	0.097329415
56	0xbd280c6d	-0.041027475
57	0x3c834012	0.016021762
58	0x3caabc89	0.020841854
59	0xbd5a6148	-0.05331543
60	0xbdd1475b	-0.10218688
61	0x3cbdcfae	0.023170318
62	0x3c81993a	0.015820134
63	0x3cffe7bd	0.031238431
64	0x3d22383b	0.039604407
65	0xbd302157	-0.043000545
66	0xbd851a5c	-0.06499168
67	0xbd1f4b3f	-0.03889012
68	0x3e129d14	0.14317733
69	0xbd6b4227	-0.057436135
70	0xbcb05dcc	-0.0215291
71	0xbd22b115	-0.03971966
72	0xbd42bf9b	-0.04754601
73	0x3d9e21eb	0.07721313
74	0x3d530e07	0.05152705
75	0xbd3df3b3	-0.046374988
76	0xbd80be22	-0.06286265
77	0xbb31050d	-0.0027011067
78	0x3db35192	0.08755793
79	0xbda1ef59	-0.0790698
80	0xbd3be6f2	-0.045874543
81	0x3dfa4fb6	0.12222235
82	0xbce6ad4b	-0.028158804
83	0x3dbb1bf1	0.09136189
84	0x3df17861	0.117905386
85	0xba0d8629	-0.00053987146
86	0xbc9aa2d5	-0.018876472
87	0xbd27682e	-0.040870838
88	0xbd17170e	-0.03688722
89	0x3d6e5ffa	0.058197
90	0xbd5ed9d0	-0.05440694
91	0x3bcc542b	0.0062356195
92	0x3dabc6d6	0.08387534
93	0xbe0f4e4a	-0.13994709
94	0x3e010377	0.12598978
95	0x3dc9aa5f	0.09846949
96	0xbdbb7d1a	-0.091547206
97	0x3dfb06e1	0.122571714
98	0xbcf34d70	-0.029700011
99	0xbe252ab4	-0.16129571
100	0x3d8b1eb5	0.06792966
101	0xbd31377b	-0.0432658
102	0x3c2d5eb1	0.010581658
103	0xbd226a7e	-0.03965234
104	0xbdf7c45b	-0.12097999
105	0x3d9581c4	0.073001415
106	0x3d7be28f	0.06149536
107	0x3e10329e	0.14081809
108	0x3da89463	0.082314275
109	0x3cf552ac	0.029946648
110	0xbb88ed3d	-0.0041786716
111	0x3db3a2e9	0.08771307
112	0xbdd365fc	-0.10322186
113	0xbd2a2fd3	-0.041549515
114	0xbc925717	-0.017863793
115	0x3d688521	0.056767587
116	0x3d993646	0.07481055
117	0xbe150172	-0.14551333
118	0x3e00dadb	0.12583487
119	0x3e0dafde	0.1383662
120	0x3dadec83	0.08492377
121	0x3ce416be	0.027842876
122	0xbc8fe933	-0.017567253
123	0xbda70a0e	-0.08156215
124	0xbdd2c786	-0.10291962
125	0x3cd6b22b	0.026208004
126	0xbd4d3ff0	-0.050109804
127	0x3c6f95b3	0.014623093
128	0xbb651cbe	-0.0034959759
129	0x3d371fee	0.044708185
130	0xbdb953b0	-0.09049165
131	0xbc2c0cb2	-0.010501074
132	0x3d4632f4	0.048388436
133	0x3e2b56ac	0.16732281
134	0x3da935db	0.08262225
135	0x3d75cf07	0.06001189
136	0xbdaedfb6	-0.08538763
137	0x3cc855e2	0.024455015
138	0xbe21ae5a	-0.15789166
139	0x3d711f20	0.058867574
140	0xbd80b92e	-0.0628532
141	0x3cf6b5d9	0.030116009
142	0xbddea209	-0.108707495
143	0xbd80d839	-0.06291241
144	0xb925a631	-0.00015797537
145	0xbdeea824	-0.11653164
146	0x3d046b47	0.03232887
147	0xbd340356	-0.043948494
148	0x3db93c89	0.09044749
149	0x3c87cfb0	0.016578525
150	0xbc865065	-0.016395757
151	0x3d8a76cc	0.0676094
152	0xbe044b66	-0.12919387
153	0xbd7c6c44	-0.061626688
154	0xbd13eaf6	-0.036112748
155	0x3bd7c172	0.00658434
156	0x3d838a09	0.064228125
157	0x3d96d4fe	0.07364844
158	0xbd4e1fea	-0.050323404
159	0x3c135445	0.008992259
160	0x3d2ce123	0.042206895
161	0xbd2f77b4	-0.042838767
162	0xbbf8c457	-0.007591765
163	0xbd9c5f75	-0.076353945
164	0xbdf55fda	-0.11981173
165	0x3ca91e7a	0.020644415
166	0xbde455af	-0.11149155
167	0x3dbd0b6a	0.09230693
168	0x3e1b9313	0.15192823
169	0x3df5f61d	0.12009833
170	0x3dbea91b	0.09309598
171	0x3d48a41a	0.048984624
172	0xbcc363bf	-0.023851274
173	0x3d4d1e49	0.05007771
174	0x3de60ea6	0.11233263
175	0x3d314234	0.043276027
176	0xbdf6833a	-0.12036748
177	0x3da11360	0.078650236
178	0x3d645e29	0.05575386
179	0xbcf46945	-0.029835353
180	0xbd480d28	-0.04884067
181	0xbdbdba4c	-0.09264049
182	0x3cfa5729	0.03055914
183	0x3d8cad08	0.068689406
184	0x3c1efcd3	0.009703833
185	0xbd606712	-0.054785796
186	0xbd325e53	-0.043546986
187	0xbd819a91	-0.06328309
188	0xbe09beda	-0.1345171
189	0xbd57ff65	-0.052733798
190	0xbd71a83b	-0.058998328
191	0x3c7c70c0	0.015407741
192	0x3cd8de59	0.026473211
193	0xbd06b2b3	-0.032885265
194	0x3dc4e3c6	0.09613757
195	0xbce0208b	-0.027359268
196	0xbd0444f6	-0.03229233
197	0x3e21514f	0.15753673
198	0x3dd604f3	0.10450163
199	0xbdc85fc3	-0.0978389
200	0x3da8153a	0.08207174
201	0xbc7972c5	-0.015225117
202	0xbd97392a	-0.0738395
203	0x3c9777c4	0.018489726
204	0xbd56d256	-0.052446686
205	0x3d685342	0.056720026
206	0xbdb87b72	-0.0900792
207	0x3df9e3a1	0.1220162
208	0xbc88a56b	-0.01668044
209	0x3d2a7660	0.041616797
210	0xbd4e0c3d	-0.05030464
211	0xbdbfd74e	-0.09367238
212	0x3cf925ef	0.030413596
213	0xbddc239b	-0.10748979
214	0x3cf19a1e	0.029492434
215	0x3d65caf9	0.056101773
216	0x3d8b50ce	0.06802522
217	0xbcf8361b	-0.030299237
218	0x3d938792	0.07203592
219	0x3db4e11f	0.08832001
220	0x3db4a229	0.08819992
221	0xbe051aeb	-0.1299855
222	0x3d37bed8	0.044859737
223	0x3e0cfd7d	0.13768573
224	0xbda0a809	-0.0784455
225	0x3d7256bd	0.05916475
226	0xbd61da5b	-0.05513988
227	0x3ded9f61	0.11602665
228	0x3d0cbcb8	0.034359664
229	0xbd147e4d	-0.036253262
230	0x3d8d405d	0.06897042
231	0x3d7453b4	0.059650138
232	0x3df86ac4	0.12129739
233	0xbdd83c8a	-0.10558422
234	0x3e18594b	0.14877813
235	0x3d2b243a	0.041782595
236	0x3d279db8	0.040921897
237	0x3dbfd184	0.09366134
238	0xbda3ac4d	-0.07991848
239	0x3d897034	0.06710854
240	0x3dbc3a43	0.091908
241	0x3dd12502	0.10212137
242	0xbd8ea639	-0.06965298
243	0x3bf350a6	0.0074253855
244	0xbdc98258	-0.09839314
245	0x3ce7aade	0.028279718
246	0x3d6a288c	0.057167575
247	0x3d0960eb	0.033539694
248	0x3df4049d	0.119149424
249	0xbde0117d	-0.109408356
250	0x3d35fa04	0.044427887
251	0xbda7c8fa	-0.0819263
252	0xbdd1f643	-0.10252049
253	0x3caf8d22	0.021429602
254	0x3d81019d	0.06299136
255	0xbde0433a	-0.109503224

lstm.weight_hh_l1 f4 [256, 64]
0	0xbdf41c8a	-0.11919506
1	0xbdc84961	-0.09779621
2	0xbbf47e20	-0.0074613243
3	0xbda72143	-0.08160641
4	0xbdef6f18	-0.11691111
5	0xbe1c250f	-0.15248512
6	0xbe070dbd	-0.13188834
7	0xbac55118	-0.0015054075
8	0x3c2be889	0.010492452
9	0xbdc543c4	-0.09632066
10	0x3d486a8d	0.04892974
11	0x3d07ed91	0.033185545
12	0x3db8cde0	0.090236425
13	0xbb7a3a7d	-0.0038181834
14	0x3d10af6d	0.03532355
15	0xbd04dfe7	-0.032440092
16	0xbe2a0c8b	-0.16606347
17	0xbd84e531	-0.06489027
18	0x3c8d8c54	0.017278828
19	0xbe03d340	-0.12873554
20	0xbd66a635	-0.05631085
21	0xbd8a6890	-0.06758225
22	0x3dae2bd0	0.0850445
23	0x3dbcb0f0	0.09213436
24	0xbe31b74f	-0.17355083
25	0x3e0b7ab8	0.13621032
26	0xbd4cbdd2	-0.049985714
27	0xbdaf8cba	-0.08571763
28	0xbd3a730d	-0.045519877
29	0xbca9c51f	-0.020723877
30	0x3d85a977	0.065264635
31	0x3d58a0a7	0.052887585
32	0xbc09787a	-0.00839054
33	0xbcf3f7e3	-0.029781288
34	0x3dec6a72	0.1154374
35	0x3d9ed244	0.07754949
36	0x3d4ac805	0.04950716
37	0xbd809b47	-0.06279617
38	0xbe1cef53	-0.1532567
39	0x39b2f985	0.00034136712
40	0xbcb0f93b	-0.021603217
41	0xbe07f526	-0.1327711
42	0x3dc3dddd	0.095638014
43	0x3e191b82	0.149519
44	0x3ddf97ec	0.10917649
45	0xbd899560	-0.06717944
46	0x3da948ad	0.08265815
47	0xbe1a628d	-0.15076657
48	0xbdebebbc	-0.11519572
49	0xbd65b7eb	-0.0560836
50	0xbc19fc34	-0.009398509
51	0xbd08f73c	-0.033438906
52	0xbca3c9dd	-0.019993717
53	0xbbce50ef	-0.006296269
54	0xbe27c1df	-0.1638255
55	0xbdcf5a5d	-0.10124657
56	0xbe38e867	-0.18057404
57	0xbd8fc5e8	-0.070201695
58	0x3d666e78	0.056257695
59	0xbc12e0fd	-0.008964774
60	0x3dd98b8d	0.1062232
61	0xbdcbc24d	-0.09949169
62	0x3d526682	0.05136729
63	0xbd23293c	-0.039834246
64	0x3d19bf25	0.037535805
65	0xbdec635a	-0.11542387
66	0x3d968c58	0.07350987
67	0x3de4fe41	0.111813076
68	0xbd0fc1b0	-0.035096824
69	0xbda9c118	-0.08288783
70	0xbdcb208e	-0.09918319
71	0x3dfab64f	0.12241804
72	0x3d8ab0cb	0.06772002
73	0xbdcf9e05	-0.10137562
74	0xbcd00eef	-0.025397746
75	0x3e09e7d5	0.13467343
76	0xbc1668eb	-0.009180288
77	0xbcc9f993	-0.02465514
78	0x3da4455d	0.080210425
79	0x3de6626a	0.1124924
80	0x3d10fc76	0.035397016
81	0x3d91769b	0.071027
82	0xbc4288cf	-0.011873438
83	0xbb9b143b	-0.0047326363
84	0xbd540b76	-0.051768743
85	0xbb190276	-0.0023347414
86	0x3e0a03a0	0.13477945
87	0xbd87e9af	-0.066363685
88	0xbd90b694	-0.07066074
89	0xbd7b918c	-0.0614181
90	0x3e160e48	0.14653885
91	0x3cc1eb3d	0.02367174
92	0xbcc6f9d2	-0.024289045
93	0x3c5f86b5	0.0136429565
94	0xbc0e1553	-0.008672076
95	0x3ce5def0	0.028060406
96	0x3cf1e96f	0.029530255
97	0xbcf5b1f1	-0.029992076
98	0xbbfb6f22	-0.00767316
99	0x3c513b60	0.012770504
100	0x3c063d95	0.008193393
101	0x3d69504c	0.056961343
102	0xbdb486f7	-0.08814805
103	0x3d60f8fc	0.05492495
104	0xbe197935	-0.14987643
105	0x3c10a779	0.008828991
106	0x3e189570	0.14900756
107	0x3da844a9	0.08216221
108	0xbdd3b5db	-0.103374206
109	0x3cfddab4	0.030988075
110	0x3d7b8c12	0.06141288
111	0xbdbf119a	-0.09329529
112	0xbda35bc0	-0.07976484
113	0xbe0b9545	-0.1363116
114	0x3dea368b	0.114361845
115	0xbc0b2b39	-0.008494192
116	0x3d997758	0.07493466
117	0x3dac99e0	0.08427787
118	0xbd2dbec4	-0.042418256
119	0x3dc0bf31	0.09411467
120	0x3d1984e3	0.037480246
121	0xbc034b7f	-0.008013605
122	0xbdb37b21	-0.08763719
123	0xbdfeb512	-0.1243688
124	0xbd274745	-0.040839452
125	0xbd6d1f88	-0.0578914
126	0x3d36a7aa	0.04459349
127	0x3c930539	0.017946826
128	0xbdb97595	-0.0905563
129	0x3ca95f47	0.020675315
130	0xbd84c7ad	-0.06483398
131	0xba292e22	-0.00064537127
132	0x3db2f2d7	0.08737724
133	0xbde4a235	-0.11163751
134	0xbd46d308	-0.0485411
135	0x3d7e3df6	0.06207081
136	0x3db1490b	0.0865651
137	0xbd98be9c	-0.07458231
138	0xbdb58c7f	-0.08864688
139	0x3e07d788	0.13265812
140	0x3d30ad4f	0.04313403
141	0xbdd38cbf	-0.103295796
142	0xbd8bad56	-0.068201706
143	0xbbc73458	-0.006079238
144	0xbe155dc1	-0.14586546
145	0x3b976b93	0.004620978
146	0xbd370403	-0.04468156
147	0x3bd70ec2	0.0065630386
148	0xbd9c7e8f	-0.07641327
149	0x3dfa04a6	0.12207918
150	0x3cb1a4f9	0.02168511
151	0xbd2802d6	-0.04101833
152	0xbdb57b23	-0.08861377
153	0x3d949551	0.07255042
154	0x3dd3db34	0.10344544
155	0x3c5b76f7	0.013395063
156	0x3d8f10a7	0.06985598
157	0x3d601de0	0.05471599
158	0xbd33b1a0	-0.04387057
159	0xbd681b4a	-0.05666665
160	0xbdbac5aa	-0.09119733
161	0x3d761c17	0.060085382
162	0xbd1e3b05	-0.038630504
163	0xbc22d5f0	-0.009938702
164	0x3b9cd41e	0.0047860285
165	0x3dbe02de	0.092778906
166	0xbe0d53aa	-0.13801447
167	0xbc20999e	-0.00980225
168	0xbb8d8249	-0.0043185097
169	0x3d325991	0.04354245
170	0xbd8a816d	-0.06762967
171	0x3da0488a	0.07826336
172	0xbd835691	-0.064129956
173	0xbb73d84d	-0.0037207783
174	0xbd9e8774	-0.077406794
175	0x3d89c6b1	0.067273505
176	0xbd8458d8	-0.06462258
177	0xbc966224	-0.018357344
178	0x3dc023d0	0.09381831
179	0x3dbb9e82	0.09161092
180	0x3bd0875c	0.0063637923
181	0xbd00d57e	-0.031453602
182	0x3d6b21a0	0.057405114
183	0x3dbe8133	0.093019865
184	0xbdbe7eb6	-0.09301512
185	0xbde10c02	-0.109886184
186	0x3d018a21	0.03162587
187	0xbd8a214c	-0.06744632
188	0xbc76c123	-0.015060696
189	0x3dc816f7	0.09770005
190	0x3b857a8b	0.004073446
191	0x3d07c84b	0.03315
192	0x3d6a91ac	0.05726783
193	0xbde818e6	-0.11332874
194	0x3d2d5756	0.04231962
195	0xbd2c2bb3	-0.042033862
196	0xbd7ca7ba	-0.061683394
197	0xbc5db2a6	-0.013531363
198	0xbd42dcaf	-0.04757374
199	0x3da42235	0.08014337
200	0xbdaf5c3c	-0.08562514
201	0xbdafb2cd	-0.085790254
202	0xbdb9f7bf	-0.09080457
203	0x3d6f52f1	0.05842871
204	0x3da92e90	0.08260834
205	0xbda41e78	-0.08013624
206	0xbd34d325	-0.044146676
207	0xbc9b460c	-0.0189543
208	0xbdb0882f	-0.08619725
209	0xbd9ca0d0	-0.0764786
210	0xbde2181d	-0.110397555
211	0x3ac8c859	0.0015318497
212	0x3d6aeebe	0.05735659
213	0x3d6e483a	0.05817435
214	0xbdc29b9a	-0.09502335
215	0x3c4646cc	0.01210184
216	0x3d34b135	0.04411431
217	0xbde51a66	-0.11186676
218	0xbbae35f0	-0.0053164884
219	0xbdb24723	-0.087049745
220	0xbdcb8361	-0.09937168
221	0x3de6b547	0.11265045
222	0xbc8df338	-0.01732789
223	0xbd087fc6	-0.03332498
224	0x3b852841	0.0040636365
225	0xbdc991f7	-0.09842294
226	0xbd0fb8a1	-0.035088185
227	0x3a470197	0.00075914845
228	0x3c2d40d4	0.010574538
229	0xbddb1b08	-0.10698515
230	0xbd83f6c3	-0.064435504
231	0xbd9ff712	-0.07810797
232	0x3d3586bc	0.044317946
233	0x3d9948ef	0.07484614
234	0xbd8eb8fb	-0.06968876
235	0x3de72ac0	0.11287451
236	0x3c55f174	0.013058055
237	0x3d206d2d	0.03916662
238	0x3d851b93	0.064994
239	0x3cf30d3f	0.029669402
240	0xbd66d4ed	-0.056355406
241	0xbddb5cf5	-0.107110895
242	0xbdc98182	-0.09839155
243	0x3e0249d1	0.12723471
244	0x3de6a881	0.11262608
245	0xbdbf74dc	-0.09348461
246	0xbe0e557d	-0.13899799
247	0xbd9a174a	-0.07523973
248	0xbd5df11e	-0.054185025
249	0x3df93c1c	0.12169668
250	0xbc854141	-0.016266467
251	0xbd894b46	-0.067038104
252	0xbd8f875e	-0.07008241
253	0x3dc3bc32	0.0955738
254	0xbc1c1fd7	-0.009529076
255	0x3df3a09b	0.118958674

lstm.bias_ih_l1 f4 [256]
0	0x3d4a4b5d	0.04938828
1	0xbc8cf683	-0.01720739
2	0xbd33598f	-0.04378658
3	0x3d90a6b5	0.07063047
4	0x3e32eead	0.1747386
5	0x3dc9473c	0.0982804
6	0xbc1fab2d	-0.009745401
7	0x3e0dd599	0.13851012
8	0x3df52e01	0.11971665
9	0xbd5b28ba	-0.053505637
10	0xbd5403c5	-0.051761407
11	0x3db84339	0.08997197
12	0xbd5d0330	-0.053958118
13	0x3d48410b	0.048890155
14	0x3dcbc7dd	0.0995023
15	0xbbf5ac3d	-0.007497339
16	0xbd423560	-0.047414184
17	0xbc793a10	-0.015211597
18	0xbd148977	-0.03626391
19	0xbc7628e7	-0.0150244
20	0x3d88f6af	0.06687676
21	0xbcff0c17	-0.031133695
22	0x3e57854b	0.21046941
23	0xbcbad868	-0.022808269
24	0x3cb3690b	0.021900674
25	0x3dd48499	0.103768535
26	0x3dc9c81c	0.09852621
27	0x3d2835d3	0.041066956
28	0x3e2f8534	0.17140657
29	0xbd66ec99	-0.05637798
30	0xbcdfbc76	-0.027311545
31	0x3db8908f	0.09011947
32	0x3df8ca1c	0.12147924
33	0x3e201dab	0.15636317
34	0x3ddcdf26	0.1078475
35	0x3dfcb785	0.12339691
36	0x3da9c00c	0.08288583
37	0x3de09f34	0.109678656
38	0xbd417e07	-0.04723933
39	0x3e1a2a42	0.15055183
40	0x3de13932	0.10997237
41	0x3dfb44d3	0.122689866
42	0x3d954bb6	0.07289831
43	0xbca9ed0c	-0.020742916
44	0x3c14881c	0.009065654
45	0x3de3f758	0.111311615
46	0x3e1b5ebf	0.15172862
47	0xbc461b20	-0.012091428
48	0xbb9b7d39	-0.0047451523
49	0x3d5af1a8	0.053453118
50	0x3d930156	0.07177989
51	0x3db9d6ca	0.09074171
52	0x3e1b62c9	0.15174402
53	0x3ccdbcc2	0.02511442
54	0x3e19a991	0.1500609
55	0x3e2a6329	0.16639389
56	0x3e013719	0.12618674
57	0xbd49b37c	-0.049243435
58	0x3df3b500	0.118997574
59	0xbdaad1d4	-0.08340803
60	0xbc9625da	-0.018328596
61	0x3e1b1bd6	0.15147337
62	0x3e258e66	0.16167602
63	0x3e0856e4	0.13314396
64	0x3c47e74b	0.012201141
65	0x3dd20838	0.10255474
66	0x3daccca5	0.0843747
67	0x3db8b7e0	0.090194464
68	0xbdb84b7e	-0.08998774
69	0xbde238d2	-0.11045994
70	0xbda474b3	-0.08030071
71	0xbd8c946d	-0.068642475
72	0xbd898764	-0.06715277
73	0xbccddb28	-0.025128916
74	0x3d70f076	0.05882307
75	0xbd960a76	-0.07326214
76	0xbd97b686	-0.074078605
77	0x3a8a35df	0.0010544619
78	0xbdd4f453	-0.10398164
79	0x3c32c7ab	0.010911862
80	0xbd932c1b	-0.07186147
81	0x3d18fff8	0.037353486
82	0x3df92e45	0.12167028
83	0x3d311fbb	0.04324315
84	0xbdb10de1	-0.08645225
85	0xbce1748c	-0.027521394
86	0x3c52a2da	0.01285621
87	0xbb8005c6	-0.0039069382
88	0x3e01615c	0.12634796
89	0x3c707219	0.0146756405
90	0x3ca651c7	0.020302666
91	0xbdd5b39c	-0.104346484
92	0xbd7b2f3b	-0.06132434
93	0x3c7d62c1	0.015465439
94	0xbd3860cf	-0.0450142
95	0x3bc49ca2	0.0060001174
96	0xbdc4ce42	-0.09609653
97	0xbb3abb43	-0.0028492964
98	0xbdc03b60	-0.09386325
99	0x3dc569b8	0.09639305
100	0xbdba34bf	-0.09092092
101	0x3d4ed8c6	0.0504997
102	0xbc78fe0c	-0.015197288
103	0xbca01248	-0.019539967
104	0xbbc73d39	-0.0060802964
105	0x3ddad4d3	0.10685124
106	0xbc7405d4	-0.014893968
107	0x3d9e775a	0.07737608
108	0x3cbc63a4	0.022996731
109	0x3d02f022	0.03196729
110	0xbb80625f	-0.0039179767
111	0xbd2fd848	-0.04293087
112	0xbc652bef	-0.013987525
113	0x3d7e56c9	0.062094484
114	0xbdfc9775	-0.12333576
115	0x3dc25011	0.09487928
116	0x3cbd12a0	0.02308017
117	0x3c186145	0.009300535
118	0x3c20c136	0.00981169
119	0xbd8bfa3c	-0.06834838
120	0xbd556108	-0.05209449
121	0x3de38e52	0.1111113
122	0x3d4f015a	0.0505384
123	0xbd37126a	-0.044695295
124	0x3a4b0d81	0.00077458477
125	0xbc40568f	-0.011739387
126	0x3dca54b2	0.098794356
127	0xbe099b51	-0.13438155
128	0xbc31977e	-0.010839341
129	0xbdb60476	-0.088875696
130	0x3d7e76bd	0.062124956
131	0xbccadde1	-0.024764003
132	0xbd12fd92	-0.035886355
133	0xbdb21767	-0.0869587
134	0xbdfdfecd	-0.12402115
135	0xbd63fb4a	-0.05565957
136	0xbd33ca98	-0.04389438
137	0x3d25dcec	0.04049389
138	0x3e0218f5	0.12704833
139	0x3e10ca49	0.14139666
140	0x3dd1d007	0.10244756
141	0xbd6ac473	-0.057316255
142	0x3ddcc978	0.107806146
143	0x3d9537c9	0.07286031
144	0xbde8ff36	-0.113768026
145	0xbdc43fac	-0.09582457
146	0xbd200b41	-0.039073233
147	0xbd6b8d98	-0.05750808
148	0xbdbd4785	-0.09242157
149	0x3df7d1b3	0.12100544
150	0xbd90a8f4	-0.07063475
151	0x3dfc1e76	0.123104975
152	0xbe0918b5	-0.13388331
153	0x3c437e43	0.011931959
154	0x3d43d6c4	0.04781224
155	0xbe1b38bf	-0.15158366
156	0x3d99f19f	0.07516789
157	0x3dfeae0f	0.12435543
158	0x3de25f0e	0.110532865
159	0x3e0a3560	0.13496923
160	0xbd251956	-0.040307365
161	0x3d1c10d1	0.038101975
162	0xbd3f8f29	-0.046767388
163	0xbd5e1b83	-0.054225456
164	0xbc84754d	-0.016169215
165	0x3c8bdb4e	0.017072346
166	0x3d127a0e	0.03576093
167	0x3d4301e6	0.047609232
168	0xbdaee46e	-0.08539663
169	0xbd2d18c4	-0.042259946
170	0x3dc1b4c4	0.094583064
171	0x3d287272	0.04112477
172	0x3e127b88	0.14304936
173	0x3d57e3e0	0.052707553
174	0xbdf2298d	-0.118243314
175	0xbdae7b3c	-0.08519599
176	0xbd9a525c	-0.0753524
177	0xbda94229	-0.08264572
178	0x3b88dc16	0.004176627
179	0x3debc367	0.115118794
180	0xbdc42aeb	-0.095784985
181	0xbdb01a40	-0.08598757
182	0x3db57fa6	0.08862238
183	0xbe010cee	-0.12602589
184	0xbe190471	-0.149431
185	0x3b965a0e	0.004588372
186	0xbdc15ebc	-0.09441897
187	0xbd48208a	-0.048859157
188	0x3dd7da6c	0.105397075
189	0x3d007fbe	0.031371824
190	0xbc856a2a	-0.016285975
191	0x3d38f377	0.04515406
192	0xbb5ea6f9	-0.0033974035
193	0x3ce06159	0.027390169
194	0x3e3009fb	0.17191307
195	0x3df4ead0	0.119588494
196	0xbd399c1c	-0.045314893
197	0x3cf0fa4a	0.029416222
198	0xbc72b917	-0.014814637
199	0xbcee5e29	-0.029097633
200	0x3dbda634	0.09260216
201	0x3e0c9963	0.13730387
202	0x3e030ffe	0.1279907
203	0x3e285c4f	0.16441463
204	0xbd81a05b	-0.063294135
205	0x3df6f2e6	0.12058048
206	0x3e3998a6	0.18124637
207	0x3dc2725e	0.0949447
208	0xbda4c88f	-0.08046066
209	0x3e22513a	0.15851298
210	0xbdaba14a	-0.08380373
211	0x3d9bbc04	0.076042205
212	0xbcfee90d	-0.031116987
213	0x3e183216	0.14862856
214	0x3c88994b	0.016674658
215	0xbb1b85fd	-0.0023730986
216	0xbd05b9de	-0.03264796
217	0xbd62746c	-0.05528681
218	0x3d7e1219	0.062028978
219	0x3dc473d3	0.09592404
220	0x3df993db	0.12186404
221	0xbd276699	-0.04086933
222	0x3dd009fe	0.10158156
223	0x3db4f97d	0.088366486
224	0x3e2aec26	0.16691646
225	0xbd1666ae	-0.036719017
226	0x3e12d706	0.14339837
227	0x3e18136a	0.14851156
228	0x3d85588b	0.06511029
229	0x3d971388	0.07376772
230	0x3e2c8f41	0.16851522
231	0xbcbe1734	-0.023204423
232	0x3e342f53	0.17596178
233	0x3b1fb267	0.002436781
234	0x3da9cf3f	0.08291482
235	0xbd9dd77c	-0.07707116
236	0x3d1d170e	0.038352065
237	0x3e0cfbc0	0.1376791
238	0x3de305cb	0.11085089
239	0x3d88ef8f	0.06686317
240	0xbd2cc904	-0.04218389
241	0x3e1e9eae	0.15490219
242	0x3dbce0b4	0.09222546
243	0x3e1e1bcd	0.15440293
244	0xbd31b06e	-0.043381147
245	0xbc2d93df	-0.010594337
246	0x3dd79950	0.10527289
247	0x3d3e41d8	0.046449512
248	0x3e1b0d7f	0.15141867
249	0x3e2fe4b5	0.17177089
250	0x3d1106d1	0.03540689
251	0x3c4965b8	0.012292318
252	0x3d452b70	0.04813713
253	0x3da61994	0.081103474
254	0x3e2fea5f	0.17179249
255	0x3d722a07	0.05912211
