LSTM/models/sensor_data_2_pm25_lstm_model.pth (torch, 206060 bytes, 9 tensors)

lstm.weight_ih_l0 f4 [256, 1]
000000 2a e7 ac bc 0e 50 f2 3c 9a dc e5 3d f0 c5 49 3c
       -0.021106321 0.029579189 0.11223717 0.012315258
000010 e3 e1 0c be e1 62 de 3d 70 de 42 bd 43 5d 1d bd
       -0.13758044 0.108587034 -0.047575414 -0.03841902
000020 e4 c9 4b 3d bb 3a e8 bd 8d 27 fd bc 57 8c 76 bc
       0.049753085 -0.11339327 -0.030902648 -0.015048108
000030 bd 52 1f 3d 05 80 81 bc a8 2e 90 bd c2 ef b3 bd
       0.038897265 -0.015808115 -0.07040149 -0.087859645
000040 a0 7b 05 be 5c 9e ed 3d 86 14 d6 3c ae 8f 89 bd
       -0.1303544 0.1160247 0.026132833 -0.06716858
000050 28 b5 41 3c 50 0f 04 be df bc dd 3d e9 53 3c 3b
       0.011822976 -0.12896466 0.1082704 0.0028736538
000060 e5 1a b3 3d 9f 0d 81 3d 6f 0f 52 bd 2f d7 6b bb
       0.08745364 0.06301426 -0.05128425 -0.0035986414
000070 a2 38 35 bd 44 bc d3 3c 09 bc f7 3d 59 2f 65 3c
       -0.044243462 0.025846608 0.12096412 0.013988339
000080 ce cc 23 3e 4b 1e 17 bc 99 ae 16 3e 2e c5 1b be
       0.15996096 -0.009223531 0.14715041 -0.15211937
000090 70 b0 01 be 95 12 1d 3e a4 4d f9 3c 60 0c c9 3d
       -0.12664962 0.1533912 0.03043253 0.098168135
0000a0 6f 7f 03 be 14 9c c1 3c d9 bd 42 bc 28 37 92 bd
       -0.12841581 0.023633994 -0.0118860835 -0.071394265
0000b0 91 90 fe bc ff 65 20 3e c5 26 67 3c aa 11 8b bd
       -0.031074794 0.15663908 0.0141083645 -0.067904785
0000c0 6f 5c 5c 3d 5d 47 b4 bd f4 69 97 bc 4d 31 55 bd
       0.05379909 -0.08802674 -0.01848314 -0.05204897
0000d0 d5 35 24 be e7 3c 16 3c 31 b2 71 bd ef e4 d2 3c
       -0.1603616 0.009169794 -0.059007827 0.02574393
0000e0 70 bb 80 bb 66 9f 14 3e eb 41 a4 bd 11 74 27 be
       -0.0039285943 0.1451393 -0.08020385 -0.1635287
0000f0 a3 27 3f bd 91 1e 8f bd 4f 0c 34 bd 7c 3b 4c bd
       -0.04666866 -0.06988252 -0.04395705 -0.049861416
000100 a8 07 03 3e bc ce d8 bc dc 94 f6 3d 39 01 2d 3c
       0.1279589 -0.026465766 0.120401114 0.010559374
000110 1c 7d 8d 3a 80 13 05 bc 6d 51 ea 3b cb 8e 55 3c
       0.0010794732 -0.008122325 0.00715082 0.013034533
000120 ec a8 33 bd db f1 04 be 6f df 0d 3e c8 82 d1 bd
       -0.04386227 -0.12982886 0.13854764 -0.10230023
000130 6d 5e b7 bd d2 08 df bd 8d ba 39 3d 0e bd ba 3d
       -0.08953557 -0.10890354 0.045343924 0.091180906
000140 5d f6 10 3d df 91 a8 3d f5 7c 23 be a7 ee 91 bd
       0.0353912 0.08230948 -0.15965636 -0.071255974
000150 e4 4b 10 3e 4c 20 0a 3d 83 a1 b8 bd 01 95 e4 bb
       0.1409145 0.033722207 -0.09015181 -0.0069757705
000160 3a 36 19 3d 5f 20 2c 3e c2 ca 6c bd ec 61 d1 bd
       0.03740523 0.16809224 -0.057810552 -0.10223755
000170 bd d4 bb bd 73 09 eb 3d 04 94 e9 bd 57 97 12 3e
       -0.09171436 0.11476412 -0.11405185 0.14315544
000180 89 ac 48 3d 93 9a 94 3d 59 fb f9 3d 3e a6 a2 bc
       0.048992667 0.07256045 0.12206144 -0.019854661
000190 36 f0 18 be d7 9f ea 3d b2 ab 15 be 3d c6 68 3d
       -0.14935383 0.11456268 -0.14616278 0.05682968
0001a0 39 4a ad bd 90 b3 8c 3d 84 4a 82 3d f2 38 1e be
       -0.084614225 0.06870186 0.06361869 -0.1545141
0001b0 07 5d 97 3c 83 1a de 3d 57 df c5 3d 50 ff ac 3d
       0.018476976 0.108449005 0.09661739 0.084471345
0001c0 8a 30 9b 3d a0 84 80 3c a3 44 2c 3d a6 77 24 bd
       0.075776175 0.01568824 0.042057645 -0.04015317
0001d0 0c 13 1e be fa 5c 1f 3d ef 29 1a bc ab eb 62 bd
       -0.15436953 0.03890703 -0.009409412 -0.05540053
0001e0 55 d8 8f bd 1d e2 fd 3d 2b 3c b6 bd 9a d4 b5 3c
       -0.07023684 0.12396643 -0.08898195 0.022196103
0001f0 ee 2a d1 3d 41 1e 42 bd ee b8 b5 bd 2a 39 0e 3e
       0.10213266 -0.047392134 -0.08873163 0.13888994
000200 33 d6 00 bc ac 3a 04 be 55 f2 57 3e 7c e2 0e 3e
       -0.007863569 -0.12913007 0.21088536 0.13953584
000210 76 8f dd 3d 95 0e 0b 3e 75 b0 2b be e4 89 2e 3e
       0.108183786 0.13579781 -0.16766532 0.17044789
000220 f9 d2 87 3d 1e 8d 27 3e f9 ec 02 be 70 ff 29 bd
       0.06632037 0.16362426 -0.1278571 -0.04150337
000230 7c 2d 08 be e6 99 2b bc 52 a1 5c 3e a5 9b 3a 3e
       -0.13298601 -0.010473704 0.21545914 0.18223436
000240 9f 02 00 3e 5c 13 0d 3e 98 d1 93 3d 92 da 1a be
       0.12501 0.13776916 0.07217711 -0.1512244
000250 b7 a8 1a 3e 66 9f e0 3c 67 a1 5a 3e bb 9c bc bd
       0.15103422 0.027419757 0.21350633 -0.092095815
000260 91 83 d0 3d 15 9d 25 3e 0b 63 46 be b2 fd 97 3d
       0.10181344 0.16173203 -0.1937372 0.074214354
000270 47 c7 1a be c6 9f 3b 3e db 45 fc 3d 46 53 61 3e
       -0.15115081 0.18322667 0.123180114 0.22004423
000280 c3 f9 33 3e f9 30 2d be a7 aa ec 3d 30 11 89 bd
       0.17575745 -0.16913213 0.11555987 -0.066927314
000290 fb e7 27 be 51 63 08 be a1 e6 32 be 8e c6 38 be
       -0.16397087 -0.13319136 -0.1747079 -0.18044493
0002a0 72 1f 2a 3e c8 45 27 3e e9 a3 45 be 93 5c 22 3d
       0.16613558 0.16335213 -0.19300808 0.039639067
0002b0 b2 16 38 3e 8e 7b 14 3e 4b 19 06 be e0 4b e8 bd
       0.17977408 0.14500257 -0.13095586 -0.11342597
0002c0 c3 ad 49 3e 36 5e 04 be ac 63 30 be b7 a7 29 3e
       0.19695191 -0.12926564 -0.17225522 0.16567884
0002d0 e3 39 1c be 2e d4 47 be e3 16 15 3e 86 cf 30 3e
       -0.15256457 -0.19514534 0.14559512 0.17266664
0002e0 9b 53 08 3e 20 3c 0d 3e 8e 92 8e bd 10 bd 21 3e
       0.13313143 0.13792467 -0.06961547 0.15794778
0002f0 e1 c3 1b 3e 2d 51 0a 3e 86 c2 06 3e a0 a1 32 be
       0.1521144 0.13507529 0.13160142 -0.17444468
000300 3d 91 4e bd 25 8a 12 3d ae 8f 76 3a 1b a5 02 3e
       -0.05043148 0.035776276 0.0009405565 0.12758295
000310 22 df dd bc 42 aa ea 3d ea de 01 3d 7b 29 73 be
       -0.027083937 0.11458255 0.031706728 -0.23746292
000320 dd fa e8 bd 98 29 b3 3c 86 6b 20 3e e9 c7 59 3d
       -0.113759734 0.02187042 0.15666017 0.053169165
000330 2d 2c 28 3e b2 dd 65 3d e5 92 15 be 7f 12 86 bd
       0.16423102 0.05611963 -0.14606817 -0.065464966
000340 a7 ad 91 bd 93 ed 15 3e 79 58 1a be 08 cf 8e bc
       -0.071132 0.14641409 -0.15072812 -0.017432705
000350 e4 b1 f9 3d 60 19 ab bd d2 a5 0d bd a3 8f 09 3d
       0.12192133 -0.08354449 -0.034581967 0.03358425
000360 68 f7 78 3e d0 90 21 3d 51 4b 48 3d 83 a2 21 bc
       0.24313128 0.039444745 0.048899952 -0.009865406
000370 a0 a3 34 3d bd 69 b9 3d 6b e2 b7 3d b5 a0 89 3d
       0.044101357 0.09053371 0.08978733 0.067201056
000380 5c 2d ba 3c 34 f9 08 3e 0f 53 f7 3c b1 66 5b 3d
       0.022726707 0.13376313 0.030190973 0.05356473
000390 ea 1b 62 be 42 6a 87 bc fe bd 46 bd 66 5e 97 bd
       -0.22080961 -0.01653016 -0.048521034 -0.07391052
0003a0 20 de 78 3c 30 5e 2d 3e b9 5f 9e 3c 9e fa 1f be
       0.0151896775 0.16930461 0.019332753 -0.15622947
0003b0 10 4e a3 bd bc 3b 54 3d 9d bb 64 bb b1 f3 a5 3d
       -0.079738736 0.05181478 -0.0034901865 0.08103121
0003c0 44 87 86 3d e8 9d 8e bd 43 9e f0 3d 39 6a 53 bd
       0.065687686 -0.06963712 0.11748936 -0.051614974
0003d0 8f 62 15 be 05 51 30 be 40 49 5b be 6b fd 01 3d
       -0.14588378 -0.17218406 -0.21414661 0.03173582
0003e0 66 a0 ab 3d ef 1c ed 3d 40 20 c3 bd 80 c4 52 be
       0.08380203 0.11577784 -0.095276356 -0.20582771
0003f0 4c 2f 10 3e d1 c1 9c bd 92 c5 99 3d f9 d3 4b 3c
       0.14080542 -0.07654155 0.07508387 0.012440675

lstm.weight_hh_l0 f4 [256, 64]
000000 77 e5 0e be c7 98 0d be ae 74 c1 3c 30 8a 36 bc
       -0.13954721 -0.13827811 0.023615208 -0.011141345
000010 7a 9e 0b be 80 26 a0 3d c9 e4 ad 3c f4 a1 33 3d
       -0.13634673 0.07819843 0.021227257 0.043855622
000020 b0 4e 6f 3d d7 72 e1 3d a8 22 bf bc 98 e4 c0 3d
       0.05842465 0.11008232 -0.023331955 0.09418601
000030 6b 20 0f bd 7c 9d ad 3d 22 d3 de 3d b5 cf 06 3e
       -0.034943026 0.084773034 0.10880114 0.13165171
000040 0c 87 04 3d 25 5c b1 3d b0 75 e8 3d d4 9d 20 bd
       0.032355353 0.08660153 0.11350572 -0.039213017
000050 0c 6b 97 bc 42 0c 88 3d 5d 03 18 3e 93 12 04 be
       -0.018483661 0.06642963 0.14845033 -0.1289771
000060 0a b4 21 bc e2 78 11 3d 04 6a cf bd eb f2 07 3e
       -0.009869585 0.035515673 -0.10127643 0.1327626
000070 57 a1 5b 3d c0 2c e6 bc 00 22 e4 bd d3 a2 2f 3b
       0.053620663 -0.02809751 -0.111392975 0.0026799932
000080 7c 30 8c 3d d5 8d 4e be af c1 43 bd c6 ce 96 bd
       0.06845185 -0.20171292 -0.047792133 -0.07363658
000090 c5 45 5c bd 79 3c 0b 3c 0e 74 09 bb 84 0b ca bd
       -0.053777475 0.0084983045 -0.0020973715 -0.09865478
0000a0 41 25 8e 3d 04 a3 3b 3e ee c3 e2 3c c4 f9 74 3d
       0.06940699 0.18323904 0.027681317 0.059808508
0000b0 fe 96 e4 3d 46 63 fd bb 9f ac e7 bc a1 5d 98 3d
       0.11161612 -0.0077327816 -0.028280554 0.07439733
0000c0 44 81 43 bd 2b eb b5 3d 0e 53 28 bd 08 31 43 3e
       -0.0477307 0.08882745 -0.041094832 0.19061673
0000d0 a5 be 8f bd be 5e 9a bd f9 cd 89 bc c2 45 10 3e
       -0.070187844 -0.07537602 -0.016821848 0.1408911
0000e0 9d 04 01 3c 9c bc 19 bd 83 b4 74 3d 8f 6f 0f bc
       0.007874635 -0.037533388 0.059742462 -0.008754625
0000f0 39 b4 a6 bd 75 e9 c7 bb 20 9c 2a bc ee 2d cc 3c
       -0.081398435 -0.0061008283 -0.0104132 0.024924245
000100 d9 38 8b bd 9a 21 73 bc d8 b0 f8 3d 7b 52 3c bd
       -0.06797952 -0.014839554 0.12143105 -0.045977097
000110 28 ec 12 3c 85 a7 5c bd f6 c6 8e bd f0 96 12 be
       0.008967437 -0.053870697 -0.069715425 -0.1431539
000120 89 1a 9c 3d cd b4 ac bc 5e 68 2c 3d 5b ef 8d 3d
       0.07622249 -0.021082306 0.04209172 0.06930419
000130 64 76 a9 bd 67 6a 09 3d 84 7b c7 bd b7 6f 09 bd
       -0.08274534 0.03354874 -0.097403556 -0.033553805
000140 1e 98 c4 3d 33 75 83 bd f8 84 d4 3d d1 59 e9 3d
       0.095993266 -0.06418838 0.10376924 0.11394084
000150 4a e0 87 bd 12 2d ed 3d 41 e1 20 bc c0 02 98 bd
       -0.066345766 0.11580862 -0.00981933 -0.074223995
000160 25 a4 59 3d 71 33 09 3e 6a f9 9b bd af ef 8a 3d
       0.053135056 0.1339853 -0.07615931 0.06783997
000170 c1 13 7a 3d f5 b9 ec bd b3 b4 06 be c1 5b 99 bd
       0.061053995 -0.11558906 -0.13154869 -0.07488204
000180 ab 4e 02 3d 5c 2c a1 bd 34 f6 1d 3d 26 36 c0 3d
       0.031813305 -0.07869789 0.038564876 0.09385328
000190 c3 1e 69 3d b2 b7 b2 3c e9 a7 ac 3d de a5 10 bd
       0.056914102 0.021816108 0.08430464 -0.035314433
0001a0 28 a2 08 be 71 1a 28 bd 06 73 02 3d 50 cc 35 bc
       -0.13343108 -0.04104084 0.031847976 -0.011096075
0001b0 1d 6c ec bd 8e e6 f5 3d 9e 95 e5 bd 2d 65 b9 3d
       -0.115440585 0.120068654 -0.11210178 0.09052501
0001c0 4e 07 8e bd 93 d1 31 bc a7 40 a8 bd 50 01 83 3d
       -0.06934987 -0.010853189 -0.082154565 0.06396735
0001d0 9f 59 f9 3d b4 d9 a0 3d 7b 16 bb 3d 89 17 8f 3d
       0.12175297 0.078540236 0.09135147 0.06986911
0001e0 a7 1d c2 3d aa 64 0d 3d 64 97 ec bd a0 8f 59 bd
       0.09478312 0.03451983 -0.11552313 -0.053115487
0001f0 f1 14 21 bd 4a 2b a6 3d 8d a4 90 3c 8f d1 ce 3c
       -0.039326612 0.081137255 0.017656589 0.02524641
000200 4d b7 0e be d4 34 d7 3c d1 5e a9 bd 47 81 e6 3d
       -0.13937111 0.026270308 -0.08270038 0.112551264
000210 ac b0 68 be 5d e5 88 bd 44 4c 75 3d cf db fe bd
       -0.22723645 -0.066843726 0.059887186 -0.12444269
000220 04 4f 0f be b8 b0 2f 3d d3 73 b5 3b 06 a9 2f bd
       -0.13994986 0.04289314 0.005537489 -0.042885803
000230 dc b5 a5 bd 24 6a d4 3c a6 b3 5c bd 2c 3d 21 bb
       -0.080913275 0.025929518 -0.053882264 -0.0024603112
000240 6a 09 bb bc ef ec 35 bd b6 42 03 3e b1 18 02 3e
       -0.022831637 -0.04441541 0.12818417 0.12704732
000250 be 26 d2 bd 44 a7 33 3e c9 7f 52 3b 59 15 3d 3c
       -0.10261296 0.17544276 0.0032119623 0.011540734
000260 92 12 05 bd fb 74 ed 3d 10 f9 1e 3c 69 79 0a bd
       -0.032488413 0.11594578 0.009702936 -0.033807192
000270 c6 07 56 3d 95 59 9c 3d f4 63 c5 bd c9 8d 18 bd
       0.052253507 0.07634274 -0.09638205 -0.03724459
000280 7f 5c 44 bd a2 b4 2c bd f7 27 d2 bc a3 e0 ce 3d
       -0.047939774 -0.042164452 -0.025653822 0.1010144
000290 ee cd 28 3d 2a 73 82 bc 85 8f 88 3d 72 4f e1 bd
       0.041212015 -0.015924055 0.06667999 -0.11001481
0002a0 d2 20 1b be bc 7d e7 3c 57 23 e6 bc 91 29 30 be
       -0.15149239 0.028258197 -0.028093023 -0.17203356
0002b0 2f ab a2 3d 9f fc ef 3d 55 91 b5 bd 2c 06 c7 3d
       0.07942807 0.117181055 -0.088656105 0.09717974
0002c0 f4 b1 00 3e 35 b0 90 3d 59 14 5b 3d ae 28 64 3d
       0.12567884 0.07064859 0.053486202 0.055702858
0002d0 7d d8 8c 3d dc 54 a1 bc 66 92 22 be b3 ac ec 3d
       0.06877229 -0.019693784 -0.15876159 0.11556377
0002e0 b9 fa 2f 3d 91 cb d9 bd 9f 09 af bc ae 13 f7 bd
       0.042963717 -0.1063453 -0.021366892 -0.120643005
0002f0 4d b3 e0 bd 36 7f 97 3d 0d 6b a4 3d 46 ea ac bc
       -0.10971699 0.073973104 0.08028231 -0.021107804
000300 e0 9d 78 bd e4 de b1 3d de 36 a9 bd 03 a4 5f 3d
       -0.060697436 0.08685091 -0.08262418 0.054599773
000310 29 2d 38 3d 3b ff 8b bc dc f0 3c bd 09 92 7c 3d
       0.044964943 -0.017089477 -0.04612814 0.061662707
000320 46 c6 99 bc 5d 09 a4 3c 3a 7f a9 bd 12 df b2 3c
       -0.018771302 0.020023996 -0.0827622 0.021834884
000330 65 92 b7 bd a3 33 88 bd c7 5e d0 3d 89 07 01 be
       -0.089634694 -0.06650474 0.10174327 -0.1260053
000340 c4 db e4 bd 0a 6e ed bd e5 71 8b bd 29 ff 77 bd
       -0.111747295 -0.11593254 -0.06808833 -0.060546074
000350 9f a1 cf 3b 1e 9b 0b 3e c3 9a f0 3d e4 88 91 bd
       0.0063364054 0.13633391 0.117482685 -0.07106188
000360 e1 83 c5 3d 3c 6c 7d 3d fc 0b dd bd 03 0f 00 bd
       0.096442945 0.0618708 -0.107933015 -0.031264316
000370 11 2a a9 3d 26 9b 0e 3d 4b 2c ee bd fb 81 c9 3c
       0.08259977 0.03481593 -0.11629542 0.024598112
000380 55 50 62 bd 37 0a 9b bc a3 40 14 3e 24 e0 cf bc
       -0.05525239 -0.01892577 0.14477782 -0.025375433
000390 99 58 3a bd 8c 95 10 be ae d2 ee 3c 7e 85 0a bd
       -0.04549465 -0.14119548 0.029153194 -0.033818714
0003a0 90 96 14 bd 7c 81 36 bd 45 96 00 3e f5 a7 8c 3d
       -0.0362764 -0.04455708 0.12557323 0.06867973
0003b0 71 85 b1 bd 10 41 25 3d dd bf 47 3d a6 3f ff 3d
       -0.0866803 0.04034525 0.04876696 0.12463312
0003c0 07 f2 c0 3d e8 40 44 bc ce 6b ce bd f1 75 02 bd
       0.09421163 -0.0119783655 -0.10079156 -0.03185076
0003d0 61 31 39 bd 97 a5 16 3e 8f 58 72 3d 30 1f 25 bd
       -0.045213107 0.14711605 0.059166487 -0.040312946
0003e0 84 41 9e 3d 8b a8 8f 3c cc 93 9a 3d 42 19 a9 bd
       0.0772734 0.017536422 0.07547721 -0.08256771
0003f0 61 da 98 3d 2d 64 85 3d 5b 07 ab bd 95 02 e6 3d
       0.074635275 0.06513248 -0.08351012 0.11230961

lstm.bias_ih_l0 f4 [256]
000000 0e 70 69 bd d9 8a d9 3d 29 1e 4f 3e 2c c4 02 bd
       -0.05699163 0.10622186 0.20226349 -0.031925365
000010 d9 ad 0b 3c 61 21 7f 3d 2f 30 08 3e 03 75 22 3d
       0.008525335 0.062287692 0.1329963 0.039662372
000020 4f 2c 07 3e 3f ce 40 3c 60 1d f5 3d 68 55 6e bd
       0.13200496 0.011767923 0.119684935 -0.05818692
000030 1a cb 94 bc 39 78 8f bd 25 6b 4a 3d c1 0a 1d 3d
       -0.018163253 -0.070053525 0.049418587 0.038340334
000040 df 43 fc 3c ed 1a 0a 3e ac f8 74 3d d4 d9 35 3e
       0.030794082 0.13486834 0.059807464 0.17758876
000050 d8 e2 bb 3c 89 99 11 3e f9 f8 2d 3e ac ea 68 3d
       0.022935316 0.14218725 0.16989507 0.056864426
000060 ba 98 8f 3d db e8 df 3b e7 23 62 3d 62 7c a4 bc
       0.07011552 0.0068331785 0.05521002 -0.020078842
000070 10 8a bd 3d e9 28 c5 3d 4c 14 c4 3d 8d 72 36 3e
       0.09254849 0.096269436 0.09574184 0.17817135
000080 36 89 4a bd e2 d6 d2 bc 60 bc e3 3d c1 2f 01 3d
       -0.04944726 -0.02573723 0.11119914 0.031539682
000090 fd 0a 27 3e 47 eb 27 3e a6 d8 04 3e a6 49 db 3d
       0.16312785 0.16398345 0.1297327 0.10707407
0000a0 3f fa e4 3d 1c 27 23 3e 2b e2 03 bd f8 58 14 3e
       0.11180543 0.15932888 -0.032198112 0.14487064
0000b0 2c 47 97 3d db 55 08 bd 3a 62 a9 3d 53 4d a8 bd
       0.07386622 -0.033285003 0.08270688 -0.082178734
0000c0 97 32 38 3d 01 34 b0 3c 4e 9d 56 3d c1 e3 0d 3e
       0.04497012 0.021509172 0.05239611 0.13856412
0000d0 af 86 c5 3c b6 27 10 3e 61 b2 cc 3c 93 ac ad 3d
       0.024112074 0.14077649 0.024987401 0.084801815
0000e0 31 73 17 3e e6 ef 1f 3e 9e 67 9e bd 07 9d 1c ba
       0.14790036 0.15618858 -0.07734607 -0.00059743266
0000f0 6f 84 17 3d 73 73 15 3e 63 6c d6 bc 7e 31 1e 3d
       0.036991533 0.14594822 -0.02617473 0.03862142
000100 a3 59 2e 3d 51 bd 58 b9 53 b1 bf 3d 85 9b 9e 3d
       0.042565953 -0.00020669891 0.09359994 0.07744507
000110 c4 de 58 3b 40 0d 6e 3d f5 45 56 bc 70 bf 2c 3d
       0.0033091763 0.058118105 -0.0130782025 0.042174757
000120 4f b6 7d bd 50 15 0a bd 35 02 68 3c 9b 63 de bc
       -0.06194144 -0.03371173 0.014160682 -0.027147105
000130 b1 55 c5 3d f5 1d d3 3d 7c a8 59 bd f9 78 19 3c
       0.09635485 0.10308448 -0.053139195 0.009367221
000140 14 ae 81 3d 83 e2 35 3d a8 84 7f bd c1 98 de 3d
       0.06332031 0.04440547 -0.06238237 0.10868979
000150 5e 39 d6 bd b2 8c e8 3d fd c4 09 bd 3b 3f 09 3e
       -0.10460161 0.113549605 -0.03363513 0.13403027
000160 04 5f 87 3d 97 bf ac bd bb 97 4b bc 4d a6 73 3b
       0.0660992 -0.0843498 -0.012426312 0.003717798
000170 6b 9e 52 3d b3 6c 4b 3d b4 20 12 bd 54 16 c2 3d
       0.05142061 0.04966421 -0.03567572 0.09476915
000180 3f e0 ab 3d d7 60 93 bd 43 8c 97 3c 39 19 de 3c
       0.08392381 -0.07196205 0.0184995 0.027111636
000190 59 33 f3 3d ac fc d7 3c 1f b4 07 3e 99 23 5c bb
       0.11875028 0.0263656 0.13252304 -0.0033590554
0001a0 b5 70 c1 3d 8c 10 2b bd 0a 27 37 bd e1 26 46 3d
       0.09445325 -0.041763827 -0.044714965 0.04837692
0001b0 a6 73 be 3d 6d 33 e4 3c 42 6c 5c bb 45 04 7b bd
       0.09299402 0.027856553 -0.0033633863 -0.06128337
0001c0 5f 75 b3 3b fe a0 91 bc 8c 3b 1f bd d8 b0 16 bd
       0.005476638 -0.017776962 -0.038875148 -0.036789745
0001d0 78 25 07 bd b4 b7 b4 bd 2c 5a 26 3d 04 d5 dd bd
       -0.032994717 -0.08824101 0.04061334 -0.10831645
0001e0 92 d6 c7 bd c2 95 c0 bd 15 93 83 3d cd 10 d4 3d
       -0.09757723 -0.09403564 0.06424538 0.10354767
0001f0 62 e0 08 3e 14 9c 27 bd eb bd 42 bc b5 fb e0 bd
       0.13366845 -0.040920332 -0.0118861 -0.10985509
000200 1b 0b 16 be 4b 7c 30 3d 3e 68 17 3d ac 4a b4 bc
       -0.14652674 0.043087285 0.036964647 -0.022008263
000210 ab cf 20 be 7a 18 17 3e 42 ac f3 bc 42 e7 03 be
       -0.15704219 0.14755431 -0.029745225 -0.12881187
000220 10 c3 cb bc ed 70 6f bd 17 42 92 3c 7b 56 5c 3d
       -0.024873286 -0.058457304 0.01785378 0.05379341
000230 23 0e 9f 3d 6e 52 12 be 4d b4 e3 bd dd 3d 2e bd
       0.07766368 -0.14289257 -0.11118374 -0.042539466
000240 d3 8a 25 be 57 ff f7 bc db 72 22 3e 74 e8 e1 3d
       -0.16166238 -0.030273123 0.15864126 0.11030665
000250 23 a3 38 3d 33 13 a1 3d 5b 53 6d bc 96 81 d7 3c
       0.045077454 0.0786499 -0.0144852055 0.026306909
000260 40 28 c2 ba b7 11 de 3d 2c 53 9c bd 50 03 c3 3d
       -0.0014813021 0.108432226 -0.07633051 0.09522116
000270 96 a7 b9 3d 0e 2b 90 3d d1 46 78 3c 81 af e3 3d
       0.090651676 0.07039462 0.015153603 0.11117459
000280 95 c6 ae 3d 03 22 95 bd d2 0b c7 3d 66 b3 10 3e
       0.0853397 -0.07281878 0.097190514 0.14130935
000290 8e 1b 0d 3e ef 24 12 3c b5 b8 82 3d 5d c9 02 3e
       0.13780043 0.0089199385 0.06382886 0.12772126
0002a0 82 3a e9 bd bb 56 1d bd ae f3 b4 3c 87 08 34 be
       -0.113881126 -0.03841279 0.022088852 -0.17581378
0002b0 54 55 f9 bd 71 4e cc 3d 59 6a 0e be c1 a2 ca 3d
       -0.12174478 0.09975899 -0.13907756 0.09894324
0002c0 cc 1d 7b 3b 56 6b 97 3d f8 03 67 bc 48 a2 9a 3d
       0.003831732 0.073935196 -0.014100067 0.07550484
0002d0 31 81 0d 3e 06 18 bf 3d 99 54 87 bd 89 5e a3 bc
       0.13818814 0.09330754 -0.066079326 -0.019942539
0002e0 35 b7 87 bd 86 e5 80 bc 22 1a 9e bd 45 e5 04 be
       -0.06626741 -0.015734445 -0.07719828 -0.12978084
0002f0 c3 14 ab bd f3 8f 85 bd 9e 91 21 3d d0 b2 11 3d
       -0.08353569 -0.06521597 0.039445512 0.03557092
000300 06 b1 8f bd 2f 2c 2d 3e f1 2b 04 3e 70 2a b5 bc
       -0.070161864 0.16911386 0.12907387 -0.022114962
000310 af 08 48 3e 3e a4 d2 bb 8e c3 33 3e 6e 28 6b 3d
       0.19534563 -0.0064282706 0.17555067 0.057411604
000320 1b dd cb bb 4e 6f ea 3d f3 37 09 3e ef b4 1c bd
       -0.006221426 0.11447011 0.13400249 -0.03825849
000330 71 07 2a bd 9e 77 72 bb 12 af 3a 3c b5 10 03 3b
       -0.041511003 -0.0036997567 0.011394279 0.0019998972
000340 3f a8 30 3e 07 59 53 3c f7 02 3e 3b 62 17 09 3d
       0.17251681 0.012899644 0.0028993466 0.033469565
000350 58 6b 5a 3e 9a 6f 3c 3d a8 c4 e9 bc 48 e0 24 3e
       0.21330011 0.04600487 -0.028536156 0.16101182
000360 4c 9d ac 3d a0 29 0e 3e ad fb c9 3d 99 3e 8b ba
       0.084284395 0.13883066 0.098624565 -0.0010623514
000370 f7 20 0b bc 31 f9 74 3d 49 6e 62 3d 96 6f ef 3d
       -0.008491746 0.05980796 0.055280957 0.11691205
000380 e2 49 3d 3e 8d cb f5 3d fd c2 27 3e 0e 47 f8 3d
       0.18485215 0.12001715 0.16382976 0.121229276
000390 a1 96 9f bc 78 1d 33 3e 53 66 ac 3d 94 9c b9 3d
       -0.019481005 0.1749171 0.08417954 0.09063068
0003a0 d3 d1 85 bc 35 e5 70 3c 3b d8 c8 3d 74 c0 1e 3e
       -0.016335404 0.014703085 0.09806868 0.15503103
0003b0 13 bc 46 3d d8 0a 48 bd 0b 72 c3 3d de ea 35 bd
       0.048519205 -0.048838466 0.09543236 -0.04441344
0003c0 bc dc 69 3d 5a 2d 5d 3d 8f 9c bb 3c 48 45 b7 3d
       0.057095274 0.05399833 0.022901801 0.08948761
0003d0 c9 02 1f 3e dd b6 71 bd 12 03 a5 3d a8 7c 3b 3d
       0.15528406 -0.059012283 0.08057226 0.04577318
0003e0 65 d5 33 3e ce 5c ec 3d 61 3b 12 3e bc a1 e6 bc
       0.17561872 0.115411386 0.14280464 -0.028153293
0003f0 a4 d8 f9 3d 10 36 e4 3d e9 db 36 bc b1 47 6f 39
       0.12199524 0.11143124 -0.011160829 0.00022819523

lstm.bias_hh_l0 f4 [256]
000000 ae f7 02 3e 87 f4 f4 bc 4f a1 3f bc 23 e5 87 3d
       0.12789795 -0.029901756 -0.011696174 0.06635501
000010 99 69 e5 3c 5a 74 c9 3d 7b e5 a9 3d 35 d4 e6 bc
       0.028004454 0.098366454 0.08295723 -0.02817736
000020 fb d2 91 3d e4 35 d6 3d 4f 9f 5c bd 13 0e 4f 3b
       0.071203195 0.104594976 -0.053862866 0.0031594082
000030 0b 49 a6 bd 33 02 9c 3d de e7 fe 3d 3e 76 e1 3d
       -0.081194006 0.07617607 0.12446569 0.11008881
000040 3a ba fa 38 56 70 06 3e 06 4c e8 3c 23 8f ab 3d
       0.00011955616 0.1312879 0.028356563 0.083769105
000050 dc 47 84 3d b8 fe 63 bd bf f7 9c 3d 9f 50 5d 3d
       0.064590186 -0.05566284 0.07664441 0.054031964
000060 ff b4 e4 3d 60 de 9e 3c 52 cb 99 3d 37 e1 77 3d
       0.11167335 0.019393146 0.075094834 0.060517516
000070 3c dc 11 3e bd 05 83 bb c7 b5 39 3d bb a7 43 3e
       0.14244169 -0.003998487 0.045339372 0.19106953
000080 ab 18 20 3e 8a c1 b4 3d 62 92 82 bc 11 fd 8c 3d
       0.1563441 0.08825977 -0.015938941 0.06884206
000090 00 a7 55 3d f1 40 af 3d ef 41 f9 3d 04 46 7f 3d
       0.052161217 0.085573085 0.12170779 0.06232263
0000a0 73 60 26 bc d8 73 38 bd 89 3d c6 3d 44 6e d5 3d
       -0.010154831 -0.045032352 0.09679706 0.10421422
0000b0 5c 6c 0b bd 69 0b 08 3d 92 95 3e bd 69 a6 d6 3d
       -0.034038886 0.033214007 -0.04652936 0.10480959
0000c0 1d 64 e9 3d 08 ed 9c 3c 34 fa 99 3d 3b 07 de 3d
       0.11396048 0.019155994 0.075184256 0.10841223
0000d0 08 51 24 bd 28 85 94 bd 38 04 26 3e a6 88 e7 3d
       -0.04011634 -0.0725196 0.16212547 0.113053605
0000e0 80 b0 76 bc f2 27 1e 3e 2f e9 9a 3d f4 14 c1 bb
       -0.015056729 0.15444925 0.075640075 -0.0058923904
0000f0 95 2f c9 3d 65 9d 0a 3e b0 cd af 3d 37 76 24 3e
       0.09823529 0.13536604 0.08584154 0.1606072
000100 7f e9 17 3e 03 92 14 3d b9 80 ca bd 13 98 13 bd
       0.14835165 0.03627206 -0.09887833 -0.0360337
000110 23 93 74 bd 3e ea d9 3d dd bf a6 3c bf b7 ec 3b
       -0.059710633 0.10640381 0.02035516 0.0072240527
000120 5f 0f a5 3d 1b f5 9b bd 2a 41 c9 3d fe 05 05 3e
       0.080595724 -0.076151095 0.09826882 0.12990567
000130 7b 46 f7 3c bf 09 e3 bd 77 c2 ed 3c 34 e6 c1 3d
       0.030184975 -0.11085843 0.029023392 0.09467736
000140 af 9b cb 3d 0a 4a b3 3d 11 b8 cf 3d 7b 43 c4 3c
       0.09941804 0.08754356 0.1014253 0.023957958
000150 66 a8 c4 bb f2 db 7c 3d e7 b2 c4 3d d6 b7 02 3e
       -0.00600152 0.061733194 0.096044354 0.1276544
000160 bb 52 7f bd 2f df 9d bd 35 5a 34 bd c1 cd fb 3d
       -0.062334757 -0.077085845 -0.04403134 0.12295104
000170 b9 fa 14 be 8c 5d 61 bd ac bb ee bd 89 9e d6 bb
       -0.14548768 -0.055020854 -0.11656889 -0.0065496606
000180 66 c9 81 bd 17 90 6a bd 40 f1 b7 bd 03 ab 52 3d
       -0.06337242 -0.05726632 -0.08981562 0.05143262
000190 1b bd b0 bd 39 8f 8d 3d 31 c4 83 3b 82 6f 8b bd
       -0.08629819 0.06912083 0.0040211906 -0.06808378
0001a0 8a 47 ae bc 05 15 08 3e 29 b4 42 3b d4 f0 6a bb
       -0.021274347 0.13289268 0.0029709435 -0.003584911
0001b0 fe 86 49 3d b1 83 9d bd 8c 89 24 bb 01 1f 38 bd
       0.049201004 -0.07691134 -0.0025106398 -0.044951443
0001c0 7f 28 30 3b a6 88 32 3d e7 2f b9 bd 75 85 7f 3d
       0.0026879606 0.04358735 -0.0904234 0.062383134
0001d0 4e 1c ad bd 1c 10 8c bd f5 46 b4 3d f0 8a e8 3c
       -0.08452664 -0.0683901 0.088025965 0.028386563
0001e0 c3 0a a4 bc 8d 76 fc 3d 6c 47 76 3d a6 28 97 bd
       -0.020024663 0.12327299 0.060126707 -0.073808
0001f0 c9 77 b8 3d 8b a7 27 bd 47 24 cf 3b 1d 0b b7 3d
       0.09007222 -0.040931266 0.0063214633 0.089376666
000200 d9 08 68 bd 65 a4 21 bd 44 31 29 bd 26 34 1b 3d
       -0.056649063 -0.03946342 -0.04130675 0.03789153
000210 0c aa 89 bc 3d 3d 89 3d c9 52 24 3d 9a 34 e7 bd
       -0.016804717 0.067011334 0.040118013 -0.1128933
000220 ff aa 12 be 61 41 23 3c 24 c7 06 be 4d 5a 7c bd
       -0.14323042 0.009964318 -0.13161904 -0.061609555
000230 20 1e 00 be 96 32 38 bd a0 67 a9 bb 88 8d 03 bc
       -0.12511492 -0.044970118 -0.0051698238 -0.008029349
000240 31 e6 a7 bd 5d a0 20 3d e3 32 0d 3e 6b 4e 26 3d
       -0.081982024 0.039215434 0.13788943 0.04060213
000250 55 bf 51 bd 7f 34 22 3e d9 7c 85 3b bb 1e a7 bd
       -0.05120786 0.15840338 0.004073721 -0.08160158
000260 28 69 79 3d 6e 15 f5 3c 34 e3 90 3d 42 60 d4 39
       0.0608913 0.029917445 0.070745856 0.0004050751
000270 78 e6 7d bd 42 20 5d 3b 72 6f e3 bd 7b e2 7c 3d
       -0.06198737 0.003374115 -0.11105241 0.061739426
000280 96 df 0a bd 0f 27 0e bd bc ab e8 3c 43 97 bb 3d
       -0.033904634 -0.034705218 0.028402202 0.0915971
000290 78 88 5f 3d 25 1c 62 bd 81 0a a5 3d f9 f2 70 bd
       0.054573506 -0.055202622 0.08058644 -0.058825467
0002a0 5d a7 0c bd f0 a0 fd 3d a2 23 2a 3d 05 81 87 bd
       -0.034339298 0.12384212 0.04153789 -0.066164054
0002b0 88 00 c3 3d dd 26 d5 3d 9a b4 ed bd c0 86 42 bd
       0.09521586 0.10407803 -0.11606713 -0.04749179
0002c0 ca a5 20 bd 8c e5 c6 bd c5 20 a0 3d 25 8a 4d bd
       -0.03922061 -0.09711751 0.0781875 -0.050180573
0002d0 71 1c fc 3d 4e 54 05 3e 19 f1 08 be e6 7c a6 bb
       0.12310112 0.13020441 -0.13373221 -0.005080807
0002e0 1b aa b8 3d d5 e8 8d 3d a5 c7 f5 bd 4a 94 61 3c
       0.0901682 0.06929175 -0.1200097 0.013768265
0002f0 5f 22 cd 3d 60 e1 ae 3d b2 60 58 bd ff 88 b8 bc
       0.100163214 0.085390806 -0.05282659 -0.022526262
000300 fa 24 d0 3d c2 87 d3 3d 60 f6 28 3e 78 15 15 3e
       0.10163303 0.10328628 0.16500235 0.14558971
000310 7c 07 05 3e ec 91 5d bd ff 44 22 3d 91 26 dd 3c
       0.12991136 -0.05409424 0.03961658 0.026995929
000320 63 b7 ab 3d 9f f4 c8 3d 43 91 8c bd b8 a0 df 3d
       0.083845876 0.09812283 -0.06863644 0.109193265
000330 98 4e 2e bd 74 a5 57 bd 5b 6c 35 3e b4 9f ea 3d
       -0.04255542 -0.052648023 0.17717116 0.11456242
000340 d4 bd ee 3d 1c 41 ad 3c b4 01 08 bd 29 cf f5 bb
       0.116573006 0.02114921 -0.03320475 -0.007501502
000350 7a 15 09 3e 47 19 86 3b 0b 7c 24 3e 75 30 be 3d
       0.13387099 0.0040923688 0.16062944 0.09286586
000360 34 bf b2 3d ea bc 9a 3d 3b 23 80 bd 0f 6d e0 3d
       0.08727875 0.07555564 -0.0625672 0.10958301
000370 9d b7 a7 3d 48 62 26 3e 6f f7 c2 3c b1 78 75 3d
       0.08189318 0.16248429 0.023799626 0.059929553
000380 77 ab 32 3b 0c 55 46 bc 24 70 ff 3d fa 36 a4 3d
       0.0027262846 -0.012105238 0.12472561 0.080182984
000390 30 fa 45 3e 25 41 25 3c bb 33 03 3e 9a 65 70 3c
       0.1933372 0.010086332 0.12812702 0.014672661
0003a0 2f 2c e1 3c 3b fe 24 3e 77 fe bc 3d 45 86 8c 3d
       0.027486889 0.16112606 0.09228223 0.068615474
0003b0 fd e1 90 bd f0 ec d5 bc e5 d6 12 bc 69 0c 34 3d
       -0.07074354 -0.026113957 -0.008962368 0.043957148
0003c0 24 bd 5e 3e 0d d1 b6 3d 5a 04 2a 3e f4 fb 5f bb
       0.21751839 0.08926592 0.16603222 -0.0034177275
0003d0 17 2f 0d 3e 84 05 26 3e a5 c5 37 3c b4 bc 8b 3c
       0.13787495 0.16213042 0.011216556 0.017057754
0003e0 27 4c 77 bd 82 08 07 bd 65 4c 1f 3e fd 54 26 3e
       -0.06037536 -0.032967098 0.15556486 0.16243358
0003f0 24 bf cd 3d 1e fc 20 3e be 6a 18 3d 4c d8 d1 3d
       0.10046223 0.15721175 0.037211172 0.102463335

lstm.weight_ih_l1 f4 [256, 64]
000000 52 37 00 be bf 47 c8 3c 02 0f 1a be eb 1b 28 bd
       -0.12521103 0.024448274 -0.15044788 -0.04104225
000010 1b 6c ad bd bf 3b 05 bd 1a 9c cd 3d c9 1e 54 be
       -0.08467885 -0.03252768 0.1003954 -0.20714869
000020 85 7b 55 be 88 9b 35 bd 53 6a d1 bc e7 a6 c5 3d
       -0.208479 -0.04433778 -0.025563395 0.09650975
000030 f5 c7 22 bb 2b cb 87 3d e2 49 80 bd 67 69 93 bd
       -0.0024838422 0.06630548 -0.06264092 -0.07197838
000040 26 28 40 be 8e cf ad 3b 0f 76 3c bc c0 06 4f 3e
       -0.18765315 0.0053042835 -0.011502757 0.20217419
000050 34 8a 26 be d5 59 58 bb 04 23 25 be ba e7 6f 3d
       -0.16263658 -0.0033012528 -0.16126639 0.0585706
000060 9f f5 4b bc 7d fc b1 3d f7 b4 09 3d 21 5c 7e 3a
       -0.012448697 0.086907364 0.033619847 0.00097030593
000070 bc 19 a5 3d 4a b6 16 3d 3b 2b 8c bd fd fb b2 3d
       0.08061549 0.03679494 -0.06844183 0.08739469
000080 ed 24 e9 3d 63 f8 0d be 7b 18 6a 3d ab 22 7c 3d
       0.11383996 -0.13864283 0.057152253 0.0615565
000090 5d 75 99 3d 62 5d df 3d ab 5e 24 3d 82 d2 45 3d
       0.074930884 0.10906483 0.040129345 0.04829646
0000a0 c2 e1 4f 3c a9 d4 d4 3d 43 0c 80 3d 2d 44 37 be
       0.012688102 0.10392124 0.06252339 -0.17897101
0000b0 3f 68 0e be 7f 0d d1 3d b3 56 0f 3d ba 81 dc 3c
       -0.13906954 0.10207652 0.034994792 0.026917327
0000c0 d1 dd f1 bd f8 62 95 3d 0b e7 69 3d 72 b4 11 3d
       -0.11809886 0.072942674 0.057105105 0.035572477
0000d0 bc 37 22 3e 16 e9 40 3d 09 ed 31 3d 98 8b ae 3d
       0.15841573 0.047097288 0.043438945 0.08522719
0000e0 2d 98 f8 bc 02 bc d7 bc 2f d3 14 be 25 d2 0f be
       -0.030346 -0.026334766 -0.14533685 -0.14045008
0000f0 28 b8 12 bd f4 b9 f3 bd 3e d4 33 bd 85 bb db bc
       -0.035820156 -0.11900702 -0.04390358 -0.026822815
000100 81 ee fe bd 72 5f b7 bd 9e 97 74 bd 88 d3 cd 3d
       -0.12447835 -0.089537516 -0.059714906 0.10050112
000110 54 fb c7 bd ae cd 72 3d 91 97 8d 3d dd e1 46 bd
       -0.09764734 0.059278183 0.069136746 -0.048555244
000120 6f e0 c1 bd b4 53 d1 bd 1f 34 57 bc 7f df d0 bd
       -0.094666354 -0.10221043 -0.013134985 -0.101988785
000130 64 d6 b5 bd cb 1c 10 be 3f 74 38 be ab 05 8b bb
       -0.088787824 -0.14073484 -0.18013094 -0.004242619
000140 a5 5d af bd dd 58 19 3d cd 94 77 bb 61 98 f5 3d
       -0.08562783 0.037438262 -0.00377779 0.119919546
000150 f7 18 c1 3c 81 46 1a bc 84 d0 92 bc 3c dd d4 3d
       0.023571474 -0.0094162235 -0.017921694 0.103937596
000160 f5 1c 10 be f4 6c 95 3c f8 21 3a 3c d0 db ee 3d
       -0.14073546 0.01824043 0.011360638 0.1166302
000170 9f a4 97 3d 46 eb 79 bd dc 8a 0c bd 0d 04 dd bd
       0.07404446 -0.06101539 -0.034312114 -0.10791788
000180 b1 b2 c9 3d 39 79 b3 bd b6 18 7f bd 63 8c dc 3d
       0.09848536 -0.08763356 -0.062279426 0.10768964
000190 96 8b d6 bc 5b 79 94 bc 40 6a b9 3d ab 01 c7 3c
       -0.026189607 -0.018124273 0.09053469 0.024292788
0001a0 56 cc 8c bb 45 dc 55 3c 08 51 18 3d 7e 0e a2 bd
       -0.0042968197 0.013053005 0.037186652 -0.079129204
0001b0 f9 45 2c bd ef d3 86 bc f4 6f ba 3d d2 01 d4 3d
       -0.04205892 -0.01645848 0.091033846 0.1035191
0001c0 ac 0d 21 bc 97 c6 72 bd 3c 42 60 3e 94 56 06 be
       -0.00982992 -0.05927142 0.21900266 -0.13118964
0001d0 79 00 d4 3d b0 2a 52 3c 0a cf e4 bd de 9b 52 3a
       0.10351653 0.01282756 -0.11172302 0.000803409
0001e0 72 80 05 bd b1 fb a5 bd e8 29 4a 3d 05 90 66 bd
       -0.032593198 -0.08104647 0.04935637 -0.05628969
0001f0 94 f5 c1 3b 5d 39 ea bd 0f 50 89 3d b0 f6 5c bd
       0.005919168 -0.114367224 0.06704723 -0.053946197
000200 33 02 44 bd 7c 9c 71 3d 50 d1 90 bd 3a fb a6 3d
       -0.04785366 0.058987126 -0.07071173 0.081533864
000210 f5 8c 59 be 4a fd 0b 3e 7a 0c 23 3e 55 fa 10 3d
       -0.21245177 0.13670841 0.15922728 0.035394985
000220 ed b5 f8 bd 70 5c 04 be 0f 44 7a bd 3d b6 2e 3d
       -0.121440746 -0.12925887 -0.061100062 0.042654265
000230 46 a5 d9 bd b8 36 99 bd 17 25 40 be 70 8f 5e 3d
       -0.106272265 -0.0748114 -0.18764149 0.05433601
000240 9d 99 3d be b1 e2 ab bd 40 66 13 3e 9d fa bc 3c
       -0.1851563 -0.08392847 0.14394474 0.02306872
000250 87 85 e3 bc 4b 98 12 3e 07 b5 39 be 90 59 bd 3d
       -0.027773632 0.14315908 -0.18135463 0.09245598
000260 d3 33 8e 3d 6c 4a 6b 3d b7 f2 f8 3c b7 d6 06 3e
       0.069434784 0.05744402 0.030389173 0.13167845
000270 3d 21 21 3e 3c c6 ec bd 4c 08 c6 bd 32 79 7a bd
       0.15735336 -0.11561248 -0.09669551 -0.061150737
000280 4f bf 91 3c 1c 32 e0 3d 91 ae 15 3e 9a d9 18 bd
       0.017791418 0.109470576 0.14617373 -0.037316896
000290 5e 26 1c bd 59 79 4d 3d ed bb ea bc a0 9b 7c 3d
       -0.038122527 0.050164554 -0.028654063 0.061671853
0002a0 ba f6 6b bc d2 b0 e1 3d 49 4b 56 bd 55 59 84 3c
       -0.014402086 0.11020054 -0.05231789 0.016155878
0002b0 45 74 4d 3a 00 23 20 3c 06 bf a8 3a f5 fb a4 3d
       0.0007837455 0.00977397 0.0012874312 0.080558695
0002c0 66 4b a2 bd cf 77 0d bd bc 16 fe 3d 6b 61 18 be
       -0.07924537 -0.034538087 0.1240668 -0.14880912
0002d0 14 25 cd 3d 49 57 85 3c e7 b1 87 3c e2 6d e1 bd
       0.10016838 0.016276972 0.016564323 -0.110072866
0002e0 b1 fe 8b bc 00 0f 23 3d 19 0d 1a 3d 05 da ca bd
       -0.01708922 0.039809227 0.037610147 -0.09904865
0002f0 5a c7 36 bd 2d 39 b7 bd 97 fa 5f bc 4d 42 a2 3d
       -0.04462371 -0.08946452 -0.013670585 0.07922802
000300 dd c4 2e 3d bc d3 b0 3c bc b9 e7 bd 24 46 b6 bd
       0.042668212 0.021585338 -0.11314723 -0.08900097
000310 b0 3b a9 bd 50 83 12 3e 71 04 1f bc d8 f7 cf 3d
       -0.082633376 0.14307904 -0.009705649 0.10154694
000320 4f f4 1a bd 70 7f 9c 3d 2a 41 13 3d 05 91 9f bb
       -0.037830647 0.07641494 0.035950817 -0.0048695826
000330 8d e1 59 bb 2e 6e 7d 3d c1 b2 a8 bd d3 af 80 3c
       -0.003324601 0.061872654 -0.082372196 0.01570884
000340 e1 01 b0 bd 35 e2 b5 bd dc 82 22 3c 26 a0 c1 3d
       -0.085941084 -0.08881036 0.009918895 0.09454374
000350 de c9 bf bc 26 3d 1e bd e4 a6 42 bd 07 3d a2 bd
       -0.023411687 -0.038632534 -0.04752244 -0.07921796
000360 3f 8d 3c 3e c1 9f e4 3d ec 8d ae bd 98 eb f1 ba
       0.18413256 0.11163283 -0.08523163 -0.0018457053
000370 dd 4f 92 bd 6b 59 7c bd ed 17 ba 3d 55 b8 e5 3d
       -0.07144139 -0.061608713 0.09086595 0.11216799
000380 b2 0f 69 3d 7e cb 5e 3d f4 7e ea 3d 2f da 8e 3d
       0.056899734 0.054393284 0.11449996 0.06975209
000390 39 1e af 3d a3 d0 64 3d cf fe 1d bd 78 e3 c6 bd
       0.085506864 0.055863034 -0.038573083 -0.09711355
0003a0 64 36 0a be e5 f9 9d 3d 4c 9a 86 bd 82 c9 07 3d
       -0.13497311 0.07713679 -0.065723985 0.033151157
0003b0 5a 50 c5 3d 75 b2 21 3d 46 b4 ad bd 79 f1 3d 3c
       0.096344665 0.03947683 -0.0848165 0.011593216
0003c0 1a c8 d7 bd ba d3 ac bd d2 ee 44 bd 1b cb 52 bd
       -0.10536213 -0.08438821 -0.04807932 -0.051463228
0003d0 9c 9c d9 bd 8b b4 8c 3d 32 c7 a2 3c 20 39 f8 3d
       -0.10625574 0.06870373 0.019870374 0.12120271
0003e0 88 44 bb bd 7c 9c 78 bd ad 20 a6 3d a7 11 96 bd
       -0.09143931 -0.06069611 0.08111701 -0.07327586
0003f0 f5 15 39 3d 9d a6 be 3d b1 92 5b 3d f3 2b 20 bd
       0.045186955 0.09309123 0.053606693 -0.039104413

lstm.weight_hh_l1 f4 [256, 64]
000000 0f 3e 0d 3e dc da d9 3d 2c 45 d8 3d b1 68 38 bd
       0.13793205 0.10637447 0.105600685 -0.045021717
000010 54 3b 60 3d b3 ae 93 bc e1 0d e8 3d 62 da 12 3c
       0.05474408 -0.018027639 0.11330772 0.008963199
000020 29 39 2a be 05 c4 88 3c 31 ff 00 be c3 59 76 ba
       -0.16623367 0.016695032 -0.12597348 -0.0009397531
000030 c0 3e 29 be 37 ee 0f 3d be 06 08 be f5 12 9c 3c
       -0.16527843 0.03513929 -0.13283822 0.019052008
000040 ba 31 02 3c 57 82 f6 3d b2 d5 d3 bd 2a ef 59 be
       0.007946426 0.12036579 -0.103434935 -0.2128264
000050 25 a0 ac bd 67 f6 cb 3d 0c 9b 1c 3d 13 71 af 3d
       -0.08428983 0.09959107 0.0382338 0.08566489
000060 dd 84 86 bc 18 d5 d5 3d a3 84 48 be 13 13 eb bd
       -0.016420776 0.10441035 -0.19581847 -0.114782475
000070 78 a7 c3 3d 1f 33 23 be ca af f2 bd 4c 2f 17 3e
       0.095534265 -0.1593747 -0.11849935 0.14764136
000080 06 62 23 bc df 5e d7 bd 79 97 21 bd f8 19 04 be
       -0.009972101 -0.10516142 -0.039451096 -0.12900531
000090 70 af 63 bd d5 11 25 3d 89 ac 43 3e 6e 72 06 be
       -0.055587232 0.04030021 0.19108786 -0.13129589
0000a0 fc 6f 44 3d cb 00 5e 3d 7a 05 a8 3d d1 ee 41 3d
       0.04795836 0.054199975 0.082041696 0.047346894
0000b0 c3 ca 00 be b2 88 77 3e 11 1a b7 3d 55 58 d7 3d
       -0.12577347 0.24173239 0.08940519 0.10514895
0000c0 39 79 5b bd 36 5a cb 3d e5 f9 ee bd 5f 07 aa bd
       -0.053582404 0.09929316 -0.11668757 -0.08302187
0000d0 72 5d eb bd 6c ad ee 3d d0 19 c6 bd 72 81 5e 3e
       -0.11492433 0.11654171 -0.09672892 0.21729067
0000e0 a6 fb 33 be 6e fd ba bd 45 8e 19 be 48 f8 2a be
       -0.17576465 -0.09130369 -0.14995678 -0.16696274
0000f0 dd 8c e4 3c 89 25 ee bb c5 e5 f4 bd 5b e1 63 3d
       0.0278992 -0.007267658 -0.119578876 0.055634838
000100 b9 33 8a 3c 8d 42 8c 3d 4f e8 3a 3d a6 eb e2 3d
       0.016870366 0.06848631 0.045631703 0.110801026
000110 9b 2e e9 3d e5 e6 ad bd 11 80 a3 3d a0 29 3e b9
       0.113858424 -0.08491305 0.07983411 -0.00018135319
000120 50 b8 94 3b 70 6f 9b 3c d5 9d a7 39 f5 c1 b4 bc
       0.0045385733 0.018974036 0.00031970316 -0.022065142
000130 de 05 dd bd 1b a1 57 3c d5 2f 23 3c 2f 9f bf 3d
       -0.10792135 0.013160969 0.0099601345 0.09356534
000140 94 63 a0 bc 6f 04 0b 3e 0b 91 e5 bd f9 94 1c be
       -0.019578733 0.1357591 -0.112093054 -0.15291204
000150 28 d4 b2 bb a3 a2 9c ba 9a ea 55 3d 44 bc ad bd
       -0.00545742 -0.0011950325 0.052225687 -0.084831744
000160 db 8b e9 3d 13 79 a4 bd 67 bf 50 bc 8b 79 0e be
       0.114036284 -0.080309056 -0.012740946 -0.13913552
000170 45 ac 1d 3d 52 29 a0 bd a5 46 69 bc e4 b7 ff 3d
       0.038494367 -0.07820381 -0.014238034 0.12486246
000180 1b cc 08 3d d5 a0 aa bd 33 f9 5a 3c 46 e6 c8 bc
       0.033397775 -0.083314575 0.013365078 -0.024523865
000190 a2 ed c2 3b 38 f2 34 bd e9 2e 95 bd c1 bd ab 3d
       0.005948738 -0.04417631 -0.07284338 0.08385802
0001a0 ce 9e a9 3d a1 40 d4 3d a9 d6 10 3c 16 fa ab 3d
       0.08282243 0.103638895 0.0088402415 0.083973095
0001b0 c2 74 4d 3d 9d f0 4b 3b 38 bc f2 3b 40 9c a0 3c
       0.050160177 0.0031118758 0.0074076913 0.019605756
0001c0 99 9b 8e 3d 48 db 26 3d e5 20 56 bc e3 7b 80 3a
       0.06963272 0.040736467 -0.013069366 0.0009802546
0001d0 9b b7 f5 3c 77 f7 0e 3e 4c 46 30 3d 39 5b fc 3c
       0.029994776 0.13961588 0.04303579 0.030805217
0001e0 58 6f e3 b8 fc 9c 28 bc d2 42 bc bd c4 12 e7 bd
       -0.00010844943 -0.010291334 -0.091924325 -0.11282876
0001f0 14 33 18 3e 72 eb db 3d 47 07 1f be 6e 17 b1 bd
       0.14863235 0.10738267 -0.1553012 -0.08647047
000200 57 26 26 3c 17 d2 b6 ba da 09 da 3d e8 9b 81 bd
       0.010140977 -0.001394811 0.1064641 -0.06328565
000210 f5 e1 a0 3d bb 97 0c 3c d7 c4 9b bd 1f fd e2 3b
       0.07855598 0.008581097 -0.076059036 0.006927147
000220 ee b2 46 3d a3 7b 3e 3c fc 54 09 be 0d 62 f9 bd
       0.048510484 0.011626157 -0.13411325 -0.12176905
000230 3a aa a6 bd 37 e5 af 3d 50 17 ce 3c 35 a8 c9 bd
       -0.08137937 0.08588641 0.0251576 -0.09846536
000240 d0 fa 80 bc 1f f5 67 3d ca 25 dc bc 48 40 01 3d
       -0.015744597 0.05663025 -0.026873488 0.031555444
000250 3a 0f af bd 9d e6 70 bb 2d a9 61 3d 55 15 84 bd
       -0.08547826 -0.003675855 0.05509298 -0.06449381
000260 86 44 3e 3c e5 33 72 bd 1f ac 11 be b3 14 fa bd
       0.011613017 -0.05913152 -0.14225815 -0.12210979
000270 64 92 0a 3e a9 f4 07 be d5 5e 8b 3d 47 22 9f 3c
       0.13532406 -0.13276924 0.06805197 0.019425524
000280 44 0d dd 3b 96 1a 2c bd f6 6c 9c 3c 52 d2 5a 3d
       0.006745966 -0.04201754 0.019094925 0.053423233
000290 34 ff 27 be bf 4b d4 3c 08 a0 1e 3e 7b c6 29 be
       -0.16405946 0.025915025 0.15490735 -0.1657962
0002a0 e6 1d 1a 3d eb 06 8b 3d 61 93 14 bd 24 34 07 3c
       0.03762617 0.06788429 -0.036273364 0.008252177
0002b0 ff 9c 66 bd 4f 03 f4 3d 67 36 42 bd c5 fa 19 bc
       -0.056302067 0.119146936 -0.047415163 -0.009398167
0002c0 27 d3 16 3e 58 a7 e9 3d b4 2d 6a bd fb 9f 8d bd
       0.14728986 0.114088714 -0.057172492 -0.069152795
0002d0 65 2e 61 3c d1 0f b8 3c ae 08 53 3d 96 84 6e bd
       0.0137439715 0.02246848 0.05152195 -0.058231913
0002e0 bd c0 44 bd 9e 80 4d 3c 63 93 8b bb e5 83 3e bd
       -0.048035372 0.012542872 -0.004259513 -0.046512503
0002f0 35 76 a0 bd a6 02 fc 3d cd 64 ec bd ab b3 1f be
       -0.07835046 0.12305193 -0.11542664 -0.15595882
000300 f3 9b df 3d 56 d2 b9 bd 6d f5 87 3d 8e cb 47 3c
       0.10918417 -0.090733215 0.06638608 0.012194527
000310 43 2d b8 3d 7b 84 f5 3c 69 6f 99 3d 2a 02 07 3e
       0.08993008 0.029970398 0.07491953 0.1318442
000320 e0 ff 38 3d 91 ce ae bd d0 f7 9a bb a1 88 3a bd
       0.045165896 -0.08535493 -0.0047292486 -0.045540456
000330 d8 32 77 3d 13 7b 84 bd 6d 71 4c bd 48 55 90 3c
       0.060351223 -0.06468787 -0.04991286 0.01761879
000340 5c 6f b9 3c 5d 0c 6d bb 38 f4 37 bd f6 db ef 3d
       0.022636108 -0.00361707 -0.04491064 0.11711876
000350 70 1b 83 3d ea 65 b1 bd 76 d3 ae 3d 01 ba 6d bd
       0.06401718 -0.08662017 0.08536427 -0.058038715
000360 98 67 91 bc 80 cf 2e bb 32 96 c1 3d 09 9d 55 bc
       -0.017749593 -0.0026673973 0.094524756 -0.013037928
000370 f4 4f b4 3d f5 83 05 3c e3 b5 5e bd 46 1e 0a 3d
       0.08804312 0.008149137 -0.05437268 0.033720277
000380 83 30 f0 3d 46 5f 14 be ea 01 9e bd ff a0 79 3d
       0.11728003 -0.14489469 -0.07715209 0.060944553
000390 0f ae 70 bd 67 7a 03 3e ea ef bc bd 03 07 b2 bd
       -0.058759745 0.12839662 -0.092254475 -0.08692744
0003a0 32 23 82 3d ee eb 14 3c 09 1d d9 3d 29 5a 8f 3d
       0.06354369 0.009089453 0.10601241 0.069996186
0003b0 07 4d 87 bd 8f a7 d3 3d dd c3 90 3c 74 4b 79 3d
       -0.06606489 0.10334694 0.01767152 0.060862973
0003c0 69 3a be bc 19 50 57 3c 04 5b 29 bd 6c 52 59 bd
       -0.023221212 0.013141655 -0.041346565 -0.05305712
0003d0 15 c3 bc bd 3c 94 00 be 93 8d cd bd dc 04 c2 3c
       -0.092168964 -0.12556547 -0.10036769 0.023683958
0003e0 17 fe 87 3c a7 cd dc bd d5 bf de bd 98 c6 9c 3d
       0.016600652 -0.107814126 -0.10876433 0.07655066
0003f0 58 eb 80 3d eb f6 c8 bd bc 14 9f 3d 5f 85 bc bd
       0.06294888 -0.09812721 0.07767627 -0.09205126

lstm.bias_ih_l1 f4 [256]
000000 51 a3 0a 3e 6c 81 2a 3d 77 88 51 bb af f3 10 3c
       0.13538863 0.041627333 -0.0031972209 0.008847161
000010 58 20 2a 3e 05 9e 03 3e 19 97 42 bd 91 fa f3 3d
       0.166139 0.12853248 -0.04750738 0.11913026
000020 87 08 68 bd 43 80 2f bc 94 de 81 bd 1c 85 c3 3d
       -0.056648757 -0.010711732 -0.063412815 0.09546873
000030 0e 8d 15 3d f2 39 11 3e 44 f2 24 3e 14 ee 66 3d
       0.036511473 0.1418226 0.16108042 0.056379393
000040 d9 94 27 3c 29 8f 0e 3e a4 7d e8 3c 29 0d 1c 3d
       0.010228359 0.13921799 0.028380223 0.038098488
000050 cc 12 aa bd d3 c1 c8 39 07 62 86 bb 0a 91 8f bd
       -0.083043665 0.00038291383 -0.0041010412 -0.07010086
000060 e3 99 9c bd 98 56 2e 3e 79 ca 14 3e 38 3c 60 3c
       -0.07646539 0.1702522 0.14530362 0.013686232
000070 5a e5 3e 3e 9d b9 46 3e 42 62 04 3e 17 d4 36 3d
       0.18642178 0.19406743 0.12928107 0.04463586
000080 1e 2e 14 3e db 85 b2 3c 6c d2 13 3e fc 68 40 3d
       0.14470717 0.021792343 0.14435738 0.04697512
000090 c1 33 6a 3e 35 49 07 3b 8f a0 ae bc d0 3b 61 bc
       0.22871305 0.0020643 -0.021316795 -0.013747171
0000a0 94 d8 9c bc 85 d1 c0 3d 7c 11 7d 3d 11 a2 5e bb
       -0.019146241 0.09414963 0.061784253 -0.003397111
0000b0 e2 8a 26 3e 36 8d ee 3d 88 39 34 bd 5c e9 10 bb
       0.16263917 0.116480276 -0.04400018 -0.002211175
0000c0 cc 7f a7 3d 18 f3 02 bd 82 3c 33 bd 41 fc d1 3d
       0.08178672 -0.031970114 -0.043758877 0.10253192
0000d0 6d 85 97 3d 45 5f 7a 3d 65 3a 57 3d c1 cd 1d 3e
       0.07398496 0.061126012 0.052545924 0.1541052
0000e0 b3 f3 5e 3d fe e4 09 3e d0 ad 2c 3e 26 02 3b bd
       0.05443163 0.1346626 0.16863179 -0.045656346
0000f0 84 02 ef 3d ab fb cc ba 38 08 0b 3e 93 79 11 3e
       0.11670402 -0.0015638968 0.13577354 0.14206533
000100 64 52 3b 3c 3d 6c b0 bd 2a bb a2 3c 58 0a 6f 3d
       0.011433218 -0.08614395 0.019864637 0.058359474
000110 56 05 d6 3d d0 02 d4 3c 03 85 06 3e 8f eb 6a bc
       0.104502365 0.025880247 0.13136677 -0.014338388
000120 df fc 50 3b 12 79 b0 3d 35 2b f1 bd a6 d8 1b 3d
       0.0031889004 0.08616842 -0.11775819 0.03804841
000130 83 78 93 bd cc 63 32 3b bc 10 dd bd e7 22 de 3c
       -0.0720072 0.0027220128 -0.107942075 0.027116252
000140 ef 17 3d bd 0d 08 8c bd 21 f9 9a 3c 18 22 46 3c
       -0.046165403 -0.06837473 0.018917622 0.0120930895
000150 a8 a4 30 bd 25 b2 47 bd 0b 8b 95 3d 04 21 e1 3d
       -0.04312578 -0.048753876 0.07301911 0.10992625
000160 1a d9 da 3d 9b 07 b3 3d e4 67 a3 3d 75 85 c4 3a
       0.1068594 0.08741685 0.079788 0.0014993387
000170 a5 d4 75 bd b9 a4 a5 bd a1 aa 4b bd c5 6e c9 3c
       -0.060017247 -0.08088059 -0.04972327 0.024588952
000180 92 df bc 3b f8 f4 49 3d c6 3c 5f 3d 01 fa 6b 3d
       0.0057639563 0.049305886 0.054501317 0.05761147
000190 33 38 f3 bd 35 8f 49 3d 20 93 01 3d bd ff 5b 3c
       -0.118759535 0.04920884 0.03163445 0.013427672
0001a0 fc 68 bc bd 33 d7 b6 bd 98 7d d6 3d 55 93 c9 3d
       -0.09199712 -0.08927765 0.10473174 0.098425545
0001b0 c8 64 ca 3d dc 15 32 3c ce 2b 81 3d b9 ef 0d 3d
       0.09882504 0.0108694695 0.06307183 0.034652445
0001c0 f3 86 35 bd a4 76 92 bd 59 22 32 3c 3e c2 09 3d
       -0.04431815 -0.07151535 0.010872447 0.03363251
0001d0 b3 65 b3 3d 85 53 62 bd e0 65 19 bc 0e b7 a7 3d
       0.08759632 -0.05525543 -0.009362668 0.08189212
0001e0 92 88 62 bb 80 97 ae 3d 18 6a be bd e2 90 aa 3d
       -0.0034566266 0.0852499 -0.092975795 0.083284155
0001f0 51 43 9d bd 57 73 b2 3c 0d d5 84 3d 9e 8f 81 3d
       -0.07678855 0.021783514 0.06485949 0.06326221
000200 69 43 bf 3d d7 99 0f bd ef 85 b1 3b e2 f2 e7 bc
       0.09339029 -0.035058822 0.0054175775 -0.028314058
000210 5e 9d cd bc 18 54 b1 3d a1 c2 3c bc 13 61 0e 3e
       -0.025099453 0.08658618 -0.0115210125 0.13904218
000220 e1 8b 4f bd 89 74 c5 3d d6 dc 01 be 13 b4 06 be
       -0.05067051 0.09641368 -0.12681898 -0.1315463
000230 c8 00 73 bd 68 2f 52 3c fa 24 45 3d 4a 0f ed 3b
       -0.059326917 0.012828685 0.048130967 0.0072344886
000240 e1 d8 02 3e b1 5d e1 3c 46 26 c9 bd 0e ea c0 3d
       0.12778045 0.027510496 -0.09821753 0.094196424
000250 ac 6c eb bd 57 9b 46 3d d6 5e dd bd 91 3b 5d 3c
       -0.11495337 0.048487987 -0.10809104 0.013502971
000260 8e ce f0 3d 5a 12 14 be a3 d9 b6 bc c8 47 19 be
       0.11758147 -0.14460126 -0.022320574 -0.14968789
000270 ad 13 8d 3d ad 48 8f bd 3e d3 45 3d 21 54 da bc
       0.068885185 -0.06996284 0.04829716 -0.026651444
000280 10 2a 1e 3e 08 24 c7 bd ae a1 9e 3d f7 c0 7f bd
       0.15445733 -0.09723669 0.07745682 -0.062439885
000290 0c 28 0a 3a cb df 7b 3c 7a ca bb 3c 4e 13 53 bd
       0.00052702497 0.015373181 0.022923697 -0.051532082
0002a0 36 62 cb 3d c5 bb 60 bd 6f fe 51 ba e3 26 f3 3d
       0.099308416 -0.05486657 -0.0008010631 0.118726514
0002b0 2f 4a 0d 3d be 21 95 3b ce 94 df 3d 9c 5d 82 3c
       0.034494575 0.0045511415 0.10917054 0.015913777
0002c0 ce 3b 8d 3d 5c 5f db bd c4 2e c6 bd fe 58 30 3d
       0.068961725 -0.10711548 -0.096768886 0.04305362
0002d0 b6 9e 7b bc c3 10 fa bd 88 30 83 3d e8 cd a9 3d
       -0.015357664 -0.12210228 0.06405741 0.082912266
0002e0 86 6e 15 bd 92 a4 86 bd be 9e 85 3d d4 b6 fa bd
       -0.036482356 -0.06574358 0.06524418 -0.12241903
0002f0 5e 59 4e 3d 31 f1 d7 3d 9e 3d 11 be f2 70 a5 bd
       0.050378196 0.105440505 -0.14183661 -0.08078183
000300 c5 46 19 3d c6 d3 cf bc b0 8b 56 3d 23 33 b8 3c
       0.037421007 -0.025369536 0.05237931 0.022485321
000310 00 1c 5b 3c 4d f5 73 3d a4 0a da 3d 07 00 95 bd
       0.013373375 0.05956011 0.10646561 -0.07275396
000320 ad dc c0 bc 0b cd c1 3d 0d 05 af 3d da 4b 1e 3d
       -0.023542726 0.09462937 0.08545885 0.038646556
000330 6c 17 ae bd ba 07 28 3e 94 b9 2a 3e 8e 45 14 bc
       -0.08500561 0.16409197 0.16672355 -0.009049786
000340 20 c7 16 3e 3b 2b 36 3e ac 81 91 bc f2 6c d3 3d
       0.14724398 0.17789929 -0.017762028 0.10323514
000350 65 a9 b7 3d e9 e9 50 3e 41 b9 b6 3d ce e2 05 3e
       0.08967856 0.2040173 0.08922053 0.130748
000360 94 70 b8 bd 2a 7e 7e bc c6 48 48 bd 4c 25 97 bd
       -0.090058476 -0.01553301 -0.048897527 -0.07380161
000370 34 98 01 3e db e7 0a bd 31 b7 b0 3d eb 94 3c 3c
       0.12655717 -0.03391252 0.08628691 0.011510114
000380 9d 36 99 3b 91 77 c1 3d fa 04 e8 bc 1a 87 42 3e
       0.0046757 0.094466336 -0.028322686 0.1899685
000390 dd ee 25 3e e5 26 b8 3c d0 57 b9 3c c0 62 d7 bc
       0.162044 0.022479484 0.02262488 -0.026292205
0003a0 47 17 c5 3d f9 ae 6b bd 69 e2 f0 3d 8b a5 12 3e
       0.096235804 -0.057539914 0.11761934 0.14320962
0003b0 f2 b2 ef 3d 64 5f df 3d 3b 3a 4c bb 52 6a 17 3e
       0.11704053 0.10906866 -0.0031162638 0.14786652
0003c0 bf 79 8b ba 79 92 d7 3b 33 6f a8 3d b4 11 bc 3c
       -0.0010641142 0.00657874 0.082243346 0.02295766
0003d0 13 3c 6e bd 2a 48 19 3e b5 52 a9 bc 9a c5 a0 3d
       -0.05816276 0.14968935 -0.02066932 0.078501895
0003e0 77 e7 1f 3b eb 39 28 3e 6f e8 1e 3d 6f 0c 8e bd
       0.0024399438 0.16428344 0.038795885 -0.06935965
0003f0 18 37 8b bd 9f 93 9d bd 78 3a da 3d 51 92 88 3d
       -0.06797618 -0.07694172 0.10655683 0.06668533
