LSTM/models/sensor_data_1_co_lstm_model.pth (torch, 206032 bytes, 9 tensors)

lstm.weight_ih_l0 f4 [256, 1]
000000 47 70 63 be c1 83 1b 3e d4 61 4f be 74 ff 23 be
       -0.22210799 0.15186979 -0.20252162 -0.16015416
000010 f3 d3 1a 3d 9c 91 1e 3e 3a 59 82 3d b2 34 9b bd
       0.037799787 0.15485233 0.06364675 -0.0757841
000020 b8 79 23 bd 9e 06 10 be d7 2c 25 3e f8 63 3c 3e
       -0.039911002 -0.14065024 0.16130386 0.1839751
000030 89 b0 74 be ca 0a a9 bd 28 6a 14 be ae 2a c2 3d
       -0.23895468 -0.08254011 -0.1449362 0.09480797
000040 c1 46 ad bd 58 57 85 bc d4 5f 2c 3e 1d 64 bf bd
       -0.08460761 -0.016277 0.1683343 -0.09345267
000050 08 b3 04 3e 61 fd 6f be 51 b1 05 be 78 fd 41 be
       0.1295892 -0.234365 -0.13055922 -0.18944347
000060 45 8a 44 3c 23 1e 3e bd 6c 63 20 be 9d e1 7a be
       0.011995857 -0.04641546 -0.15662926 -0.24500127
000070 ad 28 02 bb 26 7c de 3d 39 d0 17 3e ab a7 8c 3e
       -0.001986067 0.10863523 0.14825524 0.2747167
000080 0e 70 ad 3d b6 34 21 bd 97 19 d3 bd fa bf 1b 3e
       0.08468638 -0.03935691 -0.10307615 0.15209952
000090 e9 af 5a 3e 4e 20 70 3e ed 04 20 3e 5b e5 71 3e
       0.21356167 0.23449823 0.15626879 0.23622648
0000a0 f5 c2 24 be 1d 38 e0 bd 33 d3 bc bc 86 44 d9 bc
       -0.16089995 -0.10948203 -0.023049926 -0.026521932
0000b0 05 3f e7 39 d8 22 2d be af 28 92 3d ea 53 79 3e
       0.00044106707 -0.16907823 0.07136666 0.24348417
0000c0 c4 91 59 bb cc dd 9d 3c 40 35 52 be 8b ec 4d bd
       -0.0033198455 0.0192708 -0.20528126 -0.050274413
0000d0 28 3c 90 bd 5d 57 a0 bd c0 55 ec bd aa ee 6d bc
       -0.07042724 -0.07829163 -0.11539793 -0.014522234
0000e0 54 e7 39 bb 26 72 df bd 47 d2 1b 3e 15 ab 30 be
       -0.0028366642 -0.10910444 0.15216933 -0.17252763
0000f0 7c 44 4a be b8 2c 52 be 49 f9 9f 3d 3e c4 55 bd
       -0.19752687 -0.20524871 0.07811219 -0.052189104
000100 58 7c 74 be 98 ce 3d 3e 32 9f 87 bd 7e 04 04 be
       -0.23875558 0.1853584 -0.06622161 -0.12892339
000110 0b 87 0e be f5 0e 94 3d 17 1e bf 3d e5 8a a4 3c
       -0.13918702 0.07229415 0.09331911 0.020085761
000120 b1 3e 77 bd e4 8f 84 bd 14 3b 9d 3e 70 f4 01 3e
       -0.06036252 -0.064727575 0.30709136 0.12690902
000130 c1 41 b7 bd 10 02 e2 bd 8c c1 e1 bd 53 1e 84 3d
       -0.089480884 -0.1103555 -0.11023244 0.064510964
000140 93 4f f3 bc 8d a1 ae bd 6f fb 3a bc ef e3 f4 3d
       -0.02970103 -0.08526907 -0.0114124855 0.119575374
000150 75 d5 20 3e b3 92 4f be 38 e6 50 be e7 dc 09 3b
       0.15706427 -0.20270805 -0.20400321 0.002103621
000160 e8 e7 e1 3d 50 6c a3 bd 90 bb 38 be bd 6c d8 bd
       0.11030561 -0.07979643 -0.180403 -0.10567615
000170 83 f9 81 bd 76 56 1e 3e 60 c3 09 3e 93 0c f8 3d
       -0.06346419 0.1546267 0.13453436 0.12111773
000180 03 c8 18 3e c6 42 cf 3c 1b 2b 3a be a6 81 02 3e
       0.14920048 0.025300395 -0.18180506 0.1274477
000190 c4 0d 19 3e 2c 06 6e 3e e5 13 eb 3d 54 41 95 3d
       0.14946657 0.23244542 0.11478404 0.07287851
0001a0 3e f2 58 3d 47 7d 0a be fa f3 27 be 8f 23 fd bd
       0.052965395 -0.13524352 -0.16401663 -0.12360298
0001b0 68 d7 f7 3b 52 0b 4a bd cc 18 75 3d e5 97 8c bb
       0.00756352 -0.049327202 0.0598381 -0.004290568
0001c0 e5 fd 38 3e 7d 03 26 3e be e6 23 be 30 2b 7f bd
       0.18065603 0.16212268 -0.1600599 -0.062297046
0001d0 5b 7c e6 3c 4e a7 be bd 11 38 62 bc e7 c2 40 3e
       0.02813547 -0.093092546 -0.013807313 0.1882435
0001e0 0f 56 ac 3c aa a8 2e be 29 5f 20 3e 86 32 dd 3c
       0.02103713 -0.17056528 0.156613 0.02700163
0001f0 c6 31 dc bc c6 58 2e 3c 49 aa 3b 3e bf 53 8f bc
       -0.026879203 0.010641282 0.18326677 -0.017495988
000200 3f 05 1d 3e 50 9e 0e be e9 33 64 be 60 d9 2c 3e
       0.15334032 -0.13927579 -0.22285427 0.16879797
000210 1a ee e4 3c ff 3c 67 3e d4 82 66 3e 50 ea bd bd
       0.027945567 0.22581862 0.22510844 -0.09273207
000220 40 12 bc bd 9c ec 1a 3d 76 4d 23 be 45 0c f4 bd
       -0.091831684 0.037823305 -0.15947518 -0.11916403
000230 b0 ac 90 bd e1 49 f8 bc 26 b2 d9 bd 54 6b 49 3e
       -0.070641875 -0.030308666 -0.10629682 0.19669849
000240 45 3d 8f be 54 75 cd bd b1 8b 51 3e 46 40 83 3e
       -0.27976432 -0.10032144 0.20463444 0.25634974
000250 5e 56 6d 3e e3 59 35 be 00 38 4a 3e 8d 1e 1d be
       0.23177478 -0.1771007 0.19747925 -0.15343685
000260 b3 f6 5a 3e fc a6 4c be e9 82 cd bd 44 61 25 3e
       0.21383171 -0.19985574 -0.10034735 0.16150385
000270 ef 06 80 3e a5 47 81 3e eb ee c8 bd fc 15 7c 3e
       0.2500529 0.25249973 -0.09811195 0.24617761
000280 57 3c 88 be 1c 88 0d be d4 ed 37 be 97 af 6b be
       -0.26608536 -0.13821453 -0.17961818 -0.23016201
000290 49 ec 5e be 8f 42 41 3e 72 d2 85 3e 08 83 3a be
       -0.21769823 0.18873046 0.2613712 -0.18214047
0002a0 6b cb 46 be c6 c9 47 be f9 00 2b 3e fa 35 04 3e
       -0.19413535 -0.19510564 0.1669959 0.12911215
0002b0 78 1a 64 3e a1 d1 8c bd de 7b 69 be ca c3 51 be
       0.22275722 -0.06875921 -0.22801158 -0.20484844
0002c0 b9 b9 56 3e 44 14 4e be ae 2d 2d bd e4 a8 29 3d
       0.20969285 -0.20124918 -0.04227989 0.041420832
0002d0 49 b3 29 be 7a 67 7b be 72 1f d4 3d a6 c8 27 be
       -0.16572298 -0.24551192 0.1035756 -0.16385135
0002e0 b8 35 7d be 34 11 18 bd 53 02 80 3e 64 85 55 3e
       -0.24727523 -0.03712578 0.25001773 0.20851666
0002f0 a3 51 27 3e 67 76 39 be 66 59 80 3e fd 84 c4 bc
       0.16339736 -0.18111573 0.25068206 -0.023989195
000300 18 70 88 be d1 ed f7 3d f9 34 d7 bd 30 8c 26 be
       -0.2664802 0.12105907 -0.105081506 -0.16264415
000310 7c f4 27 be c1 78 1e 3e d7 c3 00 3e 1c af 9c 3d
       -0.16401857 0.15475751 0.12574707 0.07650587
000320 1a f3 e1 3c a0 61 a5 3d 36 fe 6c 3e 0b 5b 00 3e
       0.02758174 0.08075261 0.23143849 0.1253473
000330 bc 3f 5a be 56 43 33 bd 93 8d 3d be d1 bc 2e 3d
       -0.21313375 -0.04376539 -0.18511038 0.042660538
000340 46 02 52 be 59 4a 42 bd d0 63 44 3e 8e 32 8e 3c
       -0.2050868 -0.047434185 0.191787 0.01735809
000350 58 a8 a4 3d 51 53 25 bd 56 d1 c3 bd 02 10 02 be
       0.080399215 -0.04036266 -0.09561412 -0.12701419
000360 4a 8d 11 3d ee 99 05 3c 52 f6 e5 3c bd fb 01 be
       0.035535134 0.0081543755 0.028071556 -0.12693687
000370 b3 16 c6 bc fa 58 18 3d e6 7a 33 3e 36 e0 9a 3e
       -0.024180746 0.03719423 0.17527351 0.30249184
000380 c9 24 3e 3e 13 86 05 bc ea 3d 12 be 4e 92 ef 3d
       0.1856872 -0.008149642 -0.14281431 0.11697827
000390 aa 9c 83 3d 60 20 85 3e 7d 08 46 3e f6 32 4b 3e
       0.06426366 0.26001263 0.19339176 0.19843659
0003a0 23 a5 52 be 48 c6 bd bd 13 0f 7a be ef 62 09 3d
       -0.20570807 -0.09266335 -0.24419813 0.033541616
0003b0 2b cd 90 bd 8f 97 bc 3d a0 89 ba bb b9 82 b6 3d
       -0.07070383 0.09208595 -0.0056926757 0.08911652
0003c0 e1 56 aa bd 01 bc 84 3e 7b 45 14 be 3c a6 24 3e
       -0.08317352 0.25924686 -0.1447963 0.16079038
0003d0 53 22 99 3b 10 e8 0a 3c 78 d4 30 be 23 14 91 3d
       0.004673281 0.00847818 -0.1726855 0.07083919
0003e0 ef 83 00 be e2 85 44 be 25 b2 14 3e cb e8 4c be
       -0.12550329 -0.19191697 0.14521082 -0.20010678
0003f0 c5 78 7e be 3f 19 ac bd 58 9c 21 3e b7 43 99 3d
       -0.24850757 -0.08403253 0.15782297 0.07483619

lstm.weight_hh_l0 f4 [256, 64]
000000 90 92 2d 3c 8d e7 dd bd 27 b2 39 bd d4 a4 d2 bd
       0.010594025 -0.108351804 -0.045335915 -0.10285345
000010 bc 76 1e 3e 1e d3 39 bd ea da 3c 3e 78 1f 0a bd
       0.15474981 -0.045367353 0.18442884 -0.033721417
000020 62 2b 83 3d 32 88 21 3d 96 1f 85 3d 11 e2 3f be
       0.06404759 0.039436527 0.06500165 -0.18738581
000030 a8 f1 47 3c da f3 6e 3d b8 f1 90 3d 58 f8 28 3e
       0.012203611 0.058338024 0.07077354 0.16500986
000040 1e ce 10 3e 36 4b ac 3d fa 5b 2b bc f4 92 9c 3d
       0.14141127 0.08412783 -0.010458941 0.076452166
000050 ab f7 e0 3b ef 03 1f bc e4 4d 23 3c 32 b5 83 bd
       0.006865462 -0.009705528 0.009967301 -0.06431045
000060 8f 61 fe ba 9f ce 8b bb 00 70 1c 3d be f8 93 bd
       -0.0019407737 -0.0042665745 0.03819275 -0.07225178
000070 e9 17 de 3d d6 3d dc 3d 72 10 9d bd 70 41 73 3d
       0.10844404 0.10753982 -0.07669152 0.059388578
000080 12 19 e4 bd cc d4 54 3d 54 08 31 3e b0 1f e6 bd
       -0.11137594 0.05196075 0.17288333 -0.11236513
000090 a5 87 a5 bd 6d 67 44 3e e9 df c6 3d d0 2d c8 3c
       -0.08082513 0.19180079 0.09710676 0.024435908
0000a0 b8 ea a7 bc d8 b0 03 3e e0 b1 64 3d 5a 9c 17 be
       -0.020497665 0.1286043 0.055833697 -0.14805737
0000b0 ce c1 25 3d aa f1 4d bc ad dc 37 3d a0 7f 04 be
       0.04046803 -0.012569824 0.044888187 -0.1293931
0000c0 e7 72 03 bd 31 1f f4 3c 4c 25 4d 3d 2a 1f 13 3e
       -0.032092 0.02980003 0.050084397 0.14367357
0000d0 1d a1 ab 3c 4e ea c1 bd f2 56 ba bd b4 dc d7 3c
       0.020950848 -0.09468518 -0.09098615 0.026350357
0000e0 b1 a2 9d bc 47 d8 2f 3d 91 a4 f5 3d e9 e1 9b 3c
       -0.019242616 0.042930868 0.11994279 0.01902862
0000f0 0b 61 b1 3c 60 f7 fa 3c 16 02 c9 3d 7f 09 7f bc
       0.021652719 0.030635536 0.09814851 -0.015566229
000100 e6 45 68 bc 50 23 89 3b 83 a2 bc bd 1c 59 b4 bd
       -0.014176821 0.004185118 -0.09210684 -0.08806059
000110 3e 08 01 3e af ea e1 bd f6 f0 db bd 03 5e d9 3d
       0.126008 -0.110310905 -0.10739319 0.106136344
000120 35 20 03 3e 9f 37 8e 3c bf fc d8 3d 33 5f d6 3d
       0.12805255 0.017360507 0.105950825 0.104673766
000130 21 bd 01 be 81 5a db 3d 58 c5 69 3c 4d b0 21 be
       -0.12669803 0.107106216 0.014268242 -0.1578991
000140 4f ed f4 3d e7 e9 58 3d c6 e1 c9 bd 3a b1 31 3b
       0.119593255 0.05295744 -0.09857516 0.0027113692
000150 3c 1c 02 be 47 8f c6 bd 37 cb 46 3b f5 43 b1 bd
       -0.12706083 -0.09695297 0.0030333528 -0.0865554
000160 47 45 c1 bb e8 b4 90 3c 83 31 85 bb bb ba 0f bd
       -0.005898151 0.017664388 -0.00406474 -0.03509019
000170 b9 ee 78 bc 84 61 4d bd 5e e6 78 bd b1 ba b6 3d
       -0.015193635 -0.050141826 -0.06076657 0.08922327
000180 ea 59 6f 3d a1 06 19 3c fd be 03 bb f8 0c c0 3d
       0.058435358 0.009339959 -0.0020102852 0.093774736
000190 15 6c 74 3c 4a 0f 84 bd 8c ab 23 bd fe 71 ac 3b
       0.014918347 -0.06448229 -0.03995852 0.0052626124
0001a0 f0 fb 5c 3d 99 e2 34 3d 89 7c f6 bd f6 db 44 3d
       0.053951204 0.044161413 -0.12035472 0.048061334
0001b0 13 4b 38 bb 1a f0 9d 3d e9 70 2b 3e 24 58 1f bd
       -0.002812092 0.07711811 0.1674229 -0.038902417
0001c0 56 a2 ce 3c 67 da 8f bc f0 65 d3 3d 64 20 2f 3d
       0.025223892 -0.017560197 0.103221774 0.0427555
0001d0 73 c9 ef 3d 12 0f 34 3d 9f d2 3b bc 18 db 39 3c
       0.11708345 0.043959685 -0.01146379 0.01134374
0001e0 f0 20 9d bb 96 8e 1c bd a4 9c 1f 3d 0f 50 f4 bd
       -0.004795186 -0.038221918 0.038967744 -0.119293325
0001f0 f2 ab 9c bd d2 c1 d2 3d 37 98 a0 bc de 43 63 bc
       -0.076499835 0.102908745 -0.019603832 -0.013871161
000200 0a 4c 0a be 40 1a 50 be e0 af e6 3c 15 4c 9a bd
       -0.13505569 -0.20322514 0.028160036 -0.07534043
000210 60 3f 25 3d dd 3b 3c 3e a7 af 4a 3d fa f3 68 3d
       0.040343642 0.18382211 0.04948392 0.0568733
000220 18 96 eb 3c ae 20 87 39 3a fa 2f 3e 08 b5 af bd
       0.028758094 0.00025773555 0.17185298 -0.08579451
000230 e5 f0 04 3e 49 d2 de bd 2b 3a c0 3c e9 b1 a2 bb
       0.12982519 -0.108799525 0.023465237 -0.004965056
000240 76 2f 7d bd de bf 29 3e 42 d0 ef 3c 7b c9 32 bc
       -0.06181284 0.16577098 0.02927411 -0.0109122945
000250 fe af c4 ba a9 47 40 3e c6 7b 84 3d c9 cd 26 bd
       -0.0015006063 0.18777336 0.064689204 -0.040723596
000260 e7 ac 06 3c b6 5c 0d 3d cc a0 27 3e bd 4b 24 be
       0.008219934 0.034512244 0.16369933 -0.16044517
000270 39 4d c4 3d 3f a9 11 3e d5 f4 99 bd 10 f7 e3 3d
       0.095850416 0.14224719 -0.07517401 0.11131108
000280 25 78 6e be 36 4f 1c 3e 52 2c f3 3d fa 75 5a be
       -0.23288019 0.15264592 0.11873688 -0.21334067
000290 a0 e5 f0 bd 0c 04 15 3e a0 c1 5c 3e e4 53 ff 38
       -0.117625475 0.14552325 0.21558237 0.000121749734
0002a0 23 43 85 3d 29 58 0e 3d 97 86 22 be 74 05 17 be
       0.06506946 0.034752045 -0.15871654 -0.14748174
0002b0 1a b0 29 3e 38 71 3f 3e e4 2a 00 be ff 34 58 bc
       0.16571084 0.18695533 -0.12516361 -0.013196229
0002c0 b6 0c bd 3d 4f 94 0d be ac 2f 05 3e 9a b6 89 3d
       0.0923094 -0.13826106 0.13006467 0.067242816
0002d0 0d 33 c7 3c 41 60 b0 3c 37 6a fe bd d1 82 2d bd
       0.024316335 0.021530272 -0.124226026 -0.042361084
0002e0 4e ed 7c 3d 62 70 0e bd 48 84 f5 3d 26 ac bf 3c
       0.06174975 -0.034775145 0.11988121 0.023397516
0002f0 65 39 01 be 9f 73 27 bd 50 64 b7 3d 78 ec da bc
       -0.1261955 -0.04088175 0.0895468 -0.026724085
000300 08 a3 6a 3d 4a 7e 2e be a3 96 24 3d 46 f2 4d bd
       0.057284385 -0.17040363 0.04018272 -0.050279878
000310 f0 d0 29 3d 2c 2b 29 bd eb f7 94 bd 98 ec 02 3e
       0.041459024 -0.041300938 -0.07273849 0.12785566
000320 85 67 72 3d 27 8a bb 3b 64 04 b6 3d 55 b4 19 3d
       0.059180755 0.005723256 0.08887556 0.037525494
000330 60 38 5c bd 94 4a a6 3d 43 6c 82 3d 95 16 c2 bd
       -0.0537647 0.081196934 0.063683055 -0.094769634
000340 df 5e aa bd 27 c5 1e 3e cc 60 b9 3d a1 f7 84 3d
       -0.083188765 0.15504895 0.09051666 0.06492544
000350 67 2e 8c ba 07 30 bd bd 98 a4 fc bd 9c 44 09 bd
       -0.0010694981 -0.09237676 -0.12336081 -0.033512697
000360 62 24 a8 bd b6 c4 b9 bd 94 09 d4 3d 93 3c 06 3d
       -0.082100645 -0.09070723 0.103533894 0.03277261
000370 72 c9 ee 3c 56 a6 81 3d b5 4e 07 be 58 a0 4d bd
       0.029148791 0.06330554 -0.13213618 -0.050201744
000380 c2 35 a5 3d aa f7 fe 3d 00 ed 13 3e 5d c0 bd 3d
       0.08066894 0.12449582 0.14445877 0.09265206
000390 b2 1a c9 bd f4 74 94 3d c0 c4 05 3d d8 85 39 bd
       -0.09819545 0.072488695 0.03265834 -0.04529366
0003a0 e0 da 04 3d 8e 2c a1 3d 7b 40 56 bd 1f c7 22 bd
       0.032435298 0.07869826 -0.052307587 -0.039740678
0003b0 f3 8e ad 3d 7d 96 1a bd d2 29 f5 3d 4a a9 22 bd
       0.08474531 -0.037741173 0.11970867 -0.039712228
0003c0 a8 4a 36 3d ca 63 03 3c ea b8 b0 3d d6 c8 d2 bd
       0.04450479 0.008019397 0.086290196 -0.10292213
0003d0 f2 a7 06 3d fe 29 4c 3c 65 7c 1d be 29 be 2d 3d
       0.03287501 0.012461184 -0.15379484 0.04241768
0003e0 31 6b e7 3d 56 b3 eb 3d 72 09 34 bd a4 37 df 3b
       0.11299742 0.11508815 -0.04395432 0.006812053
0003f0 16 1b 41 3d 6b 5f c4 3d 5e 13 af bc e5 4a d0 bd
       0.04714497 0.09588512 -0.02137154 -0.10170535

lstm.bias_ih_l0 f4 [256]
000000 17 be a9 3d fd cb b2 3d e1 b0 56 3e 0c b1 f0 3d
       0.0828821 0.08730314 0.20965911 0.11752519
000010 7a 45 46 bd de 7a 8e 3e 85 40 6d 3c b5 e0 6d 3c
       -0.0484061 0.27828115 0.014480715 0.014518906
000020 c6 70 d9 3d d5 db d5 3b 96 b4 08 3d 6d 11 1d 3e
       0.10617213 0.00652645 0.033375345 0.15338679
000030 30 ca bf 3d 98 0b 4c 3d f4 ef 99 3d ed 45 2d 3e
       0.09364736 0.049815744 0.075164706 0.16921206
000040 69 d3 48 3d 0a 42 43 3e 9a 22 0c 3e 67 3a db 3d
       0.04902974 0.1906816 0.13685074 0.10704499
000050 6b 2e 52 3e 69 18 dd 3d 9c e8 48 3d 72 65 b1 3d
       0.2052552 0.107956715 0.04904996 0.08661927
000060 59 d6 39 3e 13 d3 78 3c de 4c 47 3e 38 91 07 3e
       0.18148173 0.015187043 0.19462916 0.1323899
000070 12 c7 8c 3e 70 6b 30 3e 51 d5 2c 3e 6e 3a 96 3e
       0.2749563 0.17228484 0.16878249 0.29341453
000080 5a 36 89 3d e1 74 47 3d 49 bc b5 3d 90 9a 31 3e
       0.0669982 0.04869545 0.08873803 0.17344117
000090 80 12 56 3e f2 99 57 3e 1e 73 3e 3d b6 cd 81 3a
       0.20905495 0.21054819 0.046496503 0.0009903226
0000a0 e3 ca 8a 3d f7 5d 35 3e 9b 28 1c 3e eb 48 e4 bc
       0.06776979 0.17711626 0.15249865 -0.027866801
0000b0 d6 99 14 3e f0 03 2a 3e d4 3f aa 3e 1e 30 34 3e
       0.14511809 0.16603065 0.33251822 0.1759648
0000c0 34 f3 07 3e 2e b5 6c 3d 63 4d d8 3d ae 28 d6 3d
       0.13276368 0.057789974 0.10561635 0.10456978
0000d0 cb 1c f8 3d 1b 79 77 3e 02 9b a5 bd 98 f2 6f 3d
       0.12114867 0.24167292 -0.08086206 0.058580965
0000e0 0f a1 d5 3d 3f 74 3a 3d 04 d6 50 3d 91 54 c5 3d
       0.1043111 0.045521017 0.05098535 0.096352704
0000f0 be bd 41 bd 0d 25 11 3e 5c 24 25 3e a0 be 01 3d
       -0.047300093 0.1417429 0.16127151 0.031675935
000100 c2 3b f4 bc 07 bd 13 bd 03 32 f5 bb af 73 ec ba
       -0.029813651 -0.036068942 -0.0074827685 -0.0018039847
000110 75 96 1b 3e 17 6f 9f 3d 53 ef 82 3d 66 30 c7 bd
       0.15194114 0.077848606 0.06393304 -0.09726028
000120 10 44 08 3d 24 53 8a bd c3 c6 83 3c 85 f6 13 3d
       0.033268034 -0.06754139 0.016085988 0.03612377
000130 48 d0 0d 3d 0f 05 9c bc 77 c5 23 3b 85 ed a4 bd
       0.03462246 -0.01904538 0.0024989524 -0.08053116
000140 8f cb f8 3c 88 20 c9 3d f6 8e 90 bc 22 a0 3f 3b
       0.030370502 0.09820658 -0.017646294 0.0029239734
000150 a6 db 67 bd ee f4 a8 3d c3 1a 22 3d 45 5e b2 3d
       -0.056605957 0.08249842 0.039576303 0.08709387
000160 f1 00 06 bd f5 07 31 bd f7 d7 5a bd 86 76 82 3d
       -0.03271574 -0.04322048 -0.053428616 0.06370263
000170 38 57 d1 bd c1 5a f6 bd 50 fc a2 3d 38 8b 96 bb
       -0.10221714 -0.12029029 0.07958281 -0.004594233
000180 2c 77 d4 bc 21 3b 27 3c 12 b6 d3 bd b3 e6 da bd
       -0.025935732 0.0102069685 -0.103374615 -0.10688534
000190 f3 83 27 be df 24 34 bd c9 fc 01 3d 9d 04 ea 3d
       -0.16358928 -0.043980476 0.031735215 0.11426661
0001a0 62 53 ef 3d 7d de ee 3d f1 fa 2b 3d 23 01 c8 bc
       0.11685826 0.1166353 0.041987363 -0.024414605
0001b0 99 fb c3 bd 3e 7d 3a 3d e5 c7 48 be 07 2a 11 3e
       -0.09569473 0.045529597 -0.19607504 0.14176188
0001c0 32 1a ea 3d 62 74 63 3d bd b4 00 3e d4 81 c4 bd
       0.114307776 0.055530913 0.12568946 -0.09595075
0001d0 ea 7e a8 3d cb fc 8e bc 1e 6d 25 bd fc 90 98 3d
       0.08227332 -0.017454525 -0.040387265 0.074495286
0001e0 4c b7 04 3e 24 54 9d bc 4a 2d e5 3d c0 4a 0c be
       0.12960547 -0.01920516 0.11190279 -0.1370039
0001f0 90 ac d1 3d cf 29 16 3d 94 b4 08 be 05 46 46 3d
       0.10237992 0.036660966 -0.13350135 0.04840662
000200 b9 fe eb 3c 64 13 95 bd a4 15 92 3d 45 91 ff bc
       0.028807985 -0.07279089 0.07133034 -0.0311972
000210 a2 65 ff 3d e4 53 2b bd f7 60 0c 3d 70 4f 1e 3e
       0.12470557 -0.04182805 0.03427216 0.1545999
000220 69 a2 9a 3d 5c 32 d5 bd 03 01 04 bd 52 22 04 be
       0.075505085 -0.10409996 -0.032227527 -0.12903717
000230 de 83 22 3e bf 14 29 be b1 b6 18 3e 96 fd 63 bb
       0.15870616 -0.1651182 0.14913441 -0.00347886
000240 89 a7 d3 3d 60 8b 01 3e 42 84 ea bc b5 2b c7 3d
       0.10334689 0.12650824 -0.028627519 0.09725133
000250 2e b1 8d bd cd ee f0 3d 8a 52 f6 bd be a5 1c 3c
       -0.0691856 0.11764298 -0.12027462 0.009561
000260 5a 53 bb 3d a0 d3 f3 3d d1 d9 03 3e cd 00 a6 bd
       0.091467574 0.11905599 0.12876059 -0.081056215
000270 38 97 02 3e 8c 9b c1 3d 19 e4 ab bd a5 cf 28 3e
       0.12752998 0.09453496 -0.083931156 0.1648546
000280 6a 5e 94 bd b4 d8 6d bd 7d bc b9 3c 97 15 98 bd
       -0.072445706 -0.058067992 0.022672886 -0.07425993
000290 f0 52 c1 bd 93 60 4c 3e e1 0f c8 3d 24 4b 85 bb
       -0.09439647 0.19958715 0.09768654 -0.0040677954
0002a0 1c 9a 99 3d e3 e3 8a bd 46 5c 6c bd 9f 37 59 bd
       0.07500097 -0.06781747 -0.057705186 -0.05303156
0002b0 58 95 d8 bd 96 e6 b6 3d e1 a2 3f 3c 0c f9 36 bd
       -0.1057536 0.089306995 0.011696548 -0.044671103
0002c0 c8 cf d3 bd d2 c6 25 bd 92 5b bc 3d bf 7d 0c 3e
       -0.103423655 -0.040472813 0.09197153 0.13719843
0002d0 94 c4 08 bd 21 92 f8 3d 69 49 1c bd de cc a1 bb
       -0.033390597 0.12137247 -0.038155947 -0.004937752
0002e0 3d 16 bc 3d 19 62 bc 3d b9 67 d8 3d 21 50 da ba
       0.09183929 0.09198398 0.105666585 -0.001665596
0002f0 41 fa df bd a0 33 c3 3d cb 2e 7a bd 7f e9 45 be
       -0.10936404 0.09531331 -0.06107978 -0.19327353
000300 c3 fc 86 3d 6d ce b8 3d 8a eb 17 3e e2 ff 86 3d
       0.06591179 0.090237476 0.14835945 0.065917745
000310 8b f4 ee 3d 4b bf b3 3d 96 d0 e7 3d b0 81 22 3e
       0.116677366 0.087767206 0.113190815 0.15869784
000320 f2 b0 14 bd 23 20 9f bd e4 24 06 bd 1a 40 44 3e
       -0.03630156 -0.077698015 -0.032750025 0.19165078
000330 a3 09 35 3e 60 c0 40 bd a3 70 a7 3d aa ec 55 3e
       0.17679457 -0.047058463 0.081757806 0.20891061
000340 4b 9b 0c 3d e2 14 1c 3e 31 69 20 3e fd f5 25 3e
       0.034327786 0.15242341 0.15665127 0.16207118
000350 5f bd f2 3d 5d 8b 9d 3d 95 25 94 3e eb cd 19 3e
       0.11852526 0.07692597 0.28934923 0.15019958
000360 e5 04 a9 3d 35 fa 9a 3d e6 bf 34 3e 14 2d 53 3e
       0.08252887 0.075672545 0.17651328 0.20622665
000370 56 9b ae 3e 42 3c a4 3d 56 1d eb 3c 7b a5 06 3e
       0.34102887 0.08019306 0.028700512 0.13149063
000380 6c 83 c7 3d f1 b1 2e 3d 8c b5 0d 3e 75 04 7c 3e
       0.097418636 0.042650167 0.13838786 0.24611075
000390 98 51 64 3e 4f 94 58 3e 9e 05 aa 3d 58 4d e8 3d
       0.2229675 0.21150325 0.08301853 0.11342877
0003a0 5c 9d 19 3e b6 64 ec 3d 9f 9b de 3d dc e9 b8 3d
       0.15001434 0.115426466 0.10869526 0.0902898
0003b0 55 cb ff 3d 0b fe 16 3d 56 d4 64 3e 73 9a 9f 3c
       0.124899544 0.036863368 0.22346625 0.019482827
0003c0 06 43 58 3e e5 89 b0 bb 9e 9f 34 bd 10 7a 86 bd
       0.21119317 -0.005387532 -0.044097535 -0.0656625
0003d0 f6 57 83 3e 4e f2 2b 3e e9 2a 1d 3a 81 ca 1d 3d
       0.25653046 0.1679165 0.0005995469 0.0385232
0003e0 d7 ca 58 3e cc 09 3b 3d 05 4b 7e 3e a2 24 84 3e
       0.21171127 0.04566364 0.24833305 0.258092
0003f0 20 ae 25 3e dd 4c b0 3d 0f a1 17 3e 68 f0 67 3d
       0.16179705 0.086084105 0.14807533 0.056625754

lstm.bias_hh_l0 f4 [256]
000000 cf dd c6 3d 95 2f a0 3d 86 8c a5 3d c0 3b 38 3e
       0.097102754 0.078215756 0.08083443 0.17991543
000010 ca 79 2a 3e 1e b8 7a 3e fd df ad 3d f0 22 9d 3d
       0.16648021 0.24484298 0.08489988 0.076726794
000020 ae 0d c5 bd 4e d4 d7 bc 36 9c 1f 3d eb 50 c4 3d
       -0.0962175 -0.026346352 0.038967334 0.095857464
000030 de d2 15 bd 32 96 bf 3d 41 8c 44 3e 69 14 38 3e
       -0.03657805 0.09354819 0.19194128 0.17976536
000040 8e 9b 97 3d 12 48 94 3d e2 24 17 3e 24 76 f2 3d
       0.074027166 0.07240309 0.14760163 0.1183894
000050 b9 61 3a 3e 27 f2 df 3d b3 32 2d 3e 7a f4 4c 3e
       0.1820134 0.10934859 0.16913871 0.20015135
000060 97 9a ab 3d 1b 05 37 3e bb 07 31 3e 61 28 e3 3c
       0.08379095 0.17873041 0.17288105 0.027729215
000070 31 31 06 3e 9e 0a 36 3d 63 93 8b bc 9b 6b 99 3e
       0.13104703 0.04444372 -0.017038053 0.2996491
000080 1b 36 7d 3e 36 73 31 bd f7 40 88 bc f4 26 7b 3e
       0.24727671 -0.043322764 -0.01663254 0.24526578
000090 eb 51 9a 3e fc 98 ce 3d 81 21 70 3e d4 9b 28 3e
       0.30140623 0.10087773 0.2345028 0.16465694
0000a0 29 e2 34 3e 8a 86 db 3c 0b 67 13 3d 9b 2e ba 3b
       0.17664398 0.026797552 0.03598694 0.0056818253
0000b0 7a 0a 81 3e c2 61 10 3e 67 e6 0e 3e 79 65 86 3e
       0.25203305 0.14099792 0.13955079 0.26249292
0000c0 9f 79 fe 3d c0 e5 24 3e 1e 00 80 3c ed 64 34 3d
       0.12425541 0.16103268 0.015625056 0.044041563
0000d0 04 4c 15 3e ff 05 40 3e 58 ac f1 3d 20 80 3c 3d
       0.14579779 0.18752287 0.1180045 0.046020627
0000e0 94 83 19 3e 17 71 92 3d 15 f6 43 3e 8d e5 7c 3e
       0.149916 0.071504764 0.19136842 0.24696942
0000f0 6a 37 3b 3e ec 39 50 3c 17 f1 80 3d a6 21 60 3d
       0.18282858 0.012709122 0.06295984 0.05471959
000100 8e 0a 09 bd f4 22 c2 3d 05 87 48 3d f6 e0 1e be
       -0.03345733 0.09479323 0.04895689 -0.15515503
000110 41 6d c9 3c cb f0 a1 bd 4b 0f 10 3e 01 ff 72 3d
       0.02458823 -0.07907256 0.14068334 0.059325222
000120 dc 95 a0 3c e4 92 d2 bd b5 87 66 3d 9b a2 60 3d
       0.019602709 -0.102819234 0.056281764 0.054842573
000130 79 60 1f 3d fa d0 33 3b c8 bf e4 bd d4 97 54 3d
       0.038910363 0.0027437792 -0.11169392 0.051902607
000140 1c bf 29 3d d6 eb 91 bd 75 c5 2d be 31 3f 8a bd
       0.04144202 -0.0712506 -0.16969855 -0.06750334
000150 dc b2 80 3c 1a 19 dc 3d 97 65 95 3d 75 c0 2d bd
       0.015710287 0.10746975 0.07294767 -0.04241987
000160 a3 55 b5 bd f5 86 00 3e bc 7a 1a 3d ba c6 02 3e
       -0.088542245 0.12551482 0.037714705 0.1277112
000170 60 66 70 bd 55 3c c7 3d 0e 6c df 3d 9a 91 d8 3c
       -0.058691382 0.09728304 0.10909282 0.026436616
000180 3f e8 aa 3d 70 75 ec 3d 2c 0a a3 3d 98 3e 98 3c
       0.08345079 0.11545837 0.079609245 0.018584535
000190 1e 82 4a bc 50 8e f2 3d 37 8f 1e 3d 55 dc be 3d
       -0.012360124 0.1184355 0.0387108 0.09319369
0001a0 09 9a c3 3d 57 da ab 3d 3a 0f d9 3d 4e a9 d3 3d
       0.09550864 0.083912544 0.10598607 0.10335027
0001b0 c3 d5 6a bd b0 11 c2 bd 1a d3 eb b9 7d a5 6b 3d
       -0.057332765 -0.0947603 -0.00044979976 0.05753087
0001c0 3e 47 ba 3b b7 50 b9 bd fe cd 3a 3d be ed 73 3d
       0.0056847623 -0.09048598 0.045606606 0.0595529
0001d0 91 5d 14 be 37 00 0a be 3c de ae 3d 07 24 55 3d
       -0.14488818 -0.13476644 0.085384816 0.05203631
0001e0 1a 23 ee 3d 4a c9 d5 3c bc c2 c8 3d 8f 07 d6 3d
       0.11627789 0.026096959 0.09802768 0.104506604
0001f0 fc f8 6e bd 9b 1d f8 3d 61 1f 5f 3d a4 c7 d6 3d
       -0.05834292 0.12115022 0.054473285 0.10487297
000200 2f 79 cf bd 7b 23 8a bd 16 e9 0a 3d 8e c2 37 be
       -0.10130536 -0.067450486 0.033913694 -0.1794531
000210 77 12 16 3e fd 61 e3 3d a5 df 0c 3e 3d 72 07 3e
       0.14655481 0.11102674 0.13757189 0.13227172
000220 8c 1b 6f 3d 66 9c bb bd 74 70 8a bc 2c b2 c7 bd
       0.05837588 -0.0916069 -0.016899325 -0.097507805
000230 f4 69 da 3d 88 06 0a be a9 eb aa 3c 90 dc d4 bb
       0.1066474 -0.13479054 0.020864325 -0.0064960197
000240 45 f8 3a bd 06 fb 53 bc d8 c9 c4 3d d7 c0 c2 bd
       -0.045646925 -0.012938267 0.09608811 -0.095094375
000250 52 87 cc 3d 63 fd 4c 3d ed d0 c0 bd bb ff fa 3d
       0.09986748 0.050046336 -0.094148494 0.12255808
000260 b2 b0 7d bd 12 3d cb 3d f3 c6 1e 3e da ec 09 be
       -0.061936088 0.099237576 0.1550558 -0.13469258
000270 ad e9 8b bd f3 8c d8 3c 5c 41 ce bd a4 e1 fc 3d
       -0.068316795 0.026434397 -0.1007106 0.12347725
000280 c2 10 86 bd d5 3a 04 3e 24 43 13 3d c1 d5 ae 3c
       -0.06546165 0.12913068 0.035952702 0.02134216
000290 3b 6d 4e 3c 7f 76 2b 3e 01 01 9a 3d d3 01 34 be
       0.012599285 0.16744421 0.07519723 -0.17578821
0002a0 78 cc cd 3d c9 b0 b9 3d 8e f7 d3 bd 7c 03 b4 bd
       0.10048765 0.09066922 -0.10349952 -0.08789727
0002b0 e9 db 42 3d cf 0c 0c 3e 6d 86 b2 bc 91 61 60 be
       0.047573004 0.13676761 -0.021792615 -0.21912219
0002c0 ec 79 60 3d 3e f2 d8 bd 2c 9e 20 3e b9 6f 0b 3e
       0.054803774 -0.10593079 0.15685338 0.13616838
0002d0 f3 f8 8b 3d 0e 02 e5 bd de da df bd 85 26 e8 3c
       0.06834593 -0.111820325 -0.109304175 0.02833868
0002e0 e3 94 e3 3d 9f 5e f8 3d cd 9f 8b 3d 16 ff 7c bc
       0.11112382 0.121274225 0.06817589 -0.015441677
0002f0 46 5a 1f be 48 98 c5 3c aa 04 96 3d c4 71 46 ba
       -0.1556178 0.024120465 0.07325108 -0.0007570053
000300 0e cb 5c 3e 9f d6 20 3e aa ea 88 3e 6d 60 52 3e
       0.21561834 0.15706871 0.26741534 0.20544596
000310 84 36 7e 3d cd 94 e0 3d b8 fc 32 bc 39 32 37 bc
       0.06206371 0.109658815 -0.010924511 -0.011181408
000320 44 b8 62 3d 37 d8 9c bb 82 0a 89 bd c8 0f 44 3d
       0.05535151 -0.004786517 -0.06691457 0.047866613
000330 45 3f ec 3d c2 52 b3 bd 77 5a 45 3d b0 e3 28 3e
       0.11535505 -0.08756019 0.048181977 0.16493106
000340 5c 0d 65 3e 2f 18 8f 3d 8b a2 1a 3e 53 ee 21 3e
       0.22368377 0.069870345 0.15101068 0.1581357
000350 9d b4 ef 3d f7 38 31 3e b6 81 a3 3d b4 ec 26 3e
       0.11704371 0.17306887 0.07983725 0.16301233
000360 bd 2e 8f 3e 67 5e 4e 3e a0 fb 39 3e a1 99 0f 3d
       0.27965346 0.20153199 0.18162394 0.03505862
000370 5d e9 40 3e b7 00 60 3e cc 91 03 3e 5a 03 34 3e
       0.18839021 0.21875273 0.12848586 0.17579404
000380 44 92 8d 3e 74 a1 f5 3d b3 8c 58 3d 8b 0e df 3d
       0.27650654 0.11993685 0.052868556 0.10891446
000390 3e 53 05 3e 03 15 57 3e 75 03 17 3e 12 fc 5a bd
       0.13020036 0.21004109 0.14747413 -0.05346305
0003a0 4d cf 1a 3e 11 11 58 3e 8c 59 98 bd 9e 9f 2a 3e
       0.15118141 0.2110026 -0.07438955 0.16662452
0003b0 a2 51 23 3e 66 5f 31 3d 69 26 9a 3e 2f b0 0d 3e
       0.15949109 0.04330387 0.3010743 0.1383674
0003c0 a8 20 0c 3e 62 89 7e bd c8 8e fd 3b 6c d6 af 3d
       0.13684332 -0.062142737 0.007737968 0.085858196
0003d0 5d 94 30 3e 02 ec a7 3d 48 fe b4 bd 28 9a 8c bd
       0.17244096 0.08199312 -0.08837563 -0.068653405
0003e0 11 c9 f7 3c 73 53 83 bd 57 9d df 3d 28 76 cf 3c
       0.030247243 -0.06412401 0.10918682 0.025324896
0003f0 87 3c 86 3c a9 90 32 3e 3b 9e 2f 3e c3 b9 b8 bd
       0.016386284 0.17437996 0.17150204 -0.09019806

lstm.weight_ih_l1 f4 [256, 64]
000000 72 f4 ae bd e9 0d b6 3c e7 95 02 3e 48 73 cd 3c
       -0.08542718 0.02222343 0.12752496 0.025079384
000010 9f d7 d1 3c fb fc e4 bd e2 7b fd bd ef 05 2b 3c
       0.025615511 -0.11181065 -0.123771444 0.010438426
000020 dd e2 be 3c 33 b5 0b be a5 35 8c bd 53 df 6f bd
       0.023301536 -0.13643341 -0.068461694 -0.058562588
000030 7e 2a 88 bd 2a 07 e7 bd 80 af 7d bd bc 49 db 3c
       -0.0664873 -0.11280663 -0.061934948 0.026768558
000040 b2 9c f0 3c bb c7 24 3d 3c f7 05 3d 11 90 0f bd
       0.029371593 0.04022954 0.032706484 -0.0350495
000050 a6 30 0b be d2 19 36 3e 3c 0c 25 be 15 0e 39 bc
       -0.13592777 0.17783287 -0.16117948 -0.011294861
000060 58 dd ae 3b 39 bf 2a 3a b2 22 b8 bd ff ad 2a be
       0.005336445 0.000651348 -0.089909926 -0.16667937
000070 03 20 e6 3a 73 e4 93 ba 79 1f fe 3c 50 2b 6a bd
       0.0017557148 -0.0011283293 0.031020867 -0.057170212
000080 f0 db ce 3c 77 9d 80 bd 91 3f d0 3b 91 ba 17 3e
       0.025251359 -0.06280034 0.006355234 0.14817263
000090 46 d7 c7 3d e9 1c a6 3d 0a 5f 84 bd 80 41 93 3c
       0.09757857 0.08110983 -0.0646344 0.017975569
0000a0 fa 59 00 3d 20 51 88 3d fc 0c bf bd 1a ef d7 3d
       0.03133581 0.06656098 -0.093286484 0.10543652
0000b0 1d 76 a4 bb 20 87 92 bd b0 5f 02 3e 58 76 a1 bd
       -0.005018963 -0.07154679 0.12731814 -0.078839004
0000c0 2a d2 5a be 77 36 12 bc 0a 9c b3 3d 30 2c 18 3e
       -0.21369234 -0.008924118 0.087699965 0.14860606
0000d0 c3 e8 89 bc e0 bf b9 ba 6a 86 14 3d 7e 83 59 bd
       -0.016834622 -0.0014171563 0.036261 -0.053103916
0000e0 1f 07 5b bc 64 f7 ce 3d 44 96 6b bb 9b e6 ce 3c
       -0.013368397 0.1010578 -0.003594772 0.025256446
0000f0 a3 7b 50 bc 11 19 67 bd e4 db c2 bd 8d b1 a0 bd
       -0.01272479 -0.05642039 -0.09514597 -0.07846365
000100 b5 f3 d5 bd e7 48 0f bd d2 b7 63 3b 63 26 2d 3d
       -0.10446874 -0.034981634 0.0034747017 0.042272937
000110 64 06 2e 3d fd 30 88 bd b9 ea c4 bd d5 c4 a3 bd
       0.042486563 -0.06649969 -0.09615082 -0.07996527
000120 dc a6 52 bc 1c fa d1 bd 9a dd a2 3c 9e e5 6a 3d
       -0.012857165 -0.10252783 0.019881058 0.057347886
000130 42 cb 01 3e f1 07 2f bc 13 d6 4e bd 4f 36 fa bd
       0.12675193 -0.010683046 -0.050497126 -0.1221739
000140 9f 9d 73 bd 75 2f fc 3c 2a cb 73 3d bf 7e 21 be
       -0.05947649 0.030784348 0.059519924 -0.15771006
000150 ca c2 c9 ba 5e 83 88 3d 71 09 8b bd e6 c5 9f 3d
       -0.0015393135 0.06665681 -0.0678891 0.07801418
000160 0a 7c 54 3d 15 25 2d ba b5 22 f1 bb a9 66 15 3d
       0.051876105 -0.0006604952 -0.0073588737 0.036474857
000170 82 d3 0b be e1 b3 ef bc 18 7e 9a 3d 01 d4 2d bd
       -0.13654903 -0.029260578 0.07543582 -0.04243851
000180 3f 1c 0e 3e 80 dc 93 bd 37 85 78 bd e8 45 9c bd
       0.13877963 -0.072197914 -0.06067392 -0.07630521
000190 ac 85 c4 bd 0f 04 01 3e 6c 17 bd bd f1 aa 89 3d
       -0.095958084 0.12599204 -0.09232983 0.067220576
0001a0 36 0d c2 3d 82 de 0e 3e 06 c1 e0 bd 59 ec 20 bd
       0.09475176 0.13952067 -0.10974316 -0.0392879
0001b0 92 27 d3 bd 26 6f 37 3d 7f ef 9d 3d 52 f0 86 bd
       -0.10310282 0.044783734 0.07711696 -0.06588806
0001c0 54 fa 4b bc 71 96 6d 3d 09 64 66 3d 38 a3 07 3e
       -0.01244982 0.0580048 0.056247745 0.13245857
0001d0 ec b2 9f 3d 84 80 4c 3d b9 7f c9 bd d2 09 dc 3d
       0.077977985 0.04992725 -0.09838814 0.107440606
0001e0 97 20 23 3e 65 fe 77 3d e9 60 c6 bd ea 80 1f be
       0.15930401 0.060545344 -0.09686453 -0.1557652
0001f0 cf 2b 94 3c d8 dc 91 3c 7a af 12 bd d0 bc e5 3d
       0.018087296 0.017805502 -0.03581188 0.11217654
000200 67 b5 48 bc c8 77 5b bd 74 0a 39 3e 20 43 35 bd
       -0.012250281 -0.05358103 0.18070394 -0.04425347
000210 34 04 48 bd 5b 82 07 bd da 49 59 3a eb 12 f6 3d
       -0.048832133 -0.0330833 0.0008288898 0.12015327
000220 59 eb 3b bd f8 a8 a4 3d 96 0e 72 bd df 54 a5 3d
       -0.045878742 0.08040041 -0.05909594 0.080728285
000230 60 48 c4 bc 5a ad f1 bb 56 2b 19 3e a5 7a 30 be
       -0.023960292 -0.0073754014 0.14957938 -0.17234285
000240 17 ad 1b bd c0 c2 2a bd f5 14 c5 3c fa e9 97 bc
       -0.03800687 -0.041689634 0.024057845 -0.018544186
000250 3c 7f f9 bd 05 ed 9f ba 9e 16 5d bd c2 1b a2 bb
       -0.12182471 -0.0012201375 -0.053976648 -0.0049471566
000260 72 0c 93 bd fa ba 7a bc 61 a0 45 3d 82 22 3b bd
       -0.07180108 -0.015303368 0.048248652 -0.045687206
000270 39 62 eb bc 4a 33 d3 bd 2b 6e 13 bd 44 f5 8e 3d
       -0.02873336 -0.10312517 -0.035993736 0.069803745
000280 6f af 1b 3e 9e 17 58 3d c8 ab 35 3e 37 7f 94 3c
       0.15203641 0.052756898 0.1774131 0.018127067
000290 01 b5 50 3d ef 33 a3 3d d2 56 ce bd cb 0e a0 bd
       0.05095387 0.0796889 -0.100751534 -0.078153215
0002a0 74 88 ac bc 2e cc 4d bc 28 c2 64 bd 4e 0d 21 3c
       -0.02106116 -0.012560887 -0.055849224 0.009829832
0002b0 5e e4 53 be 93 43 af bd f3 1e a1 bc 35 7f b1 3c
       -0.20692584 -0.08557811 -0.019668078 0.021667102
0002c0 30 cb 15 be b7 04 7d 3d a3 29 46 bd 81 e3 df bc
       -0.14628291 0.061772075 -0.04837955 -0.027330162
0002d0 4a 60 09 bc 51 30 34 3e d9 2a 65 bd a8 e3 1f bd
       -0.0083847735 0.17596556 -0.055949066 -0.03903547
0002e0 af 58 4b 3c db 88 a6 bc 81 01 11 3b 44 e5 69 3d
       0.012411281 -0.02032893 0.002212614 0.05710341
0002f0 ff b9 13 bd 35 78 cd 3d 0b d5 c4 bc 73 50 4c 3d
       -0.03606605 0.10032693 -0.024027368 0.04988141
000300 e2 a8 81 be ce 49 09 be 19 a3 c6 3d cd 86 ab be
       -0.2532416 -0.1340706 0.09699077 -0.33501282
000310 1c e3 8a 3e e9 c4 3e 3e ee fd 08 3e da 79 8d 3e
       0.27126396 0.18629803 0.13378116 0.27632028
000320 01 95 a8 3e 9c 42 22 be b9 24 8a 3e 48 4b 60 be
       0.3292618 -0.15845722 0.26981142 -0.21903718
000330 31 9b 95 3e cd 90 b4 be 64 df 12 3e a5 42 8e 3c
       0.29219964 -0.35266724 0.1434303 0.017365763
000340 ac a1 8c 3e 35 b8 72 3e 61 4f 1a 3e 03 51 1c bd
       0.27467096 0.23703082 0.15069343 -0.038163196
000350 1e 6a 80 bb bf 42 80 3e 21 c3 b8 be b0 ad ee 3d
       -0.0039189 0.25050923 -0.36086372 0.11654222
000360 68 ae 2c 3e b1 bb 7a 3e ef f7 80 3e 7c c4 2c be
       0.16863406 0.24485661 0.25189158 -0.16871828
000370 7f 01 1b 3d 33 b0 7c 3d 07 a3 4c be a5 b7 b6 3e
       0.037843224 0.061691474 -0.19984065 0.35686985
000380 11 d9 a4 bd d2 e6 be 3d ae 38 3c 3e cb 83 72 bc
       -0.08049215 0.09321369 0.18380997 -0.01480193
000390 52 2e c1 bd f6 ea 4b 3e cd 15 9e 3e 15 90 19 be
       -0.09432663 0.19913849 0.30876008 -0.14996369
0003a0 0f 38 6c 3e 92 2d be 3d 35 ed 88 be 18 7a 39 be
       0.2306826 0.092860356 -0.26743475 -0.18112981
0003b0 82 ec 10 bd 94 64 d4 3e ed e5 a3 bd 08 ef 72 be
       -0.0353818 0.41482985 -0.08002839 -0.23723996
0003c0 0c 57 56 3d 0c d0 92 be 6a f0 2d 3e f9 4d a3 3e
       0.052329108 -0.28674352 0.16986242 0.31895426
0003d0 65 e5 4e 3e 8f b0 0d 3e 09 49 3f be d9 e8 db bd
       0.20204695 0.13836883 -0.18680204 -0.107377715
0003e0 c1 0a 9d 3e 75 41 48 3e c8 2b 97 3d b6 4a 44 be
       0.30672267 0.1955622 0.073813975 -0.19169125
0003f0 f7 75 c8 be 7f 11 22 3e d6 e8 0d 3c b9 27 ca be
       -0.391525 0.15826987 0.008661469 -0.3948343

lstm.weight_hh_l1 f4 [256, 64]
000000 b6 12 88 3d 9b 0c a1 bc d6 d4 93 bc 48 c7 db 3c
       0.06644194 -0.019659331 -0.018045824 0.026828423
000010 1f c0 95 bd e3 60 dd bd 7f 99 c2 bd 64 95 aa bd
       -0.07312035 -0.10809495 -0.09501933 -0.08329275
000020 57 f9 8f 3d 31 00 c9 3d ef 7d 04 bd 76 76 a4 bd
       0.0702998 0.0981449 -0.032346662 -0.08030407
000030 19 f1 3d bd b6 8f a1 3b 32 13 d1 3d 79 30 58 3d
       -0.046372507 0.0049304618 0.10208739 0.052780602
000040 eb 20 22 bd 42 74 0f 3e c7 ce 8d bd 36 d8 b6 bd
       -0.039582174 0.14009193 -0.06924205 -0.08927958
000050 04 2f c8 bd 93 7d 33 3d 21 41 f3 3b 96 d4 c2 3d
       -0.097745925 0.04382093 0.0074235355 0.09513204
000060 3a 69 08 be 62 f1 11 3e 3a 15 4d bd 05 de c8 bd
       -0.13321391 0.14252236 -0.05006907 -0.09807972
000070 2a c3 3f 3d 6d d8 95 bd 01 4a 0a 3c 22 dc 60 3c
       0.046816982 -0.073166706 0.0084404955 0.013724359
000080 c6 1e 90 3b e7 f7 c5 bd 0f 40 43 3b 35 cc cc 3d
       0.0043981997 -0.09666424 0.002979282 0.09999887
000090 7a 9b eb bc 80 d4 d3 3d 31 35 c3 bc 81 48 a0 3d
       -0.02876066 0.103432655 -0.023829075 0.07826329
0000a0 95 8a e3 3c 7f f8 be 3d 71 dd 60 3d f3 6b 3d 3d
       0.027776042 0.093247406 0.054898683 0.046245527
0000b0 c5 bd 45 3e 49 6a 2a 3e 05 66 9f bd a3 5a d4 bd
       0.19310673 0.16642107 -0.077831306 -0.1036885
0000c0 35 f2 4f 3e 1f e5 38 bd 2b bf c2 3c 7a 58 0f be
       0.20307238 -0.045140382 0.023772797 -0.13998595
0000d0 2f 54 14 be 62 b1 c8 bd c7 f2 18 be 3a 72 e0 3d
       -0.14485238 -0.09799458 -0.14936362 0.10959287
0000e0 b0 10 b4 bc c9 5b 84 3d bb 03 6a bd 3a 7a af bd
       -0.021980613 0.06462819 -0.057132464 -0.08568235
0000f0 f6 13 49 bd bc 8a 97 bd ea 0a 7f 3d 55 8a a5 bc
       -0.0490913 -0.07399508 0.062266268 -0.020207563
000100 27 17 03 be 31 29 a5 3d ea fd b4 3d ed 7d 10 bd
       -0.128018 0.08064497 0.08837493 -0.035276342
000110 6a 91 36 be 71 88 9d 3d 55 6f b0 bd 01 83 2c 3c
       -0.17828909 0.0769204 -0.08614985 0.010529281
000120 0d 19 9a bd 80 1d 56 3c 42 77 1d bc 72 ad 8f 3d
       -0.07524309 0.013068557 -0.009610953 0.07015504
000130 fb 55 61 3d 3e 54 b0 3d d0 c7 0d bd 1f de 50 3d
       0.055013638 0.08609818 -0.034614384 0.05099308
000140 0f 40 c7 3c ae d0 54 bd 3b a3 c2 3d ce d1 8a 3d
       0.024322538 -0.051956825 0.0950379 0.06778298
000150 10 03 7b bd 80 6a 67 3e da 29 ed ba 44 fd 6f 3d
       -0.061282218 0.2259922 -0.0018094138 0.058591142
000160 d8 41 48 3d cc b7 4d 3e 6f 68 dc bd 00 d1 2d bc
       0.04889092 0.20089644 -0.107621066 -0.0106089115
000170 24 cd 0f 3d 7f 63 df 3d f6 63 3f 3d 77 ad 08 3e
       0.035107747 0.10907649 0.04672619 0.13347422
000180 08 e8 9a bc 99 55 e0 bc 2c 75 17 3c e4 6c 56 bd
       -0.01890947 -0.027384566 0.009244245 -0.05234994
000190 76 8b d7 bc de 0b 0c 3d ce 3b dc 3c 16 8b 3d be
       -0.026311617 0.034191005 0.026883986 -0.18510088
0001a0 48 c6 9a 3c 9b 0a 84 3c 5b 04 e6 3d 0f 6a ae 3c
       0.018893376 0.016118338 0.112312995 0.021290807
0001b0 e5 78 ae 3d dc 84 83 3c 86 58 ac bd 92 17 92 3d
       0.085191526 0.016054563 -0.08415322 0.07133402
0001c0 17 a1 24 3e 04 e5 26 3e e8 98 8b 3d 20 f6 55 3b
       0.16077076 0.162983 0.06816274 0.0032647923
0001d0 3e f0 d8 3d e8 e1 0f bd 06 b9 f4 3d 7f f7 92 bb
       0.105926976 -0.03512755 0.11949353 -0.0044850702
0001e0 8c f8 39 3d cf 9e df 3d a1 81 ec 3d 4d 24 9b bd
       0.04540305 0.10918962 0.11548162 -0.07575283
0001f0 68 bb 10 be f4 5f 3d be 73 ed b2 bd fd 7a f0 bd
       -0.1413399 -0.18493634 -0.08736696 -0.11742208
000200 29 f0 a2 3c d6 9b 2f bd 62 a2 d9 3d d1 a8 47 3d
       0.019889908 -0.042873226 0.10626675 0.04874498
000210 9f 90 17 be 73 25 a9 bd 03 b9 87 3d 7f 2b 5e 3d
       -0.14801262 -0.08259096 0.06627085 0.0542407
000220 f1 7d c7 3d 49 72 e2 3d 24 3d 89 3d 0c 5c 92 3d
       0.09740818 0.110569544 0.06701115 0.07146463
000230 6b 0c 17 3d 81 07 cd bd da 26 bf 3d d8 f6 04 be
       0.036877077 -0.10011197 0.09333582 -0.12984788
000240 15 42 a4 bc 1d c3 48 bb 9f ff f8 3d 82 2d f2 3c
       -0.020051042 -0.0030633875 0.12158131 0.029562715
000250 c2 9e ea 3d 89 ad 12 3e 99 f1 b9 bd b8 fc ee 3d
       0.11456062 0.14324011 -0.09079284 0.11669296
000260 85 97 a5 bc 9e 9d cb 3d aa e0 5d be c9 e1 b2 3d
       -0.020213852 0.099421725 -0.21667734 0.08734471
000270 4f 88 a7 bd 38 0d 03 be d8 3c e6 bd e8 a3 81 3d
       -0.08180296 -0.12798011 -0.11242074 0.06330091
000280 c4 90 01 bd d9 26 67 bd 99 4d ea 3b 54 4e 52 bc
       -0.0316322 -0.056433532 0.0071503636 -0.012836058
000290 dc 5d 03 be c5 82 fe 3c 54 d2 c2 bd d6 74 e1 3b
       -0.12828773 0.031068215 -0.09512773 0.006880383
0002a0 dd d8 d9 bd 5a a5 c1 bc e6 ef ac 3d 02 41 99 bd
       -0.106370665 -0.023638416 0.084441945 -0.074831024
0002b0 40 28 9f bd b6 28 d6 3c 53 db 01 be e8 9c fc bd
       -0.07771349 0.02614246 -0.12681322 -0.12334615
0002c0 4e 7a 22 3e e7 5c e3 bc 8a 8a 20 3d 4b 4c c5 bd
       0.15866968 -0.02775426 0.03919462 -0.09633692
0002d0 19 69 d1 bd 9a fc bc bb 5f 16 27 bd 85 ac 8f bd
       -0.10225124 -0.005767417 -0.04079282 -0.07015327
0002e0 48 dc 70 bd 51 ed 8e 3d cd 69 8c 3d 20 49 aa bd
       -0.058803827 0.06978858 0.068561174 -0.08314729
0002f0 d3 e0 8e bd 03 a9 fc 3b 4d aa 69 bd 89 7f 8d bc
       -0.069764756 0.0077105775 -0.057047177 -0.017272728
000300 42 11 af 3d 7b 26 37 be 75 d7 ba 3d c7 42 d5 3d
       0.085482135 -0.17885773 0.091231264 0.104131274
000310 9e bf 4a be ea e1 17 be a6 97 a2 be 23 ec 1d 3d
       -0.19799659 -0.14832273 -0.31756324 0.038555276
000320 17 5d 2a bd d7 f7 e5 bd 68 8f 64 be 71 af 7a be
       -0.041592684 -0.11228912 -0.2232033 -0.24480988
000330 97 be 49 be 07 ec 6a be a5 7c 22 be 3d 57 31 be
       -0.1970161 -0.229416 -0.1586786 -0.17318435
000340 fa 3a 14 be 0d ec 88 3d 74 bf 86 be 25 7d c4 bd
       -0.14475623 0.06685648 -0.26317942 -0.09594182
000350 bb 23 84 3e 7a 7f 3d 3e 33 98 7e 3e 18 8c 49 3c
       0.2580851 0.1850566 0.24862747 0.012301467
000360 bc 9b 44 3e cf 31 95 be 7a ed a4 bd 1c 0b 23 3d
       0.19200033 -0.29139563 -0.080531076 0.039805517
000370 5f 81 6d be 56 76 70 be bc 47 9f 3d a4 bb 42 be
       -0.23193882 -0.23482642 0.07777354 -0.19016892
000380 bf 99 c4 3d f3 23 a9 be 51 f7 49 bc 33 09 30 be
       0.09599637 -0.3303524 -0.012327031 -0.17191009
000390 4e ba 76 be 45 42 2f 3e b8 95 cf bd 3d 1b 35 3e
       -0.24094507 0.17115124 -0.101359785 0.17686172
0003a0 cd 05 12 3e 41 8e 39 3e 93 8e 64 be 6c 05 54 3e
       0.14260025 0.18120672 -0.22320013 0.20705193
0003b0 e1 97 86 3e 27 b9 3b 3d f6 d0 32 3e bb c0 92 3e
       0.2628775 0.045830872 0.17462525 0.28662667
0003c0 8b ec 67 3d a0 26 17 be 4f 52 de 3d f3 a9 0e be
       0.05662207 -0.14760828 0.10855543 -0.13932018
0003d0 31 d5 28 3e fb 6f 68 be cd 42 9f be 77 9b 2a 3e
       0.16487576 -0.22698967 -0.31105652 0.16660868
0003e0 f7 28 f1 bc 5c fe 9a be b8 7b e2 bd a2 3d 20 3e
       -0.029438479 -0.30272186 -0.11058754 0.15648511
0003f0 ed 67 1d be 02 04 0a be ad 32 27 3e 15 16 b6 3c
       -0.15371676 -0.13478091 0.16327925 0.022227326

lstm.bias_ih_l1 f4 [256]
000000 67 b3 8e bd ea 88 1a 3e 89 07 80 bd ae b6 8b 3e
       -0.06967812 0.15091291 -0.06251437 0.2728781
000010 bc 47 f1 3d bc 04 06 bd 27 dd 63 3e 0f d6 25 3e
       0.1178126 -0.03271936 0.22252332 0.16194938
000020 53 03 10 bd 99 e2 32 3d 30 61 e4 bc d0 3f 64 3e
       -0.03515942 0.04367313 -0.027878374 0.22289968
000030 19 bd 21 3e 39 d0 e3 3d 40 b9 4a 3e e8 f3 4d 3e
       0.15794791 0.111237 0.1979723 0.20112574
000040 54 fd 5a 3d b0 0a 82 3d f1 ac 8a 3e 23 93 58 bd
       0.05346425 0.06349695 0.2708507 -0.052874696
000050 7b 4b 21 3d 49 3a 89 3e 82 09 59 3d 49 e8 19 3e
       0.039378624 0.2680228 0.052987583 0.15030016
000060 6b 74 ab 3d 79 8c 2b 3e 2a ea 27 3e 7e 7c 55 3c
       0.08371814 0.16752805 0.1639792 0.0130301695
000070 f7 7f c9 3d ef 3d 99 3d f5 de 12 3e 95 ae c1 3d
       0.098388605 0.07482516 0.14342864 0.09457127
000080 26 a7 ef 3c d8 ea 60 3c 65 54 af 3c 08 89 03 3e
       0.029254507 0.013727866 0.021402547 0.12845242
000090 87 e0 d3 3d 71 2d ea bb 87 0a 4f 3c 31 69 b7 3d
       0.103455596 -0.0071465303 0.012636787 0.089556105
0000a0 86 8a 1d 3d e6 8b aa 3d 1b c1 0a 3e 26 c1 a3 3d
       0.038462184 0.08327465 0.13550226 0.079958245
0000b0 05 50 3c 3e 2c c8 12 3e 91 0c 2d 3e 67 91 b3 3d
       0.183899 0.14334172 0.16899325 0.08767968
0000c0 b4 a7 c9 3e d5 11 1f 3e 4d cd fb 3d 11 82 7c 3d
       0.3938576 0.15534146 0.122950174 0.06164748
0000d0 77 4b 5e 3e 80 4a c6 3d e9 a2 ea 3d 35 db e5 3b
       0.21708475 0.096821785 0.11456854 0.007014657
0000e0 7b 28 d4 bc d5 4c c4 bc 18 c3 fc 3d ad bc 98 bc
       -0.025898209 -0.023962418 0.12341899 -0.018644655
0000f0 70 0b 25 3e f4 6b ee 3d 5e f4 f6 3c 0f c3 8c bb
       0.16117644 0.11641684 0.03014582 -0.0042957137
000100 5c f3 3f 3d 8c 77 be 3d 75 bd d4 3d a6 8a bb bd
       0.046862945 0.093001455 0.103876986 -0.091573045
000110 65 e8 c6 bd db 04 82 bd 3f 86 fa bc cd e6 7e 3d
       -0.097122945 -0.06348582 -0.030581592 0.062231828
000120 e1 5a 26 bd 34 a7 9a 3d ab 3b a6 bd 49 f7 a7 3c
       -0.040614013 0.07551423 -0.081168495 0.020503657
000130 cf 40 0b bd bb 24 ba 3d 0c 74 1f 3c 11 e2 d8 bd
       -0.033997353 0.09089037 0.009732258 -0.10589994
000140 9c 0a 4b 3d 4f 28 8b 3c fb 60 ea 3d 79 69 26 bc
       0.049570665 0.016986994 0.11444279 -0.010156983
000150 90 15 a8 3d ee 04 3a 3d 18 fc f4 3d 9c f6 7f 3d
       0.08207238 0.045414858 0.119621456 0.062491044
000160 b3 50 10 be 9a 5a a0 bd 37 35 44 bb 4a a3 09 bd
       -0.14093284 -0.07829781 -0.0029938945 -0.03360299
000170 a3 02 bf bd c7 e3 36 3d a7 24 85 bd 36 37 c2 3d
       -0.09326675 0.04465082 -0.065011315 0.09483187
000180 77 a3 0d be d3 2f 67 bd d2 83 0a be a2 20 bb 3d
       -0.13831888 -0.056442093 -0.13526848 0.091370836
000190 f9 58 81 3b 75 bf 1c 3c f4 d6 39 bd 1f 4e bb bc
       0.003947374 0.009567131 -0.04537101 -0.0228644
0001a0 cb 1c 87 3d 59 df a6 bd e6 a9 e5 3d 36 33 51 bd
       0.06597289 -0.08148069 0.11214046 -0.05107423
0001b0 0c 5a 9a 3d 63 04 52 bc 7f 9a 8b bd 87 7d e6 bb
       0.07536706 -0.012818429 -0.06816577 -0.007034007
0001c0 e1 9e 9e 3d d8 09 5c bd f5 fb 72 bd 13 e7 d8 bd
       0.077451475 -0.053720325 -0.059322316 -0.10590949
0001d0 6f 8a 53 3d d1 e0 c5 bc c1 e7 c0 bd 63 e9 de bd
       0.051645692 -0.024155052 -0.094192035 -0.10884359
0001e0 8a 7d 7e bc ac 5e db 3d 36 20 f1 bd 8f 53 3d 3d
       -0.0155328605 0.107114166 -0.11773722 0.046222266
0001f0 59 6b f1 bd 24 1e 9e 3d f3 9e 34 3d bd c0 ee 3d
       -0.11788053 0.077205926 0.0440969 0.11657856
000200 98 8c a4 3d b2 d6 a0 bd 68 1d 55 bc e9 1d 3e 3d
       0.08034629 -0.0785345 -0.013007499 0.046415243
000210 73 3a 03 be 6d 45 06 be 11 fb b8 bc 1c b3 8c 3d
       -0.12815265 -0.13112421 -0.022580655 0.068701
000220 79 4f fb bd 35 77 e3 bd c7 73 e3 bd af 01 af bc
       -0.122710176 -0.11106721 -0.11106067 -0.021363107
000230 28 21 9c bd 95 62 af bd 5f 30 0e be 3f b1 2a bd
       -0.076235116 -0.08563725 -0.1388564 -0.04167294
000240 81 52 c1 bd 84 84 b3 bc 65 eb f3 bd bd eb 0a be
       -0.094395645 -0.021913774 -0.11910132 -0.1356649
000250 ad 88 f3 3d 79 ae 80 3d 63 f2 f6 3d 89 0b de bd
       0.11891303 0.06283278 0.1205795 -0.10842044
000260 40 e3 c2 3d 67 95 ab 3d 1d 5a 0f be 31 f4 b0 3d
       0.09516001 0.083781056 -0.13999219 0.08640326
000270 af 78 5b bb a7 1f c9 bd ce 98 cb 3d 1b 3b fe bd
       -0.003348868 -0.0982049 0.099412546 -0.12413617
000280 c4 b3 28 bd 56 48 eb bd 31 1e 22 bd e7 49 94 bd
       -0.041187063 -0.11488406 -0.039579574 -0.07240658
000290 26 4a 01 3a 66 cf 10 3e c2 52 38 3d 10 4f b8 bd
       0.00049320085 0.14141616 0.0450008 -0.08999455
0002a0 d2 ca 03 3e 32 50 cc 3d a4 65 4e bd 15 a2 5a bd
       0.12870339 0.099762335 -0.0503899 -0.05337723
0002b0 1f ff 9d 3d ad 7c bb 3d 82 ef 09 3e 4b f2 ee 3c
       0.07714676 0.091546394 0.13470271 0.029168269
0002c0 22 66 b0 3d 32 f2 bd 3d df 9f 4a bd f1 34 b1 bd
       0.0861323 0.09274711 -0.04946887 -0.08652676
0002d0 b7 fa 97 3d 61 38 a2 bd d2 64 81 bc 01 3f a0 3d
       0.07420867 -0.0792091 -0.015795145 0.07824517
0002e0 fc ff 41 bd f0 60 e0 bd 1a f6 18 3c 27 49 01 3e
       -0.047363266 -0.10955989 0.009336019 0.12625562
0002f0 da 2a 00 be 45 be 11 be d4 a7 e1 3d 1e e7 03 3e
       -0.12516347 -0.14232738 0.11018339 0.12881133
000300 b0 06 80 3d 61 b4 bd bb 56 7b 9d 3d 23 4f 91 3e
       0.062512755 -0.005789325 0.0768954 0.2838069
000310 93 4a f6 3d 7f 8a 1d 3d 0b 12 b6 3d 0f 31 18 3e
       0.12025943 0.03846216 0.0889016 0.14862464
000320 cb 89 5f bd 75 51 13 3e 66 a7 22 3e b2 1f 45 3e
       -0.05457477 0.14386542 0.1588417 0.19250372
000330 be fc bc 3d 4f 10 15 bd bf 2b 14 3e 4c 89 4f 3e
       0.09227894 -0.036392506 0.14469813 0.20267218
000340 0c 4a 83 3e 50 2b 99 3b 8a 14 7a 3e 71 11 08 3e
       0.2564243 0.0046743527 0.24421898 0.13287903
000350 81 94 04 3e ef 3d 7b 3e 3b 9d 41 3e 70 2d 2a 3e
       0.12947275 0.24535345 0.18907635 0.16618896
000360 b4 73 61 3e fe d1 83 bc 6e 44 2d 3d d9 37 7b 3d
       0.22016793 -0.016091343 0.042301588 0.061332557
000370 86 1b 21 3e fd 1c 8f 3d 0d ca ba 3c 3f f9 93 3d
       0.15733156 0.06987951 0.022801423 0.07225274
000380 e5 68 52 3e 24 3b 6f 3d 8c a2 80 3e 27 c2 26 3c
       0.20547827 0.05840601 0.25124013 0.010178125
000390 d3 8e ad 3d a4 8d 58 3d ec cf 52 3e c0 3d 66 3e
       0.08474507 0.052869454 0.20587128 0.22484493
0003a0 24 9c 09 3c aa 8c 6d 3d 9f 78 c6 3c 42 86 cb bd
       0.008399043 0.057995476 0.024227438 -0.09937717
0003b0 c2 a7 85 3e a7 41 53 3e e2 a0 34 3e 17 1c f3 3d
       0.26104552 0.20630513 0.17639497 0.11870592
0003c0 f4 2d f3 3d 98 dd 96 bd ce 0b 17 3e 87 0c c0 bd
       0.11873999 -0.073664844 0.14750597 -0.093773894
0003d0 e4 af f9 3d 8a 1b 98 3e 51 94 0b 3e 35 56 b4 3d
       0.121917516 0.2970851 0.13630797 0.08805505
0003e0 62 74 92 3d 9b e1 47 3c d6 0a 18 3e c5 e5 28 bd
       0.071511045 0.012199785 0.14847884 -0.04123475
0003f0 3c 9f 4b 3e 8f e4 84 3e 8b 29 7c 3c 5e 73 12 3e
       0.19884962 0.25955626 0.015390764 0.14301822
