LSTM/models/sensor_data_3_pm1_lstm_model.pth (torch, 206046 bytes, 9 tensors)

lstm.weight_ih_l0 f4 [256, 1]
000000 41 f6 33 3e 80 00 13 bc a6 96 aa 3d 96 d1 a5 bd
       0.17574407 -0.008972287 0.08329515 -0.08096616
000010 14 de d6 bd d7 35 88 bd 05 79 25 3e b4 97 90 be
       -0.10491577 -0.06650894 0.16159447 -0.2824074
000020 e7 92 a2 bd 9b b6 85 3d af 8d eb 3d 82 bf a9 bb
       -0.07938176 0.0652897 0.115016334 -0.0051803
000030 f8 3c 0b be 2d c9 30 be 45 3f d0 3d cb 05 7a 3d
       -0.13597476 -0.17264242 0.10168318 0.06104068
000040 b7 f3 57 3e f4 bc be bb 23 22 17 3c 92 bf f1 bd
       0.21089064 -0.005820865 0.009224447 -0.11804117
000050 44 9c 1f 3d 69 fc 08 be b5 b4 40 3e b0 d4 18 3e
       0.038967386 -0.13377537 0.18818934 0.14924884
000060 19 8e 25 3e 14 08 75 3e 03 de 2f 3d 4e 1b 21 be
       0.16167487 0.23928863 0.042936336 -0.15733072
000070 b7 0d f6 3c 99 aa 23 3e ca c9 34 3c e7 96 e7 3d
       0.030035837 0.15983047 0.011034438 0.11308079
000080 8e 3b 1a 3e c0 b6 3c 3e 31 ba a4 3c 67 ea fc bd
       0.15061781 0.18429089 0.020108314 -0.12349396
000090 89 55 58 bd 86 b6 99 3d f2 0e 8f bd cf 61 47 3e
       -0.052815948 0.07505517 -0.069852725 0.19470905
0000a0 0c 97 ae bd 17 e2 4e be 4c 9a 1d 3e 66 90 84 3d
       -0.08524904 -0.20203434 0.15390891 0.06472854
0000b0 2b a2 75 bc 9a 9d 0e 3b c8 18 05 3d 06 45 62 3e
       -0.014992277 0.0021761418 0.032494336 0.22096643
0000c0 03 e6 d4 3d d5 88 9a 3d 47 e2 4b be ec cb d7 3c
       0.10395434 0.0754563 -0.19910537 0.026342355
0000d0 dc e8 bc 3d 1f 44 d8 3c 68 df 15 bd a6 64 da 3b
       0.09224102 0.02639967 -0.03659001 0.0066648303
0000e0 97 d0 67 3c 61 b3 57 be bc 9c cd 3d 8f 7f c2 3d
       0.014148853 -0.21064521 0.1003966 0.09496986
0000f0 79 2d 5a 3c 0c 40 95 3d 0e dc 19 3d 21 89 07 3c
       0.013316506 0.072876066 0.037563376 0.00827244
000100 c2 b3 0b 3e 34 97 63 3d 62 e8 b2 bc e4 f1 30 bd
       0.13642791 0.05556412 -0.021839324 -0.043199435
000110 20 2c b8 bd 50 42 e6 3c 03 d3 c7 bb 7f eb be bd
       -0.08992791 0.028107792 -0.0060981526 -0.09322261
000120 7a fc 23 be b1 81 10 3e 2a d6 09 3d cb 19 bd 3c
       -0.16014281 0.14111973 0.03365151 0.023083588
000130 e1 7d 4c 3d e9 77 17 be 90 1b 61 3d a3 e6 95 bd
       0.049924735 -0.14791836 0.054957926 -0.07319381
000140 58 f9 f1 3d 04 10 56 bc a6 bb ae 3d b0 e0 74 bd
       0.11815137 -0.013065342 0.08531885 -0.05978459
000150 11 ab e7 bd 61 aa 94 bd 10 58 32 3c ea e5 38 bd
       -0.11311925 -0.0725906 0.010885254 -0.045141138
000160 6c 7f d6 3c c8 84 1a 3e 66 f8 0b 3c 82 5a a7 3d
       0.026183806 0.15089715 0.0085431095 0.0817156
000170 58 90 0d be 67 c1 13 3e 7d 51 1f 3d ad f6 b1 bc
       -0.13824594 0.14429246 0.038896073 -0.02172407
000180 80 5b 17 3d ca d1 29 3d f1 fd 78 bd ce 04 d1 bd
       0.036952496 0.041459836 -0.060789052 -0.102059945
000190 84 20 b1 3c 37 6e 0b bc 74 3b 22 bd 2f 1e d2 bd
       0.02162195 -0.008510164 -0.03960748 -0.10259663
0001a0 38 ee 0c bb cd 1b 4c bc 7b ca 8e 3d 47 f7 1b bd
       -0.0021504294 -0.0124578 0.06972214 -0.03807762
0001b0 e8 bc c0 3d 8a 40 78 bd c5 ab 05 3e 3c f5 69 3d
       0.09411031 -0.060608424 0.13053806 0.05711864
0001c0 b5 f4 ab 3d b0 07 3b 3d c6 a3 e0 bd 63 b0 93 3d
       0.083962835 0.04566163 -0.10968737 0.072113775
0001d0 96 f0 80 bd 60 e8 9e 3d 98 97 c1 bd b7 3b 98 3d
       -0.06295888 0.07759166 -0.09452742 0.07433265
0001e0 ac b9 ed bd ab 44 0d 3c 03 9c 1a 3e bc 6f 18 be
       -0.1160768 0.008622329 0.15098576 -0.14886373
0001f0 b2 24 2d 3d ad 31 a6 bd 54 6e 2b be 64 cd 4f 3e
       0.042271324 -0.08114944 -0.16741306 0.20293194
000200 19 bc 41 be ff b7 3f 3e ad de 7d 3e c3 ec 61 be
       -0.1891941 0.18722533 0.24791975 -0.22062974
000210 05 34 43 3e f3 5e bb bd f0 6e 8c bd 82 48 20 3e
       0.19062813 -0.091489695 -0.06857097 0.1565266
000220 7c 2c 52 3e c0 23 79 3e 3a 7f b5 bd 2f 6c 64 3c
       0.20524782 0.24330044 -0.08862157 0.013941809
000230 e2 db 92 bd db 13 3d 3e f8 ef 34 3e 62 b3 04 3e
       -0.071708456 0.18464606 0.17669666 0.12959054
000240 04 33 6e 3e d5 79 4c be 97 d0 1a be f8 be 44 3e
       0.23261648 -0.1996835 -0.15118633 0.19213474
000250 b6 4c 46 be 75 8c 50 3e 6c 57 75 be 50 7e 65 be
       -0.193652 0.2036608 -0.2395913 -0.22411466
000260 bb 38 3a be 3d 8e 28 be 58 f0 4d 3e 7f 1f 6b be
       -0.18185703 -0.1646051 0.20111215 -0.22961234
000270 1b 01 d7 bd c5 fa 0b be 7c d9 58 be 98 96 54 be
       -0.10498258 -0.1366988 -0.21176714 -0.20760572
000280 26 c9 aa bd ef c3 0f 3e 12 73 8b bc 1e 78 a2 bd
       -0.08339147 0.14039586 -0.017022643 -0.07933067
000290 5d 41 35 be f8 48 77 be b1 d4 0d 3d 46 49 d9 3d
       -0.17700715 -0.24148929 0.034626666 0.10609679
0002a0 7e ff 71 bd 9f 36 24 3e cd b6 4f 3e 21 d5 cf bd
       -0.059081547 0.16036461 0.20284577 -0.10148073
0002b0 d6 45 6d be 48 a3 02 3e d6 25 3f 3e bf 2b 5d 3d
       -0.23171172 0.127576 0.18666777 0.053996798
0002c0 85 bc 66 be fa d7 69 3e 79 76 18 be 81 e1 d7 bd
       -0.22532852 0.22836295 -0.14888944 -0.10541058
0002d0 19 a7 6f be d9 df 7b 3e 1a 42 20 3e 51 ff ba bd
       -0.23403586 0.2459711 0.15650216 -0.09130729
0002e0 d4 b5 84 3e 73 9d e3 3d fc ba 40 be 9b 2a 4a 3e
       0.25919974 0.111140154 -0.18821329 0.19742815
0002f0 12 a1 61 3e 74 0e 51 3e 59 e3 fb bd 98 76 56 3e
       0.220341 0.2041567 -0.122992225 0.20943677
000300 75 81 00 3d de 8f 12 3e 3f 8a 4a 3e 15 5b f6 bd
       0.03137346 0.14312693 0.19779299 -0.12029091
000310 d9 dd ee bc 75 3c 7b bc d0 40 9f 3d e8 59 26 be
       -0.02915852 -0.015334238 0.07776034 -0.16245234
000320 2b 4f d5 3d 7f b9 96 3d a8 7f 44 3d 4a 0d f5 bc
       0.10415491 0.07359599 0.047973305 -0.029913563
000330 4d 5a 28 3d d6 ee 0e be 6b 58 32 3e d8 ac 6f 3d
       0.041101743 -0.13958296 0.17416541 0.058514446
000340 ec dc 17 3d d5 72 ce bd 53 47 b8 3d ab 72 10 be
       0.037075922 -0.10080496 0.08997979 -0.14106242
000350 24 39 94 3c ec 91 99 3d f9 4c 22 3e 02 30 20 3e
       0.018093653 0.074985355 0.15849675 0.15643314
000360 07 e8 68 3e cd d5 d4 3d 86 6f 56 3e b8 95 ba bd
       0.22744761 0.10392342 0.2094098 -0.09110588
000370 50 1c 01 bd 42 97 9b 3d e7 b0 08 3d 85 e5 a0 3d
       -0.03152114 0.075972095 0.033371832 0.078562774
000380 c7 d4 c5 3d ff d9 36 3e 01 fd 8e 3a a0 22 09 be
       0.09659725 0.17856596 0.0010909141 -0.13392115
000390 c7 ea 30 be 43 95 0a 3e 59 46 fa bc 92 b2 3f 3e
       -0.1727706 0.13533501 -0.030551123 0.18720463
0003a0 47 3a 25 bd c2 3f 77 be 82 f9 80 bd 76 d8 0f bd
       -0.04033878 -0.24145415 -0.0629759 -0.035118543
0003b0 94 47 42 3e 0b 9d e9 bc 52 1f 3b 3e cb 1d 59 3e
       0.18972617 -0.028517267 0.18273667 0.21202771
0003c0 34 42 4b 3e 9a 42 72 3e 41 f3 71 bd b9 1a a7 3d
       0.19849473 0.23658219 -0.059069876 0.08159394
0003d0 4a 10 ce bc 66 77 75 3d bc f1 f7 3d fa 51 28 3e
       -0.025154252 0.05992832 0.12106654 0.16437522
0003e0 64 95 8d 3c b9 82 e6 bd d1 78 7b 3d 06 58 d6 3d
       0.017283149 -0.11255402 0.061394516 0.10466008
0003f0 2e 3e 71 3e c1 b0 32 3e 1a 96 a5 bd 2c ae 70 3e
       0.23558876 0.17450239 -0.0808527 0.23503941

lstm.weight_hh_l0 f4 [256, 64]
000000 a8 68 1b bc 81 8b 3e 3d f9 46 9d 3d 92 f7 3e bc
       -0.009485401 0.04651976 0.076795526 -0.011655705
000010 76 54 7c bd 7f 11 1f bd fd 5d 93 3d 5c 60 38 be
       -0.061603986 -0.038835045 0.07195661 -0.18005508
000020 c1 2c 88 3d f3 06 72 bd fa a1 30 be 45 92 dc 3d
       0.06649161 -0.05908866 -0.17249289 0.10770086
000030 04 64 0c bd 32 f5 0f bd 56 0e 13 3e 84 7e b5 bc
       -0.03427507 -0.035145946 0.14360937 -0.022155054
000040 d0 f6 1d bc c6 49 5c 3d 82 93 ae bc c0 11 ea bd
       -0.009641364 0.053781293 -0.021310572 -0.11429167
000050 d0 61 a2 bd f6 5a 68 3c a9 17 54 3d 43 53 85 3d
       -0.079288125 0.014181843 0.051780377 0.065100215
000060 8a 3a f8 3c ff 1c b4 3d d1 31 a2 bd 53 90 20 3c
       0.030301351 0.08794593 -0.07919658 0.009800035
000070 fc af 05 3e ef 23 1c bd c2 49 d2 3c 77 c9 78 3c
       0.13055414 -0.038120206 0.025669936 0.015184752
000080 48 ff 27 be b0 ad b1 bc 31 37 75 bd b1 bf 86 3d
       -0.16405976 -0.021689266 -0.059867088 0.06579531
000090 fc 4f 7f 3d 1e 8c cd 3d f8 9d 2d bd a4 16 93 bd
       0.06233214 0.10036491 -0.04238698 -0.07182053
0000a0 47 4b 34 3e 24 93 a5 bb a3 c3 2c 3d fe 0e 03 bb
       0.17606841 -0.005052941 0.04217876 -0.001999795
0000b0 ac 56 10 3c 3c 18 2c be 35 33 ec bc e4 de 88 bd
       0.008809727 -0.1680612 -0.028833011 -0.06683138
0000c0 98 50 23 3c 3f e2 10 3e e9 1e 97 3d 86 65 97 3d
       0.0099679455 0.14148806 0.073789425 0.07392411
0000d0 cd 79 07 3e 6f 6b 76 bc 71 5c 46 bd 44 47 03 be
       0.13230057 -0.015040263 -0.048428003 -0.12820154
0000e0 d8 e5 be 3c 27 71 86 bd 49 cd 21 bc f6 6f 7e bd
       0.023302957 -0.06564551 -0.009875604 -0.062118493
0000f0 c6 81 ad 3d 11 18 00 3e 64 36 81 bd c6 78 f9 3d
       0.08472018 0.1250918 -0.06309202 0.12181239
000100 ee 10 d3 3c 20 a7 de bc 28 52 a6 bc 31 e0 8f 3d
       0.025764909 -0.0271793 -0.020302847 0.07025183
000110 9a a9 0e be 41 6d db 3c 96 fe c6 3b 1d 43 cc bd
       -0.13931885 0.026785495 0.0060728295 -0.09973738
000120 77 e1 23 be bb 31 3d 3d 84 c2 8f bd 6d 80 73 3c
       -0.16003977 0.046190005 -0.07019523 0.014862162
000130 44 fc 90 3d 43 0b 8c 3c 83 c8 33 3e b3 a6 2a bb
       0.07079366 0.017095214 0.17556958 -0.0026039302
000140 d8 88 22 3e 0e f4 96 3d ba 01 38 bc 64 1f ab bd
       0.15872514 0.073707685 -0.01123088 -0.08355597
000150 93 26 32 be 6b cc d0 bb 7d 42 a5 bc bf 12 7a bd
       -0.17397527 -0.006372025 -0.020173306 -0.061053034
000160 09 86 ca 3c a2 e1 c1 3c d8 a7 19 3e 6c c5 1b 3e
       0.024722116 0.02366716 0.15005434 0.15212029
000170 78 67 fe 3c fe 7a 60 3d a6 97 bd bc 02 25 5e 3d
       0.031055197 0.054804794 -0.0231436 0.054234512
000180 25 5b 9b bd 74 8b d3 3c 72 98 52 bd 4c 94 15 3e
       -0.07585744 0.025823332 -0.051414914 0.14607352
000190 b3 f3 17 bd c8 3f 76 bd 59 c6 2f be 8e 4d 65 bd
       -0.037097644 -0.06011942 -0.17165507 -0.055982165
0001a0 49 70 4e 3e b1 fe fd bd d7 82 61 be be 26 21 be
       0.20160021 -0.12402094 -0.22022568 -0.15737435
0001b0 ab 5d 17 3e 59 aa a4 bd ee 03 dc 3d 07 7d 6f 3d
       0.14781825 -0.08040304 0.10742937 0.058468845
0001c0 00 80 f2 3b 5a d7 9d bb 13 64 c7 3d bc 22 3f be
       0.0074005127 -0.0048169317 0.097358845 -0.18665594
0001d0 1e 99 1c 3e 3e ab 2a 3e cf 78 a7 bd c1 2d 40 bd
       0.15292785 0.16666886 -0.08177339 -0.046918634
0001e0 92 cd 44 be a7 68 34 be 3d 19 a7 bd b1 e5 24 be
       -0.19219044 -0.17618047 -0.08159111 -0.16103245
0001f0 fa 29 8c 3d d4 cb c1 3c e4 6b 3a 3b 94 e2 e2 3d
       0.06843944 0.023656763 0.0028445655 0.110783726
000200 8d 9f e6 3c 75 25 e2 3b 43 b3 35 3d dc ad 62 3d
       0.028152252 0.006901438 0.04436041 0.055341586
000210 98 b8 a3 3c 43 75 bc 3d be ec c4 bd f2 64 df bd
       0.019985482 0.092020534 -0.096154675 -0.10907926
000220 43 6b b1 3d 37 4c 1b 3e e8 4e f3 bd aa 4c 9b 3d
       0.08663037 0.15165792 -0.118802845 0.07582982
000230 0a ec 69 3d bb f0 a0 bc 8e 39 d0 3d bc 31 d7 3d
       0.05710987 -0.01964604 0.10167228 0.10507533
000240 6e 80 88 3d 64 56 04 3e 70 9a 12 ba 70 48 eb bd
       0.06665121 0.1292358 -0.0005592471 -0.11488426
000250 da d5 9d 3b 3c 54 8b bd 75 da fa bd 08 b1 2d be
       0.004816753 -0.06803176 -0.122486986 -0.16962063
000260 b0 89 1e be 58 b9 dc bd c6 e6 2e 3e df 10 1c 3e
       -0.15482211 -0.10777539 0.1708022 0.15240811
000270 ed fe ac 3c ac fc f8 bd 76 b8 dc 3b 03 14 1c be
       0.021117652 -0.12157568 0.0067358566 -0.15242009
000280 9d de 64 bc ba 67 55 bc 5a bb 08 be d2 60 67 3d
       -0.013969091 -0.013025219 -0.13352719 0.05648882
000290 81 91 d5 3d 28 a3 07 be 70 49 70 bb de f3 73 3d
       0.10428143 -0.13245833 -0.0036664866 0.05955874
0002a0 3c b8 b4 bc 7c 5a 02 be 4f 0a b2 bd 7c 36 4c be
       -0.022060506 -0.1272983 -0.086933725 -0.19942659
0002b0 43 a6 71 bd 15 c1 16 be c5 7b 0b 3d 42 7f 1f 3e
       -0.05899645 -0.14722092 0.034053583 0.15575889
0002c0 8b 87 03 be c7 54 97 3d b7 29 1d 3e ac 06 16 be
       -0.12844674 0.07389217 0.15347944 -0.14650983
0002d0 13 5b a8 3d 5b 2e 11 3e ec bf c6 3d 66 0d 67 bd
       0.08220496 0.1417784 0.09704575 -0.056409262
0002e0 83 84 30 be 52 62 36 3d e7 fb 39 be 38 e6 c0 3c
       -0.17238049 0.04452736 -0.181625 0.023547277
0002f0 9a 23 4f 3d 6d c3 82 bd 55 3c b8 3d e4 51 ec 3c
       0.05057106 -0.06384931 0.089958824 0.028847642
000300 14 81 0d 3c 5e 22 cb bd 3f 7d 1e 3e 2e a7 77 3d
       0.008636732 -0.099186644 0.15477465 0.06046217
000310 9c 70 21 bc 4c e4 8d 3d de 9a f6 bd ef ac 8f bd
       -0.009853508 0.0692831 -0.12041257 -0.07015406
000320 ec 6d bf bc 24 94 55 3d 85 f6 20 bd df 50 91 3c
       -0.023367845 0.05214323 -0.0392976 0.017738758
000330 25 bd 8a bc c9 97 22 be f4 c1 9e 3d 6c 91 88 3d
       -0.016935894 -0.15878214 0.077518374 0.06668362
000340 35 fc da 3d eb a4 31 bd 09 f2 d8 bd f4 7c d6 3c
       0.10692636 -0.04337017 -0.105930395 0.02618263
000350 63 e1 21 be 18 19 2e 3c 67 a2 d3 bc 2e eb 55 bd
       -0.15808634 0.0106261 -0.025834275 -0.052226238
000360 01 8e 5c be 83 0a 3d be 9d f5 15 3e a8 63 25 3d
       -0.21538545 -0.18461041 0.14644475 0.040378243
000370 f0 78 31 3e ea 63 c1 bd 1a 0e 94 3d 07 64 3c be
       0.1733129 -0.09442885 0.07229252 -0.18397532
000380 05 a4 81 bd 88 89 4b 3e 7d 7e 4a 3c 34 3a 49 bd
       -0.06330112 0.19876683 0.012359259 -0.049127772
000390 d2 25 5f bc 1a df a7 bd e5 d2 b2 3c 40 8a 3e 3e
       -0.013619857 -0.0819685 0.021829078 0.18607426
0003a0 f8 ea 0e 3e ed 96 17 bc d8 6a 3a be 5b d8 be bd
       0.13956821 -0.009252292 -0.1820482 -0.0931861
0003b0 91 98 76 bd c6 d2 55 be 56 f1 38 3d e4 bc 56 3d
       -0.060204092 -0.20881185 0.04515203 0.052426234
0003c0 18 0a 71 bd d9 66 5d 3e b9 2e 30 3d 76 dc a2 bd
       -0.058847517 0.21621265 0.04301331 -0.07952206
0003d0 9f d6 a1 bc b5 8c dd 3d 54 85 9c 3d cc d5 32 3d
       -0.01975566 0.10817853 0.07642618 0.043660924
0003e0 8a 9b b8 bd d6 3e 12 be 4d a5 33 bd 47 4b 42 3c
       -0.09014042 -0.14281783 -0.043858815 0.011858768
0003f0 b2 31 e6 3c 21 1f b9 3c 7d 36 a9 3d 2f 78 07 3e
       0.028099868 0.022597851 0.08262346 0.1322944

lstm.bias_ih_l0 f4 [256]
000000 e0 b2 2c 3d 49 8c 55 3e 60 ab 28 3e 1d 0e 27 3e
       0.042162776 0.20854296 0.16471624 0.16313978
000010 dd 49 e6 bb d8 3e 7c bd 86 6a 08 3e 47 bf 74 3e
       -0.007027848 -0.06158337 0.13321885 0.23901092
000020 ff 5f 64 3d 2b 7d 64 3d be 56 ee 3d f3 37 10 3e
       0.05575561 0.055783432 0.116376385 0.14083843
000030 ed 4c 11 3d e2 73 7e 3e e0 d5 2d 3e 25 1f 9d 3d
       0.035473753 0.24848893 0.16976118 0.07671956
000040 c7 3c 45 3d b1 74 8c 3e 29 50 a7 3d 41 2a 3e 3e
       0.048153665 0.27432778 0.08169586 0.18570806
000050 63 bf 0f 3e 40 96 08 3e 34 66 9d 3d ff fe 77 3c
       0.14037852 0.13338566 0.07685509 0.015136479
000060 97 ab b7 3d e8 3f 7d 3d 03 b3 34 3c a9 aa 26 3e
       0.08968275 0.061828524 0.011029008 0.16276039
000070 a0 92 12 3d db 07 f6 3a 34 92 80 3e ea 22 52 3d
       0.035784364 0.0018770652 0.25111544 0.051302828
000080 37 f1 bb 3b 23 e0 0f 3e 27 29 72 3d c3 c3 96 bc
       0.005735542 0.14050345 0.059121277 -0.018403893
000090 ac fd 06 3e be a6 81 3d 93 82 f7 3d 8d 58 c2 3c
       0.13182706 0.06330632 0.12085452 0.023723865
0000a0 cd 1b 8d 3d 85 17 71 3e 2f b0 7a 3e a3 3a bc 3d
       0.06890068 0.23544128 0.24481271 0.091908716
0000b0 24 e5 6b 3e c0 9a e8 3d 42 49 b0 3d 97 4d aa bd
       0.23036629 0.11357641 0.08607723 -0.0831558
0000c0 a3 e1 99 3c f7 56 c6 3d 62 0c 0d 3e 39 b4 98 bd
       0.01878435 0.09684556 0.13774255 -0.0745625
0000d0 d3 cf 0f 3e 18 f6 7d 3e 04 44 e7 3d 51 db bf 3d
       0.14044122 0.24800909 0.1129227 0.09368003
0000e0 3b a7 81 3e c1 00 06 3e c6 e3 6c 3d 62 c2 00 3e
       0.253229 0.13086225 0.05783441 0.12574151
0000f0 dc f1 56 3e 61 5d 5a 3e 34 66 f8 3d ed 13 1d 3c
       0.209907 0.21324684 0.12128869 0.00958727
000100 32 b2 6b bd 40 be 33 3d 6d a5 bc bd 66 fd 7c 3d
       -0.057542987 0.04388261 -0.0921124 0.061765097
000110 4c ea f7 bd 79 c9 e7 3b f0 d0 fe bc 10 29 e9 3c
       -0.121052355 0.007073578 -0.031105489 0.028461963
000120 e5 80 af 3d 52 4d f0 bc 25 fb f6 bd 01 9b f0 3d
       0.085695066 -0.029333744 -0.12059621 0.11748315
000130 85 b4 07 be 0e 3f 59 bd 4d e7 02 3c df ef dc bc
       -0.13252456 -0.05303865 0.007989717 -0.026969848
000140 92 c4 b9 3d ac 9e 4f bc bc 62 0a be 86 d0 d0 3c
       0.09070696 -0.012672108 -0.13514227 0.025490057
000150 8c 4e 01 bd 0b d6 be 3d be 9c de bd a8 81 53 bd
       -0.03156905 0.09318169 -0.1086974 -0.05163732
000160 f2 e6 fa 3c 76 89 d7 bd 67 18 48 3d 1a 74 cd 3c
       0.030627701 -0.105242655 0.048851397 0.025079776
000170 ca 0e d6 3d d3 8f df 3b 19 bc 2e be c6 c8 46 3a
       0.104520395 0.006822565 -0.17063941 0.0007583018
000180 6b be 11 bc 51 35 a0 bd 48 7b ae bd 40 8b 97 bc
       -0.008895497 -0.07822669 -0.08519608 -0.018499017
000190 8d 07 3a bd be 67 c2 bd 4d 92 0f 3e d8 22 f9 bd
       -0.045417357 -0.094924435 0.14020653 -0.12164849
0001a0 82 b8 33 bd c2 12 00 3e e3 ea 0f 3d 7a 21 a1 bd
       -0.043877132 0.12507156 0.035136115 -0.07867713
0001b0 0f 36 a2 bc f3 60 6d bd 1c 24 cc bd 91 5a ba 3d
       -0.019801168 -0.057953786 -0.09967825 0.090993054
0001c0 3d 1b 0f bd a1 8e 7c bd 84 1d e3 3b a6 da 70 3d
       -0.034938086 -0.06165946 0.006931009 0.05880227
0001d0 ad 8b 8d 3c 92 98 e7 bc a9 96 0b 3d 6a 28 0d 3e
       0.017278517 -0.028270993 0.034079228 0.13784948
0001e0 4e fc 92 bd 30 3c 24 bd c9 54 02 3d 3d af c7 3b
       -0.071770296 -0.04009646 0.03181914 0.006093888
0001f0 99 0d 7f bd 57 e2 b3 3d 83 7f ae 3d 8f 53 30 bc
       -0.062268827 0.08783405 0.08520415 -0.010762109
000200 b9 37 ad 3d b4 83 e6 bc 8c da f7 3d 7d cb 18 3e
       0.08457894 -0.028138973 0.121022314 0.14921375
000210 63 b4 ca 3b 00 e8 41 3d 33 2a 55 3d 24 84 db bc
       0.0061860546 0.047340393 0.052042197 -0.026796408
000220 a4 7c 87 bc f5 a4 af 3d ff 54 e9 bd da c7 d1 3d
       -0.016538925 0.08576385 -0.11393165 0.10243197
000230 86 90 02 3e bf 67 4d bd 4d 99 16 3e f1 e9 ed 3d
       0.12750444 -0.050147768 0.14706917 0.116168864
000240 24 e3 04 bd d1 e3 51 3d b0 ae f4 bd e7 42 3b bd
       -0.03244318 0.051242653 -0.119473815 -0.0457181
000250 c8 0c 02 be d8 b1 1e bd c8 bb 1c 3d f3 d0 ed bc
       -0.12700188 -0.038743824 0.03826502 -0.029030299
000260 7a e0 07 be 0a 2d 32 bd e6 6b 52 3c 72 4b f8 3d
       -0.13269225 -0.043499984 0.012843108 0.12123765
000270 76 d4 f4 3d e8 ae 12 be d4 f9 9f bc 14 72 90 3c
       0.11954586 -0.14324534 -0.019528307 0.017632522
000280 e6 b9 25 bd 10 f6 14 3e d0 9f a6 bc b8 13 3a 3e
       -0.04046049 0.1454699 -0.020339876 0.18171585
000290 46 5a 01 3e a8 bb 36 3b cf e7 eb bd a4 23 3a 3d
       0.12632093 0.0027882848 -0.11518823 0.045444146
0002a0 cf 82 06 3e 9f 88 ec bd 6b 8c 81 bc cf 7d 16 be
       0.13135837 -0.11549496 -0.015814027 -0.1469643
0002b0 88 aa ac bd 7f 7e 15 be 79 5d 12 bd 13 af ad 39
       -0.08430964 -0.14599036 -0.035733674 0.00033127572
0002c0 20 0c 05 be d0 3e 06 3e 9e e0 41 3d bd e3 6c bd
       -0.12992907 0.13109899 0.047333352 -0.057834376
0002d0 da b4 ce 3d 9f c2 cd 3c ff b7 57 bd 73 c5 91 bd
       0.100930884 0.025117217 -0.052665707 -0.071177386
0002e0 fa 56 2c be d6 ac 01 be 88 f0 bf bd 53 23 07 bc
       -0.16830054 -0.12663588 -0.093720496 -0.008248168
0002f0 b7 45 b5 3d 5b 01 ca bc 12 4e 02 3e b5 0f e4 3d
       0.08851188 -0.02465885 0.12725094 0.111358084
000300 17 a6 64 3d 80 2b e1 3c 1c b5 5d 3e 1f e3 10 3e
       0.055822458 0.027486563 0.21651119 0.1414914
000310 0b c8 6a 3e 7e 91 8a 3c 45 4d 5e bd 3f 24 17 3e
       0.22927873 0.01691508 -0.05427291 0.1475992
000320 26 93 e1 3d fe 4b 1e 3e 6c 49 de 3d df 02 29 3e
       0.110143945 0.15458676 0.10853848 0.16505001
000330 4f 9f 19 3c d8 01 0e 3e 4b 89 37 3e b6 9b 87 3d
       0.009376361 0.13867891 0.17923467 0.066214964
000340 b8 75 a7 3d c0 1f 3e 3e 7b 0b ff 3d 78 24 06 3e
       0.0817675 0.18566799 0.124533616 0.13099849
000350 16 ed 4c 3d ff 77 4a 3e ce 61 e8 3d 4e 14 2e 3e
       0.05003079 0.19772337 0.1134678 0.16999933
000360 2d 14 ba 3d 6e 36 59 3d e0 c2 0d 3e 8a 01 d1 3d
       0.090858795 0.053030424 0.1384387 0.10205372
000370 20 a0 a6 39 fc 61 24 bd 7b 1b 36 3e 7e 37 49 3e
       0.0003178129 -0.040132508 0.1778392 0.19650075
000380 40 b9 28 3e 9b 9a 36 bd 1b 8c 3c bc 0c e0 45 3e
       0.16476917 -0.044581037 -0.011508013 0.19323748
000390 db 0c 56 3e fc f4 78 3e 77 2a 5e 3d 68 f7 ac 3d
       0.20903341 0.24312204 0.054239716 0.084456265
0003a0 5f 5d c2 bd fa 74 31 3e d1 dd 5e 3e a6 35 24 3e
       -0.094904654 0.1732978 0.21764304 0.1603609
0003b0 96 63 35 3e 75 3f 4f 3e 68 f2 c5 3d 4b 06 1c 3d
       0.1771377 0.2023905 0.09665376 0.03809194
0003c0 80 59 37 3d 56 bb 4a 3e 07 df 49 3d 2d 23 1e bd
       0.04476309 0.19798025 0.04928496 -0.038607765
0003d0 87 af 3a 3e ed 60 db 3d 2b d7 87 3e 0d cd d1 3d
       0.18231021 0.107118465 0.26531348 0.102441885
0003e0 23 75 ed 3d 1d 00 11 3e 3e b2 ff 3d 08 64 9c 3d
       0.11594608 0.141602 0.12485169 0.07636267
0003f0 6e 41 c8 3d e3 f1 99 3d c9 4d d7 3c 2b 1d 04 3e
       0.09778105 0.07516839 0.026282208 0.12901752

lstm.bias_hh_l0 f4 [256]
000000 23 b1 e6 3d b8 35 f1 3d 3f da e5 3d d6 c1 2f 3e
       0.11264255 0.11777824 0.11223268 0.17163786
000010 2f bb 3b 3e ce a4 85 3a 56 a8 67 3c f5 52 5a 3e
       0.18333124 0.001019621 0.0141392555 0.21320708
000020 43 4e ad 3d db 32 3e 3e da 04 c3 3d 45 74 16 3e
       0.08462193 0.18574087 0.0952241 0.14692791
000030 ec f3 38 bb 32 7f 55 3e 91 15 13 3d d1 df f0 3c
       -0.002822156 0.20849302 0.03590924 0.029403599
000040 a6 de 0e 3e cb eb 34 3e d8 32 0a 3e c3 8c 78 3b
       0.13952121 0.17668073 0.13495958 0.0037925697
000050 a8 77 0c bd b9 d6 65 3d b0 0f 82 3e f0 e6 cf 3d
       -0.0342938 0.05611298 0.25402594 0.1015147
000060 a8 c3 12 bd f1 4e 55 bc 6b bc 99 3d 86 92 04 3e
       -0.035831124 -0.013019309 0.07506641 0.1294652
000070 ed 5e 7b 3d 16 7c ba 3d a0 d1 47 3e f5 a1 4e 3e
       0.061369825 0.09105699 0.1951356 0.20178969
000080 fb 1c e2 bc 2d b9 3f 3e 42 70 db bc 09 b3 09 3e
       -0.02760171 0.18722983 -0.026786927 0.13447203
000090 7d ca 09 3e 75 b5 33 3d fd f9 45 3c b3 21 71 3d
       0.1345615 0.043874223 0.012083528 0.05887003
0000a0 b8 30 a6 bd b5 8e bf 3d 93 c4 69 3e e4 3f 34 3e
       -0.08114761 0.09353391 0.22828893 0.17602497
0000b0 e6 28 2a 3e f7 7b 0f 3e 81 52 10 3e d8 8a 7d 3c
       0.16617164 0.14012133 0.14093973 0.015474997
0000c0 6c 70 c8 3d 3e b2 24 3e e6 0e d4 3d e6 6e a4 3d
       0.09787068 0.16083619 0.10354404 0.08028965
0000d0 e4 80 87 3e 38 57 79 3e 81 1f 53 3e dc 2c 0e bd
       0.26465523 0.24349678 0.20617487 -0.03471075
0000e0 70 ae de 3d a4 c6 a7 3d 6c 59 55 3e 58 dd 8f 3d
       0.10873115 0.081921846 0.20834893 0.0702464
0000f0 a4 a5 60 3e 2f 69 20 3e e2 42 29 3e 84 20 39 3d
       0.21938187 0.15665124 0.1652942 0.045197025
000100 91 d3 ce bd 3b a3 8d 3c 5b 9d 19 3d 9a 97 39 3d
       -0.10098947 0.017289748 0.03750358 0.045310594
000110 b6 05 a3 3d 70 de da 3d ea 18 a7 bd a6 11 c1 bd
       0.07960074 0.10686958 -0.08159049 -0.09427194
000120 2a 66 57 3d 69 ea e3 3d 4b 97 94 3d 08 8e 9d bc
       0.052587666 0.111286946 0.07255419 -0.019232765
000130 a4 79 c1 3d 08 63 76 bd 4c 07 ea bd 14 4b 9a 3d
       0.09447029 -0.060153037 -0.11427173 0.07533851
000140 ae 2a 4f bd 7a 5b bf bd da 93 35 bd 5a e5 6d 3b
       -0.050577812 -0.0934362 -0.044330455 0.0036300034
000150 0c 69 b6 3d f7 48 de 3d 1c 20 87 bd c3 25 98 3d
       0.08906755 0.10853761 -0.06597921 0.074290775
000160 32 73 01 3c fc 23 88 bd 86 85 07 3e b2 6d 6b bd
       0.007901 -0.066474885 0.13234529 -0.05747766
000170 c2 3a e7 3d a3 06 0a 3d 93 93 00 be f9 c0 06 3d
       0.11290504 0.033697736 -0.12556295 0.032898877
000180 3c c9 d3 bd 98 66 cd 3d 81 12 1d be c0 06 97 bc
       -0.10341117 0.10029334 -0.1533909 -0.018435836
000190 0e 8c e7 3c 5f 11 0f 3d 55 db 76 3d f2 2d 9c 3d
       0.028265025 0.034928676 0.060267765 0.07625951
0001a0 d9 45 3d bd 5d 82 d7 bd 3f a0 40 bd eb ec 95 3c
       -0.04620919 -0.10522912 -0.047027823 0.018301448
0001b0 f8 3c fc bd d5 f8 0a bd 98 23 50 3d ed 70 d6 bc
       -0.12316316 -0.03392871 0.050815195 -0.026176894
0001c0 b0 c9 f1 bd 25 2a 8d bc 26 1d 91 3b cb ef f1 3d
       -0.11806047 -0.01723201 0.0044285236 0.11813315
0001d0 7c 44 32 3c 2d 87 c1 3d 77 54 5f bd 66 d0 10 3e
       0.010880586 0.09449611 -0.05452391 0.14141998
0001e0 93 ca cb bd 21 f6 e6 bd d7 bd 3a bd 15 e0 7d bd
       -0.09950747 -0.11277414 -0.0455912 -0.06198128
0001f0 87 b1 11 3d 7b 6d 0b 3e 90 71 db 3d 4a c9 93 3d
       0.035569694 0.13615982 0.1071502 0.07216127
000200 b3 c1 82 bd be 80 5b 3d 8c 22 64 3c ac 30 f6 bc
       -0.063846014 0.053589575 0.013924252 -0.030052505
000210 b3 1e 04 be b4 a6 d5 3d 4f bc 0e be db 64 34 be
       -0.12902336 0.10432187 -0.13939022 -0.17616598
000220 a6 35 db bc e5 36 c7 3c 0e 0c 04 be 64 b6 41 3e
       -0.02675898 0.024318168 -0.12895223 0.18917233
000230 c2 33 17 3e c8 2c dd bd 73 94 ad 3c da ca d6 3b
       0.14765838 -0.10799557 0.02118895 0.0065549435
000240 10 0d c8 3d 37 d8 e7 3d f5 08 eb 3d 73 c7 75 bd
       0.097681165 0.113205366 0.11476318 -0.060004663
000250 e1 2a ac bd ff ae d9 bd 87 0c 95 bd 98 cc 6a 3d
       -0.08406616 -0.10629081 -0.0727778 0.057324022
000260 60 93 89 bd a0 e7 e0 bd 48 4f 26 3e 98 bc 15 3e
       -0.06717563 -0.10981679 0.16241181 0.14622724
000270 6f db 70 3d 9a 41 a2 b9 9b e7 da 3d c7 aa ab bd
       0.05880302 -0.00030947925 0.106887065 -0.083821826
000280 98 08 29 be 84 ba ba 3d 46 83 a6 bd 14 a4 9e 3d
       -0.16507185 0.09117606 -0.08130507 0.07746139
000290 4e 3e 6f 3d c7 68 1c bd 39 dc 64 bd 79 91 4f 3d
       0.058409028 -0.03818586 -0.055874083 0.050675843
0002a0 d5 4f ff 3d a0 89 a6 bd c7 29 99 bd 64 92 55 be
       0.124663986 -0.08131719 -0.074786715 -0.20856625
0002b0 84 6e da 3d bb 7b f0 3c 4e 56 0b 3e d3 2c eb 3d
       0.106656104 0.029355874 0.13607141 0.11483159
0002c0 c4 f6 32 3d 1a 6e 0e 3e a1 53 77 3d 8d d5 18 bd
       0.043692365 0.13909188 0.06038249 -0.037313033
0002d0 70 86 db 3c 3f 40 12 3d 57 aa 3b 3d 12 df 10 be
       0.026797503 0.0357058 0.045816746 -0.14147595
0002e0 fa b7 db bc 31 fb 4b bd da 6f eb bc 88 79 d3 3c
       -0.026821125 -0.0498001 -0.028739858 0.025814787
0002f0 bf aa 45 3d df 56 19 3d 54 4c 88 bd a0 2c d7 3c
       0.04825854 0.037436362 -0.066551834 0.026266396
000300 68 9b 3f b9 bf a1 12 3e 28 03 fb 3c dc db ac 3d
       -0.00018273073 0.14319514 0.030641153 0.08440372
000310 85 d2 dd 3d 10 2c ab bb bc 2e e9 3d cb b8 e1 3d
       0.10831169 -0.0052237585 0.11385867 0.110215746
000320 59 d3 07 3e c0 78 33 3e 60 00 e0 3d e5 fb 18 3e
       0.13264216 0.17526531 0.109375715 0.1493984
000330 b8 5b fe bc 3d bc 36 3d 5e fa 94 3d b4 ba 0d 3e
       -0.031049594 0.04461311 0.07274316 0.13840753
000340 49 63 86 3d dd 81 90 3e 74 71 9c 3c ec 48 82 3c
       0.06561906 0.28224078 0.019097067 0.015903912
000350 61 31 37 3b 09 c2 52 3e f9 06 11 3e 79 39 07 3e
       0.0027953016 0.20581831 0.14162816 0.13205518
000360 88 48 12 3e 4d b6 0c 3e c1 bd 52 3e 48 51 48 3e
       0.14285481 0.13741417 0.20580198 0.19562256
000370 1d 62 22 3d 31 93 c4 3d cf 42 b8 3d 0e d2 4c 3c
       0.03964435 0.09598387 0.08997118 0.012501253
000380 57 d2 94 3d 9f 12 13 bd b9 71 6a 3d cd 06 03 3e
       0.07266682 -0.03590643 0.05723736 0.12795563
000390 3b c0 63 3e e5 1f 7a 3e c9 a3 12 3e 4c bc f9 bc
       0.22241299 0.2442623 0.14320292 -0.030485295
0003a0 db 58 af bc b4 6c 7a 3e 81 0b fa 3d b0 65 1f 3e
       -0.021404674 0.2445553 0.122092254 0.15566134
0003b0 6a 30 6d 3e 9a aa a3 3d d8 ad b6 3d 52 9f 0b bd
       0.23163 0.07991524 0.08919877 -0.034087487
0003c0 a0 6d 6e 3e 35 c5 3b 3e 49 94 b4 3d 05 41 e7 3d
       0.23284006 0.18336947 0.08817346 0.11291698
0003d0 2c 1c 76 3d d0 7d 51 3e cb 54 ad 3d 64 65 ed 3b
       0.06008546 0.2045815 0.084634386 0.0072447527
0003e0 f9 fc cd 3d 15 82 6b 3d 65 31 2a 3e 76 a7 db 3b
       0.10058016 0.057497103 0.16620405 0.0067033125
0003f0 e0 0b df 3d 6e c5 60 3e d7 34 b1 3d 25 30 43 3e
       0.10890937 0.21950313 0.086526565 0.19061334

lstm.weight_ih_l1 f4 [256, 64]
000000 4f 93 94 3d 65 ce 0c be fa 7a 12 be 59 90 62 bc
       0.072546594 -0.13750608 -0.14304724 -0.0138283605
000010 7b ae 37 be 37 9c bf bc bf 08 68 bd 00 77 5b bd
       -0.17937653 -0.023389919 -0.056648966 -0.053580284
000020 71 8b 3b 3d f2 26 6a bb fe 2b 09 bd d7 96 5c bc
       0.04578728 -0.003572878 -0.03348922 -0.013463697
000030 4e c2 19 3d 67 69 fa bc 75 09 d3 3d 87 90 50 bd
       0.03753882 -0.030567838 0.10304538 -0.050919082
000040 f4 e3 e5 bc 98 92 03 bd 97 be e1 3d c1 54 c7 bd
       -0.028062798 -0.032122225 0.1102268 -0.097329624
000050 9c 1a d1 bd 15 9d 12 bd c6 ce 2c bd 54 fb 54 bd
       -0.102101535 -0.035794336 -0.042189382 -0.051997498
000060 0c d4 7a 3d 97 1c 97 bd 81 78 99 bc 45 00 26 bd
       0.06123738 -0.073785 -0.018734219 -0.0405276
000070 fb 67 1f 3e f0 2d 27 3d a5 b9 a5 3d d6 19 95 3c
       0.15567009 0.040815294 0.080920495 0.018200796
000080 cb 65 2a bd 87 56 e2 3d 42 39 01 bd 3b b9 07 3e
       -0.041600984 0.1105166 -0.031548746 0.13254254
000090 f3 23 15 3e 8c 53 e7 3d 9b cc 07 bd 71 de 02 3e
       0.14564495 0.11295232 -0.03315411 0.12780167
0000a0 cb 8d 52 bc 63 99 f8 bd 4b ac 4a be b2 99 99 bc
       -0.012851189 -0.12138631 -0.19792287 -0.018750045
0000b0 7b db 84 3d ac ac 21 be d3 58 66 bc 80 e7 0d 3d
       0.06487175 -0.15788525 -0.014059263 0.034644604
0000c0 4d 7e f5 3d ea 7d dd 3c 4e 91 26 3e da 9e b0 3d
       0.119869806 0.02703758 0.16266367 0.086240485
0000d0 62 e0 4e 3d 3a fa 85 bd 01 73 54 bd 3a 54 74 bd
       0.050506957 -0.065418676 -0.05186749 -0.059650637
0000e0 d3 3e e0 bc ae 41 1a be 87 82 d5 3b d5 2b 54 3d
       -0.027373707 -0.15064117 0.006515804 0.051799614
0000f0 3c b3 e8 3d 02 fa fd bd 2f a0 50 bc 9e 83 91 3d
       0.11362311 -0.12401201 -0.012733503 0.07105182
000100 10 6a 8d 3c 5f ab 56 3d 49 34 1a 3d 2e f9 7b 3d
       0.017262489 0.052409526 0.03764752 0.061516933
000110 6b 22 e8 ba f4 5d 41 3e e4 10 55 be 14 61 f5 bc
       -0.0017710453 0.18883497 -0.20807225 -0.029953517
000120 03 36 b2 bd 87 14 1c 3e b1 43 ec bc af b2 38 3e
       -0.08701708 0.15242206 -0.028840872 0.18036912
000130 0f 13 1e 3e 0c 2a 75 be 2a f5 c1 3c 8c 08 15 3e
       0.15436958 -0.23941821 0.023676474 0.14554042
000140 b8 37 1a 3e 0f e5 03 3e 8e ef ed 3d 4c 5d d2 bd
       0.15060318 0.12880348 0.11617957 -0.10271701
000150 83 c5 5a be b4 e0 24 be 55 50 91 bd d6 5b 00 be
       -0.21364407 -0.16101342 -0.070954 -0.12535033
000160 a6 2d 02 be 9d da 56 be b5 58 14 3e 8b c0 40 3e
       -0.12712726 -0.20981832 0.14486964 0.1882345
000170 24 3f 14 3e e5 78 6b be 11 6c 5a bb fb 90 a0 bd
       0.14477211 -0.22995336 -0.0033328573 -0.07840153
000180 82 28 8f be d1 de 2c 3e bc 3e 4b be 44 75 f3 3d
       -0.27960593 0.16881873 -0.1984815 0.11887601
000190 68 46 bd 3d 96 4d 7c bd d0 98 8d bd 17 ef 08 3e
       0.092419446 -0.06159743 -0.06913912 0.13372456
0001a0 8a b1 15 3d 6d 47 9e bc fe 41 ca bd 7e d4 76 be
       0.036546268 -0.019321168 -0.09875868 -0.24104497
0001b0 bd 52 d9 bc 67 d1 59 be cc a8 c3 bc 45 e3 2a 3e
       -0.02652871 -0.21271287 -0.0238842 0.16688259
0001c0 ad 02 40 be 68 ad d2 3d f2 9a 4b 3e 14 47 3f be
       -0.1875102 0.10286981 0.19883326 -0.18679458
0001d0 fd 18 32 3e e1 cd 73 bd 38 a3 80 bd 69 7c bf bd
       0.17392345 -0.059522513 -0.062811315 -0.09349901
0001e0 a5 d0 37 be 62 7f 04 bd ea 0d 54 be 87 77 22 3d
       -0.17950685 -0.032348044 -0.20708433 0.03966477
0001f0 a5 60 2c 3e cd c4 a4 3d ea e9 e0 3d e3 aa f3 3d
       0.16833742 0.08045349 0.109821156 0.118978284
000200 79 3c 4b bd f5 86 af 3d 12 2f 89 3d 6f 65 4a be
       -0.049618218 0.08570663 0.06698431 -0.19765256
000210 41 d6 ea bc d5 03 d0 3d 73 ff 30 3d a7 80 6c 3d
       -0.028666617 0.10156981 0.043212365 0.05773988
000220 b6 f6 2d 3e 23 17 33 3d ef a7 05 3c 3b d4 21 3e
       0.16988644 0.043723237 0.008157714 0.15803616
000230 b9 30 9e 3d 07 5f 0e 3e 3d f5 38 3e ad 82 bb 3d
       0.07724137 0.13903438 0.18062301 0.09155784
000240 5f a9 53 3c cd b0 6a bd 9c 71 1d be 56 b9 07 bd
       0.012918799 -0.057297517 -0.1537537 -0.033135734
000250 70 13 12 be 77 88 10 3e 4c eb 77 bd 40 85 c1 bc
       -0.14265227 0.14114557 -0.06052713 -0.023623109
000260 4f 82 a4 bc 74 f5 0a be ba 3b c9 b8 7b 32 0c 3d
       -0.020081667 -0.13570195 -9.595552e-05 0.03422783
000270 37 ff 04 3e 27 76 21 3c 0c 89 98 3c 8c 3a ce bd
       0.12987982 0.00985483 0.018620037 -0.10069761
000280 80 20 5e be 3f a1 fe 3d b3 41 8e 3d 94 8c 0f 3b
       -0.21692085 0.12433099 0.06946125 0.002190386
000290 59 03 4f bc cd 5c f6 bc e8 fc 68 3d fa c9 11 3e
       -0.0126350755 -0.030073548 0.056881815 0.14237204
0002a0 ca d2 bc bc 5b 6d 0f 3e 47 74 cc 3c fd 71 2c 3d
       -0.02304973 0.1400656 0.02495779 0.042100895
0002b0 94 6f 13 bc db 77 e7 bd ec f7 1b 3e 16 11 e9 3d
       -0.00899877 -0.113021575 0.15231293 0.11380212
0002c0 af dc 4d be c0 fe f1 3d 54 07 cf bd 38 20 be 3c
       -0.20103715 0.11816168 -0.101088196 0.023208722
0002d0 cc b0 3d be 66 03 88 3d e1 06 3a 3e 2b 8b 34 bd
       -0.18524474 0.06641273 0.18166687 -0.044078033
0002e0 7e 72 b6 bc f3 35 8e bd d6 3a 81 3c 9a 60 2d 3d
       -0.022271391 -0.06943884 0.015775125 0.042328455
0002f0 6c 4e ff 3d ff f6 4a 3e a0 28 b9 bb d1 01 be 3d
       0.1246613 0.19820784 -0.005650595 0.0927769
000300 1b e4 83 bd 1a 2c 33 3e df ef 5d 3d 9f 67 88 bd
       -0.06439992 0.17497292 0.054183837 -0.06660389
000310 16 c8 b4 3d 97 c2 0b 3e 6b be dd 3b de 5c 02 be
       0.08827226 0.13648449 0.0067670844 -0.12730739
000320 80 86 dd 3c ce f9 81 bb 95 e5 08 bd e3 78 29 3d
       0.027041674 -0.0039665466 -0.03342207 0.041375052
000330 68 62 60 3e d4 3b a1 3d 55 70 4a 3d 61 89 1a 3e
       0.21912539 0.078727394 0.049423534 0.15091468
000340 82 91 f6 3c 19 48 dc 3c 2f 7b 0d bd 86 47 94 3d
       0.03009868 0.026889848 -0.034541305 0.072402045
000350 5c a5 83 be 04 6d 71 3d 2c 38 84 bd 8d f1 a0 bd
       -0.25712097 0.058941856 -0.064560264 -0.07858572
000360 bb 8c 6b be 52 b3 72 be 0b 5d 26 3e 6a 4c 9c 3c
       -0.23002903 -0.23701218 0.1624643 0.019079406
000370 f5 81 4e 3e f3 3a 2b be 4a 6f bb bc 3b ce 55 be
       0.20166762 -0.16721706 -0.022880215 -0.20879452
000380 67 e2 6f be cb b8 4d 3e 71 7d 1b be c2 af 52 3e
       -0.2342621 0.20090024 -0.15184571 0.20574859
000390 8e 81 fb 3d 8c 7b 1a be d3 2f ee bc 5a cb 37 3e
       0.1228057 -0.15086192 -0.029075539 0.17948666
0003a0 c6 36 0c 3e 2d e5 d9 bc 2c 35 9c 3d f4 e0 71 bd
       0.1369277 -0.026598537 0.07627329 -0.059052423
0003b0 bf d9 4f be 20 4e 8a bd 57 2d 0b 3d 0a 4c d1 3c
       -0.20297907 -0.067531824 0.033978786 0.025548954
0003c0 49 c7 a7 bd fc ec 50 3e e1 74 e1 bc ca 62 d0 bc
       -0.081923075 0.20402902 -0.027521553 -0.025437731
0003d0 6d f2 97 3c 57 1c b9 3d 47 5b dc bb 6c 34 0d be
       0.018548215 0.090386085 -0.0067247483 -0.13789529
0003e0 c8 11 d4 3c 38 f5 46 be 9f c5 e4 bd 8c f6 be bc
       0.025887385 -0.19429481 -0.11170506 -0.023310922
0003f0 87 10 45 3e 5e d7 a2 3d 33 5f b9 3d c4 ab 55 3c
       0.19244586 0.07951234 0.09051361 0.01304144

lstm.weight_hh_l1 f4 [256, 64]
000000 d7 9c 9d 3d f9 ae e2 bd e1 c7 2d 3e 05 5a 13 3d
       0.076959305 -0.1106853 0.16970779 0.03597452
000010 44 53 82 bd 94 57 17 bd b6 e3 85 bd 33 c3 7f 3d
       -0.06363538 -0.036948755 -0.06537573 0.062442016
000020 b4 38 fd ba a7 f5 ce bd 65 93 e8 3d 22 3c 04 3e
       -0.0019319267 -0.10105448 0.11356238 0.12913564
000030 6a 67 ab 3d fe 4e df bd e4 d1 13 bc 10 b8 07 3e
       0.08369334 -0.109037384 -0.00902221 0.13253808
000040 77 59 a1 bd e5 c5 02 3d 3e e7 af 3d 9d c3 83 3d
       -0.07878392 0.03192701 0.08589028 0.06433795
000050 08 f0 2f bd 64 85 63 bd 21 71 82 bd ec bd 27 3d
       -0.04295352 -0.055547133 -0.06369234 0.040952608
000060 21 89 ff 3d 5e eb 8b bb 7a ab 58 bd 1e 29 64 bd
       0.12477327 -0.0042700013 -0.052897908 -0.055703275
000070 40 2d 29 bc 76 1a 13 be 5c 5e 44 bb 9c 76 72 3d
       -0.01032573 -0.14365563 -0.002996347 0.059195146
000080 cb ec 84 bc 67 ca 09 bd f6 ff 00 be 5e ad 57 3d
       -0.016226193 -0.03364029 -0.12597641 0.05265557
000090 52 43 2b bd 33 6b 1b be 1e 4f ac bc a0 84 e7 3d
       -0.04181225 -0.15177612 -0.02103382 0.11304593
0000a0 ef 73 76 3d 6d 8d 3f bd 96 9b 85 bd ef ab eb bc
       0.060169157 -0.046765734 -0.06523816 -0.028768508
0000b0 57 e0 3a bc 61 c7 c5 3d 9c 0a ee bd 1b f7 ee bd
       -0.011406026 0.09657169 -0.11623117 -0.116682254
0000c0 2b 4c 59 bd bf dc a5 bd df 2d c6 3d d1 dc 7a 3d
       -0.053051155 -0.080987446 0.09676718 0.061245743
0000d0 55 cd c6 3d dd 0f 6f bd 5b a0 fc 3d 06 a5 15 be
       0.09707133 -0.058364738 0.12335273 -0.14613733
0000e0 85 b5 1d be 7c 30 e5 bd 23 f4 13 bd f1 aa cd 3d
       -0.15401275 -0.11190888 -0.0361215 0.1004237
0000f0 ca c6 3c bc 10 37 9b 3d 42 9b 80 bd d8 49 0a 3d
       -0.011522004 0.07578862 -0.06279613 0.03376183
000100 04 70 a7 3d 17 f9 31 bd a6 64 ad 3d 70 7e 43 3e
       0.08175662 -0.04345044 0.08466463 0.19091201
000110 19 0a 80 3b cc f3 8d bd 65 de 0d 3e 8d 99 36 be
       0.0039074537 -0.06931266 0.13854368 -0.17832012
000120 33 ca ca bd 6c 2f 86 3d 73 f4 15 3e d0 72 78 be
       -0.09901848 0.06552014 0.14644031 -0.24262547
000130 5e d9 1b be 98 b3 b2 bd 4e 90 3b be ce bf 02 be
       -0.15219638 -0.08725661 -0.18316767 -0.1276848
000140 dd 9d 77 3d b5 68 08 3e ab 70 00 3e 36 8e d4 3d
       0.060453285 0.13321193 0.1254298 0.10378687
000150 30 f0 36 3d 94 52 3b 3c 72 1e 1e 3d 9d 42 2f be
       0.044662654 0.011433262 0.038603254 -0.17115255
000160 ab 13 ec bd 62 ca 3c 3e dd f6 5a bd 70 27 38 3e
       -0.11527189 0.18436578 -0.053458083 0.17983794
000170 b8 71 8a bd da e8 9b bd 51 5d 12 3e 3d ef bd 3d
       -0.067599714 -0.07612772 0.1429341 0.09274147
000180 5c 27 1b 3e a3 e0 82 3b 74 e1 12 be 0a 34 f9 bd
       0.15151733 0.003994064 -0.14343816 -0.12168129
000190 a4 b1 11 3c b4 b9 f9 bd 33 a9 21 3e 50 02 7c bb
       0.0088924505 -0.12193623 0.157872 -0.0038453527
0001a0 bf 6f 0e bc fc 45 86 bd 87 04 03 3e db f0 a5 3c
       -0.0086936345 -0.06556317 0.12794696 0.02025645
0001b0 54 e6 17 3e ac d5 00 3e 97 0f 0e be 94 7c 35 be
       0.14833957 0.1258151 -0.13873135 -0.17723304
0001c0 e7 71 08 bd bd 70 9c bc db 2c 40 3e c1 fb ed 3d
       -0.03331175 -0.019096727 0.18767111 0.11620284
0001d0 a9 72 10 be c5 6c 57 3e 2f 2c 20 3c ff 93 10 be
       -0.1410624 0.21037586 0.009776159 -0.14118956
0001e0 c3 1b 12 be 97 cc 1d 3d 10 96 53 bd f8 6f 56 be
       -0.14268403 0.03852519 -0.051656783 -0.2094115
0001f0 78 3f 81 be fc 9e af bc 73 12 25 3e a7 cc cc 3d
       -0.25243735 -0.021438114 0.16120319 0.09999972
000200 cb 3b ef 3d 91 65 bb bd 20 6c f4 3d ea ce 72 bd
       0.116813265 -0.09150232 0.11934686 -0.05927936
000210 7f c8 f2 bd 8c 2a 90 bc 56 46 a7 3d 39 fe f7 bd
       -0.11854648 -0.017598413 0.081677124 -0.12109036
000220 3a 2d ac bd ed 89 cf 3b 9d c4 fd 3d 7c 58 77 3d
       -0.08407064 0.0063335807 0.12391017 0.06038712
000230 d8 b2 48 3d 42 98 94 bc 89 8e fb 3c 3b 0a 51 bd
       0.048998684 -0.018139008 0.030707614 -0.051035147
000240 86 8a 70 3c 84 98 9c bd bc ca a1 3d f9 67 5f 3c
       0.014681464 -0.076462775 0.07899997 0.013635629
000250 72 b4 41 bd fa a6 1e 3d 99 0b f9 bd 87 7b fe bc
       -0.047291227 0.03873346 -0.12160415 -0.031064762
000260 72 13 0b be 37 34 82 bc 6d dc 94 3b d6 23 79 3d
       -0.13581637 -0.015894039 0.0045428784 0.06082519
000270 4b 91 94 3d 0e 7b ce bd 1b a9 03 3e a1 f2 ae bd
       0.07254275 -0.100820646 0.12857477 -0.085423715
000280 fa 50 bc 3d 9d 3d 17 be 20 61 f8 ba 2b 3f cb bb
       0.091951326 -0.14769597 -0.0018949844 -0.0062025986
000290 61 bc bb 3d 47 80 84 3d a8 a7 0f 3d b9 c9 d3 bd
       0.0916679 0.064697795 0.035072 -0.1034121
0002a0 00 4f 10 3e cd b3 a5 bd 79 2c 08 3e eb 13 f2 bd
       0.14092636 -0.08090935 0.13298215 -0.11820205
0002b0 8b 23 eb 3d fd 10 b9 3d 41 80 1c be 67 e9 a9 bd
       0.11481389 0.090364434 -0.152833 -0.08296471
0002c0 70 a2 04 be dc 67 c7 bd 02 02 83 3d 56 92 8c bd
       -0.1295259 -0.097366065 0.06396867 -0.06863849
0002d0 c2 3f 0c be 92 7f 28 bd 25 3a 36 bc 42 bd 0a bc
       -0.13696197 -0.041137286 -0.011122261 -0.008467974
0002e0 b5 9e 0a be 9b 5f e0 bd a5 b1 94 bb 46 08 5b bd
       -0.13537104 -0.10955735 -0.0045377784 -0.053474687
0002f0 94 93 48 3c 6d 86 86 bd d3 e7 1c 3e d8 c6 dc 3d
       0.012242217 -0.065686084 0.15322809 0.10780114
000300 fa a6 04 3e 69 3e 07 be 9c 4a fa 3d 34 ba fd 3c
       0.12954322 -0.13207401 0.12221262 0.030972578
000310 f9 fd 91 bd d2 1d 0d be f5 49 20 3c 0a 4b 0e bc
       -0.071285196 -0.13780907 0.009783258 -0.008684883
000320 8d 69 8f 3d 1d 33 4f 3c 0e 06 fc 3d a3 d5 0a be
       0.07002554 0.012646464 0.12305842 -0.13558058
000330 46 b2 16 be ca 93 01 be ca d2 e4 bd c7 84 eb bd
       -0.14716443 -0.12654033 -0.11173017 -0.11499935
000340 5b 5e ba 3d 58 22 dd bd dd b4 38 3e 69 d4 33 3e
       0.09100028 -0.10797566 0.18037744 0.17561497
000350 49 e1 a6 3c 19 d6 24 3e 1e 42 75 3c 1a 96 ac bd
       0.020371096 0.16097297 0.014969377 -0.08427067
000360 ce c8 55 be 2c 20 9c bc ab 95 d2 bd e0 19 18 3e
       -0.20877382 -0.01905831 -0.10282453 0.1485362
000370 cb 19 70 bd 58 22 1a bd 75 d9 2d 3e 1e 9e 2f 3e
       -0.058618348 -0.03763041 0.16977485 0.1715016
000380 ec e6 ea 3d e7 27 44 be e5 85 9a bc e3 e4 4b be
       0.11469826 -0.19155847 -0.018862674 -0.19911532
000390 0f 89 12 3d 1e 23 02 be d0 c3 9e 3d 4e af 9b bd
       0.03577524 -0.12708709 0.07752192 -0.07601796
0003a0 1f c4 39 3c 03 bd a9 3b c3 00 dc 3c 10 7d 20 bd
       0.011338263 0.0051800027 0.026855832 -0.03918177
0003b0 35 4f 50 3e 89 cc 2d 3e 0c de c8 bd f2 6d 0a be
       0.20342715 0.16972555 -0.09807977 -0.13518503
0003c0 10 68 24 bd 20 e9 05 bc 58 38 3d 3e 24 d7 c5 3c
       -0.040138304 -0.008173257 0.18478525 0.024150439
0003d0 fe bb 44 be 19 25 16 3e c1 34 d0 bd f7 e8 eb 3c
       -0.19212338 0.14662589 -0.10166312 0.02879761
0003e0 68 32 f5 bc 89 a3 54 3d 54 09 0f be 70 ff 14 be
       -0.029931262 0.05191377 -0.13968402 -0.14550567
0003f0 ec bb 00 be 63 34 5b 3b 64 87 8c 3c a3 43 e7 bb
       -0.12571687 0.0033447973 0.017154403 -0.0070576235

lstm.bias_ih_l1 f4 [256]
000000 b1 e3 0c 3d ed 60 ee 3d e7 a8 12 3e 99 2a a1 3d
       0.03439683 0.11639581 0.14322244 0.07869453
000010 4e 4b d7 3c 39 54 a2 bd 39 7e 2b 3d cf c3 a9 3d
       0.026281025 -0.079262204 0.041868422 0.08289301
000020 29 0e 83 3e df b7 04 3e 5f e4 f2 bc f0 a8 a1 3d
       0.2559674 0.12960766 -0.029649911 0.078935504
000030 bb 25 b7 bb 60 54 4a 3e f0 1e 0e 3e 94 ef 09 3e
       -0.0055892146 0.19758749 0.13878989 0.13470298
000040 8e 8c 22 3e 34 e4 12 3d 7e 65 0c 3e 06 d0 5c 3e
       0.1587393 0.035862163 0.13710591 0.2156373
000050 89 25 fb bc ec ac 1e 3e bb aa 91 3d 08 8c 8c b9
       -0.030657547 0.15495652 0.071126424 -0.00026807212
000060 d8 57 80 3e f4 ee 1b 3e 75 f0 fd 3b 06 62 22 3e
       0.2506702 0.15227872 0.007749612 0.15857705
000070 04 1e 4c 3e 9a 7d 3f 3e 8c ea c8 bc 00 5e cc 3d
       0.19933325 0.18700257 -0.024525903 0.099788666
000080 2f a0 0b 3d 99 10 75 3e 42 3b e5 3d 2c f1 ff 3d
       0.03408831 0.23932113 0.11192943 0.12497172
000090 c6 d0 92 3d 5b 59 54 3e 88 db 2f 3e 4b 46 9f 3d
       0.071687266 0.20737211 0.17173588 0.07777079
0000a0 a3 f2 87 3e 40 44 a4 bd 0c e2 a6 3e a9 43 fb 3d
       0.26552305 -0.0802083 0.32594335 0.122687645
0000b0 37 cf b7 3d 07 05 44 3d 90 98 b4 3d e7 5f 46 3c
       0.0897507 0.047856357 0.088181615 0.012107826
0000c0 bb c7 41 3e cb fc 8d 3c 29 ee d4 3d 99 38 d1 3d
       0.18923847 0.017332455 0.10396988 0.10215873
0000d0 90 5a 74 3d 03 3f 88 3d a9 fe 38 3d 7f ec e3 3d
       0.05965668 0.066526435 0.045164738 0.111290924
0000e0 3e 53 53 bd 7a e4 1f 3e 21 0c 8f 3e 5c 8e 31 3c
       -0.051593058 0.156145 0.2793894 0.010837164
0000f0 90 ab 29 3e 85 bc 3d ba 17 24 46 3e 73 0a e7 3d
       0.16569352 -0.00072378694 0.19349705 0.1128129
000100 07 9a 95 3d aa 56 94 3d 9f 74 b4 bd 2b 6b 09 be
       0.07304769 0.07243092 -0.08811306 -0.13419788
000110 0f 16 6e bc f1 84 9f 3d 9c ce e6 bd 47 3c f2 3d
       -0.014531626 0.077890284 -0.11269876 0.11827903
000120 e5 5e 27 bd 3c af 31 be 16 70 19 bd 5d 6c 24 be
       -0.040861983 -0.17352003 -0.03746041 -0.16056962
000130 ea ab 8c 3d 77 33 dd bc 28 e4 ce bd be 50 91 3c
       0.068687275 -0.02700208 -0.10102111 0.017738696
000140 5c 25 c1 3c d1 88 eb bd 21 a5 c5 bb 85 0c d0 bd
       0.023577385 -0.11500705 -0.006031648 -0.10158638
000150 dd 53 ff 3b fd df b7 bd 8a 75 b3 bd ec 13 ab 3d
       0.0077919797 -0.08978269 -0.08762653 0.08353409
000160 aa b6 36 3d 46 09 9c bd 9e 17 22 bd 92 a8 80 bd
       0.044607796 -0.07618956 -0.039573304 -0.06282152
000170 a7 2d 82 3d 28 5c 97 bc f5 89 5d 3d b2 27 97 bd
       0.06356364 -0.01847656 0.054086644 -0.07380618
000180 be 7d 28 3c a2 05 0a bd f6 3f 69 3c 9f cc ba bd
       0.0102838855 -0.033696778 0.014236441 -0.091210596
000190 d7 e7 dd 3d 45 3e bd bd d7 47 b0 3d 18 01 1b be
       0.108352356 -0.092403926 0.08607452 -0.15137136
0001a0 f7 a3 50 be c6 e3 ef 3d 5b e4 e5 3c 3d 44 96 bd
       -0.20375048 0.11713366 0.02806299 -0.07337234
0001b0 5f 78 8c 3c 18 f0 da 3d 4e b6 8a bc b7 66 87 3d
       0.017147241 0.106903255 -0.016932633 0.06611388
0001c0 d5 fd 9b 3d 7f 1c 38 bd 91 74 e3 bd 5d 22 5a bd
       0.07616774 -0.04494905 -0.11106218 -0.053255428
0001d0 ca 1b fa 3d 66 5e 0e be ab 07 8a 3d a0 83 c8 bd
       0.122123316 -0.13903198 0.06739744 -0.097907305
0001e0 eb e6 26 be 64 47 01 be 8b 13 02 be 1a 20 03 3c
       -0.16299026 -0.1262489 -0.12702768 0.008003259
0001f0 d6 ab 65 bd 2d cf 16 bd fe 49 da bd c1 21 20 be
       -0.05607208 -0.036818672 -0.10658644 -0.15637876
000200 86 44 1b 3e e0 20 df 3b ba 61 f5 3c 00 1a f2 3d
       0.15162858 0.006809339 0.029953826 0.11821365
000210 04 52 8b 3c d2 f6 b0 3c ec ea d7 3d ec de 1d bd
       0.017006882 0.021602068 0.10542855 -0.038542673
000220 83 ff b4 bd c6 b5 72 bd e2 97 e1 bc 43 af 40 3c
       -0.088377975 -0.059255384 -0.027538244 0.011760536
000230 b2 8a 39 bd b8 1e f4 bd d6 57 ce bd 81 96 31 3d
       -0.045298286 -0.11919922 -0.10075347 0.043356422
000240 7c bb d1 bc 5c 2c eb 3d ac 4f ee 3d d5 f7 9c 3d
       -0.025602095 0.1148307 0.1163629 0.07664458
000250 98 e4 95 bd 75 a0 c7 3d 06 37 88 bc 99 b9 f5 bd
       -0.073189914 0.097474016 -0.0166278 -0.119982906
000260 f2 73 0e 3c 59 29 6f bd 11 00 82 bd 9c 79 0e 3c
       0.008694636 -0.05838904 -0.06347669 0.008695986
000270 ee 6c 56 bd 45 07 ea bd 37 51 12 bd e6 dd 15 3e
       -0.052349977 -0.11427168 -0.035721984 0.14635429
000280 6c e2 fc 3d b0 59 9c bd bc 38 d0 bc aa 58 a9 bc
       0.12347874 -0.07634294 -0.025417678 -0.020672161
000290 3a eb be 3d 8c a0 30 bd 13 42 c4 3d 7c bd 88 3d
       0.0932221 -0.04312186 0.09582915 0.06676766
0002a0 16 1a 1e bd d4 84 02 be 6c c0 1b 3e 51 9a a5 3d
       -0.038599096 -0.12745982 0.15210122 0.08086074
0002b0 1f f5 e1 3d 97 14 f4 3d 9b e1 f1 bd 90 a8 cb bd
       0.11033081 0.1191799 -0.11810609 -0.0994426
0002c0 34 5a a4 3b 23 86 f4 3d 68 17 f7 3d 4a 6b 10 3d
       0.005015636 0.11939647 0.12065011 0.03525857
0002d0 6a 50 85 bd 6f 3f a1 bc a3 1e 14 bd 8f 3c d5 3c
       -0.065094784 -0.019683568 -0.03616203 0.026029853
0002e0 7a 5d 39 bd 6e 15 d2 3d 0f 7b e9 bd 8a 0e ed bd
       -0.04525516 0.10257994 -0.11400425 -0.11575039
0002f0 56 ad 01 be a1 af 81 3b 33 54 e8 3c af a8 98 3d
       -0.12663779 0.003957704 0.028360462 0.07454049
000300 96 22 31 bd 28 57 36 3e 26 7c 99 bc da 72 d1 3c
       -0.043245874 0.17806685 -0.018735956 0.02556746
000310 9b d5 17 3e 62 15 c3 bd ed d0 20 3d 61 a2 6d bc
       0.14827578 -0.09525563 0.039261747 -0.014504046
000320 c9 fc 2e 3e f4 af db 3d 72 07 ce 3d 3a cd 0b 3e
       0.17088617 0.1072692 0.10060014 0.13652506
000330 87 16 9b bd ee f4 84 bc 60 78 5b 3e 3c cb ca 3d
       -0.07572656 -0.016230073 0.21432638 0.09902045
000340 8c 27 3c 3e 7a ce 76 3e 19 eb 07 bd ed 1d 6b 3e
       0.18374461 0.24102202 -0.03318319 0.22960635
000350 27 2c ff b9 90 bf 01 3d 5a 82 36 3e 9e d3 05 bd
       -0.00048670286 0.03167683 0.17823163 -0.032672517
000360 91 0b 9f 3d 65 08 fe 3d 11 9d d7 3d 8c 39 52 3e
       0.07765878 0.12403945 0.10528005 0.20529765
000370 b5 9e 29 3e 9c f1 dd bc 32 7a 3b bd f0 cf 83 bd
       0.16564448 -0.027092747 -0.04577083 -0.06436145
000380 44 e4 16 3d 52 ce 97 3d d1 12 37 bd e0 14 e7 3d
       0.036838785 0.07412399 -0.04469568 0.112832785
000390 b3 a4 b0 bc d9 49 32 3e 5e c9 54 3e ed 5e 29 3d
       -0.02156291 0.17410983 0.2077994 0.041350294
0003a0 88 d6 6e 3e 3a 9d 6b bb a7 3c 6d 3e 77 d5 17 3e
       0.23324025 -0.0035951869 0.23167668 0.14827524
0003b0 71 bf 32 3e 51 50 51 3c d2 20 1f 3e 1e 1c 4d 3e
       0.17455842 0.012775497 0.15539864 0.20030257
0003c0 0a b9 81 3e 05 80 5a 3d 46 48 d9 3d dc dc b4 3d
       0.25336486 0.053344745 0.10609488 0.08831188
0003d0 62 32 0c 3d 7e 5e 23 3d d6 e8 6e bc a5 38 32 3e
       0.034227736 0.039885037 -0.01458188 0.1740442
0003e0 eb 1a 3b bd cc 87 8a 3d 9e 4b 70 3e c9 cd 06 3e
       -0.045679968 0.067641824 0.23466346 0.13164438
0003f0 40 ad 8f 3e 9a 1e 82 3d 77 84 2e 3e 53 fe 27 3e
       0.28061867 0.06353493 0.17042719 0.1640561
