LSTM/models/sensor_data_1_pm1_lstm_model.pth (torch, 206046 bytes, 9 tensors)

lstm.weight_ih_l0 f4 [256, 1]
0	0xbda4ca24	-0.08046368
1	0xbd1c8f4e	-0.038222603
2	0x3cfe56ef	0.031047313
3	0x3ce5de9d	0.028060252
4	0xbdc3a3c9	-0.09552724
5	0xbcd91b19	-0.026502179
6	0xbd8dbdfd	-0.06921003
7	0x3e5a5c2e	0.21324226
8	0xbcd1034b	-0.025514266
9	0xbc2e2157	-0.010628066
10	0x3d35e289	0.044405494
11	0x3c366726	0.011132991
12	0x3d9da344	0.07697156
13	0x3de1c478	0.110238016
14	0xbb2a8b57	-0.0026022994
15	0xbd0ea9b3	-0.034829807
16	0xbdffe68d	-0.12495146
17	0x3e1e80cd	0.15478821
18	0xbe1696c7	-0.14705954
19	0xbe35a197	-0.17737423
20	0xbc9fb7f6	-0.0194969
21	0xbdcd77b6	-0.10032599
22	0xbe0e743e	-0.1391153
23	0xbe2ff078	-0.17181575
24	0x3cd719e4	0.026257463
25	0xbdc4a668	-0.09602052
26	0xbe336a40	-0.17521
27	0x3caba4f8	0.020952687
28	0xbd963338	-0.07333988
29	0x3d40b06b	0.047043245
30	0xbe571f24	-0.21007973
31	0x3dd6a2da	0.1048028
32	0xbcf6d3b2	-0.030130241
33	0xbe483046	-0.19549665
34	0xbd7aae1c	-0.0612012
35	0x3dedb829	0.116073914
36	0xbc6147fa	-0.013750071
37	0xbe1c1148	-0.15240967
38	0xbdee536c	-0.11637005
39	0x3cdc6dce	0.026907828
40	0xbd9ece9a	-0.0775425
41	0xbd94f62b	-0.07273515
42	0x3d8ce6c1	0.0687995
43	0xbe0220b8	-0.12707794
44	0xbd5b1059	-0.053482387
45	0xbe2be129	-0.1678511
46	0xbd95d08d	-0.073151685
47	0xbd520d33	-0.05128212
48	0x3c976ab1	0.018483492
49	0xbc4de29f	-0.012566238
50	0xbda44410	-0.080207944
51	0x3d21f8c0	0.039543867
52	0xbd4f3c1f	-0.050594445
53	0xbda8e281	-0.08246327
54	0xbe4339df	-0.19065045
55	0xbcd94645	-0.026522765
56	0xbe6fb8be	-0.23410317
57	0xbd4fd77e	-0.05074262
58	0x3cb1ce6d	0.021704877
59	0xbe23ae92	-0.15984562
60	0x3c81d136	0.01584683
61	0xbe1ada1b	-0.15122263
62	0xbbebfd00	-0.007201791
63	0x3db854f2	0.09000577
64	0xbd1e7f22	-0.038695462
65	0x3d5dfc24	0.05419554
66	0x3d860e8b	0.065457426
67	0xbd25b1fe	-0.04045295
68	0xbd646e15	-0.055769045
69	0xbbe93a4b	-0.0071175448
70	0xbd44ed25	-0.04807772
71	0x3dbe1cf3	0.092828654
72	0x3dcbee6c	0.09957585
73	0x3dc66616	0.0968744
74	0xbdb108ef	-0.08644282
75	0x3d633855	0.055473644
76	0x3d9aa2b5	0.07550565
77	0x3e2661a4	0.16248184
78	0x3e1343fc	0.14381403
79	0xbd83c4ba	-0.06434007
80	0x3cca99a1	0.02473146
81	0x3df4c0b2	0.11950816
82	0x3d74b96d	0.05974715
83	0x3d8a2acd	0.06746445
84	0xbd666b44	-0.05625464
85	0xbdf7524c	-0.12076244
86	0xbdf26acc	-0.11836776
87	0xbe163c59	-0.14671458
88	0xbdb07c89	-0.08617503
89	0xbe0badad	-0.13640471
90	0xbdd101b3	-0.10205402
91	0xbdb6ab14	-0.08919349
92	0xbc6913ac	-0.014225882
93	0x3d607a97	0.05480441
94	0xbe122cd9	-0.1427492
95	0x3d882145	0.06646971
96	0x3d6440d0	0.055725873
97	0x3cf87bfe	0.030332562
98	0xbd87fad7	-0.06639641
99	0x3e23e565	0.16005476
100	0xbe3a2467	-0.18177949
101	0xbd53183c	-0.051536784
102	0x3e0c4e17	0.13701664
103	0x3e3e8b81	0.18607904
104	0xbd5a755d	-0.053334583
105	0x3cb16d8f	0.021658687
106	0x3d7dad47	0.06193283
107	0x3cca6b9d	0.024709517
108	0xbd3255aa	-0.043538727
109	0xbdad0cf7	-0.084497385
110	0xbdddbfef	-0.10827624
111	0x3e1efa47	0.1552516
112	0xbcf64989	-0.030064361
113	0x3ddf9c07	0.10918432
114	0x3dbd7005	0.09249882
115	0x3ada2872	0.0016644134
116	0x3e235c6c	0.15953225
117	0xbe366ae6	-0.17814216
118	0x3bb00fb8	0.0053729676
119	0x3e0e1333	0.13874511
120	0xbe68f15c	-0.22748321
121	0xbe1d1c81	-0.15342905
122	0xbe0db50e	-0.13838598
123	0x3b785042	0.0037889634
124	0x3e045894	0.12924415
125	0xbe1282d7	-0.14307724
126	0xbcd12f74	-0.025535323
127	0xbc45632f	-0.012047573
128	0x3ddd097f	0.10792827
129	0xbe268e9e	-0.16265342
130	0x3de96ba2	0.113974825
131	0x3dd235f8	0.102642
132	0xbdf745bb	-0.12073847
133	0xbdf6801b	-0.12036153
134	0xbd764f59	-0.060134266
135	0xbd69dd7a	-0.057095982
136	0xbe428056	-0.18994269
137	0x3e28d2e0	0.16486692
138	0x3d3d40e8	0.046204478
139	0xbe047583	-0.12935452
140	0x3e2e0cd6	0.16997084
141	0x3dfbedc1	0.12301207
142	0xbe482f70	-0.19549346
143	0x3e1c7908	0.15280545
144	0xbe3ab615	-0.18233521
145	0xbda04e12	-0.07827391
146	0xbe01b4c8	-0.12666619
147	0xbd3f09fd	-0.046640385
148	0x3e39f641	0.18160345
149	0xbe20ee21	-0.15715839
150	0xbdfd52c2	-0.123693004
151	0x3e12bb37	0.1432923
152	0xbe07b568	-0.13252795
153	0x3e40fe61	0.18847038
154	0xbe469287	-0.19391833
155	0xbdc5ba83	-0.09654715
156	0xbdddcccd	-0.10830078
157	0x3e2a2314	0.16614944
158	0xbe320c0a	-0.17387405
159	0xbdb334bc	-0.08750293
160	0xbdd6781d	-0.104721285
161	0xbe416a19	-0.1888813
162	0xbcbcb261	-0.023034276
163	0xbd6db3bc	-0.058032736
164	0xbe16baa6	-0.14719638
165	0x3dc11a61	0.094288595
166	0x3e2aa521	0.16664554
167	0x3e18ccac	0.14921826
168	0xbe2a4b03	-0.16630177
169	0xbda8aadc	-0.08235714
170	0xbe0d72bf	-0.13813303
171	0xbe0d6b07	-0.13810359
172	0xbdf8a6e0	-0.12141204
173	0xbe53127d	-0.20612521
174	0xbdde8e81	-0.10867024
175	0xbe1e4ad5	-0.15458234
176	0x3e1a53b8	0.15070999
177	0xbe35eaa8	-0.17765296
178	0xbe571bad	-0.21006651
179	0x3d2ec24a	0.042665757
180	0xbd7b0b4f	-0.06129008
181	0xbe0afa86	-0.1357213
182	0xbe658c94	-0.22416908
183	0xbdfc4503	-0.123178504
184	0xbdbd6477	-0.09247678
185	0x3e2c64a3	0.16835265
186	0xbde373eb	-0.11106094
187	0x3e14274b	0.14468114
188	0x3dcac2fb	0.09900471
189	0xbbdf0b72	-0.0068067843
190	0x3dce8f59	0.10085935
191	0x3e20c271	0.15699174
192	0xbd27d071	-0.04097027
193	0xbcf6bcfe	-0.030119415
194	0xbe414da5	-0.18877275
195	0xbbd04be8	-0.006356705
196	0xbe0902f2	-0.1338003
197	0xbd907704	-0.070539504
198	0xbe590dd1	-0.21196677
199	0x3e685c9a	0.22691575
200	0x3e177a19	0.1479267
201	0x3d27d5ad	0.04097526
202	0x3cbab039	0.022789108
203	0xbd239c14	-0.03994377
204	0x3dc1319f	0.094332926
205	0xbcbe24b4	-0.02321086
206	0x3db36887	0.087601714
207	0xbe390eab	-0.18072002
208	0x3c592644	0.013253752
209	0x3e2e2d04	0.1700936
210	0xbdca2ca9	-0.098717995
211	0xbe225eef	-0.15856527
212	0xbd1e04cb	-0.03857879
213	0xbd8aa64e	-0.06770001
214	0xbe3c629a	-0.18396989
215	0xbdb371e1	-0.08761955
216	0xbe41cd28	-0.18925917
217	0x3cba6aad	0.022755945
218	0xbe5b9fc8	-0.2144767
219	0xbdc0dee5	-0.09417514
220	0x3c9f2580	0.019427061
221	0x3cfd7b93	0.030942714
222	0xbe780bf7	-0.24223314
223	0x3e766d8d	0.24065228
224	0x3d0a25cf	0.033727463
225	0xbd8bb985	-0.068224944
226	0xbde6bbbc	-0.11266276
227	0x3d657b32	0.05602569
228	0xbe3e840e	-0.18605062
229	0xbdab9aac	-0.08379111
230	0xbdff9e21	-0.124813326
231	0xbc1dad6e	-0.009623868
232	0xbddeac4a	-0.10872705
233	0xbd6aca7d	-0.057322014
234	0xbdaef4a5	-0.08542756
235	0xbdfe7bb0	-0.12425935
236	0xbe53e448	-0.20692551
237	0x3c920613	0.017825162
238	0x3b9202c9	0.0044558984
239	0x3e01a7e4	0.12661701
240	0x3db41681	0.08793355
241	0x3dba3390	0.09091866
242	0xbc9c2ea6	-0.019065212
243	0x3e0269a0	0.12735605
244	0x3e530a19	0.2060932
245	0xbd58549f	-0.052815076
246	0xbc91d750	-0.017802864
247	0x3c62db2c	0.0138462
248	0xbe3b8dfd	-0.18315883
249	0xbc8b1ad3	-0.016980564
250	0xbe1e13c3	-0.15437226
251	0xbd8c706e	-0.06857382
252	0x3e28d917	0.16489063
253	0xbe1a6013	-0.15075712
254	0x3dc8eee0	0.09811187
255	0x3c6df398	0.014523409

lstm.weight_hh_l0 f4 [256, 64]
0	0xbd948b31	-0.07253111
1	0xbd0a026c	-0.033693716
2	0xbe212956	-0.15738425
3	0x3d8cf3b7	0.068824224
4	0xbdb94462	-0.09046246
5	0xba1c32e4	-0.0005958511
6	0x3cb56f4b	0.022147795
7	0xbdca5d67	-0.09881096
8	0x3ccfdb73	0.025373196
9	0xbd634893	-0.055489134
10	0x3d5de620	0.054174542
11	0xbdd73699	-0.105084606
12	0x3d4d70ea	0.05015651
13	0x3c78974b	0.01517279
14	0xbe3a2cf0	-0.18181205
15	0xbd165dd0	-0.03671056
16	0xbd9796c1	-0.07401801
17	0xbd7d245a	-0.061802246
18	0xbd10f593	-0.035390448
19	0x3a409b68	0.0007347376
20	0x3e174348	0.1477176
21	0xbd119e5d	-0.035551418
22	0xbda71981	-0.08159161
23	0xbdd40ac4	-0.10353616
24	0x3e059bce	0.13047716
25	0x3dfe0d2c	0.12404856
26	0xbd73c703	-0.059515964
27	0x3d736420	0.05942166
28	0x3bfceaeb	0.007718434
29	0x3dbdcf20	0.092680216
30	0x3d216ca9	0.039410267
31	0xbde4adb2	-0.11165942
32	0x3dbff1c6	0.093722865
33	0xbd904d46	-0.07045989
34	0x3e0983e2	0.13429216
35	0xbd015a95	-0.031580526
36	0xbd6d2f7d	-0.057906616
37	0x3dcb4dad	0.09926925
38	0x3da6e154	0.08148447
39	0x3dde3327	0.108496
40	0x3dfbdc92	0.1229793
41	0x3d00bfdb	0.031432968
42	0x3dac371d	0.084089495
43	0x3dbbd417	0.09171312
44	0xbd579442	-0.052631624
45	0x3c10a928	0.0088293925
46	0x3ce2cd20	0.027685702
47	0xbe0f623d	-0.14002319
48	0x3d06ce5b	0.03291164
49	0xbd66498b	-0.05622248
50	0xbd9d1b8c	-0.0767127
51	0xbb0981d4	-0.0020981925
52	0xbd130ed4	-0.035902813
53	0xbdb24c97	-0.087060146
54	0xbd5f1903	-0.054467212
55	0x3b2496ce	0.00251143
56	0xbd574816	-0.05255898
57	0x3d1e2eb6	0.038618766
58	0x3e074610	0.1321032
59	0x3d3a1414	0.045429304
60	0x3cace6a4	0.021106072
61	0x3c8dcedf	0.017310558
62	0xbd1ab8c6	-0.03777387
63	0xbc969ee0	-0.018386304
64	0xbd7d0412	-0.06177146
65	0x3db3dc7c	0.087822884
66	0xbc95998d	-0.018261695
67	0x3ca60386	0.020265352
68	0x3c470bb4	0.012148786
69	0x3d4f08cf	0.05054551
70	0x3d581482	0.052753933
71	0xbd78bc7a	-0.06072662
72	0xbce31e4b	-0.027724406
73	0x3e06de31	0.13170697
74	0xbd16ced8	-0.036818355
75	0x3cc7a932	0.02437267
76	0x3c8d53ff	0.017251967
77	0x3d000d5e	0.031262748
78	0x3c3f2149	0.011665651
79	0xbe105f0a	-0.14098755
80	0xbe06326a	-0.13105169
81	0xbdd85bb5	-0.10564367
82	0xbb200463	-0.0024416677
83	0x3e2d9cdd	0.1695437
84	0x3e0111aa	0.12604395
85	0x3c4f648e	0.012658251
86	0x3d3ba7f3	0.045814466
87	0xbe3f1465	-0.18660124
88	0x3d450dcc	0.04810886
89	0x3db053ad	0.0860971
90	0x3e0ff216	0.14057192
91	0x3d9b193d	0.07573173
92	0xbdd9ee94	-0.10641208
93	0xbd1a1e07	-0.037626293
94	0x3daaf3e2	0.08347298
95	0x3d83cfb8	0.064361036
96	0xbd8c8b44	-0.068625
97	0x3d1a3eab	0.03765742
98	0x3e057d34	0.13036042
99	0xbd0f2784	-0.034949794
100	0x3d949fe5	0.0725706
101	0xbd966add	-0.07344601
102	0x3d7b07e7	0.061286833
103	0x3cb3d1e6	0.021950673
104	0xbd41dbf4	-0.047328904
105	0x3dc96a77	0.0983476
106	0xbdb42ba6	-0.08797388
107	0x3e15dc1c	0.14634746
108	0x3a356967	0.0006920308
109	0x3e53cb57	0.20683037
110	0xbe030aec	-0.12797135
111	0x3cb323bd	0.021867627
112	0xbd883685	-0.06651024
113	0xbd899a7d	-0.067189194
114	0xbdd801cf	-0.1054722
115	0x3c612d87	0.013743765
116	0xbe076c0d	-0.13224812
117	0x3df0c073	0.11755457
118	0x3b2dd845	0.0026526612
119	0xbcb3f22f	-0.021966068
120	0x3dce6a9a	0.100789264
121	0xbdb70144	-0.08935788
122	0x3df6a88c	0.120438665
123	0x3d3cd923	0.046105515
124	0xbd1a3609	-0.03764919
125	0x3da51910	0.08061421
126	0xbd855bc4	-0.065116435
127	0xbd82e4c7	-0.06391292
128	0xbdd64c32	-0.10463752
129	0x3b108eb9	0.0022057726
130	0xbde19d4e	-0.110163316
131	0xbd419a25	-0.047266144
132	0xbdf99ece	-0.12188493
133	0x3ce6a749	0.02815594
134	0x3dabfa3a	0.08397336
135	0x3ba7d35c	0.0051216315
136	0x3c845160	0.016152084
137	0xbcbd6294	-0.023118295
138	0xbd8602e9	-0.06543524
139	0xbd25a358	-0.04043898
140	0x3c3877d1	0.011259035
141	0x3e11fb10	0.14255929
142	0xbe12b08f	-0.14325164
143	0xbde03c2d	-0.109489776
144	0x3d811a80	0.063038826
145	0x3d77cd3d	0.060498465
146	0x3e1d0f2f	0.15337823
147	0x3d8783f8	0.06616968
148	0x3d14b096	0.036301218
149	0xbdb44f06	-0.08804135
150	0xbd666a94	-0.056253985
151	0x3c448225	0.0119939195
152	0x3dd569e4	0.10420588
153	0xbd67abb6	-0.05656024
154	0x3d7ca192	0.061677523
155	0x3df3f38a	0.11911686
156	0x3da2e80f	0.07954418
157	0x3e074316	0.13209185
158	0xbc658f14	-0.014011163
159	0x3ce90a8b	0.02844741
160	0x3d9270cd	0.07150421
161	0x3e01fad7	0.12693344
162	0x3d12fa75	0.035883386
163	0xbde416b9	-0.111371465
164	0x3d95f68a	0.07322414
165	0x3e21371a	0.15743676
166	0xbc153063	-0.009105775
167	0x3cbe122d	0.023202026
168	0x3da6da83	0.081471466
169	0x3d9d152c	0.07670054
170	0xbe12f378	-0.14350688
171	0xbd3c2495	-0.045933325
172	0x3d907855	0.070542015
173	0x3d81eace	0.063436136
174	0xbd9a2ab0	-0.07527673
175	0x3c3a144c	0.011357378
176	0x3da999ea	0.0828131
177	0xbd027525	-0.03185
178	0xbdaf1a28	-0.08549911
179	0xbd25c4e6	-0.04047098
180	0x3d60d271	0.054888193
181	0xbdac9f16	-0.08428781
182	0xbd98c880	-0.07460117
183	0xbe23a08c	-0.15979213
184	0x3d03ebc1	0.032207254
185	0x3d996b74	0.07491198
186	0x3c049f4d	0.008094621
187	0x3da15231	0.07877005
188	0xbd80cedf	-0.062894575
189	0x3e1d9232	0.153878
190	0x3e2ef202	0.17084506
191	0xbd1a6fd2	-0.037704296
192	0x3d5a0fd3	0.053237747
193	0xbe0a7256	-0.13520178
194	0xbe60d2af	-0.2195537
195	0xbdff0641	-0.12452365
196	0x3df12b74	0.11775866
197	0x3d5f4f89	0.05451921
198	0x3c4954df	0.012288301
199	0xbe1b5fb3	-0.15173225
200	0xbc961957	-0.01832263
201	0xbb7af429	-0.0038292503
202	0xbe18b151	-0.14911391
203	0xbe20ee8f	-0.15716003
204	0x3d624e43	0.055250417
205	0x3d9eee8b	0.07760342
206	0xbe50f29a	-0.20405045
207	0x3cc538d8	0.024074957
208	0xbd917b65	-0.07103614
209	0xbdc3ba99	-0.09557075
210	0x3e47fa5d	0.195291
211	0x3e27907a	0.16363707
212	0x3da39c1e	0.07988761
213	0x3e3d1bc0	0.18467617
214	0x3e1f0e6c	0.15532845
215	0xbe370da4	-0.17876297
216	0x3d08e4cb	0.03342132
217	0x3ddbfb20	0.10741258
218	0x3e02a7d7	0.12759338
219	0xbce87029	-0.028373795
220	0xbd411634	-0.047140315
221	0x3d503da2	0.050840028
222	0x3d8b9a5a	0.068165496
223	0xbe12fa77	-0.14353357
224	0xbe00ac37	-0.12565695
225	0x3cda48c9	0.026646035
226	0x3e3e4999	0.18582763
227	0xbe3250fa	-0.17413703
228	0x3e548361	0.20753242
229	0x3dfd1c6a	0.12358935
230	0x3d9f0c3a	0.07766004
231	0x3d60b66f	0.054861482
232	0x3d2b68a9	0.04184786
233	0xbcb07df7	-0.02154444
234	0xbcb3086d	-0.021854604
235	0x3c8be1d8	0.017075464
236	0x3e1bd167	0.152166
237	0x3d2049be	0.039132826
238	0x3c4e0cf1	0.012576328
239	0xbe13cec2	-0.1443434
240	0xbcceca69	-0.025243001
241	0x3d5c0006	0.05371096
242	0x3d26effc	0.04075621
243	0x3d9573f8	0.0729751
244	0x3c873152	0.01650301
245	0x3de1cf11	0.11025823
246	0x3d8f0b16	0.06984536
247	0xbd2aa4b5	-0.041660983
248	0xbced9af6	-0.029004555
249	0x3d61e34f	0.05514842
250	0x3e1a7e97	0.15087353
251	0x3da15baf	0.078788154
252	0x3d824d94	0.06362453
253	0x3def9290	0.116978765
254	0xbc8d6c38	-0.017263517
255	0xbc98effb	-0.01866912

lstm.bias_ih_l0 f4 [256]
0	0xbd94904a	-0.072540835
1	0x3da5fa03	0.081043266
2	0x3d4a9c97	0.049465742
3	0x3e36dee1	0.17858459
4	0x3d882ef0	0.066495776
5	0x3d284a63	0.041086566
6	0x3e34785a	0.17624035
7	0xbc9a2681	-0.018817188
8	0x3b0f06dc	0.0021824157
9	0x3d6d6614	0.057958677
10	0xbda75da8	-0.081721604
11	0x3ddd7c15	0.108146824
12	0x3dc4a7ed	0.09602342
13	0xbd701e73	-0.05862279
14	0xbbda670f	-0.0066651176
15	0x3deb36f1	0.114850886
16	0x3e1f44ad	0.15553541
17	0x3ceb9044	0.028755315
18	0x3d5dde72	0.05416722
19	0xbd74a4b1	-0.059727374
20	0x3da465b1	0.080272086
21	0x3a175d63	0.00057741086
22	0x3e09552f	0.13411401
23	0xbca9dae6	-0.020734262
24	0x3e12c987	0.14334689
25	0x3dc0eb08	0.09419829
26	0xbb7d38ad	-0.0038638518
27	0xbd24195c	-0.040063247
28	0x3d274d3f	0.040845152
29	0xbc5b91a3	-0.013401422
30	0x3d3536a8	0.044241577
31	0x3df241e4	0.11828974
32	0x3d198fb6	0.03749057
33	0x3db8f021	0.09030176
34	0x3d88048b	0.066414915
35	0x3da4ed8e	0.080531225
36	0x3db335e1	0.08750511
37	0x3e2f7183	0.17133145
38	0x3c13a2f7	0.009011022
39	0x3e3d390e	0.18478796
40	0x3e4cd6aa	0.20003763
41	0x3c962520	0.01832825
42	0x3da705d8	0.081554115
43	0xbd2f1098	-0.042740434
44	0x3bec0a89	0.0072034043
45	0x3e318b00	0.1733818
46	0x3cbeab88	0.023275152
47	0x3d92fbe5	0.07176951
48	0x3d19f345	0.037585516
49	0x3e405445	0.18782146
50	0x3d9c616a	0.07635768
51	0xbcbf1d50	-0.023329407
52	0x3e236b85	0.15958984
53	0x3d79be51	0.060972515
54	0x3e2ab40e	0.16670248
55	0x3df7ea5e	0.12105249
56	0x3d154189	0.036439452
57	0xbcbf5c6c	-0.0233595
58	0xbd66c8d7	-0.05634388
59	0x3ba8d3fc	0.0051522236
60	0x3dce69d3	0.10078778
61	0xbd71213b	-0.05886958
62	0x3de944c8	0.11390072
63	0x3b4ec04e	0.0031547728
64	0x3dd1dd1e	0.10247253
65	0xbc3bbdce	-0.011458827
66	0xbd929d9e	-0.07158969
67	0x3d7164bd	0.058933962
68	0x3cbb0402	0.02282906
69	0x3ce6fda1	0.028197112
70	0x3e177a04	0.14792639
71	0xbcdae16a	-0.026718814
72	0x3d04a56e	0.03238433
73	0xbd400fba	-0.046889998
74	0xbdaee7b3	-0.08540287
75	0x3dcaf042	0.09909107
76	0xbd2abadd	-0.041682113
77	0x3d6f2f21	0.058394555
78	0xbd9d7ba7	-0.076896004
79	0xbde06509	-0.10956771
80	0xbd8dc4ac	-0.06922278
81	0x3e19597c	0.14975542
82	0xbc908d7a	-0.017645586
83	0xbd9e2c76	-0.07723324
84	0xbd635238	-0.05549833
85	0x3de86a13	0.11348357
86	0xbdc62ca0	-0.0967648
87	0xbda3a76f	-0.0799092
88	0x3d6d0cc3	0.0578735
89	0xbd357f86	-0.04431107
90	0xbd17da8e	-0.037073664
91	0x3daeb6fe	0.08530997
92	0x3d958534	0.07300797
93	0xbde33df9	-0.11095805
94	0xbdd89ded	-0.10576997
95	0x3d90d8a7	0.07072573
96	0x3da334cd	0.07969055
97	0xbdd80283	-0.10547354
98	0xbcd0cede	-0.025489267
99	0x3caeeeda	0.021354128
100	0xbd6b29ae	-0.057412796
101	0xbdbdedc9	-0.092738695
102	0xbbe908ec	-0.0071116593
103	0x3c8992c5	0.016793618
104	0xbd22a13c	-0.039704546
105	0xbd61c0eb	-0.05511562
106	0x3da878b5	0.08226148
107	0x3decd5c1	0.11564208
108	0xbdab21ab	-0.08356031
109	0xbdc6890e	-0.0969411
110	0xbdc08331	-0.09400023
111	0x3db94605	0.09046558
112	0x3d92c157	0.07165783
113	0x3d029ac1	0.031885866
114	0xbc489bb5	-0.012244155
115	0xbd31e3cb	-0.04343013
116	0x3d495c0b	0.049160045
117	0x3d32712c	0.04356496
118	0xbddbbdfb	-0.10729595
119	0x3d3d1013	0.046157908
120	0xbde5a1a9	-0.11212475
121	0xbdbe9712	-0.09306158
122	0xbe003b27	-0.12522565
123	0x3da07716	0.07835214
124	0x3e168a79	0.1470126
125	0xb9e0e06d	-0.0004289182
126	0x3dbbc225	0.091678895
127	0x3d5d6036	0.054046832
128	0xbdc90c67	-0.09816819
129	0xbd970fc2	-0.073760524
130	0x3cb28cc5	0.02179564
131	0x3d118718	0.035529226
132	0xbdd4a90a	-0.10383804
133	0x3e121bfb	0.14268486
134	0xbbc652e0	-0.00605236
135	0xbe23ac9b	-0.15983813
136	0xbd8fb744	-0.07017377
137	0xbdaac04f	-0.08337461
138	0xbe178034	-0.14795
139	0xbd0ebccc	-0.03484802
140	0x3e03dda9	0.12877525
141	0x3c74117e	0.014896749
142	0xbdaedc77	-0.08538144
143	0xbd5fde9e	-0.054655664
144	0x3ccb5417	0.02482037
145	0xbdfaf30b	-0.12253388
146	0xbcda17e7	-0.026622726
147	0x3de5bbb0	0.11217439
148	0x3db52083	0.08844092
149	0x3e00dff3	0.1258543
150	0x3e05a67e	0.13051793
151	0xbcd68254	-0.026185192
152	0x3c77f583	0.015134218
153	0xbdd24d28	-0.10268623
154	0x3d9ec81f	0.07753014
155	0x3e09baab	0.13450114
156	0xbd6c1f59	-0.057647083
157	0x3d8ab65a	0.06773062
158	0x3d3bb40d	0.045826007
159	0xbb60326a	-0.0034209737
160	0x3c800dd7	0.0156316
161	0x3dc0ad3b	0.09408041
162	0x3da8f1cb	0.08249243
163	0xbc55067b	-0.013002033
164	0x3dc6b5e1	0.097026594
165	0xbcebb7a9	-0.0287741
166	0x3dbf3280	0.09335804
167	0x3dd392a6	0.10330705
168	0x3dbd8e61	0.09255672
169	0xbc9895dc	-0.018626146
170	0xbbda9588	-0.0066706575
171	0xbca72bfb	-0.020406714
172	0x3d8dcf1d	0.06924269
173	0x3ddcb8e3	0.10777452
174	0x3de0bef6	0.10973923
175	0xb897c2e9	-7.236546e-05
176	0x3de19bae	0.11016022
177	0x3d461d35	0.048367698
178	0xbde7b06b	-0.11312946
179	0x3dd62913	0.10457053
180	0xbe131461	-0.14363243
181	0x3bba5e1b	0.005687488
182	0x3cee8bda	0.02911942
183	0xbe17b971	-0.14816834
184	0x3bd9aef9	0.006643173
185	0xbca34f54	-0.019935288
186	0x3dd58554	0.10425821
187	0xbc44315e	-0.011974661
188	0x3e0a6560	0.13515234
189	0x3e0d9591	0.13826586
190	0x3d896478	0.06708616
191	0x3d39a78c	0.0453258
192	0x3d87866f	0.06617438
193	0xbd50d2bf	-0.050982233
194	0xbab922ee	-0.001412479
195	0x3dc91cdf	0.0981996
196	0x3e010186	0.12598237
197	0x3dfbd916	0.12297265
198	0x3e01c47b	0.12672608
199	0x3d1f43c0	0.03888297
200	0xbd5bb8bc	-0.053642973
201	0xbcb9661c	-0.022631697
202	0xbd50810f	-0.05090433
203	0x3db9bd7e	0.09069346
204	0x3d6f25e5	0.05838575
205	0x3d04c3c7	0.03241327
206	0x3be4083a	0.0069589885
207	0x3e470912	0.19437054
208	0x3e0cf8a3	0.13766722
209	0x3b277600	0.0025552511
210	0x3da83174	0.082125574
211	0x3d205b80	0.03914976
212	0xbd568d1d	-0.05238067
213	0x3d7d2f08	0.06181243
214	0x3d63ccac	0.055615112
215	0xbd11f85e	-0.035637252
216	0x3dfb96f5	0.12284652
217	0x3deb26cf	0.114820115
218	0x3e3aa221	0.1822591
219	0xbc96fdd3	-0.01843158
220	0x3db75630	0.08951986
221	0x3df3d5ce	0.119060144
222	0x3df0bf5c	0.11755249
223	0x3dbb9abe	0.09160374
224	0x3de454bc	0.11148974
225	0x3e253961	0.1613517
226	0x3e0a38cd	0.1349823
227	0xbdad0d0d	-0.08449755
228	0x3dd6b98e	0.104846105
229	0x3e13ed0d	0.14445896
230	0x3e08f472	0.13374498
231	0x3db6ca00	0.08925247
232	0x3e2e4535	0.17018588
233	0xbccfbbfd	-0.025358194
234	0x3df4d5c8	0.11954838
235	0xbcbd5d22	-0.023115698
236	0xbd1264c1	-0.035740618
237	0x3cc1f67b	0.023677101
238	0x3d2e727f	0.04258966
239	0xbb16e97a	-0.0023027346
240	0xbd639523	-0.05556215
241	0x3df59884	0.11991981
242	0x3e29c077	0.16577326
243	0x3e3b538a	0.18293586
244	0x3e047653	0.12935762
245	0x3d18adbc	0.03727506
246	0xbc18aa08	-0.009317882
247	0xbca18bb7	-0.019719942
248	0xbd0d211f	-0.034455415
249	0x3e1232ef	0.14277242
250	0x3df32d1c	0.11873838
251	0x3c8e368b	0.017359992
252	0xbd1c5b1c	-0.038172826
253	0x3df88989	0.12135608
254	0x3dca9235	0.09891168
255	0xbd93bade	-0.072133765

lstm.bias_hh_l0 f4 [256]
0	0xbd751298	-0.059832186
1	0x3ca446ac	0.02005323
2	0x3cd4dcf6	0.025984269
3	0xbcd3955c	-0.025828056
4	0x3e048755	0.1294225
5	0xbcabc2b2	-0.020966861
6	0xbc762276	-0.015022865
7	0x3e041dfe	0.12902066
8	0x3dff843f	0.12476396
9	0xbd6f8dfc	-0.058485016
10	0xbd561f54	-0.05227597
11	0x3d380b22	0.044932492
12	0xbcfeeab2	-0.03111777
13	0xbca086d2	-0.019595537
14	0x3e3bef25	0.18352945
15	0x3e1fe7de	0.15615794
16	0x3d4171ff	0.047227856
17	0x3e1ba10d	0.15198155
18	0xbce97ed3	-0.028502857
19	0xbd22ee7e	-0.039778225
20	0x3e0bee20	0.13665056
21	0xbd6a895b	-0.0572599
22	0x3d379841	0.044822935
23	0xbcbaab5a	-0.022786785
24	0xbd0941ad	-0.0335099
25	0xbb92b229	-0.0044768048
26	0x3e4a8d02	0.19780353
27	0xbb04b967	-0.002025211
28	0xbc44699f	-0.011988073
29	0xbd22fa2b	-0.03978936
30	0x3d946cb1	0.07247294
31	0xbb8fa51b	-0.004383696
32	0xbb27a649	-0.0025581291
33	0x3d4c79d8	0.049920887
34	0xbdb524bc	-0.08844897
35	0x3dc36e8a	0.09542568
36	0x3e22b78f	0.15890335
37	0xbd24eb4d	-0.040263463
38	0xbcbb03b0	-0.022828907
39	0x3d458a79	0.04822776
40	0x3d0753a5	0.033038754
41	0x3d376cdb	0.044781547
42	0x3ddd4f70	0.10806167
43	0x3d9bccaa	0.07607396
44	0x3d7d40d7	0.061829414
45	0x3d892ada	0.066976264
46	0x3d8be017	0.06829851
47	0xbbd8262e	-0.0065963482
48	0x3deda535	0.11603776
49	0x3cd86aa1	0.026418032
50	0xbcbc517c	-0.022988074
51	0x3d770985	0.060311813
52	0x3d8d7e64	0.06908873
53	0x3db235e2	0.087016836
54	0x3e183fa7	0.14868031
55	0x3e2d1db3	0.1690586
56	0x3e16a533	0.14711456
57	0x3e1f9646	0.15584669
58	0x3d1d9806	0.03847506
59	0x3cfb1f73	0.030654645
60	0x3bc3e949	0.0059787375
61	0x3e20d521	0.15706302
62	0x3d53ad97	0.05167922
63	0x3e2212ae	0.15827438
64	0xbca59a74	-0.02021525
65	0xbdb2faeb	-0.08739265
66	0xbad5e8d4	-0.0016319999
67	0x3dcd5c6a	0.10027392
68	0xbbc39671	-0.0059688617
69	0x3dc9cbf8	0.09853357
70	0x3e03e9ba	0.12882128
71	0xbd5df824	-0.054191723
72	0x3d1ed480	0.038776875
73	0x3cd6d370	0.026223868
74	0xbd131fca	-0.03591899
75	0x3de5b5fa	0.1121635
76	0xbc86b48a	-0.01644351
77	0xbd9b69e8	-0.075885594
78	0x3da847d7	0.08216827
79	0x3db5c65d	0.088757254
80	0x3d4a867a	0.049444653
81	0x3de51dae	0.111873016
82	0x3c9c9e54	0.019118465
83	0x3df21fe2	0.118224874
84	0xbb412a8a	-0.0029474818
85	0x3dc9bd9b	0.098506175
86	0x3df5ae12	0.11996092
87	0x3d881011	0.066436894
88	0xbcdd1af5	-0.026990393
89	0xbdeef48b	-0.116677366
90	0xbdad0e24	-0.08449963
91	0x3d5c1d73	0.053739022
92	0xbdaf525e	-0.08560632
93	0x3da84a55	0.08217303
94	0xbd507278	-0.050890416
95	0x3df95a89	0.12175471
96	0xbd8377b2	-0.064193144
97	0xbd1a1365	-0.037616152
98	0xbdd17a5a	-0.10228415
99	0x3df02790	0.11726296
100	0xbd80df12	-0.06292547
101	0xbd8a0d6d	-0.06740842
102	0xbdd4da9e	-0.103932604
103	0xbd915139	-0.0709557
104	0xbd5790ec	-0.052628443
105	0xbdcca9e0	-0.099933386
106	0x3dd38099	0.103272624
107	0x3d8f9eb5	0.07012693
108	0x3c3ec0ce	0.011642648
109	0xbddd62c0	-0.10809851
110	0xbdedbb8f	-0.116080396
111	0x3de0b2c1	0.109715946
112	0x3d816a03	0.06319048
113	0xbde6fbe5	-0.11278514
114	0xbccb78e9	-0.024837928
115	0x3e09ac5d	0.13444658
116	0x3d8571f4	0.065158755
117	0xbdeeff15	-0.11669747
118	0xbde77a39	-0.11302609
119	0xbcfe9b3b	-0.031079879
120	0xbd4b4cea	-0.049633898
121	0x3d0a27ad	0.033729244
122	0x3daed8f6	0.08537476
123	0xbdbf8f3c	-0.09353492
124	0x3e0e4df2	0.13896921
125	0x3b4402ba	0.0029908852
126	0x3dd2ad3b	0.10286947
127	0x3ca440fa	0.020050514
128	0x3cb76f30	0.022391886
129	0xbc24ed6c	-0.010066371
130	0xbdd593b1	-0.104285605
131	0xbcfc2626	-0.03077991
132	0x3d94d6ce	0.07267533
133	0x3da00821	0.078140505
134	0x3e25277c	0.16128343
135	0xbe391437	-0.18074118
136	0xbd52929c	-0.05140935
137	0x3df80fe1	0.12112404
138	0xbde5a907	-0.1121388
139	0xbdfd45bd	-0.12366817
140	0xbd34c050	-0.044128716
141	0x3d61460e	0.05499845
142	0xbe0934e3	-0.13399081
143	0xbd81ce64	-0.06338194
144	0xbd914a72	-0.070942774
145	0xbe1acd67	-0.15117417
146	0x3d6b7ec0	0.057493925
147	0x3c1ac8b8	0.009447269
148	0xbbceb247	-0.0063078734
149	0x3deaabec	0.11458573
150	0x3c8e88fc	0.017399304
151	0xbde483a0	-0.11157918
152	0x3cb4fa85	0.022092113
153	0x3deb5268	0.11490327
154	0x3d9605c2	0.07325317
155	0xbd28940e	-0.04115682
156	0xbde08fc2	-0.109649196
157	0x3d9d6a8e	0.07686339
158	0x3d26edcb	0.04075412
159	0xbe33622e	-0.17517921
160	0xbc9487d2	-0.01813117
161	0x3d80f0b4	0.062959105
162	0x3e08f137	0.13373266
163	0xbdddad50	-0.10824072
164	0x3dd671bf	0.10470914
165	0x3df2a542	0.11847927
166	0x3c470e5e	0.0121494215
167	0xbdb39490	-0.087685704
168	0xbcfacc97	-0.030615134
169	0xbd132965	-0.03592815
170	0xbc5bab33	-0.013407516
171	0x3dce8228	0.10083419
172	0x3de0c529	0.10975105
173	0x3cb23557	0.02175395
174	0xbdb9cf42	-0.090727344
175	0xbd6dee6b	-0.0580887
176	0x3c7e32a0	0.015515
177	0xbb1500af	-0.0022736003
178	0xbd703340	-0.058642626
179	0x3dd77f49	0.105223246
180	0xbdfe15c5	-0.12406496
181	0x3e075fe4	0.13220173
182	0xbd5b0609	-0.053472552
183	0xbcc9f2e3	-0.02465195
184	0x3dc2d82d	0.095138885
185	0xbdd927f9	-0.10603327
186	0xbd0e2a57	-0.034708347
187	0xbca5fdce	-0.020262625
188	0x3e14f104	0.14545065
189	0x3e1b1435	0.15144427
190	0xbd2dba1d	-0.04241382
191	0x3dad758c	0.08469686
192	0xbbdc323a	-0.0067198547
193	0xbb65b740	-0.0035051852
194	0xbca6a8f4	-0.020344235
195	0x3bc5dfd8	0.006038647
196	0xbd66491a	-0.05622206
197	0xbd884ee2	-0.06655671
198	0x3de30257	0.11084431
199	0x3e2d6cee	0.16936085
200	0x3e2d837f	0.16944693
201	0x3ccc263c	0.024920575
202	0x3de77aec	0.11302742
203	0xbd1a3adc	-0.03765379
204	0x3baebe7c	0.005332766
205	0x3b31e9a5	0.002714732
206	0x3e30b2f6	0.17255768
207	0xbcae9b25	-0.021314213
208	0xbc9e9db4	-0.019362308
209	0x3e3c6fbd	0.18402
210	0xbd2f962b	-0.04286782
211	0x3cabc424	0.02096755
212	0xbcbef34b	-0.02330937
213	0x3b83f3b7	0.004026856
214	0x3e12fe93	0.14354925
215	0x3dcd155b	0.10013839
216	0x3e04edad	0.12981291
217	0xbc225784	-0.009908561
218	0x3e3d3023	0.18475394
219	0x3e1a46cf	0.15066074
220	0x3d748644	0.05969836
221	0x3df73440	0.12070513
222	0x3c24ac47	0.01005084
223	0x3c8badf2	0.017050717
224	0x3e2800b1	0.16406514
225	0x3e2245ce	0.15846941
226	0xbd04520f	-0.03230482
227	0x3c7a670b	0.015283356
228	0x3dd3436c	0.10315594
229	0x3e0abc31	0.13548352
230	0x3d025dfd	0.031827915
231	0x3b0373e8	0.00200581
232	0x3be397d7	0.006945591
233	0xbcf05a60	-0.02933997
234	0x3cedca4a	0.029027123
235	0x3e033b6d	0.12815638
236	0x3dbae316	0.091253445
237	0x3d917052	0.071015015
238	0xbcc59619	-0.024119424
239	0x3e14d50a	0.14534393
240	0x3ddae9ba	0.10689111
241	0x3cfd2a9b	0.030904105
242	0x3dee2ef2	0.11630048
243	0x3d1e8a1a	0.038705923
244	0xbda90e14	-0.08254638
245	0x3b4d8629	0.0031360483
246	0x3dd2c4e8	0.10291463
247	0x3dd8071d	0.10548232
248	0x3cd0974f	0.025462775
249	0x3dc271ad	0.09494338
250	0x3e2e1a7a	0.17002288
251	0x3e04b878	0.12960994
252	0x3d457dab	0.04821555
253	0x3bd7e610	0.006588705
254	0xbd24dbcc	-0.040248677
255	0x3d7d3e01	0.06182671

lstm.weight_ih_l1 f4 [256, 64]
0	0xbe2c2f8c	-0.16815013
1	0xbd9287a1	-0.071547754
2	0xbde97302	-0.11398889
3	0xbe02b1ff	-0.12763213
4	0x3dd659cf	0.104663484
5	0x3e3042be	0.1721296
6	0x3e251dbf	0.16124628
7	0x3d4c99b5	0.049951274
8	0xbcf342ed	-0.029694999
9	0x3d4fb5ac	0.050710365
10	0x3af812db	0.0018926518
11	0x3d5413d6	0.05177673
12	0xbdd8e62f	-0.10590779
13	0xbe0468e8	-0.12930644
14	0x3d1d8825	0.038459916
15	0xbdc694c9	-0.09696347
16	0xbcecae7b	-0.028891793
17	0xbc351be2	-0.011054011
18	0x3e3eac80	0.18620491
19	0x3e3482b1	0.1762798
20	0xbe3fbb7d	-0.18723865
21	0x3d9523bb	0.07282206
22	0x3e44c08d	0.19214077
23	0xbdac5f80	-0.08416653
24	0x3ba7a556	0.005116145
25	0xb9659e22	-0.00021898051
26	0xbc481bfa	-0.012213701
27	0x3d5149fe	0.051095955
28	0x3d91db5f	0.0712192
29	0xbe15fef9	-0.14648046
30	0x3bf3d70d	0.0074414075
31	0x3ce4a363	0.02790994
32	0x3e1bd81f	0.15219162
33	0x3d033999	0.03203735
34	0x3cd1d5df	0.025614677
35	0xbe1da716	-0.1539577
36	0xbc9e0c18	-0.019292876
37	0xbe34421b	-0.17603342
38	0xbde4fb73	-0.11180773
39	0x3d004e5c	0.03132473
40	0x3e0010f9	0.12506475
41	0x3ddf575f	0.109053366
42	0xbcd9c795	-0.026584426
43	0x3da399ee	0.07988344
44	0x3d1da018	0.038482755
45	0x3d6141f2	0.05499453
46	0x3c80b17d	0.015709633
47	0x3e3b1603	0.18270116
48	0xbdc62c50	-0.09676421
49	0x3d79a219	0.060945604
50	0x3d30f5d0	0.043203175
51	0x3dd9689c	0.10615656
52	0xbdd3f2d8	-0.10349053
53	0x3d3809a4	0.04493107
54	0x3d83a2eb	0.064275585
55	0xbdb84169	-0.08996851
56	0x3db9c217	0.09070223
57	0xbe0e2dba	-0.13884631
58	0x3b6b17ad	0.0035872266
59	0xbe3ef6cf	-0.18648838
60	0x3b68bae0	0.0035511777
61	0x3e02bd0b	0.12767427
62	0xbe051f42	-0.13000205
63	0xbdb5b68f	-0.08872711
64	0xbd3e5091	-0.046463553
65	0xbd49dd24	-0.04928316
66	0x3d6b7880	0.057487965
67	0x3e14c337	0.14527594
68	0xbe045947	-0.12924682
69	0x3b14cd79	0.002270548
70	0x3e4440d1	0.1916535
71	0xbd583f6a	-0.05279485
72	0xbe441a57	-0.19150673
73	0x3d8fc2b8	0.070195615
74	0xbdbd8883	-0.09254553
75	0x3c1b841d	0.0094919475
76	0x3de081d0	0.1096226
77	0x3dd3747c	0.10324952
78	0x3cedb797	0.029018207
79	0x3dcc591e	0.09977935
80	0xbe0b42ec	-0.13599747
81	0xbe49fa00	-0.19724274
82	0xbc4d86da	-0.012544358
83	0x3e4a7474	0.19770986
84	0x3dc11c18	0.094291866
85	0xbd2d6432	-0.04233188
86	0xbd9e2ad9	-0.07723016
87	0xbdb53cdc	-0.08849499
88	0x3d2ce3fe	0.042209618
89	0x3b2fc1bd	0.0026818358
90	0x3d30058d	0.042974044
91	0x3d44481e	0.04792034
92	0xbcda48f4	-0.026646115
93	0x3dbde3e0	0.09271979
94	0x3dad1e8f	0.08453094
95	0xbd6c0c88	-0.05762914
96	0xbdf188f1	-0.117936976
97	0x3dd2a7b0	0.1028589
98	0x3db6ed47	0.08931976
99	0xbd3f3e09	-0.04669002
100	0x3dd8aa0b	0.10579308
101	0x3d02fdb6	0.03198024
102	0x3d75d8e7	0.060021307
103	0x3dd1d2a9	0.10245258
104	0xbdea0362	-0.114264265
105	0xbc3cbdb9	-0.011519843
106	0x3ca8749d	0.020563418
107	0x3d36e802	0.044654854
108	0xbbe4d30a	-0.0069831656
109	0xbdea91cc	-0.1145359
110	0x3d879c09	0.06621558
111	0xbe3a2d10	-0.18181252
112	0x3e2f6b76	0.17130837
113	0xbd6bf682	-0.057608135
114	0xbd09963a	-0.033590533
115	0x3e1d46fe	0.15359113
116	0xbe012de6	-0.12615165
117	0x3d91d415	0.071205296
118	0xbd3514b5	-0.0442092
119	0xbe27a4e2	-0.16371492
120	0x3d2174a0	0.039417863
121	0x3c563cbc	0.013076004
122	0xbcdaf78f	-0.026729373
123	0x3e21ab64	0.15788037
124	0x3e537dde	0.20653483
125	0x3d97fb9b	0.07421037
126	0x3d9a82d7	0.07544487
127	0x3dbf1008	0.093292296
128	0xbe672b6f	-0.22575162
129	0x3c05e7e4	0.008172963
130	0xbb67cd4b	-0.0035370167
131	0xbdf257a1	-0.1183312
132	0x3e421035	0.18951495
133	0x3defaa71	0.11702431
134	0x3e02b464	0.12764126
135	0x3b6ff300	0.0036613345
136	0x3e29e24d	0.16590233
137	0xbdba8770	-0.09107864
138	0xbe03a06d	-0.12854166
139	0x3cc26db2	0.023733947
140	0x3d31546c	0.0432934
141	0xbe1aec19	-0.15129127
142	0xbdb8b0b5	-0.09018079
143	0xbd48c3bd	-0.049014796
144	0xbd00d39b	-0.031451803
145	0xbd9fac5e	-0.07796548
146	0xbc9e29ec	-0.0193071
147	0xbc49c71b	-0.012315537
148	0x3cfddf18	0.030990168
149	0x3c8fdf41	0.01756251
150	0x3e2f1073	0.17096119
151	0xbde1e452	-0.11029877
152	0x3e07567c	0.13216585
153	0xbc9449b5	-0.018101553
154	0x3e50d8a1	0.20395137
155	0x3d40fdf3	0.047117185
156	0x3da35fdd	0.07977269
157	0xbd24ceb4	-0.04023619
158	0x3d450c58	0.048107475
159	0xbd2ce6b1	-0.042212192
160	0x3e164bc1	0.14677335
161	0x3e2196a8	0.15780127
162	0xbca5a7e1	-0.020221652
163	0xbdb37183	-0.08761885
164	0x3e15a41c	0.14613384
165	0xbe0bd84d	-0.13656731
166	0xbda560a5	-0.08075074
167	0xbd354cf9	-0.04426286
168	0x3d651850	0.05593139
169	0x3c372950	0.011179283
170	0xbd1eff41	-0.038817648
171	0x3e05c3ef	0.13063024
172	0x3e2370fd	0.1596107
173	0x3c6170f5	0.013759841
174	0x3dccbd80	0.09997082
175	0x3e0dd0b8	0.13849151
176	0xbe001e2b	-0.12511508
177	0x3d5d490b	0.054024737
178	0x3c0fb148	0.0087702945
179	0x3d3ae085	0.045624275
180	0x3d3c6787	0.04599717
181	0x3c8dcd5d	0.017309839
182	0x3c88c005	0.016693125
183	0xbd9d5575	-0.07682315
184	0x3e086f1c	0.13323635
185	0xbca5a09e	-0.02021819
186	0x3cac8e18	0.02106385
187	0xbddb5f9c	-0.107115954
188	0xbd0e3cd3	-0.034725975
189	0x3e2232ba	0.15839663
190	0xbe142b61	-0.14469673
191	0x3d47952d	0.04872625
192	0xbd881471	-0.06644524
193	0xb981f2cd	-0.00024785698
194	0xbd00f65b	-0.031484943
195	0xbd8dab08	-0.06917387
196	0x3d92a18a	0.071597174
197	0x39424c1c	0.00018529635
198	0x3e191519	0.14949454
199	0x3d250e39	0.040296767
200	0xbdd99e9d	-0.10625956
201	0x3b6fca39	0.003658904
202	0x3cd73db9	0.026274549
203	0x3d64da1d	0.05587207
204	0xbd75fc8d	-0.060055304
205	0xbd6e8107	-0.05822852
206	0x3d57a4ae	0.052647285
207	0x3a9feb21	0.0012200811
208	0xbd961462	-0.073281065
209	0x3d1695dc	0.03676401
210	0xbc48596f	-0.012228354
211	0xbbc514b7	-0.0060144323
212	0xbd991397	-0.074744396
213	0x3d58278a	0.052772082
214	0xbd40ee53	-0.047102284
215	0xbd664bbb	-0.056224566
216	0x3de50faf	0.11184632
217	0xbe01ab4c	-0.12663001
218	0x3bffe25b	0.007808966
219	0x3dd897bf	0.10575818
220	0xbca1d369	-0.019754129
221	0x3d9cef50	0.07662833
222	0x3d31fcba	0.04345391
223	0x3caf808d	0.021423602
224	0xbdc424c9	-0.09577329
225	0x3dbee670	0.09321296
226	0x3e025bf9	0.12730397
227	0xbe0c7f4a	-0.13720432
228	0x3c04ed76	0.008113256
229	0x3db78d22	0.08962466
230	0x3cb7cb65	0.022435853
231	0x3d89aa5b	0.06721946
232	0xbd76b9fc	-0.060235962
233	0x3d9baafa	0.076009706
234	0x3deb0804	0.11476138
235	0x3e126ff1	0.14300515
236	0xbdaf1437	-0.085487776
237	0x3dae7b46	0.08519606
238	0x3b06a657	0.0020545924
239	0x3c62905f	0.013828366
240	0x3d551fbf	0.05203223
241	0x3e02e2ae	0.12781784
242	0xbd291653	-0.041281056
243	0x3d88bee2	0.06677033
244	0xbd62a417	-0.05533227
245	0x3d9fae25	0.07796887
246	0x3d33b41d	0.04387294
247	0x3db74f8c	0.08950719
248	0x3dc8cec0	0.098050594
249	0xbd2c28f4	-0.042031243
250	0x3d1ddc95	0.03854044
251	0x3da5403a	0.08068891
252	0x3e0385d4	0.1284402
253	0x3c8abb26	0.016934942
254	0x3d6e1252	0.05812294
255	0x3ca86487	0.020555748

lstm.weight_hh_l1 f4 [256, 64]
0	0xbc91709f	-0.017753897
1	0xbdbe3759	-0.092879005
2	0xbc14307f	-0.0090447655
3	0x3c914dbe	0.017737266
4	0x3d60eca8	0.054913193
5	0xbde844ef	-0.11341273
6	0xbd5bd932	-0.05367393
7	0xbd988b25	-0.07448415
8	0x3de6bd21	0.11266542
9	0x3db6fbe4	0.08934763
10	0xbdbc35df	-0.091899626
11	0x3d876ade	0.0661218
12	0x3ced47ee	0.028964963
13	0x3cbdc718	0.023166224
14	0xbd85fbaf	-0.065421455
15	0x3cc43633	0.023951625
16	0xbd6e1c49	-0.058132444
17	0xbdab84d7	-0.083749466
18	0x3e1b3cb7	0.1515988
19	0x3d6386c9	0.055548463
20	0x3e24df66	0.16100845
21	0x3d297109	0.041367564
22	0xbd98f7bf	-0.07469129
23	0xbddfa82c	-0.10920748
24	0xbd7577e4	-0.05992879
25	0xbd5e6744	-0.0542977
26	0xbdf932e2	-0.12167908
27	0xbdd9ca25	-0.10634259
28	0x3d00affc	0.03141783
29	0x3db31864	0.087448865
30	0xbcc6b3a9	-0.02425559
31	0x3df1ebab	0.11812528
32	0xbe0dca22	-0.13846639
33	0xbdb20320	-0.08692002
34	0x3e06e6d5	0.13173993
35	0x3d9bf6dc	0.07615444
36	0xbe212cb1	-0.15739705
37	0x3d55afbc	0.052169546
38	0x3e2891d6	0.16461882
39	0x3e204997	0.15653072
40	0x3c477874	0.012174714
41	0x3d12f829	0.035881195
42	0xbde56a19	-0.11201877
43	0xbdea6ee7	-0.11446934
44	0x3cff246f	0.031145303
45	0xbd4a3573	-0.04936738
46	0xbd91808b	-0.07104596
47	0x3e42f1be	0.1903753
48	0x3cbad5e4	0.02280707
49	0x3ddec29a	0.10876961
50	0xbd8edc3a	-0.06975599
51	0x3dba9dcc	0.091121286
52	0x3d8e541f	0.069496386
53	0x3deba75d	0.115065314
54	0x3d54f977	0.05199572
55	0xbd79af35	-0.060958106
56	0x3d5578a9	0.052117024
57	0x3da475b8	0.080302656
58	0x3b4b4635	0.0031017188
59	0xbdcf3110	-0.1011678
60	0xbd574eaa	-0.052565254
61	0xbe1c9b1e	-0.15293548
62	0x3e419311	0.18903758
63	0xbd68e8ae	-0.056862526
64	0xbe1ea14b	-0.15491216
65	0xbdcfe790	-0.10151589
66	0xbe4d84c7	-0.20070182
67	0x3e262fea	0.16229215
68	0x3cd54874	0.026035525
69	0xbda6ce67	-0.08144837
70	0xbe01bc9c	-0.12669605
71	0x3ccd0140	0.02502501
72	0xbc6a7568	-0.014310218
73	0xbd634912	-0.055489607
74	0x3c80fa41	0.01574433
75	0x3e175a7d	0.14780612
76	0xbc067ba1	-0.008208186
77	0xbe33ac6f	-0.17546247
78	0xbdc685bc	-0.096934766
79	0xbe4a2d92	-0.19743946
80	0xbe181a0f	-0.1485369
81	0x3ca66587	0.020312084
82	0x3dcd8f20	0.100370646
83	0x3988e0f7	0.00026107553
84	0xbd449dec	-0.04800217
85	0xbcc71d02	-0.024305824
86	0x3e5265b2	0.20546606
87	0x3db1e7a7	0.08686762
88	0xbe320e92	-0.1738837
89	0x3e179904	0.14804465
90	0xbdb366cc	-0.08759841
91	0xbdd75736	-0.10514681
92	0x3da75479	0.08170409
93	0xbdb6bf6e	-0.08923231
94	0x3d6b5caf	0.057461437
95	0xbd84ca4b	-0.06483897
96	0xbe204ba2	-0.15653852
97	0x3d7f363a	0.062307574
98	0x3e3685b3	0.1782444
99	0xbd4a27dd	-0.049354423
100	0xbe0a024a	-0.13477436
101	0x3df24637	0.11829799
102	0x3e19ec2c	0.15031499
103	0x3d76270a	0.060095824
104	0x3e1d85a2	0.15383008
105	0xbd4af80d	-0.049552966
106	0x3c1d15d6	0.009587726
107	0xb938dc55	-0.00017629687
108	0x3dbb0351	0.09131492
109	0xbdaca6fb	-0.084302865
110	0x3e2e36fc	0.17013162
111	0x3def02fd	0.11670492
112	0x39e88f7a	0.00044357387
113	0xbdb31e51	-0.08746017
114	0x3df6fd24	0.120600015
115	0x3d416a49	0.047220502
116	0x3e520cb1	0.20512654
117	0x3da48e31	0.08034933
118	0xbe2faab9	-0.1715497
119	0x3de08053	0.10961976
120	0xbe576bd5	-0.21037228
121	0x3df41c21	0.11919428
122	0xbe0af576	-0.13570198
123	0xbdfb3ab1	-0.12267054
124	0x3de1e0ed	0.11029229
125	0xbda9a518	-0.08283442
126	0x3e145ddc	0.1448893
127	0xbcfe77ba	-0.03106295
128	0xbd4bc267	-0.049745943
129	0xbda565dc	-0.08076069
130	0xbdd6d717	-0.10490244
131	0xbe23df42	-0.16003135
132	0x3cdb934d	0.026803637
133	0x3d090128	0.03344837
134	0xbe21d25e	-0.15802905
135	0xbdb2ee96	-0.08736913
136	0x3d943c49	0.07238061
137	0xbce99826	-0.028514933
138	0x3cbc01fa	0.022950161
139	0x3d5ee3ae	0.05441635
140	0x3db1e2c6	0.08685832
141	0xbc1253a2	-0.008931072
142	0xbdcc2bd6	-0.099692985
143	0xbcb0788f	-0.021541862
144	0xbc5e8554	-0.013581593
145	0x3cf2fffe	0.029663082
146	0xbdea625f	-0.11444544
147	0x3dbc0de3	0.09182336
148	0x3dc56625	0.09638623
149	0xbd531671	-0.051535074
150	0x3d9517bb	0.07279917
151	0xbdc95bb1	-0.09831942
152	0x3dbe0d59	0.092798896
153	0xbd708c17	-0.05872735
154	0x3d1a8ab7	0.037729945
155	0x3c8737c3	0.016506081
156	0xbd559673	-0.052145433
157	0xbb0e2f9f	-0.0021695865
158	0x3dadbed5	0.08483664
159	0xbb979e46	-0.004627022
160	0xbd8561d5	-0.065128006
161	0x3d6c3d1a	0.05767546
162	0x3cddc849	0.027073042
163	0xbcabc15a	-0.02096622
164	0xbccce929	-0.025013523
165	0x3dca077b	0.09864708
166	0x3ce59c4f	0.028028635
167	0x3d65f267	0.056139376
168	0x3db1fe50	0.086910844
169	0xbda90010	-0.08251965
170	0x3ce0ac5b	0.027425935
171	0xbd5a08ab	-0.053230923
172	0x3dea4983	0.114398025
173	0xbe11b30b	-0.14228456
174	0x3e2288ca	0.15872493
175	0xbd202559	-0.039098118
176	0x3daf855b	0.085703574
177	0xbce86acf	-0.028371243
178	0xbafe6824	-0.0019409698
179	0x3cde32b1	0.02712378
180	0x3ca823e9	0.020524936
181	0x3d7c887b	0.061653595
182	0xbbc7e004	-0.006099703
183	0x3dabced4	0.08389059
184	0x3cd4545f	0.025919138
185	0xbd534d70	-0.051587522
186	0xbd22d276	-0.039751492
187	0xbd8581c5	-0.06518892
188	0xbbd6a43a	-0.006550339
189	0x3d238e9f	0.039930936
190	0xbd74aad4	-0.059733227
191	0xbe243970	-0.16037536
192	0x3d35625e	0.044283263
193	0x3dc3f3b0	0.09567964
194	0x3d33c02a	0.043884434
195	0x3dca4552	0.09876503
196	0x3de1858e	0.11011802
197	0x3cea77b6	0.028621536
198	0xbdd1ad09	-0.10238082
199	0xbd9088c5	-0.07057337
200	0xbcdf4824	-0.027256079
201	0xbde899a0	-0.11357427
202	0x3dd38e21	0.10329843
203	0xbcaf7086	-0.02141596
204	0xbcfb03be	-0.030641433
205	0x3d943d67	0.07238274
206	0xbd9b5ebd	-0.07586429
207	0xbbfeb565	-0.0077730888
208	0x3d8b8a3a	0.06813474
209	0x3c73120a	0.014835844
210	0x3dbc674d	0.091993906
211	0x3cd29be5	0.025709102
212	0xb9c9b091	-0.0003846926
213	0xbd182724	-0.037146702
214	0x3dc1d728	0.09464866
215	0xbdef2552	-0.1167704
216	0xbcd9623b	-0.026536098
217	0x3c462d77	0.012095801
218	0xbdb2c0bf	-0.0872817
219	0xbd8c84f0	-0.06861293
220	0x3dbee853	0.09321656
221	0x3d00cd28	0.031445652
222	0x3d7b0a41	0.061289076
223	0xbd03ef1e	-0.03221046
224	0xbbbab301	-0.0056976085
225	0xbd6fc7ec	-0.05854027
226	0x3db75285	0.08951286
227	0x3de61929	0.11235268
228	0x3d4f2079	0.050568078
229	0xbc998d45	-0.01874412
230	0xbda58ae6	-0.080831334
231	0xbc4dce19	-0.012561345
232	0xbcf7bb0f	-0.030240564
233	0xbdc1c4e3	-0.09461381
234	0xbc436def	-0.011928066
235	0x3d8551c1	0.06509734
236	0xb9fbd60c	-0.00048033928
237	0x3ca80857	0.02051179
238	0x3c9f9baf	0.019483415
239	0x3e076e98	0.13225782
240	0xbd74599e	-0.059655778
241	0xbdba776e	-0.09104811
242	0xbdd088c5	-0.10182337
243	0xbd2761e1	-0.04086483
244	0x3c393bed	0.011305791
245	0x3df02c4c	0.11727199
246	0x3d738465	0.059452433
247	0x3cdb70ed	0.026787246
248	0xbcaf2220	-0.021378577
249	0x3cbb897e	0.02289271
250	0x3cbb8134	0.022888757
251	0xbe02dd6f	-0.12779783
252	0xbd3ba0d4	-0.045807675
253	0xbdcf0843	-0.10108998
254	0x3de97602	0.11399461
255	0xbc4b29ad	-0.012400073

lstm.bias_ih_l1 f4 [256]
0	0x3d82478d	0.063613035
1	0x3de60774	0.1123189
2	0x3d6b6352	0.057467766
3	0x3e1b06d3	0.15139322
4	0xbcf46e12	-0.029837642
5	0x3e560ef1	0.20904137
6	0x3da7480d	0.081680395
7	0xbd47a852	-0.048744507
8	0x3d21c6fe	0.039496414
9	0xbd20c3e0	-0.0392493
10	0x3e2c4baa	0.16825739
11	0x3d9326f9	0.07185168
12	0x3e154b84	0.14579588
13	0x3e16c254	0.14722568
14	0xbd916231	-0.07098807
15	0x3d85e8ec	0.06538567
16	0xbd352377	-0.044223275
17	0x3dbc2c28	0.0918811
18	0x3de124a2	0.10993315
19	0x3e33cb79	0.17558087
20	0x3de10208	0.109867156
21	0x3da87082	0.08224584
22	0xbd2a1adb	-0.041529518
23	0xbb04ac21	-0.0020244198
24	0x3e18713d	0.14886947
25	0x3e16673b	0.14687817
26	0x3e448c06	0.1919404
27	0xbda6e5b0	-0.08149278
28	0x3cd2c2d0	0.02572766
29	0xbb0d7347	-0.0021583603
30	0x3db671d0	0.08908427
31	0x3d806912	0.062700406
32	0xbbe07bf6	-0.006850715
33	0x3bad0760	0.00528042
34	0x3e01a56e	0.12660763
35	0x3c88cbb2	0.016698692
36	0x3bed2a4c	0.007237708
37	0x3d67061d	0.056402314
38	0x3d265867	0.04061165
39	0xbd633395	-0.055469114
40	0x3b498459	0.0030749051
41	0x3d7f535b	0.062335353
42	0xbd2739d4	-0.040826634
43	0x3e03f21a	0.12885323
44	0x3df3b0b9	0.118989415
45	0xbd62258c	-0.05521159
46	0x3c5102fe	0.012757061
47	0xbc9ab811	-0.018886598
48	0x3d93fb62	0.07225682
49	0xbc073196	-0.008251568
50	0x3de89701	0.11356927
51	0x3d80fd58	0.062983215
52	0x3e0d778c	0.13815135
53	0xbd407178	-0.046983212
54	0xbdb39da3	-0.08770301
55	0x3d86688c	0.065629095
56	0xbdc69bc9	-0.096976824
57	0x3df478d3	0.11937108
58	0xbd486c2a	-0.04893128
59	0xbd138c3b	-0.036022406
60	0x3d8678f8	0.06566042
61	0x3d975a92	0.07390322
62	0x3e2f589d	0.17123647
63	0x3da725ee	0.081615314
64	0x3d952f81	0.07284451
65	0x3b2e2d18	0.002657717
66	0x3d89d931	0.06730879
67	0x3d2fd43e	0.04292702
68	0x3d3f3dc0	0.04668975
69	0xbd1ce64f	-0.038305577
70	0x3d9d56a5	0.07682542
71	0xbdc2bb48	-0.09508377
72	0xbcabda76	-0.020978194
73	0x3de60be3	0.11232736
74	0xbd76b73f	-0.06023335
75	0x3d6af080	0.057358265
76	0x3dc39877	0.09550565
77	0xbd38cf20	-0.045119405
78	0x3d30a794	0.043128565
79	0xbd86cf68	-0.06582528
80	0xbad11212	-0.001595082
81	0x3dee3861	0.11631847
82	0x3b32ff89	0.0027312955
83	0xbb648a0a	-0.0034872317
84	0x3d7c0ecb	0.061537545
85	0xbdf444ab	-0.1192716
86	0xbdd1e00d	-0.102478124
87	0x3d94543d	0.0724263
88	0xbdcf5fa0	-0.10125661
89	0xbc35c6d5	-0.0110947685
90	0x3de31a62	0.110890165
91	0xbd919588	-0.07108599
92	0x3d04204c	0.032257363
93	0xbdbabc96	-0.09118001
94	0xbd9dcfc1	-0.077056415
95	0x3dd046be	0.10169743
96	0x3d7bca15	0.061472017
97	0x3db0888d	0.08619795
98	0xbcd280db	-0.025696209
99	0x3d2ce634	0.042211726
100	0x3d0c1b74	0.03420587
101	0xbb41de33	-0.0029581904
102	0xbca286cd	-0.019839669
103	0x3d779594	0.060445383
104	0xbd8e7174	-0.06955233
105	0xbde295f9	-0.11063761
106	0xbd1d34b8	-0.038380355
107	0xbdc3d814	-0.09562698
108	0xbc8e77c3	-0.017391091
109	0x3d9de6cd	0.077100374
110	0x3da67b12	0.081289425
111	0xbd9714cc	-0.073770136
112	0x3df3cc7d	0.119042374
113	0xbd886aa0	-0.06660962
114	0xbded13b9	-0.115760274
115	0x3d93852d	0.07203136
116	0xbd101347	-0.035174634
117	0xbd0c5e0d	-0.03426938
118	0x3dd93797	0.10606306
119	0x3dd04545	0.10169462
120	0x3dcdd5e6	0.100505635
121	0xbd9ccbab	-0.07656034
122	0xbc9d12b3	-0.019173956
123	0x3c288a6c	0.010286909
124	0x3cfe5117	0.031044526
125	0xbdd73009	-0.10507209
126	0x3d1eb1f8	0.038743943
127	0xbdc853b0	-0.09781587
128	0x3d457a47	0.048212316
129	0xbdc00577	-0.09376042
130	0xbdbce3b9	-0.09223122
131	0x3d22142e	0.039570026
132	0x3dacf5ba	0.08445306
133	0xbe0e7964	-0.13913494
134	0x3c9a9a2f	0.018872349
135	0x3c5c5592	0.013448136
136	0x3d9fa2d2	0.077947274
137	0x3d4203b0	0.047366798
138	0x3d3f18d8	0.046654552
139	0x3dcff197	0.101535015
140	0x3dc44eee	0.09585367
141	0x3cb2ff63	0.021850294
142	0xbe06c9a3	-0.13162856
143	0xbdd387dd	-0.10328648
144	0xbe09dc62	-0.13462976
145	0xbbc1e07b	-0.0059166527
146	0x3ddf77f9	0.10911555
147	0xbdf3ae97	-0.11898535
148	0x3e106e93	0.1410468
149	0xbb6587cd	-0.003502357
150	0x3d70949f	0.058735486
151	0x3bdf2474	0.0068097655
152	0xbe0b81f5	-0.13623793
153	0x3da2e51f	0.07953858
154	0x3d45126d	0.048113275
155	0xbde043d9	-0.10950441
156	0xbd09889c	-0.033577546
157	0xbd7266bf	-0.059180018
158	0x3c51ac1b	0.012797381
159	0x3de98459	0.114021964
160	0x3d82170e	0.063520536
161	0xbc8c8b97	-0.017156405
162	0x3b721f7c	0.0036945036
163	0x3da25abe	0.07927464
164	0x3c772ee6	0.015086865
165	0x3d9c7b28	0.07640678
166	0x3df00afd	0.11720846
167	0xbd4df370	-0.05028099
168	0x3bb49428	0.0055108257
169	0x3d2ca867	0.04215279
170	0xbdbf5cf3	-0.093439005
171	0xbc970de6	-0.018439244
172	0xbd31a73f	-0.04337239
173	0x3d5d149e	0.05397474
174	0x3d909c5d	0.07061074
175	0x3dccd572	0.10001649
176	0x3daee7cb	0.08540305
177	0xbd33cdab	-0.043897312
178	0xbd397c52	-0.045284577
179	0x3e00b608	0.1256944
180	0x3df267c1	0.11836196
181	0xbc953476	-0.018213492
182	0xbc29017d	-0.010315296
183	0x3df33687	0.11875635
184	0xbd903f1a	-0.07043286
185	0xbd48b827	-0.049003746
186	0x3d89c22c	0.067264885
187	0x3cf24afc	0.029576771
188	0x3d6015b8	0.054708213
189	0xbd43beb8	-0.047789305
190	0x3d9ce805	0.07661442
191	0xbdb71ea5	-0.08941392
192	0x3db2275b	0.08698913
193	0x3df35278	0.11880964
194	0x3e1b8ab9	0.15189637
195	0x3dadbca8	0.08483249
196	0x3da796b0	0.08183038
197	0xbce1d3f4	-0.027566887
198	0x3e307360	0.17231512
199	0x3dd1d44c	0.102455705
200	0xbd91e80f	-0.0712434
201	0x3b94a6a6	0.0045364676
202	0xbd5c4835	-0.0537798
203	0x3d2688c9	0.040657792
204	0x3dcc88ef	0.099870555
205	0x3d3cc8c3	0.0460899
206	0xbd6f0836	-0.05835744
207	0x3c4bd70a	0.012441406
208	0xbd5e4e1f	-0.05427372
209	0xbc98e8f8	-0.018665776
210	0x3e02d31e	0.12775847
211	0x3d5ca2cd	0.053866196
212	0xbd0a4474	-0.03375669
213	0x3b72fcfc	0.003707706
214	0x3cdf56ef	0.027263133
215	0x3e406dd6	0.18791899
216	0xbda8d7c8	-0.08244282
217	0x3dbddb45	0.09270338
218	0x3db5f4e1	0.088845976
219	0x3d0255e1	0.03182018
220	0x3e10749d	0.14106984
221	0xbd3bfa37	-0.04589292
222	0x3e19bc0d	0.15013142
223	0x3da44706	0.08021359
224	0x3b6bb4bc	0.003596588
225	0x3c59b4d3	0.013287741
226	0x3e2c3adb	0.16819327
227	0x3caa8559	0.020815538
228	0xbd88e1b1	-0.06683672
229	0x3e18020e	0.14844534
230	0xbcb8fcaf	-0.022581426
231	0xbd8bd44f	-0.06827604
232	0xbb239ceb	-0.0024965357
233	0x3e4726fb	0.19448464
234	0x3da8b1ac	0.08237013
235	0x3d449bef	0.048000272
236	0x3de91009	0.113800116
237	0x3e04024a	0.12891498
238	0x3e09e135	0.13464816
239	0x3d48c261	0.0490135
240	0x3d62d27e	0.055376522
241	0x3dc78a41	0.09743167
242	0xbc14b331	-0.009075926
243	0x3dfdf42b	0.12400087
244	0x3e0b88c5	0.13626392
245	0xbda716e7	-0.08158665
246	0x3e1fc31e	0.15601775
247	0xbcc0326e	-0.023461547
248	0xbd5bc31d	-0.05365287
249	0xbca3bd60	-0.019987762
250	0x3d9f7f77	0.07787984
251	0x3db68a0e	0.089130506
252	0x3db513f8	0.08841699
253	0x3df36bd8	0.11885804
254	0x3c18f4ca	0.009335706
255	0xbd54cd3a	-0.05195353
