LSTM/models/sensor_data_2_pm1_lstm_model.pth (torch, 206046 bytes, 9 tensors)

lstm.weight_ih_l0 f4 [256, 1]
-0.0046040793 -0.030747594 0.13141207 0.0501721 0.079191096 0.0033399498 0.17588596 0.1645689
0.30319747 0.20967741 0.039814413 0.15265381 0.0049426868 -0.014662693 0.012648923 -0.07535425
0.03562292 0.10950813 -0.032278065 0.0027293558 0.21455412 0.1848839 -0.13330626 0.09112668
0.1625336 -0.057638057 0.12331267 -0.114945956 0.117417954 -0.122207336 0.18618692 0.15493649
0.011938799 -0.016695688 0.051495757 -0.18540257 0.10617398 -0.009577298 0.07566355 0.16404063
0.078683965 0.18838924 0.18277198 0.15191813 0.21914335 -0.02068907 0.22098373 0.017182048
0.06333255 0.08565105 0.13792269 0.14225191 0.09563305 -0.09963895 0.11531525 0.10097711
-0.15177129 0.19735211 0.23788604 0.02729796 0.10476658 0.067677945 -0.032605458 0.1587645
-0.15397267 -0.077830955 -0.0070300447 0.20211966 -0.060426228 -0.13782687 -0.069870315 0.029813094
-0.061756305 0.02479708 0.08384533 0.040428422 0.1690882 -0.12864555 0.047281776 -0.1871969
-0.042171825 0.18882087 -0.10741774 0.17805895 0.0694445 -0.026536299 0.10523187 -0.21348934
0.15888968 0.053148404 0.11600531 -0.062243886 -0.15965767 0.0013690796 0.06649422 -0.028754886
0.15943761 -0.12511237 0.014872957 -0.1460888 -0.04119848 -0.037986744 0.17753166 -0.073624134
0.117503695 -0.08309946 -0.12580518 -0.18450527 0.07772719 0.107867375 0.058104634 0.052344423
-0.10082486 -0.08481483 0.109722264 0.066242434 -0.013286644 -0.0118170995 0.08150629 0.22309628
-0.15582752 -0.11229239 0.1226563 0.11552973 0.01469118 0.037011605 -0.20051646 -0.009265876
-0.11791001 -0.17698395 -0.17004545 -0.19621414 0.22708228 -0.15632796 0.18441758 0.16227661
0.15218954 -0.21727557 0.16499582 0.12057453 0.10735442 0.0611858 -0.23102213 -0.115120314
-0.05414906 0.1891896 0.16977453 0.2181123 -0.17465335 0.20238994 -0.02938263 0.21349502
0.18225572 -0.1771525 0.18632144 -0.12451998 0.173783 -0.027746076 0.14066222 0.23310944
-0.23173332 -0.18008623 0.20523673 0.18962269 -0.12552276 0.053305175 0.18188176 0.24884035
-0.13049126 -0.16310635 0.14068836 0.19690216 -0.19911632 0.08081195 -0.15106039 0.12264097
-0.0897547 0.21888761 -0.13275427 -0.21347961 -0.01287462 0.11986924 -0.15130506 0.15715821
-0.00016851007 0.19768614 -0.21158853 0.1971302 -0.116675004 0.17284793 -0.034797683 -0.023859004
-0.14876087 0.1712342 0.14824136 0.0039274115 0.11037459 0.043450564 0.04623327 0.032594983
0.17369926 0.094074234 0.07179264 -0.0008191863 0.10558217 -0.047434397 0.030761061 -0.17094395
-0.079208724 0.2709152 0.051074866 0.108282775 0.14625406 0.16985837 -0.14962353 -0.1579112
0.18947378 0.1538259 0.03127311 -0.030437838 0.18154858 -0.09791076 0.123301506 0.17800654
0.05160116 0.07716203 0.057898987 -0.011663887 -0.020468792 -0.04810861 0.024909256 0.0048628724
0.2042282 0.20196106 0.09952249 -0.006975766 0.05801597 0.06863587 0.20619619 0.1589677
-0.12279854 0.06677001 0.23609163 0.07008357 0.057949692 0.08633469 0.21119568 0.25083163
-0.091635704 0.1926634 0.12993608 0.0061529595 0.15545936 0.051615916 0.00407364 0.009906852
00000000: d1dd 96bb 61e2 fbbc e390 063e 4381 4d3d
00000010: f12e a23d 0fe3 5a3b 731b 343e c084 283e
00000020: b33c 9b3e adb5 563e 7014 233d 4851 1c3e
00000030: 43f6 a13b cb3b 70bc 6e3d 4f3c 5453 9abd
00000040: 57e9 113d cc45 e03d 0136 04bd fede 323b
00000050: 13b4 5b3e 3552 3d3e 7081 08be a0a0 ba3d
00000060: 356f 263e e215 6cbd 5a8b fc3d c968 ebbd
00000070: d378 f03d d747 fabd c9a7 3e3e aca7 1e3e
00000080: f49a 433c 65c5 88bc 37ed 523d 2cda 3dbe
00000090: be71 d93d 19ea 1cbc 7ef5 9a3d 44fa 273e
000000a0: 0f25 a13d 1ce9 403e 9428 3b3e 6d90 1b3e
000000b0: 1d67 603e 207c a9bc 8f49 623e 5ec1 8c3c
000000c0: 7fb4 813d d169 af3d 9b3b 0d3e 7caa 113e
000000d0: 43db c33d 810f ccbd 672a ec3d 16cd ce3d
000000e0: ef69 1bbe ac16 4a3e 6698 733e f99f df3c
000000f0: dc8f d63d bc9a 8a3d 4d8d 05bd 2993 223e
00000100: 03ab 1dbe d665 9fbd 4a5c e6bb 75f8 4e3e
00000110: 7e81 77bd 7d22 0dbe 2b18 8fbd 973a f43c
00000120: 2ef4 7cbd 3f23 cb3c 1ab7 ab3d 4698 253d
00000130: 7525 2d3e a9bb 03be 89aa 413d 8bb0 3fbe
00000140: 5dbc 2cbd 425a 413e d5fd dbbd 1655 363e
00000150: eb38 8e3d a762 d9bc cf83 d73d f39c 5abe
00000160: fab3 223e 24b2 593d 3194 ed3d 72f3 7ebd
00000170: 4d7d 23be b072 b33a 1f2e 883d 5e8f ebbc
00000180: 9d43 233e 751d 00be b4ad 733c 4d98 15be
00000190: bdbf 28bd fd97 1bbd dcca 353e 40c8 96bd
000001a0: c7a5 f03d 0d30 aabd 13d3 00be f3ee 3cbe
000001b0: 6f2f 9f3d 92e9 dc3d 20ff 6d3d 1b67 563d
000001c0: 447d cebd 66b3 adbd 11b6 e03d 1daa 873d
000001d0: 39b0 59bc 829c 41bc c5ec a63d 5a73 643e
000001e0: 4091 1fbe 8df9 e5bd 3a33 fb3d da9a ec3d
000001f0: 46b3 703c 7b99 173d 3054 4dbe e7cf 17bc
00000200: ce7a f1bd 483b 35be 6520 2ebe 5cec 48be
00000210: 4288 683e 7014 20be f6d7 3c3e d72b 263e
00000220: 93d7 1b3e 7d7d 5ebe aaf4 283e c7ef f63d
00000230: a2dc db3d f69d 7a3d 1191 6cbe 33c4 ebbd
00000240: 68cb 5dbd ebba 413e 60d9 2d3e d558 5f3e
00000250: 54d8 32be 4f3f 4f3e d7b3 f0bc 709e 5a3e
00000260: 3ea1 3a3e 7767 35be 0ccb 3e3e 5504 ffbd
00000270: 2cf4 313e bd4b e3bc c209 103e 3eb4 6e3e
00000280: 804b 6dbe 8668 38be 9429 523e 732c 423e
00000290: 0a89 00be 8756 5a3d 363f 3a3e 01d0 7e3e
000002a0: 809f 05be 5a05 27be 9c10 103e b8a0 493e
000002b0: 26e5 4bbe bc80 a53d 93af 1abe 302b fb3d
000002c0: 50d1 b7bd 1324 603e bcf0 07be 669a 5abe
000002d0: 12f0 52bc 017e f53d b7ef 1abe 15ee 203e
000002e0: 14b2 30b9 3c6e 4a3e aaaa 58be 80dc 493e
000002f0: 4ef3 eebd 0cff 303e 0488 0ebd f573 c3bc
00000300: c554 18be 0558 2f3e 95cc 173e 84b1 803b
00000310: 130c e23d 38f9 313d 195f 3d3d 5182 053d
00000320: 38de 313e fea9 c03d 0508 933d a9be 56ba
00000330: 773b d83d 924a 42bd 9ffe fb3c ee0b 2fbe
00000340: 2f38 a2bd 66b5 8a3e e133 513d 5cc3 dd3d
00000350: a0c3 153e 5aef 2d3e e936 19be 79b3 21be
00000360: 6a05 423e 8984 1d3e 3c18 003d c658 f9bc
00000370: dfe7 393e 7085 c8bd 8085 fc3d 5947 363e
00000380: bd5b 533d 2007 9e3d 7d27 6d3d e319 3fbc
00000390: 2bae a7bc 890d 45bd 7f0e cc3c bb58 9f3b
000003a0: 3221 513e e1ce 4e3e 72d2 cb3d f794 e4bb
000003b0: 27a2 6d3d f790 8c3d 1825 533e 6ec8 223e
000003c0: cd7d fbbd b7be 883d 01c2 713e fa87 8f3d
000003d0: a85c 6d3d 3ed0 b03d ae43 583e 016d 803e
000003e0: 80ab bbbd 8e49 453e f70d 053e c49e c93b
000003f0: bd30 1f3e 366b 533d 2b7c 853b 5950 223c

lstm.weight_hh_l0 f4 [256, 64]
0.0036708512 0.0038025056 -0.051109504 -0.16162255 0.004288426 0.083930016 0.2232873 0.21946299
0.014026548 0.031822424 -0.13402623 -0.09046214 -0.06827473 -0.068488635 -0.1594098 0.029965127
-0.040724907 0.107987 -0.07671252 -0.014445425 -0.08480865 -0.013547875 -0.03222334 0.1148362
0.045794424 0.08327547 0.02734455 0.10905267 0.016817136 0.16410153 -0.02541123 0.0076253545
-0.07924472 0.09151347 0.12352347 0.058300152 -0.11145323 0.100299746 0.16420862 0.04452993
-0.14735872 -0.037380964 -0.11649356 -0.1303335 -0.18130444 0.22393738 -0.1029708 -0.046873346
0.08642085 -0.09007751 -0.07841442 0.1436463 0.07118082 0.07866161 -0.11717632 0.09931137
0.035225585 -0.07392724 -0.17080185 0.18550748 0.09672734 0.17131123 -0.04047955 -0.06767394
-0.06347556 -0.022132676 0.03549655 -0.18864797 -0.03170414 -0.08654894 -0.036354456 0.008770136
-0.124734625 -0.018479977 0.118677974 -0.096606225 0.028535899 0.046834126 0.08387074 0.06173272
-0.14624923 0.1255303 0.08839325 0.14067976 -0.06962531 -0.099930376 0.084254645 -0.07179542
0.18515833 -0.039642815 0.12971783 -0.06724202 -0.06530116 0.036577843 -0.0030710595 0.03971598
-0.0402804 0.052154303 -0.09375928 -0.05741116 -0.09587415 0.026096534 0.050898306 0.0798557
-0.13047881 0.015918238 -0.1501211 -0.11441696 -0.05684592 0.040475048 -0.020849425 -0.060758375
-0.012764973 -0.04244627 0.043158475 -0.040380195 -0.021330925 -0.0527285 -0.1073825 0.0038090674
0.038178995 0.10403012 -0.13298243 -0.0004815067 0.121280216 0.1749659 -0.07361971 -0.12234766
0.08184074 -0.10257948 -0.10934614 -0.105778575 -0.022581644 0.07025806 0.028953824 0.067336
-0.11287968 -0.016667278 0.08506298 -0.18959297 -0.006473858 -0.22153528 -0.038371403 0.2306644
-0.042423584 0.100915305 0.012312683 0.026370762 0.014557144 -0.14841361 0.05939577 -0.090975635
0.10177881 -0.07184408 -0.03202462 0.05118102 -0.020237511 0.09181756 0.032452114 0.014632032
-0.19479565 0.18455243 0.019524243 -0.1118926 -0.034352712 -0.043618865 0.20007594 0.047521997
-0.05226774 0.09929562 -0.09897826 -0.12804216 0.07141744 0.13676868 -0.13221867 0.07145091
0.16871855 -0.15720262 -0.108365424 -0.015070547 -0.032524332 0.04605813 -0.10901239 0.0852539
0.05267817 0.09070415 -0.07029525 0.15424494 0.14289013 0.05795878 0.14837837 -0.20113024
0.08971056 -0.011162084 -0.012280097 -0.011462058 -0.02472834 0.080677636 0.109253936 0.12917522
0.09326537 -0.091743976 -0.020881526 -0.193499 -0.10939141 -0.05767599 0.051499184 0.024341341
-0.008702465 0.107305355 -0.021023534 0.12457384 -0.03674468 0.02309796 0.13050322 0.019361425
0.17628108 0.18816534 0.07982585 0.045351002 0.01895367 0.094360165 -0.15108243 -0.16060829
-0.15388824 -0.033399723 -0.037956156 -0.011250166 -0.0527758 -0.05283672 -0.016756788 0.09401116
-0.049802747 0.03978106 0.036929 -0.19131601 0.02075457 0.008712921 0.07541878 -0.19780509
0.15239407 -0.04101916 -0.09065376 0.06287331 -0.0014461472 0.03933358 -0.06684547 0.0769177
0.042188093 -0.117500655 0.0036066198 -0.07818441 -0.004574572 -0.008995985 -0.008696409 0.0020410318
00000000: aa92 703b 7533 793b 3358 51bd 6280 25be
00000010: ed85 8c3b 80e3 ab3d 6da5 643e e8ba 603e
00000020: 9bcf 653c 3b58 023d 2c3e 09be 3744 b9bd
00000030: 9fd3 8bbd c543 8cbd 533c 23be 6d79 f53c
00000040: 29cf 26bd 4a28 dd3d 741b 9dbd 81ac 6cbc
00000050: 28b0 adbd e8f7 5dbc 9ffc 03bd 3e2f eb3d
00000060: ef92 3b3d 548c aa3d ad01 e03c 0257 df3d
00000070: 17c4 893c 3b0a 283e 362b d0bc 1cde f93b
00000080: 0e4b a2bd 6a6b bb3d dff9 fc3d 24cc 6e3d
00000090: 9741 e4bd f469 cd3d 4e26 283e 0465 363d
000000a0: 34e5 16be c81c 19bd 2d94 eebd 2576 05be
000000b0: dfa7 39be d74f 653e 5be2 d2bd 44fe 3fbd
000000c0: 6afd b03d 8f7a b8bd bd97 a0bd 0418 133e
000000d0: 40c7 913d 5719 a13d 23fa efbd c263 cb3d
000000e0: b448 103d 2a67 97bd aee6 2ebe acf5 3d3e
000000f0: fc18 c63d 366c 2f3e e2cd 25bd a298 8abd
00000100: 79ff 81bd 964f b5bc d564 113d ef2c 41be
00000110: 33dc 01bd 9240 b1bd 69e8 14bd 9eb0 0f3c
00000120: de74 ffbd 5263 97bc 700d f33d 7cd9 c5bd
00000130: 1ec4 e93c 24d5 3f3d 6cc4 ab3d 73db 7c3d
00000140: 5cc2 15be 048b 003e 8507 b53d 5b0e 103e
00000150: b797 8ebd 4ca8 ccbd b38d ac3d 7a09 93bd
00000160: 259a 3d3e 8160 22bd c0d4 043e 2fb6 89bd
00000170: 9dbc 85bd a6d2 153d d443 49bb 39ad 223d
00000180: 10fd 24bd c09f 553d de04 c0bd f727 6bbd
00000190: ab59 c4bd 66c8 d53c be7a 503d 638b a33d
000001a0: 3d9c 05be f766 823c 58b9 19be 7053 eabd
000001b0: 44d7 68bd 2ac9 253d 6acc aabc c6dd 78bd
000001c0: 2d24 51bc 24dc 2dbd f1c6 303d b465 25bd
000001d0: 31be aebc d7f9 57bd 5beb dbbd 8ca1 793b
000001e0: 9461 1c3d be0d d53d 8c2c 08be bc72 fcb9
000001f0: c361 f83d 432a 333e eec5 96bd 6991 fabd
00000200: 1e9c a73d 3115 d2bd def0 dfbd 70a2 d8bd
00000210: 24fd b8bc 75e3 8f3d 9230 ed3c 75e7 893d
00000220: 762d e7bd d189 88bc 8035 ae3d a924 42be
00000230: a822 d4bb 25da 62be 552b 1dbd 4a33 6c3e
00000240: 5ac4 2dbd afac ce3d 23bb 493c 7f07 d83c
00000250: 1681 6e3c bdf9 17be fb48 733d 6f51 babd
00000260: 6971 d03d fd22 93bd 3f2c 03bd 30a3 513d
00000270: 23c9 a5bc d80a bc3d 82ec 043d 31bb 6f3c
00000280: 8378 47be 50fb 3c3e 4ef1 9f3c f327 e5bd
00000290: 6eb5 0cbd b2a9 32bd b5e0 4c3e 6da6 423d
000002a0: b316 56bd 815b cb3d 1db5 cabd 7c1d 03be
000002b0: 4f43 923d 170d 0c3e 5564 07be db54 923d
000002c0: 8ec4 2c3e b9f9 20be b1ee ddbd 75ea 76bc
000002d0: 3c38 05bd 73a7 3c3d e341 dfbd 9999 ae3d
000002e0: 11c5 573d 19c3 b93d f5f6 8fbd 63f2 1d3e
000002f0: ca51 123e 3066 6d3d 80f0 173e 16f5 4dbe
00000300: 2cba b73d 2ce1 36bc 7632 49bc 5bcb 3bbc
00000310: 1693 cabc 513a a53d 87c0 df3d 8246 043e
00000320: ea01 bf3d 44e4 bbbd bc0f abbc 9a24 46be
00000330: 9b08 e0bd a93d 6cbd cff0 523d 7e67 c73c
00000340: c994 0ebc e9c2 db3d 8c39 acbc 9220 ff3d
00000350: 9781 16bd ef37 bd3c a3a2 053e da9b 9e3c
00000360: 0783 343e 6aae 403e bc7b a33d f9c1 393d
00000370: ba44 9b3c e73f c13d 5ab5 1abe 8076 24be
00000380: e194 1dbe 26ce 08bd ea77 1bbd 9e52 38bc
00000390: 702b 58bd 516b 58bd 8845 89bc ec88 c03d
000003a0: f7fd 4bbd 77f1 223d dd42 173d 58e8 43be
000003b0: 7d05 aa3c a4c0 0e3c 2975 9a3d 6b8d 4abe
000003c0: 310d 1c3e b503 28bd aea8 b9bd b9c3 803d
000003d0: a68c bdba 3f1c 213d 47e6 88bd 0787 9d3d
000003e0: 6ccd 2c3d 2fa4 f0bd 0a5d 6c3b 261f a0bd
000003f0: 4be6 95bb e563 13bc 627b 0ebc d5c2 053b

lstm.bias_ih_l0 f4 [256]
0.13185601 0.11702782 0.15031785 0.17893708 0.16993885 0.120012484 0.19148283 -0.04057703
0.21149136 0.1432301 0.26751947 0.1469099 0.17396505 0.09809056 0.08961377 0.13138816
-0.048486955 0.19323951 0.09921843 0.20418154 0.054039277 0.16958389 -0.026596976 0.030747788
0.013336913 0.0916501 0.10974499 -0.01879253 0.1549137 0.04839802 0.100629605 0.24538544
0.008429941 0.17369689 0.1342479 0.05252314 0.14472844 0.018067224 0.08408277 0.049971063
0.27805123 0.06572665 0.25357744 0.2925028 0.113290176 0.05431972 0.038731553 0.17659932
0.13559045 0.0397072 0.024161352 0.19137716 0.00971469 0.086188994 0.25044522 0.12532553
0.047022544 0.10878327 0.21032453 0.21045642 0.11902192 0.015504516 0.06516798 0.04787443
0.06736741 -0.01070687 -0.073267564 0.0017226624 -0.074968696 -0.030595627 -0.021721527 0.022423672
-0.029902656 -0.08637007 -0.056980748 -0.060633417 -0.032977812 0.14684997 -0.029406264 0.13633549
0.054763835 0.11074755 0.057991017 0.061333105 0.120610304 0.032154717 0.0723239 0.10418624
0.11222384 -0.01293676 0.114481024 0.06711367 0.042461324 0.03067358 -0.05957367 -0.045425873
0.09243263 -0.06805364 0.05624858 0.08024095 0.0016654712 -0.047027785 -0.046703257 -0.12911585
0.09281269 -0.094912775 0.06621857 0.07392797 -0.054927867 0.08410978 0.11017117 -0.0443556
0.10323833 -0.0077416706 0.0713687 -0.1451958 0.124170676 -0.09383097 0.016678266 0.078098014
0.06302344 -0.08166522 0.0451728 0.006928044 -0.0861909 0.090655215 0.08598855 0.102719255
0.030657291 0.048870843 -0.031145636 -0.021869568 0.0074615963 0.085585974 0.035232197 0.12080556
-0.09129848 0.098202355 0.005215855 -0.035221398 -0.15771984 -0.15401267 -0.080113225 0.11987057
-0.12794475 0.085180625 -0.086445585 0.105759025 -0.16144544 0.039668925 0.16692 -0.10461647
0.11034874 0.016302718 0.012678153 0.085492976 -0.028375037 0.10253328 0.025459696 -0.06470321
0.0020785367 0.09011231 -0.12355698 -0.11984876 0.04938576 0.016512567 0.15366672 -0.002221702
0.07629174 -0.09237872 -0.011911491 0.021075781 -0.0288234 0.13914461 -0.12922639 -0.0020067797
0.03112164 -0.08508095 0.077923045 0.03984738 -0.11830186 0.1271661 -0.1521148 0.018662706
-0.14249247 0.07879811 -0.15122634 0.05635435 0.084378354 0.14852832 0.0724812 -0.09601559
-0.011267365 0.22127472 0.20975 0.17179582 0.061113752 0.05258829 0.14023845 0.05394943
0.1800921 0.22784641 0.11746658 0.12734544 -0.035790104 0.22742088 0.2638367 0.07192321
0.08786775 0.1387052 0.03698882 -0.008920552 0.11689491 0.14425033 0.0032827824 0.16622221
0.13902129 0.045954008 0.14764383 0.10276068 0.21190791 0.093242615 0.13401128 0.16686015
0.1601218 0.09455112 0.0829075 0.054573722 0.05053065 0.082735114 0.07538613 0.18988763
0.016533207 0.088966765 0.15949205 0.23274727 0.1839772 0.024814611 0.14373563 -0.024541592
0.110084295 0.13171744 0.1977601 0.25054568 0.12261444 -0.041125588 0.06614301 0.13952991
0.067854665 0.2504918 0.11662963 0.1033184 0.08230995 0.2017513 0.0173117 -0.04235542
00000000: 4305 073e 48ac ef3d ecec 193e 483b 373e
00000010: 7304 2e3e 1bc9 f53d 1314 443e 1a34 26bd
00000020: 3191 583e e9aa 123e 50f8 883e 8c6f 163e
00000030: e523 323e b4e3 c83d 6d87 b73d 9e8a 063e
00000040: 429a 46bd 94e0 453e 0833 cb3d f714 513e
00000050: 4a58 5d3d 66a7 2d3e e7e1 d9bc c9e2 fb3c
00000060: 1183 5a3c 0cb3 bb3d fbc1 e03d cbf2 99bc
00000070: b2a1 1e3e 013d 463d e516 ce3d 5246 7b3e
00000080: bc1d 0a3c 99dd 313e 4878 093e 8122 573d
00000090: b133 143e b701 943c 9633 ac3d 75ae 4c3d
000000a0: bb5c 8e3e b29b 863d e7d4 813e edc2 953e
000000b0: ae04 e83d 5b7e 5e3d faa4 1e3d 74d6 343e
000000c0: 39d8 0a3e 04a4 223d 07ee c53c 60f8 433e
000000d0: 5d2a 1f3c db83 b03d 5b3a 803e 5655 003e
000000e0: b69a 403d c3c9 de3d 505f 573e e381 573e
000000f0: c4c1 f33d a706 7e3c ca76 853d fa17 443d
00000100: edf7 893d de6b 2fbc 4e0d 96bd f5ca e13a
00000110: 3089 99bd aea3 fabc 58f1 b1bc d9b1 b73c
00000120: 6af6 f4bc cbe2 b0bd a564 69bd bf5a 78bd
00000130: be13 07bd d75f 163e 68e5 f0bc 889b 0b3e
00000140: 0b50 603d 9dcf e23d fd87 6d3d 6c38 7b3d
00000150: 8902 f73d aab4 033d 8e1e 943d 985f d53d
00000160: 9dd5 e53d b4f4 53bc 0775 ea3d e472 893d
00000170: edeb 2d3d 2947 fb3c 8503 74bd 7b10 3abd
00000180: 524d bd3d b55f 8bbd e964 663d 5e55 a43d
00000190: f14b da3a 35a0 40bd ea4b 3fbd f236 04be
000001a0: 9414 be3d a161 c2bd 9a9d 873d 8c67 973d
000001b0: 0bfc 60bd c041 ac3d 6ca1 e13d 38ae 35bd
000001c0: 9e6e d33d d7ad fdbb c129 923d 35ae 14be
000001d0: 324d fe3d 742a c0bd dca0 883c daf1 9f3d
000001e0: 6f12 813d 1840 a7bd 1d07 393d a504 e33b
000001f0: db84 b0bd 71a9 b93d c41a b03d 795e d23d
00000200: 0025 fb3c cb2c 483d 2225 ffbc cf27 b3bc
00000210: 6880 f43b b347 af3d a34f 103d e868 f73d
00000220: b3fa babd 511e c93d c3e9 aa3b 5044 10bd
00000230: 4f81 21be 7fb5 1dbe 6712 a4bd b47e f53d
00000240: f303 03be 2e73 ae3d 620a b1bd 3098 d83d
00000250: f451 25be e27b 223d 14ed 2a3e 2941 d6bd
00000260: 85fe e13d 478d 853c 07b8 4f3c f116 af3d
00000270: c472 e8bc f8fc d13d da90 d03c 1e83 84bd
00000280: 0f38 083b ce8c b83d 710b fdbd 4473 f5bd
00000290: b948 4a3d 5d45 873c cf5a 1d3e f999 11bb
000002a0: d83e 9c3d 0e31 bdbd 6a28 43bc 1ea7 ac3c
000002b0: 0d1f ecbc ed7b 0e3e ec53 04be 2d84 03bb
000002c0: cff2 fe3c ec3e aebd 1e96 9f3d 0237 233d
000002d0: 3f48 f2bd d537 023e fbc3 1bbe 88e2 983c
000002e0: 8ce9 11be e760 a13d 14db 1abe d2d3 663d
000002f0: 8fce ac3d cf17 183e 0671 943d d2a3 c4bd
00000300: c19a 38bc d795 623e b4c8 563e 3eeb 2f3e
00000310: 6a52 7a3d d266 573d ab9a 0f3e 14fa 5c3d
00000320: 106a 383e 9250 693e 5192 f03d d866 023e
00000330: a598 12bd 05e1 683e 9b15 873e 7a4c 933d
00000340: 02f4 b33d bc08 0e3e 9781 173d 8227 12bc
00000350: 9966 ef3d 5cb6 133e f323 573b 2836 2a3e
00000360: 995b 0e3e 453a 3c3d f22f 173e 3174 d23d
00000370: 63fe 583e fcf5 be3d 413a 093e 63dd 2a3e
00000380: f8f6 233e 05a4 c13d 68cb a93d b288 5f3d
00000390: 3af9 4e3d 0771 a93d 0b64 9a3d e771 423e
000003a0: a670 873c 3534 b63d e251 233e 4d55 6e3e
000003b0: 8564 3c3e 0348 cb3c 6f2f 133e 730b c9bc
000003c0: e073 e13d f0e0 063e a081 4a3e 8647 803e
000003d0: 481d fb3d 4e73 28bd fd75 873d eee0 0e3e
000003e0: 63f7 8a3d 7640 803e 84db ee3d 9998 d33d
000003f0: 1e92 a83d e597 4e3e 44d1 8d3c e07c 2dbd

lstm.bias_hh_l0 f4 [256]
0.014340502 0.1390622 0.094021976 0.1678946 0.019181034 0.25459853 0.09939189 0.18941209
0.13268624 0.12468223 0.09092677 0.09893291 0.14595935 0.0749644 0.22529793 0.08011472
-0.072328724 0.034262586 0.18534516 0.2120829 0.0865456 0.105913036 0.13787918 0.2027602
0.22019593 0.16060784 0.21750212 0.21551515 0.22812226 0.10317317 0.14113702 0.11083187
0.013456765 0.2842484 0.13530922 0.08050249 0.036394615 -0.072883226 0.04665193 0.17449486
0.2574673 0.07107181 0.23038259 0.2255219 0.14472833 0.107423455 -0.022251714 0.13486826
0.092576064 0.08145766 0.1724108 0.12395536 0.081206985 -0.050233077 0.16608031 0.06596204
0.062292896 0.08438145 0.010995451 0.13620272 0.033423074 0.22462133 0.13437593 -0.00036109806
0.0027549933 0.07812652 0.036056723 -0.0516748 0.06880307 0.03653335 0.035421185 -0.06016407
-0.16226801 -0.092205904 -0.051757216 -0.0030059298 -0.06346756 -0.0699088 0.11061439 0.0999729
0.008548829 0.10750004 0.04969188 0.052453186 -0.06152097 -0.1401497 0.10958441 -0.08471964
-0.019597843 0.008807281 0.11190117 -0.06945227 -0.10069496 -0.0064599523 -0.035642087 0.009730034
-0.09444794 -0.01407636 -0.08255118 -0.022452764 0.0922912 -0.0072298213 0.11842476 -0.05484113
0.004439341 -0.13501352 -0.012608466 -0.11053407 -0.13322894 0.008698037 0.006000324 0.09037073
-0.040697698 -0.14406247 -0.11143715 -0.08456414 -0.061203048 0.08790994 0.12659779 0.06275773
0.12840727 0.012922237 0.116091095 -0.056283355 0.047392998 -0.0065949787 0.045527495 0.020774573
0.10099981 -0.08639553 0.004035014 -0.1232339 0.08996983 -0.06227201 0.053699702 0.0726176
-0.018355254 -0.044724047 -0.016367722 -0.09473438 -0.1310458 -0.17989765 0.004888243 0.14674836
-0.0912801 0.12800196 0.012489092 0.03843796 -0.058380235 -0.12120389 0.06604157 -0.118403636
0.049243532 0.11262488 0.0039161546 0.114739664 -0.02877631 0.03254084 -0.06636713 -0.057078604
-0.0758416 -0.038901363 0.024720555 -0.14900072 -0.07468576 0.08688869 0.15098514 0.1077764
-0.15627907 0.09355225 -0.025157884 -0.1294363 -0.05426379 0.096844316 -0.059668727 -0.05576385
0.125257 -0.049439352 -0.11711685 0.007374708 0.003686878 -0.011315857 -0.15760732 0.19055475
0.012344909 -0.055545673 -0.054464806 -0.025592683 0.09273643 0.104092196 0.06668081 -0.13241467
0.01667864 0.01753396 0.103634566 0.21539155 0.070201606 0.054399148 0.09145384 0.15942322
0.28882265 0.1429892 0.047162242 -0.03093682 -0.012122851 0.0786809 0.15336294 0.20051803
0.080763176 0.20341176 0.06746932 0.056860145 0.070016846 0.23437275 0.14793934 0.10411996
0.17517287 0.028081363 0.19625884 0.15774986 0.09891076 0.019531153 0.030277312 0.03750072
0.03303418 0.051082753 0.14147119 0.17622839 0.05739457 0.09892582 0.08445615 0.09418508
0.19880444 0.17862557 0.10028598 0.16821533 0.20827653 0.07905613 0.19415823 0.07549516
0.015509769 0.12422295 0.03560198 0.24656884 -0.0402928 0.12693378 0.12075857 0.07056442
0.07951469 0.07971791 0.15811126 0.08068053 0.09829994 0.23667146 0.09102833 0.14296943
00000000: 6df4 6a3c 5266 0e3e 988e c03d 90ec 2b3e
00000010: 8b21 9d3c bd5a 823e fa8d cb3d 3ef5 413e
00000020: e7de 073e 6659 ff3d d037 ba3d 569d ca3d
00000030: 5e76 153e ef86 993d 80b4 663e 3013 a43d
00000040: 1521 94bd ed56 0c3d 1fcb 3d3e 422c 593e
00000050: d23e b13d efe8 d83d 3330 0d3e 5fa0 4f3e
00000060: 0b7b 613e 6276 243e e0b8 5e3e 01b0 5c3e
00000070: e298 693e 744c d33d 3986 103e d2fb e23d
00000080: c379 5c3c 0289 913e 808e 0a3e 7dde a43d
00000090: 8512 153d cd43 95bd 1816 3f3d c8ae 323e
000000a0: c1d2 833e 198e 913d 6ae9 6b3e 37ef 663e
000000b0: aa33 143e d400 dc3d 3a49 b6bc e81a 0a3e
000000c0: 8598 bd3d 46d3 a63d 758c 303e 4fdc fd3d
000000d0: d94f a63d 33c1 4dbd f510 2a3e 1b17 873d
000000e0: d626 7f3d 2fd0 ac3d 4426 343c ba78 0b3e
000000f0: a2e6 083d 2203 663e d899 093e c351 bdb9
00000100: 1e8d 343b cc00 a03d 37b0 133d f5a8 53bd
00000110: a0e8 8c3d fea3 153d ce15 113d 9a6e 76bd
00000120: 9629 26be 73d6 bcbd 60ff 53bd 22ff 44bb
00000130: 48fb 81bd 582c 8fbd cc89 e23d 97be cc3d
00000140: 6310 0c3c fb28 dc3d b689 4b3d 27d9 563d
00000150: 6afd 7bbd 6783 0fbe cb6d e03d 7e81 adbd
00000160: a88b a0bc 6a4c 103c 712c e53d fe3c 8ebd
00000170: 2939 cebd 02ae d3bb 70fd 11bd b86a 1f3c
00000180: ec6d c1bd 88a0 66bc 9810 a9bd dcee b7bc
00000190: 2b03 bd3d 23e8 ecbb ae88 f23d 18a1 60bd
000001a0: e477 913b fc40 0abe bd93 4ebc b05f e2bd
000001b0: 2b6d 08be 3682 0e3c 5e9e c43b 4a14 b93d
000001c0: a1b2 26bd 1d85 13be 2939 e4bd f72f adbd
000001d0: 0cb0 7abd 200a b43d daa2 013e 2087 803d
000001e0: 327d 033e cab7 533c 2bc1 ed3d 6089 66bd
000001f0: 291f 423d b11a d8bb 0a7b 3a3d 702f aa3c
00000200: fdd8 ce3d 24f0 b0bd 2738 843b 0e62 fcbd
00000210: 1a42 b83d ef10 7fbd 38f4 5b3d 89b8 943d
00000220: c25d 96bc 9030 37bd 9a15 86bc 1904 c2bd
00000230: df30 06be 1737 38be 8e2d a03b 3445 163e
00000240: 10f1 babd f212 033e 0c9f 4c3c 1f71 1d3d
00000250: 1d20 6fbd bf39 f8bd cd40 873d 9b7d f2bd
00000260: 96b3 493d e0a7 e63d 1653 803b a1fc ea3d
00000270: 4cbc ebbc 8b49 053d 7deb 87bd 41cb 69bd
00000280: d752 9bbd 0957 1fbd c382 ca3c a593 18be
00000290: d9f4 98bd b3f2 b13d d99b 1a3e e0b9 dc3d
000002a0: 9f07 20be 5298 bf3d e817 cebc f38a 04be
000002b0: b543 5ebd 5056 c63d 3267 74bd a368 64bd
000002c0: 5f43 003e eb80 4abd f6da efbd 89a7 f13b
000002d0: 8c9f 713b 2566 39bc d063 21be c920 433e
000002e0: 4d42 4a3c dc83 63bd 7d16 5fbd bfa7 d1bc
000002f0: 99ec bd3d 4a2e d53d f38f 883d b697 07be
00000300: a5a1 883c 61a3 8f3c 5c3e d43d 9a8f 5c3e
00000310: dcc5 8f3d a4d1 5e3d 274c bb3d d73f 233e
00000320: 90e0 933e c36b 123e 322d 413d 376f fdbc
00000330: ec9e 46bc 7423 a13d 2d0b 1d3e 9954 4d3e
00000340: 2a67 a53d 2c4b 503e 5b2d 8a3d 2fe6 683d
00000350: fe64 8f3d 69ff 6f3e 697d 173e d83c d53d
00000360: 8460 333e e30a e63c 14f8 483e 2e89 213e
00000370: b991 ca3d ccff 9f3c 2008 f83c 5b9a 193d
00000380: d94e 073d 263c 513d d3dd 103e 3775 343e
00000390: 9216 6b3d 9f99 ca3d 59f7 ac3d 1be4 c03d
000003a0: 6493 4b3e 9fe9 363e bc62 cd3d a440 2c3e
000003b0: 7146 553e 2ee8 a13d 6ad1 463e 359d 9a3d
000003c0: b01c 7e3c 9a68 fe3d 62d3 113d 8b7c 7c3e
000003d0: 100a 25bd eefa 013e 4550 f73d 1484 903d
000003e0: 99d8 a23d 2543 a33d ebe7 213e d53b a53d
000003f0: 7b51 c93d 015a 723e 106d ba3d 9466 123e

lstm.weight_ih_l1 f4 [256, 64]
0.14298332 0.12913181 -0.06543499 -0.21596874 0.061863847 -0.07912227 -0.121754035 0.17089581
0.05600884 0.074716575 0.06608751 0.0067037805 -0.16635343 -0.13604178 0.020434247 0.31581002
-0.107311994 0.1681197 -0.2567466 0.11585837 -0.026625035 -0.16237806 0.17800437 -0.2935899
0.05113929 0.07460066 0.033803813 0.1416219 -0.0979662 0.1905258 -0.03577524 -0.054638665
0.028642524 0.15699384 -0.16761011 -0.14694187 0.04964829 0.22233576 0.099132515 0.12460267
-0.21981445 -0.11456403 -0.08027543 0.09810771 -0.09399537 0.06915228 -0.114127316 -0.2427913
0.13660018 -0.16003591 -0.15645044 -0.10108305 -0.1389879 0.07352324 -0.13168678 0.23637402
-0.120096564 0.03705114 -0.23154627 -0.09789242 0.18796225 0.08453542 0.23056966 -0.19716209
-0.03304763 -0.121329196 0.008252146 -0.10800277 0.15274377 0.03442944 0.117474794 -0.0121654915
0.06256946 -0.033044487 -0.04509251 -0.09682678 0.06630468 -0.09314208 0.06928745 -0.052413568
-0.015939206 -0.060134716 0.06377224 0.01849999 0.054360077 0.098397195 -0.080025576 0.06543949
0.10380154 -0.07983634 -0.03387771 -0.07492443 0.04044525 0.023628665 -0.09287468 -0.06432888
-0.0027617589 0.015636718 0.10080187 0.09986746 -0.01733773 0.11572637 0.14489478 -0.039276343
0.055464294 -0.08236256 -0.015243337 0.08314779 0.06895351 0.07539133 -0.12440437 0.114450686
-0.0797219 -0.047524247 0.09388922 -0.11127193 -0.030018171 0.07720356 -0.056573667 -0.009342575
-0.02711543 -0.082056135 -0.11385937 -0.006191825 0.15241869 -0.06997853 -0.07639579 0.025118984
0.023983635 -0.14653333 -0.033190046 -0.00827153 0.03475318 -0.13687861 0.038120143 0.06258569
0.21134025 -0.23953678 0.085582525 0.10121975 0.05386665 0.00079428847 -0.027210342 0.101918325
0.004060431 0.2562567 0.23264243 0.008723759 -0.11858643 0.0927144 0.13601957 0.1319609
0.019209897 -0.0633211 0.1784024 0.10575474 0.096027546 -0.035753652 -0.0027004855 0.07668148
-0.07702315 -0.1010778 0.18025379 0.10557056 -0.14585146 0.2249863 0.23633446 0.20469327
-0.09290537 -0.27166453 0.14284055 0.015857995 -0.23792373 0.20447902 -0.09192928 0.18891686
-0.036118712 0.22518457 -0.039074406 -0.03802098 -0.094109565 0.19405374 -0.19505434 0.091126755
-0.047047455 0.036129624 -0.0223663 0.024450546 -0.1071773 0.035853174 0.056548405 -0.16940098
0.14323694 0.11380353 -0.047991186 0.05565482 0.095030956 0.112966314 0.013953671 0.16817136
-0.1002729 -0.096224874 -0.15347499 -0.12517214 -0.1481326 0.041774224 0.08986581 0.04674348
-0.12197913 0.11487479 0.02975541 0.16029707 -0.08488837 0.08950755 0.13729757 0.06557563
0.1104334 -0.091733925 0.048779134 -0.058881875 -0.044843417 0.17430948 0.030811973 0.06590381
0.030126402 -0.006003874 -0.03052957 -0.14144416 -0.07675989 0.025973039 -0.04698359 -0.0095778685
-0.099013664 -0.1145095 0.005998523 -0.04618796 0.035619624 -0.010745845 -0.021454876 0.09071916
0.15355374 -0.09580332 -0.09772258 0.06676958 -0.17268598 0.07500503 -0.13298139 0.16049568
0.02384181 -0.015721593 -0.01256891 -0.08380169 0.1999905 0.16953526 0.09160804 -0.11054975
00000000: 386a 123e 213b 043e c802 86bd e926 5dbe
00000010: f264 7d3d db0a a2bd 2e5a f9bd 50ff 2e3e
00000020: 8769 653d 0105 993d e358 873d 63ab db3b
00000030: 8e58 2abe 894e 0bbe b965 a73c dab1 a13e
00000040: 64c6 dbbd 9227 2c3e 4a74 83be 2747 ed3d
00000050: bf1c dabc 6f46 26be c746 363e 6a51 96be
00000060: 6f77 513d 3bc8 983d de75 0a3d 5505 113e
00000070: 81a2 c8bd 3219 433e 0f89 12bd cbcc 5fbd
00000080: baa3 ea3c fec2 203e fca1 2bbe ee77 16be
00000090: 015c 4b3d fcab 633e fd05 cb3d af2f ff3d
000000a0: 0a17 61be 8ca0 eabd 7267 a4bd b2ec c83d
000000b0: a580 c0bd b69f 8d3d 95bb e9bd 489e 78be
000000c0: ebe0 0b3e 74e0 23be 8b34 20be a104 cfbd
000000d0: d852 0ebe 5a93 963d e6d8 06be 080c 723e
000000e0: 30f5 f5bd f0c2 173d 771a 6dbe d27b c8bd
000000f0: 2d79 403e e820 ad3d 741a 6c3e dce4 49be
00000100: f45c 07bd 717b f8bd 0234 073c 8e30 ddbd
00000110: dd68 1c3e e205 0d3d a096 f03d c551 47bc
00000120: 6b24 803d a859 07bd ecb2 38bd 1e4d c6bd
00000130: c0ca 873d 46c1 bebd 94e6 8d3d 9caf 56bd
00000140: f092 82bc d24f 76bd 059b 823d 4b8d 973c
00000150: aca8 5e3d 7884 c93d 73e4 a3bd 2405 863d
00000160: e795 d43d 3c81 a3bd 5bc3 0abd fb71 99bd
00000170: eba9 253d e790 c13c 1535 bebd dcbe 83bd
00000180: a0fe 34bb 9318 803c 3671 ce3d 5087 cc3d
00000190: db07 8ebc f201 ed3d 4c5f 143e 3be0 20bd
000001a0: 872e 633d b4ad a8bd 30bf 79bc 6349 aa3d
000001b0: 7f37 8d3d c566 9a3d b8c7 febd 1f65 ea3d
000001c0: 3c45 a3bd c9a8 42bd fe48 c03d 8ae2 e3bd
000001d0: abe8 f5bc e61c 9e3d cab9 67bd 9a11 19bc
000001e0: 2e21 debc 0c0d a8bd 1a2f e9bd cbe4 cabb
000001f0: a513 1c3e e750 8fbd 6575 9cbd 54c6 cd3c
00000200: 5479 c43c d50c 16be 49f2 07bd 5085 07bc
00000210: 5a59 0e3d e829 0cbe de23 1c3d ed2c 803d
00000220: 9469 583e 2149 75be e445 af3d 4d4c cf3d
00000230: 47a3 5c3d cc37 503a 39e8 debc 8eba d03d
00000240: 5d0d 853b 1434 833e d139 6e3e 19ee 0e3c
00000250: 71dd f2bd 0ce1 bd3d b748 0b3e c220 073e
00000260: 135e 9d3c 7eae 81bd 1eaf 363e f195 d83d
00000270: 17aa c43d 6c72 12bd a1fa 30bb 2e0b 9d3d
00000280: 50be 9dbd e101 cfbd 7394 383e 6135 d83d
00000290: 165a 15be cf62 663e a901 723e 1d9b 513e
000002a0: 2c45 bebd 9d17 8bbe cb44 123e a0e8 813c
000002b0: 47a2 73be f362 513e 6b45 bcbd 6c73 413e
000002c0: 37f1 13bd c996 663e 7c0c 20bd e3bb 1bbd
000002d0: 84bc c0bd 06b6 463e 53bc 47be aaa0 ba3d
000002e0: d5b4 40bd a8fc 133d 8839 b7bc 834c c83c
000002f0: c67f dbbd c7da 123d 4d9f 673d 7377 2dbe
00000300: b4ac 123e d311 e93d 6892 44bd 4ff6 633d
00000310: 979f c23d e25a e73d f09d 643c 1d35 2c3e
00000320: e15b cdbd 8c11 c5bd 8c28 1dbe 202d 00be
00000330: 13b0 17be 731b 2b3d 910b b83d 1776 3f3d
00000340: 32d0 f9bd 7943 eb3d 9ec1 f33c ea24 243e
00000350: f4d9 adbd bc4f b73d bc97 0c3e 844c 863d
00000360: e82a e23d ffde bbbd a1cc 473d 1f2e 71bd
00000370: bbad 37bd 2f7e 323e 6469 fc3c 94f8 863d
00000380: a5cb f63c 25bc c4bb 2619 fabc bdd6 10be
00000390: 4a34 9dbd 69c5 d43c dd71 40bd 7eec 1cbc
000003a0: adc7 cabd f583 eabd 428f c43b 962f 3dbd
000003b0: e2e5 113d 570f 30bc 23c2 afbc f8ca b93d
000003c0: 313d 1d3e 8834 c4bd c722 c8bd 7dbe 883d
000003d0: 98d4 30be 3d9c 993d 462c 08be fb58 243e
000003e0: e64f c33c 92ca 80bc d4ed 4dbc 38a0 abbd
000003f0: 4fca 4c3e a79a 2d3e ff9c bb3d e867 e2bd

lstm.weight_hh_l1 f4 [256, 64]
0.091193706 -0.25268948 0.043662023 -0.15831433 -0.03490681 0.055795394 -0.031469617 0.12507872
0.13354985 -0.16808529 0.001625115 0.17930496 -0.014480353 0.041307937 0.13119295 0.03144536
-0.06839544 0.2343239 0.08715678 0.2585682 0.097826034 0.097187355 0.101963624 0.101021715
-0.049968615 -0.14920627 0.14676647 0.096042864 -0.1746122 -0.13306713 0.020061783 -0.101679854
-0.06514331 -0.07642774 0.12317253 0.07017867 -0.048743445 -0.04600765 -0.14898176 -0.124808535
-0.20375535 0.08742221 -0.06396435 0.1688691 0.04206498 -0.18534695 -0.03486085 0.060972825
0.14493932 0.08942227 0.049106915 -0.030995918 -0.06399959 -0.2123242 0.036894377 0.09826132
-0.038017273 -0.09640601 0.24261826 0.066105105 -0.13558923 -0.18012969 0.049434528 -0.016095724
0.122855045 -0.009493851 -0.06669697 -0.09761163 0.013043017 0.025292305 -0.0890403 0.008112145
-0.0690831 0.09147404 -0.15776305 0.11662294 -0.057606373 -0.025977176 0.052313454 0.048528686
-0.11755023 0.032322865 0.155493 -0.04741563 -0.12248273 0.048956253 0.07654524 -0.006498062
-0.15023643 0.01981068 0.022105098 -0.09845332 -0.04412271 0.102991454 0.06424191 0.05386921
-0.013768021 -0.16589476 0.0007722715 0.03207347 0.035783175 0.014545512 -0.08928011 0.086778454
-0.09387871 -0.04061193 0.021091346 0.07413296 -0.055925973 -0.0038328809 0.07416242 0.15489179
-0.06238595 -0.03461987 0.015560082 -0.16011547 0.07660399 -0.07734529 -0.0768653 -0.058456972
0.028790683 0.10183225 0.039504204 0.083934136 -0.0027596443 -0.026367692 0.0756658 0.050028633
0.17710133 -0.11116849 0.102468446 -0.06202044 0.07929424 0.028071992 -0.023531897 0.07009597
-0.014185957 0.018213715 -0.1361672 -0.01895857 0.039286472 -0.045735113 0.15577766 -0.055597506
-0.14469126 0.09232781 -0.04852788 0.1932536 0.0053154156 0.04615932 0.16226187 0.022946443
0.08544747 -0.04594098 0.017384494 0.16306737 -0.17186272 -0.09054452 -0.0015644187 -0.08978701
0.16537127 -0.07990609 0.0585723 -0.0026334906 0.035524454 0.040681265 -0.12459485 -0.017090367
0.025904788 -0.1585607 -0.048870888 -0.10443012 -0.023878394 0.053307507 -0.057333145 0.1552784
-0.040224873 -0.097656846 0.034689493 -0.105722345 -0.16489784 0.06290027 0.013387468 0.06698665
0.12477951 0.016335709 0.024637897 -0.14411925 -0.036324453 0.07832941 0.089440465 0.03085258
-0.037635896 -0.11921285 -0.01946347 0.011219799 -0.027946867 0.077710375 0.021091923 0.11841738
0.10106517 -0.06320985 0.05121707 0.07161453 0.1601576 0.17842457 0.10665675 0.09397984
-0.02665043 -0.035115983 0.19512504 0.03553176 -0.051179644 -0.13886395 0.12163146 0.12917033
-0.055751964 -0.006336703 0.014145408 0.1246899 -0.13415647 0.04808505 0.07643902 -0.008158853
0.053479105 -0.11619893 0.08593756 -0.12720233 0.20233497 -0.012560898 -0.06054011 -0.06799662
-0.09959151 0.0053551476 0.071538895 -0.11676626 0.059146978 0.017363083 0.012021286 0.16490097
0.08358318 0.11867968 -0.0734473 -0.12429428 -0.1309719 0.031219272 -0.0295534 0.10034296
0.15375929 -0.0018287727 0.034322236 0.09974433 0.049496915 0.11991891 0.087150805 -0.1388274
00000000: c4c3 ba3d 8460 81be f3d6 323d 271d 22be
00000010: 71fa 0ebd b689 643d 49e6 00bd a314 003e
00000020: 4bc1 083e 8d1e 2cbe d001 d53a b89b 373e
00000030: 013f 6dbc 8332 293d 7257 063e dacc 003d
00000040: e912 8cbd 9bf2 6f3e 417f b23d 0d63 843e
00000050: 0459 c83d 2a0a c73d 4ed2 d03d 79e4 ce3d
00000060: e4ab 4cbd 87c9 18be f349 163e 1fb2 c43d
00000070: 8acd 32be c042 08be 9c58 a43c 873d d0bd
00000080: db69 85bd 2686 9cbd e141 fc3d d6b9 8f3d
00000090: 35a7 47bd 8572 3cbd ad8e 18be 9e9b ffbd
000000a0: 3ea5 50be 6a0a b33d beff 82bd 05ec 2c3e
000000b0: 544c 2c3d 97cb 3dbe 40ca 0ebd a4be 793d
000000c0: f96a 143e 0623 b73d 5524 493d 27eb fdbc
000000d0: 3812 83bd 846b 59be 8f1e 173d 3b3d c93d
000000e0: 00b8 1bbd 8470 c5bd ec70 783e 1d62 873d
000000f0: e7d7 0abe eb73 38be dc7b 4a3d 2edb 83bc
00000100: 6d9b fb3d 198c 1bbc 6c98 88bd 9be8 c7bd
00000110: 61b2 553c cf31 cf3c c35a b6bd cde8 043c
00000120: 717b 8dbd be56 bb3d a38c 21be 02d8 ee3d
00000130: a9f4 6bbd 16ce d4bc a246 563d 04c6 463d
00000140: 2dbe f0bd fb64 043d 8f39 1f3e e436 42bd
00000150: 3ad8 fabd 5a86 483d c0c3 9c3d b2ed d4bb
00000160: 94d7 19be 024a a23c c015 b53c e5a1 c9bd
00000170: 04ba 34bd 2fed d23d 4391 833d f6a5 5c3d
00000180: 4493 61bc 51e0 29be 4372 4a3a 795f 033d
00000190: 6191 123d 4d50 6e3c 7ed8 b6bd e7b8 b13d
000001a0: 7b43 c0bd b258 26bd c2c7 ac3c 05d3 973d
000001b0: a212 65bd 1231 7bbb 78e2 973d f49b 1e3e
000001c0: 6988 7fbd 91cd 0dbd b7ef 7e3c 4ff5 23be
000001d0: 8de2 9c3d 3567 9ebd 8e6b 9dbd 9470 6fbd
000001e0: 70da eb3c 6d8d d03d 29cf 213d a9e5 ab3d
000001f0: 26db 34bb 0f01 d8bc acf6 9a3d d3ea 4c3d
00000200: 0d5a 353e 4eac e3bd fada d13d 2509 7ebd
00000210: 0565 a23d 3cf7 e53c f7c5 c0bc 7a8e 8f3d
00000220: 376c 68bc ee34 953c 6a6f 0bbe 014f 9bbc
00000230: daea 203d be54 3bbd 2e84 1f3e 36ba 63bd
00000240: f229 14be 5d16 bd3d 2cc5 46bd 46e4 453e
00000250: f02c ae3b 8e11 3d3d fa27 263e 2efa bb3c
00000260: 15ff ae3d 9c2c 3cbd ed69 8e3c 22fb 263e
00000270: c8fc 2fbe 686f b9bd 2e0d cdba 40e2 b7bd
00000280: 1657 293e cea5 a3bd 82e9 6f3d a496 2cbb
00000290: 1782 113d 66a1 263d 962b ffbd 1901 8cbc
000002a0: 4736 d43c bc5d 22be d72c 48bd 75df d5bd
000002b0: 9f9c c3bc f958 5a3d 29d6 6abd 4d01 1f3e
000002c0: d6c2 24bd 5000 c8bd 9216 0e3d f584 d8bd
000002d0: fbda 28be dbd1 803d 1c57 5b3c 4c30 893d
000002e0: 668c ff3d 77d2 853c 6ad5 c93c ff93 13be
000002f0: f3c8 14bd 2b6b a03d 902c b73d 8dbe fc3c
00000300: 1928 1abd de25 f4bd db71 9fbc 3fd3 373c
00000310: d4f0 e4bc 9e26 9f3d f8c8 ac3c d084 f23d
00000320: 41fb ce3d 2a74 81bd fec8 513d a4aa 923d
00000330: 5b00 243e eeb4 363e db6e da3d 8178 c03d
00000340: 0152 dabc c7d5 0fbd dcce 473e c089 113d
00000350: bfa1 51bd 5a32 0ebe ea19 f93d 3a45 043e
00000360: 2c5c 64bd 1ea4 cfbb 24c2 673c 6b5d ff3d
00000370: 5060 09be d4f4 443d 108c 9c3d b6ac 05bc
00000380: e80c 5b3d b4f9 edbd 0800 b03d 5441 02be
00000390: e630 4f3e 3acc 4dbc e8f8 77bd d041 8bbd
000003a0: a2f6 cbbd 3c7a af3b fc82 923d 2623 efbd
000003b0: 1a44 723d 063d 8e3c eef4 443c cddb 283e
000003c0: a92d ab3d 550e f33d 8a6b 96bd 008e febd
000003d0: 7f1d 06be 8fbf ff3c f919 f2bc 9c80 cd3d
000003e0: 1373 1d3e 6eb3 efba 7995 0c3d c146 cc3d
000003f0: 47bd 4a3d 0c98 f53d 1f7c b23d c528 0ebe

lstm.bias_ih_l1 f4 [256]
0.057786662 0.0011393082 -0.0034988336 -0.030894684 -0.04344962 0.04532092 -0.044629626 0.07632868
0.059642207 0.06842306 -0.035282142 0.12287107 0.11707402 0.22344238 0.006492873 0.19108924
0.2190455 -0.029986972 0.19511339 0.10849983 0.08756304 0.23265547 -0.09586226 0.06690362
0.2281587 0.0070558134 0.10082648 0.1539224 0.013523031 -0.01681225 0.20421468 0.18417779
0.21958943 0.17759225 0.014432671 0.12230902 -0.009605647 0.081485786 0.2570181 0.20926958
0.024182614 -0.010952639 0.12847722 0.24508344 0.15737215 0.08440663 0.16732374 0.18654363
0.14370394 0.12929313 0.23859562 0.23329863 0.021432424 0.12864119 0.13851002 -0.008991266
0.024431866 0.01600118 -0.045904897 0.1327695 0.108368285 0.14948662 0.16667417 0.07291562
-0.0029688177 -0.10037897 0.042650655 0.022761235 -0.0013155425 -0.009189244 0.09167639 0.12854594
-0.008851358 -0.056218628 0.09702178 0.04778202 0.04154739 -0.04793974 -0.08923606 -0.1136303
-0.10368885 -0.019927805 0.12284971 -0.021634609 -0.11625113 -0.08676018 0.076235674 0.08362472
-0.030761046 0.0040004216 0.110339165 -0.0052113603 -0.023666006 0.09238114 -0.019747782 0.06588133
-0.11805763 -0.035535067 0.0686808 -0.086705364 -0.05821566 0.049464416 -0.07513457 -0.089606196
-0.013541917 0.05544334 -0.0333306 0.117029205 -0.054388203 0.097503975 -0.1132102 -0.077396594
0.104295716 0.017289143 0.1192526 -0.010788368 -0.09850674 -0.053727083 -0.04411738 -0.12949531
-0.033848006 -0.057653002 -0.04497354 0.092522785 -0.04672206 -0.008427557 0.03906935 -0.081794456
0.12846515 -0.108611904 0.032702286 -0.005819282 -0.0131590115 0.05677292 0.09739037 0.07834118
-0.07634527 0.037608735 -0.089983955 0.12929748 0.023404466 0.06432146 0.0386031 0.1251826
0.00066082284 0.10415492 0.13793795 0.12025066 -0.104348406 0.025991833 0.14681557 0.10620618
0.057899944 -0.03244037 0.045893073 -0.019848894 -0.13161889 -0.09029683 0.09551205 0.0071728206
0.08364315 0.04274171 0.08974628 -0.05150869 0.13091987 -0.019274784 -0.09103071 0.03426078
-0.076363094 -0.081263974 0.0037426213 0.08935555 -0.07177486 -0.033213105 0.03056078 0.074705355
0.050277457 0.034331113 -0.036771137 -0.025841894 -0.0756887 -0.15279686 0.101871476 0.03050619
0.09814901 0.07225467 0.09605476 0.0042851185 -0.012007827 -0.024051363 0.13313606 0.03806
0.18957777 0.015418945 0.12590292 0.102406986 0.018431952 0.06754354 0.13800195 -0.0756627
0.14859788 0.15720491 0.09697244 0.14703356 -0.012282435 0.13259271 0.105441704 0.16420208
0.12780593 -0.03336315 0.0030094453 0.018680384 0.099747725 0.1897822 0.059539683 0.015393045
0.045785703 0.05100409 -0.093023285 0.050023764 -0.014001846 -0.012462459 -0.012077229 0.08733709
0.22370897 0.16525196 0.16517885 0.06879371 -0.06288448 0.12416435 0.12499898 0.07460441
0.0923343 0.17824586 0.019153811 0.069581546 -0.004406826 0.07749295 0.012221988 0.061091267
0.16014142 -0.052081693 0.028479528 0.13126488 -0.026527958 0.080000654 0.12096287 0.027304396
0.08293977 0.16154002 0.10931353 0.042502083 0.14552638 0.15206102 0.015974922 0.043902606
00000000: b5b1 6c3d d754 953a b04c 65bb d916 fdbc
00000010: 3bf8 31bd 6ea2 393d 8ecd 36bd 3652 9c3d
00000020: 634b 743d 6421 8c3d 0284 10bd d4a3 fb3d
00000030: 81c4 ef3d 14ce 643e 2bc2 d43b e6ac 433e
00000040: 774d 603e 3da7 f5bc cecb 473e 2935 de3d
00000050: 4054 b33d 3c3d 6e3e 6f53 c4bd c404 893d
00000060: 6fa2 693e 7434 e73b 1d7e ce3d d59d 1d3e
00000070: b48f 5d3c d8b9 89bc a71d 513e 1a99 3c3e
00000080: 0ddc 603e beda 353e 0277 6c3c 277d fa3d
00000090: 0161 1dbc 05e2 a63d e097 833e c44a 563e
000000a0: 9e1a c63c b372 33bc 888f 033e 27f7 7a3e
000000b0: 2a26 213e 62dd ac3d ea56 2b3e 4b05 3f3e
000000c0: 2027 133e 6b65 043e 6952 743e d6e5 6e3e
000000d0: 0d93 af3c 84ba 033e 92d5 0d3e 1a50 13bc
000000e0: 5625 c83c e814 833c c606 3cbd baf4 073e
000000f0: 31f0 dd3d 0513 193e a2ac 2a3e c954 953d
00000100: 7f90 42bb 7d93 cdbd 74b2 2e3d c575 ba3c
00000110: 486e acba 7c8e 16bc d5c0 bb3d 8ca1 033e
00000120: 4905 11bc 8145 66bd 5bb3 c63d 14b7 433d
00000130: 992d 2a3d 765c 44bd 65c1 b6bd 01b7 e8bd
00000140: d25a d4bd a33f a3bc a198 fb3d 103b b1bc
00000150: 1315 eebd 52af b1bd 7321 9c3d 7043 ab3d
00000160: 97fe fbbc f815 833b 80f9 e13d 0fc4 aabb
00000170: 36df c1bc 5332 bd3d 1ac6 a1bc caec 863d
00000180: 33c8 f1bd 388d 11bd 85a8 8c3d 9592 b1bd
00000190: 8b73 6ebd 339b 4a3d 27e0 99bd 7483 b7bd
000001a0: ebde 5dbc 8e18 633d ab85 08bd 02ad ef3d
000001b0: 2ac6 5ebd 2ab0 c73d c0da e7bd 1b82 9ebd
000001c0: fe98 d53d f6a1 8d3c b53a f43d b2c1 30bc
000001d0: e7bd c9bd ee10 5cbd 6db4 34bd 6b9a 04be
000001e0: 35a4 0abd 8e25 6cbd 2d36 38bd 967c bd3d
000001f0: a15f 3fbd bc13 0abc 2f07 203d da83 a7bd
00000200: 5e8c 033e eb6f debd d5f2 053d adaf bebb
00000210: e598 57bc b98a 683d 9a74 c73d 5771 a03d
00000220: e95a 9cbd 9e0b 1a3d 8249 b8bd 8f66 043e
00000230: b9ba bf3c f8ba 833d 491e 1e3d de2f 003e
00000240: 123b 2d3a 2d4f d53d 9b3f 0d3e fa45 f63d
00000250: 9eb4 d5bd d3ec d43c d256 163e a082 d93d
00000260: 7e28 6d3d 32e0 04bd 60fa 3b3d 269a a2bc
00000270: 1ac7 06be 8bed b8bd d29b c33d fb09 eb3b
00000280: 1a4d ab3d ee11 2f3d e6cc b73d c7fa 52bd
00000290: dc0f 063e 27e6 9dbc 4f6e babd 0855 0c3d
000002a0: 4164 9cbd ba6d a6bd c446 753b 0b00 b73d
000002b0: b3fe 92bd 770a 08bd 9a5a fa3c 1fff 983d
000002c0: bcef 4d3d c89e 0c3d 559d 16bd 61b2 d3bc
000002d0: ad02 9bbd c876 1cbe fea1 d03d 1ee8 f93c
000002e0: 5902 c93d 42fa 933d 5cb8 c43d 2e6a 8c3b
000002f0: 7abc 44bc 5d07 c5bc d254 083e cde4 1b3d
00000300: ad20 423e be9f 7c3c b2ec 003e c1ba d13d
00000310: 9bfe 963c 4454 8a3d 6250 0d3e 0cf5 9abd
00000320: 0b2a 183e 53fa 203e 7d99 c63d f78f 163e
00000330: 443c 49bc 62c6 073e d2f1 d73d 9724 283e
00000340: 8fdf 023e cca7 08bd 1d3a 453b 9b07 993c
00000350: 8948 cc3d 4456 423e e2df 733d 1c33 7c3c
00000360: ca89 3b3d aae9 503d fe82 bebd b8e5 4c3d
00000370: 0068 65bc 572f 4cbc 92df 45bc cadd b23d
00000380: f713 653e cf37 293e a524 293e b7e3 8c3d
00000390: 94c9 80bd e149 fe3d 77ff ff3d 32ca 983d
000003a0: c419 bd3d 1586 363e 74e8 9c3c c580 8e3d
000003b0: 2367 90bb a0b4 9e3d bc3e 483c d63a 7a3d
000003c0: 1dfc 233e 9d53 55bd e64d e93c 4d6a 063e
000003d0: 2951 d9bc 62d7 a33d 62bb f73d 78ad df3c
000003e0: 53dc a93d bf6a 253e c6df df3d aa16 2e3d
000003f0: de04 153e e2b5 1b3e d7dd 823c 38d3 333d

lstm.bias_hh_l1 f4 [256]
0.04409786 0.15632294 0.05034406 0.032555018 0.14112918 0.16980746 0.0830956 0.031832896
0.0021403914 0.040359013 0.1403012 0.052687928 0.2100137 0.028605143 0.12589298 0.04868467
0.08889714 0.013274724 0.15545912 0.11965407 0.12634936 0.1385714 0.063023575 0.12510918
0.20440821 0.16151324 0.07732401 0.04711614 0.0062920223 -0.023427054 0.20347673 0.08042724
0.22708263 0.14836878 0.19786559 0.19756304 0.17240821 0.14993048 0.20852731 0.19579375
0.11913046 0.026349965 0.15256178 0.2088631 0.18085465 0.15452006 -0.0043587345 0.13363346
0.17305909 0.13814119 0.028730426 0.19296631 0.034408245 0.32574046 0.013694543 0.006236716
0.24101025 0.09439191 -0.03142367 0.13266872 0.29295295 0.09896609 0.07020973 0.18500546
0.12870395 -0.053868894 0.09898307 0.05868101 -0.00581385 -0.020180875 0.11086478 -0.04716578
0.027297445 -0.15382671 0.0093974965 0.027248548 -0.036632817 -0.04337921 -0.09175605 -0.10147039
0.022189645 -0.024294624 -0.07241029 0.0638381 0.045029026 -0.0550947 -0.118816726 -0.015784953
-0.13228029 0.045489848 0.06460529 -0.0028681285 -0.03785351 0.06843236 0.0038515516 -0.11308952
0.11351629 -0.14715113 0.124267235 -0.082896374 0.07519493 -0.123903796 -0.103746295 -0.015861126
-0.0345574 -0.06836549 -0.08637101 -0.094770215 0.03319047 0.053122513 0.097084865 -0.083983235
0.114158496 0.10868022 -0.027656652 0.14569196 0.09038178 0.046625573 0.027542744 -0.025176406
0.045560617 -0.11300087 -0.0835547 -0.08563143 -0.00012274235 -0.056169033 0.022877876 0.004576757
0.12422139 -0.013193799 0.13240309 -0.09700311 -0.06680315 -0.06203823 0.008014499 0.10787129
0.041289825 -0.02061327 0.0076852716 0.026828889 0.09755918 0.13441865 0.10168397 -0.08663968
-0.10751565 0.0781485 0.015970202 0.117224574 -0.055488918 -0.04665393 0.06401278 0.041578542
-0.058911715 -0.13244638 0.13724393 0.11871903 -0.1359363 -0.12284992 -0.109186545 -0.07374995
0.11287502 0.03642689 0.13497917 0.10408041 0.10996273 -0.0073545757 0.006186523 -0.08051207
-0.07169642 0.037612796 -0.073285535 -0.09912532 0.048613895 -0.09440688 0.06697384 -0.061475657
-0.074912794 -0.0025945073 -0.040531475 -0.066245824 -0.08795997 0.009899048 0.07598388 0.061726104
0.05593802 0.059020862 0.12957178 0.005242626 -0.1912771 -0.025315354 0.051967528 -0.054191314
0.21387987 -0.02350296 0.15115698 -0.05451695 0.13962197 0.11503647 0.14861873 0.110063985
0.06480098 0.22611527 0.031784143 0.032325692 0.03757257 0.2212344 0.1312386 0.2919447
0.110823914 0.046075385 0.10359151 0.15599523 0.050912466 0.057432756 -0.07014334 0.08819418
0.19694157 0.05955044 0.05206472 0.10295212 -0.055252317 0.00960205 0.1613988 0.10443127
0.18230957 0.22777568 -0.045144945 0.2354521 0.07240751 0.1582486 0.09908922 0.15006691
0.13023844 0.14794482 0.16573109 0.14736436 0.13798381 -0.0014727262 0.11986477 0.11078243
0.12727685 0.009628173 0.25092176 0.26873985 0.046498157 0.29384083 -0.080238625 0.14563112
0.11323648 0.12892751 0.16556382 0.266063 0.20358509 0.042979307 0.10411194 0.062093213
00000000: f59f 343d 1f13 203e 9335 4e3d 6958 053d
00000010: 2b84 103e 02e2 2d3e 072e aa3d 3663 023d
00000020: cf45 0c3b 7e4f 253d 1eab 0f3e 4ccf 573d
00000030: d50d 573e 5555 ea3c 17ea 003e 9469 473d
00000040: b40f b63d 3a7e 593c ad30 1f3e 310d f53d
00000050: ba61 013e a9e5 0d3e 8112 813d 9f1c 003e
00000060: 6350 513e ba63 253e 0d5c 9e3d dbfc 403d
00000070: 4f2d ce3b 18ea bfbc 345c 503e 09b7 a43d
00000080: 5988 683e fced 173e 479d 4a3e f74d 4a3e
00000090: c78b 303e 6087 193e 2f88 553e 287e 483e
000000a0: acfa f33d e2db d73c 2839 1c3e 35e0 553e
000000b0: f631 393e 823a 1e3e b7d3 8ebb 36d7 083e
000000c0: 6736 313e e274 0d3e 125c eb3c f698 453e
000000d0: a9ef 0c3d 74c7 a63e 145f 603c 5e5d cc3b
000000e0: 64cb 763e 8c50 c13d 1bb6 00bd 4fda 073e
000000f0: eefd 953e bcae ca3d 1eca 8f3d 1272 3d3e
00000100: f8ca 033e a1a5 5cbd a3b7 ca3d 805b 703d
00000110: 1c82 bebb 5d52 a5bc 130d e33d e830 41bd
00000120: e49e df3c c084 1dbe f5f7 193c 5938 df3c
00000130: 4b0c 16bd 66ae 31bd 99ea bbbd b5cf cfbd
00000140: 0fc7 b53c 8505 c7bc d94b 94bd 8dbd 823d
00000150: 5b70 383d fbaa 61bd 2f56 f3bd 724f 81bc
00000160: 7c74 07be 9053 3a3d c74f 843d 36f7 3bbb
00000170: 480c 1bbd 4426 8c3d 506a 7c3b 7a9b e7bd
00000180: 3b7b e83d c9ae 16be d27f fe3d 93c5 a9bd
00000190: cdff 993d 46c1 fdbd f078 d4bd 31ef 81bc
000001a0: 0f8c 0dbd 3503 8cbd 49e3 b0bd e316 c2bd
000001b0: bbf2 073d fe96 593d 6ed4 c63d 67ff abbd
000001c0: eecb e93d bc93 de3d 3490 e2bc 4630 153e
000001d0: 151a b93d 75fa 3e3d 52a1 e13c c03e cebc
000001e0: c59d 3a3d 006d e7bd ba1e abbd 885f afbd
000001f0: 66b4 00b9 8011 66bd 626a bb3c 9ff8 953b
00000200: c967 fe3d ce2a 58bc ad94 073e 91a9 c6bd
00000210: 17d0 88bd cd1b 7ebd 3f4f 033c 9feb dc3d
00000220: 851f 293d 29dd a8bc bbd4 fb3b 42c8 db3c
00000230: 1bcd c73d 0ba5 093e af3f d03d 2570 b1bd
00000240: 2a31 dcbd 520c a03d f1d3 823c 7013 f03d
00000250: 5948 63bd 3118 3fbd 2219 833d 434e 2a3d
00000260: 694d 71bd 06a0 07be ac89 0c3e f622 f33d
00000270: e332 0bbe bd98 fbbd 329d dfbd 370a 97bd
00000280: 052b e73d 5d34 153d fb37 0a3e 1c28 d53d
00000290: 2434 e13d a7fe f0bb 51b8 ca3b 83e3 a4bd
000002a0: 93d5 92bd e00f 1a3d ba16 96bd 3702 cbbd
000002b0: 5d1f 473d 6558 c1bd 9529 893d e6cd 7bbd
000002c0: e16b 99bd 9c08 2abb 5504 26bd e4ab 87bd
000002d0: 5b24 b4bd 9e2f 223c 709d 9b3d 83d4 7c3d
000002e0: 441f 653d dcbf 713d 77ae 043e 56ca ab3b
000002f0: 25de 43be 2562 cfbc e7db 543d b6f7 5dbd
00000300: 5303 5b3e 4889 c0bc e5c8 1a3e 2a4d 5fbd
00000310: 10f9 0e3e 3e98 eb3d 822f 183e 3a69 e13d
00000320: 60b6 843d c38a 673e 1730 023d f267 043d
00000330: b2e5 193d 458b 623e 6963 063e c779 953e
00000340: a6f7 e23d 8bb9 3c3d c927 d43d 37bd 1f3e
00000350: 9789 503d 9c3e 6b3d 50a7 8fbd 269f b43d
00000360: 0dab 493e 2aeb 733d d141 553d 90d8 d23d
00000370: 4150 62bd eb51 1d3c ba45 253e 10e0 d53d
00000380: 5caf 3a3e 073e 693e e8e9 38bd 5b1a 713e
00000390: 634a 943d ec0b 223e 4aef ca3d 24ab 193e
000003a0: 3a5d 053e d97e 173e 69b5 293e afe6 163e
000003b0: a14b 0d3e 7e08 c1ba a97b f53d e6e1 e23d
000003c0: dd54 023e 7cbf 1d3c d178 803e 4598 893e
000003d0: da74 3e3d 4e72 963e 2654 a4bd 5320 153e
000003e0: 87e8 e73d 9305 043e 9089 293e 6939 883e
000003f0: 9c78 503e 120b 303d a438 d53d 7455 7e3d
