LSTM/models/sensor_data_1_pm25_lstm_model.pth (torch, 206060 bytes, 9 tensors)

lstm.weight_ih_l0 f4 [256, 1]
000000 a8 34 d2 3c 78 82 e4 3d 28 60 8a 3d 03 e5 4b bd
       0.025659874 0.111576974 0.067566216 -0.04977895
000010 91 6a 46 be 5b 21 4c be 81 81 e1 3c 73 b3 0c 3d
       -0.1937659 -0.19934599 0.027527573 0.034350824
000020 a5 c2 a1 bb 82 bd aa bd c5 01 70 bd 98 96 17 3d
       -0.0049365335 -0.08336927 -0.058595438 0.03700885
000030 7f c2 8f bd fe df 10 be a5 c6 e0 bd 0f c6 65 3c
       -0.07019519 -0.14147946 -0.109753884 0.014024272
000040 10 7d 0b be 29 9b 51 bd a4 c5 49 be 05 72 0e be
       -0.13621926 -0.051173363 -0.197043 -0.13910682
000050 59 f1 30 bd b7 f3 82 bd db 8c 3c 3d ce ce cd 3d
       -0.043198917 -0.06394141 0.046032768 0.100492105
000060 13 58 3d be 82 bd 30 be b9 dc 15 3e bd c6 7d 3c
       -0.18490629 -0.17259791 0.1463498 0.015489277
000070 bb b5 4e bc f0 56 01 3d 76 77 0a be a8 a5 69 bd
       -0.01261657 0.03157705 -0.13522133 -0.057042748
000080 23 9a e6 bd 7a 8b f6 bd 0d e3 38 bc f1 57 45 bd
       -0.11259868 -0.12038322 -0.011284602 -0.04817957
000090 ba 79 bd bd 1a 25 81 3d a1 44 c8 3d 5f dd f2 bd
       -0.09251733 0.06305905 0.09778715 -0.118586294
0000a0 52 83 80 bd 37 2a 9a bd a3 5a 06 3e bf a4 22 be
       -0.06275047 -0.07527583 0.13120513 -0.15883158
0000b0 fd 64 1c 3d 82 aa 02 be cf 52 f7 3c b8 10 22 3d
       0.038182247 -0.12760356 0.030190853 0.039566725
0000c0 b7 5c 63 3c 0c 57 1c be 48 e7 bd bc 46 a8 42 3d
       0.013877085 -0.15267581 -0.023181573 0.04752376
0000d0 ad 45 8f bd ed 21 eb 3d 7e f0 e7 3d c2 2b b0 bd
       -0.069957115 0.1148108 0.11325167 -0.08602096
0000e0 a7 b2 65 3d bc be b4 bd af 43 d5 bc 4a e9 32 be
       0.05607858 -0.08825442 -0.02603325 -0.17471805
0000f0 3a b9 57 be 48 3c 0b 3d d3 e4 42 be 61 2b 69 3c
       -0.21066752 0.033993036 -0.19032602 0.014231534
000100 3e ea 9d 3d 65 14 13 3c ed ea a7 3d ec e3 1b bd
       0.07710694 0.00897703 0.081991054 -0.03805916
000110 17 d9 e2 bd 86 86 85 bd 03 1f 6e 3d a5 f0 34 be
       -0.11076563 -0.06519799 0.058135044 -0.17669924
000120 a4 51 29 bd 3b 41 0c be 79 08 de bc 1d cf 05 be
       -0.041337624 -0.13696758 -0.02710365 -0.13067289
000130 9e b4 1e 3d 64 3c 22 be ac 36 b1 3d a7 a9 c9 3c
       0.03874647 -0.1584335 0.08653006 0.02461703
000140 18 47 01 bd 27 94 f3 3d bf e7 ab bc 78 71 f1 bd
       -0.03156194 0.11893492 -0.020984529 -0.117892206
000150 e3 fc fe bd de 57 0f be cb 37 ed 3d e0 bc ea 3d
       -0.12450578 -0.13998362 0.11582907 0.11461806
000160 83 28 7a 3d 54 54 04 3d 05 00 46 3e 11 13 73 bd
       0.06107379 0.032306984 0.19335945 -0.059344355
000170 28 aa e0 3b 01 b5 3e bd 8f f3 70 bd 4a 59 a8 bc
       0.0068562217 -0.046559338 -0.058826026 -0.020550389
000180 ef 0d 9f 3c 49 fe 08 bd 25 0b b6 bd 4b d6 6b 3d
       0.019415824 -0.03344563 -0.088888444 0.057577413
000190 2e 9e cd bd 3b 81 ce 3d 69 39 c6 3d a3 ca 46 be
       -0.10039936 0.100832425 0.09678919 -0.19413237
0001a0 b6 45 1f bc 48 9b d8 bb 54 9b bc 3d 03 00 2c 3e
       -0.00972121 -0.006610308 0.09209314 0.1679688
0001b0 b7 ae 40 3e 93 e5 2b 3d 56 34 02 be 78 10 2c bd
       0.18816648 0.041966986 -0.12715277 -0.042007893
0001c0 5d 66 17 3d d0 e1 c7 bc 32 c9 e6 bc 9f ca 09 be
       0.036962856 -0.024399668 -0.02817211 -0.134562
0001d0 56 fc 22 bd 1a 67 41 3e 1f 98 c2 3d 0a 46 12 3e
       -0.039791428 0.18886986 0.09501671 0.1428453
0001e0 8a c6 f9 3d 67 0a 45 bc d6 cc 0c bd 10 ae 9c bd
       0.121960714 -0.012026406 -0.034375034 -0.07650387
0001f0 74 29 88 3d 45 ec b5 bd a1 66 10 be f7 79 4c 3e
       0.066485316 -0.088829555 -0.1410165 0.19968401
000200 6e 86 0f 3e e3 67 3f 3e 23 66 c3 3d 84 a0 f2 3d
       0.14016125 0.18691973 0.095409654 0.11847022
000210 29 9f ac 3d 9b 0b 25 be a2 c6 16 3e aa fc 07 3c
       0.08428795 -0.16117708 0.1472421 0.008299986
000220 b2 43 35 be 25 f3 53 3e fe 7c 30 be 49 2b 0a be
       -0.17701605 0.20698221 -0.1723518 -0.13493074
000230 c1 b0 0e 3e da 65 f2 3d 2e f4 ae bd ab 3b 89 3d
       0.13934614 0.11835833 -0.08542667 0.06700834
000240 bf cf 13 be 1f 57 27 3e d0 c0 1d 3e 3a 2c c8 bd
       -0.14434718 0.16341828 0.15405583 -0.097740605
000250 2a ea f7 bc 1a db 35 be 7d 46 46 be 5b b5 7c 3c
       -0.030263025 -0.17759362 -0.19362827 0.015424098
000260 21 5d 3a 3e 08 bd 28 be ff c7 30 3e 94 45 db bd
       0.18199588 -0.1647836 0.17263792 -0.1070663
000270 b4 53 aa bd c4 7f 3b bd c4 93 83 3d c4 12 17 be
       -0.08316746 -0.045776144 0.064246684 -0.14753252
000280 58 76 46 be 61 8b d4 bd b3 35 18 be b0 13 af bd
       -0.19381082 -0.10378147 -0.14864235 -0.08548677
000290 87 e7 1c 3e 5f 9b 30 bd 3e cf 65 3e f3 e4 cd bd
       0.15322696 -0.043116923 0.22442338 -0.10053434
0002a0 2b 81 24 3e f6 4a a0 3d f9 1b 45 be 7b 08 25 be
       0.16064899 0.07826798 -0.19248952 -0.16116516
0002b0 da 3a 39 3e af 31 59 be 8c 4a 0f be 7a 64 c4 3d
       0.18088856 -0.21210359 -0.13993281 0.09589477
0002c0 8e c7 0b be 63 d6 43 3e 89 b5 35 3e 30 8a 46 3e
       -0.13650343 0.19124751 0.17745031 0.19388652
0002d0 0f 12 4b 3e 82 22 36 3e 9e 86 83 bd 87 bd 26 be
       0.19831108 0.17786601 -0.064221606 -0.16283236
0002e0 8f 6e 48 be 40 b5 15 3e c3 10 85 bd f2 0e 72 3d
       -0.19573425 0.14619923 -0.06497338 0.059096284
0002f0 67 48 3a 3e 9a 39 1e 3e e1 f5 3f be da 78 37 be
       0.18191682 0.15451661 -0.18746139 -0.17917195
000300 b4 d3 4b 3c 39 91 c8 bc 8d 16 15 3e 9b bb 26 3e
       0.012440611 -0.02448331 0.14559384 0.16282503
000310 11 2d 14 bd 0d 77 ef bc b3 1e 1d 3e 7f 66 3a be
       -0.03617579 -0.029231573 0.15343742 -0.18203162
000320 cc 24 d2 bd 33 30 2a bc 33 64 10 bd f5 0d 3c be
       -0.10260925 -0.010387468 -0.035251807 -0.18364699
000330 8e 1c c2 bd f0 00 ad bd f7 91 ad bd fd 85 e0 bd
       -0.094781026 -0.084474444 -0.08475106 -0.10963056
000340 f9 27 c9 bd 74 b4 66 3e 11 d6 21 be 54 7e b6 3c
       -0.09822077 0.22529775 -0.15804316 0.022277035
000350 57 db 36 be 05 5c 4a be b5 c2 92 3d 1a 2f a2 bd
       -0.17857109 -0.19761665 0.07166044 -0.0791914
000360 d3 a9 1c 3d 90 4c 88 3d d2 33 04 3e 1d 9d 41 bb
       0.038247894 0.06655228 0.12910393 -0.002954311
000370 27 4b 9f 3d 31 af e0 bc 6a 17 66 bd 4b ed 31 bd
       0.07778006 -0.027427288 -0.056174673 -0.04343919
000380 c4 86 3e be 95 2a c2 bd 47 ec 82 bd a8 43 d0 bd
       -0.18606097 -0.09480778 -0.063927226 -0.101691544
000390 e7 ea e4 3c c5 3f d6 3c 16 b8 c4 bc 51 03 72 bd
       0.027944041 0.026153455 -0.02401356 -0.059085194
0003a0 4b 20 3f be 4f 9b 0c 3e f0 1c a6 3d 6e 3c 76 3d
       -0.18664663 0.1373112 0.08110988 0.060116224
0003b0 2c 95 2b 3e 8a ae 07 be 28 60 a5 bc 94 e1 58 be
       0.16756123 -0.13250175 -0.020187452 -0.21179801
0003c0 30 32 ab 3d b4 74 46 3c e5 b9 1b be 25 91 29 be
       0.08359182 0.012112785 -0.15207632 -0.16559274
0003d0 b1 a8 85 3d 4d 53 01 3d 98 5a ff 3d c2 43 61 bd
       0.06526316 0.031573582 0.12468451 -0.05499626
0003e0 ae c7 d6 3d bb 79 2b 3e cc 48 0a be e1 41 26 be
       0.10487305 0.16745655 -0.13504332 -0.16236068
0003f0 7d b9 48 bd 55 ad e1 bd 19 28 37 be 59 db 26 3d
       -0.04900502 -0.110193886 -0.1788639 0.04073653

lstm.weight_hh_l0 f4 [256, 64]
000000 f3 92 06 3d d7 89 3b 3d 3a 4a 82 3d 40 75 67 3d
       0.032854985 0.04578575 0.06361814 0.056508303
000010 93 31 2c be fe 43 8a bb 67 a8 9d 3d 95 13 b5 bd
       -0.16815786 -0.004219531 0.07698136 -0.088416256
000020 60 1b bd 3d bd 30 91 bd e5 22 58 bd 2b 0d af bd
       0.09233737 -0.07089374 -0.052767653 -0.085474335
000030 3f f7 ae 3d b1 e4 15 3d 3c 98 01 3c a8 f4 68 3d
       0.08543252 0.03659505 0.007909831 0.056873947
000040 54 ce 03 3d 90 34 38 bd d7 a3 9a 3d 2f 1a c2 bd
       0.03217919 -0.044972003 0.07550781 -0.094776504
000050 1c 44 d0 3a e7 6b 2c 3d a4 fb 6f 3d b7 37 66 bd
       0.0015889439 0.04209509 0.058589593 -0.056205478
000060 91 dc 31 bd 88 c2 b1 3d 20 45 56 bd f6 dd 92 bd
       -0.04342324 0.08679682 -0.052312016 -0.07171242
000070 68 85 4f bd 61 35 f6 3d 58 9c 09 be ce 2b ae 3d
       -0.050664335 0.120219 -0.13438547 0.08504449
000080 29 95 46 3d 39 85 ed 3d 50 5e a8 3c 6e 52 a8 bc
       0.048482094 0.11597676 0.020552784 -0.020547118
000090 80 da 13 bd 7a 66 66 bb 6f 35 6c bc 70 38 8b 3d
       -0.03609705 -0.0035156296 -0.014417036 0.06797874
0000a0 a0 42 a7 3d fb 76 27 3d 56 42 00 be 71 e2 bd 3d
       0.081670046 0.040884953 -0.12525305 0.09271706
0000b0 ce 32 b3 3d 96 50 e9 bc fc ad 8a bd 80 da 7b 3d
       0.087499246 -0.02848081 -0.06771466 0.061487675
0000c0 1f 41 4c 3d cf 2a 92 bc cd 0d 21 bd 4c 15 b7 bd
       0.04986679 -0.017842678 -0.039319802 -0.08939609
0000d0 69 5e 0b 3e 6b b8 27 3d cb d3 88 3d 56 eb 44 bd
       0.13610233 0.04094736 0.06681021 -0.048075996
0000e0 79 08 db bc ef 4c c9 bc 42 d4 ba bc 9e 61 10 be
       -0.026737439 -0.024572818 -0.02280629 -0.14099738
0000f0 e9 3f 98 3b 31 f7 01 be 88 9c cb bd 2f 75 d1 bd
       0.0046462906 -0.12691952 -0.09941965 -0.10227429
000100 3d e7 1d 3e fe 7c 74 bc e4 42 8f 3d a5 e3 90 bd
       0.15420242 -0.014922379 0.0699518 -0.0707467
000110 5b 0c 0e be 0e 35 60 3c d1 dc 9b 3d d4 a6 2b bc
       -0.138719 0.013684524 0.07610477 -0.010476787
000120 dc 17 12 3a f0 e8 26 be 30 4f b4 3d 02 12 1f bb
       0.00055730133 -0.16299796 0.08804166 -0.0024272208
000130 cb ea 12 be 2b b6 bd bc ef 11 3c bd 11 78 50 3a
       -0.14347379 -0.023158154 -0.04591554 0.00079524616
000140 69 a4 73 bd 1a 89 00 3e 8b fa 5a be b6 cd 39 3e
       -0.059482966 0.125523 -0.21384637 0.18144879
000150 d5 14 f3 b9 01 0f 26 3e 7f 25 ce bd 03 8e 24 3e
       -0.00046364093 0.16216661 -0.100657456 0.16069798
000160 00 d2 04 bc d2 1b 01 3c 38 0a d2 3b 69 0a 39 3e
       -0.0081067085 0.007880168 0.0064099096 0.18070377
000170 5a f0 ba 3d 00 70 27 3e 7b a5 b3 bd 0a 27 32 bd
       0.09127875 0.16351318 -0.08771797 -0.04349426
000180 cc 77 3a bc cf 41 71 3d 36 3c af 3d 8c ba 92 3d
       -0.011381101 0.05890065 0.08556406 0.07164487
000190 a5 03 28 bd d7 66 03 be 0c 55 ff 3d 25 c3 95 3d
       -0.0410191 -0.12832199 0.12467393 0.073126115
0001a0 40 4d 2f 3c 74 4f dd 3b 19 f2 33 3b 88 38 a4 3c
       0.01069957 0.0067538563 0.0027457534 0.020046487
0001b0 f2 41 de 3d fa f2 e8 bc a7 c2 2a 3d 01 18 32 3c
       0.10852422 -0.028436173 0.04168954 0.010869981
0001c0 44 d4 be bd a6 8c 50 bd 82 ba 30 be 40 c5 7b 3c
       -0.0931783 -0.050915383 -0.17258647 0.015366852
0001d0 af db e9 bc c3 f9 a1 bc 65 36 d5 3c ec a2 a2 3d
       -0.028547136 -0.019772416 0.026026914 0.07941231
0001e0 e3 27 bb 3d 4c 2e ca 3d 81 d7 a8 3d 07 99 f8 3c
       0.09138467 0.09872112 0.08244229 0.030346407
0001f0 d1 13 a7 bd 6f 82 2d be b8 bd bd bc 0a 25 90 bc
       -0.081580766 -0.16944288 -0.023161754 -0.017595787
000200 96 14 07 bd f9 7c e3 3d bd c8 21 3d 4b de a7 bd
       -0.032978617 0.11107821 0.03949808 -0.08196696
000210 fb 02 c9 bd 41 ed 9e 3c bb 30 5d bd dc 65 4f bd
       -0.098150216 0.01940024 -0.05400155 -0.05063425
000220 7e 4c 2b 3e c3 86 b4 bd 71 fe 92 bd 6d 4a bc 3d
       0.16728398 -0.08814766 -0.07177437 0.09193883
000230 d0 46 ae 3b 7a a5 99 bd c5 a8 ef 3d 6b eb f4 3c
       0.0053185 -0.07502265 0.11702112 0.029897412
000240 dd 77 f2 3d 90 49 0b 3e 4b d9 24 bc 49 e5 e9 3c
       0.11839268 0.1360228 -0.010061572 0.028551714
000250 ff 4a c2 bd e6 1c 10 3e a0 52 9a 3d d7 5f a9 bc
       -0.094869606 0.14073524 0.07535291 -0.020675583
000260 a3 1b 8a bd 45 31 c5 bd c1 79 e0 3c 83 f1 07 3c
       -0.067435525 -0.09628538 0.027401807 0.008297327
000270 d7 84 b0 3c a6 b9 b9 bb d8 86 04 3d 38 b7 54 3d
       0.021547718 -0.005667883 0.03235516 0.051932544
000280 28 fb 00 bd 39 18 29 3e c6 87 3e bd da da d1 bc
       -0.03148952 0.16513146 -0.046516202 -0.025617052
000290 56 2e f6 3c c0 2e 0e be 39 67 b5 bd 49 b1 e3 3c
       0.030051392 -0.13885021 -0.08857579 0.027794497
0002a0 25 af ca bc 4d 28 e0 bc 8d 1d 3b bd e6 e5 c8 bd
       -0.024741719 -0.027362967 -0.04568248 -0.09809475
0002b0 e3 4a d8 3c e7 c0 f7 ba a4 a2 ae 3d 74 f6 05 3c
       0.026402896 -0.0018902094 0.08527115 0.008176435
0002c0 10 a1 0e be 8c a1 52 bd 61 a6 0e bd c5 d3 ed 3d
       -0.13928628 -0.051423594 -0.03482664 0.116126575
0002d0 00 97 6e 3d 76 dc 95 bc b7 b7 20 3d 70 67 b1 bd
       0.058249474 -0.0182936 0.039237704 -0.08662307
0002e0 d8 6e 18 be 2a 49 b3 bc 68 23 f8 3c 33 40 dc bd
       -0.14886034 -0.021885473 0.03029032 -0.107544325
0002f0 22 38 e5 bd ea dd 38 be ef b0 96 3d e1 c2 1c 3d
       -0.11192347 -0.18053403 0.07357966 0.03827179
000300 c5 02 93 3d 18 03 83 bd d9 b3 84 3c 6e 8e 7f bd
       0.071782626 -0.063970745 0.01619904 -0.06239169
000310 4b d4 16 be aa 1a 0e 3d 70 ca aa 3d 60 06 f0 bd
       -0.14729421 0.034693398 0.08339393 -0.11719966
000320 49 93 a7 3d 98 5b c4 bc cb 51 ca 3d d7 8a 6e 3d
       0.08182389 -0.023969457 0.09878882 0.058237877
000330 f7 38 8a 3d 6b 57 80 bd 0c 4e 8a bd 3c e6 a8 bd
       0.067491464 -0.06266674 -0.067531675 -0.08247039
000340 65 56 88 3d 7a 2d 9f 3d f1 b8 93 bd 9b 86 0c 3e
       0.066571034 0.07772346 -0.07213009 0.13723223
000350 50 d1 48 bd c5 28 89 3d 32 b5 49 bd 0a 9e 0b 3e
       -0.04902774 0.06697229 -0.049245067 0.13634506
000360 50 8f 13 be f6 1e e9 bd 28 6c 85 bd 5d 89 1a 3e
       -0.14410138 -0.113828585 -0.0651477 0.15091462
000370 c4 91 fb 3c 51 9e ff 3d da 46 bc bd 09 3d ac 3d
       0.030709155 0.12481368 -0.09193201 0.08410079
000380 5a b2 50 bc 63 d8 a3 3c bb 9f e3 3d 66 a7 bb 3d
       -0.012737835 0.020000642 0.111144505 0.09162788
000390 dd 1f d4 3d 67 3d 9c bd da 28 58 3d 2b a3 ba 3b
       0.1035764 -0.07628899 0.052773334 0.0056957207
0003a0 a2 77 15 be 43 a2 90 3d 49 da 8a 3d 29 e2 d6 bd
       -0.14596418 0.07062199 0.06779916 -0.104923554
0003b0 4e 11 77 ba 3e 91 3d bd fc 05 b6 bd 19 20 0f bc
       -0.0009424881 -0.046281092 -0.0888786 -0.00873568
0003c0 0a 96 05 bd 2c b5 1f be 9d 55 7c 3c 0f 0a 11 3d
       -0.03261379 -0.15596455 0.015401271 0.035409983
0003d0 71 03 b7 bd 45 92 03 3d ce d9 1e 3c 38 27 0c be
       -0.08936203 0.032121915 0.009695483 -0.13686836
0003e0 9b 10 fa 3a d6 73 ff 3d dc 63 84 bd db 29 82 bd
       0.0019078435 0.12473266 -0.06464359 -0.063556395
0003f0 2c 4e 3e bc 30 93 8c 3c 7e 30 3d 3d da 59 0b bc
       -0.011615317 0.017160028 0.046188824 -0.008505309

lstm.bias_ih_l0 f4 [256]
000000 6b 8e cd bb 11 4b 03 3e 3b 73 cc bb cc e5 cc 3b
       -0.006273081 0.12821604 -0.0062393225 0.00625298
000010 a5 37 8a bc a4 82 87 3d 6c 7c a7 3c 98 25 92 3d
       -0.016872237 0.066167146 0.020445071 0.07136077
000020 dc d9 90 3b b1 e1 c8 3c d9 41 ef 3d 2d 5d f6 3c
       0.004420502 0.02452168 0.11682481 0.030073727
000030 8a 09 4d 3e 91 6e 2e 3e 25 42 f4 bc 8b 3c 28 3e
       0.2002317 0.17034365 -0.029816696 0.16429345
000040 a2 d6 8b 3c 14 fc 20 bd 9b 9f 01 bd cd 72 0e 3d
       0.017070118 -0.0393029 -0.031646352 0.03477745
000050 4e 72 a1 3d fa 53 01 3e 99 5a 54 3e da 29 c2 bd
       0.0788313 0.12629691 0.20737685 -0.09480639
000060 fc 62 d1 3d d7 0b 12 3e 38 1a 14 3e 4c bd 6a 3d
       0.10223958 0.14262329 0.14463127 0.057309434
000070 4e f6 8a 3c 99 ba 22 bd c2 3e e9 3c b3 49 5a 3d
       0.01696315 -0.039728735 0.028472308 0.05329294
000080 a7 85 e7 3d e5 aa fb bc 5a b3 09 bc 7c 2d 40 3d
       0.11304789 -0.030721137 -0.008404577 0.046918377
000090 cf 22 b2 3d 83 e0 35 3d 9f 2c 09 3e 31 14 1e 3d
       0.086980455 0.044403564 0.13395928 0.038593475
0000a0 c5 0f a9 3b 74 83 90 bc 4d 7f 52 bc 94 cd 44 bc
       0.0051593506 -0.017640807 -0.012847734 -0.012011904
0000b0 a9 e4 9b 3d ac 96 6e 3d ab 8a 30 3d 40 7a d3 3a
       0.07611973 0.05824916 0.043100994 0.0016134456
0000c0 1c d9 0a 3e b8 66 9d bb 57 95 bb 3d d3 bd c5 3d
       0.13559383 -0.004803505 0.09159344 0.09655347
0000d0 02 08 49 3e f5 02 46 3e d1 35 b7 bc d5 de b0 bd
       0.19631961 0.19337066 -0.022364529 -0.08636252
0000e0 1b fe 41 3e b3 a8 55 bd a3 b6 23 bd 5a 00 9f bd
       0.1894459 -0.052162837 -0.039969098 -0.07763739
0000f0 4a aa 14 3e ec dc 2a bd ac 5e 5a 3e 21 d3 0a 3e
       0.14518085 -0.041714594 0.21325177 0.13557102
000100 84 18 74 bd cc dd 2d bd 7b 17 70 3d 35 04 2d bc
       -0.059593692 -0.04244785 0.058616143 -0.010560085
000110 1a 1d 81 3c 22 b0 29 bc 3c b5 57 bd 08 f0 1c 3d
       0.015760947 -0.010356935 -0.052663073 0.03831485
000120 91 ab d2 3d de c8 5d bd 35 1b 43 3c 08 dd 93 3d
       0.1028663 -0.05414664 0.011908342 0.07219893
000130 a4 95 a9 bd b3 53 3d bd 29 9b 08 3e f9 2f a9 bd
       -0.08280495 -0.0462224 0.13340439 -0.08261103
000140 fd fb 2b 3d 6d 8c 97 bd 32 24 be 3d 4e 45 15 3d
       0.04198836 -0.07399831 0.092842475 0.036443047
000150 d4 5e 66 bc 89 66 9c 3d 43 cb 02 be c7 e7 69 3b
       -0.014060695 0.076367445 -0.1277285 0.0035691129
000160 f9 85 c8 bd 63 53 67 3d 89 15 12 3e 94 bb e7 3d
       -0.09791178 0.05647601 0.14266028 0.113150746
000170 e7 98 0f 3c 19 d6 af bc f5 e2 d0 bd b4 95 ad 3d
       0.008764482 -0.021464394 -0.101995386 0.08475819
000180 22 d2 96 3d 36 7b 58 3d e4 d9 ee bd e4 e0 89 bd
       0.073642984 0.052851878 -0.11662653 -0.067323476
000190 02 3f 76 bd e3 76 20 3e 1b 8b 68 bc f7 06 42 bc
       -0.060118683 0.15670352 -0.014193322 -0.011842481
0001a0 c0 4b 39 bd c9 2b c2 bd 41 0e d8 bd ea 38 ab 3d
       -0.045238256 -0.094810076 -0.10549594 0.08360465
0001b0 d0 25 ae bb 44 28 82 3d 76 90 df bd 61 d5 57 3b
       -0.005314566 0.06355336 -0.109162256 0.003293358
0001c0 43 4b 81 3c 9e 52 29 bd 50 31 16 bd 4d 6e 81 3d
       0.015782958 -0.041338556 -0.03666812 0.06319866
0001d0 8c be af 3d ca 80 2d 3c 2c e1 9d 3d 7d d9 5b bd
       0.08581266 0.010589788 0.07708964 -0.05367421
0001e0 9a 7b 60 3b de 07 20 3d 84 7f 00 bc e6 a3 a4 bd
       0.003425336 0.039070003 -0.007842902 -0.08039074
0001f0 74 b5 18 3d 76 11 af bb 36 7f 19 bd e1 18 ed 3d
       0.037282422 -0.0053426577 -0.037474833 0.11577011
000200 36 89 4b 3d be 71 4f 3c 11 37 04 bd de 06 b5 3d
       0.0496914 0.012661396 -0.032279078 0.088392004
000210 27 a8 41 be 32 ef 5b 3d 0a ca 5d 3c ae e0 1e be
       -0.18911801 0.05369491 0.013536939 -0.15515396
000220 50 6d d5 3d 3c d2 f1 bd 16 13 b4 bc 66 67 22 3e
       0.1042124 -0.11807677 -0.021981757 0.15859756
000230 9b 8f 85 bd 2b be c9 bd 72 2f 33 3e 85 46 26 be
       -0.06521531 -0.09850725 0.17498568 -0.16237839
000240 f0 e8 cb 3d 02 d9 ac 3d 7b 29 b5 bd 6e 6f 79 bd
       0.09956539 0.084398285 -0.088458024 -0.060897283
000250 a6 08 08 be 97 00 db 3d 3b aa 55 bd d2 41 61 3d
       -0.13284549 0.10693472 -0.052164298 0.05499441
000260 d4 30 11 3d d4 93 09 bd 33 5b 0b 3e d8 a3 14 3e
       0.035446957 -0.033588246 0.13609008 0.14515626
000270 ff 88 e8 bd 25 bc ef 3d 3b c7 8c bd 17 20 a1 bc
       -0.11354255 0.117058076 -0.06873938 -0.019668622
000280 ef 44 83 3d 25 f7 06 3e 28 7b 06 3d 2d 79 06 3e
       0.064096324 0.13180216 0.032832295 0.13132162
000290 56 58 87 3d 57 43 db bd 23 00 e9 3c 4d 7b 8e 3d
       0.066086456 -0.107062034 0.028442448 0.069571115
0002a0 ee 0b 85 3c 17 5d 09 3e d0 ed d7 bb 91 06 60 bc
       0.01624104 0.13414417 -0.0065896288 -0.013673441
0002b0 d8 49 a3 bd 43 5b 4e 3d ed 1f 8e bc ad b8 11 be
       -0.07973069 0.050380003 -0.017349208 -0.14230604
0002c0 a3 46 a5 bc 81 84 65 bd b5 ad 26 bc bb 96 c3 bd
       -0.020175284 -0.05603457 -0.010173251 -0.09550234
0002d0 96 c5 17 3e cb 1b 24 bd 4b 3e bc bd fa 3e 54 bd
       0.14821467 -0.040065568 -0.09191569 -0.05181787
0002e0 9f c0 f9 bc 99 ef 4a 3d 9c a1 30 3e 14 c0 05 be
       -0.030487357 0.049544904 0.17249149 -0.13061553
0002f0 02 d8 35 bd b2 26 cd bd c4 32 be 3d 17 27 9a bd
       -0.044395454 -0.10017146 0.092870265 -0.07526987
000300 d2 64 82 3d 92 c0 15 3e 34 23 99 3c 0f a6 8d bd
       0.06366886 0.14624241 0.018693544 -0.06916439
000310 d7 1a d1 3d 13 6a 1b 3d e7 30 b8 3d 36 af 96 3c
       0.102101974 0.037942957 0.089937024 0.018394094
000320 24 fb 30 3e 8d 54 f6 3d df 24 6a 3c bf de 00 3e
       0.17283303 0.120278455 0.014291017 0.12584971
000330 1f 00 e3 3d 67 8d 65 bd cf cc d3 3d bd ce f5 bc
       0.110840075 -0.056043055 0.103417985 -0.030005807
000340 15 3d eb 3d 55 4c 81 3d 9a c0 1c 3d 57 3d 1e 3e
       0.1148626 0.06313387 0.038269617 0.15453087
000350 4c 45 92 3c 9c ff 88 bd 63 09 65 3e 2b 78 bd 3d
       0.017855309 -0.066893786 0.22366862 0.09251436
000360 3e 3f 1f 3d ad 06 1d 3e a3 b2 e0 3d f8 b2 b0 bc
       0.03887867 0.15334578 0.10971572 -0.021569714
000370 52 07 71 3d 22 d7 c5 3d 02 d5 80 bc 4e cd 03 3d
       0.05884487 0.09660174 -0.01572657 0.032178216
000380 fd 64 28 3e 9a 50 1c bd da 60 27 bd 3d b2 86 bc
       0.16444774 -0.038162805 -0.04086385 -0.016442413
000390 84 fd 38 3e a7 e0 97 3d c7 cd d5 ba aa 54 b3 3d
       0.18065459 0.07415896 -0.0016311937 0.08756383
0003a0 e0 1f 2d 3e 42 93 81 3d b1 15 21 3e 96 bd 9b 3d
       0.1690669 0.06326915 0.15730931 0.0760452
0003b0 ae 77 35 bb a3 37 b1 3d eb dc 1c 3e 5a 34 05 3a
       -0.0027689743 0.0865319 0.15318649 0.00050813484
0003c0 6c 7b 7e 3d a5 59 56 3d b4 56 12 bd 32 ea 39 3e
       0.062129423 0.052331585 -0.035727218 0.18155745
0003d0 fa e9 3c 3d 72 ad 39 3e 53 46 ea bb 9c c2 66 bd
       0.046121575 0.1813257 -0.0071494966 -0.056337938
0003e0 de e4 20 3e 11 7e 20 3c 5c 4d 97 bc 7b e9 bc 3d
       0.15712306 0.009795682 -0.018469505 0.0922422
0003f0 9c 8a 9e 3d a5 1a ab 3d 19 96 99 ba 7c 34 b6 bc
       0.077412814 0.083546914 -0.0011717706 -0.022241823

lstm.bias_hh_l0 f4 [256]
000000 46 0b 26 3e c8 af f0 3d d9 dc 39 bc c9 9a 99 3d
       0.16215238 0.117522776 -0.011344158 0.07500226
000010 8d 59 ac 3d 72 98 30 3d b7 34 ce 3d 97 bf ee 3d
       0.08415518 0.043114133 0.10068648 0.116576366
000020 eb ef 6c 3d 3b c9 2b 3d 15 38 89 bd e7 9a 6d 3c
       0.05784599 0.041939955 -0.0670015 0.014502264
000030 c2 49 1b 3e de 50 40 bd 5f eb f1 3d 8b 12 c7 3c
       0.15164855 -0.04695212 0.118124716 0.024300834
000040 58 77 6b bc 34 e5 58 bd e9 5c 14 bd 2c b7 1d 3d
       -0.0143717155 -0.05295296 -0.03622142 0.038504764
000050 44 ee 86 bc 99 12 f8 3d fb 27 02 bc a1 79 18 bb
       -0.016471036 0.12112922 -0.007944102 -0.0023265856
000060 ee b8 13 3e bc 94 12 3e 4e 46 30 3e 18 e3 9a 3d
       0.14426014 0.1431455 0.17214319 0.07562846
000070 0c 8c 0f 3d 0e 2a 5d bc df b8 a4 3d 63 e1 80 3c
       0.03504567 -0.013498796 0.08043074 0.015732473
000080 71 9c 83 3d cc 2e da 3c bc 0a 01 3e bb 7c 0e 3e
       0.06426323 0.026633643 0.12601751 0.13914768
000090 c2 99 0f 3e ad 22 18 3e 97 25 c8 3d a3 72 12 bc
       0.14023498 0.14856978 0.09772795 -0.008938464
0000a0 27 a6 ef 3d 52 c0 21 bc aa 3b 19 3e b5 44 cb 3d
       0.11701613 -0.009872513 0.14964166 0.09925214
0000b0 e0 51 b9 3d d8 98 43 3e 98 f8 70 bc 4e f1 36 3e
       0.090488195 0.19101274 -0.014707707 0.17865488
0000c0 53 a0 2f 3e 43 52 1f 3e db 33 d8 3d c3 48 e6 3d
       0.17151003 0.15558724 0.10556766 0.11244347
0000d0 80 8d 3d 3e 83 7c ff 3d be a8 b5 3c 85 14 0e bd
       0.18511009 0.124749206 0.02217519 -0.034687538
0000e0 e5 09 65 3d 06 34 c4 3d 16 9d 86 3d 60 07 89 3d
       0.05591764 0.09580235 0.065729305 0.0669086
0000f0 a2 dc a9 3d 80 4a 4a 3a ab 6a b4 3d 4b 1b 2d 3e
       0.082940355 0.000771679 0.08809408 0.16904943
000100 ce d2 c4 bd 7a 9b 8b 3d 4c 13 a3 bd d2 35 52 bd
       -0.0961052 0.06816764 -0.07962665 -0.05132086
000110 28 e0 e1 3d 8b 7f ed bd f5 14 54 3d 05 00 6d 3d
       0.110290825 -0.115965925 0.0517778 0.057861347
000120 c5 77 b2 bd 51 2c 00 bd 2b 74 af bb b8 ad de 3c
       -0.087142505 -0.031292263 -0.0053544245 0.027182445
000130 2c 46 b2 3d a6 e5 ec 3d 9b f5 97 3d df 8c 0a 3e
       0.087047905 0.115672395 0.074198924 0.135303
000140 95 fa bb bc 07 b5 f5 3d 63 1f 9d 3c 86 32 c6 bd
       -0.022946635 0.11997419 0.019180005 -0.09677605
000150 e2 25 97 3d c7 83 bb bd b1 f8 3a 3d cd f8 c6 3d
       0.073802724 -0.09155994 0.045647327 0.09715424
000160 11 c4 bd 3d d6 30 05 bd f2 e4 ff 3c 20 01 12 3e
       0.09265912 -0.032517277 0.0312371 0.14258242
000170 93 a6 99 bb 5f 72 35 3a ef d5 d0 bd aa 84 bf 3d
       -0.0046890466 0.00069216447 -0.101970546 0.093514755
000180 4a 26 98 3d e8 b0 f9 3c c8 ef ba 3d f7 17 8d ba
       0.07429178 0.030479863 0.09127766 -0.0010764588
000190 ba 99 c2 bc b7 ea 94 3d 33 bf b3 3b 35 15 c3 3d
       -0.023754943 0.07271331 0.005485439 0.09525529
0001a0 a0 3a f4 3d a2 15 35 bc 1e 64 07 3e 8f b1 fb bb
       0.11925244 -0.011052521 0.13221785 -0.0076810787
0001b0 c5 9d ed 3b 29 c8 2b bd 37 0a 1a bd c5 78 b6 bd
       0.0072514736 -0.041938934 -0.037607398 -0.08909754
0001c0 81 83 12 bd 59 f9 9d bd de dd ac 3c 6b 64 db bd
       -0.035769943 -0.07713575 0.021101888 -0.107125126
0001d0 e8 00 26 bc 4c c0 08 bd 8a 9f 64 3d f6 1c 06 be
       -0.010132052 -0.033386514 0.05581621 -0.13096985
0001e0 59 64 26 3c fe 5c d6 3d 4b 7b c9 bc f7 25 73 3d
       0.010155761 0.104669556 -0.024594923 0.059362378
0001f0 0b 59 c7 3d 52 53 89 3c 0e ca e8 bd 13 ef 91 3d
       0.097337805 0.016763363 -0.11366664 0.07125678
000200 fc b5 f0 3d 2e 0f 8f 3d 62 87 ef 3d 02 a8 db 3c
       0.11753461 0.06985317 0.11695744 0.02681351
000210 47 38 8f bd 89 71 df bc e1 e2 07 3e b8 7f 23 be
       -0.06993156 -0.027275817 0.13270141 -0.1596669
000220 2c 8b cc 3d f4 f3 45 bd 11 1d 96 3d 43 cc 88 3d
       0.099874824 -0.048328355 0.07329763 0.06679585
000230 ea fc 85 bb c5 d4 09 bd e6 c1 d9 3d b7 1d 88 bd
       -0.0040889876 -0.03365018 0.10632686 -0.06646293
000240 c2 48 d4 bd 29 61 68 3d 23 83 c5 bd 36 38 bf 3d
       -0.1036544 0.056733284 -0.09644153 0.09336893
000250 c5 af 03 be 5b 65 6f bd 31 f9 98 3d 0a 8a 38 3d
       -0.1286002 -0.05844627 0.074694045 0.04505352
000260 17 6e 9a bd 13 fb c9 3d 28 d0 99 39 7f 10 fd 3d
       -0.07540529 0.09862342 0.00029337523 0.12356662
000270 73 e3 c4 3d c5 ce cd 3b 5b 86 d9 bc e7 ae 8b bd
       0.09613695 0.0062807524 -0.026553323 -0.06820469
000280 51 15 30 bc 9b 4a 01 3e bc 0c 67 3d 8b b2 81 bb
       -0.01074727 0.12626116 0.05640863 -0.0039580516
000290 10 3e c1 bd 54 fd 96 bd 85 30 9e 3d be 78 42 3e
       -0.094356656 -0.07372537 0.07724098 0.18991372
0002a0 a0 f3 14 be cd 42 23 bd bf 70 f3 bd 2c 81 5c bd
       -0.1454606 -0.039858628 -0.11886739 -0.053834125
0002b0 3a f3 01 3e a5 a3 a3 bd 16 65 39 3d 7b 09 dd bd
       0.1269044 -0.07990197 0.04526242 -0.10792824
0002c0 91 6b c3 bd e3 71 f2 bd 2c f9 41 bd 35 15 da 3d
       -0.09542001 -0.118381284 -0.04735677 0.10648576
0002d0 f1 b0 33 3c b2 44 d1 3d ea 9b e1 38 f0 92 ff 3c
       0.010967479 0.10218181 0.00010757877 0.031197995
0002e0 09 a2 11 bd c2 83 85 3d 42 75 37 3d 99 94 15 be
       -0.03555492 0.065192714 0.04478956 -0.14607467
0002f0 4e 17 47 bc 18 c3 bf bd 72 ff a4 bd 0f 36 cb bd
       -0.012151552 -0.09363383 -0.08056535 -0.0992242
000300 53 a5 71 ba a9 1a 37 3e d2 94 94 bc b3 0e f2 3d
       -0.00092180556 0.17881264 -0.01813737 0.1181921
000310 a3 e3 3d 3d 8d 15 be 3d ad 2c 26 bd 1c 7b 57 bd
       0.04635967 0.09281454 -0.04056995 -0.05260764
000320 7e a6 24 3e d3 20 db 3d e4 25 32 3e a2 27 4e 3c
       0.16079137 0.1069962 0.17397267 0.012582691
000330 a4 09 2c bd d6 0b 2a 3e 80 b4 42 3e ed a8 03 3d
       -0.04200138 0.16606078 0.19014168 0.032143522
000340 39 ab 55 3e c6 ff 0c bd f6 fb 22 3e 2e 17 a1 3d
       0.20866098 -0.034423612 0.15916428 0.07865749
000350 6b ed 05 3e 12 13 82 bd 15 9b 26 3e 43 f2 12 bd
       0.13078849 -0.063512936 0.16270097 -0.03587557
000360 5d 30 f7 bc 9a d3 fa bc b2 45 05 3e 67 cf ac 3d
       -0.030174429 -0.030618478 0.13014868 0.08437996
000370 d8 10 11 3e 4f 50 a0 bd d8 81 11 bd a2 5a 10 bd
       0.14166582 -0.07827818 -0.03552422 -0.035242684
000380 38 a6 5c 3e 2f 94 a7 bd 99 df 6d bd ba fb 1b bd
       0.21547782 -0.08182561 -0.058074567 -0.038081862
000390 9c 84 32 bc 35 8d 39 bd ff fb 31 3d 5d 02 21 3d
       -0.010895874 -0.04530068 0.043453213 0.039308894
0003a0 7a 97 be 3b 5c bd 1d 3e db e3 2c 3e b9 91 bc 3d
       0.0058163973 0.15404266 0.16883795 0.09207482
0003b0 bb 03 56 3d b5 36 2f bd 77 ed 97 3d 05 6f 23 3d
       0.05224965 -0.042776782 0.0741834 0.0399008
0003c0 cf 37 96 bd f6 bf a0 bd 24 7b 57 3d 18 42 c3 3d
       -0.073348634 -0.07849114 0.05260767 0.09534091
0003d0 f8 8e 17 3e 50 fc 97 3d 6b 50 9f bb 2e eb 26 bd
       0.14800632 0.07421172 -0.0048618815 -0.04075163
0003e0 4e ad 35 3e 96 7a fe 3d c6 57 d6 3b 4d 4f b4 3d
       0.17741892 0.12425725 0.006541225 0.08804188
0003f0 e4 41 80 3c 61 34 26 3e 3b 5c 4d 3e cd 27 6e bd
       0.01565642 0.16230918 0.20054714 -0.058143426

lstm.weight_ih_l1 f4 [256, 64]
000000 22 5f 0e bd 51 bc 8e 3d 9d d4 47 3d 8c a1 8b bc
       -0.034758694 0.06969512 0.04878675 -0.017044805
000010 4c 25 72 be c1 7a aa 3d c7 99 f1 3d 27 d3 0e be
       -0.2364704 0.08324195 0.11796909 -0.13947736
000020 b2 a5 45 3d 64 97 82 bd f0 67 00 3e a9 8e 23 3d
       0.048253722 -0.06376532 0.12539649 0.039930973
000030 bc 8d 2e be 2c 3a 1f be 27 c1 96 3d 4a da 1c be
       -0.17046255 -0.15549535 0.0736106 -0.15317646
000040 8d 4a 07 3e 77 96 70 3d d3 c3 43 be be 26 bf 3d
       0.13212033 0.058737244 -0.1911767 0.09333561
000050 ee 37 63 be f5 e6 60 bd 6c 50 dc bb 68 d0 df 3c
       -0.22189304 -0.054907758 -0.006723454 0.027321056
000060 ba 78 5b 3d 1c 6b 92 bd 3c 09 02 3d 92 4c 94 3d
       0.05358193 -0.07149336 0.031747088 0.07241167
000070 23 e7 32 bd e4 47 03 3e 29 83 96 bd 38 36 0f be
       -0.04367746 0.12820393 -0.073492356 -0.13985527
000080 8d 5a 0d 3e f6 d3 31 3e 4c 26 00 3c 5d 6e 02 3e
       0.13804074 0.17366013 0.007821631 0.12737413
000090 77 bc ad bc ab 3c d7 bd c0 8e c8 3d 87 59 15 3e
       -0.021208031 -0.10509618 0.097928524 0.14584933
0000a0 63 e4 c9 bd 54 98 22 3e 78 28 2e 3d d4 b8 42 3d
       -0.098580144 0.15878421 0.042519063 0.047539547
0000b0 53 3e f0 3d 7a d7 08 bd 96 46 37 3e 85 f7 19 bd
       0.117306374 -0.03340862 0.1789802 -0.03758957
0000c0 de b3 68 bc dc 43 bf bd 98 f3 1a 3d 44 17 26 be
       -0.01420304 -0.09339115 0.037829965 -0.16219813
0000d0 9b f4 09 3e be c0 01 3e 10 e0 2c be 8b 82 9d bd
       0.13472216 0.12671182 -0.16882348 -0.07690915
0000e0 4e c4 90 bd bf ef 1c bd 5d 4c e5 bb 1e 36 6b bd
       -0.07068692 -0.038314577 -0.0069976286 -0.057424657
0000f0 b3 52 2b be 17 7f e1 3b 5f cb 0d 3e 60 7e ed bd
       -0.16730766 0.0068816054 0.13847111 -0.1159637
000100 f0 1f d5 bc ab 99 18 be 82 a6 8e 3d 9c da 45 bd
       -0.026016206 -0.1490237 0.069653526 -0.048304185
000110 9a 80 02 be e2 08 c2 3d 76 5d 47 3b dd 65 d7 bd
       -0.1274437 0.094743505 0.0030420697 -0.10517476
000120 2e 36 c8 3c 9a 03 a0 bd bc 80 96 bd bc b7 26 3e
       0.024439897 -0.07813187 -0.07348773 0.16281027
000130 4a c7 0c be 5a 4c 19 3d 17 7d e7 3b 9a 66 e9 bd
       -0.13747898 0.03742633 0.0070644724 -0.11396523
000140 a6 73 42 3e f0 ec a0 bc 34 4f 2a be e9 20 08 3d
       0.18989429 -0.01964423 -0.16631776 0.03323451
000150 10 d0 a1 bd dd 43 18 3e 12 5a dc 3d 92 0e 13 bb
       -0.07901013 0.14869638 0.10759367 -0.0022439105
000160 44 b3 2b be 21 9d 0d 3e 54 cb 1a bc 1a 39 09 3b
       -0.16767603 0.13829471 -0.009447891 0.0020938576
000170 40 ed 05 bd d2 31 16 3d 08 cc d3 b6 53 78 01 3e
       -0.032696962 0.036668606 -6.3120424e-06 0.12643556
000180 6c 74 1a 3e 83 2a 07 3c e4 d3 9b 3d 27 1e 95 bc
       0.15083474 0.008249882 0.07608774 -0.018202854
000190 c6 ab 6c 3d 8b a1 62 bd 9d f9 26 be 05 b7 5c bd
       0.057781003 -0.05532984 -0.16306157 -0.05388548
0001a0 6b 10 31 be aa e8 f2 3d c5 b2 d3 3d c4 46 b3 3d
       -0.17291419 0.118607834 0.10336832 0.08753732
0001b0 5d 9a 28 be cf 4b 0a 3e 08 e3 05 3d 72 b9 00 be
       -0.16465135 0.13505481 0.032687217 -0.12570742
0001c0 ef 01 c4 3d 07 67 f0 bd b0 81 ce 39 0f 4e 46 3c
       0.09570681 -0.11738401 0.00039388007 0.012103572
0001d0 a6 c9 22 3d 77 3d 27 3d ef 22 0e 3d 2c ab 41 3d
       0.03974309 0.0408301 0.034701284 0.047282383
0001e0 6a e0 08 3e 2a 0d 9f 3d c5 78 4f bd e0 33 00 be
       0.13366857 0.07766183 -0.050652284 -0.12519789
0001f0 4b eb 17 3d a3 66 35 bd ba b7 83 bc d9 02 f8 3d
       0.037089627 -0.044287335 -0.016078819 0.12109918
000200 0f f5 c7 bd 7c 88 eb 3d df 70 0b 3e 63 b6 d8 3d
       -0.09763538 0.11500642 0.13617276 0.105816625
000210 60 f3 4f bd e5 fd 24 3e de 06 d2 3c b1 25 ca bc
       -0.05076921 0.16112478 0.02563804 -0.024676176
000220 d6 ff 22 3d 96 1b 89 ba 6a 18 af 3d 51 4f f7 3d
       0.039794765 -0.0010460492 0.085495785 0.12075675
000230 84 e0 43 be d5 97 78 3b 75 f1 4b 3e fd 11 17 bd
       -0.19128615 0.0037932296 0.19916327 -0.03688239
000240 1e 45 0d 3e 17 b0 cb 3d b4 d0 13 be 7f 07 0b 3b
       0.13795897 0.09945696 -0.14435083 0.0021214185
000250 e5 fa 2b be d1 82 82 3d 41 7c 0d 3e d8 17 04 3e
       -0.16794927 0.063726075 0.1381693 0.1289972
000260 bb fd 40 be 3c 7c 8f 3d 6c 4f 6f 3d f2 4b 9b 3d
       -0.1884679 0.07006118 0.058425352 0.07582845
000270 6e e9 2a 3e 99 6e 4a 3e 52 22 e9 bd 39 4c 6a bd
       0.16690609 0.19768752 -0.11383499 -0.057201598
000280 3e 65 a2 3b 60 2c 3b 3e 4a a2 01 3e c1 ad 44 3e
       0.0049559167 0.18278646 0.12659565 0.19206907
000290 97 6a 67 bd 77 13 48 be be 2b 4b bd 72 d9 eb 3d
       -0.056498136 -0.19538675 -0.049602263 0.11516084
0002a0 c9 24 9d bd db 70 5b bd 3a eb 58 bd b7 d3 d3 3d
       -0.07673032 -0.053574424 -0.052958705 0.10343116
0002b0 92 9c 05 3d 9c 54 42 3d cc e2 9c 3d 23 1e ad bd
       0.03262002 0.04744397 0.076604456 -0.08453014
0002c0 0a 77 74 3d fb 54 6e bd 27 df e1 bd 96 aa 26 be
       0.059683837 -0.058186512 -0.11028891 -0.16276011
0002d0 16 1d 1d bd fb 0e ba 3d 2f b5 e2 bd 25 13 99 bc
       -0.038357817 0.090848885 -0.11069714 -0.018685887
0002e0 07 00 a9 3c db 8f d0 3d cb 9a d7 3d 67 b9 f6 bd
       0.020629896 0.10183688 0.10527571 -0.120470814
0002f0 44 d6 36 be e1 e7 f2 bc af c2 42 3e aa 6f cc bc
       -0.17855173 -0.029651584 0.19019578 -0.02495559
000300 56 a4 0f 3e 70 70 1a 3e 8b b1 a9 3d 44 b9 be 3d
       0.14027533 0.15081954 0.08285817 0.0931268
000310 a0 28 9e 3d cd 06 be bd 82 58 c3 3d ab 30 b1 3d
       0.07722592 -0.09278641 0.09538366 0.08651861
000320 cc 79 a6 3d 88 e2 ec 3d 1a 59 c8 bc 88 ab 20 3d
       0.081287 0.11566645 -0.02445655 0.039226085
000330 56 c0 64 3d bb e9 b2 bd 82 99 44 3c c5 40 d4 3d
       0.05584749 -0.08735987 0.01199949 0.10363916
000340 51 d2 08 3d 4e 9f 55 bd 9c cd bc bd 7b c3 04 3c
       0.0334037 -0.052153878 -0.092189044 0.008103247
000350 c6 8d 17 be 5e 2e 9a bd 27 c5 c2 3c c0 e8 d3 3d
       -0.14800176 -0.07528375 0.02377565 0.10347128
000360 eb 17 e6 3c 1a 9f c2 3c 32 c2 49 bd f9 d1 27 3d
       0.028087577 0.023757506 -0.049257465 0.04097173
000370 0c cd 0e be af 4b b0 bd 9a 19 8a bd 71 f0 03 be
       -0.13945407 -0.086081855 -0.06743164 -0.1288469
000380 8a 57 97 bd 3b 9e 93 bd 5a c8 2a 3d de 8c b0 3d
       -0.073897436 -0.072079144 0.041694976 0.08620618
000390 47 c2 08 bd 0b 09 9b bc 72 56 8e 3d b9 80 a6 3d
       -0.033388402 -0.01892521 0.06950082 0.08130021
0003a0 7b de 83 3d 45 66 c7 3d 59 e5 b0 3c 83 b1 ef 3c
       0.06438919 0.09736303 0.021593736 0.029259449
0003b0 b9 01 68 bc cf 1d ad bd e4 26 71 3d c7 98 70 3d
       -0.014160567 -0.08452951 0.05887498 0.05873945
0003c0 0f a2 dc 3b fe 73 09 3e f4 e9 09 3e 72 d3 0b bb
       0.006733186 0.13423154 0.13468152 -0.0021335748
0003d0 27 43 94 bc 36 da 2b 3e 64 d5 5e 3d 28 9a be bc
       -0.018098427 0.1678246 0.054402724 -0.023266867
0003e0 3f c4 0a be 57 80 53 bd 97 23 e2 3d 69 95 8e 3d
       -0.13551424 -0.051636066 0.110419445 0.069620915
0003f0 be ed 2d bd 78 80 8a bd 71 82 2b be 34 fa e6 bd
       -0.042463057 -0.06762785 -0.16748978 -0.11278191

lstm.weight_hh_l1 f4 [256, 64]
000000 91 fa ac bd 4e 00 16 3d cd e9 99 bd 4f 0e 50 bc
       -0.08446229 0.036621384 -0.07515297 -0.012698724
000010 14 1c db 3b f6 01 00 3d 74 42 ab 3d b8 41 97 3d
       0.006686697 0.03125187 0.08362284 0.07385582
000020 1e 9e 20 bc dc d3 1c 3e fc aa a9 bd 07 2d bd 3d
       -0.009803323 0.15315193 -0.08284566 0.09237104
000030 be 57 cc 3c 2f 28 30 3c 56 b6 1a bd 18 d8 11 bd
       0.024944182 0.010751768 -0.037771545 -0.035606474
000040 8b 8a 8d 3d 9c e4 09 be a1 5d 56 bd 37 a2 cf ba
       0.069111906 -0.13466114 -0.052335385 -0.001584119
000050 ae d7 62 3c b8 41 e5 3d ee 1c bd 3d 60 cf 29 bd
       0.013845367 0.111941755 0.092340335 -0.041457534
000060 18 18 32 3e b6 34 23 be cd a0 2c bd e1 8a b8 3c
       0.17392004 -0.15938076 -0.04214554 0.02252716
000070 08 03 a1 3d ff e8 0c be 5c 30 9f 3d 3e 0b 2d 3e
       0.07861906 -0.13760756 0.07772896 0.1689882
000080 64 bd 2a bd 84 bb 3c bd 11 d1 88 3c 98 cb 4a 3d
       -0.041684523 -0.046077266 0.016701253 0.04951057
000090 ae 58 46 3d f1 86 90 3d 16 62 70 bd f7 28 96 bd
       0.048424415 0.07056988 -0.058687292 -0.07332032
0000a0 0d 50 9a 3d e2 f6 8c 3d 6b 0a 25 be 66 1b 8c bd
       0.075348 0.06883027 -0.16117255 -0.06841163
0000b0 79 03 1e be 4c 49 84 bd cf f9 f5 bc 94 45 5f 3d
       -0.15431012 -0.06459293 -0.030026345 0.054509714
0000c0 33 27 18 3d be 12 7e bd b2 12 ff bd ef 5b 25 be
       0.03714676 -0.062029593 -0.12454738 -0.16148351
0000d0 97 b8 3a 3d c2 ff 09 be 2b 21 2e 3e 24 fb 96 bd
       0.045586195 -0.1347647 0.1700484 -0.0737212
0000e0 61 7d c2 bc 6f c5 d4 bc 6f e1 8a 3d d1 1f 0d bd
       -0.023741426 -0.02597305 0.06781279 -0.03445417
0000f0 64 92 c6 bc f0 fe 10 3e 6a 93 41 3e f5 3c 97 bc
       -0.024239726 0.14159751 0.1890389 -0.018461684
000100 08 d7 1a bd 2d 47 93 3d 3f b9 71 3c b3 c3 27 3e
       -0.037802726 0.0719131 0.014753639 0.16383247
000110 70 e0 8b bd 96 e0 0d bd d1 b8 83 3d b7 2b 01 3e
       -0.068299174 -0.03463801 0.06431735 0.12614332
000120 25 1e 0b 3e 0a 96 41 bc 0a e4 d5 bb 39 94 66 bd
       0.13585718 -0.011815557 -0.0065274285 -0.0562937
000130 23 07 aa bd f3 e9 c0 bd 41 50 dd 3d 3c 25 dd 3d
       -0.083021425 -0.09419622 0.10806323 0.107981175
000140 5b 31 3a bd 87 8e a4 3c 30 cd 84 3d 1f 3c 0f be
       -0.045457225 0.020087494 0.06484449 -0.13987778
000150 85 47 74 3b d1 b2 86 bd ad 69 16 3e ba 91 fe bd
       0.0037274074 -0.06577075 0.1468875 -0.12430139
000160 9b 94 a2 3d b7 24 db bd 2f 79 af 3d a0 b5 cc 3c
       0.079385005 -0.10700362 0.08568036 0.02498895
000170 cc 8a cc 3d df 60 e1 bd bc ee 1a 3c f1 f7 7f 3d
       0.09987411 -0.11004805 0.009456333 0.062492315
000180 45 bc 12 be e7 c4 21 be 74 db d5 bc 72 77 c4 bd
       -0.14329632 -0.15797769 -0.02610562 -0.09593095
000190 38 1d e6 3d c5 68 c9 bd 0b 9e 0e bd b7 ab b5 3c
       0.11236042 -0.09834436 -0.03481869 0.022176607
0001a0 be f4 50 3d 3b 33 e2 3a 45 e0 d9 3d bb d1 00 be
       0.051014654 0.00172577 0.10638479 -0.12580006
0001b0 bc 7f c4 bd 55 86 03 3e 09 ac 1c 3e 60 c3 90 bd
       -0.09594676 0.12844212 0.15300001 -0.07068515
0001c0 36 aa 8a 3d 5e 48 d8 bd 59 8b c6 bd cf 3c 78 bd
       0.067707464 -0.10560678 -0.09694547 -0.060604867
0001d0 cd 6b a3 bd 27 69 f7 bc 5d be db bd 31 c6 db bc
       -0.07979546 -0.030201508 -0.10729668 -0.026827903
0001e0 03 34 27 bc 0a ac 35 3d af ab bc bd 67 6d 28 bd
       -0.010205272 0.044353522 -0.092124335 -0.04111996
0001f0 8d 4b 40 bd 90 ee 41 3d c8 4c fa 3c 31 a7 9a 3d
       -0.04694705 0.04734665 0.03055419 0.075514205
000200 5c 67 17 3d 19 5b 99 bd fc 6d e0 bd 5d fe e7 3b
       0.036963806 -0.074880786 -0.10958478 0.007079883
000210 a3 28 8d 3d fb 38 9b bd fc 84 2a 3e 98 64 df bc
       0.068925165 -0.075792275 0.16652292 -0.027269647
000220 81 d8 1b 3e fb d5 21 3e 2f b1 87 bd 3b d4 ab 3d
       0.15219308 0.15804283 -0.06625592 0.08390089
000230 03 1e 35 be 64 90 2e 3d 5a de 5b 3d 62 49 24 bd
       -0.1768723 0.04261817 0.053678848 -0.040109046
000240 3f d4 9a 3d 24 34 c2 bc 73 cf 33 bd dd ab e4 bb
       0.07560014 -0.023706503 -0.04389901 -0.0069784955
000250 cd e2 b6 3c 0e 95 25 3e 3e eb 6e 3e f9 d2 fe bd
       0.022324944 0.16170141 0.23331925 -0.124425836
000260 a2 2e 9b 3d b4 d8 2f bc 60 6d 3e 3d 79 e8 08 be
       0.07577254 -0.010732818 0.046491027 -0.13369931
000270 8f 73 63 bd d0 76 92 bb 91 74 6e 3c 3d 3c 54 3c
       -0.055530127 -0.00446973 0.014554159 0.012953815
000280 41 0f 2b be 4c de e3 bc f6 74 92 bd 08 19 12 be
       -0.16705038 -0.02781596 -0.07151215 -0.14267361
000290 47 74 61 3b 64 8f 2b 3e f8 fc 1c be 30 7a 34 be
       0.0034401582 0.16753918 -0.15330875 -0.17624736
0002a0 8b 59 b0 3c 49 07 c5 3d df 95 b6 bd 92 b5 80 3c
       0.021527072 0.0962053 -0.089153044 0.01571158
0002b0 29 89 4d be b5 e7 05 3c 8b 49 55 ba c1 cf 87 bd
       -0.20071854 0.008172919 -0.0008136264 -0.06631423
0002c0 14 8c 5a 3d aa eb 0f be 4c 26 9f bd 58 0a 5a 3d
       0.053356245 -0.14054742 -0.077709764 0.05323252
0002d0 c3 0d 81 bd c8 d4 91 bd 10 b0 cc 3d 43 0c 93 3d
       -0.06301453 -0.07120663 0.09994519 0.07180073
0002e0 b3 e6 11 be cd e2 89 3d f8 7a 42 bd 26 7e 9a 3c
       -0.14248161 0.06732712 -0.047480553 0.01885898
0002f0 52 66 4b bd 76 ec a0 3d 2e 95 51 3c 10 4e 46 3b
       -0.049658127 0.07857601 0.012791915 0.0030258931
000300 d2 4f 80 3d 4a de a3 bc e8 b0 aa 3b cb ea 83 3b
       0.062652245 -0.020003457 0.005209077 0.0040257922
000310 a8 df 03 3d 62 da b5 3d c3 9b a1 3d 22 12 48 3d
       0.032195717 0.08879544 0.07891037 0.048845418
000320 05 79 4b bd 95 76 84 3d a2 79 82 3d c9 77 0d 3d
       -0.04967596 0.0646793 0.06370856 0.034538064
000330 8c eb a3 bd da 44 18 3e 2b f4 c1 3d ce 70 32 bd
       -0.080039114 0.14870015 0.094703995 -0.04356461
000340 8b 8b 2d bb 1e 7b cd bd 69 36 bd bd f7 98 15 bb
       -0.002648088 -0.10033248 -0.092388935 -0.002282677
000350 c3 03 84 bc 7d ae b9 3c 6e ff 28 bd ab 2d 4d 3c
       -0.016115075 0.02266621 -0.04125922 0.012523095
000360 2e 74 6a bd 59 d4 05 be 02 41 27 3d 36 5c 70 bd
       -0.057239704 -0.13069285 0.04083348 -0.05868169
000370 d1 60 be bb 37 fe a5 bd 58 46 68 bd 28 1a 64 bd
       -0.0058098813 -0.08105128 -0.05670771 -0.055689007
000380 1a 35 0f 3d e9 e9 e0 bd f0 a9 e6 3b b4 38 03 3e
       0.03496275 -0.10982115 0.007039301 0.128146
000390 e2 27 0d bc 10 43 0d 3e 8a 6f 52 3c cf 0e d1 3d
       -0.008615466 0.13795114 0.012843976 0.10207903
0003a0 fa 38 8a 3c 1f 63 08 be 04 7e d9 bd be ce 42 bc
       0.016872872 -0.13319062 -0.10619739 -0.0118901115
0003b0 50 9a c0 3d 5a fe 2e 3c 11 62 bc 3d 86 e6 06 bd
       0.09404433 0.010680759 0.09198392 -0.032934688
0003c0 99 6c b5 bd a1 2f b0 3d 94 7f b8 bd 5b 62 17 3d
       -0.08858604 0.086028345 -0.090087086 0.036959033
0003d0 8d 5b dd 3c b0 fc 13 bd cb 5a ad 3d 0a 15 eb bc
       0.027021194 -0.036129653 0.08464583 -0.028696556
0003e0 cb ad cd bd e7 ed 1c be ab ec c2 bd bc 94 aa bc
       -0.10042914 -0.15325128 -0.09517797 -0.020822875
0003f0 9d 14 5f bc 13 35 e9 bc cc 3b e3 3c 5b e0 71 bc
       -0.013615754 -0.02846769 0.027738474 -0.014762963

lstm.bias_ih_l1 f4 [256]
000000 2a 6a 09 3d 53 1a 09 3e ce d0 47 bb d2 83 f9 3c
       0.03354851 0.13388948 -0.0030489448 0.030458365
000010 10 1b 74 3d e2 2b 7c bd c1 bc e1 3c ac 92 f8 3d
       0.05959612 -0.061565287 0.027555825 0.121373504
000020 49 55 77 3d cc 29 76 3d 66 02 66 bc c2 3c 65 3d
       0.06038407 0.060098454 -0.014038658 0.055966146
000030 8d ea cd 3d a7 41 a0 bc e0 19 f4 3b ca a9 86 3d
       0.10054503 -0.019562555 0.0074493736 0.065753534
000040 62 48 25 3d 08 07 a2 bd bd 99 6f 3c 12 80 76 bd
       0.040352233 -0.07911497 0.014624056 -0.06018073
000050 3f e6 56 3e 90 f1 60 3d 5b f2 b9 3d a9 97 b7 bc
       0.2098627 0.054917872 0.09079429 -0.022411184
000060 be 15 06 bd b7 bb e4 3c 3b f2 df bc 3c bb a2 bd
       -0.03273558 0.02792154 -0.027337184 -0.079458684
000070 33 d5 7d 3d c2 ea 0d 3e b7 7b 31 3e df e6 a2 bc
       0.0619709 0.13859084 0.1733235 -0.019885479
000080 5d ab 7b bc f9 96 db 3d 99 1b 11 3e ea 3a 69 bc
       -0.01536068 0.10722155 0.14170684 -0.014235238
000090 eb d9 ad 3d a3 97 fa bc 0f b9 32 3a 31 98 1a 3d
       0.0848883 -0.030589884 0.0006817737 0.037742797
0000a0 40 2e 02 3e 65 6b e0 3c 62 35 03 3c e1 a0 36 3e
       0.12712955 0.02739496 0.008008333 0.17834808
0000b0 49 87 6f bd 62 d3 0c 3d 4f 5e 12 3e db cb 12 3e
       -0.058478627 0.034381278 0.14293788 0.14335577
0000c0 b4 98 50 3c 8d 7d 98 3d e7 cc 53 3d 84 13 5f 3d
       0.01273172 0.07445822 0.051709082 0.05446197
0000d0 fa 39 ef 3d 5a 4e df 3d d2 51 9d 3c 69 cb 09 3d
       0.1168098 0.10903616 0.019204054 0.033641253
0000e0 6e 99 92 3d 8b d4 dd 3c 3b b1 20 3c f6 74 b5 bb
       0.07158171 0.027078887 0.00980788 -0.0055376245
0000f0 83 d9 79 3d 13 53 f6 bc f6 b7 29 3e 96 70 10 3d
       0.06099845 -0.03006891 0.16574082 0.03526362
000100 dd 03 b9 3d c3 34 c8 3d ae b4 65 bb 04 83 db bd
       0.0903394 0.097756885 -0.003505032 -0.107183486
000110 9a 15 d8 3d 51 21 b0 bd a2 d2 b0 3d f3 6a f5 bc
       0.10550995 -0.086001046 0.08633925 -0.029958224
000120 92 bc 71 bc db ff f8 bd 88 40 f3 bd 92 48 f1 bc
       -0.014754431 -0.121581756 -0.11877543 -0.02945355
000130 69 5e 63 3d df e5 99 3d 46 8f 57 bd 9a e8 f1 3d
       0.05550996 0.075145476 -0.05262687 0.11811943
000140 64 cc 97 3d d9 f2 82 3d c3 1e 8c 3d 55 95 ca 3d
       0.07412031 0.06393976 0.06841805 0.09891764
000150 cd 53 51 3d 78 76 0d bc f0 a5 8e 3d 27 fc a8 bd
       0.05110531 -0.008634202 0.06965244 -0.08251219
000160 49 0b 6b bc ec 84 da bd a1 92 00 3e b7 1b 1f 3d
       -0.014345952 -0.10669884 0.12555934 0.03884479
000170 ae f2 85 3c 74 a9 80 3b 15 bd 23 bd 5b 1f b8 bd
       0.01635107 0.0039264504 -0.039975245 -0.089903556
000180 9f 94 67 bd d8 de 9a bd 52 1f 6f bd c3 48 29 3c
       -0.05653822 -0.07562035 -0.05837948 0.010332289
000190 15 a9 5d bd af f1 de 3d 96 e5 ae bd e3 1b ad 3d
       -0.054116327 0.10885941 -0.08539884 0.084525846
0001a0 8b 6d d7 bd ef cd d5 bc 09 25 98 bd 4a f7 92 bc
       -0.105189405 -0.026099173 -0.07428939 -0.017940182
0001b0 6d b6 e4 bd 59 72 b0 3d 4c c0 36 bd 51 14 4c bd
       -0.111676075 0.0861556 -0.044616982 -0.049824063
0001c0 c8 27 ea bc 44 8a 20 bd fe fe 65 bd 25 b9 66 bd
       -0.028583422 -0.03919436 -0.056151383 -0.05632891
0001d0 cc e4 9b bd f2 a3 92 bc ee 5b ce 3d 61 34 30 bd
       -0.07611999 -0.01790044 0.10076128 -0.043018702
0001e0 49 ee 61 3d 0a ab f3 3d e3 62 b8 3d c9 78 b9 bc
       0.055158887 0.118978575 0.09003236 -0.022640603
0001f0 98 0c e4 bd 7a db a6 3a 20 2c ef 3c fc 28 85 bd
       -0.111352146 0.0012730204 0.029195845 -0.06501958
000200 a6 e9 de bd 84 4e 5d bd 17 fb b5 3d 68 fa f0 3d
       -0.10884409 -0.054029956 0.08885782 0.11766511
000210 d0 bb 11 be 68 12 7f bd 68 53 0b 3e a2 7e 4a 3d
       -0.14231801 -0.062273413 0.13606036 0.049437173
000220 4f 56 a1 3d 8b b6 f1 3c a5 f8 b5 3d f2 f4 0e 3e
       0.0787779 0.029505989 0.08885316 0.13960627
000230 61 0b e6 3d 02 8b 21 3d 3d 11 77 3d 92 aa 0a 3e
       0.11232639 0.03943921 0.060319174 0.1354163
000240 3b 8a ef 3b 77 fb 46 3d 45 c3 c2 bc 9d 46 80 bd
       0.0073101795 0.04857966 -0.023774752 -0.062634684
000250 f2 61 a6 3d 15 ba a5 3c 2b cf 8a bc a9 e0 ea bd
       0.0812415 0.020230332 -0.016944489 -0.11468632
000260 03 66 3a bc bd 8f 07 be 56 74 b0 bd 65 87 bc bd
       -0.011376861 -0.13238426 -0.08615939 -0.09205512
000270 86 a1 28 bc a1 db 15 bd e2 f9 28 3d 72 3d 07 3e
       -0.010292416 -0.036586408 0.04125393 0.13207033
000280 76 2b d0 bd b0 9a 73 bd 2c 46 46 bd 9b 17 bb bd
       -0.101645395 -0.059473693 -0.048406765 -0.09135362
000290 88 14 a9 bd 64 fa e5 3d 07 41 4c 3d 41 2d 8e bd
       -0.08255869 0.11229399 0.049866702 -0.06942225
0002a0 30 55 df bd 22 fd 26 3b fc 2c d4 bd 53 3e 5d bd
       -0.1090492 0.0025480469 -0.103601426 -0.054014515
0002b0 bc 0b c2 bd 08 5f 31 3d 91 5a f0 3d 67 33 61 bc
       -0.094748944 0.04330352 0.11736024 -0.013745165
0002c0 6b 77 03 3e 9f 06 a7 bd 72 f0 5a bb e9 b4 1f 3c
       0.12838523 -0.0815556 -0.0033407477 0.009747722
0002d0 6a 84 bf bd bf 9d 95 bc 80 82 8a bd 6d 2b 1d 3d
       -0.09351428 -0.018263696 -0.06763172 0.038371492
0002e0 87 e9 5f bd f7 4b 16 be 7e 14 a9 3d 56 21 d8 bc
       -0.05466607 -0.14677416 0.08255862 -0.026383083
0002f0 9d 0a 35 bd 8b 1b 9d bd d6 8d ba 3d 1b 17 10 3b
       -0.044199575 -0.07671269 0.09109084 0.0021986428
000300 5b e9 86 3d e1 af 22 3e 1b 32 38 3d 9d 77 a8 bd
       0.06587478 0.15887405 0.04496966 -0.082259394
000310 b0 52 03 3e 3c cb 04 3c d8 03 b1 3d 6b 90 0c bd
       0.12824512 0.0081050955 0.08643311 -0.034317415
000320 dd ce 2c 3d 9e fc 88 3c 46 d4 32 3a 21 b3 82 3d
       0.042189468 0.01672202 0.00068217923 0.063818224
000330 9f ef 1d 3e 9c 06 d2 3d b9 d5 97 bd 89 73 21 bc
       0.1542344 0.10255167 -0.07413811 -0.009854206
000340 4a 3e 19 3d a5 08 8e bd e1 be 9b 3d d2 55 05 3c
       0.03741292 -0.069352426 0.07604767 0.008138137
000350 08 2a 69 3d 2e 3e a1 3d b3 d8 9f 3d c3 b2 28 3e
       0.05692485 0.07873188 0.07805004 0.16474442
000360 c9 6b 22 3d 29 6d 65 bc 90 a9 85 3d 5e bc c7 38
       0.039653573 -0.014003077 0.06526482 9.5241456e-05
000370 84 8e 10 bd ba a3 a0 3c 83 5e 07 3d 12 c9 dd 3d
       -0.035292163 0.01960932 0.033049118 0.10829367
000380 20 90 28 bd 23 d1 62 3e 9a b3 0f bd 20 04 bb 3d
       -0.041153073 0.22150092 -0.03508339 0.09131646
000390 63 57 98 3c 4f 27 41 bd ca 89 1e 3e 9c e5 cc 3d
       0.018596357 -0.04715663 0.1548225 0.10004732
0003a0 a7 a5 2c 3e ea 90 77 bd 55 bf 21 bd 77 9d 50 3d
       0.16860066 -0.060440935 -0.03948911 0.05093142
0003b0 44 c9 da bc a4 b1 11 3e fc 00 44 3e 0c ce 24 3d
       -0.026707299 0.14227921 0.19141 0.040235564
0003c0 22 53 82 bd 44 a0 b5 3d a4 24 0c bb 52 f1 bb 3d
       -0.063635126 0.08868459 -0.0021384144 0.091768876
0003d0 8a 8f b6 bd 07 60 12 3e f8 4a e9 ba 1e eb c9 3c
       -0.08914097 0.14294444 -0.0017798832 0.024648245
0003e0 6e da 14 bd ae 05 9d 3d e4 05 da 3a 03 66 ad 3d
       -0.036341123 0.07667099 0.0016633836 0.08466723
0003f0 3a d6 44 3d 02 68 bc bc 35 83 ba bc 2f 48 1c 3d
       0.048055865 -0.022998814 -0.022767643 0.038154777
