LSTM/models/sensor_data_1_pm1_lstm_model.pth (torch, 206046 bytes, 9 tensors)

lstm.weight_ih_l0 f4 [256, 1]
-0.10517645 -0.23645471 -0.01537457 -0.029882258 0.055610996 -0.09668658 0.1506991 -0.22355245
0.0406454 0.15372561 0.059183672 -0.09269336 0.19371085 0.12506168 0.13257915 -0.19258687
-0.18858242 -0.07459986 -0.1100131 -0.1742162 0.049626663 -0.006268637 0.029987128 -0.29527065
-0.108481586 -0.17599982 -0.06418651 -0.32692742 -0.12230981 0.028591735 -0.1010288 0.20450026
-0.059149485 -0.110497355 -0.058538493 -0.048415966 -0.007931685 0.14257488 -0.049567103 -0.046078756
-0.01457249 0.01340746 -0.22996573 0.0069801672 -0.05882956 -0.03399352 0.06629463 -0.0481081
-0.11862565 -0.08277383 -0.08466567 0.05504599 0.073423475 -0.13430494 -0.062287666 0.096525624
-0.28831998 -0.08341096 -0.16098265 0.22448845 0.15001729 -0.09465327 -0.23497935 0.00876992
-0.23635335 0.00986586 -0.026304957 -0.017340533 0.005993052 -0.1961005 -0.040623013 -0.03355677
0.098412886 0.033714123 -0.008893797 0.24957225 0.119619645 -0.040948857 0.07551497 -0.17829904
-0.14939718 -0.25764632 -0.179546 -0.016633155 0.20510432 -0.06366595 -0.025698042 -0.15781316
-0.2120227 -0.07860066 -0.04930146 -0.2858518 0.10241599 -0.13766244 0.078333266 0.1297925
-0.041536402 -0.07186139 -0.092334725 0.033474766 0.10600316 -0.03955577 -0.12684031 -0.03440843
0.030068265 -0.09786368 -0.22426642 -0.08473048 -0.13195778 -0.040117297 0.0913332 -0.07508201
-0.15430078 -0.0146084 -0.07143694 -0.057522513 0.043263976 -0.20908824 -0.03633163 0.1386543
-0.07334125 -0.10471653 -0.045431737 0.10368153 0.18820883 -0.1018797 -0.16695718 0.047017686
0.29930377 -0.19678687 0.19120441 -0.25255346 -0.19975035 0.08533373 0.064907305 0.11971559
0.24928284 0.15898314 -0.14877321 0.22291516 -0.1954045 -0.20748915 -0.11134222 0.10364264
0.25954884 -0.29595727 0.17557687 -0.30182686 -0.1562952 0.18665081 0.28147012 -0.12578517
0.2722533 -0.23814228 0.12685463 0.19474053 -0.29580206 -0.09007852 -0.2340753 -0.21001643
0.26034385 0.0176556 0.25935084 0.25583318 0.14158791 0.15766291 0.19953266 0.19772619
-0.032960854 0.11193029 0.30040926 -0.1581802 -0.27064428 -0.2003892 -0.15424974 -0.235543
0.021573959 0.25057033 0.17564979 -0.2262746 -0.25456834 -0.14261445 -0.21558645 0.044704992
-0.2115769 0.16008495 -0.11794067 0.19481348 -0.1637005 -0.20462394 -0.25008547 -0.20968428
-0.10427688 -0.23919709 -0.17999195 -0.14672627 -0.024370458 -0.27605268 0.0040896405 -0.1783889
0.05654925 0.1465264 0.009292071 -0.094635315 0.18675093 0.08276465 0.010031914 -0.14732128
-0.1614021 -0.16311371 -0.060036078 -0.15045513 0.11387381 0.06394506 0.07080511 -0.22866876
-0.21961567 -0.27864408 0.21806456 -0.13262647 0.07478527 -0.09117909 -0.004158236 0.13741453
-0.065683536 -0.18381727 -0.13288443 -0.16533779 0.04592419 0.17787863 -0.14238109 -0.11416847
0.18464339 -0.07264998 -0.14586572 0.04553954 -0.19775027 0.016571991 0.19329746 -0.0012469582
0.021549486 0.025738662 -0.22937885 -0.24045105 0.07318694 -0.09507254 -0.16325743 0.04663858
-0.2611688 -0.20341277 -0.005019406 0.18712461 0.18402612 -0.07317597 -0.26053777 -0.09923809
00000000: c066 d7bd 2f21 72be 9fe5 7bbc a3cb f4bc
00000010: 5bc8 633d 9d03 c6bd dd50 1a3e efea 64be
00000020: ca7b 263d 3f6a 1d3e 946a 723d 04d6 bdbd
00000030: 235c 463e 2b10 003e d4c2 073e 7e35 45be
00000040: c01b 41be d0c7 98bd 8c4e e1bd bb65 32be
00000050: 5445 4b3d 2369 cdbb 91a7 f53c b72d 97be
00000060: 982b debd 4c39 34be 3874 83bd 0863 a7be
00000070: 917d fabd 3739 ea3c 30e8 cebd 8468 513e
00000080: bb46 72bd 704c e2bd 0fc6 6fbd d24f 46bd
00000090: e6f3 01bc 26ff 113e e006 4bbd 14bd 3cbd
000000a0: 74c1 6ebc f7aa 5b3c 237c 6bbe e3b9 e43b
000000b0: 44f7 70bd ca3c 0bbd 7bc5 873d 000d 45bd
000000c0: 01f2 f2bd 5385 a9bd 3265 adbd e777 613d
000000d0: 0c5f 963d 3c87 09be 5a21 7fbd 3aaf c53d
000000e0: ad9e 93be 5ed3 aabd a3d8 24be 4de0 653e
000000f0: 229e 193e 93d9 c1bd 6d9e 70be b6af 0f3c
00000100: 9d06 72be 6ba4 213c 7e7d d7bc bc0d 8ebc
00000110: 5d61 c43b 92ce 48be 5164 26bd d372 09bd
00000120: b28c c93d d217 0a3d 4ab7 11bc de8f 7f3e
00000130: 25fb f43d fdb9 27bd 98a7 9a3d 0694 36be
00000140: 93fb 18be 38ea 83be e8da 37be 4142 88bc
00000150: de06 523e 4b63 82bd b384 d2bc c699 21be
00000160: 7b1c 59be 62f9 a0bd 54f0 49bd 2b5b 92be
00000170: 79bf d13d 62f7 0cbe 316d a03d 53e8 043e
00000180: 1322 2abd 102c 93bd fd19 bdbd d61c 093d
00000190: 2f18 d93d 3b05 22bd 6de2 01be dbef 0cbd
000001a0: b951 f63c c16c c8bd 19a6 65be 2d87 adbd
000001b0: f11f 07be 0952 24bd e70c bb3d 99c4 99bd
000001c0: 0601 1ebe 1258 6fbc 884d 92bd ba9c 6bbd
000001d0: 9135 313d 3a1b 56be 7ad0 14bd 65fb 0d3e
000001e0: f033 96bd 9f75 d6bd a116 3abd fb56 d43d
000001f0: d1b9 403e 4ea6 d0bd d3f6 2abe 9e95 403d
00000200: 583e 993e 7f82 49be 17cb 433e b04e 81be
00000210: 5b8b 4cbe 73c3 ae3d 1fee 843d 722d f53d
00000220: 0044 7f3e 7acc 223e 0158 18be df43 643e
00000230: 1e18 48be 0978 54be 6407 e4bd 9842 d43d
00000240: 96e3 843e b687 97be 6cca 333e 0d89 9abe
00000250: d90b 20be 6421 3f3e da1c 903e d4cd 00be
00000260: c964 8b3e 92db 73be 2ee6 013e 106a 473e
00000270: 5e73 97be 167b b8bd 6fb1 6fbe 8c0e 57be
00000280: ca4b 853e 7aa2 903c a2c9 843e 91fc 823e
00000290: 6cfc 103e 6372 213e 4a52 4c3e bc78 4a3e
000002a0: f601 07bd b53b e53d 3ecf 993e fef9 21be
000002b0: e391 8abe d432 4dbe a5f3 1dbe 2f32 71be
000002c0: dfbb b03c c14a 803e 8add 333e 87b4 67be
000002d0: c856 82be 8609 12be b2c2 5cbe 951c 373d
000002e0: 9da7 58be 4fed 233e e18a f1bd 2f7d 473e
000002f0: 1ba1 27be f088 51be 340b 80be 7ab7 56be
00000300: 1e8f d5bd 15f0 74be cf4f 38be 693f 16be
00000310: 8ea4 c7bc c756 8dbe 6402 863b 94ab 36be
00000320: 30a0 673d 040b 163e c53d 183c 29d0 c1bd
00000330: a33b 3f3e 8380 a93d e65c 243c 64db 16be
00000340: 9846 25be 4807 27be 64e8 75bd e910 1abe
00000350: ac36 e93d a1f5 823d 4502 913d 2528 6abe
00000360: eee2 60be 70aa 8ebe 514c 5f3e 3ccf 07be
00000370: 0529 993d 1abc babd d041 88bb 65b6 0c3e
00000380: 1785 86bd 983a 3cbe db12 08be 4f4e 29be
00000390: 011b 3c3d d125 363e 59cc 11be 29d1 e9bd
000003a0: 2813 3d3e 83c9 94bd d35d 15be ab87 3a3d
000003b0: 0c7f 4abe fcc1 873c c5ef 453e f970 a3ba
000003c0: 8c88 b03c e3d9 d23c 4ae2 6abe cd38 76be
000003d0: 09e3 953d 64b5 c2bd f52c 27be 1808 3f3d
000003e0: ebb7 85be 704b 50be d479 a4bb 989d 3f3e
000003f0: 5871 3c3e 48dd 95bd 3565 85be 573d cbbd

lstm.weight_hh_l0 f4 [256, 64]
-0.031544954 -0.02133179 -0.13163236 0.026050983 0.016625583 -0.22928207 0.011221917 -0.08386236
-0.028857766 0.08402754 -0.075205185 0.17844933 -0.08585577 -0.19282748 -0.07142701 -0.06535168
-0.015481914 0.053704802 -0.02962402 0.10524291 -0.19449638 0.054841716 0.20399988 0.1011671
-0.14308348 0.006792132 0.2461678 -0.03175634 -0.16286409 -0.0657264 0.14306715 -0.033742707
0.035418145 -0.017822757 0.1859712 0.033626106 0.2254392 0.13684388 -0.049855355 -0.065481655
0.082335025 -0.18318108 -0.16820052 -0.052584443 0.03162477 -0.060487807 -0.015943471 0.043746177
-0.090424225 0.041067068 -0.14335607 0.16529979 -0.056976587 0.18381621 0.028631859 -0.012294183
0.15317477 -0.17281006 -0.035790622 0.1960801 -0.20723066 0.19423191 0.123421445 0.10130963
-0.007965013 0.05520781 -0.15928449 0.1640694 0.005584109 -0.19217685 0.16945179 0.0047477437
0.15443806 0.11481665 0.08109838 0.044120546 -0.16810572 -0.10763556 -0.21187504 -0.20713943
-0.079846956 0.051124666 -0.03841413 0.010345714 -0.07002726 -0.04729393 0.15810506 0.2061858
0.02595192 0.11707405 0.1805138 -0.11247433 -0.13718519 0.059226006 -0.026362782 -0.15602459
-0.021979947 0.07351336 -0.030943586 -0.061282493 0.14674215 0.1386552 -0.07072795 0.005189124
-0.1368688 -0.060228698 -0.17963578 -0.033079773 -0.08650001 0.018805774 -0.21728449 0.0133135095
-0.12273277 0.032494273 -0.14435783 0.095783085 -0.16174486 0.18240327 0.12660496 0.13594072
0.15278201 -0.13483158 0.067473345 0.18788092 -0.16495338 0.17358346 -0.010859587 -0.012941559
-0.13941257 0.02318067 -0.029942399 0.090999834 -0.05340315 -0.0460211 -0.070959724 0.06557808
-0.026403219 -0.038895566 0.066102766 0.03776041 -0.18991636 0.016353494 -0.20848459 0.03380259
-0.058953084 0.05200568 -0.1269392 0.036037337 -0.1418569 0.07547718 0.17778637 0.13990428
-0.08028059 -0.048467595 0.118196465 -0.16757716 -0.00026821287 0.022612315 0.029931718 -0.054328203
0.042489853 0.122929975 0.06899752 0.018444376 0.08086334 0.09262823 0.02398129 -0.02643442
-0.11233879 -0.054078672 -0.12406835 0.010725875 -0.013200891 0.059531145 -0.15133712 -0.010279758
-0.019776167 -0.02808795 -0.13903801 0.063636534 -0.020279694 0.072250694 0.14802244 -0.083263464
0.21953326 -0.15232308 -0.04883483 0.16190727 -0.049559027 0.14311789 0.152601 -0.069344334
-0.13899238 0.19201732 -0.108248666 0.042359713 0.101427294 -0.24671425 -0.06231212 -0.02244016
0.110203445 0.03011842 0.13759652 0.1566248 -0.15708171 0.0289778 -0.05033109 -0.119906865
-0.1238275 0.2530681 -0.06915337 0.06947046 -0.10444172 -0.088212684 0.07220628 0.15081902
-0.043442875 0.19805987 0.11672703 -0.12067794 -0.0063451864 0.095747694 0.005209183 -0.1308343
-0.05969761 -0.013114526 0.017007405 -0.043948624 0.12277697 -0.057468645 -0.0803532 0.0063825226
0.01711078 -0.19216518 -0.1145983 -0.079332985 0.004129593 0.14916945 -0.13360135 0.11498822
-0.23294096 -0.15467134 -0.04445268 0.24090105 -0.09665126 0.2763297 0.06428209 0.09029258
0.18048923 -0.0114691965 0.19880064 0.007420533 -0.04985875 0.18006867 0.048633236 0.16889794
00000000: 4835 01bd 02c0 aebc a2ca 06be df68 d53c
00000010: 6032 883c ebc8 6abe 22dc 373c 07c0 abbd
00000020: 1f67 ecbc a216 ac3d 2d05 9abd 6cbb 363e
00000030: 26d5 afbd 9174 45be 5348 92bd 1ad7 85bd
00000040: dba7 7dbc 91f9 5b3d 13ae f2bc 9889 d73d
00000050: 0f2a 47be b5a1 603d 58e5 503e b230 cf3d
00000060: 7a84 12be 8890 de3b 6913 7c3e f012 02bd
00000070: d8c5 26be 909b 86bd 3280 123e cb35 0abd
00000080: 9e12 113d 0801 92bc 3c6f 3e3e 87bb 093d
00000090: 89d9 663e cd20 0c3e 2135 4cbd 3f1b 86bd
000000a0: 449f a83d d293 3bbe c23c 2cbe c962 57bd
000000b0: fa88 013d 10c2 77bd e29b 82bc 312f 333d
000000c0: 5630 b9bd f135 283d efcb 12be 5944 293e
000000d0: 4860 69bd 513a 3c3e 5c8d ea3c 8a6d 49bc
000000e0: d9d9 1c3e 1ff5 30be 3099 12bd 39c9 483e
000000f0: 4634 54be bbe4 463e 62c4 fc3d 6c7b cf3d
00000100: b07f 02bc 9621 623d 791b 23be cf01 283e
00000110: e7fa b63b 02ca 44be c584 2d3e f692 9b3b
00000120: 0325 1e3e fe24 eb3d e816 a63d bfb7 343d
00000130: e823 2cbe 0870 dcbd c5f5 58be 5c1c 54be
00000140: cd86 a3bd 1968 513d 2358 1dbd 1281 293c
00000150: 746a 8fbd 48b7 41bd 4be6 213e 5f22 533e
00000160: 1f99 d43c 85c4 ef3d 9cd8 383e f158 e6bd
00000170: 467a 0cbe f896 723d c3f6 d7bc e9c4 1fbe
00000180: 4a0f b4bc 2c8e 963d 677d fdbc 5a03 7bbd
00000190: 9343 163e a1fb 0d3e d1d9 90bd 8709 aa3b
000001a0: 5627 0cbe 5eb2 76bd 71f2 37be a87e 07bd
000001b0: eb26 b1bd 910e 9a3c d37f 5ebe e820 5a3c
000001c0: 525b fbbd b718 053d 8ad2 13be ec29 c43d
000001d0: 72a0 25be ecc7 3a3e bba4 013e 0b34 0b3e
000001e0: e372 1c3e 4a11 0abe 772f 8a3d db63 403e
000001f0: 8ae9 28be ddbf 313e 69ec 31bc d508 54bc
00000200: 2bc2 0ebe 63e5 bd3c c349 f5bc 1f5e ba3d
00000210: 43bd 5abd 9f80 3cbd 5553 91bd cd4d 863d
00000220: 904b d8bc f550 1fbd e360 873d a9aa 1a3d
00000230: 6f79 42be c3f7 853c fc7c 55be 9674 0a3d
00000240: ca78 71bd e803 553d 5afc 01be e39b 133d
00000250: ef42 11be c893 9a3d a10d 363e 1143 0f3e
00000260: 266a a4bd f585 46bd fd10 f23d 5999 2bbe
00000270: ec9e 8cb9 763d b93c 5d33 f53c 4087 5ebd
00000280: d709 2e3d b6c2 fb3d 924e 8d3d a918 973c
00000290: ae9b a53d dfb3 bd3d 6974 c43c ff8c d8bc
000002a0: e111 e6bd 9981 5dbd 8c17 febd 95bb 2f3c
000002b0: 8d48 58bc eed6 733d 1ef8 1abe 6e6c 28bc
000002c0: a101 a2bc b318 e6bc fb5f 0ebe df53 823d
000002d0: 9a21 a6bc 2cf8 933d 3293 173e 0986 aabd
000002e0: 54cd 603e 95fa 1bbe 0807 48bd 05cb 253e
000002f0: 68fe 4abd 7f8d 123e 7043 1c3e 6704 8ebd
00000300: 0554 0ebe 30a0 443e 7ab1 ddbd 6181 2d3d
00000310: 1db9 cf3d a9a2 7cbe fe3a 7fbd 6dd4 b7bc
00000320: 58b2 e13d e8ba f63c 1ae6 0c3e 4062 203e
00000330: 07da 20be da62 ed3c f927 4ebd bb91 f5bd
00000340: 4699 fdbd 2492 813e 48a0 8dbd 8746 8e3d
00000350: 8ae5 d5bd daa8 b4bd e3e0 933d 4d70 1a3e
00000360: 28f1 31bd 35d0 4a3e 950e ef3d ff25 f7bd
00000370: 48eb cfbb 5e17 c43d cbb1 aa3b 6df9 05be
00000380: 7b85 74bd 4fde 56bc 1d53 8b3c 7903 34bd
00000390: 7e72 fb3d 3e64 6bbd 3890 a4bd 7b24 d13b
000003a0: e82b 8c3c f3c6 44be 83b2 eabd 5579 a2bd
000003b0: 8951 873b e0bf 183e cbce 08be f27e eb3d
000003c0: 1388 6ebe 2a62 1ebe 0314 36bd c4ae 763e
000003d0: 19f1 c5bd 167b 8d3e 54a6 833d 51eb b83d
000003e0: 2bd2 383e 4ce9 3bbc 6592 4b3e f127 f33b
000003f0: b038 4cbd ec63 383e a533 473d 95f3 2c3e

lstm.bias_ih_l0 f4 [256]
0.096479304 0.100540385 0.16144697 0.31122497 0.15164322 0.07370503 0.03784722 -0.051418763
0.2380603 -0.04218428 0.049152967 0.26366517 0.12824298 0.1781567 0.10182617 0.111868314
0.20572157 0.31551036 0.23467766 0.087595 0.16290636 0.13206144 0.11106727 0.056220606
0.214236 0.20677546 0.068876535 0.18200395 0.19531086 0.045798372 0.2325536 0.17614923
0.27229592 0.13080876 0.18897036 0.06399083 0.030357549 0.13982856 -0.0011968231 -0.005410131
0.1606329 0.1603438 0.04426712 0.027673317 0.05002487 0.05541272 -0.00042380713 0.1375935
0.05886471 0.21426165 0.11003241 0.0856057 0.094743736 0.00015869632 0.092871964 -0.05607284
0.12890543 0.013198686 0.015981011 0.0078924 0.19424786 0.10786204 0.088369265 0.21359845
-0.0872651 -0.105974495 -0.06979402 -0.05269768 0.1242012 0.09621092 0.012688497 -0.033436496
-0.027286952 -0.08660892 -0.023280554 -0.01954662 -0.06368934 -0.08575457 0.039539687 0.07866311
0.08980318 0.03396433 -0.11729572 -0.04545508 -0.014651215 0.08174419 0.016795078 0.00928903
-0.03270768 -0.07954842 0.07865966 0.019405605 0.087516665 0.1413274 -0.12857798 0.060907196
-0.10550436 0.10867937 0.038639933 -0.035035152 0.03311528 0.021831295 -0.045098938 0.031943154
0.048687976 0.09028511 -0.06544253 0.12829725 0.10092972 0.08656336 0.0035886609 -0.09554392
-0.016592592 -0.030245427 -0.09917878 0.16419524 -0.065623395 -0.10128377 0.124123886 0.092188105
-0.09225976 -0.015886486 -0.013287113 0.06807321 0.062377054 0.03835072 0.057495777 0.12166021
-0.12629683 0.095350176 0.022005066 -0.07070449 -0.014904018 -0.14391442 0.058776688 -0.043651216
0.009662582 0.06565335 -0.074101724 0.040890697 -0.16695556 0.0047482173 -0.033030346 -0.13261716
-0.10081549 -0.06426306 -0.018669933 0.033654235 0.062241998 0.13411908 0.05161859 0.07808087
0.09757775 0.10377479 0.07080755 -0.13468897 0.026634902 0.1479766 -0.051285066 -0.14594547
-0.062071312 0.16652262 0.024895245 -0.066093996 -0.021956416 0.21162719 -0.117376365 -0.0046236115
-0.067611404 -0.09141534 -0.109945655 -0.049729988 0.07391931 0.09759952 -0.1260723 0.027680451
-0.20367971 -0.05944596 -0.074745156 0.030749392 -0.05585413 0.11250684 0.071212344 0.13104397
0.15179251 -0.107302435 0.09312137 0.0794371 -0.09179003 0.10450085 0.09817382 -0.10117157
0.2623554 0.30514592 0.024314221 0.2186701 0.0062084296 -0.05060998 0.08074276 0.12914985
0.09345351 0.18592577 0.052326098 0.28370595 0.12803298 0.09525702 0.0769854 -0.046066195
0.23492922 0.1313921 0.026999654 0.052037127 -0.010027062 0.16860953 0.18781424 0.06816894
0.16936651 0.00097209046 0.03330807 0.14642915 0.14976132 0.026748417 0.12901671 0.026444908
0.101125464 0.06904651 0.1438078 0.22185615 -0.013837407 0.12724611 -0.06637652 0.19905318
-0.096165955 0.037432823 0.22863306 0.04166602 0.039628793 0.1488686 0.011465247 0.120217845
-0.02152419 0.18238114 -0.012954203 0.024747372 0.123363554 -0.006079433 0.12995048 -0.051527113
0.09082943 -0.059967484 0.03560725 0.23739374 0.17673095 0.22619404 0.24668038 0.09535691
00000000: f196 c53d 1ee8 cd3d 5b52 253e e158 9f3e
00000010: 5c48 1b3e aaf2 963d b005 1b3d 7b9c 52bd
00000020: 14c6 733e 6cc9 2cbd 9f54 493d 1fff 863e
00000030: 2152 033e b66e 363e 3d8a d03d 371b e53d
00000040: ada8 523e 938a a13e 574f 703e 0265 b33d
00000050: edd0 263e 1d3b 073e 3d77 e33d 9447 663d
00000060: af60 5b3e f2bc 533e 240f 8d3d 3e5f 3a3e
00000070: 92ff 473e 1397 3b3d 8822 6e3e 7760 343e
00000080: 5f6a 8b3e bbf2 053e 7281 413e a00d 833d
00000090: 65b0 f83c 382f 0f3e b8de 9cba 7847 b1bb
000000a0: f37c 243e 2a31 243e 7151 353d 27b3 e23c
000000b0: e1e6 4c3d 73f8 623d 6e32 deb9 4fe5 0c3e
000000c0: 1f1c 713d 6867 5b3e ac58 e13d 0b52 af3d
000000d0: 0109 c23d b867 2639 a833 be3d a2ac 65bd
000000e0: c9ff 033e 4d3f 583c 9cea 823c 204f 013c
000000f0: e9e8 463e c6e6 dc3d f2fa b43d 8db9 5a3e
00000100: 0bb8 b2bd 2809 d9bd 2bf0 8ebd 86d9 57bd
00000110: 335d fe3d 3b0a c53d 6ae3 4f3c b5f4 08bd
00000120: e388 dfbc 0460 b1bd dcb6 bebc 3c20 a0bc
00000130: 8f6f 82bd 18a0 afbd 5ef4 213d 201a a13d
00000140: bbea b73d 2e1e 0b3d bd38 f0bd 1b2f 3abd
00000150: a60b 70bc 7f69 a73d d595 893c 0431 183c
00000160: 7df8 05bd 48ea a2bd 5118 a13d 81f8 9e3c
00000170: f03b b33d 21b8 103e f2a9 03be d379 793d
00000180: ab12 d8bd 4a93 de3d e844 1e3d 0581 0fbd
00000190: e3a3 073d 8bd7 b23c aab9 38bd d3d6 023d
000001a0: 0b6d 473d 66e7 b83d bc06 86bd 5b60 033e
000001b0: 3eb4 ce3d 2248 b13d bd2f 6b3b 88ac c3bd
000001c0: 30ed 87bc 42c5 f7bc 3f1e cbbd cc22 283e
000001d0: 8f65 86bd dd6d cfbd aa34 fe3d 1ecd bc3d
000001e0: aff2 bcbd 6024 82bc 31b2 59bc f869 8b3d
000001f0: 157f 7f3d a515 1d3d b180 6b3d fd28 f93d
00000200: f553 01be f446 c33d f843 b43c 84cd 90bd
00000210: fb2f 74bc 4d5e 13be d3bf 703d 9ecb 32bd
00000220: ce4f 1e3c 4375 863d a5c2 97bd 017d 273d
00000230: 66f6 2abe ef96 9b3b d44a 07bd cbcc 07be
00000240: 5a78 cebd 5a9c 83bd b0f1 98bc 06d9 093d
00000250: 77f1 7e3d 8356 093e 046e 533d dde8 9f3d
00000260: d8d6 c73d e187 d43d 8c03 913d e8eb 09be
00000270: 7031 da3c 2e87 173e 4a10 52bd bb72 15be
00000280: 7d3e 7ebd e884 2a3e 1df1 cb3c 4a5c 87bd
00000290: f1dd b3bc ccb4 583e 0563 f0bd aa81 97bb
000002a0: d977 8abd f737 bbbd 302b e1bd acb1 4bbd
000002b0: 0263 973d 42e2 c73d 1919 01be 1dc2 e23c
000002c0: 6a91 50be 9b7d 73bd fd13 99bd 26e6 fb3c
000002d0: 4dc7 64bd fc69 e63d c7d7 913d 6430 063e
000002e0: 7f6f 1b3e 61c1 dbbd 6bb6 be3d ebaf a23d
000002f0: 69fc bbbd 8b04 d63d 5b0f c93d 0a33 cfbd
00000300: 7253 863e 163c 9c3e 9e2e c73c 0eeb 5f3e
00000310: 1570 cb3b 694c 4fbd 765c a53d dc3f 043e
00000320: 8e64 bf3d 5363 3e3e e453 563d e841 913e
00000330: 141b 033e 1d16 c33d 85aa 9d3d e8af 3cbd
00000340: 4991 703e a78b 063e 612e dd3c e224 553d
00000350: 8c48 24bc faa7 2c3e 6052 403e 289c 8b3d
00000360: 6a6e 2d3e e3d3 7e3a 0b6e 083d 86f1 153e
00000370: 085b 193e 7f1f db3c f51c 043e fea2 d83c
00000380: de1a cf3d 4268 8d3d 5a42 133e 422e 633e
00000390: 4bb6 62bc ce4c 023e 6af0 87bd 99d4 4b3e
000003a0: a8f2 c4bd 2953 193d c91e 6a3e fda9 2a3d
000003b0: cd51 223d 0371 183e bbd8 3b3c c634 f63d
000003c0: 8053 b0bc 1fc2 3a3e de3d 54bc 00bb ca3c
000003d0: 08a6 fc3d fb35 c7bb bd11 053e 180e 53bd
000003e0: c804 ba3d 77a0 75bd e8d8 113d 5817 733e
000003f0: f5f8 343e 699f 673e c899 7c3e 7c4a c33d

lstm.bias_hh_l0 f4 [256]
0.24830264 0.1362988 0.011892263 0.19281083 0.059306197 -0.04805455 0.10899479 -0.042520672
0.14124085 0.119399846 0.04851144 0.3299746 0.2553403 0.13824928 0.068308346 -0.08268843
0.2089924 0.12233607 0.13873056 0.12068904 0.10318209 0.17081596 0.26521108 0.054155797
0.2586213 0.20264503 0.1266391 0.113856204 0.057305906 0.15444236 0.20869017 0.27181122
0.07579368 0.1307758 0.28647438 0.22271894 0.063388534 0.030972533 -0.01473535 0.029570676
-0.015628159 0.06957943 0.15265916 0.13881178 0.21733849 -0.05192193 0.005809859 0.16964628
0.0027493264 0.033961628 0.0655787 0.17921968 0.19827539 0.015177602 0.18727691 0.1362995
0.17372176 0.18735862 0.1259518 0.20158307 0.005249563 0.06791949 0.073291406 0.20047192
0.11527415 -0.07653496 0.014958681 -0.107020594 0.035219844 -0.13720243 -0.004858381 -0.05883884
-0.028551208 -0.06318091 0.15983897 -0.11896649 -0.06531587 0.016553726 -0.08105355 0.0869312
-0.0055002016 -0.10651025 0.000172396 -0.021332918 -0.16535237 0.093395285 -0.013729213 0.03627689
0.097881675 0.1056568 0.032705892 0.045291785 0.007815166 0.09260114 -0.09292499 0.14516352
-0.04086429 0.12696739 -0.0045152595 0.06482976 -0.015765382 -0.036438186 -0.075570635 0.07751452
-0.06490093 -0.021756545 -0.083496995 0.09708078 -0.05364569 0.08697747 0.1275429 0.10344504
-0.07202308 -0.11662217 -0.006484925 0.01955388 0.063645504 0.041586794 0.112276606 0.0795072
-0.019335505 0.023593932 -0.0015793208 0.05618155 -0.0889516 -0.0026327844 -0.03979924 0.10398565
-0.117058076 -0.018051602 -0.11463678 0.090573415 -0.027707567 0.056107737 0.1376045 0.019039264
0.08765965 0.1709739 -0.12761882 -0.06479782 -0.20120871 -0.15910167 -0.18645254 -0.09575028
0.028883327 0.0468397 0.08491095 -0.00030227585 -0.038172323 0.06613162 0.09285128 0.24570681
-0.117298126 0.092823744 0.13751647 -0.01889307 -0.07310913 0.06243415 0.07220579 -0.21010582
0.110161245 0.2136601 -0.00071573316 0.028166031 0.18076348 0.048058994 -0.11953928 0.035953484
-0.039527267 -0.14006057 -0.072458886 -0.17618391 -0.033616293 0.07493658 -0.124114685 -0.044908043
-0.2032955 0.12314224 -0.09944523 0.041968215 -0.14817424 0.087538466 0.056529205 0.061223336
0.07151472 -0.16168234 0.10969009 0.1535025 -0.0417387 0.1110046 -0.0002961374 0.11680286
0.25546256 0.14963439 0.07088899 0.22659202 0.011448444 0.114496045 0.078192115 -0.02123764
0.11281252 -0.03775686 0.0795388 0.08037814 0.13107853 0.100217596 0.18380806 -0.04008287
0.17732278 0.21763712 0.13768865 0.114188544 -0.017015666 0.12192755 0.20711038 0.05734899
0.06034146 0.110914685 0.1280875 0.110399954 0.06582709 0.05613479 0.16649422 0.08263711
0.23763669 -0.024710624 0.08492333 0.23519981 0.028945746 0.015093916 0.08592956 0.16545664
0.13449454 0.15174088 0.06697369 0.10547458 0.19935241 0.079317644 0.056559324 0.13026406
0.16251156 0.153197 0.0147890495 0.17308655 0.20541976 0.16921398 0.00079679984 -0.00846237
0.2651094 0.089389324 -0.030830665 0.19422852 -0.021960739 0.016473576 0.0968257 0.095978625
00000000: 0c43 7e3e ea91 0b3e c4d7 423c 3470 453e
00000010: 0eeb 723d d9d4 44bd a938 df3d 282a 2ebd
00000020: 71a1 103e e887 f43d efb3 463d 6ef2 a83e
00000030: f7bb 823e 3891 0d3e 3fe5 8b3d 8d58 a9bd
00000040: 1b02 563e 558b fa3d 620f 0e3e d12b f73d
00000050: 2251 d33d 61ea 2e3e bfc9 873e 78d2 5d3d
00000060: 036a 843e 2e82 4f3e aead 013e 712d e93d
00000070: 99b9 6a3d 2326 1e3e e0b2 553e d72a 8b3e
00000080: b839 9b3d 17ea 053e c5ac 923e 6f10 643e
00000090: d9d1 813d 1cba fd3c 8a6c 71bc 343e f23c
000000a0: a006 80bc a97f 8e3d af52 1c3e ad24 0e3e
000000b0: fb8d 5e3e 17ac 54bd a160 be3b c1b7 2d3e
000000c0: 0b2e 343b 591b 0b3d 204e 863d 5d85 373e
000000d0: b408 4b3e 7aab 783c 85c5 3f3e 1992 0b3e
000000e0: 1ee4 313e f0da 3f3e 82f9 003e cb6b 4e3e
000000f0: 8704 ac3b 6019 8b3d ce19 963d 8348 4d3e
00000100: db14 ec3d 5cbe 9cbd 4115 753c 9d2d dbbd
00000110: af42 103d cb7e 0cbe 0e33 9fbb ff00 71bd
00000120: 39e4 e9bc fe64 81bd d4ac 233e b4a4 f3bd
00000130: 54c4 85bd ae9b 873c 67ff a5bd fc08 b23d
00000140: 093b b4bb 0c22 dabd 33c5 3439 5fc2 aebc
00000150: 2252 29be 0746 bf3d 7ef0 60bc 1497 143d
00000160: 3076 c83d 9862 d83d 9df6 053d e183 393d
00000170: 2f0b 003c aba5 bd3d 754f bebd bfa5 143e
00000180: 5061 27bd bd03 023e bef4 93bb 77c5 843d
00000190: 6726 81bc 3540 15bd c7c4 9abd efbf 9e3d
000001a0: c7ea 84bd c83a b2bc 7900 abbd 4ad2 c63d
000001b0: 95bb 5bbd 3e21 b23d 9b9a 023e feda d33d
000001c0: d680 93bd 9bd7 eebd 7e7f d4bb 752f a03c
000001d0: 9358 823d ea56 2a3d 47f1 e53d acd4 a23d
000001e0: 7e65 9ebc 1048 c13c 3601 cfba a01e 663d
000001f0: 422c b6bd cb8a 2cbb 8704 23bd 6ef6 d43d
00000200: 25bc efbd f4e0 93bc b0c6 eabd 8e7e b93d
00000210: fbfa e2bc 3ad1 653d 32e8 0c3e 3bf8 9b3c
00000220: e786 b33d c813 2f3e 82ae 02be b8b4 84bd
00000230: a809 4ebe 8ceb 22be 6aed 3ebe b918 c4bd
00000240: ba9c ec3c fcda 3f3d cbe5 ad3d c77a 9eb9
00000250: 955a 1cbd 0470 873d d028 be3d 919a 7b3e
00000260: 003a f0bd 601a be3d 1ed1 0c3e a4c5 9abc
00000270: 3dba 95bd f4ba 7f3d a1e0 933d fb25 57be
00000280: 389c e13d b7c9 5a3e 0aa0 3bba 73bc e63c
00000290: 101a 393e 82d9 443d 03d1 f4bd f643 133d
000002a0: 58e7 21bd 0a6c 0fbe 5365 94bd 8e69 34be
000002b0: 3db1 09bd 5a78 993d d72f febd 7ff1 37bd
000002c0: b22c 50be 0032 fc3d f1a9 cbbd dde6 2b3d
000002d0: fdba 17be 5e47 b33d 2b8b 673d 52c5 7a3d
000002e0: 4f76 923d 0e90 25be 33a5 e03d c22f 1d3e
000002f0: 33f6 2abd 6156 e33d e442 9bb9 5636 ef3d
00000300: fdcb 823e c239 193e 3f2e 913d bd07 683e
00000310: 4192 3b3c e77c ea3d 3023 a03d 8ffa adbc
00000320: 400a e73d f0a6 1abd 3de5 a23d 4b9d a43d
00000330: 7339 063e e23e cd3d 2e38 3c3e ef2d 24bd
00000340: 1a94 353e 44dc 5e3e 41fe 0c3e afdb e93d
00000350: 7064 8bbc 27b5 f93d be14 543e c6e6 6a3d
00000360: 9b28 773d 3d27 e33d 5f29 033e 5f19 e23d
00000370: 5ad0 863d 98ed 653d 767d 2a3e a53d a93d
00000380: 0857 733e ef6d cabc 48ec ad3d 38d8 703e
00000390: a11f ed3c 794c 773c d6fb af3d 776d 293e
000003a0: f0b8 093e f661 1b3e 8129 893d 0e03 d83d
000003b0: 0a23 4c3e 4a71 a23d c0aa 673d f163 053e
000003c0: 6e69 263e addf 1c3e c54d 723c 9a3d 313e
000003d0: 8f59 523e 6e46 2d3e 55e0 503a c1a5 0abc
000003e0: 6bbc 873e c011 b73d 9790 fcbc d7e3 463e
000003f0: 02e7 b3bc 98f3 863c 8d4c c63d 7190 c43d

lstm.weight_ih_l1 f4 [256, 64]
-0.09525439 0.010894466 -0.11754438 0.12200301 -0.030031772 0.058731046 0.019365713 0.047579955
0.16975884 0.042021506 0.053769976 0.04865947 -0.002118791 0.060720034 -0.041314702 0.08263139
0.04654518 -0.09030384 -0.059092972 0.060515754 -0.0815525 0.105128765 0.10819611 0.15948416
-0.007024084 -0.0052396576 0.014203351 0.025958579 0.022289567 -0.078165345 -0.05706708 -0.16007227
-0.0059136758 0.13339816 -0.018582126 0.11196521 0.08428297 0.00056665234 -0.085567385 0.040423565
-0.03007306 -0.06981669 -0.106914535 -0.0924005 -0.060565542 0.16868147 0.038238384 0.06367775
-0.113453746 -0.096025564 -0.0063541443 0.029411187 -0.0045128576 -0.08363476 0.097692154 -0.0016849607
-0.06623304 -0.08771864 -0.05532462 0.007351944 -0.013556608 0.096561454 0.14125106 -0.08734198
0.015529546 0.025299534 -0.07559489 0.07114203 -0.024292998 -0.01200372 0.15210432 -0.111947566
0.010493529 0.13861057 0.0836134 -0.03972915 -0.06150309 0.0028577964 0.048450753 -0.12935346
0.018652244 0.037152603 0.020430258 0.045962032 -0.051387608 -0.13046159 0.15560274 0.10725391
-0.076647446 0.0889875 -0.061346926 -0.0021604577 -0.01655379 -0.052138824 0.042391647 0.058040448
0.00025799155 -0.06788595 0.019676454 0.047044434 0.0015897842 0.14287247 0.023127632 -0.07018423
-0.09179167 0.06600973 -0.07326606 0.035549514 0.004814112 0.026967488 0.08820293 -0.008044034
-0.07341672 -0.10417663 -0.1224877 -0.053258564 -0.1254268 0.17071667 0.06706147 -0.019902509
-0.052297644 -0.15345284 0.010391866 0.1819014 0.011319152 0.035421964 0.118769504 -0.07620975
-0.094900124 0.1793871 -0.11571647 -0.0035193006 -0.13236691 -0.21499562 0.07866267 -0.12376986
0.13398068 0.061737135 -0.111510314 0.16609977 -0.01005636 -0.14970791 -0.06190698 -0.04922075
-0.11805816 -0.02240692 0.010789493 0.057642937 -0.15373175 -0.09820556 0.016465336 0.015770832
-0.04939319 0.15235709 0.082097374 -0.13046783 -0.0831531 0.067381725 -0.04028328 -0.19507836
0.09425627 0.04438348 -0.017825134 0.01568988 0.07925488 -0.028307352 -0.12739843 -0.0060860454
-0.10992834 0.017330272 -0.1592112 -0.075612485 0.07544259 -0.0014196385 -0.13703182 0.073665075
-0.1352268 -0.060153745 -0.05981104 0.07121422 -0.08118784 0.18506883 0.032178596 0.039973773
0.081033565 -0.19496292 0.08482739 0.11723527 -0.1749469 0.15408137 -0.004661783 0.0070263264
0.018317722 0.102344476 -0.04786628 0.031734537 0.07877235 -0.1096932 0.04576254 -0.070295684
0.19198665 0.13630074 -0.009748898 0.12562878 -0.27854088 -0.19686091 -0.07133093 -0.106572375
-0.06753637 0.041500945 0.08543001 0.044808988 -0.21805468 0.010554179 0.20506474 0.05437514
-0.041234147 0.050740883 0.03021598 -0.16155373 -0.1533787 0.21040715 -0.11680988 -0.20737153
0.12834056 0.15715918 0.16466591 0.16717651 0.20677467 0.11937823 -0.003181739 -0.10624732
-0.12900363 -0.20256312 -0.120045565 -0.24916002 -0.12911242 0.027820582 -0.19058028 -0.044079233
-0.18819286 0.15490912 -0.12160047 0.18959178 -0.025418902 0.2435486 0.07835361 0.04759102
0.24791367 -0.0014188498 0.07364691 0.14634937 -0.1660359 0.19341946 -0.054093864 0.1075733
00000000: bc14 c3bd b47e 323c 1cbb f0bd b7dc f93d
00000010: 3105 f6bc f78f 703d d8a4 9e3c 33e3 423d
00000020: 43d5 2d3e be1e 2c3d e83d 5c3d 274f 473d
00000030: 6adb 0abb 92b5 783d 9b39 29bd a53a a93d
00000040: 29a6 3e3d 38f1 b8bd 790b 72bd 5edf 773d
00000050: ff04 a7bd c04d d73d ec95 dd3d d14f 233e
00000060: 4a2a e6bb 6fb1 abbb 2cb5 683c 16a7 d43c
00000070: 9c98 b63c 2715 a0bd 2cbf 69bd fce9 23be
00000080: 82c7 c1bb 8799 083e 8b39 98bc 044e e53d
00000090: 8d9c ac3d 658b 143a f43d afbd 2e93 253d
000000a0: c75b f6bc 0efc 8ebd 02f6 dabd 793c bdbd
000000b0: 9313 78bd d6ba 2c3e da9f 1c3d 7b69 823d
000000c0: 705a e8bd 0da9 c4bd 6d36 d0bb bbef f03c
000000d0: 98e0 93bb b348 abbd d312 c83d e6d9 dcba
000000e0: 30a5 87bd d5a5 b3bd 129c 62bd 94e8 f03b
000000f0: 891c 5ebc 03c2 c53d 1ea4 103e 5ae0 b2bd
00000100: a36f 7e3c f840 cf3c 7ed1 9abd eab2 913d
00000110: 1c02 c7bc 40ab 44bc 3cc1 1b3e c444 e5bd
00000120: 0ded 2b3c eeef 0d3e 813d ab3d 08bb 22bd
00000130: aaea 7bbd de49 3b3b 4c74 463d 3c75 04be
00000140: 97cc 983c 542d 183d 5b5d a73c af42 3c3d
00000150: d07b 52bd b997 05be 5356 1f3e f0a7 db3d
00000160: 56f9 9cbd 143f b63d ea46 7bbd 7796 0dbb
00000170: d09b 87bc 858f 55bd dda2 2d3d d2bb 6d3d
00000180: 0a43 8739 ca07 8bbd 8430 a13c aab1 403d
00000190: 4e60 d03a 294d 123e 2976 bd3c c0bc 8fbd
000001a0: 45fd bbbd 1c30 873d 840c 96bd 5e9c 113d
000001b0: b3bf 9d3b ecea dc3c bda3 b43d 20cb 03bc
000001c0: 815b 96bd 8f5a d5bd d5da fabd a725 5abd
000001d0: e26f 00be 5ad0 2e3e 8657 893d 960a a3bc
000001e0: 0e36 56bd be22 1dbe a542 2a3c 5c44 3a3e
000001f0: f773 393c 9f16 113d 6d3d f33d db13 9cbd
00000200: ff5a c2bd 40b1 373e c2fc ecbd 11a4 66bb
00000210: 318b 07be d027 5cbe e519 a13d 0d7b fdbd
00000220: 3b32 093e 14e0 7c3d 855f e4bd 0f16 2a3e
00000230: 6ec3 24bc 084d 19be 2c92 7dbd b29b 49bd
00000240: 7ac8 f1bd b88e b7bc 6ac6 303c 001b 6c3d
00000250: db6b 1dbe ff1f c9bd 50e2 863c d531 813c
00000260: 8350 4abd 7f03 1c3e ab22 a83d 5c99 05be
00000270: 2c4c aabd 6eff 893d 1500 25bd 9fc2 47be
00000280: 6e09 c13d 74cb 353d 0406 92bc 1088 803c
00000290: 6250 a23d d2e4 e7bc bc74 02be 736d c7bb
000002a0: 1c22 e1bd 37f8 8d3c 4308 23be b8da 9abd
000002b0: a581 9a3d 2a13 baba 1252 0cbe b7dd 963d
000002c0: e578 0abe c663 76bd 6cfc 74bd c3d8 913d
000002d0: cf45 a6bd af82 3d3e b4cd 033d 8abb 233d
000002e0: edf4 a53d 5ca4 47be fcb9 ad3d 0c19 f03d
000002f0: 4825 33be 82c7 1d3e dfc1 98bb 193d e63b
00000300: 0c0f 963c fb99 d13d 6f0f 44bd 13fc 013d
00000310: 6653 a13d d4a6 e0bd 8071 3b3d 2ff7 8fbd
00000320: 2698 443e 6c92 0b3e d8b9 1fbc d5a4 003e
00000330: e99c 8ebe e895 49be f315 92bd 9e42 dabd
00000340: 8250 8abd e5fc 293d eef5 ae3d a189 373d
00000350: ba49 5fbe 6feb 2c3c 7efc 513e 78b8 5e3d
00000360: 23e5 28bd acd5 4f3d 8187 f73c 576e 25be
00000370: 4e0f 1dbe f974 573e 053a efbd 3459 54be
00000380: b56b 033e 56ee 203e 2e9e 283e 5230 2b3e
00000390: bdbc 533e 937c f43d b984 50bb 3298 d9bd
000003a0: 8719 04be b56c 4fbe 73da f5bd ce23 7fbe
000003b0: 0c36 04be fde7 e33c 7a27 43be 6d8c 34bd
000003c0: a1b5 40be 7fa0 1e3e ab09 f9bd 5924 423e
000003d0: 4d3b d0bc ce64 793e dc77 a03d cdee 423d
000003e0: 15dd 7d3e b3f8 b9ba 31d4 963d 9cdc 153e
000003f0: 5105 2abe c00f 463e 8791 5dbd 644f dc3d

lstm.weight_hh_l1 f4 [256, 64]
-0.05161013 0.07105175 -0.066140935 0.08836494 0.035350394 0.01747184 0.045302343 -0.06831659
-0.031620067 0.030406097 -0.03843453 0.05055818 -0.089114115 0.0631118 0.059856318 0.046239804
0.05092152 0.035620727 0.10967057 -0.035003785 0.003957327 0.06856261 0.11532718 0.06350083
0.1051571 -0.012387764 0.1209602 0.10024108 0.110422865 0.1015029 0.20755786 0.09102013
0.07503658 0.07496573 0.14209436 0.05901613 0.07802485 -0.11641536 -0.15633643 0.08457586
-0.13247113 -0.049794443 -0.16382301 -0.05374924 -0.0010058042 -0.056757323 -0.024088643 0.032842875
0.06358687 -0.00761744 0.19187504 0.10385996 0.088123314 0.11852761 -0.11084207 0.07901756
-0.08795259 0.05023795 -0.006863213 -0.05741505 -0.05271411 0.067825556 -0.016559739 -0.039551903
0.034218445 -0.12874582 0.15462102 0.091026254 0.10187646 0.13114256 0.11533317 0.0030721943
-0.018629719 0.060671624 0.0530898 0.10352133 -0.19235967 0.017697578 0.06643475 0.043975193
-0.034107912 -0.03461777 0.15944715 -0.112117395 0.13206519 0.05049547 -0.07849603 0.05722189
0.0813058 0.06887774 0.0037434557 0.013654751 -0.08823803 0.10223871 0.006461105 -0.004506597
-0.0058001713 0.10242567 -0.12400575 -0.0774629 -0.04711023 -0.2025551 -0.16579513 0.083673134
-0.0081110075 -0.005649941 -0.057812568 -0.08752057 0.16242816 0.1360461 0.15480958 -0.10356324
-0.12597263 0.050367977 -0.08417558 0.11436123 -0.07878244 0.1047591 -0.021532478 0.048338957
0.032533657 0.0037738876 0.10482987 -0.022409305 -0.022089891 -0.062069282 -0.0362429 -0.053103033
-0.043221496 -0.12878925 0.08905205 -0.022592153 -0.051053274 0.22067729 0.04653435 0.030122725
-0.2283173 0.13139707 -0.022207255 0.15130816 0.13173206 -0.053510338 0.15332249 -0.043821793
-0.1108592 0.057160374 0.24518317 -0.055017784 0.03211891 -0.1114831 0.12799521 -0.079604074
0.022519559 0.02129396 0.14552581 -0.012451504 0.18192287 0.18246765 0.14063253 -0.051676463
-0.14992143 -0.25491822 0.08230683 0.13281906 -0.0007177518 0.15053104 -0.0625417 -0.08937288
0.037510023 -0.26262903 -0.25629485 0.11716039 -0.02774451 0.18646738 -0.021481065 -0.14614318
-0.31392407 0.09621309 0.064012446 0.10543314 0.12489422 0.094395235 -0.10232376 0.14683717
-0.025866296 -0.09767801 -0.18766429 0.10507081 -0.11892847 0.07246892 -0.075465895 0.0813649
-0.08225075 -0.10363087 0.18704286 0.09985689 -0.062761545 0.21067345 0.14937206 0.08831312
-0.07630207 0.09196573 0.034934253 0.10076978 -0.027787047 0.04664286 -0.07560484 -0.0050727343
0.061548203 0.027013192 -0.062120773 -0.087427765 -0.059375923 -0.027105257 0.072845586 -0.022309838
0.03506162 0.010584716 0.111289434 -0.06911389 -0.04889439 0.20458782 0.07227339 0.27716845
0.20868286 -0.026302665 -0.09020965 -0.019186676 -0.057420056 -0.0571832 -0.12349986 0.13414255
0.08030266 -0.1833881 -0.22323966 0.09247755 0.094462655 0.08802887 -0.015009885 -0.17357387
-0.09602433 -0.0024474296 -0.028533062 0.047274414 -0.15897286 0.22797532 -0.036428716 0.11284774
0.028395616 -0.15772876 0.02166533 0.15756449 0.039406724 -0.088295855 -0.03060031 0.17498697
00000000: 2565 53bd 9483 913d e674 87bd adf8 b43d
00000010: 93cb 103d 1b21 8f3c f38e 393d 91e9 8bbd
00000020: 0b84 01bd 3516 f93c 876d 1dbd 1816 4f3d
00000030: 7681 b6bd c240 813d e62b 753d f365 3d3d
00000040: 1593 503d 0ae7 113d f79a e03d 2160 0fbd
00000050: 77ac 813b 8e6a 8c3d a830 ec3d b90c 823d
00000060: 9b5c d73d 0cf6 4abc fbb9 f73d 324b cd3d
00000070: 6225 e23d c1e0 cf3d 0c8a 543e c368 ba3d
00000080: c7ac 993d a287 993d 2f81 113e e6ba 713d
00000090: 7ecb 9f3d 2d6b eebd a816 20be 1c36 ad3d
000000a0: 83a6 07be 42f5 4bbd 38c1 27be 2a28 5cbd
000000b0: 30d5 83ba 5e7a 68bd 8c55 c5bc 4086 063d
000000c0: d539 823d b89b f9bb e47a 443e 88b4 d43d
000000d0: ff79 b43d 9bbe f23d 2b01 e3bd f5d3 a13d
000000e0: 7d20 b4bd 4fc6 4d3d cee4 e0bb 0b2c 6bbd
000000f0: c0ea 57bd 20e8 8a3d 4aa8 87bc 2d01 22bd
00000100: a428 0c3d f2d5 03be f954 1e3e f96b ba3d
00000110: 9ba4 d03d 3c4a 063e cc33 ec3d de56 493b
00000120: 5a9d 98bc cf82 783d b174 593d fe02 d43d
00000130: eff9 44be 83fa 903c f10e 883d 551f 343d
00000140: bdb4 0bbd 5dcb 0dbd 1d46 233e ce9d e5bd
00000150: 193c 073e 57d4 4e3d 87c2 a0bd 8061 6a3d
00000160: a883 a63d c60f 8d3d c454 753b 2db8 5f3c
00000170: 24b6 b4bd 8762 d13d adb7 d33b 13ac 93bb
00000180: 5d0f bebb 8dc4 d13d baf6 fdbd dea4 9ebd
00000190: a8f6 40bd 9b6a 4fbe 33c6 29be d25c ab3d
000001a0: 08e4 04bc 2423 b9bb dfcc 6cbd fc3d b3bd
000001b0: 9153 263e ab4f 0b3e 6786 1e3e f718 d4bd
000001c0: f8fe 00be a74e 4e3d 3f64 acbd 3836 ea3d
000001d0: b058 a1bd f08b d63d e164 b0bc 12ff 453d
000001e0: 0342 053d 5453 773b 0bb1 d63d b893 b7bc
000001f0: dcf5 b4bc 5c3c 7ebd 6f73 14bd 9182 59bd
00000200: 0609 31bd 54e1 03be ec60 b63d 2e13 b9bc
00000210: 3d1d 51bd 3af9 613e cd9a 3e3d efc3 f63c
00000220: 03cc 69be f48c 063e fdeb b5bc 87f0 1a3e
00000230: c5e4 063e a82d 5bbd 9200 1d3e 7b7e 33bd
00000240: 260a e3bd ff20 6a3d 4c11 7b3e 545a 61bd
00000250: 1e8f 033d 4051 e4bd 2d11 033e 7607 a3bd
00000260: f07a b83c ac70 ae3c b804 153e 6501 4cbc
00000270: fd49 3a3e cdd8 3a3e f901 103e b3aa 53bd
00000280: 0185 19be a484 82be 7c90 a83d b801 083e
00000290: 8227 3cba cf24 1a3e dd15 80bd 2109 b7bd
000002a0: 1ca4 193d 5077 86be 1439 83be c9f1 ef3d
000002b0: 7448 e3bc 4ef1 3e3e 0ff9 afbc 8fa6 15be
000002c0: a8ba a0be 5e0b c53d f518 833d 55ed d73d
000002d0: 8ac8 ff3d 4a52 c13d 1f8f d1bd 7c5c 163e
000002e0: 8ee5 d3bc 690b c8bd 112b 40be 5d2f d73d
000002f0: c590 f3bd 966a 943d dd8d 9abd a4a2 a63d
00000300: 1573 a8bd 6c3c d4bd 2a88 3f3e c581 cc3d
00000310: 2089 80bd c8ba 573e fdf4 183e 82dd b43d
00000320: 4244 9cbd 8758 bc3d 3817 0f3d 6360 ce3d
00000330: a9a1 e3bc 950c 3f3d b6d6 9abd 2e39 a6bb
00000340: f819 7c3d c54a dd3c 5a72 7ebd 540d b3bd
00000350: 2b34 73bd d80b debc 1130 953d 1fc3 b6bc
00000360: c69c 0f3d 846b 2d3c b7eb e33d 958b 8dbd
00000370: 7c45 48bd 787f 513e 1204 943d 06e9 8d3e
00000380: f6b0 553e b078 d7bc d6bf b8bd 602d 9dbc
00000390: 4b31 6bbd ee38 6abd 7fed fcbd aa5c 093e
000003a0: b975 a43d 17ca 3bbe f098 64be df64 bd3d
000003b0: a375 c13d 7b48 b43d 05ec 75bc 59bd 31be
000003c0: 67a8 c4bd 0e65 20bb 2bbe e9bc d1a2 413d
000003d0: c8c9 22be 5d72 693e 4736 15bd b71c e73d
000003e0: ec9d e83c a683 21be 7d7b b13c 9658 213e
000003f0: f268 213d 75d4 b4bd 80ad fabc c92f 333e

lstm.bias_ih_l1 f4 [256]
-0.02484782 -0.025939174 0.13057506 0.017281475 0.25389615 0.02398838 0.06756687 0.17222425
0.09298595 0.07270139 0.114646815 0.026278362 0.27368894 0.070680544 0.0519944 0.041721705
0.21505609 0.20790823 0.26722068 -0.019300254 0.18266225 0.16778362 0.121388875 0.07058928
0.1983936 0.21220444 -0.0024373503 -0.038537223 0.15691769 0.045952227 0.2874826 0.20242651
0.17031762 0.2857117 0.15832308 0.22837223 -0.0030557285 0.24978998 0.16261041 0.22431268
-0.009109592 0.24229795 0.12552074 0.20267193 0.27843195 0.13145497 0.1422235 0.1730877
0.15132044 0.1612824 0.21783979 0.042927854 0.14009108 0.14109962 0.08916369 0.15963134
0.12979744 0.1106825 -0.059006188 0.08679182 0.071037896 0.06041708 0.005361347 0.09700178
0.03293462 -0.09759324 -0.042574987 0.07233363 -0.04710603 0.023701467 0.124296054 0.017381836
-0.031435646 -0.02665803 0.054580756 -0.096947104 -0.043225423 -0.038949866 0.09676752 0.012878389
0.06307601 0.02803222 0.029675351 0.011853058 0.009129152 0.062417414 0.07040651 0.11305468
-0.022069374 -0.051251546 0.018374236 0.0066562267 0.025332017 -0.031534746 0.015523681 0.027033053
-0.079538286 -0.13455594 0.086158186 0.025800651 -0.031346925 0.0029797058 0.11690219 -0.0685536
-0.038598236 0.058598556 0.018533057 0.0010435316 -0.043952532 -0.021661857 0.15803604 -0.021881832
-0.118619375 0.12591515 0.16301295 -0.038938653 0.02283971 -0.045922805 -0.059943534 0.009070632
0.12578547 0.03670183 0.1445703 0.017680418 0.09171649 0.037464876 -0.11286226 0.034592643
-0.05147746 0.069291435 0.118209325 0.001436762 0.06774071 -0.01801975 0.08592191 -0.019747285
0.01523726 -0.040414575 0.13211761 -0.04234434 -0.002414582 0.16735505 0.07406469 -0.079889745
-0.009414241 -0.063666806 0.013690362 -0.111277215 0.085721076 -0.09624539 0.024024531 -0.0066544055
-0.029813495 0.05622875 0.049305517 -0.08892273 0.040284973 -0.03826318 0.07681822 0.106011935
0.09948656 -0.03199663 0.030106619 0.028459162 0.020320762 -0.04113788 0.022829946 -0.00914005
0.016739517 0.0355556 -0.0116555225 -0.11345846 0.005933866 -0.078504845 0.16837077 0.020242505
-0.07115125 0.04928805 -0.12373987 0.03660258 -0.033267435 0.003805798 -0.10405704 0.07040821
0.07518566 0.12054094 -0.14166841 0.04703804 0.1381147 -0.022401249 -0.104441226 -0.017456833
0.010385554 0.1816565 0.00075527816 0.15858288 0.03348754 -0.00468262 0.13598028 0.13803454
0.04839276 0.08679737 0.28498828 0.03423442 0.20602578 0.115038395 0.16239692 0.17281364
0.2186322 0.08226358 0.24326946 0.009408703 0.06479321 0.09316244 0.16660364 0.10481676
0.081926025 0.19417657 -0.04676732 0.0015184842 0.04657851 0.14018632 0.30783048 0.06676446
0.15195309 0.40446115 0.028105099 0.049040053 0.07805 0.2759226 0.17467757 0.117402874
0.032161158 0.020123677 0.16908094 0.17865263 0.09413039 0.25420567 0.118743405 0.040122945
0.18503267 0.08767662 0.092808284 0.104744904 0.0760283 0.076654635 0.057604488 -0.02053343
-0.076336496 0.17650262 0.104311936 -0.024110803 0.1046515 0.024510805 -0.07217729 0.18371476
00000000: a88d cbbc 647e d4bc 78b5 053e e191 8d3c
00000010: adfe 813e 4783 c43c 8060 8a3d 8e5b 303e
00000020: 6b6f be3d 77e4 943d f3cb ea3d b845 d73c
00000030: f520 8c3e f6c0 903d 14f8 543d 61e4 2a3d
00000040: aa37 5c3e e5e5 543e 26d1 883e 911b 9ebc
00000050: d00b 3b3e 78cf 2b3e bb9a f83d 1d91 903d
00000060: b127 4b3e 1f4c 593e f4bb 1fbb 35d9 1dbd
00000070: 08af 203e 6738 3c3d eb30 933e e548 4f3e
00000080: be67 2e3e ce48 923e 721f 223e 69da 693e
00000090: 9e42 48bb f2c8 7f3e 5883 263e 39b2 653e
000000a0: 6640 15bc f41c 783e 8288 003e 3b89 4f3e
000000b0: a28e 8e3e 229c 063e 0aa3 113e e73d 313e
000000c0: bff3 1a3e 3727 253e 6511 5f3e 1ed5 2f3d
000000d0: 0974 0f3e 6b7c 103e 749b b63d 6676 233e
000000e0: 9fe9 043e 82ad e23d 79b0 71bd e9bf b13d
000000f0: 517c 913d e677 773d 3dae af3b dfa8 c63d
00000100: 74e6 063d f7de c7bd 1c63 2ebd a723 943d
00000110: 41f2 40bd 9429 c23c ee8e fe3d 5a64 8e3c
00000120: aac2 00bd f161 dabc 1290 5f3d 348c c6bd
00000130: 240d 31bd e589 1fbd 0d2e c63d e1ff 523c
00000140: ff2d 813d d4a3 e53c b919 f33c 5433 423c
00000150: 7092 153c 67a9 7f3d 4a31 903d 3689 e73d
00000160: d5ca b4bc 24ed 51bd 9185 963c 7a1c da3b
00000170: 1785 cf3c 942a 01bd 0a57 7e3c 6c74 dd3c
00000180: f8e4 a2bd 08c9 09be b473 b03d e35b d33c
00000190: a265 00bd 2b47 433b 6a6a ef3d d465 8cbd
000001a0: 2f19 1ebd 0a05 703d a3d2 973c 1cc7 883a
000001b0: 9207 34bd 3574 b1bc 33d4 213e 8741 b3bc
000001c0: b7ee f2bd e7ef 003e deec 263e 237e 1fbd
000001d0: 581a bb3c 8d19 3cbd 5a87 75bd fd9c 143c
000001e0: e8cd 003e a854 163d 3d0a 143e 86d6 903c
000001f0: dbd5 bb3d c574 193d 5424 e7bd 04b1 0d3d
00000200: 07da 52bd abe8 8d3d bb17 f23d bc51 bc3a
00000210: a4bb 8a3d 289e 93bc d4f7 af3d 0fc5 a1bc
00000220: b3a5 793c c189 25bd d749 073e 4271 2dbd
00000230: f73d 1ebb 1f5f 2b3e 3aaf 973d 3c9d a3bd
00000240: 303e 1abc be63 82bd 8a4d 603c 4fe5 e3bd
00000250: 888e af3d 4e1c c5bd 18cf c43c 330d dabb
00000260: 6e3b f4bc 1e50 663d 95f4 493d 1f1d b6bd
00000270: db01 253d dab9 1cbd df52 9d3d c91c d93d
00000280: 9cbf cb3d e60e 03bd 28a2 f63c 3023 e93c
00000290: ba77 a63c 3280 28bd de05 bb3c 26c0 15bc
000002a0: 5021 893c c0a2 113d cef6 3ebc e95c e8bd
000002b0: e070 c23b 26c7 a0bd 6369 2c3e 9cd3 a53c
000002c0: bfb7 91bd 44e2 493d 546b fdbd 96ec 153d
000002d0: 6f43 08bd b26a 793b db1b d5bd 2e32 903d
000002e0: f0fa 993d 2bde f63d 8611 11be f6aa 403d
000002f0: f16d 0d3e d382 b7bc 48e5 d5bd a201 8fbc
00000300: 2c28 2a3c 2904 3a3e dcfd 453a 8d63 223e
00000310: 3b2a 093d aa70 99bb 6a3e 0b3e ed58 0d3e
00000320: 7d37 463d d2c2 b13d fce9 913e 6439 0c3d
00000330: 6cf8 523e 4099 eb3d 614b 263e 0ff6 303e
00000340: 1fe1 5f3e cf79 a83d a11b 793e f626 1a3c
00000350: 4db2 843d f3cb be3d 259a 2a3e 2baa d63d
00000360: d5c8 a73d 39d6 463e 178f 3fbd e007 c73a
00000370: 1cc9 3e3d 018d 0f3e f59b 9d3e cebb 883d
00000380: 9799 1b3e 8815 cf3e aa3c e63c 39de 483d
00000390: aed8 9f3d ba45 8d3e adde 323e eb70 f03d
000003a0: 6bbb 033d 69da a43c 8e23 2d3e b7f0 363e
000003b0: 6fc7 c03d 3f27 823e be2f f33d f557 243d
000003c0: 3479 3d3e cd8f b33d 4512 be3d 7f84 d63d
000003d0: bab4 9b3d 1bfd 9c3d aff2 6b3d b935 a8bc
000003e0: 4f56 9cbd 1abd 343e 7fa1 d53d 0584 c5bc
000003f0: 8753 d63d e2ca c83c b0d1 93bd b91f 3c3e

lstm.bias_hh_l1 f4 [256]
0.19088468 0.1624815 0.21298154 0.23415798 0.10770111 -0.02918706 0.08553214 0.23290604
0.120635174 0.0992283 0.17234544 0.1469817 0.11988908 0.09486741 0.12435813 0.22521012
0.10877047 -0.029660137 0.15773878 0.008223077 0.09313396 0.15739323 0.018109411 0.011553869
0.05116343 0.23896503 0.0401366 0.0014727628 0.15664668 -0.035064243 0.22221926 0.15597382
0.11426275 0.44378862 -0.077891365 0.0126967635 0.06406416 0.18189713 0.16922726 0.08049313
-0.017518057 0.2435778 0.25374788 0.02299824 0.036449026 0.07672313 0.09030033 0.1744348
0.11159849 0.19735236 0.1437645 0.037754692 0.24509147 0.057655387 0.10355939 0.037864324
0.08585497 0.18914208 0.061020393 0.10964488 0.16646942 0.013644389 0.0024668868 0.1028581
0.07719889 0.09881938 -0.010258599 0.07513322 -0.05228818 -0.03173766 -0.0063016354 0.16180848
-0.012046011 0.0020955289 -0.072618626 0.06204699 0.061411303 0.10632141 0.045813434 -0.0013395383
-0.034241535 -0.050454114 0.08993048 -0.054482695 0.027396183 -0.019435924 -0.049956933 0.07316475
0.07860737 0.078662574 0.035183754 -0.05657328 0.013456686 0.10599372 0.03321942 -0.055435505
-0.12624757 -0.15550277 0.12517937 0.0484571 0.03869227 -0.006728256 0.07201942 0.018537194
0.026375728 -0.007531764 -0.08377362 -0.053774968 -0.12869903 -0.04723828 0.12418355 0.047831986
-0.050506655 0.15918617 0.09755982 0.10687565 -0.01713673 0.11020154 -0.02393337 0.012865297
-0.07042555 0.0064509823 0.020720119 0.10661298 -0.031190136 -0.10736135 -0.037362948 0.09186348
0.017306373 -0.07828749 -0.01576703 -0.0835024 -0.03163967 0.10809031 0.006004801 0.12285365
-0.10765393 0.07734182 0.11231601 0.004200941 -0.14145367 -0.002610185 0.119666435 -0.0023073945
-0.1266804 -0.0021098899 0.015977956 -0.028415814 4.5744455e-05 -0.113377735 0.018175196 -0.08307798
0.002205412 0.11867885 0.13992904 0.0253221 0.0038567483 0.14116764 -0.025758844 0.0062856385
-0.04876389 0.092112 0.09334107 -0.015046396 -0.098121546 0.05694258 0.045810044 0.07498135
0.101743385 0.09875886 -0.037112873 -0.04612695 0.0372178 0.11441988 0.124004185 -0.06460598
-0.013105843 -0.019143002 -0.11433722 -0.016762072 0.02358403 0.13866806 0.03552019 -0.0052301055
0.050272636 0.09933965 0.00853738 0.09874738 0.0044252146 -0.022205627 -0.04739175 0.12790896
0.11561736 0.16637717 0.14600365 0.23365077 0.15406133 0.068274155 0.107305035 0.05262428
0.15877575 0.014346919 0.16311707 0.21500777 0.24084647 0.060551107 -0.055495184 0.17988892
0.18983555 -0.000842663 0.21798657 -0.07555813 0.048862454 0.12978955 -0.045103375 0.0059278603
0.13031152 0.14998057 0.010092958 0.059094664 0.17539822 0.08144235 0.2703105 0.041878626
0.12019755 0.251129 -0.019959532 -0.039963968 0.11435059 0.30249834 0.028847698 0.22766913
0.15542427 0.1833618 0.11825084 0.15230055 0.25987107 0.08758219 0.13985193 0.041295137
0.18542323 0.023232577 0.11048185 -0.015499464 0.06494148 -0.1118054 0.11267858 0.039827365
0.013552071 0.128097 0.024673942 0.19853751 0.12102834 0.09995138 0.07388166 0.028780628
00000000: 4677 433e 8d61 263e d517 5a3e 1cc7 6f3e
00000010: 6692 dc3d b419 efbc 7a2b af3d ec7e 6e3e
00000020: 930f f73d 3538 cb3d 537b 303e 5f82 163e
00000030: 6888 f53d d849 c23d 7aaf fe3d 7b9d 663e
00000040: 0dc3 de3d d1f9 f2bc 4686 213e 16ba 063c
00000050: 05bd be3d b12b 213e 305a 943c 704c 3d3c
00000060: bf90 513d 40b3 743e 4766 243d b809 c13a
00000070: fd67 203e 869f 0fbd 728d 633e 9ab7 1f3e
00000080: 9702 ea3d 4338 e33e 8285 9fbd 1606 503c
00000090: 1234 833d 3e43 3a3e e949 2d3e 95d9 a43d
000000a0: 0782 8fbc 756c 793e 3eeb 813e ce66 bc3c
000000b0: 934b 153d 0421 9d3d 61ef b83d 099f 323e
000000c0: c08d e43d bd16 4a3e 0037 133e aaa4 1a3d
000000d0: 42f9 7a3e 0e28 6c3d f216 d43d 9f17 1b3d
000000e0: bbd4 af3d 76ae 413e 85f0 793d 7f8d e03d
000000f0: f676 2a3e b78c 5f3c 7eab 213b 44a7 d23d
00000100: 741a 9e3d d161 ca3d af13 28bc 72df 993d
00000110: 212c 56bd 59ff 01bd f37d cebb 1fb1 253e
00000120: a25c 45bc 2455 093b 13b9 94bd fc24 7e3d
00000130: 6b8a 7b3d 0abf d93d dea6 3b3d 7293 afba
00000140: da40 0cbd f9a8 4ebd 792d b83d 3f29 5fbd
00000150: f66d e03c 1638 9fbc a49f 4cbd 67d7 953d
00000160: e7fc a03d d819 a13d d71c 103d 62b9 67bd
00000170: 6f79 5c3c 3c13 d93d 1611 083d 5710 63bd
00000180: 0b47 01be 1e3c 1fbe 052f 003e f47a 463d
00000190: c97b 1e3d b478 dcbb eb7e 933d 50db 973c
000001a0: e911 d83c 04cd f6bb 8191 abbd 2443 5cbd
000001b0: aec9 03be ed7c 41bd f253 fe3d 79eb 433d
000001c0: 11e0 4ebd b301 233e 71cd c73d 9fe1 da3d
000001d0: 5462 8cbc 58b1 e13d ea0f c4bc f7c8 523c
000001e0: 453b 90bd c362 d33b 3dbd a93c e857 da3d
000001f0: 7582 ffbc 44e0 dbbd e409 19bd ec22 bc3d
00000200: 18c6 8d3c 3155 a0bd dc29 81bc 4e03 abbd
00000210: 9998 01bd 745e dd3d ecc3 c43b b29a fb3d
00000220: aa79 dcbd 6365 9e3d f005 e63d 0ca8 893b
00000230: 3bd9 10be a30f 2bbb ad13 f53d a837 17bb
00000240: 82b8 01be 1446 0abb 34e4 823c 48c8 e8bc
00000250: bcdd 3f38 9632 e8bd 26e4 943c ca24 aabd
00000260: ac88 103b e60d f33d 8f49 0f3e 4b70 cf3c
00000270: 80c1 7c3b 408e 103e 3604 d3bc c2f7 cd3b
00000280: a5bc 47bd 37a5 bc3d 9a29 bf3d 2985 76bc
00000290: f3f3 c8bd 9f3c 693d 50a3 3b3d d28f 993d
000002a0: d65e d03d 1642 ca3d ab03 18bd 9def 3cbd
000002b0: b171 183d f854 ea3d e8f5 fd3d 2450 84bd
000002c0: e4b9 56bc c9d1 9cbc a229 eabd 9d50 89bc
000002d0: 4c33 c13c 00ff 0d3e 9e7d 113d 4e61 abbb
000002e0: aeea 4d3d 9672 cb3d 5ee0 0b3c 113c ca3d
000002f0: 6401 913b 93e8 b5bc da1d 42bd 91fa 023e
00000300: cbc8 ec3d c75e 2a3e fb81 153e 2642 6f3e
00000310: 41c2 1d3e 52d3 8b3d bec2 db3d 8f8c 573d
00000320: 1c96 223e 570f 6b3c 2908 273e ff2a 5c3e
00000330: 75a0 763e 7004 783d eb4e 63bd cd34 383e
00000340: 4064 423e 28e6 5cba df37 5f3e 39be 9abd
00000350: ff23 483d 8de7 043e 51be 38bd 7f3e c23b
00000360: 6270 053e 8294 193e ef5c 253c 3f0d 723d
00000370: 979b 333e 3fcb a63d 2366 8a3e ec88 2b3d
00000380: 222a f63d fb93 803e 2c82 a3bc 42b1 23bd
00000390: a430 ea3d 10e1 9a3e 0252 ec3c 1922 693e
000003a0: 8a27 1f3e 32c3 3b3e 7f2d f23d adf4 1b3e
000003b0: d20d 853e 4b5e b33d 5835 0f3e 1725 293d
000003c0: 96df 3d3e 3f52 be3c 4f44 e23d 77f1 7dbc
000003d0: 0a00 853d 3bfa e4bd 07c4 e63d 0522 233d
000003e0: 8109 5e3c dc2b 033e 0221 ca3c 6b4d 4b3e
000003f0: b5dd f73d 4fb3 cc3d 454f 973d 5ac5 eb3c
