LSTM/models/sensor_data_1_pm10_lstm_model.pth (torch, 206060 bytes, 9 tensors)

lstm.weight_ih_l0 f4 [256, 1]
000000 88 85 a9 bd d2 de 88 3b 70 6e 36 3e 4c 6c ac bd
       -0.08277422 0.004176953 0.17815566 -0.084190935
000010 61 45 42 be 5d 90 86 bd 3a c2 f5 3c c6 b0 c8 bd
       -0.18971778 -0.06570504 0.029999841 -0.09799342
000020 28 ed 1b be 33 53 94 bc de b0 f3 bb 22 29 70 bd
       -0.15227187 -0.018106079 -0.0074368557 -0.058632977
000030 e9 64 54 3c ef 9c 24 bd 71 dd bd 3d f2 27 a6 bb
       0.012963512 -0.040188726 0.09270752 -0.00507068
000040 39 27 74 3c 20 99 41 be 38 08 50 3e 67 7b cd bd
       0.01490193 -0.18906069 0.20315635 -0.10033303
000050 e9 a2 5f 3c c7 e9 30 be 9e 92 26 3d 72 bf 05 be
       0.013649681 -0.17276679 0.04066717 -0.13061312
000060 88 c7 a4 bc c7 a7 ae 3d a4 db 2a 3c 47 46 34 be
       -0.020114675 0.08528095 0.010428343 -0.17604934
000070 e8 c0 58 be 24 b9 38 be 97 9c 4a be 3c 29 63 bd
       -0.21167338 -0.18039376 -0.19786297 -0.055459246
000080 d3 0a d4 bd 63 a0 24 be 23 73 cb bd 82 50 08 be
       -0.10353627 -0.16076808 -0.0993407 -0.13311961
000090 57 a4 42 bd a4 ae 11 3d 42 0c be bd 29 f7 0a 3e
       -0.047520008 0.03556694 -0.09279682 0.13570847
0000a0 2f c6 e0 bd c4 3d c0 bd 8c 79 ae bd 40 cb 41 bd
       -0.109753005 -0.09386781 -0.08519277 -0.047312975
0000b0 19 78 68 bc c2 0a 04 bd 25 a3 52 3e d5 d2 43 be
       -0.01418879 -0.032236822 0.20570047 -0.19123395
0000c0 79 25 0b 3d 17 b3 ab bd bf 3e 95 bd 48 ab 29 3d
       0.033971284 -0.08383768 -0.072873585 0.041423112
0000d0 b9 b6 fa bd f7 c2 d4 3c 24 d2 b2 3c 45 04 e8 3c
       -0.12241883 0.025971873 0.021828718 0.028322348
0000e0 13 ee 14 be 3b df 51 be 25 53 b4 bd f7 5e b3 3c
       -0.14543943 -0.20495312 -0.08804921 0.021895869
0000f0 6e da 60 be 72 95 9f bd fe 2b 1c 3d af 81 80 3d
       -0.21958324 -0.07792176 0.03812789 0.06274735
000100 04 bc 7a 3c 5e ed eb 3c bc f9 96 3d 0b f3 fc 3d
       0.0153036155 0.028799709 0.07371852 0.12351044
000110 e6 84 b7 bb 67 73 4f bd 8e 00 96 bd 74 ef 89 bc
       -0.0056005595 -0.050647166 -0.073243245 -0.016837813
000120 50 b4 46 3d 4d 9b 10 be ef a2 7b bc 5a 9f bd bc
       0.048511803 -0.14121743 -0.015358671 -0.023147274
000130 57 4c e4 3d d7 7d b4 3d b8 c9 ff 3d 4a 88 af bc
       0.11147373 0.088130645 0.12489647 -0.021427292
000140 9b e0 b3 3d 86 df 7a bb 13 56 05 3e 5d 72 9a bc
       0.087830745 -0.0038280203 0.13021116 -0.01885336
000150 5c 40 41 bd 17 fc 3e bd 58 90 15 be 87 f7 bf 3c
       -0.04718052 -0.04662713 -0.14605844 0.02343346
000160 52 50 03 be 9d c4 f1 3d a9 e3 a5 3d 93 ca f4 b9
       -0.12823609 0.11805079 0.08100063 -0.00046690236
000170 fc e7 3b bc db 79 2d bd 80 e6 61 bc 5e 6d 38 3d
       -0.011468884 -0.04235254 -0.013787866 0.045026176
000180 f2 9a 10 be f5 fe e5 bd f2 e8 f4 bd 92 d0 e0 bd
       -0.14121607 -0.1123027 -0.11958493 -0.10977282
000190 1d 32 88 3d 4a 44 c6 3d f4 43 fb bd f7 07 fa bc
       0.06650183 0.09680994 -0.122688204 -0.030521376
0001a0 59 f6 db 3c 9c 06 a6 3d 5d 5c 60 bd 31 9e 50 3e
       0.026850866 0.081067294 -0.054775584 0.20372845
0001b0 d9 b7 28 3e d0 31 c3 3c ee a4 3b 3d 5b f6 4b 3c
       0.16476382 0.023827463 0.045811586 0.012448872
0001c0 3a 24 6a bd 1b 37 d6 3c 24 4c ca 3d eb 19 98 3d
       -0.057163455 0.026149323 0.09877804 0.074268185
0001d0 0b 07 be 3d 48 86 94 bb 45 50 e1 bd 1d e9 16 bd
       0.09278687 -0.004532609 -0.11001638 -0.036843408
0001e0 1b fb 29 3b 6b 28 63 bd b0 aa a6 3c 58 59 34 bc
       0.0025937024 -0.055458467 0.020345062 -0.011007629
0001f0 42 c8 1f bd 49 be 03 be 04 25 e2 3d 96 6e 87 3d
       -0.03900934 -0.12865557 0.110422164 0.066128895
000200 c8 24 26 be 77 88 6e 3d d0 28 bd 3d 4d 42 0d be
       -0.16224968 0.05823561 0.092363 -0.13794823
000210 8b dc 55 3e 77 c4 ba bd 57 32 5c 3e 4d 4e ca 3d
       0.20884912 -0.09119504 0.21503578 0.09878216
000220 aa 60 45 be b1 75 e7 bd 10 ea 29 3e 1b 37 3d be
       -0.19275156 -0.11301745 0.16593194 -0.18478052
000230 60 78 d4 bd bc bd 2a be 0e c4 35 3e 62 11 42 3d
       -0.10374522 -0.1667394 0.1775057 0.04737986
000240 dd 6d 1b be 9e 29 4a bd 82 b4 15 be b7 32 e1 bc
       -0.15178628 -0.049356095 -0.1461964 -0.027490003
000250 85 b0 47 bc f1 1c 61 be bd ff e2 bd a0 1d 72 3e
       -0.012188082 -0.21983697 -0.110839345 0.23644114
000260 e0 4d 17 3e bd c6 cf bd 28 92 46 3e 79 66 bf 3c
       0.147758 -0.10145328 0.19391692 0.023364292
000270 bd 5a 9d 3b 6d 21 ca bd 60 4f 5c 3e 0d 9f 49 be
       0.0048020766 -0.09869657 0.21514654 -0.1968958
000280 aa 26 ce 3c 99 54 f3 bd 33 6b ef bd aa 16 0d 3e
       0.02516492 -0.1188137 -0.116903685 0.13778177
000290 68 dc 20 3e f9 12 17 3e 05 fb 37 3e 7b 93 31 bd
       0.15709078 0.14753331 0.1796685 -0.04335354
0002a0 eb 35 2e be 16 0a f8 3d 78 85 bf bc 6f 16 20 3e
       -0.17012756 0.12111299 -0.023379073 0.15633558
0002b0 62 ee d2 bd 16 8d 2c 3e de 9c bd 3d cf d7 04 be
       -0.10299374 0.16850695 0.09258436 -0.1297295
0002c0 bd 87 36 bd 95 3e 22 be 14 f8 e9 3d ba 68 55 be
       -0.044563044 -0.15844186 0.1142427 -0.20840731
0002d0 11 a0 48 be 8c a7 26 3e 1e a2 23 be 01 ae 14 3e
       -0.1959231 0.16274852 -0.15979812 0.14519502
0002e0 1b 15 2c 3d 91 fc 12 be e0 e1 b7 bd 3d 59 30 bd
       0.042012315 -0.14354159 -0.08978629 -0.043053854
0002f0 83 fa ef 3d bb ca 41 be 33 60 2c be b7 36 37 3e
       0.11717703 -0.18924992 -0.16833572 0.17891966
000300 a3 d5 dd 3d b8 55 db 3d 2e ed 31 3e ed 85 89 3c
       0.108317636 0.10709709 0.17375633 0.016787494
000310 4a 07 c8 bd 1a b5 ef bd a4 9c 1e be 4f a2 f2 bd
       -0.09767015 -0.11704464 -0.15489441 -0.11847364
000320 82 46 3b 3d 75 b1 03 be 22 36 dd bc 61 29 37 be
       0.04572154 -0.12860663 -0.027003352 -0.17886879
000330 46 10 ed bd 35 55 03 3e fb 86 b5 3d c7 9f 70 3e
       -0.115753695 0.12825473 0.08863636 0.2349845
000340 88 49 a5 bc d7 67 de bd be 08 e6 3d f3 17 0b be
       -0.020176664 -0.1085965 0.11232136 -0.13583355
000350 27 55 ac 3d a8 58 42 be 1e 47 70 bd e5 96 60 3d
       0.08414679 -0.18979132 -0.058661573 0.054831404
000360 58 59 d0 bd 52 84 27 bd 67 01 23 3d 74 86 ef bd
       -0.10173291 -0.040897675 0.03979626 -0.11695567
000370 b3 e0 b8 bd ba fb 40 be cd 0d d5 bc ca 53 35 be
       -0.09027233 -0.18846026 -0.026007557 -0.17707744
000380 ef fd 2f be f3 20 7a bd c1 55 1a be a8 d1 2e be
       -0.17186712 -0.06106658 -0.15071775 -0.17072165
000390 72 9a 4d be bc 6a dd bc ad 10 1b be 68 83 41 3d
       -0.20078447 -0.027028434 -0.1514308 0.04724446
0003a0 d6 d8 d0 3d af fe 1d be 9b d3 e2 3d ce 8e 03 bd
       0.10197608 -0.15429185 0.11075517 -0.03211861
0003b0 0f 6e 35 3d 8c 9e 01 be 11 e4 1c 3e a4 11 4c be
       0.044294413 -0.12658137 0.15321375 -0.19928604
0003c0 bf 8a 11 be 38 1c 04 be de 7b 44 3e c1 13 9b 3d
       -0.14213084 -0.1290139 0.19187877 0.07572127
0003d0 85 f2 e1 bd 6c 06 0f be cb ce c3 bd 08 85 3a be
       -0.11032585 -0.13967294 -0.09560927 -0.1821481
0003e0 db 6a 1a be 7e 2d 0e be d4 6b 4a be 0b 24 1b be
       -0.15079825 -0.13884541 -0.19767696 -0.15150468
0003f0 9c fc 36 be 17 5d 3f bd 3d 96 c8 3d 7d 35 00 3c
       -0.178698 -0.046719637 0.09794281 0.007825253

lstm.weight_hh_l0 f4 [256, 64]
000000 97 51 9a bd ff 30 8e bd b8 b2 02 bc b8 7f d2 3b
       -0.07535093 -0.06942939 -0.00797718 0.0064239167
000010 a3 a1 84 bd f7 26 2c 3d 41 a1 67 bd 54 7a 16 be
       -0.06476142 0.042029347 -0.056550268 -0.14695102
000020 77 f7 10 be af 1c e9 bd 20 d3 d4 bd 17 93 2b 3c
       -0.141569 -0.11382424 -0.103918314 0.010472081
000030 e8 a8 55 bd 78 39 c2 bd c9 72 08 3e 23 64 22 bd
       -0.052163035 -0.094836175 0.13325037 -0.03964628
000040 af c2 02 be 60 34 cb 3d 33 c2 1f be d6 33 13 bc
       -0.12769578 0.09922099 -0.15601425 -0.008984527
000050 d8 0a aa 3d 42 83 d7 bd ac 31 c1 3b 1a cd 92 bd
       0.083028495 -0.10523082 0.005895814 -0.07168026
000060 22 d6 84 3c e7 ac 0e bd 8e 58 4a bc 9b a9 4f bd
       0.016215388 -0.03483286 -0.012350215 -0.050698858
000070 c0 27 5a bd 9d f9 36 3d f6 23 e6 3d 75 50 d6 bc
       -0.053260565 0.044671644 0.11237328 -0.026161412
000080 84 15 1f be 68 02 06 3e 53 46 0d 3e fa cd 78 3d
       -0.15535551 0.13086855 0.13796358 0.06074331
000090 f8 82 8b 3d d7 8b b0 bd 98 01 87 3d a0 1c df 3c
       0.0681209 -0.08620422 0.06592101 0.02723533
0000a0 fc dc c6 bd 7c 23 f0 bd ff 24 9b 3d 11 6b 87 bc
       -0.09710118 -0.11725518 0.07575416 -0.016530545
0000b0 b1 14 1b be 3c 51 01 bc ee f3 5d bc 76 9f b9 3d
       -0.15144612 -0.007892903 -0.013546927 0.09063618
0000c0 a5 17 b3 bd c6 f3 a2 3d b4 bb 56 bd ea 9b 86 bd
       -0.08744744 0.07956652 -0.0524251 -0.06572707
0000d0 25 a7 ca 3c ca fa 2b ba 3d da fc bd 1c 6c 3e 3d
       0.024737904 -0.0006560503 -0.12346313 0.04648982
0000e0 07 8b 98 bd c2 d0 28 3e 7b f8 dd 3d ca e3 b2 3d
       -0.07448392 0.16485885 0.108384095 0.087348536
0000f0 a0 14 7d 3c a4 c8 15 3c 24 63 6e bc 1e a8 4a bd
       0.015446812 0.009142075 -0.014550004 -0.049476735
000100 41 03 1d be e1 55 08 3e 02 7c 24 3d 14 75 f7 3c
       -0.15333273 0.1331401 0.040157326 0.030207194
000110 e5 2e 9a bd d5 d2 6b 3d d8 d7 c6 bd ad 22 95 bd
       -0.07528476 0.057574112 -0.09709138 -0.072820045
000120 94 45 67 bd 67 ce 80 3c 52 e2 ce bd 8c 29 99 bd
       -0.05646284 0.01572342 -0.10101761 -0.074786276
000130 ae 36 c2 bd 11 d2 c0 bc 0a 8e ab 3c 97 28 4c bd
       -0.094830856 -0.023537667 0.020941753 -0.049843397
000140 46 eb 7b 3d 4b 16 a8 bd 7d b2 39 be cb b5 06 be
       0.06150367 -0.08207377 -0.18134494 -0.13155286
000150 83 62 95 bb 88 62 c9 3c d3 c3 95 3c cb e2 33 bd
       -0.0045588627 0.024583116 0.018281853 -0.04391746
000160 ab 35 6f bd 40 0f 07 be 27 1e 2f 3e db a4 95 3d
       -0.05840079 -0.13189411 0.17101346 0.07306834
000170 3c e9 20 be 48 9a 2f 3d c2 d0 f3 3d 42 7c 62 3d
       -0.15713972 0.042871743 0.11905052 0.055294283
000180 84 66 6a 3d 99 ae 3e bd f3 76 00 3e 4b fa c5 bd
       0.057226673 -0.046553228 0.12545376 -0.0966688
000190 e9 17 69 bd b1 aa 1d 3e b3 74 d0 bd 52 43 02 bc
       -0.056907568 0.15397145 -0.101785086 -0.007950621
0001a0 24 7e 90 3d d7 94 08 bd 0a 53 17 be 03 bc d7 3c
       0.070553094 -0.03334507 -0.1477777 0.026334768
0001b0 3b d1 12 bd a7 26 79 3d 3b cb 33 bd 42 53 ef 3d
       -0.03584407 0.060827877 -0.043894988 0.11685802
0001c0 b9 1a 79 bc e9 64 9f 3c 0a ba 32 3e 51 e6 39 be
       -0.015204125 0.019457297 0.17453781 -0.18154265
0001d0 f3 3e a1 3d e8 17 8c bd e6 98 8f 3d fb 6c ae bd
       0.07873335 -0.06840497 0.07011585 -0.0851688
0001e0 09 54 3b 3b 14 b4 9f bc 90 9b d1 3d 58 8a b6 3d
       0.0028584024 -0.019495048 0.10234749 0.08913106
0001f0 e9 7e 09 be 20 f4 ba 3d 12 0c 9c bd a9 cc e7 3d
       -0.13427319 0.091285944 -0.0761949 0.11318333
000200 bc f4 25 be 1a d6 4d 3e 69 ec ed 3c 9a 3a 15 be
       -0.1620664 0.20101205 0.029043393 -0.14573136
000210 98 8b cb 3d a7 df b0 3d 6b b3 8d bd 8e 44 c8 bd
       0.09938735 0.08636408 -0.06918987 -0.09778701
000220 fb 0a 33 3d 46 cb 97 3d 1c 13 49 bc 7f 50 e0 bc
       0.043711644 0.07411818 -0.012272622 -0.027382134
000230 e0 a2 61 bd ac 95 de bc e9 0a 00 3e 3b 92 2a 3e
       -0.05508697 -0.027170978 0.12504162 0.16657345
000240 5a cc 1b bd 9c e5 78 bc c6 d0 01 be b6 03 ff bc
       -0.03803668 -0.015191462 -0.12677297 -0.0311297
000250 fd 70 46 3b 05 74 1f 3d dc e4 9f 3d bc 18 a6 3d
       0.0030279749 0.038929004 0.07807323 0.081101865
000260 4a 00 13 be 38 cf 4d be 4e f9 7d 3d c1 3c f4 bd
       -0.14355579 -0.20098579 0.062005334 -0.119256504
000270 5e 59 b6 bd 5d 28 38 3e ff 77 56 3d 6a 88 cb 3c
       -0.08903764 0.17984147 0.05236053 0.02484532
000280 e3 56 4b be f4 61 03 bd de 19 a1 3d 6e 0c a1 bd
       -0.19857363 -0.032075837 0.07866262 -0.07863699
000290 67 85 ca bd 54 c4 05 3e a9 63 ed 3c d0 6d 38 be
       -0.09888726 0.13063174 0.028978186 -0.1801064
0002a0 3e c0 20 bd a5 43 c6 3d 27 53 d2 bb 22 c3 b8 3d
       -0.039245836 0.09680871 -0.006418604 0.09021594
0002b0 73 73 ef 3c 8b 22 e6 3d 9f 1f 80 3d 9d 08 76 3d
       0.029229855 0.11237057 0.06256031 0.060066808
0002c0 a8 f7 d7 bc f7 16 3f 3d 5d a9 ab 3d 4e da 62 3c
       -0.026363209 0.04665276 0.08381913 0.013845993
0002d0 a5 36 99 bd f8 45 19 be 6d 4d 7c 3c b3 a0 ab 3d
       -0.07481126 -0.14968097 0.015399319 0.0838026
0002e0 48 84 92 bd 6c 68 ab 3d b5 2a af 3d 70 a6 08 3e
       -0.07154137 0.08369526 0.085530676 0.13344741
0002f0 20 70 14 bd 0e d4 a1 3d ce 8b f6 3c 8f 66 00 3e
       -0.036239743 0.07901774 0.030095961 0.12539123
000300 c6 5f cc bc 68 a7 2a 3e e8 66 2f 3e c9 a0 e8 bd
       -0.024948012 0.16665423 0.171291 -0.11358792
000310 b1 43 d2 3d 49 25 f3 3d f2 7f aa bd ad 1b 5d 3d
       0.10266817 0.11872346 -0.08325185 0.05398147
000320 03 e0 c9 bb 4d b7 b6 bd 8b d4 81 3d 1f ef 42 3d
       -0.0061607375 -0.089216806 0.063393675 0.047591325
000330 25 4d 24 3d 62 9f 19 be b5 7f 9a bb 3a d9 5f 3c
       0.040112633 -0.15002206 -0.004714931 0.013662631
000340 06 14 a4 3b a9 0c 2f 3e f6 6c 14 be d5 d7 9a 3c
       0.00500727 0.17094673 -0.1449469 0.018901745
000350 87 73 87 bd 52 dc c2 3d dd a7 79 3d d0 38 a9 3d
       -0.06613832 0.09514679 0.060951103 0.08262789
000360 d8 7d e2 bd 09 ce a1 bc 14 ec 17 3e 7f d7 2a bd
       -0.11059159 -0.019751566 0.1483615 -0.04170942
000370 9d 6c 35 3d cd d2 22 3e bc b3 21 bd c5 b3 1f 3c
       0.044293035 0.15900727 -0.03947805 0.00974745
000380 9b 8e ab bd 02 06 1c 3e 4a da d7 3c a4 d6 30 bc
       -0.08376809 0.15236667 0.026349206 -0.010793362
000390 e0 c3 8f bd cd e8 13 3e 08 4b 93 bd aa 89 81 bd
       -0.07019782 0.14444275 -0.071920455 -0.063250855
0003a0 80 f6 ca bc 64 16 52 3d b2 35 57 be fc 44 85 3d
       -0.024775743 0.051290885 -0.21016577 0.06507298
0003b0 40 1e be bd 6a aa 80 bd 27 87 2c 3e a5 a3 81 3d
       -0.092831135 -0.06282504 0.16848432 0.06330041
0003c0 82 ae 44 3e 18 e5 06 3e 16 db c0 3d c1 b0 4e be
       0.19207194 0.1317333 0.09416787 -0.20184614
0003d0 2b 40 6f bd c0 14 5a 3d c5 61 29 3d 6a 20 5b bd
       -0.058410805 0.053242445 0.041353006 -0.05349771
0003e0 a4 3a 38 be 12 92 c8 3d ef 7d 8b 3c 6b dc 3b 3e
       -0.1799112 0.09793486 0.017027823 0.18345802
0003f0 d9 d6 23 be f1 02 98 bb 86 92 bd bd 29 56 88 bd
       -0.15999927 -0.0046390225 -0.09256463 -0.06657059

lstm.bias_ih_l0 f4 [256]
000000 e1 5a 19 3e 5d e0 0c 3e b3 53 9e 3c 26 b6 a1 3b
       0.14976074 0.13757463 0.01932702 0.004935044
000010 4f 0e 42 3e e7 40 f7 3d 8b 4d bd 3d ec 20 5f 3d
       0.18950771 0.12072926 0.09243306 0.054474756
000020 b9 ad 4b bc 47 da bd 3d 96 83 0f 3e 90 f1 2b 3e
       -0.012431555 0.09270149 0.1401504 0.16791368
000030 0c 99 15 3b 06 ba ca 3a d7 b6 2c 3e 78 4c 6f 3d
       0.0022826819 0.0015466816 0.16866623 0.058422536
000040 54 fc 77 3d 75 43 e6 3d 8e 78 70 3d b9 22 eb 3b
       0.060543373 0.11243335 0.05870872 0.00717577
000050 8d 3e b5 3d 23 80 f3 3d 81 90 ef 3d b4 66 06 3e
       0.08849821 0.118896745 0.11697484 0.13125116
000060 c8 f7 64 3d 71 e4 11 3c 93 1c a7 bb 78 ce 1d bd
       0.055900365 0.008904562 -0.005099842 -0.038526982
000070 8b 7b ba bc 13 d5 d4 3d 8f 7c 60 3d b4 f9 38 bd
       -0.022763988 0.10392203 0.05480629 -0.04516001
000080 a9 de 6d 3d e0 91 05 3d 57 26 c8 3d 11 2a 23 3e
       0.058073673 0.03260982 0.09772938 0.15934016
000090 8f 04 c8 3d e0 7f 0b 3e 1f 14 28 3e 22 e1 e0 3d
       0.097664945 0.13622999 0.16413926 0.10980441
0000a0 c8 37 17 bd e2 01 03 3e 8d ce 15 3e d4 7c da 3d
       -0.03691843 0.12793687 0.14629574 0.1066834
0000b0 40 e7 1a 3e 1f 4d d7 3d f6 c6 96 bb e8 0d 46 3e
       0.15127277 0.105127566 -0.0046013547 0.19341242
0000c0 1d f6 5e bd 28 f3 c3 3d 79 2d c0 3b e6 86 40 3e
       -0.05443393 0.09567863 0.0058647958 0.1880146
0000d0 73 3f 3f 3e fa d0 76 3d e9 ee bd bb 58 94 0f 3e
       0.18676548 0.06025789 -0.0057963026 0.14021432
0000e0 50 ff 44 3d 16 d2 68 3d 61 d5 a2 3d d0 ab e1 bc
       0.048095047 0.05684098 0.07950855 -0.027547747
0000f0 b3 be 30 3e 74 b6 32 3e b0 8b f8 3d 9e 5d 1c 3e
       0.17260246 0.17452413 0.12136018 0.15270087
000100 ff da 90 3d d2 cc 84 3d c6 bd 78 3c df 81 e9 3d
       0.0707302 0.06484379 0.015181964 0.11401724
000110 dc b2 21 3d 81 ff b2 bb 18 c6 4c bd b1 89 66 bd
       0.039477214 -0.0054625873 -0.049993604 -0.056283657
000120 91 08 b5 bc 93 7d b5 3d c7 db 8b 3d c0 bd 42 bc
       -0.022098811 0.08861842 0.068290286 -0.01188606
000130 be 16 c9 bd 85 cb c8 3b 41 4d 97 bb 69 7f c6 3c
       -0.09818791 0.006127777 -0.0046173637 0.024230676
000140 eb e5 fd 3c de f2 d5 bc f9 60 8f bd 6d 1d 18 bd
       0.030993422 -0.026116785 -0.07000918 -0.037137438
000150 7f 3f c6 bd 96 63 d3 3d ff b3 7c 3b 83 d2 8d bd
       -0.0968008 0.10321729 0.0038559434 -0.069249175
000160 c5 e4 62 3d d8 47 d3 3d 3a 1e 09 3e 99 50 22 3c
       0.055393953 0.103164375 0.13390437 0.009906911
000170 20 e0 8f 3c fa f0 4d 3d 4f 95 fb 3c ea de d9 bd
       0.017562926 0.05027864 0.030710844 -0.106382206
000180 05 2a 67 3d 57 21 f0 bd 81 56 29 bc 2d b4 de bd
       0.056436557 -0.11725109 -0.010335566 -0.108742096
000190 92 e4 74 bd 0f e8 93 3d 5f 25 04 3d 96 69 13 bc
       -0.059788294 0.07221996 0.032262202 -0.008997342
0001a0 61 9c ee bd 88 4a fa bc 68 56 86 3d b6 eb f5 bc
       -0.11650921 -0.030553117 0.065594494 -0.030019622
0001b0 84 ff 13 3e 7f 93 b1 bc e3 1c 81 bd e3 9a 7e 3d
       0.1445294 -0.021676777 -0.06304338 0.06215943
0001c0 0e 16 c5 3d 42 78 3b 3c 45 4a ce bc d3 85 ca bd
       0.09623347 0.011442246 -0.025181899 -0.09888806
0001d0 35 6d eb bc 27 0b 2d bd a2 e2 26 bd 7a 26 b7 bd
       -0.028738597 -0.042246964 -0.040743478 -0.08942886
0001e0 42 37 97 bd 4b 4a 96 3c 0d 5f f8 3d 59 41 a7 bd
       -0.073835865 0.018345973 0.121275045 -0.08166761
0001f0 ba 16 d4 3d 29 9f 71 bc 92 68 4a bd b4 2c ea 3d
       0.10355897 -0.014747419 -0.049416132 0.11434308
000200 e1 47 13 3c 79 fb 2b 3e 73 ed f3 3c 2d 63 21 3c
       0.008989305 0.16795148 0.02977631 0.0098503055
000210 bf d8 96 bd 05 c6 38 3d c8 e5 cb bd 14 44 45 bc
       -0.0736556 0.04511072 -0.09955937 -0.012040157
000220 15 7e 39 3d 47 1a f4 3d 00 f5 55 bd 04 cd b4 bd
       0.045286257 0.119190745 -0.052235603 -0.08828166
000230 36 51 5a bd c5 f5 0a be 0d ce 2e 3e 7b 66 8d 3d
       -0.053300105 -0.13570316 0.1707079 0.06904312
000240 40 1b 97 bd d1 0e 0f 3e d0 c2 bb bd ed 86 1e be
       -0.073782444 0.13970496 -0.09168017 -0.15481158
000250 b1 0b 0c be 70 d6 4d bd 0b ea 9d 3d 9e ff 25 3c
       -0.13676335 -0.05025333 0.07710656 0.010131745
000260 e2 05 e6 3c 3a 53 d5 bd c8 82 89 3b 80 57 ec bd
       0.028078977 -0.10416265 0.0041964985 -0.11540127
000270 1f 83 dd bc 21 e0 70 bc 5f 77 93 bc 0c 69 d4 3d
       -0.027040062 -0.014701874 -0.018001257 0.103715986
000280 37 5c 30 be d3 53 20 3d 27 7a a6 3d c7 f1 0a be
       -0.17222677 0.03914244 0.081287675 -0.13568793
000290 9a c0 e5 3d 61 5b 1c 3d 1d 9d bb 3d 7b 75 8e bd
       0.112183765 0.038173083 0.09160826 -0.06956001
0002a0 4b 55 61 bd ca ae 60 bc 15 91 ee bc a2 4a 8e 3d
       -0.055012982 -0.013713548 -0.029121915 0.06947829
0002b0 5c ef e6 bd 42 c0 ab 3d ff 8a 32 3e 20 20 e4 3c
       -0.11276123 0.0838628 0.17435835 0.02784735
0002c0 e3 65 00 3e 67 fa fe 3d 34 0e 07 3e 35 70 09 bd
       0.12538867 0.12450104 0.13189012 -0.033554275
0002d0 69 0d 8f 3d 30 54 e0 bc 72 84 03 3e f7 81 7c bd
       0.0698498 -0.027383894 0.12843493 -0.06164738
0002e0 61 98 24 be fc 3e 49 3e 0c b4 96 3d 32 f0 c9 3d
       -0.16073753 0.19652933 0.0735856 0.09860267
0002f0 0e 4d ab 3d a2 8e 24 3b 14 52 80 bd 35 82 e9 bd
       0.083643064 0.002510943 -0.06265655 -0.11401788
000300 57 d0 49 3d 49 d0 1c 3e 9d a6 4b 3e c4 b0 23 3e
       0.049270954 0.1531383 0.19887777 0.159854
000310 dc 43 a3 bc df bd ad bc 4e 7f e7 3d 5b 9d a8 3d
       -0.019929819 -0.021208702 0.11303578 0.08233138
000320 c3 d3 09 3d b1 87 8c bb 40 a6 31 bb f3 79 31 3d
       0.033649217 -0.0042886366 -0.002710715 0.04332919
000330 63 0d 01 3d 04 81 44 bc 86 96 34 3e 59 73 27 3e
       0.031506907 -0.01199365 0.17635545 0.16352595
000340 e2 0d 08 3e b0 d2 f8 3c 0a c3 55 3b 04 64 d5 3d
       0.13286546 0.030373901 0.0032617473 0.10419467
000350 08 31 92 bc b3 78 0b 3d 52 ee 6f bd 33 18 eb 3c
       -0.017845646 0.034050655 -0.05857689 0.028698063
000360 49 d0 54 bd d5 06 10 bb e5 e4 95 3d a7 fe 00 3e
       -0.05195645 -0.0021976728 0.07319049 0.12597142
000370 70 e7 d7 3c 8c f4 86 bd 33 70 53 3d 6e 5f a8 3d
       0.026355475 -0.06589612 0.051620673 0.08221327
000380 98 65 1f 3e b9 2d 02 3e d5 a7 a3 3b 7e ff 2b 3d
       0.15566099 0.12712754 0.0049943724 0.041991703
000390 f4 37 ef 3d dc ec 13 bc 3f fa 15 3e b5 e7 22 3e
       0.11680594 -0.00902864 0.14646243 0.15908702
0003a0 fd dd e3 3d b9 87 df bc 03 8d e4 3d ee 3f 46 3e
       0.11126325 -0.027286397 0.11159708 0.19360325
0003b0 ff a2 bf 3d 52 41 b6 3d aa 74 85 3d a5 d7 91 bb
       0.09357261 0.088991776 0.065163925 -0.0044507557
0003c0 42 00 34 3d 27 38 b0 3d c8 1a 10 bd a5 01 29 3e
       0.04394556 0.0860446 -0.03518179 0.16504534
0003d0 ef 58 81 3c 7a 54 45 3d 4b c3 6b 3c b2 e7 4b bd
       0.015789477 0.048176266 0.014389823 -0.04978151
0003e0 eb 34 9c 3c 0a 5b 4d 3e 73 8d 88 bc 37 aa 19 3e
       0.019068202 0.2005426 -0.01666901 0.15006338
0003f0 e5 16 61 3d fc 0e 2e 3c dd 56 93 bb 0f 2c f7 3d
       0.054953475 0.01062369 -0.004496439 0.120689504

lstm.bias_hh_l0 f4 [256]
000000 4a 10 7d bd 58 79 d9 3d f4 c4 39 3e ed d6 06 3e
       -0.061783113 0.106188476 0.18141538 0.13167925
000010 c5 44 17 3c fb c6 73 3d c5 dc 5b bc b4 53 04 3e
       0.0092327045 0.059515934 -0.013419335 0.12922555
000020 f7 13 f9 3d 1b 7e 80 bd 26 2f 15 3d 53 3c 15 3e
       0.12162011 -0.06274053 0.036421917 0.14573793
000030 16 ca ab bc 41 bf 11 3e d5 ae 34 3e 1d 37 2c 3e
       -0.020970386 0.14233114 0.17644818 0.16817899
000040 12 55 8f bd 1c 0f f3 3c 82 f9 4c bc ab 2a 44 3d
       -0.06998648 0.02967029 -0.012510659 0.047892254
000050 cd 68 0c 3e 92 ab 97 3d 03 fc 03 3e 02 ad d1 3d
       0.13711853 0.07405771 0.12889104 0.10238077
000060 4a 1d d0 3d b4 56 e9 bc 7d c5 45 3e a7 78 e7 3b
       0.101618364 -0.028483726 0.19313617 0.0070639434
000070 06 c4 c8 3d e6 5b 23 3e 47 09 cd bc 20 68 d5 3d
       0.098030135 0.15953025 -0.025028838 0.10420251
000080 72 9a a8 3d d6 fd d0 3d 50 df 68 3d 0d d5 f1 3c
       0.08232583 0.10204665 0.056853592 0.029520536
000090 b7 37 67 3d e7 4b 4e 3e 1a 11 ca 3d cc 10 4d 3d
       0.05644962 0.20146142 0.09866543 0.050064847
0000a0 da 54 ef 39 ec 27 02 3e a3 bc e8 3d d5 9c 9c 3d
       0.00045648852 0.12710541 0.113641046 0.07647101
0000b0 9a 9c 16 bd b6 ac 07 3e 80 8e 24 3e 36 f1 00 3e
       -0.03677044 0.13249478 0.16069984 0.12592015
0000c0 8e e6 36 3e df 11 e5 3d 7c 58 ae 3d c8 fd 0a 3e
       0.17861387 0.11185049 0.08512971 0.13573372
0000d0 a9 67 06 3e 08 0b 82 3c d6 cf 30 bc b6 49 2d 3d
       0.1312548 0.0158744 -0.010791739 0.042306624
0000e0 fc 04 b7 bc b0 ac 3a 3d 9e 86 81 3a c4 d3 f4 3b
       -0.022341244 0.045574844 0.0009882038 0.0074715335
0000f0 72 43 d0 bc 5e db ed 3d 49 00 d4 bc 59 32 b9 3d
       -0.025422785 0.116141066 -0.025879042 0.09042806
000100 93 bb c6 3d 58 eb bc 3d a4 f0 1f bc de 49 3e bd
       0.09703746 0.09224576 -0.009761963 -0.046457164
000110 5e 8d 32 bd 0c 6b 77 3c 60 d0 37 3d 43 4b d5 3d
       -0.04359185 0.015101206 0.044876456 0.10414746
000120 e2 a1 94 bd 43 46 8e 3d 9b 74 cf bd 4c 88 c4 3d
       -0.07257439 0.06946995 -0.101296626 0.09596309
000130 be 1d 45 39 91 97 a2 3d ff 14 8b bd 08 6d 97 3d
       0.00018798464 0.07939065 -0.06791114 0.07393843
000140 b9 65 d6 bd a6 7f 6c bd 99 1b 01 3e 37 24 b0 3c
       -0.10468621 -0.057738923 0.12608184 0.021501644
000150 fa 4c e5 bc 72 95 ee bd 04 b4 9a bd 8d ca e7 bd
       -0.027990807 -0.11649598 -0.075538665 -0.1131793
000160 8c 8c dd bd d8 13 0a bb 01 a9 9e 3d 43 00 9c 3b
       -0.10817823 -0.0021068957 0.07747079 0.0047607734
000170 6f 38 05 3e de 36 57 3d 2d 8e 99 bc 34 5d 38 3d
       0.13009809 0.05254256 -0.018744553 0.04501076
000180 74 c6 69 3c 65 b1 1c 3d f0 4c d2 3d bb 24 c8 3d
       0.014268506 0.038255114 0.10268581 0.09772631
000190 02 bb be bd 35 11 90 bd 10 79 dc 3d 5e 7e 22 3d
       -0.09313013 -0.07034532 0.10765278 0.039671294
0001a0 09 34 9f 3c 52 f1 7a 3d 55 f6 b6 3d c9 41 58 3d
       0.019433992 0.061265297 0.08933703 0.052797113
0001b0 25 d0 2d bd 08 e2 e5 bd 5f ec 0d bd 9b 64 c1 bc
       -0.04243483 -0.11224753 -0.03464925 -0.023607543
0001c0 eb 57 20 3e a5 aa 9d bd 48 1e 65 bc 04 6a 67 ba
       0.15658538 -0.076985635 -0.01398427 -0.0008827748
0001d0 9e bf e9 bd 79 d3 ac 3d 9a 07 37 bd f2 49 cf bd
       -0.11413501 0.08438773 -0.044684984 -0.10121526
0001e0 2b 5d 18 bd a6 2b 8e bd 6b 51 e9 3c ff 74 fc 3d
       -0.037198227 -0.06941919 0.028481206 0.12327003
0001f0 9a b6 d4 3d 14 22 91 bd 9e bc 5b bd 51 75 03 3d
       0.10386391 -0.07086578 -0.053646676 0.032094304
000200 75 d9 e8 bd 54 e1 38 3e c9 e7 c8 3d 55 58 45 bd
       -0.11369602 0.18054706 0.098098345 -0.048179943
000210 ba 9a af 3d 5d c6 61 3d 27 38 80 bd d2 5e f9 bd
       0.085744336 0.055120815 -0.0626071 -0.12176289
000220 95 a9 ac bd f5 5e b1 bd c5 c8 cc 3a 12 85 ef 3d
       -0.08430783 -0.0866069 0.0015623799 0.11695303
000230 4a 04 4f 3d 33 0c 36 3c 99 cc 95 3d 24 ad 24 3d
       0.0505412 0.011111307 0.073144145 0.040204182
000240 bf ac aa bc 69 b6 36 3e 8a ae 14 be c2 17 3a be
       -0.020834325 0.17843021 -0.14519706 -0.18173125
000250 f5 79 b1 bc 25 f4 74 3d 2c 36 1a 3e 27 f2 74 bc
       -0.021664599 0.059803147 0.15059727 -0.014950312
000260 80 fd 8e bc f1 ce 6c 3d d6 12 79 3d 55 fa 98 bd
       -0.017454863 0.057814542 0.06080898 -0.07469622
000270 48 d7 03 be c5 93 87 3d c2 8c 8b bd 5f f2 f6 3c
       -0.12875092 0.06619982 -0.06813957 0.030144868
000280 79 3b fe bd c6 f2 5d 3d 53 a3 18 3d 42 18 3e bd
       -0.12413687 0.054186605 0.037265133 -0.046409853
000290 0f 17 03 be 78 49 79 bb 55 fe d4 bd 95 49 d0 bd
       -0.12801765 -0.0038038176 -0.104000725 -0.10170285
0002a0 f1 d7 e5 3c 1d b5 d4 bc 57 5c 97 bd 61 9f d9 3c
       0.02805707 -0.025965268 -0.07390659 0.026565256
0002b0 aa 83 c6 bd bc fd bb bd 4f ee 2f 3e 41 a2 88 3c
       -0.09693082 -0.09179255 0.17180751 0.016678931
0002c0 e6 0c 25 3e 0a 34 db 3c 74 bf 13 3d 6f f6 82 bd
       0.16118202 0.026758213 0.036071256 -0.0639466
0002d0 a8 f6 94 bd e8 72 c6 bd 92 1d b7 bd f5 25 70 3c
       -0.072736084 -0.096898854 -0.08941187 0.014657487
0002e0 b2 a8 ab bd 17 c7 bb 3d 37 9b 01 3e 26 0c c8 3d
       -0.083817855 0.09168833 0.12656866 0.09767942
0002f0 5d 88 16 be 5b fd ac 3c 0e 96 b4 3d 8f 46 dc 3d
       -0.14700456 0.021116903 0.08817683 0.107556455
000300 cf 89 2f 3e 9a 26 95 3d 43 58 11 3e 42 d0 ec 3d
       0.17142414 0.07282753 0.14193825 0.115631595
000310 4c 0f 9b 3d 45 4a 17 bd 2a ae 7f 3d c9 37 a9 3d
       0.07571277 -0.036936063 0.062421955 0.08262593
000320 b1 0d a9 3b 09 96 c0 bc 8d 70 4b 3e f5 a9 91 3d
       0.005159103 -0.023509042 0.19867153 0.07112495
000330 b5 52 6b 3d 39 74 85 3d f0 99 05 3e 3a 0d 98 3c
       0.057451922 0.06516308 0.13047004 0.018560994
000340 c8 20 a3 3d 91 d7 03 3e b6 40 3b 3d 6c 60 ae 3d
       0.07965237 0.12875201 0.04571601 0.08514485
000350 16 b2 d7 bc a5 64 9e 3d 1d 59 e2 3d 4c 78 71 3e
       -0.026330035 0.0773404 0.11052153 0.23581046
000360 54 f4 d5 3d 60 32 b9 bc f6 05 1b 3e 1d 54 30 3c
       0.104469925 -0.022607028 0.15138993 0.010762242
000370 69 29 df 3d 35 c4 1d 3e 96 6d 56 3e c6 f3 06 bd
       0.1089657 0.15406878 0.20940241 -0.032947324
000380 01 7a 1a 3e cc 4b 0d 3e 76 2f 33 3e 0a b8 26 bd
       0.15085603 0.13798445 0.17498574 -0.040702857
000390 57 13 f1 3c f8 87 2e bc f1 7b 8b 3c 78 d5 13 bd
       0.029428167 -0.010652535 0.017026873 -0.03609225
0003a0 5e 02 79 3d 2d 7a 30 3e d3 9f 92 3d 27 bc 6a 3d
       0.060793273 0.17234106 0.0715939 0.057308342
0003b0 17 25 d8 3d 1c d6 90 3d b4 cb c2 3c 69 8e 11 3e
       0.10553949 0.07072088 0.023778774 0.14214481
0003c0 04 ef f6 3d 84 af a5 3c 39 4f 1f 3e 9b fa 12 3d
       0.12057307 0.020225294 0.15557565 0.035883527
0003d0 71 1e 82 3b 7e 18 85 3d 04 53 10 bd dc dd 13 bd
       0.003970914 0.06498812 -0.03523542 -0.036100253
0003e0 8b 07 1f 3e c4 b1 54 3e e4 0b c1 bd a5 de 58 3d
       0.15530221 0.20770937 -0.09426096 0.052946705
0003f0 89 35 27 3e 61 e9 d5 3d 66 bf 03 3d bb fa eb 3d
       0.16329016 0.10444904 0.032164954 0.115224324

lstm.weight_ih_l1 f4 [256, 64]
000000 5a 2f eb bc 5e f7 58 3d 42 2a fa 3d 9d 8a 3d 3e
       -0.028709102 0.052970283 0.12215091 0.18509908
000010 e2 53 c4 3c f5 26 b2 3d 64 7e 23 be ff cb 10 bd
       0.02396578 0.08698837 -0.15966183 -0.035350796
000020 ef f1 1b bd fe 6a 78 3d 52 92 e7 bd c2 57 f8 39
       -0.038072523 0.06064891 -0.11307205 0.0004736763
000030 1a 24 f7 3a 42 b1 2b bc 97 1d e8 3d 26 c3 0f 3e
       0.0018855364 -0.010479273 0.11333769 0.14039287
000040 ec 7f 14 3e c2 d4 38 bc e3 d7 da 3a 80 55 ea 3b
       0.14501923 -0.011281194 0.0016696419 0.0071513057
000050 c0 fb 24 3c 52 da 6b 3d a0 c8 3c 3e 45 3a d0 bc
       0.0100697875 0.057581253 0.18435907 -0.02541841
000060 5e b7 a7 bd fd e4 7a 3d b6 4a 05 bd 74 f2 a2 bb
       -0.081892714 0.061253536 -0.032541953 -0.0049727503
000070 37 9d ee bd 5a 2a d3 3d 1a 69 81 bd 14 e5 27 3e
       -0.1165108 0.10310812 -0.06318875 0.1639598
000080 9e e2 09 be 3b 8f 4f bd d7 5a cb 3d 55 8f 20 be
       -0.13465354 -0.050673705 0.09929436 -0.15679677
000090 c0 ae 03 be fa 13 38 be a5 bc 30 bd d3 6b 0f be
       -0.1285963 -0.1797637 -0.043148655 -0.14005975
0000a0 52 02 e6 3c 30 e3 f6 bc 33 9f c1 bd c0 df 69 bc
       0.028077278 -0.030137628 -0.09454193 -0.014274538
0000b0 33 f1 43 3d 80 81 29 be 5a e9 ee b9 2d b7 3a 3e
       0.047837447 -0.16553307 -0.00045568758 0.18233939
0000c0 8e e4 20 3d 43 f7 20 bd 55 1e 9d bc e7 8b 6d bd
       0.039280467 -0.039298307 -0.019179503 -0.05799475
0000d0 47 ed 01 3e a6 91 9c bd ae 9c a5 3d 01 77 23 be
       0.1268817 -0.07644968 0.08086525 -0.15963365
0000e0 62 34 1c be c2 24 11 3d 27 e6 a3 3c c4 8f 21 3d
       -0.15254357 0.035435446 0.020007206 0.039443746
0000f0 49 28 23 be 2d 76 48 3e ca 8e 16 3d 5b 94 73 3b
       -0.15933336 0.1957633 0.036757268 0.0037167284
000100 42 e4 e5 3a d7 47 3a 3d e7 0c 91 3c 2e 13 63 bb
       0.001753934 0.045478668 0.017706348 -0.0034648883
000110 7f 21 38 3e 29 06 f5 bd 61 bd 3e 3d bf b6 08 3e
       0.17981528 -0.119640656 0.046567325 0.13350962
000120 6a 47 44 be 0c 23 3c 3d 95 ae aa 3d 3d 77 0a bd
       -0.19167867 0.04593186 0.0833408 -0.03380512
000130 c1 d3 38 bd 65 9f 6e 3c 0a ba 07 3e bc ef b5 3d
       -0.04512382 0.01456437 0.13254562 0.08883616
000140 2b 53 0c be d3 e6 99 bc 6c 7d 2a be 9a 5c 27 bc
       -0.13703601 -0.018786823 -0.16649407 -0.010214949
000150 c0 e5 fe bc 7e 26 b4 bd 79 d7 df 3c 69 06 de bb
       -0.031115413 -0.08796404 0.027324425 -0.0067756665
000160 fa 56 c1 3d 3e 21 2e be 6a ef 7c 3c da 7a 6b bd
       0.094404176 -0.17004868 0.01543794 -0.057490207
000170 2b b3 ca bc 7a f6 8e 3d 25 4e 21 3d bc 51 0b 3d
       -0.024743637 0.069806054 0.039381165 0.034013495
000180 93 80 07 be 1e 18 d0 bd 64 4d 41 3d 2f 5e 10 3e
       -0.13232641 -0.1016085 0.047192946 0.14098428
000190 f1 ba 00 3b c1 a2 23 bd dc 6b da 3d 73 31 b6 bc
       0.0019642676 -0.039950136 0.10665104 -0.022240376
0001a0 a6 a4 30 bc 88 0b 56 bd d1 af 02 be 7e d2 12 3e
       -0.010781443 -0.05225709 -0.12762381 0.14338109
0001b0 d4 81 2d 3d 8c e9 19 3e a0 f2 31 3e 41 71 2a bd
       0.042360142 0.15030497 0.1737771 -0.041611914
0001c0 57 de 0e 3e 4e b5 27 bd 05 bf 05 3e be cd 0b be
       0.13952003 -0.04094439 0.1306115 -0.13652703
0001d0 4d 74 3d 3d 63 f9 fb 3c 46 9a c1 3c 59 17 39 3d
       0.04625349 0.030758565 0.023633134 0.04518828
0001e0 be e2 69 3d cc 1f 1f 3d 90 b2 a2 bc a9 26 0b 3e
       0.057101004 0.038848683 -0.019860536 0.13588966
0001f0 b7 b9 9e bd 59 45 fb bd 3f 7e 2e 3d 4b 9d 2c 3e
       -0.07750266 -0.122690864 0.042600866 0.16856878
000200 0a 0a 15 be 83 61 ad bd 03 ca 93 bd 2d 84 ed bb
       -0.14554611 -0.084658645 -0.07216265 -0.0072484226
000210 fe 6f 82 bd ac 7d a4 bc 31 e9 7a 3c 9a 4f 26 bd
       -0.06369017 -0.020079456 0.015314386 -0.040603258
000220 c9 d6 95 bd 1c f6 8d bd 54 2b 02 bd 2a d3 9e 3d
       -0.07316358 -0.06931707 -0.031779602 0.0775512
000230 0a 7f a6 bd 82 36 88 bd f2 1b 9d bd 4b e7 44 bd
       -0.081296995 -0.066510215 -0.07671346 -0.04807214
000240 5c 3e 8e bd 96 b7 e4 bd 7a 7f 87 3c 71 f1 ae bc
       -0.06945488 -0.11167829 0.016540278 -0.021355363
000250 26 5f 3a bd c7 d9 db 3d 42 9b 65 bd ba fc c7 3d
       -0.045500897 0.10734897 -0.05605627 0.09765001
000260 34 2c 2d bd 17 e7 80 bd 1b cf 94 bc c9 2c f1 3d
       -0.042278484 -0.06294077 -0.018165162 0.1177612
000270 80 56 50 bd aa 90 65 bd aa 76 b1 bd 31 03 37 3d
       -0.050863743 -0.056046166 -0.086652115 0.044680778
000280 9b 1c fb bb 5b b8 63 3d 8c b8 f1 bd c3 67 1b 3d
       -0.007663322 0.055595737 -0.11802778 0.03794075
000290 20 a2 c0 bd b6 de b4 bd 29 97 27 3d 30 35 fe bd
       -0.09405923 -0.08831541 0.040915642 -0.124124885
0002a0 e9 db 0a 3d 95 27 ba bd 44 69 7f ba b7 2e f6 3d
       0.03390113 -0.09089581 -0.0009743164 0.12020629
0002b0 d7 6c a1 3d 5b 53 f8 3d b2 ab 90 3c 8e b7 a6 3c
       0.07882088 0.12125274 0.017659996 0.020351198
0002c0 52 99 cf 3d 15 d4 5e bd 0b 8d c2 3d 22 76 1b 3d
       0.101366654 -0.054401476 0.09499558 0.037954457
0002d0 48 59 46 bd 63 f8 2e 3d db f5 77 bd 21 f2 01 bc
       -0.04842499 0.04271735 -0.0605372 -0.007931263
0002e0 d5 af 45 3d 2a 7d 9a 3c a7 bf b0 bd 8f c0 3c bd
       0.04826339 0.018858511 -0.08630305 -0.046082076
0002f0 55 ce 02 3e b7 fa 5b 3d 81 54 a5 bc 38 33 d1 bd
       0.12774022 0.053705897 -0.020181896 -0.10214847
000300 58 a2 a6 3d 99 cf d8 3d 90 99 a3 3a e2 92 ed 3d
       0.08136433 0.10586471 0.0012481678 0.11600281
000310 02 fc 57 be a8 25 1f 3e 78 9e 3d be ed ab 84 bd
       -0.21092227 0.15541708 -0.18517482 -0.06478105
000320 20 e2 29 3c e5 f1 43 3e fb e5 4e be d9 fe be 3d
       0.010368854 0.19135244 -0.20204918 0.09325952
000330 54 8e 4a 3c 70 37 cd 3d 56 1b 6c 3d a6 c9 12 bd
       0.012363035 0.100203395 0.057643257 -0.03583684
000340 b6 cd 19 3e fa d8 06 3e 41 ec 01 bd 9b 03 c4 bd
       0.15019879 0.13168707 -0.03171945 -0.09571
000350 de 88 94 bd 87 0a 6a bc ce e9 90 3d 51 a4 0d be
       -0.07252668 -0.0142847365 0.07075845 -0.13832213
000360 3e 5b 20 be b8 07 8d bd d3 d7 75 bc f4 25 e0 3c
       -0.15659806 -0.06886238 -0.01500507 0.027361847
000370 e2 7d 9a 3c ac b2 0c 3e f2 59 07 be 2f 0d a9 3d
       0.018858854 0.13740033 -0.13217905 0.08254468
000380 15 f9 38 be 81 c1 c2 3d a9 a3 59 3c 87 fc b7 bd
       -0.18063767 0.09509564 0.0132836485 -0.08983713
000390 b2 2a 36 be da aa 22 be 9f 59 80 3c 89 5f 1b be
       -0.17789724 -0.15885487 0.015667735 -0.15173163
0003a0 23 a5 2e 3e 5d f1 c4 bc 37 e3 d4 bd d1 6a 01 bd
       0.17055182 -0.024040872 -0.103949 -0.03159601
0003b0 30 9c 5a bd 39 0c 19 be ff c8 67 3d 35 db dd bc
       -0.05337161 -0.14946069 0.05658817 -0.027082065
0003c0 d5 34 13 3e 19 f7 35 3e 28 f7 8c bd 44 64 c0 bc
       0.14375623 0.17770042 -0.06883079 -0.02348531
0003d0 8b 15 c3 3d f1 44 92 bd f3 ef 0a 3e 47 c8 22 be
       0.09525593 -0.07142056 0.13568096 -0.15896712
0003e0 7e 79 05 be 6e a2 00 3e 3e 36 a5 3d 43 7b 9f bc
       -0.13034627 0.12561962 0.080669865 -0.019467955
0003f0 a6 7d 7d bd d4 7a 87 3d 18 0a 20 bd 56 8e 0f bc
       -0.061887406 0.066152245 -0.039072126 -0.008761963

lstm.weight_hh_l1 f4 [256, 64]
000000 86 c2 e0 3d 0f fc e0 bd 3c 4e 4b 3d ee 17 b1 3d
       0.109746024 -0.10985576 0.049635157 0.08647142
000010 28 93 34 bd 50 6d a1 3d 04 58 e1 3d 01 61 7b 3d
       -0.04408565 0.07882178 0.11003116 0.061371807
000020 8a b8 42 bd dd 1b 7f 3d b1 30 df bd 31 fb e9 3d
       -0.04753927 0.062282432 -0.10897959 0.11424864
000030 00 2c 8c bb a2 8b 14 bd 07 49 bd bd d4 1b c3 3c
       -0.004277706 -0.036265977 -0.092424445 0.02381698
000040 96 e3 0c be 6a ba e2 3c 27 48 c8 3b 73 5a 1f bd
       -0.13758692 0.02767678 0.006112117 -0.03890462
000050 0b eb 45 bd bc c1 b5 3c 97 d6 06 be 9c b7 6a 3d
       -0.048319858 0.022187106 -0.13167797 0.05730401
000060 68 95 ca 3d 34 cc 09 3d 7a 4c 05 be cb 00 12 3e
       0.09891778 0.03364201 -0.13017455 0.14258115
000070 d1 7e 0f be df d5 99 bc af 80 26 3d 05 d3 32 bd
       -0.1401322 -0.01877874 0.040650066 -0.043658275
000080 b8 cf 34 3d ca 28 ee 3d 41 4c 9c 3b d2 32 d0 3c
       0.04414341 0.11628874 0.0047698324 0.025414858
000090 b2 08 f8 bc 98 43 65 3d 30 4b 47 3d 3b 8a 79 bd
       -0.030277584 0.055972666 0.04865569 -0.060922842
0000a0 df 01 ad bd 21 cc af bb 77 63 03 3d b6 43 5c 3d
       -0.084476225 -0.0053649102 0.03207728 0.05377551
0000b0 ff a4 42 3d 44 80 d0 bd a0 da 17 3e ba b9 16 be
       0.047520634 -0.10180715 0.14829493 -0.14719287
0000c0 0d c1 d1 bd 99 34 0c bd 93 81 0f be 75 3c 4b 3d
       -0.102419 -0.03422985 -0.14014272 0.049618203
0000d0 6a a8 79 3d e2 67 c7 bd 51 e9 16 3e 12 a5 72 bd
       0.060951628 -0.09736611 0.1473744 -0.059239455
0000e0 94 0e 34 bd 1b 30 12 3d 79 a0 79 3b dc 48 44 3d
       -0.043959215 0.03569041 0.0038090034 0.047921047
0000f0 d3 d5 98 bc 1a cc 5c bc 71 18 37 3e bf 9a 80 3b
       -0.018656647 -0.013476396 0.17880417 0.003924697
000100 fc c6 96 3d 5e e1 2f be ab 30 c7 3c fc 1e 56 3d
       0.07362172 -0.17175815 0.024315199 0.052275643
000110 94 14 ca 3a 8b ac 98 3c 2a 8e 66 bd f0 2c 9d bc
       0.001541751 0.018636962 -0.056287922 -0.019186467
000120 93 25 c9 bc 6e f6 8d 3d 97 d1 c7 3d 1c 1c e9 3d
       -0.02455405 0.06931768 0.09756773 0.113823146
000130 dc 5a 13 3e a7 8a 59 bc e1 ce 3d 3d dd 2d 82 3d
       0.14390129 -0.013277686 0.046339873 0.06356404
000140 e0 95 06 3c 3d 34 a8 3d ec af 7a bd 61 20 a9 3d
       0.008214444 0.08213089 -0.06120293 0.08258129
000150 dc 14 07 3c ed cf bf 3b 28 25 0c be 40 21 e4 bd
       0.008244719 0.005853644 -0.13686049 -0.111391544
000160 76 53 83 3d 09 9e 39 3d 3f 5f 88 bd 11 ec b0 3d
       0.06412403 0.04531673 -0.06658792 0.08638776
000170 74 01 9c 3d e4 f9 8b bd 46 76 5a bd c2 07 a7 bd
       0.07617465 -0.06834772 -0.05333545 -0.081557766
000180 07 52 42 3d 1f 04 48 3c 09 db e5 3c c6 e0 79 3d
       0.04744151 0.012208014 0.028058546 0.061005376
000190 92 0b 1d be d9 c6 bb bd 32 46 d4 bd 41 03 d1 3d
       -0.15336445 -0.091687866 -0.10364951 0.10205699
0001a0 bc 61 c9 3d 03 f4 23 3e 57 59 ac bd 56 fe d6 bd
       0.098330945 0.16011052 -0.08415478 -0.104977295
0001b0 23 e3 ef bd 99 aa 7d bc 5a 87 2b 3e 56 3f ec bb
       -0.11713245 -0.015482568 0.16750851 -0.0072096987
0001c0 06 0b c9 bd 50 e6 8c 3d cb de 49 bd 8e 12 62 3d
       -0.09816556 0.06879866 -0.049284738 0.055193476
0001d0 7b 7d 6b 3d c9 9d d1 3d 87 9e ba bd 9d 37 ad bd
       0.057492714 0.10235173 -0.09112268 -0.08457873
0001e0 11 71 04 3e ea d7 a0 3d 96 49 84 bd 46 54 db 3d
       0.12933756 0.07853682 -0.06459348 0.10709433
0001f0 52 e5 06 3e 6c 5c a1 bc d5 a3 2e 3e 53 99 04 be
       0.13173416 -0.01969739 0.17054684 -0.12949114
000200 0b b8 a9 bc 4f 28 a1 3d 1b 6a 51 3b 3e 26 57 3d
       -0.020717641 0.078690164 0.0031954113 0.052526705
000210 33 42 a5 bb 61 e3 a5 bb d7 98 87 3d 34 06 2c bd
       -0.005043292 -0.005062506 0.06620949 -0.041998103
000220 e1 f0 e6 3c 5d 78 ca 3d 71 cb a3 3a ab ad 83 ba
       0.028191032 0.09886239 0.0012496543 -0.0010046264
000230 4d 89 b3 bd 3a 79 9e 3d 62 22 42 3d 97 84 65 3d
       -0.087664224 0.07737966 0.04739607 0.05603465
000240 7c 51 f6 bd 13 a8 df 3d 99 81 ae 3c 51 c2 ab 3c
       -0.12027261 0.109207295 0.021302031 0.02096668
000250 66 e8 a7 bd 85 83 84 3c 9e a1 29 3c 4c 45 ad 3d
       -0.08198623 0.016175995 0.010353474 0.08460483
000260 ab a8 50 3d f8 dd c6 3c 7f 64 a0 3d 3d 67 47 bc
       0.050942104 0.024275765 0.07831668 -0.01217061
000270 44 a2 6c 3d 24 ce 08 3d 80 07 bd 3d 89 39 c2 ba
       0.057771936 0.033399716 0.09229946 -0.0014818172
000280 40 9a a9 bd eb dc 8f 3d 1a 1d 34 3d f8 4c 9e 3d
       -0.08281374 0.07024559 0.043973066 0.077295244
000290 1b 6d 58 3d 60 4b b5 3d 5b f4 10 3d fd e3 80 3a
       0.052838426 0.08852267 0.035389286 0.0009833571
0002a0 6c 06 d0 3d a7 d0 1c 3d e3 9e e8 bd 3b 35 8c bd
       0.10157475 0.038284924 -0.1135843 -0.068460904
0002b0 c5 51 fc bd 0b f7 17 bc 90 09 98 bc ef 06 b2 3d
       -0.12320284 -0.009275208 -0.018559247 0.08692729
0002c0 de 82 06 be 72 d7 ce 3d bd 9a 9a bd d0 89 67 3d
       -0.1313586 0.10099687 -0.07549045 0.056527913
0002d0 8c a2 0e 3d c0 da df 3d fc bb cb 3b 7d fa b8 3d
       0.034822986 0.10930395 0.006217478 0.09032152
0002e0 48 c3 0b 3e 04 42 65 bd e4 af 95 3d 48 e0 c0 bd
       0.13648713 -0.05597116 0.07308939 -0.09417778
0002f0 0f 75 97 3d 91 d9 4a 3d e7 e8 89 3d e4 5f 44 3d
       0.07395374 0.049523894 0.06733876 0.04794301
000300 12 83 2a bd de 88 af 3b 39 46 33 be 6d 78 2c 3e
       -0.041628905 0.005356892 -0.17507257 0.16842814
000310 92 2b 28 be 60 af e4 3c 5d f1 30 3e 4e d8 1d 3d
       -0.16422871 0.027915657 0.17279573 0.038536362
000320 97 ab 83 3d 42 cf 88 bd 4b b8 9c 3d 90 72 85 bc
       0.064292125 -0.06680156 0.076523386 -0.01628998
000330 2e 5c fe 3c 1a 3c 81 bd 4e ac 8f bc 21 78 34 3d
       0.031049814 -0.063102916 -0.017538216 0.044059876
000340 86 c4 fa bd 2c de 88 bd 77 9a ac bd c0 95 72 bd
       -0.12244515 -0.06683001 -0.08427899 -0.059224844
000350 ed aa c5 bc ae d2 83 bc b3 35 aa 3d 49 fd 22 be
       -0.024129355 -0.01609167 0.083110236 -0.15916933
000360 1e 3c a5 3d 70 7d 1c be 55 bb 53 bd 86 d8 af 3d
       0.08068107 -0.15282226 -0.051692326 0.085862204
000370 22 4a 74 bd 6f 79 2d 3e f9 0f 3d 3d 61 8d 83 3c
       -0.05964101 0.16940854 0.04615781 0.016058626
000380 b8 4c c3 3d a7 ed a3 3c cc 46 07 be c0 0d 70 bd
       0.09536117 0.020010782 -0.132106 -0.058606863
000390 e9 0d 99 3c b9 46 41 be bf 06 2c be b2 0d 8d 3d
       0.01868339 -0.18874635 -0.16799448 0.06887378
0003a0 54 02 22 be f2 54 5c 3d 9c 08 ab 3d e3 3e cc bd
       -0.158212 0.053791948 0.083512515 -0.09972932
0003b0 b4 2e 79 3d 64 90 56 bd cb c1 f2 3d e2 f7 c0 3b
       0.060835555 -0.052383795 0.11853369 0.005888925
0003c0 51 b1 22 be 13 ae fe 3d 3c 57 df bc 3a 69 33 3d
       -0.15887953 0.12435546 -0.027263276 0.043801524
0003d0 1b 95 91 3d 7f 2b 24 be e7 14 83 3c b5 d8 9e bd
       0.07108518 -0.16032217 0.016001178 -0.07756177
0003e0 b9 af ce bc 6b 8e 01 bd 91 97 10 3e 1e 0c 88 bc
       -0.025230275 -0.03162996 0.14120318 -0.01660734
0003f0 55 ef 7d 3d 22 fd 12 3e 18 01 28 3e 63 8f dd 3d
       0.061995823 0.14354375 0.16406667 0.108183645

lstm.bias_ih_l1 f4 [256]
000000 98 a4 1a 3e b5 a0 a7 3c b3 ec ca 3d ad 68 a4 3d
       0.1510185 0.020462373 0.09908428 0.08027778
000010 dd 27 1a 3e ac 0e 8e bd 63 19 a7 3d 7e 00 9f 3b
       0.15054269 -0.06936392 0.08159139 0.0048523536
000020 e1 39 9c bd 55 a1 40 bd 96 50 87 bd 30 c2 c5 3c
       -0.07628227 -0.04702886 -0.066071674 0.024140447
000030 54 89 22 3e 87 bf cc bd da 14 23 3e 71 4c ea 3d
       0.15872699 -0.099974684 0.15925923 0.11440361
000040 50 6c 42 3c a8 9b 25 bd 5f 42 bd 3d 48 88 49 3d
       0.011866644 -0.04043165 0.09241175 0.049202234
000050 c3 72 f1 3c ea f0 49 3c d8 5b c0 3b 40 cf 9a 3d
       0.029473668 0.012325505 0.0058703236 0.07559061
000060 18 79 e0 3d 38 0d 7f 3d 4b 70 17 3e a6 bc 1d bd
       0.10960597 0.062268466 0.1478893 -0.038509987
000070 fa a1 bd bd cf 91 08 3d 91 24 d1 bc 21 93 35 3d
       -0.0925941 0.03334218 -0.025530132 0.044329766
000080 b7 c8 b7 3c 6a a5 27 3d 13 80 9e 3d 97 bc 1c 3e
       0.022434575 0.040929236 0.07739272 0.15306316
000090 2e 11 f4 3d 5a 31 9c 3d b9 f9 a3 3d 02 51 cf 3d
       0.11917339 0.076266006 0.08006615 0.10122873
0000a0 84 ff 41 3e 87 34 07 3e 06 90 16 3e 90 3c e7 3c
       0.18945128 0.13203631 0.14703378 0.02822712
0000b0 f4 d3 aa 3d 36 3a 89 bd 78 10 28 3d 12 67 d9 bb
       0.08341208 -0.06700556 0.04103133 -0.0066346014
0000c0 b3 7d 17 3e 67 8a 5c 3c 50 15 ae bc 0b c2 52 3b
       0.14794044 0.013460732 -0.021250397 0.0032159116
0000d0 28 f4 d6 3c 25 e5 c2 bc 78 bb e8 3c f6 fe cd bd
       0.02623947 -0.023790905 0.028409705 -0.100583956
0000e0 cb b7 34 3e 6e e0 57 3d 78 17 06 3e 58 a6 a1 3c
       0.17648236 0.052704267 0.1309489 0.01973264
0000f0 15 d8 49 bc 93 ea e2 3d 39 5d 22 3e 75 40 03 3e
       -0.012319584 0.11079898 0.15855874 0.12817557
000100 f0 e8 a2 bc 88 e5 14 3d 3c c4 8b bd 71 aa dd bd
       -0.019886464 0.03635171 -0.06824538 -0.10823525
000110 4c ee e0 3b c0 06 e2 3d 24 91 15 3c 95 fe 80 bb
       0.0068643447 0.11036444 0.0091288425 -0.0039365985
000120 8b 70 36 bd c4 18 46 bd eb 37 27 3d 4e d3 85 bd
       -0.044540923 -0.048363462 0.040824812 -0.06534444
000130 cb 3f e6 3b 20 9b ee 3d 0b 24 bd 3d 1f 6a 93 3d
       0.0070266477 0.116506815 0.0923539 0.07197975
000140 41 57 04 3d 96 ee eb bd e8 17 b9 bd 36 22 de 3d
       0.032309774 -0.11520116 -0.09037763 0.10846369
000150 46 84 e1 bd ae 05 f3 3d 7e 86 bd 3d eb bc 8c bc
       -0.11011557 0.11866318 0.09254168 -0.017179927
000160 69 a6 ad 3d 2d 0b 05 be ef 8f db 3d 0c 91 4f 3c
       0.08479006 -0.12992544 0.107208125 0.012668859
000170 40 e2 a3 bd 32 ec 24 3d f2 b9 22 bd c9 f9 ce bd
       -0.08002138 0.040264316 -0.039728113 -0.101062365
000180 51 6a b0 bd 87 fb 7f bb 74 0e 80 bd 4c ca 28 3d
       -0.08614028 -0.0039059834 -0.06252757 0.04120855
000190 01 c6 c1 3c 67 c2 a0 3d bb ba 60 3d 9e 90 08 bd
       0.023653986 0.07849579 0.05486558 -0.033341043
0001a0 7d 80 a2 bc 5a 21 de 3d 5a f2 af 3d 5b d4 2b 3b
       -0.019836659 0.10846205 0.08591147 0.0026219103
0001b0 97 67 b2 3d ae fb 76 bd cc 88 a8 3b 20 c7 d4 3d
       0.087111644 -0.060298614 0.0051432606 0.103895426
0001c0 9f d4 c2 3d dc cc 3a 3d 8b 7d b5 bd df 7c 6b ba
       0.095132105 0.045605525 -0.08861836 -0.0008983146
0001d0 6b 3d 8f 3d 88 4e d3 bd 4a 0a f4 bd 9d 33 ec 3d
       0.069941364 -0.10317713 -0.11916025 0.11533282
0001e0 20 d9 74 bd d1 d6 43 3d 14 a8 d2 3d 81 7b ec bc
       -0.05977738 0.047812287 0.102859646 -0.028867485
0001f0 02 5e 1f 3d a5 72 77 bd 6b 22 30 bd 4d c7 14 bd
       0.038908012 -0.060412068 -0.043001574 -0.03632288
000200 1d 27 b7 3d b0 87 d0 bd 42 01 e6 bd 15 ab 56 3c
       0.08943007 -0.1018213 -0.11230709 0.013102313
000210 e2 8d 9c bd 28 42 9e 3d c5 07 bd 3d d2 88 e8 3d
       -0.076442495 0.07727462 0.092299975 0.113542214
000220 b3 ba f9 3d 6c 00 85 3d 3f 81 3a bd 3d 55 cb 3d
       0.12193813 0.06494221 -0.045533415 0.09928367
000230 ec f8 d5 3d e4 31 07 be df 6d ef bb 89 6f 09 3e
       0.10447869 -0.13202626 -0.007306799 0.13421454
000240 cf ce b8 bd f5 2f c2 3d 42 5f f1 bb b2 d3 70 bc
       -0.090238206 0.09481803 -0.007366092 -0.01469891
000250 82 27 a1 bd f0 21 17 bc bd 50 a5 bd 9b 47 be bd
       -0.07868864 -0.0092244 -0.0807204 -0.092910014
000260 3d 58 f6 3d 43 15 01 be 0c 7d 5f bc 7c 08 dc 3d
       0.12028549 -0.12605767 -0.013640653 0.10743806
000270 6f 94 d4 bd f0 02 55 3d 23 92 d1 3d 9c 2b ac 3c
       -0.10379874 0.052004755 0.102329515 0.021016888
000280 7e fb 13 3e b2 9d bb 3d bc 01 8c 3d a0 6d a9 bd
       0.14451405 0.09160937 0.06836268 -0.082728624
000290 e6 c4 4d bd dd d8 2a bb 06 53 c0 bd 40 48 9f 3d
       -0.050236605 -0.0026069202 -0.093908355 0.077774525
0002a0 66 b4 c0 bd 9a 6b 9d bd 03 3b e0 bc 01 7d f4 bd
       -0.09409408 -0.07686539 -0.027371889 -0.11937905
0002b0 cf 78 af bd 63 6b 89 bd 7b 4d 02 3e 59 66 03 bd
       -0.08567964 -0.067099355 0.12724869 -0.03208003
0002c0 ad 71 d8 bd a3 c7 45 bd 38 1c bb bd 4d ad 84 3a
       -0.10568557 -0.04828609 -0.09136242 0.0010122448
0002d0 0d d9 f6 3d f7 61 be bc 7e 6d 09 3e 88 07 db bd
       0.12053118 -0.023240073 0.13420674 -0.10694796
0002e0 12 06 e7 3d 46 e2 be 3d 36 cd 23 3e 0e ab c1 3c
       0.11280455 0.09320502 0.1599625 0.023641136
0002f0 46 fa 99 3d 69 96 b4 3d d6 60 9b 3c df f3 cf 3b
       0.07518439 0.08817751 0.018967073 0.0063462104
000300 3a 15 0d 3d 9e 33 a7 bc 1b fb 56 bd 89 73 5c bc
       0.03444407 -0.020410355 -0.052485567 -0.01345528
000310 b9 70 bd 3c ce ab 09 3d 4d 47 eb 3d 64 f1 c0 3d
       0.02312504 0.03361111 0.11488209 0.094210416
000320 b8 a5 b1 3d ce c2 0d 3e 42 21 db 3a e6 98 ce bb
       0.086741865 0.13843843 0.0016718286 -0.006304848
000330 ab b7 d7 3d 9c cb ec 3d 71 68 d4 3d c2 ad 8d 3d
       0.10533079 0.11562273 0.10371483 0.06917907
000340 18 62 f7 3d d7 bf b4 3b 93 d6 a2 3d bf 75 8b 3d
       0.12079257 0.005516033 0.07951083 0.06809568
000350 53 15 09 3d 4f e8 40 3e 60 1d 52 3d 4c ff 3e bd
       0.033467602 0.18838619 0.051297545 -0.04663019
000360 c5 31 9b 3d bc 8b f2 3d 80 44 c5 3d fd a4 e2 3d
       0.07577852 0.118430585 0.09632206 0.11066625
000370 d4 0b 11 3e de a2 91 3c a5 bc 1d 3e 8c 46 cf 3c
       0.14164668 0.017777856 0.15403993 0.025302194
000380 d2 62 df 3d 59 cc ab 3d fb 95 8f bd 6a 32 a5 3d
       0.1090752 0.083885856 -0.070110284 0.08066256
000390 fe 55 20 3e c9 53 0b 3e 1a 22 2a 3b 3f 99 92 3d
       0.15657803 0.1360618 0.0025960268 0.071581356
0003a0 a7 df ed bc 41 d5 21 3c b9 f9 bf bb f8 93 1a bd
       -0.02903731 0.009877504 -0.0058586267 -0.03773877
0003b0 18 65 b4 bd e9 1b 06 3d 2c 20 1b 3e d0 8e b4 3c
       -0.088083446 0.03274146 0.15148991 0.022040755
0003c0 00 62 0f 3e ae 4a 86 3b 61 4e cd 3d 1d 8a 2c 3e
       0.14002228 0.004098258 0.10024715 0.16849561
0003d0 ed de b4 3d e4 7a 32 3e db 49 a6 bc 36 51 a3 3d
       0.08831582 0.17429692 -0.020298889 0.07974474
0003e0 b3 32 5a 3e 07 b1 82 3d 78 f2 04 3e bb 2c 95 3d
       0.21308403 0.063814215 0.1298312 0.07283922
0003f0 2e e4 65 bd 41 a2 15 3e f5 50 0d 3e b3 0d b1 3c
       -0.056125812 0.14612676 0.13800414 0.021612978
