LSTM/models/sensor_data_1_pm25_lstm_model.pth (torch, 206060 bytes, 9 tensors)

lstm.weight_ih_l0 f4 [256, 1]
-0.10274152 -0.05910696 -0.2505423 0.0023338238 -0.10032634 0.008117679 -0.24944296 0.069254346
-0.022014303 -0.25474527 0.027321247 -0.17850895 0.1097238 0.018668894 -0.06604586 0.11288985
-0.08410973 0.24584298 -0.09137725 0.114833936 0.026406668 0.0924321 -0.24327266 0.2159139
0.059003673 -0.29395998 0.0029962952 0.047315978 -0.1149074 -0.19268425 -0.2576175 -0.008913446
-0.026933005 -0.17588003 -0.26107273 -0.0075203767 -0.29591584 0.108564496 -0.20635009 -0.25174722
-0.16653374 -0.16642219 -0.082994275 0.20990957 0.15477027 -0.14945172 0.019691393 -0.27640396
0.029227603 -0.14077759 -0.17313357 -0.118437886 0.021765962 0.0073512024 -0.0060216263 0.17815776
0.02843755 0.03236541 -0.026907988 -0.026795996 -0.004582072 0.15569443 -0.07250995 0.033563487
0.0007954892 -0.025497464 -0.2470999 -0.00051080325 -0.20931606 0.00656353 -0.2491202 -0.018107219
0.026152974 -0.10949331 0.077258565 -0.17068271 0.009433625 -0.10686188 -0.114866644 0.16533464
-0.25523192 0.10385427 -0.057285216 0.13223924 -0.008671049 0.029120278 -0.25794923 -0.051932603
0.14913708 -0.04735154 -0.18296085 -0.142568 -0.23692137 -0.16100922 -0.11303501 0.08264952
0.03314595 -0.055404097 -0.2375436 0.114465736 -0.15668033 0.038188178 -0.14721613 -0.18733422
-0.042009443 -0.025384363 -0.11314196 0.00973734 0.015181211 -0.042684812 0.050747417 -0.24978858
-0.11799355 -0.20638977 -0.1953494 -0.19874506 0.14745076 -0.10865584 -0.052245047 0.03903584
0.03258288 0.09762797 -0.10561754 -0.07394447 -0.061533276 0.09282061 -0.13918026 -0.05266243
0.1240625 0.13507335 -0.1848511 0.17880549 0.25873664 0.13486047 0.29642662 0.20321603
0.19974576 0.2366021 -0.15922281 0.16538085 -0.2092835 0.27660513 0.018617297 -0.13799465
-0.1369633 0.15263179 0.2831362 0.18207912 0.01278881 -0.17659284 0.21293388 0.019617762
-0.108646095 -0.16016407 0.19630356 -0.109117046 0.2831273 0.19380364 -0.21143319 0.2591531
-0.22201636 -0.3012431 0.16876133 -0.21409915 0.13400285 0.103833206 0.22754268 -0.10441678
0.2567 0.07273422 0.14322376 0.1632201 0.15654165 0.12479631 -0.22422548 -0.19699953
-0.20595343 0.1273253 0.26865327 -0.14820284 -0.1509397 0.24871364 -0.12595983 0.11757475
0.14088929 0.17272648 0.26699805 -0.17558406 -0.124243826 -0.27419442 0.16075915 -0.037638728
0.040024515 -0.10636822 -0.30647475 0.122876115 -0.19657925 -0.016822338 -0.14518303 -0.01038396
0.012761646 -0.31516322 0.04341608 -0.24545324 0.22474389 -0.09905906 -0.04390131 0.19198862
-0.17482516 0.26546958 -0.01881511 -0.05346925 -0.15767625 0.20962591 -0.28688338 0.17189552
0.14317323 -0.31898373 -0.07017572 -0.003919642 -0.2124585 -0.23433012 -0.19497795 0.06827499
-0.078289844 -0.07829495 -0.2950314 -0.00286144 -0.12050451 0.14517331 -0.17448056 -0.06827698
-0.16332431 -0.08874525 -0.00954747 0.30543053 0.0007986139 -0.27062735 0.015953612 -0.14905764
-0.18923844 -0.25172836 -0.07801137 -0.101194024 -0.114455834 -0.033526815 -0.021698982 0.23781377
-0.0017053069 0.026694538 -0.037716143 0.074385785 -0.080660366 0.028506739 -0.18401307 0.094259106
00000000: 256a d2bd 241a 72bd 1547 80be 11f3 183b
00000010: e577 cdbd 0300 053c fa6d 7fbe 39d5 8d3d
00000020: 5757 b4bc f96d 82be cfd0 df3c 0dcb 36be
00000030: dfb6 e03d 82ef 983c 0d43 87bd cb32 e73d
00000040: b941 acbd 43be 7b3e ff23 bbbd 0e2e eb3d
00000050: cc52 d83c 0a4d bd3d 781c 79be 8918 5d3e
00000060: d6ad 713d ec81 96be 7e5d 443b 66ce 413d
00000070: 9254 ebbd 054f 45be 71e6 83be b409 12bc
00000080: 9ba2 dcbc e519 34be 53ab 85be 7e6d f6bb
00000090: 4882 97be 1057 de3d 704d 53be 03e5 80be
000000a0: d287 2abe 946a 2abe e7f8 a9bd 89f2 563e
000000b0: 197c 1e3e df09 19be d84f a13c d284 8dbe
000000c0: ba6e ef3c 0028 10be ed49 31be 908f f2bd
000000d0: 884e b23c 5be2 f03b 1051 c5bb fd6e 363e
000000e0: ddf5 e83c 9891 043d 246e dcbc 4783 dbbc
000000f0: 3525 96bb 5c6e 1f3e 1980 94bd de79 093d
00000100: 6088 503a 0fe0 d0bc c207 7dbe 6de7 05ba
00000110: f356 56be e112 d73b 5e19 7fbe 9755 94bc
00000120: c33e d63c 073e e0bd bd39 9e3d 73c7 2ebe
00000130: 7e8f 1a3c 67da dabd 343f ebbd 7c4d 293e
00000140: c2ad 82be 8cb1 d43d e7a3 6abd b969 073e
00000150: 0411 0ebc a68d ee3c ec11 84be 48b7 54bd
00000160: 64b7 183e b0f3 41bd 175a 3bbe 59fd 11be
00000170: 849b 72be 9adf 24be e67e e7bd 2744 a93d
00000180: 0cc4 073d 68ef 62bd a13e 73be 036d ea3d
00000190: cf70 20be 356b 1c3d d3bf 16be 8bd4 3fbe
000001a0: 1812 2cbd def2 cfbc f9b6 e7bd 5d89 1f3c
000001b0: 9dba 783c 45d6 2ebd 86dc 4f3d 94c8 7fbe
000001c0: 9aa6 f1bd d757 53be ac09 48be d383 4bbe
000001d0: 55fd 163e f486 debd e7fe 55bd 0ce4 1f3d
000001e0: a075 053d 2cf1 c73d 024e d8bd 3370 97bd
000001f0: 510a 7cbd bb18 be3d 4585 0ebe 8fb4 57bd
00000200: 7b14 fe3d ab50 0a3e 9b49 3dbe c918 373e
00000210: 2179 843e dd18 0a3e 3bc5 973e dd17 503e
00000220: 278a 4c3e d247 723e 4e0b 23be 9959 293e
00000230: 6a4e 56be 309f 8d3e 4d83 983c 784e 0dbe
00000240: 1b40 0cbe 824b 1c3e 3af7 903e f372 3a3e
00000250: 2888 513c c1d4 34be 570b 5a3e 6eb5 a03c
00000260: d881 debd 0d02 24be cd03 493e c278 dfbd
00000270: 10f6 903e 7674 463e f181 58be b7af 843e
00000280: 4258 63be 893c 9abe c5cf 2c3e cf3c 5bbe
00000290: 0b38 093e 81a6 d43d f300 693e 77d8 d5bd
000002a0: 2f6e 833e aef5 943d 40a9 123e 2b23 273e
000002b0: 744c 203e 3595 ff3d 5d9b 65be 3fba 49be
000002c0: 75e5 52be 9061 023e ec8c 893e 7cc2 17be
000002d0: f08f 1abe caae 7e3e 9dfb 00be 08cb f03d
000002e0: 4845 103e 36df 303e f8b3 883e 4fcc 33be
000002f0: 8c73 febd 3663 8cbe 0c9e 243e 112b 1abd
00000300: bff0 233d 95d7 d9bd 42ea 9cbe 79a6 fb3d
00000310: 124c 49be 00cf 89bc dcaa 14be 7c21 2abc
00000320: 3916 513c 135d a1be 0fd5 313d 1858 7bbe
00000330: 4323 663e 7adf cabd dcd1 33bd aa98 443e
00000340: 5e05 33be a1eb 873e 2522 9abc 9302 5bbd
00000350: e275 21be 2da8 563e 61e2 92be 6105 303e
00000360: 019c 123e d651 a3be 4ab8 8fbd 5770 80bb
00000370: b98e 59be 3cf4 6fbe 4da8 47be c2d3 8b3d
00000380: 6d56 a0bd 1a59 a0bd 5b0e 97be ff86 3bbb
00000390: 12cb f6bd 50a8 143e 08ab 32be cdd4 8bbd
000003a0: 7d3e 27be 12c0 b5bd fe6c 1cbc 6461 9c3e
000003b0: 125a 513a ab8f 8abe 26b1 823c 91a2 18be
000003c0: b9c7 41be 8ae2 80be 6dc4 9fbd d03e cfbd
000003d0: d267 eabd 6a53 09bd 10c2 b1bc 7485 733e
000003e0: 9b84 dfba 81ae da3c 3e7c 1abd 9357 983d
000003f0: 4331 a5bd f786 e93c ec6d 3cbe eb0a c13d

lstm.weight_hh_l0 f4 [256, 64]
0.12233152 -0.024703134 0.03549806 0.09161825 0.10682648 -0.039429862 -0.112078525 0.07334495
0.046112105 -0.07528371 0.12059113 -0.047200285 -0.050920013 0.026042124 -0.11328894 0.089920774
-0.01046012 -0.100398496 -0.14537112 -0.045222137 -0.085111454 0.08611487 -0.10726521 -0.03174173
-0.06237293 0.12736228 0.02234234 -0.011983023 0.070883326 -0.12696902 -0.038548935 -0.014990509
-0.01913851 0.1281362 -0.10478819 0.062453553 -0.07585627 -0.02746724 -0.034469597 0.045492515
-0.018487183 0.027183674 -0.02109879 0.020949068 -0.121193305 -0.03333757 -0.013275158 0.17556803
0.102117546 0.006073131 0.060768697 0.10672161 -0.017985923 -0.1082661 0.10739067 0.01573558
-0.037354995 0.066386476 0.09814386 0.0025971013 0.07873083 0.06604711 0.08861647 0.019392205
-0.15583262 0.026092127 0.13705172 0.0465033 -0.07203006 0.039340213 -0.11278135 0.08417245
-0.008728072 0.03920733 -0.116092294 -0.13233471 -0.22619316 0.14258128 -0.008848981 -0.08227501
0.09775226 0.17388979 0.09589819 0.025045164 -0.11381145 0.073363416 0.027120978 0.031725325
-0.21011369 0.081426956 0.15757033 -0.049258035 -0.033223294 -0.040120125 0.11212964 0.096659094
-0.048316084 0.10509748 -0.15890205 -0.04329629 -0.15826105 0.09447201 -0.06034927 0.115015425
-0.020214735 0.03257026 0.07343809 0.124275275 -0.070035934 -0.042856716 -0.04679555 0.039426308
0.015207982 -0.051661324 0.058951616 0.03967443 -0.03945263 0.020401794 -0.13088337 0.08999966
0.009969636 0.05733668 0.14569363 -0.13463473 0.012315956 -0.0601175 0.041917045 -0.015560136
0.04406634 -0.14882262 -0.043421485 -0.024630569 -0.01899745 0.009139226 0.06434846 -0.13138627
0.067104995 -0.09157878 -0.033829387 -0.046601214 0.023329856 -0.0032374274 0.02354267 -0.069867484
0.13266751 0.20020199 -0.1045098 -0.05551575 -0.0013024259 -0.017080164 -0.09471469 0.1659127
-0.0015359853 0.07526782 -0.020182475 0.08679597 -0.12450394 0.005029426 0.1559247 0.104176395
0.053295046 -0.07220334 0.00854986 -0.028746363 -0.0025135342 0.107029036 0.018149648 0.20458713
-0.035579693 -0.009257291 0.073046215 0.1618216 0.082521394 -0.010875484 -0.006560221 0.20464286
0.17776272 0.05337191 0.07645337 0.0886531 0.06719476 -0.09205441 -0.11210917 0.15587303
-0.06602748 -0.01619191 -0.032481637 -0.104007445 0.1750522 -0.15504265 -0.019696716 0.070826046
-0.10563357 0.16064978 -0.07733832 0.155498 -0.04792695 0.09831102 -0.016219506 -0.036990456
0.052088507 0.021380076 -0.06363286 -0.10553269 -0.041294593 0.14732864 0.0052444045 -0.17451611
0.10262705 0.16517662 0.1605511 0.16616172 -0.12307164 -0.023362175 -0.013817551 0.14814514
-0.18599997 0.10447039 -0.032583784 0.06020715 0.1289012 0.10752919 -0.1253547 0.02944118
-0.08635179 0.07237415 -0.07374061 0.01937333 0.025980165 0.13881296 -0.019763362 0.11943968
0.1520695 -0.12430587 0.15175477 -0.026152102 0.04582819 0.029999418 -0.028242713 -0.060858186
0.1170178 0.030578468 0.06613371 0.13667451 -0.14069189 -0.038414333 -0.13049275 0.11996466
0.10535852 0.090205304 -0.018355684 0.08196214 0.041506875 0.03464748 0.027948068 -0.107228324
00000000: f388 fa3d 3a5e cabc 6a66 113d 59a2 bb3d
00000010: d7c7 da3d 3581 21bd 6d89 e5bd e135 963d
00000020: 0ce0 3c3d 592e 9abd 7bf8 f63d 1655 41bd
00000030: 8191 50bd 4b56 d53c 0804 e8bd 6228 b83d
00000040: ec60 2bbc ba9d cdbd 2bdc 14be d93a 39bd
00000050: ea4e aebd fe5c b03d ddad dbbd 9e03 02bd
00000060: c27a 7fbd 426b 023e 4807 b73c 7154 44bc
00000070: 472b 913d 2b04 02be 7de5 1dbd c09a 75bc
00000080: 5dc8 9cbc 2336 033e 319b d6bd 4ccf 7f3d
00000090: 885a 9bbd fa02 e1bc fe2f 0dbd 5c56 3a3d
000000a0: 6f72 97bc 4cb0 de3c 5fd7 acbc 619d ab3c
000000b0: 3234 f8bd fa8c 08bd 0c80 59bc 1bc8 333e
000000c0: 0123 d13d 1e01 c73b 99e8 783d dc90 da3d
000000d0: 3757 93bc 9eba ddbd a4ef db3d e7e7 803c
000000e0: 8d01 19bd a2f5 873d a6ff c83d 2134 2a3b
000000f0: a13d a13d b543 873d 8d7c b53d 67dc 9e3c
00000100: 9692 1fbe 28bf d53c 4957 0c3e 3f7a 3e3d
00000110: 7f84 93bd 3423 213d e9f9 e6bd 9b62 ac3d
00000120: 3000 0fbc de97 203d ccc1 edbd c082 07be
00000130: 2e9f 67be d400 123e 51fb 10bc cd7f a8bd
00000140: 5632 c83d 2a10 323e 4566 c43d 842b cd3c
00000150: fa15 e9bd 8f3f 963d d02c de3c 6af2 013d
00000160: 0b28 57be 2dc3 a63d 1e5a 213e cbc2 49bd
00000170: 2615 08bd 0055 24bd 3aa4 e53d 34f5 c53d
00000180: 16e7 45bd 593d d73d 38b7 22be 7357 31bd
00000190: 2f0f 22be 8b7a c13d cc30 77bd 358d eb3d
000001a0: 5f99 a5bc 6568 053d b666 963d 0984 fe3d
000001b0: 006f 8fbd 868a 2fbd b1ac 3fbd 7b7d 213d
000001c0: e62a 793c d39a 53bd 4077 713d a881 223d
000001d0: 1599 21bd aa21 a73c 4a06 06be be51 b83d
000001e0: af57 233c ded9 6a3d b630 153e b0dd 09be
000001f0: ddc8 493c c53d 76bd 35b1 2b3d f1ef 7ebc
00000200: e87e 343d f564 18be bada 31bd 0cc6 c9bc
00000210: 8aa0 9bbc b1bc 153c 20c9 833d 1f8a 06be
00000220: 586e 893d a88d bbbd af90 0abd eae0 3ebd
00000230: 411e bf3c 052b 54bb 8fdc c03c af16 8fbd
00000240: fed9 073e c001 4d3e 3c09 d6bd 7c64 63bd
00000250: 29b6 aaba b3eb 8bbc c7f9 c1bd 05e5 293e
00000260: 1d53 c9ba 0426 9a3d b855 a5bc 16c2 b13d
00000270: ecfb febd e2cd a43b b9aa 1f3e 6f5a d53d
00000280: e84b 5a3d 58df 93bd b614 0c3c 7e7d ebbc
00000290: 1bba 24bb 0a32 db3d 92ae 943c 4a7f 513e
000002a0: 03bc 11bd e5ab 17bc 4199 953d 90b4 253e
000002b0: fa00 a93d 162f 32bc 1ff7 d6bb e68d 513e
000002c0: 6e07 363e 819c 5a3d 9693 9c3d c28f b53d
000002d0: 689d 893d 0687 bcbd 7e99 e5bd 2e9d 1f3e
000002e0: 6a39 87bd e5a4 84bc 770b 05bd db01 d5bd
000002f0: e240 333e 80c3 1ebe 025b a1bc 3f0d 913d
00000300: 6a56 d8bd 6081 243e 8e63 9ebd de3a 1f3e
00000310: 0d4f 44bd 4a57 c93d c5de 84bc 4e83 17bd
00000320: c25a 553d 4525 af3c f251 82bd 8621 d8bd
00000330: 8524 29bd 52dd 163e 41d9 ab3b 5ab4 32be
00000340: 212e d23d 0f24 293e 8267 243e 4c26 2a3e
00000350: fc0c fcbd 0862 bfbc 0263 62bc 5cb3 173e
00000360: c776 3ebe 92f4 d53d 9376 05bd c69b 763d
00000370: adfe 033e 4438 dc3d fc5c 00be a12e f13c
00000380: 35d9 b0bd e638 943d 5105 97bd d1b4 9e3c
00000390: 5bd4 d43c fc24 0e3e c6e6 a1bc ca9c f43d
000003a0: 1bb8 1b3e 1394 febd 9a65 1b3e ef3c d6bc
000003b0: 57b6 3b3d 57c1 f53c 435d e7bc 6f46 79bd
000003c0: 07a7 ef3d b27f fa3c 1c71 873d 67f4 0b3e
000003d0: 8911 10be 5958 1dbd e49f 05be 08b0 f53d
000003e0: 35c6 d73d 8fbd b83d a95e 96bc c4db a73d
000003f0: 1d03 2a3d 84ea 0d3d 59f3 e43c 869a dbbd

lstm.bias_ih_l0 f4 [256]
0.13425131 0.18600565 0.0986158 0.16574165 0.10989331 0.06033867 0.028234497 0.22633433
0.043513343 0.29688686 0.047260825 0.013687419 0.028740551 0.20601295 0.041576583 0.1534531
0.25452238 0.122071035 0.20173307 0.14476071 -0.007624965 0.023625918 0.13114144 0.13269174
0.19921373 0.07946781 0.2165159 0.06741752 0.11442962 0.24525885 0.010043364 0.23952629
0.18944786 0.19424398 0.054866653 0.13716471 0.065752335 0.08758914 0.089575626 0.07499956
0.3297295 0.15654227 0.030134412 0.19673589 -0.026302624 0.13908914 0.1376482 0.27292955
0.13846733 0.026532115 0.15901488 0.10485057 0.16365989 0.18160017 0.1283342 0.13015354
0.09329436 0.17900676 0.21814117 0.2824398 -0.014062347 0.03256617 0.09294062 -0.017244488
0.061446097 0.09639347 -0.0049948385 -0.0050426503 -0.02859304 0.06593629 -0.031678274 -0.07408223
0.08271052 -0.04326494 -0.034614503 -0.014406386 -0.059505865 -0.017708015 0.089214176 -0.01952414
-0.007256222 -0.037844885 0.00096526736 0.041605342 0.103352435 0.07339753 -0.008098104 0.14849022
-0.07290416 0.14505185 -0.035632763 0.0053658276 -0.050835796 0.024760524 -0.007858308 -0.021612108
-0.069827 -0.08430738 0.06223113 0.09120627 -0.04556876 0.05758411 -0.023570701 0.14790452
-0.17490853 -0.033020172 0.15914753 0.080483556 0.05471578 0.0263363 -0.060213033 -0.07787769
0.040138848 0.05190186 0.01046244 0.093588404 0.16072886 -0.026145173 -0.030461896 -0.055692364
0.04282604 -0.11334754 -0.098788716 -0.12872678 0.10851129 -0.09393601 -0.07345886 0.023173168
-0.070127554 0.00010307149 0.08523405 0.14109263 -0.030789396 0.010956479 -0.10454676 0.076347135
0.15482791 -0.074414946 -0.14940259 -0.038445644 -0.1555297 0.1008459 0.11693776 -0.038830433
0.09747252 0.082249925 -0.035229288 0.034557372 -0.15576476 -0.11152776 -0.05628489 0.08684257
-0.04846262 0.1489992 0.07459295 -0.06841222 -0.12871486 -0.075493574 0.07908869 -0.0804295
-0.050150324 0.10298086 0.031335067 -0.025870668 -0.18145229 -0.09392879 0.0063367193 0.18006264
0.0016754447 -0.14290473 0.085639246 0.15915489 0.055242598 -0.113487884 0.102264024 0.10215445
0.07320485 0.04740253 0.15433988 -0.020120494 -0.02245711 -0.0037138495 -0.1611483 0.03335788
0.010325554 0.028797075 0.12706219 -0.110750765 -0.10986116 0.024105454 0.030824738 -0.08585284
-0.024253342 0.24805658 0.21062766 0.14430103 0.21497498 -0.010743909 0.27403963 0.020860871
0.032274995 0.07807718 0.033464488 0.10498468 0.16315803 0.10494494 0.13439336 -0.0022885296
0.17982844 0.26935259 0.16135223 0.2346051 -0.0834065 0.08570158 0.032986484 0.05452034
0.11209302 0.045444287 0.1645222 0.10220494 0.19630414 0.24769858 0.1435637 0.12952797
0.14443074 0.15012409 0.07685198 0.02220413 0.100253604 0.052272618 0.17935361 0.054749507
0.18285379 -0.025303436 0.1610814 0.029004838 0.22442546 0.044630744 0.14162746 0.16498291
0.04716861 -0.0235958 0.07867921 0.100822136 0.2630058 0.06959778 0.14013046 0.20556147
0.17409363 0.15426423 0.17963132 0.19439864 0.0056978855 0.07030574 0.029262906 0.10628267
00000000: 2d79 093e 4478 3e3e 15f7 c93d 2eb8 293e
00000010: be0f e13d ae25 773d 084c e73c 30c4 673e
00000020: 0c3b 323d 8e01 983e 9194 413d 3241 603c
00000030: 4e71 eb3c 0ff5 523e 354c 2a3d cf22 1d3e
00000040: c250 823e 6100 fa3d 1d93 4e3e 273c 143e
00000050: d8da f9bb 248b c13c f149 063e 58e0 073e
00000060: affe 4b3e 05c0 a23d 58b6 5d3e 3212 8a3d
00000070: 145a ea3d 2325 7b3e ec8c 243c 6146 753e
00000080: 9ffe 413e e5e7 463e dbbb 603d e874 0c3e
00000090: 29a9 863d ef61 b33d 6d73 b73d 5f99 993d
000000a0: 4ed2 a83e 9e4c 203e 71dc f63c 2275 493e
000000b0: 9a78 d7bc 626d 0e3e a6f3 0c3e 6cbd 8b3e
000000c0: 61ca 0d3e e159 d93c ccd4 223e e5bb d63d
000000d0: 7596 273e 65f5 393e 0a6a 033e f846 053e
000000e0: 1d11 bf3d 8c4d 373e 6660 5f3e f39b 903e
000000f0: c265 66bc 1b64 053d a757 be3d 5044 8dbc
00000100: e7ae 7b3d f169 c53d beab a3bb d13c a5bb
00000110: f33b eabc 9b09 873d 14c1 01bd 6db8 97bd
00000120: 2264 a93d 9436 31bd f0c7 0dbd c308 6cbc
00000130: 6cbc 73bd 6610 91bc ecb5 b63d 17f1 9fbc
00000140: 9ac5 edbb 3d03 1bbd ff09 7d3a 5d6a 2a3d
00000150: 71aa d33d 7251 963d e9ad 04bc d20d 183e
00000160: c74e 95bd 7988 143e a9f3 11bd d3d3 af3b
00000170: 3239 50bd 95d6 ca3c 22c0 00bc e00b b1bc
00000180: 7501 8fbd 59a9 acbd 12e6 7e3d 5aca ba3d
00000190: 4fa6 3abd 51dd 6b3d 5817 c1bc 4874 173e
000001a0: 391b 33be 2940 07bd 92f7 223e 90d4 a43d
000001b0: a71d 603d 39bf d73c f1a1 76bd 577e 9fbd
000001c0: a268 243d 0b97 543d a76a 2b3c 47ab bf3d
000001d0: 1b96 243e 672e d6bc 3a8b f9bc ad1d 64bd
000001e0: 5c6a 2f3d c122 e8bd bd51 cabd f4d0 03be
000001f0: 2b3b de3d 8661 c0bd 9971 96bd a8d5 bd3c
00000200: 099f 8fbd 1628 d838 318f ae3d 967a 103e
00000210: 0b3a fcbc ce82 333c 9d1c d6bd e35b 9c3d
00000220: 358b 1e3e dd66 98bd fefc 18be 2e79 1dbd
00000230: 2d43 1fbe 4c88 ce3d 107d ef3d a90c 1fbd
00000240: ac9f c73d a672 a83d 964c 10bd 088c 0d3d
00000250: cc80 1fbe ab68 e4bd fc8a 66bd 84da b13d
00000260: bd80 46bd 3f93 183e 30c4 983d b51b 8cbd
00000270: d4cd 03be 609c 9abd 40f9 a13d 39b8 a4bd
00000280: 6d6a 4dbd a1e7 d23d 3359 003d b9ee d3bc
00000290: a1ce 39be bd5d c0bd 41a4 cf3b 5762 383e
000002a0: 989a db3a 9e55 12be a163 af3d 80f9 223e
000002b0: 1046 623d 566c e8bd cd6f d13d 5a36 d13d
000002c0: 6dec 953d 2829 423d 460b 1e3e bcd3 a4bc
000002d0: f9f7 b7bc 0e64 73bb 0f04 25be 46a2 083d
000002e0: 832c 293c d8e7 eb3c 971c 023e 4cd1 e2bd
000002f0: e3fe e0bd cd78 c53c 2984 fc3c 9dd3 afbd
00000300: f2ae c6bc 8b02 7e3e c7ae 573e a6c3 133e
00000310: 6722 5c3e 3807 30bc ec4e 8c3e 6be4 aa3c
00000320: c932 043d eee6 9f3d 0f12 093d 3502 d73d
00000330: e612 273e 5fed d63d 6a9e 093e 28fb 15bb
00000340: f224 383e 95e8 893e 8539 253e 523c 703e
00000350: 07d1 aabd 4f84 af3d d61c 073d b850 5f3d
00000360: 0691 e53d ca23 3a3d 8278 283e d350 d13d
00000370: f403 493e b2a4 7d3e 5d02 133e fba2 043e
00000380: a7e5 133e 21ba 193e 9264 9d3d 70e5 b53c
00000390: c351 cd3d d01b 563d 79a8 373e 0541 603d
000003a0: 063e 3b3e 2749 cfbc 86f2 243e 8e9b ed3c
000003b0: cacf 653e bace 363d ca06 113e 48f1 283e
000003c0: df33 413d fb4b c1bc 9122 a13d d67b ce3d
000003d0: b2a8 863e 4889 8e3d 5c7e 0f3e b57e 523e
000003e0: 9a45 323e 71f7 1d3e 46f1 373e 7010 473e
000003f0: 54b5 ba3b 75fc 8f3d c3b8 ef3c baaa d93d

lstm.bias_hh_l0 f4 [256]
0.052594926 0.1820031 0.025992233 0.1049474 0.2825232 -0.009509055 0.27265415 0.23808303
0.040261198 0.06034598 -0.0046908557 0.074431345 0.19743474 0.26304486 0.102775395 0.20813064
0.08004536 0.114357 0.15772857 0.097012326 0.15968826 0.035617147 0.14151739 0.16455261
0.065461785 -0.02264641 0.3096201 -0.06441174 0.2054881 0.1874579 0.24362342 0.30632898
0.20157766 0.17071055 0.08182419 0.16133855 0.09588646 0.12113106 0.066699415 0.21420304
0.19377787 -0.051490862 0.042363387 0.02650442 0.08393992 0.14881054 0.21230069 0.10619061
0.0029570144 0.113639355 0.11731975 0.0037013034 0.18412866 0.21182427 -0.027240349 0.048249114
-0.04778138 -0.0052887034 0.14195211 0.25997987 0.05634866 0.12990215 0.06805325 0.08011514
0.056250047 0.0932028 0.035668448 -0.0915782 -0.08327344 -0.009446055 -0.104163416 0.043808684
0.11040426 0.03230243 0.027551979 0.05122309 0.037936807 0.04324114 -0.052439284 0.06537488
-0.005877265 -0.09843518 0.121364705 0.13961166 -0.055394553 0.07528449 0.067137204 -0.006769886
0.11121749 -0.044809394 0.015294934 0.049472105 0.08389016 -0.056065515 0.12119496 0.11174314
-0.07517568 0.014533211 0.11736333 0.081490904 0.12858069 -0.08073237 0.018987745 0.11350139
-0.00094939646 -0.052574623 0.06501243 -0.03960285 0.009557713 0.06321309 -0.110067815 0.015139484
0.036772866 0.098785035 0.047497366 0.0131813 0.037403584 -0.13463014 -0.0052949856 0.035703726
-0.03827871 -0.023490679 -0.004459429 -0.044465024 -0.083691485 0.02389615 0.038158838 0.057682224
-0.008900327 0.03393119 0.14209095 -0.057510525 -0.02832993 0.029115463 -0.046993323 -0.09833665
0.15308131 -0.11800561 -0.13713698 -0.105657294 -0.07084436 0.07984665 -0.07872857 0.005781969
0.09640804 0.0052290494 0.07125573 0.042349473 -0.051595904 0.0019764493 -0.15052448 0.14185736
-0.18274419 0.10465694 -0.08912709 0.115190975 0.07727433 0.008710282 0.0068999627 0.06413471
0.063439496 0.0071950424 -0.15936446 -0.1894894 -0.2118824 0.13487351 -0.055245776 0.11130392
-0.084885895 -0.13149007 -0.025103904 0.12292151 -0.053672038 -0.10003327 -0.066612616 0.14564301
0.10803009 -0.1556801 -0.032971997 0.13873038 -0.017591372 0.11416934 -0.14633904 0.0070856623
-0.006930849 0.09555452 0.04372786 0.10841209 0.10813015 -0.17862919 -0.112961315 -0.016620105
0.047558166 0.186042 0.078281224 0.031825364 0.08176555 0.09795471 0.160176 0.044782806
0.016119573 0.084271304 0.048239578 0.1403689 -0.0020184962 0.041099824 0.04334686 0.15755348
0.13620463 0.1691917 0.056102026 0.17759411 0.15308502 0.03573473 0.086977236 0.14342248
-0.016273677 0.08069019 0.18245502 0.036262184 0.1739919 0.28671432 0.06328882 0.32466286
0.16904657 0.08591206 0.21557735 0.21928002 0.26774696 -0.01453883 0.042971212 0.20493726
0.30042675 0.062445175 0.033305526 0.077768855 0.14836021 -0.07738323 0.10355447 0.21576186
0.17758358 0.13920099 0.23292741 0.16315676 0.26004142 0.25887516 0.006674309 0.09492819
0.09653357 0.13428015 0.20175433 0.20890176 -0.057742428 0.13654229 0.045253985 -0.051716924
00000000: c76d 573d 055f 3a3e aaed d43c aaee d63d
00000010: e2a6 903e decb 1bbc 5399 8b3e 0acc 733e
00000020: ede8 243d 592d 773d c0b5 99bb 766f 983d
00000030: 552c 4a3e d1ad 863e e87b d23d 3320 553e
00000040: d2ee a33d 0134 ea3d 9983 213e 66ae c63d
00000050: 5285 233e 49e3 113d efe9 103e 7b80 283e
00000060: d410 863d f784 b9bc 8786 9e3e 4dea 83bd
00000070: 796b 523e f7f4 3f3e 6b78 793e 27d7 9c3e
00000080: 606a 4e3e bfce 2e3e 7193 a73d ef35 253e
00000090: 1f60 c43d 9013 f83d b499 883d 0b58 5b3e
000000a0: b56d 463e 15e8 52bd 3b85 2d3d cc1f d93c
000000b0: b1e8 ab3d ca61 183e 5a65 593e 767a d93d
000000c0: 78ca 413b c0bb e83d 5645 f03d 9191 723b
000000d0: 398c 3c3e 76e8 583e 2727 dfbc dda0 453d
000000e0: 69b6 43bd dc4c adbb e55b 113e 151c 853e
000000f0: dacd 663d 1205 053e 815f 8b3d 6813 a43d
00000100: 7366 663d 1ce1 be3d 1419 123d 5a8d bbbd
00000110: 448b aabd a0c3 1abc a153 d5bd bc70 333d
00000120: a11b e23d 8e4f 043d b0b4 e13c 4ecf 513d
00000130: a063 1b3d 9f1d 313d 93ca 56bd 44e3 853d
00000140: 1296 c0bb 6298 c9bd 0f8e f83d 5cf6 0e3e
00000150: 66e5 62bd c12e 9a3d 3b7f 893d ebd5 ddbb
00000160: ffc5 e33d 0e8a 37bd 9a97 7a3c 43a3 4a3d
00000170: 9bce ab3d f4a4 65bd 1035 f83d 96d9 e43d
00000180: b5f5 99bd b41c 6e3c 305c f03d b4e4 a63d
00000190: a8aa 033e 0357 a5bd 308c 9b3c 6b73 e83d
000001a0: ebe0 78ba 7d58 57bd 3d25 853d 9936 22bd
000001b0: f497 1c3c dd75 813d 3c6b e1bd 990b 783c
000001c0: 259f 163d cf4f ca3d 998c 423d 61f6 573c
000001d0: 8034 193d 7cdc 09be 8f81 adbb 123e 123d
000001e0: 23ca 1cbd 866f c0bc 6720 92bb f520 36bd
000001f0: 7166 abbd dcc1 c33c 714c 1c3d 3244 6c3d
00000200: add2 11bc 6efb 0a3d 4a80 113e 2890 6bbd
00000210: 2b14 e8bc 8d83 ee3c 127c 40bd ba64 c9bd
00000220: 59c1 1c3e edac f1bd a36d 0cbe da62 d8bd
00000230: d916 91bd a486 a33d 723c a1bd ac76 bd3b
00000240: 9471 c53d 7258 ab3b 86ee 913d a476 2d3d
00000250: 3a56 53bd 5187 013b 1723 1abe 0e43 113e
00000260: 4b21 3bbe 6156 d63d 4488 b6bd 3fe9 eb3d
00000270: 0142 9e3d 92b5 0e3c 1519 e23b 0f59 833d
00000280: 91ec 813d 64c4 eb3b 7030 23be 8209 42be
00000290: b3f7 58be 481c 0a3e 6549 62bd 4ff3 e33d
000002a0: a8d8 adbd 55a5 06be b4a6 cdbc 46be fb3d
000002b0: 36d7 5bbd 3ede ccbd 326c 88bd 7123 153e
000002c0: e13e dd3d 9b6a 1fbe a50d 07bd 560f 0e3e
000002d0: c81b 90bc 9dd1 e93d e7d9 15be d82e e83b
000002e0: 2d1c e3bb 17b2 c33d fc1b 333d 2807 de3d
000002f0: 5773 dd3d 92ea 36be 4358 e7bd e326 88bc
00000300: 5acc 423d cb81 3e3e e851 a03d 505b 023d
00000310: b274 a73d 7b9c c83d 2d05 243e 2d6e 373d
00000320: 320d 843c 6f96 ac3d dd96 453d ddbc 0f3e
00000330: bf48 04bb 4a58 283d 7a8c 313d b355 213e
00000340: 3a79 0b3e 9740 2d3e 3dcb 653d 3bdb 353e
00000350: 52c2 1c3e 955e 123d 1f21 b23d 58dd 123e
00000360: 6050 85bc e640 a53d 7dd5 3a3e a887 143d
00000370: ef2a 323e 38cc 923e 929d 813d 363a a63e
00000380: 8b1a 2d3e aaf2 af3d 4fc0 5c3e f18a 603e
00000390: 2116 893e 4634 6ebc 9502 303d 13db 513e
000003a0: 89d1 993e 83c6 7f3d 606b 083d 4745 9f3d
000003b0: bdeb 173e 197b 9ebd 5e14 d43d adf0 5c3e
000003c0: 78d8 353e b48a 0e3e 8684 6e3e 9112 273e
000003d0: 2624 853e 498b 843e 29b4 da3b b669 c23d
000003e0: 64b3 c53d bc80 093e b098 4e3e 58ea 553e
000003f0: 5383 6cbd bed1 0b3e 3e5c 393d 20d5 53bd

lstm.weight_ih_l1 f4 [256, 64]
-0.06318082 0.06994134 0.095108435 0.2303308 0.08998555 0.12505515 0.23085873 0.2730065
0.056128055 0.0044674804 -0.1832064 0.046892248 -0.26487115 0.15825695 0.060664117 -0.011422921
0.094832845 0.21646324 0.10664153 0.045213718 -0.03846664 -0.11744677 0.107005626 0.22813936
-0.17544803 0.17444801 0.2190874 0.06751943 0.02744006 0.11019072 0.034348164 0.050974242
-0.06666978 -0.10104182 -0.0010796655 -0.049243856 -0.185169 0.11711117 0.20778541 0.105017975
0.17108919 -0.15790129 0.05114295 0.13219574 0.21189417 -0.086208075 -0.20580377 0.019008681
0.0017388014 -0.029222585 -0.0054285107 -0.08533046 -0.17185472 0.09756437 -0.13114944 0.068988584
0.23555006 0.1497886 0.10880508 -0.24441765 -0.1770335 -0.3099848 -0.05052349 -0.20589228
0.050471257 0.1314463 -0.024642898 0.010754968 0.09322141 0.13257909 -0.020195039 0.12140863
0.2005385 0.065333076 -0.15251718 -0.081864834 -0.071098834 0.08595627 0.005366374 -0.11128697
0.06796228 0.27536318 0.17956436 0.089110814 -0.008746141 -0.0081409365 0.12178926 0.028011434
-0.028579833 0.109229155 0.16913019 -0.10565784 0.020793155 0.14134501 -0.10628223 0.17700756
-0.064450175 -0.24367857 0.10562695 -0.19903363 -0.15918453 0.2371037 -0.017189134 0.047858004
0.2154614 -0.026950803 0.041445117 0.03958701 0.13335338 -0.1735088 -0.040277068 -0.04083074
0.09059907 0.08095424 0.16013259 -0.0018951508 -0.27726546 0.119369745 -0.09826744 0.22121096
0.17814761 0.23503321 0.025705814 -0.3278296 0.02096909 -0.15789697 0.10419854 0.029294414
-0.17609371 0.016260518 0.10396826 -0.06547029 -0.18584588 -0.008635144 -0.105287455 -0.17522095
-0.0100595495 -0.26861146 -0.16192444 -0.043708213 -0.12943819 -0.104194336 0.017516071 0.17317602
0.19354172 -0.11884022 -0.16145304 -0.06950834 -0.21349469 0.03475649 -0.2546081 0.28127468
-0.1474884 0.14868462 -0.19543764 0.010099884 -0.2072028 -0.30057645 0.14060786 -0.19983296
0.14256154 0.2898601 -0.23763147 -0.11565152 -0.11558876 0.054356206 -0.059728272 0.0019474425
-0.23848309 -0.27652594 0.037080817 0.03450478 -0.17200588 -0.11889369 0.13905047 0.24519686
0.17810704 -0.19985779 -0.2509761 0.04379088 0.17644516 -0.046504837 -0.05778514 -0.12639461
0.031287767 0.11241517 -0.114663765 0.16645588 0.08276517 0.1716749 -0.06037841 -0.0031722046
-0.04312197 -0.09600595 0.18278825 -0.090980336 -0.08010054 -0.094531424 -0.07934628 -0.2965753
-0.04042372 0.05701173 -0.006547685 -0.026829243 0.19344458 -0.14242181 -0.051612254 0.014925542
0.051086813 -0.09187876 -0.06471968 -0.11562542 -0.011267384 0.1415391 -0.20859413 0.026265953
0.071406685 0.1419118 -0.20480466 0.19012514 -0.18664575 -0.075977065 0.19133908 -0.040001135
0.1341143 0.14149274 -0.014832836 0.08819573 -0.03258748 -0.06634067 -0.20439586 0.11830528
-0.081398785 -0.1768452 0.0017723598 -0.087794244 -0.095986724 -0.16382806 0.23659924 0.06777116
0.08308378 -0.23326857 -0.0045968704 0.14879674 0.17803249 -0.23852342 0.07046926 -0.123115495
-0.092710204 0.0114088375 -0.020553373 0.09120178 -0.03988443 0.07041975 -0.21892925 -0.094016545
00000000: f264 81bd 683d 8f3d 36c8 c23d d6db 6b3e
00000010: 584a b83d 750e 003e 3b66 6c3e 82c7 8b3e
00000020: 88e6 653d f163 923b 759a 3bbe 1612 403d
00000030: 319d 87be 1c0e 223e f07a 783d 3427 3bbc
00000040: b937 c23d 8aa8 5d3e e066 da3d 0532 393d
00000050: 328f 1dbd ef87 f0bd c425 db3d 5d9d 693e
00000060: a6a8 33be 80a2 323e 7358 603e a047 8a3d
00000070: fac9 e03c acab e13d a9b0 0c3d 5eca 503d
00000080: 2a8a 88bd 04ef cebd 9083 8dba edb3 49bd
00000090: f19c 3dbe fbd7 ef3d b3c5 543e aa13 d73d
000000a0: 0132 2f3e e0b0 21be 457b 513d 525e 073e
000000b0: c9fa 583e dc8d b0bd 39be 52be 18b8 9b3c
000000c0: 7ee8 e33a 3464 efbc a6e1 b1bb bcc1 aebd
000000d0: affa 2fbe d4cf c73d 0a4c 06be e349 8d3d
000000e0: 0934 713e 2f62 193e 33d5 de3d 9f48 7abe
000000f0: 4548 35be 54b6 9ebe b8f1 4ebd 6dd5 52be
00000100: f3ba 4e3d dc99 063e e7df c9bc 9b35 303c
00000110: deea be3d d0c2 073e 1170 a5bc 16a5 f83d
00000120: f759 4d3e 59cd 853d 772d 1cbe c0a8 a7bd
00000130: 449c 91bd d709 b03d 68d8 af3b 6cea e3bd
00000140: cf2f 8b3d 67fc 8c3e b8df 373e bb7f b63d
00000150: f94b 0fbc 9061 05bc a66c f93d 3c78 e53c
00000160: 4120 eabc 89b3 df3d 7730 2d3e 2363 d8bd
00000170: 6856 aa3c bfbc 103e 7faa d9bd 7841 353e
00000180: 74fe 83bd e086 79be f152 d83d 79cf 4bbe
00000190: 4501 23be 50cb 723e 3ad0 8cbc c106 443d
000001a0: eaa1 5c3e eec7 dcbc 5bc2 293d fd25 223d
000001b0: ca8d 083e 4aac 31be 91f9 24bd 223e 27bd
000001c0: 018c b93d 56cb a53d ccf9 233e b566 f8ba
000001d0: bdf5 8dbe 2078 f43d 7140 c9bd 2085 623e
000001e0: 546c 363e 8cac 703e 0095 d23c 48d9 a7be
000001f0: 5ec7 ab3c beaf 21be 0b66 d53d d7fa ef3c
00000200: e951 34be c734 853c 50ed d43d 4a15 86bd
00000210: 624e 3ebe 6b7a 0dbc f3a0 d7bd 1f6d 33be
00000220: cfd0 24bc 7187 89be 85cf 25be 6207 33bd
00000230: 728b 04be d763 d5bd dd7d 8f3c 0e55 313e
00000240: cd2f 463e 8062 f3bd f253 25be 635a 8ebd
00000250: 5a9e 5abe d25c 0e3d fe5b 82be 3c03 903e
00000260: 3307 17be c840 183e ce20 48be fc79 253c
00000270: f92c 54be 28e5 99be 82fb 0f3e 03a1 4cbe
00000280: a7fb 113e 8b68 943e aa55 73be b4da ecbd
00000290: cdb9 ecbd 9da4 5e3d a2a5 74bd 5441 ff3a
000002a0: e934 74be cf94 8dbe 0ee2 173d e254 0d3d
000002b0: 4f22 30be 897e f3bd 3f63 0e3e e314 7b3e
000002c0: b161 363e 85a7 4cbe f07f 80be 115e 333d
000002d0: 0aae 343e db7b 3ebd 1cb0 6cbd 976d 01be
000002e0: 9a27 003d ed39 e63d d6d4 eabd 6973 2a3e
000002f0: c980 a93d 8ccb 2f3e 5a4f 77bd c3e4 4fbb
00000300: aaa0 30bd c49e c4bd d82c 3b3e e653 babd
00000310: c00b a4bd b199 c1bd 4d80 a2bd b8d8 97be
00000320: 5893 25bd 2285 693d f68d d6bb 00c9 dbbc
00000330: 5616 463e 06d7 11be 5f67 53bd 438a 743c
00000340: 6840 513d ee2a bcbd c08b 84bd 05cd ecbd
00000350: d59a 38bc a0ef 103e b399 55be b22b d73c
00000360: ab3d 923d 5451 113e 50b8 51be 2ab0 423e
00000370: 1020 3fbe dd99 9bbd 64ee 433e 3bd8 23bd
00000380: 4255 093e 79e3 103e 6c05 73bc f69f b43d
00000390: 737a 05bd 9edd 87bd 264d 51be 0a4a f23d
000003a0: 68b4 a6bd e816 35be 874e e83a 78cd b3bd
000003b0: b094 c4bd 8bc2 27be 1247 723e 9bcb 8a3d
000003c0: d427 aa3d f5dd 6ebe 58a1 96bb 2c5e 183e
000003d0: 264e 363e 7c3f 74be 3052 903d fa23 fcbd
000003e0: d9de bdbd 22ec 3a3c 8c5f a8bc 00c8 ba3d
000003f0: db5d 23bd 3b38 903d fd2e 60be bf8b c0bd

lstm.weight_hh_l1 f4 [256, 64]
-0.1454683 0.15191779 -0.15122066 0.04450259 -0.0874172 0.11872815 0.03544602 -0.068667755
0.08095858 -0.059157263 -0.15424334 0.06978324 -0.021721764 -0.17614721 0.113396585 0.037412416
-0.1264477 0.043868646 -0.2578869 -0.08925262 0.019050358 -0.051954884 0.012073786 -0.18025924
0.010574744 -0.017009186 0.100301646 0.023144966 0.18993644 0.13002136 0.180368 0.17122012
-0.1312132 0.06000933 0.050838437 -0.10193669 0.09432744 0.00045170297 -0.02593364 -0.08679629
0.095188096 -0.1689131 -0.07180882 -0.19299091 -0.08762365 0.01934932 0.12127554 -0.17821048
-0.062341288 0.033403464 0.1059185 -0.040394705 0.1465562 0.12536885 0.017378362 0.22879012
-0.21735369 0.19662501 -0.006255225 -0.13730732 0.14002396 0.11742777 0.0056334375 -0.033821713
-0.12829447 -0.04836869 -0.12218683 -0.037427858 -0.10242539 0.1517466 0.06541878 0.20013358
-0.16147208 -0.10538002 0.07266517 0.13071662 0.017622586 -0.15327333 -0.056397066 0.061853528
0.13940111 -0.057648983 -0.17696364 -0.2034769 0.19614616 0.21034913 0.0801118 -0.15870614
-0.06949817 0.15873821 0.030600112 0.12808587 -0.016686678 0.19589683 0.09997362 0.09529665
-0.15503597 -0.053105347 -0.14432444 -0.05983045 0.05616828 0.04115007 -0.18748173 0.108730786
-0.037745893 -0.08857983 -0.120556764 -0.09050281 0.013882865 0.09778899 0.062040057 -0.26251113
-0.041890286 0.035161085 0.1609831 -0.0016764228 -0.030707523 0.15166894 -0.06714454 0.04801844
-0.1616956 0.12923345 -0.17168139 -0.15496641 -0.009227676 0.0056652823 0.024500612 0.016487716
-0.22596194 0.034034334 0.038076315 -0.05246401 -0.13599333 0.056022644 0.065795265 -0.0315984
0.06386137 -0.10950796 -0.12944876 0.19174027 -0.086110145 -0.0044911904 0.121321574 0.042296298
-0.042520218 -0.016742134 -0.020626156 0.048129175 0.12826309 -0.069366 -0.10619444 -0.12774533
-0.015941195 0.11438597 0.11041528 0.0076798936 0.12970066 0.037273295 -0.022175873 0.13812663
-0.02406887 -0.021947632 -0.045103956 -0.013939273 0.048574448 0.084338754 -0.16341308 0.1413238
0.25725374 -0.10804804 0.048524335 -0.102672905 -0.12491504 0.049467575 0.04238981 0.024841115
-0.17848675 -0.11870946 -0.019737467 0.05568603 0.028345127 0.057662435 0.02990822 0.11865965
-0.09897265 -0.012250101 0.058486752 -0.04736417 0.089684874 0.18606201 -0.06436863 0.15914285
0.11824926 -0.180422 -0.12444971 -0.0442321 -0.1606874 0.027554125 -0.019873248 0.13076423
-0.13102779 -0.0012080485 -0.112925306 -0.26981398 -0.07703807 0.003425213 0.08833165 -0.07955084
0.19647127 0.1609591 -0.026800627 -0.0778804 -0.047051698 -0.005020604 0.055515032 0.0059343483
-0.021928431 0.06950191 0.15657611 0.08746954 0.04205116 0.030267624 -0.11523772 -0.20466374
0.020617409 0.056043603 -0.13437903 0.0047138645 -0.14538287 -0.0062970575 0.06968673 0.17318942
0.0016511373 -0.17482749 -0.072391056 0.0477169 -0.09472349 -0.06445673 -0.014163526 -0.100102685
-0.064782746 0.11864545 -0.1724926 -0.063046664 0.064859666 0.16942771 0.15371636 -0.2408139
0.158979 0.05969226 -0.12202046 -0.071788564 0.028200299 -0.14326501 0.037207425 0.09112473
00000000: a4f5 14be 5690 1b3e 97d9 1abe 5948 363d
00000010: ca07 b3bd bf27 f33d d92f 113d aea1 8cbd
00000020: 9dcd a53d e34e 72bd f7f1 1dbe 84ea 8e3d
00000030: d7f1 b1bc ef5f 34be 783c e83d c33d 193d
00000040: 827b 01be 9caf 333d c009 84be 14ca b6bd
00000050: 7f0f 9c3c a5ce 54bd 21d1 453c e195 38be
00000060: b141 2d3c d956 8bbc f36a cd3d 839a bd3c
00000070: b37e 423e 5224 053e 64b2 383e 5454 2f3e
00000080: c15c 06be 58cc 753d f73b 503d 2fc4 d0bd
00000090: bf2e c13d 8cd2 ec39 c972 d4bc 41c2 b1bd
000000a0: faf1 c23d 8ef7 2cbe 8110 93bd 699f 45be
000000b0: 0774 b3bd 7782 9e3c 4f5f f83d cf7c 36be
000000c0: 9459 7fbd 12d2 083d cceb d83d eb74 25bd
000000d0: d412 163e b160 003e 115d 8e3c f547 6a3e
000000e0: f791 5ebe 1158 493e a1f8 ccbb 4a9a 0cbe
000000f0: 7162 0f3e f87d f03d b398 b83b a388 0abd
00000100: a05f 03be 3f1e 46bd 173d fabd f44d 19bd
00000110: 67c4 d1bd 7663 1b3e 48fa 853d d1ef 4c3e
00000120: f058 25be 7bd1 d7bd 7ad1 943d 94da 053e
00000130: 3e5d 903c aff3 1cbe 9c00 67bd 205a 7d3d
00000140: 2abf 0e3e 5721 6cbd f535 35be 405c 50be
00000150: 8ada 483e c365 573e a811 a43d dd83 22be
00000160: 0e55 8ebd 458c 223e 16ad fa3c f128 033e
00000170: 80b2 88bc 2e99 483e f8be cc3d e42a c33d
00000180: c0c1 1ebe fe84 59bd c9c9 13be c610 75bd
00000190: b610 663d fa8c 283d 36fb 3fbe 3fae de3d
000001a0: 709b 1abd 5869 b5bd 77e6 f6bd 8a59 b9bd
000001b0: f574 633c 9845 c83d b71d 7e3d dc67 86be
000001c0: 2695 2bbd 1205 103d c1d8 243e 6abb dbba
000001d0: 588e fbbc 1a4f 1b3e 1483 89bd fcae 443d
000001e0: 8893 25be c655 043e 3fcd 2fbe 84af 1ebe
000001f0: ae2f 17bc d5a3 b93b 82b5 c83c 3f11 873c
00000200: 9162 67be 9667 0b3d e9f5 1b3d 80e4 56bd
00000210: d641 0bbe 0078 653d abbf 863d 536d 01bd
00000220: c0c9 823d b645 e0bd 378e 04be 9057 443e
00000230: 845a b0bd d62a 93bb 7277 f83d e23e 2d3d
00000240: ae29 2ebd cd26 89bc 2ff8 a8bc 1923 453d
00000250: 6657 033e c30f 8ebd 787c d9bd accf 02be
00000260: 1c97 82bc 3143 ea3d 6821 e23d 9ea7 fb3b
00000270: 40d0 043e e2ab 183d 2daa b5bc 1171 0d3e
00000280: 142c c5bc 85cb b3bc edbe 38bd 8c61 64bc
00000290: 00f6 463d ccb9 ac3d c255 27be 30b7 103e
000002a0: c3b6 833e 4a48 ddbd 74c1 463d 2c46 d2bd
000002b0: 75d3 ffbd 839e 4a3d f0a0 2d3d 987f cb3c
000002c0: 3bc5 36be f21d f3bd 78b0 a1bc 0917 643d
000002d0: 0a34 e83c 722f 6c3d 1502 f53c d503 f33d
000002e0: 2cb2 cabd a6b4 48bc ce8f 6f3d ef00 42bd
000002f0: b4ac b73d 0a87 3e3e b3d3 83bd 58f6 223e
00000300: ab2c f23d 8bc0 38be 7ddf febd b82c 35bd
00000310: 3d8b 24be 30b9 e13c 39cd a2bc 0fe7 053e
00000320: 262c 06be 6257 9eba 6245 e7bd 0f25 8abe
00000330: 23c6 9dbd 8a79 603b 39e7 b43d 8deb a2bd
00000340: c42f 493e 76d2 243e fd8c dbbc c27f 9fbd
00000350: 48b9 40bd e183 a4bb bb63 633d ec74 c23b
00000360: 41a3 b3bc 0457 8e3d 7d55 203e 3b23 b33d
00000370: d63d 2c3d cff3 f73c c101 ecbd 5f93 51be
00000380: d7e5 a83c fa8d 653d a89a 09be c376 9a3b
00000390: 3fdf 14be 8c57 cebb ebb7 8e3d 9158 313e
000003a0: f96a d83a fa05 33be c341 94bd cc72 433d
000003b0: 64fe c1bd e401 84bd 220e 68bc a302 cdbd
000003c0: d1ac 84bd 63fc f23d e6a1 30be 9c1e 81bd
000003d0: 25d5 843d 757e 2d3e d267 1d3e eb97 76be
000003e0: 64cb 223e df7f 743d dde5 f9bd e205 93bd
000003f0: 5004 e73c 10b4 12be d066 183d 9a9f ba3d

lstm.bias_ih_l1 f4 [256]
0.2821981 0.021816557 0.064785846 0.0005259401 0.023026673 0.092061795 0.08752605 0.17361347
0.07116862 0.023860384 0.07027166 0.21771246 -0.011418951 0.07745179 0.051692426 0.12124991
0.19960982 -0.043862734 0.0829764 0.29611844 0.16426104 0.23558256 0.16205189 0.14900628
0.10203613 0.2770511 0.19651605 0.10018497 0.11863156 0.0062625287 0.042820103 0.18394624
0.042446982 0.20535192 0.32260898 0.14724064 0.11410958 0.07479939 0.100891516 0.057151943
0.051810574 0.10868629 0.14551142 0.2351398 0.19373018 0.22701444 0.09968136 0.48052934
0.21707252 -0.016397925 0.0913899 0.20969082 0.20601805 0.25894699 -0.009970375 0.03487362
0.13297172 0.047961112 0.11617481 0.079039544 0.16577268 0.08805226 -0.05698107 0.16763778
-0.025389139 -0.068656854 -0.15648097 -0.08325274 0.05866739 -0.093041874 0.10841201 -0.035503402
0.0019065376 -0.07523435 0.06962048 0.023078723 0.08668719 0.026810426 0.059567302 0.063276246
-0.048095044 -0.0599376 -0.0052188477 -0.1296416 -0.05672336 0.04970055 0.14144458 0.026627492
0.052587017 -0.020133868 -0.09702994 0.094493724 0.02600295 -0.075511366 0.037518147 -0.058762934
-0.07347015 0.13291568 -0.0817264 0.121448465 0.054920826 -0.068197906 -0.01164296 -0.07544253
-0.06277978 -0.115201674 -0.037112102 -0.05327958 0.024696901 0.14479156 0.10593441 0.15595527
-0.047993205 0.07208275 -0.10674737 -0.02490427 -0.04232288 0.083640456 -0.026594868 -0.0021085916
0.027382907 -0.06461579 -0.007938604 -0.124176644 -0.04520738 0.063387945 0.10284112 -0.0050496934
-0.03434833 0.08641963 -0.08761841 0.08332385 -0.0069335033 0.100224175 -0.053906534 -0.053505816
0.11272657 -0.08590639 -0.11540104 -0.046969116 -0.15649226 -0.15899989 0.037050746 -0.060761143
-0.042156123 0.07682817 0.0029945944 -0.07660393 0.009157315 -0.08743522 -0.069245175 -0.054423362
0.065788224 0.0053362395 0.086858585 0.08745357 0.11035603 0.028459402 0.023774028 0.124056526
-0.09206205 0.06563331 -0.068649694 -0.07707319 0.053480677 0.07538268 0.041414086 -0.04978945
0.14704165 -0.033250894 -0.12036616 -0.027979396 0.020496463 -0.018546743 0.11897435 -0.069365054
-0.07592173 0.14202808 -0.004329602 0.003338526 0.02287549 -8.6231026e-05 0.029721484 -0.0033260859
0.03233837 0.13376082 -0.075554505 -0.105365 0.06864204 0.05829057 -0.016525848 0.04270889
0.110357076 0.20690942 0.23201215 -0.01951727 -0.0763306 0.05593229 0.12494509 0.07874741
0.12649119 0.102629535 0.051499873 0.18761201 0.010989371 0.16547704 -0.017493594 0.1084438
0.025393413 0.18855555 0.03697489 0.13424724 0.069240846 0.18831103 -0.02367469 0.18011558
-0.093214735 0.0639551 0.27135175 -0.091372386 -0.024433972 0.10242779 -0.023285938 0.19046228
0.07146479 0.12938644 0.17153946 0.16602425 0.14728872 0.22123113 0.018196153 0.038153294
0.10427445 0.12600137 0.08868119 0.04678485 0.032194283 0.14083882 0.15651396 0.2215875
0.116418496 0.069766395 0.060127474 0.20596115 0.00027008436 0.13814537 0.09757014 0.21820012
0.1881828 -0.023016857 -0.080391 0.13324519 0.054360203 0.1581164 0.01126175 0.11096862
00000000: 457c 903e a3b8 b23c 71ae 843d 3edf 093a
00000010: 6fa2 bc3c e58a bc3d dc40 b33d bbc7 313e
00000020: dac0 913d da76 c33c 97ea 8f3d 04f0 5e3e
00000030: 8d16 3bbc 0b9f 9e3d 70bb 533d df51 f83d
00000040: 8466 4c3e 69a9 33bd 88ef a93d d69c 973e
00000050: 0c34 283e 8e3c 713e eef0 253e 1a95 183e
00000060: 52f8 d03d a4d9 8d3e 813b 493e c72d cd3d
00000070: 1af5 f23d e635 cd3b 2264 2f3d 675c 3c3e
00000080: e3dc 2d3d c647 523e 012d a53e 40c6 163e
00000090: 49b2 e93d 6c30 993d 36a0 ce3d 2818 6a3d
000000a0: 5337 543d eb96 de3d f200 153e 7dc8 703e
000000b0: 3461 463e 7976 683e be25 cc3d f107 f63e
000000c0: 4248 5e3e f154 86bc a12a bb3d 31b9 563e
000000d0: 65f6 523e b394 843e c95a 23bc a4d7 0e3d
000000e0: bd29 083e df72 443d 0fed ed3d 7cdf a13d
000000f0: 50c0 293e be54 b43d fc64 69bd 3da9 2b3e
00000100: e2fc cfbc f79b 8cbd 8c3c 20be 6a80 aabd
00000110: 384d 703d bd8c bebd 1e07 de3d 046c 11bd
00000120: c9e4 f93a 7814 9abd 2f95 8e3d 970f bd3c
00000130: 0e89 b13d 8aa1 db3c d8fc 733d fa96 813d
00000140: 4fff 44bd 2181 75bd de02 abbb c5c0 04be
00000150: c156 68bd ce92 4b3d d9d6 103e e621 da3c
00000160: 7c65 573d c8ef a4bc a2b7 c6bd ed85 c13d
00000170: 2304 d53c b4a5 9abd a1ac 193d 67b1 70bd
00000180: 8577 96bd 0c1b 083e 2c60 a7bd f9b9 f83d
00000190: a9f4 603d 58ab 8bbd 1dc2 3ebc 9d81 9abd
000001a0: af92 80bd dbee ebbd dc02 18bd b03b 5abd
000001b0: 2851 ca3c 3d44 143e 24f4 d83d bdb2 1f3e
000001c0: 8694 44bd 1fa0 933d 5d9e dabd 0a04 ccbc
000001d0: c25a 2dbd b04b ab3d 7bdd d9bc 4c30 0abb
000001e0: 1e52 e03c 4955 84bd eb10 02bc 5350 febd
000001f0: 602b 39bd 8ad1 813d 5d9e d23d e677 a5bb
00000200: d6b0 0cbd c6fc b03d 4871 b3bd b2a5 aa3d
00000210: 7132 e3bb 5542 cd3d 19cd 5cbd ea28 5bbd
00000220: 30dd e63d b0ef afbd 6157 ecbd b062 40bd
00000230: 823f 20be ded0 22be 86c2 173d ade0 78bd
00000240: e6ab 2cbd 1658 9d3d f540 443b 85e2 9cbd
00000250: 9008 163c 3d11 b3bd 6ad0 8dbd 08eb 5ebd
00000260: fabb 863d 9fdb ae3b eae2 b13d db1a b33d
00000270: 5802 e23d b123 e93c c0c1 c23c 5911 fe3d
00000280: 078b bcbd c26a 863d 3698 8cbd 8cd8 9dbd
00000290: 8e0e 5b3d 3c62 9a3d d1a1 293d 06f0 4bbd
000002a0: 1692 163e 1732 08bd 8982 f6bd 0c35 e5bc
000002b0: 33e8 a73c 57ef 97bc d3a8 f33d 440f 8ebd
000002c0: da7c 9bbd cf6f 113e 55df 8dbb 2ccb 5a3b
000002d0: 6165 bb3c eed6 b4b8 787a f33c 76fa 59bb
000002e0: 3d75 043d 99f8 083e 52bc 9abd 9bc9 d7bd
000002f0: 3394 8c3d 18c2 6e3d 3761 87bc 84ef 2e3d
00000300: e402 e23d 10e0 533e 9894 6d3e afe2 9fbc
00000310: 3853 9cbd 4219 653d 36e3 ff3d 5246 a13d
00000320: e886 013e 6f2f d23d 88f1 523d 5d1d 403e
00000330: c30c 343c d072 293e ba4e 8fbc c817 de3d
00000340: d905 d03c b514 413e fb72 173d 1c78 093e
00000350: 25ce 8d3d 9bd4 403e 6cf1 c1bc 3870 383e
00000360: 5ee7 bebd e4fa 823d 9eee 8a3e 7221 bbbd
00000370: c129 c8bc a9c5 d13d 27c2 bebc 8b08 433e
00000380: 225c 923d e17d 043e 0aa8 2f3e 4302 2a3e
00000390: dbd2 163e 6a8a 623e 1910 953c a146 1c3d
000003a0: d88d d53d 8106 013e 7c9e b53d 79a1 3f3d
000003b0: 27de 033d 0d38 103e 3245 203e d5e7 623e
000003c0: d26c ee3d afe1 8e3d 3a48 763d 7be7 523e
000003d0: 1c9a 8d39 fb75 0d3e dbd2 c73d da6f 5f3e
000003e0: feb2 403e d98d bcbc 09a4 a4bd 6d71 083e
000003f0: cea8 5e3d 44e9 213e 3483 383c 8443 e33d

lstm.bias_hh_l1 f4 [256]
0.11408115 0.18733324 0.1826134 0.158393 -0.017375117 0.20111917 0.047307424 0.19448638
0.11437613 0.11785708 0.1640233 0.3522214 -0.019767635 -0.048682548 0.12099605 0.023833416
0.09896402 0.14532767 0.11476264 0.20099333 0.15630953 0.09180311 0.14015564 0.13018627
-0.06575541 0.0696363 0.23961322 -0.06962798 0.20674159 0.027008642 0.12923002 0.16056648
0.025540859 -0.005198661 0.25802052 0.197181 -0.0043320614 0.10274641 0.012982236 0.13965566
0.2318591 0.10984082 0.25088313 0.2657797 0.20999932 0.09438528 0.22943874 0.3671759
0.15952587 0.05964977 0.14241943 0.06449856 0.019301666 0.25385094 -0.049185723 0.22468221
0.074607655 0.14457437 -0.054682713 0.079570994 0.07027581 0.16326934 0.047375664 0.100722834
0.0144717945 -0.11412529 -0.07044362 0.02964043 0.13972883 -0.11445061 0.008774671 -0.096437275
0.012672369 0.101089045 0.1217434 -0.012385764 -0.034144647 -0.062151086 -0.079904474 0.12935443
-0.07342433 0.040443055 0.017784037 -0.059901606 0.05185466 -0.021053925 -0.032866113 -0.048150342
0.010335308 -0.038422957 -0.000640934 -0.031766303 -0.10346937 -0.11198059 -0.017658958 0.12546021
0.058638427 -0.09034616 -0.12196865 0.01287219 -0.07885117 0.03390412 0.0075742016 -0.10436444
-0.030293586 -0.024826834 -0.06921251 0.041197237 0.05886986 -0.020651253 -0.039768577 0.0043854252
0.11555285 0.13138975 -0.07938749 0.090687215 -0.13146378 0.0228116 -0.1087011 -0.099872164
0.07970394 0.015371562 -0.01250483 -0.015461473 0.019593485 0.13106991 0.037307095 0.02790088
-0.12230696 0.12388775 0.04863736 -0.04466297 -0.0048572514 0.0055732527 0.16724452 0.10972889
-0.04380018 0.09286058 -0.07985208 0.0010365576 -0.072045326 -0.08281952 0.08276632 0.08690973
-0.007353618 -0.11606489 -0.06804781 -0.026318291 -0.012864416 0.11704356 -0.17532451 -0.062146455
-0.10851689 -0.011310485 0.012284308 0.09506374 0.0741184 -0.056258805 0.020892873 0.06998042
-0.03467251 0.1463362 -0.10916526 -0.09521264 0.1758307 -0.11203776 -0.06967732 0.020787453
-0.003288326 -0.12364446 -0.0033301215 -0.002531789 0.107597694 0.08179864 0.052564904 0.016031215
-0.05255394 -0.028548703 0.017925609 -0.034345105 0.07102472 0.05671828 0.06267193 0.011893944
-0.10372628 0.021763254 -0.12880948 -0.007629356 -0.011076382 0.1072822 -0.11773375 0.0779718
0.21431568 0.06378307 0.18806127 0.1360171 -0.08346276 0.22075634 -0.050740644 0.040922966
0.15904701 0.038231373 -0.012935773 0.30671832 0.09432196 0.14558098 0.19632898 0.017881019
0.23269555 0.070511654 -0.032135803 0.15227598 0.039338846 -0.0016895772 0.06439013 0.16146433
-0.029213198 0.278542 0.3309979 0.037640043 0.08020345 0.09795054 0.09721592 0.1137319
0.19208781 0.12387041 0.21231475 0.18166381 0.04396193 0.27755138 0.06424918 0.19058858
0.012948227 0.17125843 -0.014440505 0.15599874 0.102840215 0.01633564 0.09828157 0.34852666
0.16523853 0.18349707 0.06042794 0.15745232 -0.041551765 0.12512457 0.04377219 0.074990645
0.0719211 0.13042423 0.012107379 -0.081116565 0.1460242 0.075383924 -0.027028987 -0.023081036
00000000: 61a3 e93d 49d4 3f3e 02ff 3a3e c631 223e
00000010: 4356 8ebc 2ff2 4d3e 6ec5 413d 7027 473e
00000020: 083e ea3d 0e5f f13d b9f5 273e 5d56 b43e
00000030: bcef a1bc 5a67 47bd c7cc f73d 4c3e c33c
00000040: a6ad ca3d c7d0 143e ad08 eb3d 32d1 4d3e
00000050: 9b0f 203e 4503 bc3d f684 0f3e 8d4f 053e
00000060: c6aa 86bd 7a9d 8e3d 2b5d 753e 1d99 8ebd
00000070: 11b4 533e 3a41 dd3c e054 043e 8a6b 243e
00000080: 103b d13c 8759 aabb 441b 843e d1e9 493e
00000090: f7f3 8dbb b66c d23d 72b3 543c e501 0f3e
000000a0: 796c 6d3e 39f4 e03d c173 803e 4714 883e
000000b0: 100a 573e 124d c13d fdf1 6a3e 7bfe bb3e
000000c0: c05a 233e 5153 743d 66d6 113e d217 843d
000000d0: 871e 9e3c c0f8 813e f876 49bd 1813 663e
000000e0: e6cb 983d 4e0b 143e fbfa 5fbd 1ef6 a23d
000000f0: c4ec 8f3d 1430 273e fc0c 423d c647 ce3d
00000100: 1b1b 6d3c 85ba e9bd bf44 90bd 7dd0 f23c
00000110: 1315 0f3e 1565 eabd a3c3 0f3c e880 c5bd
00000120: c59f 4f3c c607 cf3d 9b54 f93d a9ed 4abc
00000130: 42db 0bbd 2392 7ebd f5a4 a3bd 7d75 043e
00000140: 7f5f 96bd 9ea7 253d d4af 913c 635b 75bd
00000150: 8d65 543d 4879 acbc 9e9e 06bd 4b39 45bd
00000160: 6c55 293c 6461 1dbd 5a04 28ba 621d 02bd
00000170: c0e7 d3bd 1456 e5bd 85a9 90bc a478 003e
00000180: d92e 703d 6807 b9bd b3ca f9bd e1e5 523c
00000190: b97c a1bd 0cdf 0a3d 0231 f83b 06bd d5bd
000001a0: 412a f8bc a561 cbbc 4abf 8dbd 6fbe 283d
000001b0: 8621 713d d12c a9bc 60e4 22bd 9db3 8f3b
000001c0: f9a6 ec3d 098b 063e e995 a2bd 38ba b93d
000001d0: 719e 06be 64df ba3c af9e debd c789 ccbd
000001e0: d23b a33d 01d9 7b3c 0fe1 4cbc 1e52 7dbc
000001f0: 8482 a03c 3137 063e 53cf 183d 6390 e43c
00000200: 127c fabd dcb8 fd3d f837 473d 85f0 36bd
00000210: 9429 9fbb d59f b63b 2642 2b3e 8ab9 e03d
00000220: d167 33bd b02d be3d 7d89 a3bd 1add 873a
00000230: 808c 93bd 489d a9bd 6381 a93d bbfd b13d
00000240: 9ef6 f0bb 6eb3 edbd a65c 8bbd 7599 d7bc
00000250: 46c5 52bc 89b4 ef3d 4588 33be 488d 7ebd
00000260: 1a3e debd 9d4f 39bc 1f44 493c c7b0 c23d
00000270: 63cb 973d a26f 66bd 8827 ab3c e551 8f3d
00000280: c304 0ebd 28d9 153e 0992 dfbd d8fe c2bd
00000290: f70c 343e 0e74 e5bd fcb2 8ebd 734a aa3c
000002a0: f580 57bb 4f39 fdbd 2b3e 5abb 5fec 25bb
000002b0: 2e5c dc3d 0c86 a73d 4c4e 573d e553 833c
000002c0: cd42 57bd f8de e9bc bad8 923c 74ad 0cbd
000002d0: 6975 913d 6d51 683d 245a 803d d1de 423c
000002e0: 726e d4bd da48 b23c a2e6 03be adff f9bb
000002f0: b779 35bc c5b6 db3d 641e f1bd aeaf 9f3d
00000300: 9275 5b3e b3a0 823d 2293 403e 1148 0b3e
00000310: 86ee aabd f30d 623e 6cd5 4fbd d79e 273d
00000320: 38dd 223e 8098 1c3d 90f0 53bc 2f0a 9d3e
00000330: df2b c13d 2e13 153e 770a 493e 377b 923c
00000340: be47 6e3e 6a68 903d d5a0 03bd 3cee 1b3e
00000350: c521 213d ce74 ddba f9de 833d e856 253e
00000360: 8450 efbc 0f9d 8e3e 8f78 a93e 722c 1a3d
00000370: b541 a43d 4b9a c83d 2419 c73d 45ec e83d
00000380: abb2 443e c5af fd3d 0a69 593e 1406 3a3e
00000390: 6d11 343d 371b 8e3e 1395 833d a729 433e
000003a0: cd24 543c 5f5e 2f3e de97 6cbc 22be 1f3e
000003b0: e49d d23d 52d2 853c d947 c93d 1672 b23e
000003c0: 4a34 293e a8e6 3b3e 4a83 773d 2e3b 213e
000003d0: 2f32 2abd a820 003e 784a 333d b294 993d
000003e0: 5f4b 933d ee8d 053e 075e 463c 7120 a6bd
000003f0: 5e87 153e e362 9a3d e56b ddbc 7114 bdbc
