LSTM/models/sensor_data_3_co_lstm_model.pth (torch, 206032 bytes, 9 tensors)

lstm.weight_ih_l0 f4 [256, 1]
0	0xbe5d3de8	-0.21605647
1	0xbdabae2d	-0.08382831
2	0xbe18a852	-0.14907959
3	0xbdf35bd2	-0.11882748
4	0xbe5d4928	-0.21609938
5	0xbe5ae851	-0.21377684
6	0xbd81d758	-0.06339902
7	0x3e456b31	0.19279172
8	0xbe203a39	-0.1564721
9	0xba61b70f	-0.00086103467
10	0xbe0aed64	-0.1356712
11	0xbea2c48c	-0.31790578
12	0xbe33dffd	-0.17565913
13	0xbe16f97b	-0.14743607
14	0xbdf42406	-0.119209334
15	0x3e36b923	0.17844062
16	0x3da82999	0.08211059
17	0x3e40ca67	0.1882721
18	0xbe04fa09	-0.12986006
19	0xbe62f1a3	-0.2216249
20	0x3e594244	0.21216685
21	0xbe09a5d6	-0.13442168
22	0xbebe0218	-0.37110972
23	0xbdd7a0ae	-0.10528694
24	0xbda59b9f	-0.08086323
25	0xbdfc0471	-0.12305535
26	0xbd39964d	-0.045309354
27	0xbd802b6f	-0.06258284
28	0xbe8e5e0f	-0.27806136
29	0xbe6e7f19	-0.23290671
30	0xbe981c56	-0.2970912
31	0xbddf85e1	-0.10914207
32	0x3e0de5d3	0.13857202
33	0xbd82b460	-0.0638206
34	0x3e11d816	0.14242586
35	0x3d95450f	0.072885625
36	0xbcce9778	-0.02521871
37	0x3dccb0b4	0.09994641
38	0x3e435471	0.1907518
39	0xbd953085	-0.07284645
40	0xbe974a88	-0.2954905
41	0x3d017f76	0.031615697
42	0xbe4ce810	-0.200104
43	0xbe4e9b18	-0.20176351
44	0xbdcadc5c	-0.099053115
45	0xbec93e4f	-0.3930535
46	0x3e58d0d4	0.21173412
47	0x3c4a7e65	0.012359236
48	0x3d2ab63b	0.041677695
49	0xbe3e690f	-0.18594764
50	0xbd1ebb7f	-0.03875303
51	0xbd6dd647	-0.05806568
52	0xbdec7eed	-0.11547647
53	0xbe7e0f50	-0.24810529
54	0xbe984ab9	-0.2974451
55	0xbd9e0623	-0.07716014
56	0xbebfde06	-0.37474078
57	0xbeace1b6	-0.33765954
58	0xbea72028	-0.3264172
59	0xbde49586	-0.11161332
60	0x3cf310e0	0.029671133
61	0xbe42a9d7	-0.19010101
62	0xbe2ae147	-0.16687499
63	0xbeaa0a1c	-0.33210838
64	0xbccc9b32	-0.024976347
65	0xbd6729e9	-0.056436453
66	0xbdbf091d	-0.0932791
67	0xbe6253a3	-0.22102217
68	0xbd861a8f	-0.065480344
69	0x3d17f16b	0.03709547
70	0xbe17a9b7	-0.14810835
71	0x3c1304a2	0.0089732725
72	0xbe2185e4	-0.15773731
73	0x3e65ec64	0.22453457
74	0xbe63d78d	-0.22250195
75	0xbd96211b	-0.07330533
76	0xbaa04a52	-0.001222918
77	0xbd86349e	-0.06553005
78	0xbe455d32	-0.19273832
79	0x3d4e4a81	0.05036402
80	0xbd95656c	-0.07294735
81	0x3de94ad8	0.113912284
82	0xbdb59062	-0.088654295
83	0x3d116c00	0.035503387
84	0x3e0f031d	0.13966031
85	0xbd587480	-0.052845478
86	0xbe96d806	-0.29461688
87	0x3e094c13	0.13407926
88	0xbcdd357b	-0.02700304
89	0x3ddc8f5e	0.107695326
90	0xbd6d1565	-0.05788173
91	0x3c50daa5	0.012747441
92	0xbe6d6745	-0.23183925
93	0xbd97061a	-0.07374211
94	0xbe2ea26f	-0.17054151
95	0xbdf6b9ff	-0.12047195
96	0xbd318aba	-0.04334519
97	0xbd0f16c6	-0.034933828
98	0x3de885df	0.11353659
99	0xbcd90bbe	-0.026494857
100	0x3c8544ec	0.016268216
101	0x3d9e4bc4	0.07729295
102	0x3e95a161	0.29224685
103	0x3c4e6533	0.01259737
104	0xbe0cfbac	-0.1376788
105	0xbba5628f	-0.0050471495
106	0x3da7faea	0.08202155
107	0xbe4ee4ca	-0.20204464
108	0xbd8bd6a4	-0.06828049
109	0xbe1d0e0f	-0.15337394
110	0x3d4eda5b	0.05050121
111	0x3e3705c6	0.17873296
112	0xbe533b75	-0.2062815
113	0xbe47570a	-0.19466797
114	0xbdf1fd3e	-0.1181588
115	0x3d3eaabe	0.04654955
116	0xbe92376e	-0.28557914
117	0xbea9e000	-0.3317871
118	0xbdd23a08	-0.10264975
119	0x3c94c089	0.018158214
120	0xbe6706fc	-0.22561258
121	0xbe9b331e	-0.30312437
122	0xbe422f25	-0.18963297
123	0x3d45c7e0	0.04828632
124	0x3c7d6d89	0.01546801
125	0x3e50827b	0.20362274
126	0xbe14df41	-0.1453829
127	0xbd9ba49b	-0.075997554
128	0xbdc3cfd8	-0.095611274
129	0x3d64d9b6	0.055871688
130	0x3e440d53	0.19145708
131	0xbe962e4f	-0.29332206
132	0x3eb3df2d	0.35131207
133	0x3e94ff8e	0.29101223
134	0x3db74e87	0.08950525
135	0x3ddb5c75	0.10710994
136	0xbe510727	-0.20412885
137	0x3e1dd45e	0.15413043
138	0x3d18eeac	0.03733699
139	0xbe8fbd28	-0.28074002
140	0x3d1602e4	0.03662385
141	0x3dbf4bc3	0.09340622
142	0x3d8043a8	0.062629044
143	0xbcf8cad7	-0.03037016
144	0xbdfe02a5	-0.12402848
145	0x3e25189e	0.16122672
146	0x3e90f7c6	0.28314036
147	0xbe4c14c1	-0.19929792
148	0x3e29fb0b	0.16599672
149	0xbeafa091	-0.3430219
150	0x3e36f49f	0.17866753
151	0x3de3fffd	0.1113281
152	0x3d9aaa59	0.075520225
153	0xbe722ab7	-0.23649107
154	0x3d3d7e94	0.046263292
155	0xbea40220	-0.3203287
156	0xbe96b01e	-0.29431242
157	0x3d0c2035	0.034210403
158	0x3e85a1f1	0.26100114
159	0x3eb3f932	0.35151058
160	0x3d6bf2c3	0.057604562
161	0xbdab0bd8	-0.083518684
162	0x3c854809	0.0162697
163	0x3e08bf8f	0.13354324
164	0xbd7cbc29	-0.06170288
165	0xbda1d972	-0.079028025
166	0x3d1c828e	0.038210444
167	0xbda6366b	-0.08115848
168	0x3ecc81b8	0.39942718
169	0x3e272342	0.16322044
170	0x3c8cb1f8	0.017174706
171	0x3c922759	0.017841028
172	0xbe4927b0	-0.19644046
173	0xbea61f5e	-0.32445806
174	0x3da1bc23	0.07897212
175	0xbe562b10	-0.20914865
176	0xbe4e075d	-0.20119996
177	0x3dd75659	0.105145164
178	0x3e2580f8	0.16162479
179	0xbe6b039d	-0.22950597
180	0xbe8a1f29	-0.26976898
181	0xbe830180	-0.25587082
182	0xbe0e170e	-0.13875982
183	0x3ae6305e	0.0017562022
184	0xbeaad178	-0.33362937
185	0xbe9fe91d	-0.3123254
186	0x3e909306	0.2823717
187	0x3d9df663	0.0771301
188	0x3e50ec28	0.20402586
189	0x3e9dd07e	0.3082313
190	0xbd36a39c	-0.044589624
191	0xbe319ca8	-0.17344916
192	0xbe2e33f0	-0.17012
193	0xbe0f388b	-0.13986413
194	0xbc83d974	-0.0160949
195	0xbe967e7f	-0.29393384
196	0xbe87b535	-0.26505437
197	0xbe17acd0	-0.14812016
198	0xbd9ebc1a	-0.07750721
199	0x3e126cb4	0.1429928
200	0x3c45ace5	0.012065147
201	0x3e4d5bc8	0.20054543
202	0xbe40081e	-0.18753096
203	0xbe92fa77	-0.28706715
204	0xbe753bac	-0.23948544
205	0xbe45a735	-0.19302066
206	0xbdc09368	-0.094031155
207	0x3d30e0aa	0.043183006
208	0x3e132cd8	0.14372575
209	0x3e3a4efa	0.1819419
210	0xbdfc2948	-0.12312561
211	0xbd7668ce	-0.060158543
212	0x3e558dda	0.20854893
213	0xbed0d4ee	-0.40787452
214	0xbee53538	-0.44767165
215	0xbc1f878a	-0.009736905
216	0xbd852dc2	-0.06502868
217	0xbd3a751a	-0.045521833
218	0xbc2397fe	-0.009984968
219	0xbd95efed	-0.07321153
220	0xbe269032	-0.16265944
221	0xbd80e6a6	-0.06293993
222	0xbedf6b2b	-0.4363645
223	0xbe9857ce	-0.2975449
224	0x3c68fe86	0.014220839
225	0xbe1362ab	-0.14393108
226	0xbe047daa	-0.12938562
227	0x3e88d367	0.26723787
228	0x3dbec8d6	0.0931565
229	0x3d189ebe	0.037260763
230	0x3e9d181d	0.3068246
231	0xbe46e906	-0.19424829
232	0xbe238056	-0.15966925
233	0x3dbc05b3	0.091807745
234	0xbd83a44d	-0.06427822
235	0xbe22efca	-0.15911785
236	0xbdaf90f3	-0.08572569
237	0xbe9ddfcf	-0.30834815
238	0x3d78088e	0.060555033
239	0x3d7a7108	0.06114295
240	0x3d222ad4	0.039591625
241	0xbd7968b0	-0.060890853
242	0x3cf1627a	0.029465903
243	0x3e14336d	0.14472742
244	0xbe7600db	-0.24023764
245	0xbeb3a489	-0.35086468
246	0xbe905315	-0.28188387
247	0xbdf298c6	-0.118455455
248	0xbeb28448	-0.34866548
249	0xbea911a6	-0.33021277
250	0xbeb4a494	-0.35281813
251	0x3c5bba8c	0.013411175
252	0x3d06dae8	0.03292361
253	0xbe3fe433	-0.18739395
254	0xbe068f56	-0.13140616
255	0xbea0182f	-0.3126845

lstm.weight_hh_l0 f4 [256, 64]
0	0xbd29f99b	-0.041497808
1	0x3e26c378	0.16285503
2	0xbd4ae81a	-0.049537756
3	0x3ca6421d	0.020295197
4	0x3ba914f5	0.005159969
5	0x3df2d37e	0.11856745
6	0x3c6c306c	0.014415842
7	0xbb4352c5	-0.0029803973
8	0x3dcf18e8	0.10112172
9	0x3df71d11	0.12066091
10	0x3d313cca	0.043270864
11	0x3dc99bdd	0.09844182
12	0x3cb393d5	0.021921078
13	0x3c7a0ca3	0.015261802
14	0xbe411cd2	-0.1885865
15	0x3d3b63a6	0.04574933
16	0x3cc3eb3f	0.023915885
17	0xbcdb46fa	-0.026767243
18	0xbdb52385	-0.088446654
19	0xbd5165e8	-0.051122576
20	0x3eb0dc11	0.34542897
21	0x3d17b130	0.037034214
22	0xbd2b2584	-0.041783825
23	0x3e0f9e2e	0.14025185
24	0xbba316a4	-0.004977064
25	0xbe25d67d	-0.16195102
26	0xbb807ed2	-0.003921368
27	0xbd5c7aae	-0.053827934
28	0xbdfd106e	-0.12356649
29	0xbe1481f6	-0.14502701
30	0x3de94b56	0.11391322
31	0x3d79d446	0.060993455
32	0x3d9e4731	0.077284224
33	0x3d76c554	0.06024678
34	0xbd6a6816	-0.05722817
35	0xbdfe9b0e	-0.12431918
36	0xbd6cfdd4	-0.057859257
37	0xbd67c35d	-0.056582797
38	0x3cc9a494	0.02461461
39	0xbd246111	-0.040131632
40	0x3baf885c	0.0053568315
41	0xbdb157da	-0.086593345
42	0x3da94604	0.082653075
43	0xbd89da4c	-0.0673109
44	0xbc8c504f	-0.017128138
45	0xbc9b990a	-0.018993873
46	0x3e46448c	0.19362086
47	0xbdcc60e8	-0.09979421
48	0xbdb7ae86	-0.089688346
49	0xbe065bd9	-0.13120975
50	0x3cb32d08	0.021872059
51	0xbdcb5581	-0.09928418
52	0xbdfc9ba6	-0.12334375
53	0xbcf64242	-0.030060891
54	0x3e226e8a	0.1586248
55	0xbdd724c6	-0.10505061
56	0x3d984b19	0.07436199
57	0x3de9cb46	0.114157245
58	0x3d9109a6	0.070819184
59	0x3e0af02d	0.13568182
60	0x3de59aa2	0.112111345
61	0x3e4f9ac2	0.20273879
62	0x3e083a03	0.1330338
63	0xbd0b7925	-0.03405108
64	0xbc750306	-0.014954334
65	0xbd294cdb	-0.04133306
66	0x3dbb25de	0.09138082
67	0x3c8715ae	0.01648983
68	0x3dca1fdf	0.0986936
69	0x3c2237dc	0.009901013
70	0xbd0d1150	-0.03444034
71	0x3c51633f	0.01278001
72	0xbd850b23	-0.06496265
73	0xbe149b82	-0.14512447
74	0xbd339f6b	-0.043853205
75	0x3db09c28	0.086235344
76	0x3c67fef3	0.014159906
77	0xbd184f5b	-0.037185054
78	0x3cdcc6c7	0.026950253
79	0xbc6f7783	-0.014615896
80	0xbd373177	-0.044724908
81	0x3e11ae2a	0.14226595
82	0x3d8b409b	0.06799432
83	0xbe026fff	-0.12738036
84	0x3dfcdf6e	0.12347303
85	0xbb6f8dbd	-0.0036552988
86	0x3e4735b9	0.19454087
87	0xbe4e5867	-0.2015091
88	0xbd4d955f	-0.05019128
89	0x3dbcd5f7	0.09220498
90	0x3caf9cde	0.021437105
91	0x3bb59813	0.0055418103
92	0xbdbde5ab	-0.09272321
93	0xbd7ab166	-0.061204337
94	0x3d56c5df	0.0524348
95	0x3e25bef7	0.16186129
96	0x3c85d424	0.016336508
97	0xbdbc2608	-0.091869414
98	0x3e12495d	0.14285798
99	0xbd2ed10c	-0.04267983
100	0x3e078e5f	0.13237904
101	0x3cd30666	0.025759887
102	0x3d8b9958	0.068163574
103	0xbd2b76f9	-0.041861508
104	0xbd18c265	-0.037294764
105	0x3d9dc7ae	0.077041015
106	0x3db06ae0	0.08614135
107	0x3c74bb07	0.014937169
108	0xbd898380	-0.06714535
109	0xbe0b856e	-0.13625118
110	0xbcad771b	-0.021174958
111	0x3dd27fab	0.10278257
112	0xbd767df7	-0.060178723
113	0x3dea17f6	0.114303514
114	0xbca098e8	-0.019604161
115	0xbde07f96	-0.10961835
116	0xbe02c037	-0.12768637
117	0xbd566b97	-0.0523487
118	0x3d7a9c75	0.061184365
119	0xbd4e1c38	-0.05031988
120	0xbe1c292d	-0.15250082
121	0x3d8a5541	0.06754542
122	0xbd80180a	-0.06254585
123	0x3c956995	0.018238822
124	0xbda7ab53	-0.081869744
125	0xbcee70f4	-0.029106595
126	0x3d686d18	0.056744665
127	0x3be5af23	0.0070094033
128	0x3e08f4c7	0.13374625
129	0xbd87bd71	-0.0662793
130	0x3ddfc203	0.10925677
131	0xbd5ca2bd	-0.053866137
132	0xbd8cfeea	-0.068845585
133	0xbc6bcb9a	-0.014391804
134	0xbd5ccac3	-0.053904306
135	0xbd8491ec	-0.06473145
136	0xbe15dd60	-0.14635229
137	0x3e019b70	0.12656951
138	0x3d33f121	0.04393113
139	0x3cee162d	0.029063309
140	0x3cd5a05a	0.026077438
141	0xbce37d0e	-0.027769592
142	0xbcee888a	-0.029117841
143	0x3def4d26	0.11684637
144	0xbe0144f8	-0.12623966
145	0x3df5420f	0.1197549
146	0xbdce990e	-0.100877866
147	0x3d9f69e2	0.077838674
148	0x3b2d89be	0.0026479806
149	0xbd7a81ec	-0.06115906
150	0xbe1054d7	-0.14094864
151	0x3da15810	0.07878125
152	0xbcc53930	-0.02407512
153	0xbbb0f0f7	-0.005399819
154	0x3be352ac	0.0069373455
155	0x3d1f7ca9	0.038937245
156	0x3dc68307	0.0969296
157	0xbd007536	-0.03136178
158	0xbdf66681	-0.1203127
159	0xbdedce9f	-0.116116755
160	0x3dace9b7	0.08443015
161	0x3cd09aa1	0.025464358
162	0xbc2851c4	-0.010273401
163	0x3dd936d4	0.10606161
164	0xbc0383ca	-0.008027026
165	0xbdc94c6f	-0.09829032
166	0x3d92fff1	0.07177723
167	0x3de6d98c	0.112719625
168	0x3c0f6991	0.008753196
169	0xbd645317	-0.055743303
170	0xbc854d74	-0.016272284
171	0xbdc167ff	-0.09443664
172	0xbce1c3fc	-0.027559273
173	0xbc1cb088	-0.009563573
174	0x3dc0d0c2	0.094148174
175	0xbcd6d61d	-0.026225144
176	0x3bfd6b5f	0.007733747
177	0x3da6842d	0.08130679
178	0x3d6f8221	0.05847371
179	0xbce4a4c0	-0.02791059
180	0xbda73185	-0.08163742
181	0x3d70b37d	0.058764923
182	0x3d7b23b7	0.061313357
183	0x3d45b586	0.048268817
184	0xbd865eee	-0.06561075
185	0x3dfa6392	0.12226023
186	0x3dc979d5	0.09837691
187	0x3d4882fc	0.04895304
188	0x3c4bb6ee	0.012433751
189	0x3dba4a6d	0.09096227
190	0x3d9bd80b	0.07609566
191	0x3d89af19	0.0672285
192	0xbc553969	-0.013014176
193	0x3e2857ac	0.16439694
194	0xbd6e46a1	-0.058172826
195	0x3e2127f7	0.15737902
196	0xbe0b12c9	-0.13581385
197	0x3e185921	0.1487775
198	0xbe3a70c3	-0.18207078
199	0xbe405498	-0.1878227
200	0xbd63a65c	-0.055578575
201	0x3e4e5ea1	0.20153286
202	0xbe4226f5	-0.18960173
203	0xbd036cfd	-0.03208636
204	0xbd02f100	-0.031968117
205	0x3c8b069f	0.01697093
206	0xbcfebc12	-0.031095538
207	0x3e283761	0.16427375
208	0x3e1e745c	0.15474075
209	0x3d0ef637	0.034902778
210	0xbdbe7f07	-0.09301572
211	0x3d9027e7	0.07038861
212	0xbb5c9534	-0.0033658268
213	0xbcb86047	-0.022506846
214	0xbe337667	-0.17525636
215	0x3cbdef6f	0.02318546
216	0xbcaae1b2	-0.020859573
217	0xbe2713d0	-0.16316152
218	0xbd82dd23	-0.06389835
219	0xbd39f150	-0.04539615
220	0x3da7d9f6	0.081958696
221	0xbd5949b9	-0.053048823
222	0xbe68a97d	-0.22720905
223	0x3dc669c6	0.096881434
224	0x3d4bcbef	0.049755033
225	0xbe104f1e	-0.14092681
226	0x3daa1bb5	0.08306066
227	0xbda6cc41	-0.08144427
228	0xbd3ea814	-0.04654701
229	0x3d4b039d	0.049563993
230	0xbd8916c8	-0.06693798
231	0xbc2e7c36	-0.010649731
232	0x3d13f04a	0.03611783
233	0xbe100d39	-0.14067544
234	0x3de7eb2a	0.11324151
235	0xbce55d25	-0.027998516
236	0xbca4cbbd	-0.020116681
237	0x3d87a796	0.06623761
238	0x3da4b448	0.080421984
239	0xbe004b16	-0.12528643
240	0x3dc406c2	0.095716015
241	0xbdbcdee1	-0.09222198
242	0xbd282750	-0.041053116
243	0xbe4ef1fe	-0.202095
244	0x3ddff51e	0.10935424
245	0x3ca4ece8	0.020132497
246	0xbd1c305e	-0.038132064
247	0xbdef5e81	-0.11687947
248	0xbc0e9d41	-0.008704484
249	0x3d7fe2a6	0.06247201
250	0xbe1fabc0	-0.15592861
251	0x3e073759	0.13204707
252	0xbe4db766	-0.20089492
253	0x3d492e23	0.049116265
254	0xbcfefe99	-0.031127261
255	0x3de74807	0.11293035

lstm.bias_ih_l0 f4 [256]
0	0xbd4db1ce	-0.050218396
1	0x3d919d7b	0.07110115
2	0x3d4f53ac	0.050616905
3	0x3e2c6061	0.1683364
4	0x3d634f94	0.055495813
5	0x3dc14bc1	0.09438277
6	0x3d6635e3	0.056203734
7	0x3df74180	0.1207304
8	0x3e9c609b	0.30542454
9	0xbdb5843c	-0.08863112
10	0xbd46facb	-0.04857902
11	0x3e0531bb	0.13007252
12	0xbd863617	-0.065532856
13	0xbd1da36a	-0.038485922
14	0x3dc1530c	0.09439668
15	0x3df93aa7	0.1216939
16	0x3e150ac0	0.14554882
17	0x3d335261	0.043779735
18	0xbbec9d84	-0.0072209258
19	0x3c26377a	0.010145063
20	0xbc1b7eb6	-0.009490659
21	0x3e22c85e	0.15896747
22	0x3e5747d5	0.21023495
23	0x3dc94495	0.09827534
24	0xbda70285	-0.081547774
25	0xbd09a30f	-0.03360277
26	0x3d56fa3e	0.052484743
27	0x3de066d6	0.109571144
28	0x3d51c482	0.051212795
29	0xbd32498e	-0.04352718
30	0x3d9e7e9c	0.077389926
31	0x3e93872d	0.28814068
32	0x3c66c2a9	0.014084497
33	0xbdd31003	-0.10305788
34	0x3c8b22cb	0.016984364
35	0x3d15470d	0.036444712
36	0xbdb5b95f	-0.08873247
37	0xbd846ca7	-0.06466036
38	0x3c9eaa5c	0.019368343
39	0xbcfa755d	-0.030573541
40	0x3e81057b	0.25199494
41	0xbd664911	-0.056222025
42	0x3c8336d0	0.016017348
43	0xbd3f4dd9	-0.0467051
44	0x3d187b01	0.03722668
45	0x3def9017	0.11697405
46	0xbd45d024	-0.0482942
47	0xbcbd79b7	-0.023129327
48	0xbc20960f	-0.009801402
49	0xbd16dd3e	-0.036832087
50	0xbd292737	-0.041297164
51	0x3d6fce23	0.058546197
52	0x3e1d8432	0.1538246
53	0x3b896807	0.004193309
54	0x3d263405	0.040576953
55	0x3da20bbd	0.07912395
56	0x3e264f1c	0.16241115
57	0xbd4ebdf7	-0.050474133
58	0x3e825fba	0.2546366
59	0xbd2ce62c	-0.042211697
60	0x3de90a59	0.11378927
61	0x3d54b010	0.05192572
62	0x3dcad8da	0.099046424
63	0x3c05dc72	0.008170234
64	0xbddc9a7d	-0.10771654
65	0xbdca9a97	-0.09892767
66	0x3d64a79a	0.0558239
67	0x3d8e62b1	0.06952418
68	0x3cf78e8d	0.03021934
69	0x3c589457	0.013218961
70	0xbd9c3312	-0.076269284
71	0xbdb26b92	-0.08711924
72	0xbe0ba74a	-0.13638034
73	0x3d471ceb	0.048611563
74	0xbd16164b	-0.036642354
75	0xbdc8933e	-0.09793709
76	0x3dad0576	0.08448307
77	0xbd7322f2	-0.0593595
78	0xbda95df5	-0.08269874
79	0xbd3994ed	-0.045308042
80	0xbd3f0878	-0.046638936
81	0xbde5dea2	-0.112241045
82	0x3de499c7	0.11162143
83	0xbe15d322	-0.14631322
84	0xbe11f3c6	-0.14253148
85	0x3db53216	0.08847444
86	0x3e21e999	0.15811767
87	0x3d069c7b	0.032864075
88	0x3deccb2c	0.115621895
89	0x3db1ed76	0.0868787
90	0xbdef2a84	-0.11678031
91	0xbd87f63e	-0.06638764
92	0xbcde205d	-0.027115041
93	0xbdc7c3b5	-0.09754125
94	0xbd2c6ef3	-0.042097997
95	0xbd10a9a3	-0.03531803
96	0xbd156490	-0.036472857
97	0x3d31ef67	0.043441202
98	0xbd8000f7	-0.06250184
99	0xbda1892b	-0.07887491
100	0x3db342ee	0.08753
101	0xbd972d7d	-0.07381723
102	0xbbf82822	-0.0075731436
103	0x3cf149ee	0.029454198
104	0xbcb53040	-0.022117734
105	0xbb95faf0	-0.004577033
106	0xbc2cb5de	-0.010541407
107	0x3d44e5b3	0.04807062
108	0xbe469d7c	-0.19396013
109	0xbd894c3a	-0.06703992
110	0xbd2fee10	-0.042951643
111	0x3da8dbbc	0.08245036
112	0xbc75ae89	-0.014995226
113	0x3de08c7d	0.10964296
114	0xbe23e6bc	-0.16005987
115	0x3da87195	0.08224789
116	0xbe15e797	-0.14639126
117	0xbd8659b5	-0.06560079
118	0x3d5ac5d3	0.053411316
119	0xbcd0fc35	-0.025510887
120	0xbdd4e932	-0.10396041
121	0xbcf30f5c	-0.02967041
122	0xbd8addc0	-0.06780577
123	0x3c996174	0.018723227
124	0xbdaecd18	-0.08535212
125	0xbd5e3637	-0.054250922
126	0xbd654e5c	-0.055982932
127	0x3da547f7	0.08070367
128	0xbbac0844	-0.005250009
129	0x3d758bc2	0.059947737
130	0xbddf9205	-0.10916523
131	0x3bbb9839	0.0057249335
132	0xbdb3c4f9	-0.08777804
133	0xbc9f8280	-0.019471407
134	0xbe09298f	-0.1339476
135	0xbd30cb2e	-0.043162517
136	0x3cb47467	0.022028161
137	0x3cb80e18	0.022467658
138	0xbdb6f616	-0.08933656
139	0x3d9c457d	0.07630441
140	0xbd8f3783	-0.0699301
141	0xbdc670bd	-0.09689472
142	0xbdec42e7	-0.11536198
143	0x3cd8eb9f	0.02647954
144	0x3def022c	0.11670336
145	0xbc26360e	-0.010144724
146	0x3d6887f1	0.05677027
147	0xbd8493c9	-0.064735
148	0xbc6076b5	-0.013700177
149	0xbd5ec9ef	-0.054391798
150	0xbe011ad4	-0.1260789
151	0xbd2f7b07	-0.042841937
152	0xbd489c70	-0.048977315
153	0xbdb9e7f5	-0.090774454
154	0xbd794b14	-0.060862616
155	0x3d2b124a	0.04176549
156	0x3dc07e53	0.093990944
157	0xbe10eaee	-0.14152119
158	0xbe0e5ae1	-0.13901855
159	0x3d0ebb23	0.034846436
160	0x3d901e63	0.07037046
161	0xbb8e9697	-0.004351448
162	0x3db4bdde	0.08825277
163	0xbdfe860d	-0.12427912
164	0xbd3a56c9	-0.04549292
165	0x3dbe13bc	0.09281108
166	0x3d237ed9	0.039915893
167	0xbd79d0c6	-0.060990117
168	0x3cac7255	0.021050612
169	0xbd78dda1	-0.060758237
170	0x3d5db4ba	0.054127432
171	0xbe1210d6	-0.14264235
172	0x3d962e98	0.07333106
173	0x3cda3efd	0.026641363
174	0x3de5474c	0.111952394
175	0x3d99f6fa	0.0751781
176	0x3d987faa	0.07446225
177	0xbe0367f7	-0.12832628
178	0x3b2eb37c	0.0026657274
179	0xbd8af6cf	-0.06785356
180	0xbca8a81e	-0.020587977
181	0xbcc2810c	-0.023743175
182	0x3d84c37d	0.06482599
183	0xbd5c80ff	-0.053833958
184	0x3daf5a73	0.08562174
185	0x3de19bd3	0.11016049
186	0xbd71c3b6	-0.059024535
187	0x3d04ef78	0.032454938
188	0xbddc7b72	-0.10765733
189	0x3d64d1f4	0.05586429
190	0x3dd9e920	0.10640168
191	0x3e1bfc89	0.15233053
192	0x3d9b97dd	0.07597325
193	0x3d1f3061	0.038864497
194	0x3d1e711c	0.03868209
195	0x3d22c68a	0.039740123
196	0x3e1febbc	0.1561727
197	0x3e4fb1f0	0.20282722
198	0xbc41187b	-0.011785622
199	0xbdcb255a	-0.099192336
200	0x3e91ac59	0.28451803
201	0x3da4208e	0.08014022
202	0xbc8c5ca8	-0.017134026
203	0x3dc137e8	0.094344914
204	0x3dc51421	0.0962298
205	0xbcfc863f	-0.030825732
206	0x3e11325e	0.1417937
207	0x3dd681a6	0.10473947
208	0x3e0eb7e7	0.1393734
209	0x3e0164ce	0.1263611
210	0x3de9fd8e	0.11425315
211	0x3e106e27	0.1410452
212	0x3e5fdfd4	0.21862727
213	0x3d7ad3c1	0.0612371
214	0x3d7327a0	0.05936396
215	0x3e1758bd	0.14779945
216	0xbc02a546	-0.007973975
217	0x3ceb8def	0.028754203
218	0xbd4633a6	-0.0483891
219	0x3e6fcee4	0.23418766
220	0x3e6fc2bd	0.2341413
221	0xbd996a44	-0.07490972
222	0x3e13bf15	0.14428361
223	0x3e6180e0	0.22021818
224	0x3da0dea6	0.07854967
225	0x3db8c883	0.090226196
226	0xbd9ccc8a	-0.076562
227	0xbd92aa60	-0.07161403
228	0xbc131903	-0.008978131
229	0xbb9db08d	-0.0048123063
230	0xbcabb209	-0.020958917
231	0x3d411e9b	0.04714833
232	0x3ea01cab	0.31271872
233	0x3d011049	0.03150967
234	0x3dc87d3d	0.09789512
235	0xbcfe3a6e	-0.03103372
236	0x3e5011c8	0.20319283
237	0x3e2b51de	0.16730449
238	0x3dd07879	0.10179228
239	0xbd14b099	-0.03630123
240	0x3c97758c	0.018488668
241	0x3e178baf	0.14799379
242	0x3e209559	0.15681972
243	0x3da76e33	0.08175316
244	0x3e16834f	0.14698528
245	0x3dc64c7c	0.09682557
246	0x3df446fa	0.119276
247	0xbccda8f0	-0.02510497
248	0x3e2a4d94	0.16631156
249	0x3c852e6e	0.016257491
250	0x3dc5747a	0.09641357
251	0xbd44b877	-0.048027482
252	0x3d14db16	0.03634175
253	0x3e3ac7b3	0.18240242
254	0xbd1dee75	-0.03855749
255	0x3b6c1481	0.0036022963

lstm.bias_hh_l0 f4 [256]
0	0x3d442122	0.04788316
1	0x3c8d7157	0.017265959
2	0x3dabf8e2	0.0839708
3	0x3e58d892	0.21176365
4	0x3bd2d844	0.0064344723
5	0x3e2ff1cb	0.1718208
6	0xbd721a95	-0.05910738
7	0x3db0b182	0.08627607
8	0x3e65ef15	0.22454484
9	0xbd1435ff	-0.036184307
10	0xbda5ad0e	-0.08089648
11	0x3e220b41	0.15824606
12	0xbd93d279	-0.07217879
13	0x3cbba985	0.022907982
14	0x3d050c68	0.032482535
15	0xbdb6233f	-0.088934414
16	0x3dde6aa4	0.10860184
17	0x3e03bf93	0.12866049
18	0x3d60e163	0.054902446
19	0xbca6caea	-0.020360429
20	0x3e44c95c	0.19217438
21	0x3d9cec53	0.07662263
22	0x3c5ae1e2	0.013359519
23	0x3cece40c	0.028917335
24	0x3e026bb9	0.12736405
25	0xbc9539ed	-0.018216098
26	0x3db598ed	0.08867059
27	0x3dea03da	0.11426516
28	0x3d715484	0.05891849
29	0xbd2ad39a	-0.041705705
30	0x3e61768d	0.2201788
31	0x3e0afc96	0.13572916
32	0x3d50f6a8	0.05101648
33	0x3dfd45b3	0.1236681
34	0xbd92bbbd	-0.071647145
35	0xbd51802e	-0.051147632
36	0x3e1058e0	0.14096403
37	0x3d4ba0ee	0.04971402
38	0xbc72f97a	-0.014829988
39	0x3d59b105	0.053147335
40	0x3e766ca8	0.24064887
41	0xbd8d2397	-0.06891554
42	0x3cee2c53	0.02907387
43	0xbcada9a4	-0.021199055
44	0x3db9b8a7	0.09068423
45	0x3e3bdec1	0.18346693
46	0xbd889a18	-0.06670016
47	0xbcfe895f	-0.031071363
48	0x3d88b3eb	0.06674942
49	0x3e1bc4fd	0.15211864
50	0x3df33def	0.11877047
51	0x3c62d92d	0.013845724
52	0x3cae0214	0.021241225
53	0xbc574b47	-0.013140506
54	0xbd92bc33	-0.071648024
55	0x3dbaf4e1	0.09128738
56	0x3d2da349	0.04239205
57	0x3e05f8a1	0.13083126
58	0x3e6f42c4	0.23365313
59	0x3c98d94e	0.018658306
60	0xbcdd06b0	-0.026980728
61	0x3e38888c	0.18020838
62	0xbdee0070	-0.11621177
63	0x3be5ac02	0.0070090303
64	0xbc53454c	-0.01289494
65	0x3cd6de9c	0.026229195
66	0x3dc85718	0.09782237
67	0xbd68e5b0	-0.056859672
68	0x3c155d28	0.009116448
69	0xbc26580f	-0.010152831
70	0xbd1d7772	-0.03844399
71	0xbd3945a9	-0.04523245
72	0xbdd91999	-0.106005855
73	0xbca65f5e	-0.020309146
74	0x3d4870cf	0.048935708
75	0xbe0a5546	-0.13509092
76	0x3dd82650	0.105541825
77	0xbdac0216	-0.08398835
78	0xbd392104	-0.0451975
79	0xbd18a71f	-0.037268754
80	0xbdfe3bdc	-0.12413761
81	0xbd07a4ab	-0.033116024
82	0x3c946251	0.018113287
83	0x3d30c580	0.0431571
84	0xbd6ca9dc	-0.057779178
85	0xbdcee7c4	-0.101027995
86	0x3e25ff0c	0.16210574
87	0x3ced97ab	0.029002985
88	0xbdad8ccf	-0.08474123
89	0x3df0251e	0.117258295
90	0xbd2b7b2a	-0.041865505
91	0x3a59b815	0.00083053234
92	0x3e2659eb	0.16245238
93	0xbe0a8b2c	-0.13529652
94	0x3c84c061	0.016205015
95	0xbd907a06	-0.07054524
96	0xbd2b4958	-0.041817993
97	0xbdeb5db6	-0.11492483
98	0xbc9b423a	-0.018952478
99	0xbe00cb7d	-0.12577625
100	0xbd5b5bde	-0.05355441
101	0x3db97046	0.090546176
102	0x3b5f79b2	0.0034099636
103	0x3d53bc33	0.051693153
104	0xbcabbca8	-0.020963982
105	0x3d77aeaa	0.060469307
106	0xbcaa1988	-0.020764127
107	0x3dcdebdf	0.100547545
108	0xbd018f98	-0.031631082
109	0xbdd2f2e0	-0.10300231
110	0xbd8d544c	-0.06900844
111	0xbdf5b32a	-0.119970635
112	0x3d94244e	0.07233487
113	0xbc5e0077	-0.0135499155
114	0xbdc4e07c	-0.096131295
115	0xbdd75c4f	-0.10515653
116	0xbe063917	-0.13107716
117	0xbcb7c626	-0.022433352
118	0x3d322fe2	0.043502696
119	0x3d1ae675	0.037817437
120	0x3dbeda38	0.09318966
121	0xbcdff44a	-0.027338166
122	0x3d9abd2b	0.07555612
123	0xbdde395e	-0.10850786
124	0xbe2996bc	-0.16561407
125	0x3d6186c3	0.05506016
126	0x3d4d4182	0.0501113
127	0x3d01ca9f	0.031687375
128	0x3d20faf5	0.03930183
129	0x3dc7e964	0.097613126
130	0xbd81c83a	-0.06337018
131	0xbba96e25	-0.005170601
132	0xbd7d845e	-0.061893813
133	0xbc70b359	-0.014691197
134	0xbe0691af	-0.13141511
135	0xbe025345	-0.12727077
136	0xbd1e5547	-0.038655546
137	0x3db9d94e	0.09074651
138	0xbd08fd5e	-0.033444755
139	0x3d108f66	0.035293005
140	0xbd55b9e4	-0.052179232
141	0xbd40f8bd	-0.047112215
142	0xbc6e29a3	-0.014536294
143	0xbd69d307	-0.057086017
144	0x3d94c4ba	0.07264085
145	0xbda5c057	-0.080933265
146	0xbdd219e9	-0.10258848
147	0xbd79294e	-0.060830407
148	0x3d357953	0.044305157
149	0x3d68f68f	0.05687576
150	0xbdaad313	-0.083410405
151	0x3c7773d0	0.015103295
152	0x3e1be497	0.15223919
153	0x3c9f9da7	0.019484354
154	0xbddc3dde	-0.10753988
155	0xbe018e88	-0.12652028
156	0xbd14ebe2	-0.036357768
157	0xbdda2b4e	-0.10652791
158	0xbcb0781c	-0.021541648
159	0xbd23e6cb	-0.040015023
160	0x3c89818f	0.016785411
161	0xbd86c3a2	-0.06580283
162	0x3db70f24	0.08938435
163	0x3c2c33e7	0.010510421
164	0x3ae004bb	0.0017091254
165	0x3deaa3ec	0.11457047
166	0xbd260f98	-0.040542215
167	0xbdf20115	-0.11816613
168	0xbd2182be	-0.039431326
169	0xbccee811	-0.025257142
170	0x3dd39683	0.10331442
171	0xbe01c174	-0.12671453
172	0x3d65ca90	0.05610138
173	0x3d63a71c	0.05557929
174	0x3dc77266	0.09738617
175	0xbe1ed23e	-0.15509889
176	0x3ce3073c	0.02771341
177	0xbe27c206	-0.16382608
178	0x3d4c0f1e	0.049819104
179	0x3bf99a19	0.007617247
180	0x3de25ff4	0.11053458
181	0x3dc55c43	0.09636738
182	0x3dcea308	0.100896895
183	0xbdddbc40	-0.108269215
184	0x3d9ab2fd	0.075536706
185	0x3dc2289b	0.09480401
186	0xbc857ce9	-0.016294913
187	0x3d86f0e3	0.06588914
188	0xbd9b13be	-0.07572125
189	0xbd236540	-0.03989148
190	0xbda8e960	-0.08247638
191	0x3d26822f	0.040651496
192	0x3de0e1e3	0.109805845
193	0xbddb2553	-0.107004784
194	0x3d1178c6	0.03551557
195	0x3cbca4a7	0.023027731
196	0x3d42b1a0	0.047532678
197	0x3e8aeca6	0.27133673
198	0xbc5ac2fd	-0.013352153
199	0xbdabdf6a	-0.08392222
200	0x3ea0b2d2	0.3138643
201	0x3dd161c8	0.102237284
202	0xbc84fc88	-0.016233698
203	0x3d79a4ec	0.060948297
204	0x3d31871d	0.043341745
205	0x3d6f2443	0.05838419
206	0x3d806f4b	0.062712274
207	0x3dbd2378	0.09235281
208	0x3d08a0f1	0.03335661
209	0x3c2e75cd	0.010648203
210	0xbd4379fb	-0.04772375
211	0xbc7b6e72	-0.015346156
212	0x3e5f60e2	0.21814302
213	0xbc416296	-0.01180329
214	0x3d821c52	0.06353058
215	0x3d04e083	0.032440674
216	0xbd02b4ab	-0.03191058
217	0xbd51d3f4	-0.051227525
218	0x3d659d72	0.056058355
219	0x3da92b80	0.0826025
220	0x3dee26bb	0.11628481
221	0x3d817522	0.063211694
222	0x3d8af6db	0.06785365
223	0x3da4cc4c	0.08046779
224	0xbda6f644	-0.0815244
225	0xbd2429b4	-0.040078834
226	0x3d986018	0.074402034
227	0xbd80532b	-0.06265863
228	0x3e053be8	0.13011134
229	0x3ddbf798	0.10740584
230	0x3d48e07c	0.04904221
231	0x3de5dbc5	0.11223558
232	0x3e9deff7	0.3084714
233	0xbce30e02	-0.02771664
234	0xbd8d28a1	-0.06892515
235	0xbd0a594f	-0.033776578
236	0x3e05bfdc	0.1306147
237	0x3e822a70	0.25423002
238	0x3dd68cd7	0.10476082
239	0x3e17dcfe	0.14830396
240	0xbd4f94cb	-0.05067901
241	0x3d0eaf3d	0.03483509
242	0x3d67d2f8	0.05659768
243	0x3dbb06fb	0.09132191
244	0x3d81e38d	0.0634223
245	0x3e4b889e	0.19876334
246	0x3df13940	0.11778498
247	0x3d80b51d	0.062845446
248	0x3d31c41e	0.043399923
249	0xbd508aad	-0.0509135
250	0x3dd2d520	0.102945566
251	0xbd5e64fb	-0.05429552
252	0x3df9f7b7	0.12205451
253	0x3e2d298b	0.16910379
254	0xbdbf08ff	-0.09327888
255	0x3dcdf7be	0.10057019

lstm.weight_ih_l1 f4 [256, 64]
0	0xbdbd6cb6	-0.092492506
1	0xbd869e70	-0.06573188
2	0xbd8d4429	-0.06897766
3	0xbdfce3ff	-0.12348174
4	0xbda5c11b	-0.080934726
5	0x3cc2e902	0.023792747
6	0x3d56f247	0.052477147
7	0xbdc303f1	-0.09522236
8	0x3d8c89a8	0.06862193
9	0xbc95d0f8	-0.01828812
10	0x3d90f9d6	0.070789024
11	0x3d3a3650	0.045461953
12	0xbd144552	-0.03619892
13	0xbd7e586d	-0.06209605
14	0xbdb5928a	-0.08865841
15	0x3e12b9ed	0.14328738
16	0x3d3d711d	0.04625045
17	0x3cd85a02	0.026410107
18	0xbc70eb8c	-0.014704596
19	0xbdbcc6f4	-0.09217635
20	0x3d30701e	0.043075673
21	0xbce148af	-0.027500479
22	0x3c935c9c	0.017988496
23	0x3dcb9e97	0.09942358
24	0xbdaaa074	-0.08331385
25	0xbe1eb881	-0.1550007
26	0xbc4dfb5f	-0.012572139
27	0xbd6c9a33	-0.057764243
28	0xbdc0abc5	-0.094077624
29	0x3da09503	0.07840922
30	0x3d86cbb9	0.06581826
31	0xbd79d0b8	-0.060990065
32	0x3da6d333	0.08145752
33	0xbd5cd5ce	-0.053914838
34	0x3d93d2b1	0.072179206
35	0xbdf12a13	-0.11775603
36	0x3dba895b	0.0910823
37	0xbcc05281	-0.02347684
38	0xbd27f166	-0.0410017
39	0x3dd504ef	0.10401332
40	0xbdb2ee30	-0.08736837
41	0xbcf98e3c	-0.03046333
42	0xbd5f46dc	-0.054510936
43	0x3d3a5f86	0.045501254
44	0xbdc1f46d	-0.09470449
45	0x3dc42b36	0.09578554
46	0x3cc2d732	0.023784254
47	0x3b545a58	0.0032402482
48	0x3de0ece6	0.10982685
49	0xbdc49e43	-0.096004985
50	0x3db69a45	0.08916143
51	0x3d0efd86	0.034909748
52	0xbc6e7f47	-0.0145567125
53	0xbdb2293a	-0.086992696
54	0x3c88e02b	0.016708454
55	0xbe08f31d	-0.1337399
56	0xbd844b61	-0.0645969
57	0x3d593d80	0.053037167
58	0xbdbcece7	-0.09224873
59	0x3dbb9b95	0.09160534
60	0xbd987dfe	-0.07445906
61	0x3d3b6f3c	0.04576038
62	0xbd94c1d2	-0.07263531
63	0x3d9e7a9c	0.0773823
64	0xbc94fa15	-0.018185655
65	0xbdb0cc6e	-0.08632742
66	0xbe07657f	-0.13222311
67	0x3df5ca69	0.12001497
68	0xbddfbfb1	-0.10925234
69	0x3d34e089	0.044159446
70	0xbda088ad	-0.07838569
71	0x3d8f3ee0	0.06994414
72	0x3cfb193c	0.030651681
73	0x3decd08a	0.11563213
74	0xbcb7fafd	-0.022458548
75	0x3de54494	0.11194721
76	0xbdd34d90	-0.10317528
77	0x3de362a7	0.11102801
78	0xbd7d05a7	-0.06177297
79	0x3da6c48f	0.08142959
80	0xbd9e8409	-0.077400275
81	0x3ddb652f	0.107126586
82	0x3da2aef8	0.07943529
83	0x3d9d1721	0.07670427
84	0x3d87d4e5	0.06632403
85	0x3d29f19f	0.041490193
86	0x3c3c570d	0.011495364
87	0xbdc15e40	-0.09441805
88	0x3ddb41bd	0.10705898
89	0x3d4ac6fe	0.04950618
90	0xbdaa1b56	-0.08305995
91	0x3d8f7ad9	0.07005853
92	0xbdcb34c8	-0.099221766
93	0x3c8376ee	0.016047921
94	0xbd0890af	-0.033341106
95	0xbc73f1ac	-0.014889162
96	0xbd086bb5	-0.033305842
97	0xbd3d8e46	-0.04627826
98	0x3dccf42e	0.10007511
99	0x3c601a2a	0.013678113
100	0xbc630018	-0.013855003
101	0x3e01b773	0.12667637
102	0x3bf5b739	0.0074986485
103	0xbd03ae57	-0.032148685
104	0x3dae99da	0.085254386
105	0xbd7abec6	-0.061217092
106	0xbbcb2453	-0.0061993985
107	0xbdb0dbe2	-0.08635689
108	0x3d04f3a1	0.032458905
109	0x3e10c88c	0.14139003
110	0x3e1318ea	0.14364973
111	0x3d439623	0.047750603
112	0x3d8eb020	0.06967187
113	0x3db60ba2	0.088889375
114	0x3d372c2d	0.044719864
115	0x3d119a60	0.035547614
116	0xbd0bee33	-0.03416271
117	0x3da28175	0.07934848
118	0xbdb89c5a	-0.09014197
119	0xbe0e6c29	-0.13908447
120	0x3dcdc720	0.10047746
121	0x3d65e56a	0.05612699
122	0xbcba997b	-0.022778263
123	0x3db26710	0.08711064
124	0xbc0b399b	-0.008497621
125	0x3cd9a660	0.026568592
126	0x3d9331f2	0.07187261
127	0x3dbfe9ee	0.093707904
128	0x3d574b89	0.05256227
129	0x3d8ba75c	0.06819031
130	0xbd171b6b	-0.036891382
131	0xbd564711	-0.052313868
132	0xbd925edf	-0.071470015
133	0xbd22fba7	-0.039790776
134	0xbd6c8cc9	-0.05775145
135	0x3dbdcd71	0.092677005
136	0x3cd1c641	0.02560723
137	0x3d1f2584	0.038854137
138	0x3c324808	0.010881431
139	0xbd168624	-0.03674902
140	0xbde5ee75	-0.11227123
141	0xbd14020e	-0.036134772
142	0xbdf826cd	-0.12116776
143	0x3dcb16f9	0.09916491
144	0xbde0b77e	-0.10972498
145	0xbd151817	-0.036399927
146	0x3c2f318e	0.010692967
147	0xbd33f3ee	-0.0439338
148	0x3d66a95e	0.056313865
149	0x3e0799f1	0.13242318
150	0xbb6e5292	-0.0036365134
151	0xbdc0a193	-0.09405818
152	0xbda21dd1	-0.07915843
153	0x3d1e5e5f	0.038664218
154	0xbd14b0fa	-0.03630159
155	0x3deef9b7	0.11668723
156	0x3df7bb28	0.12096244
157	0x3da0cd23	0.07851627
158	0x3d4e6162	0.05038584
159	0xbd8f7ed9	-0.07006616
160	0x3d7bff1d	0.06152259
161	0x3dca4f6b	0.09878429
162	0x3db60e28	0.08889419
163	0xbce4d6f4	-0.027934529
164	0x3c3f9427	0.011693037
165	0x3cc2cc40	0.023779035
166	0x3dcdbf9c	0.10046312
167	0xbdb1ae3b	-0.0867581
168	0x3b80d375	0.0039314576
169	0xbc97212a	-0.018448431
170	0x3d5283fe	0.05139541
171	0x3deb1254	0.11478105
172	0x3ce088a6	0.027408909
173	0xbce84886	-0.028354894
174	0x3d8b7430	0.068092704
175	0xbd505362	-0.05086077
176	0x3dc6218a	0.09674366
177	0xbdb303ed	-0.08740983
178	0xbdcf7538	-0.101297796
179	0xbd5ec8cb	-0.05439071
180	0xbd3a3ef8	-0.045470208
181	0x3e069a86	0.13144884
182	0x3d0ea37d	0.034823883
183	0x3db43259	0.087986656
184	0x3e053323	0.13007788
185	0xbd632b8a	-0.055461444
186	0xbdd7a38a	-0.105292395
187	0x3bdaf385	0.006681862
188	0xbca2f838	-0.01989375
189	0xbe22efa0	-0.15911722
190	0xbd46a987	-0.048501518
191	0x3d9beade	0.07613157
192	0x3d55833a	0.0521271
193	0x3ce1355d	0.027491266
194	0xbdc21c9b	-0.09478112
195	0x3e1a80f7	0.15088259
196	0xbd4ffab4	-0.0507762
197	0x3c4016e7	0.01172421
198	0x3d326287	0.043550994
199	0x3d9b4649	0.07581765
200	0x3c90f5ce	0.017695334
201	0x3dcc3b8f	0.099722974
202	0xbdcd927f	-0.100377075
203	0x3e0fa254	0.14026767
204	0x3d031d13	0.03201015
205	0xbe0be7cf	-0.13662647
206	0x3d4e2609	0.050329242
207	0x3e32d941	0.17465688
208	0x3d697672	0.056997724
209	0xba305270	-0.00067261513
210	0xbd8c30fe	-0.06845282
211	0x3d92e970	0.07173431
212	0x3d29422e	0.04132288
213	0xbd4ec4c6	-0.050480627
214	0xbe93da25	-0.2887737
215	0x3e65e39d	0.22450109
216	0x3dc525c6	0.09626345
217	0xbe1f12d5	-0.15534528
218	0x3c18e51d	0.009331969
219	0x3d2eb688	0.042654544
220	0x3e4927c3	0.19644074
221	0xbe19fdf7	-0.15038286
222	0xbe3cb4d1	-0.18428351
223	0x3d9757fd	0.07389829
224	0xbd061c40	-0.032741785
225	0x3c587b15	0.013212939
226	0x3d293187	0.041307
227	0xbcac81cf	-0.021057991
228	0xbe2e0940	-0.16995716
229	0x3dd1d048	0.102448046
230	0xbe4077db	-0.18795721
231	0x3db5cb7f	0.088767044
232	0x3de31b49	0.110891886
233	0x3d912558	0.07087201
234	0x3dc3e055	0.09564272
235	0x3dc52d7c	0.09627816
236	0x3ac6ef96	0.0015177603
237	0xbd33d432	-0.043903537
238	0xbc3ac4bc	-0.011399444
239	0xbda80dc0	-0.082057476
240	0x3d5ff8a3	0.054680478
241	0xbd17d8ea	-0.0370721
242	0x3dabfe60	0.083981276
243	0xbdd1cf25	-0.10244588
244	0x3b9e8e32	0.0048387283
245	0x3de5847c	0.1120691
246	0xbdd3f7d2	-0.10350002
247	0x3db6ff66	0.08935432
248	0x3d4b67b9	0.049659465
249	0xbc4470c7	-0.011989779
250	0x3d70a835	0.058754165
251	0xbdd329cd	-0.10310707
252	0x3de3c298	0.111211
253	0xbcef97e6	-0.029247236
254	0x3e003e2a	0.12523714
255	0x3b0a5957	0.002111038

lstm.weight_hh_l1 f4 [256, 64]
0	0xbd41966d	-0.047262598
1	0x3dfe940b	0.12430581
2	0x3daa67de	0.08320592
3	0x3d347093	0.04405267
4	0xbe10ca6b	-0.14139716
5	0x3dddc32b	0.10828241
6	0xbde7e0e4	-0.11322191
7	0xbd934267	-0.071903996
8	0x3dc6d6b2	0.09708919
9	0xbdfbc5ba	-0.12293573
10	0x3dae4094	0.08508411
11	0x3d308dfc	0.043104157
12	0xbcbc3e12	-0.022978816
13	0x3d6e397f	0.0581603
14	0x3dfd8aa7	0.123799615
15	0x3deb432f	0.11487424
16	0x3d02fe51	0.031980816
17	0x3d9b54b5	0.07584516
18	0x3e387a40	0.18015385
19	0x3da30594	0.07960048
20	0x3d829f88	0.063780844
21	0xbdc40e7f	-0.095730774
22	0x3dda6800	0.10664368
23	0xbcae42c6	-0.021272074
24	0x3df9224b	0.12164744
25	0x3e291f5a	0.16515866
26	0x3d4f2013	0.050567698
27	0x3c956f53	0.01824156
28	0xbdd795ba	-0.10526605
29	0xbd8bd756	-0.068281814
30	0x3cd728ff	0.026264666
31	0x3de6fbaf	0.112784736
32	0xbda10906	-0.07863049
33	0x3dce7d36	0.10082476
34	0x3c6510f8	0.013981096
35	0x3cd6756a	0.026179034
36	0xbd51ed15	-0.05125149
37	0xbcc3db8c	-0.023908399
38	0x3d9a0670	0.07520759
39	0xbd8549f8	-0.06508249
40	0x3dd10153	0.10205331
41	0x3d2f0d68	0.042737395
42	0xbd0152ce	-0.03157311
43	0xbc5b0ce4	-0.013369773
44	0x3dbee2df	0.09320616
45	0xbd99ddd6	-0.07513015
46	0x3db6d0ba	0.0892653
47	0x3d49f016	0.04930123
48	0x3d1a7e06	0.03771784
49	0xbdf61343	-0.12015393
50	0x3d15b744	0.03655173
51	0x3d14d436	0.036335193
52	0xbd2c0841	-0.04200006
53	0x3dd94425	0.10608701
54	0x3dfeaace	0.12434922
55	0xbd86bb73	-0.06578722
56	0xbdea95a3	-0.11454322
57	0xbd81a0a4	-0.06329468
58	0xbe092af9	-0.13395299
59	0x3e0bf291	0.1366675
60	0x3d3ac16d	0.04559462
61	0x3d1b4ba9	0.037913952
62	0xbc3d39bb	-0.011549409
63	0x3e0143b0	0.12623477
64	0x3c7d50b7	0.015461138
65	0xbc824142	-0.015900258
66	0xbdd3121a	-0.10306187
67	0xbdf65609	-0.12028129
68	0x3d8b1aa5	0.067921914
69	0xbcd34cf1	-0.025793524
70	0x3d6b7bbc	0.05749105
71	0xbdc039f8	-0.09386057
72	0xbccb2d4b	-0.02480187
73	0xbdb2a9b3	-0.08723774
74	0xbd84cf74	-0.06484881
75	0x3c2dc9d5	0.010607203
76	0x3e10b186	0.1413022
77	0x3db84fe3	0.08999612
78	0x3d21efa1	0.03953517
79	0xbd117ff7	-0.035522427
80	0xbdf1c83f	-0.11805772
81	0x3d9bf15f	0.07614397
82	0x3d9d4574	0.07679263
83	0x3cfe8e2a	0.031073648
84	0x3c0e4af3	0.0086848615
85	0xbcdfee72	-0.02733538
86	0x3dd60db7	0.10451835
87	0x3d38563c	0.045004115
88	0x3b6fb554	0.0036576586
89	0xbda6aef9	-0.08138842
90	0x3dbf760b	0.09348687
91	0xbdbe3957	-0.092882805
92	0x3c86028d	0.016358638
93	0xbd098f9b	-0.03358422
94	0x3d3b8047	0.04577663
95	0xbcd3a698	-0.025836274
96	0x3ccc3238	0.02492629
97	0xbe1a3f97	-0.1506332
98	0xbd811518	-0.063028514
99	0xbd836b4d	-0.064169504
100	0x3d9566c7	0.07294994
101	0x3dc1c191	0.09460748
102	0xbccddeba	-0.025130618
103	0xbd5d13f2	-0.0539741
104	0x3d02e698	0.031958193
105	0xbdd2d84b	-0.10295161
106	0x3cbb797d	0.022885079
107	0xbc819ff6	-0.015823346
108	0xbd8038e7	-0.06260853
109	0x3d9b2a4e	0.07576428
110	0xbdec3232	-0.115330115
111	0xbd3ab67d	-0.04558419
112	0xbc182bbb	-0.00928777
113	0xbdfabb53	-0.122427605
114	0xbce1c736	-0.027560811
115	0xbd3bde90	-0.04586655
116	0x3d25dc15	0.04049309
117	0x3be1811b	0.0068818456
118	0xbde92dfc	-0.11385724
119	0x3d6bb1ce	0.057542615
120	0x3d2ad973	0.041711282
121	0xbdfe9244	-0.12430242
122	0xbd9f1418	-0.077675045
123	0xbcd1a3c5	-0.025590787
124	0xbc47c097	-0.012191913
125	0x3de76577	0.1129865
126	0xbd47e78b	-0.0488048
127	0x3e1027eb	0.14077727
128	0x3da4d34c	0.08048114
129	0xbde2e94c	-0.11079654
130	0xbcf5e2f5	-0.030015448
131	0xba55c6d8	-0.0008154935
132	0x3d122d1c	0.03568755
133	0x3d7c110a	0.061539687
134	0x3d44226f	0.0478844
135	0xba5197be	-0.00079953286
136	0x3dde10f4	0.10843077
137	0xbded0f6c	-0.11575207
138	0xbdc1c289	-0.09460933
139	0xbc9f8211	-0.0194712
140	0xbbdff92a	-0.0068351226
141	0xbdca387c	-0.09874055
142	0xbc2b4551	-0.010453538
143	0xbd22b0f6	-0.039719544
144	0xbd335deb	-0.04379074
145	0x3ca0db7a	0.019635905
146	0xbdcede97	-0.101010494
147	0x3d6768a9	0.056496296
148	0x3da8f4c3	0.082498096
149	0x3d99054a	0.07471712
150	0xbd292d8d	-0.041303206
151	0xbcc0a53f	-0.023516295
152	0xbc95779c	-0.01824551
153	0x3dd982ca	0.10620649
154	0x3d69c2ab	0.057070415
155	0x3e0e365e	0.13887927
156	0x3d61a1cd	0.055085946
157	0xbd21d809	-0.039512668
158	0x3df152d4	0.11783376
159	0xbd180af6	-0.03711983
160	0x3da31c74	0.079644114
161	0xbe069a8a	-0.1314489
162	0xbd7816e0	-0.06056869
163	0x3db64274	0.08899394
164	0x3d273141	0.040818457
165	0x3e28452d	0.16432638
166	0xbd1b6774	-0.037940457
167	0xba4b52eb	-0.0007756191
168	0x3dd7080b	0.10499581
169	0xbc1d623c	-0.00960594
170	0xbcb97605	-0.022639284
171	0x3d6f4f2a	0.058425106
172	0xbcf1da6d	-0.029523099
173	0xbd98ff47	-0.07470565
174	0x3d0b1ae6	0.0339612
175	0xbd860d05	-0.06545452
176	0xbdcf6d1b	-0.10128232
177	0x3cefacd5	0.029257217
178	0x3df67380	0.120337486
179	0xbd6c7a25	-0.057733674
180	0xbc536d54	-0.012904484
181	0xbca99b21	-0.020703854
182	0xbd575947	-0.052575376
183	0x3e3509ea	0.17679563
184	0x3dd99c42	0.10625507
185	0xbdbd5458	-0.09244603
186	0x3c839cbb	0.016065946
187	0x3d873eb1	0.06603754
188	0xbd6113eb	-0.054950636
189	0x3d50ea5f	0.051004764
190	0x3d829e7b	0.06377884
191	0x3dcaa2b1	0.09894312
192	0x3d05766b	0.032583635
193	0x3c0d1356	0.008610567
194	0xbdc31fcd	-0.0952755
195	0xbd49fb3d	-0.049311865
196	0x3de98d2d	0.1140388
197	0x3d8c9a63	0.068653844
198	0xbe0d704f	-0.13812374
199	0x3de2a9a2	0.11067511
200	0x3d101bda	0.03518281
201	0x3aa301df	0.0012436471
202	0xbd65f57c	-0.056142315
203	0x3deab998	0.114611804
204	0xbdf030e9	-0.11728079
205	0xbdd38bc2	-0.10329391
206	0x3e047c50	0.12938046
207	0x3df5a8db	0.11995097
208	0x3e0210e7	0.1270176
209	0x3c4f7900	0.012663126
210	0x3d9a2eea	0.075284794
211	0xbe974aaf	-0.29549167
212	0x3d3f3e5c	0.04669033
213	0x3d8ac793	0.06776347
214	0x3db1fd5b	0.08690902
215	0x3d83c42c	0.06433901
216	0xbe42afc5	-0.19012363
217	0x3ce20c70	0.027593821
218	0x3d979481	0.07401372
219	0xbe6ff1fd	-0.23432155
220	0x3c92a382	0.017900232
221	0xbcbcdfda	-0.02305596
222	0xbda09250	-0.07840407
223	0x3e5ea07d	0.21740909
224	0x3e215246	0.15754041
225	0x3dec3091	0.11532701
226	0x3e178ab8	0.14799011
227	0x3c6980d7	0.014251909
228	0xbce6ba4e	-0.028165009
229	0x3df57b41	0.119863994
230	0x3d67289b	0.05643521
231	0xbd38521f	-0.04500019
232	0x3da5eaca	0.08101423
233	0xbd5d27a6	-0.05399289
234	0x3c9ff7b6	0.019527297
235	0x3e12697a	0.14298049
236	0x3d0ee32f	0.034884628
237	0xbd9558ef	-0.07292353
238	0x3dc5d725	0.09660176
239	0x3e2fdc32	0.17173842
240	0x3d96a663	0.073559545
241	0xbd987a44	-0.07445195
242	0x3d3bf652	0.045889206
243	0x3d83b0c7	0.06430202
244	0xbd7cb13e	-0.06169247
245	0xbc23ca1e	-0.009996919
246	0x3d951884	0.072800666
247	0xbd0bb3f0	-0.03410715
248	0x3ccca45b	0.024980715
249	0xbda477a9	-0.08030636
250	0xbd7a67ab	-0.06113402
251	0x3d253d85	0.040341873
252	0xbd1209a8	-0.03565374
253	0x3c67b6e3	0.014142725
254	0xbdcde9ae	-0.100543365
255	0xbd690e65	-0.056898493

lstm.bias_ih_l1 f4 [256]
0	0xbd527e90	-0.05139023
1	0x3cf8da62	0.03037757
2	0xbdd83092	-0.10556139
3	0xbdc5581c	-0.09635946
4	0x3ea18612	0.315476
5	0x3d31b3f1	0.043384496
6	0x3df5b336	0.119970724
7	0xbd210660	-0.03931272
8	0xbd797e53	-0.060911488
9	0x3dae4665	0.085095204
10	0x3dd7f846	0.10545401
11	0x3da1afff	0.07894897
12	0xbd0ec457	-0.034855213
13	0x3dc54d28	0.09633857
14	0x3c417504	0.011807684
15	0xbddf096e	-0.108904704
16	0x3da34949	0.079729624
17	0x3dc3d0f8	0.09561342
18	0x3de47b80	0.11156368
19	0x3db4533a	0.08804937
20	0xbb5a3a11	-0.003329877
21	0x3dc6a3db	0.09699222
22	0x3ddd9093	0.10818591
23	0x3d84599d	0.06462405
24	0x3c98445e	0.018587288
25	0xbc511fee	-0.01276396
26	0xbdad86d2	-0.084729806
27	0xb9983a14	-0.0002903497
28	0x3cb6c341	0.022309901
29	0xbd93cbb6	-0.07216589
30	0x3dcb7238	0.09933895
31	0xbbf42490	-0.0074506477
32	0x3bf3b6f2	0.0074375803
33	0xbd0038ba	-0.0313041
34	0x3df2a8fc	0.118486375
35	0x3d822eaf	0.063565604
36	0x3c80a017	0.015701337
37	0x3aeed945	0.001822271
38	0x3e056932	0.1302841
39	0xbbc3ce98	-0.0059755556
40	0x3de24ea9	0.110501595
41	0x3df80b83	0.12111571
42	0x3dedf714	0.11619392
43	0x3d12bc78	0.03582427
44	0xbd87c2c4	-0.066289455
45	0xbdfb9875	-0.12284938
46	0x3d7bbba0	0.06145823
47	0x3c9bbe48	0.019011632
48	0x3d84fed5	0.06493918
49	0x3e014055	0.12622197
50	0xbc94159c	-0.01807671
51	0x3db04415	0.086067356
52	0xbd0c34ba	-0.03422997
53	0x3df59d6d	0.11992917
54	0x3c647981	0.013944984
55	0x3e6bf89d	0.23044057
56	0xbc8081f5	-0.015686968
57	0xbc385cc8	-0.0112525895
58	0x3caef2d2	0.02135602
59	0x3db4dbfd	0.08831022
60	0xbdaa3765	-0.08311347
61	0x3deb0b7e	0.11476801
62	0x3c5a4f24	0.013324533
63	0x3e162c4c	0.14665335
64	0x3c8c67ce	0.017139342
65	0xbd31aa94	-0.043375567
66	0x3dbb54a2	0.09147002
67	0x3ce28be8	0.027654603
68	0xbe84c212	-0.25929314
69	0x3c5dea4a	0.013544628
70	0x3d4d8f4f	0.050185498
71	0xbd4782df	-0.048708793
72	0x3d677ba9	0.056514416
73	0x3da02f08	0.078214705
74	0xbdf65a9d	-0.12029002
75	0x3d6e9bb3	0.058253955
76	0xbd406604	-0.04697229
77	0xbdb5bef6	-0.088743135
78	0x3cabe959	0.020985292
79	0xbdd265ca	-0.10273321
80	0xbd315bff	-0.043300625
81	0x3d75b6f9	0.05998895
82	0xbd727d69	-0.05920163
83	0xbd2cfe15	-0.0422345
84	0x3c29eedd	0.010371891
85	0xbd7a2a55	-0.061075527
86	0x3d124f66	0.03572025
87	0x3da60c3c	0.08107802
88	0xbd5a21b6	-0.053254806
89	0xbd9aba2c	-0.07555041
90	0x3d04578c	0.032310054
91	0xbddc74c0	-0.10764456
92	0xbd60d608	-0.054891616
93	0x3ca98934	0.020695306
94	0xbdb0ade9	-0.08626921
95	0x3d895b99	0.06706924
96	0xbc00c497	-0.007859371
97	0x3d28479d	0.04108392
98	0x3dc99dfd	0.09844587
99	0xbd9e4e95	-0.07729832
100	0xbc641053	-0.013919908
101	0x3d8813d5	0.06644408
102	0xbdc34d23	-0.09536197
103	0xbc9fa859	-0.019489454
104	0x3d96bfa2	0.0736077
105	0xbc8fa620	-0.01753527
106	0xbe0dd3d2	-0.13850334
107	0xbb964ad7	-0.0045865583
108	0x3d17cfa1	0.037063245
109	0xbd7b650b	-0.06137566
110	0xbd3d79cb	-0.04625873
111	0x3dc30678	0.09522718
112	0xbafe3f05	-0.0019397443
113	0x3d968e7a	0.07351394
114	0x3d702f01	0.058638576
115	0xbc97abcc	-0.018514536
116	0xbdf8f3cd	-0.12155876
117	0xbc7f12f9	-0.015568488
118	0xbd9da1e0	-0.07696891
119	0xbdf2a700	-0.11848259
120	0x3bbadaed	0.0057023675
121	0xbceaaf40	-0.028648019
122	0x3df28c02	0.118431106
123	0xbd186b80	-0.037211895
124	0x3dbe384c	0.092880815
125	0x3d64ca06	0.055856727
126	0xbdc80491	-0.09766496
127	0xbce1167b	-0.02747654
128	0x3cc5e03b	0.024154773
129	0x3d446aed	0.047953535
130	0xbdd64e09	-0.10464103
131	0x3cad7e69	0.021178441
132	0xbd8f63f6	-0.07001488
133	0xbb85a57a	-0.0040785642
134	0xbcc042b5	-0.023469308
135	0xbdc07fe4	-0.09399393
136	0xbc0e0f59	-0.008670651
137	0x3dc8cd02	0.09804727
138	0xbd7d2f87	-0.061812904
139	0x3d9ba59c	0.07599947
140	0x3cc0df0a	0.023543853
141	0x3d0b360c	0.03398709
142	0xbd826dc3	-0.06368592
143	0x3d86934c	0.065710634
144	0x3db06eb6	0.086148664
145	0xbd76d03e	-0.06025719
146	0xbd9b8a9e	-0.075947985
147	0xbd2c534a	-0.04207162
148	0xbd393c85	-0.04522373
149	0x3d214cb8	0.039379805
150	0xbcd075b1	-0.025446745
151	0xbe0908fc	-0.13382334
152	0x3d39252e	0.045201473
153	0xbc81f095	-0.015861789
154	0x3db26787	0.087111525
155	0xbd8a6b26	-0.06758718
156	0xbde01b24	-0.10942677
157	0xbcd4b7c6	-0.025966536
158	0xbd074705	-0.033026714
159	0x3da67912	0.08128561
160	0x3d7db600	0.061941147
161	0x3ca724c5	0.020403275
162	0xbdbf8a7d	-0.093525864
163	0xbda43fd2	-0.08019985
164	0xbdcb4092	-0.09924425
165	0xbcc76910	-0.02434209
166	0xbe096035	-0.13415606
167	0xbde242e8	-0.110479176
168	0xbb3d3fff	-0.0028877256
169	0xbdb1b6df	-0.08677458
170	0xbda7262a	-0.08161576
171	0xbd9a13bf	-0.075232975
172	0xbde5cf91	-0.11221231
173	0xbdadae2a	-0.08480485
174	0x3df12f5c	0.11776611
175	0xbb05ec51	-0.0020435045
176	0xbd8892e9	-0.06668646
177	0xbdc3c2a7	-0.09558611
178	0xbb3aa752	-0.0028481078
179	0xbdfd80ff	-0.1237812
180	0x3dd0cb51	0.101950295
181	0xbda99054	-0.082794815
182	0x3cadc296	0.02121095
183	0x3d6cb0d0	0.05778581
184	0x3c8c6462	0.01713771
185	0xbda527dd	-0.08064244
186	0x3c7922d4	0.015206058
187	0x3c59b75b	0.013288344
188	0x3e0cb387	0.13740359
189	0xbdf984f0	-0.12183559
190	0xbd9ac478	-0.07557005
191	0x3e15de6d	0.1463563
192	0x3de6434a	0.11243303
193	0x3e0a151b	0.13484614
194	0x3ca436db	0.020045688
195	0xbd4ce30a	-0.05002121
196	0x3e970ec3	0.2950345
197	0x3de80f9f	0.113311045
198	0xbd8db2e0	-0.06918883
199	0xbad37bc8	-0.0016134912
200	0x3dae67d8	0.085159004
201	0x3d63a60e	0.055578284
202	0x3d1bcc60	0.038036704
203	0x3d82fc76	0.06395809
204	0x3d9d94ed	0.07694421
205	0xbd8d7e80	-0.069088936
206	0x3da21241	0.07913638
207	0x3ddb56f0	0.107099414
208	0xbd20e781	-0.03928328
209	0x3df5eed7	0.12008446
210	0x3e7c95b7	0.24666487
211	0xbd994d54	-0.07485452
212	0x3dd8129b	0.10550424
213	0xbda8aac8	-0.08235699
214	0xbcae4274	-0.021271922
215	0xbd2ed94a	-0.04268769
216	0xbd502a94	-0.050821856
217	0x3e2163f2	0.15760782
218	0xbc918996	-0.017765801
219	0x3c858426	0.016298365
220	0xbd66ca9c	-0.056345567
221	0xbd6c9e48	-0.057768136
222	0x3da1ec63	0.07906415
223	0x3e6b0e3a	0.22954646
224	0xbdbfacf5	-0.09359161
225	0x3d8d7ed1	0.06908954
226	0x3d5de696	0.054174982
227	0xbc8c1a5a	-0.01710241
228	0xbb8724f2	-0.0041242773
229	0x3d5c3f40	0.053771257
230	0x3de1b33c	0.11020514
231	0x3db0a403	0.08625033
232	0xbc76840b	-0.01504613
233	0xbd53b93c	-0.051690325
234	0x3e108243	0.14112191
235	0x3d0e60c8	0.034760267
236	0x3db17c81	0.08666325
237	0xbd96b764	-0.07359198
238	0xbd2523e3	-0.040317427
239	0x3d71c97c	0.05903004
240	0x39ded446	0.00042501296
241	0x3d5858b0	0.052818954
242	0xbd543a93	-0.051813673
243	0xbc8e32d8	-0.017358229
244	0xbcb1ba96	-0.021695416
245	0xbd2fbea6	-0.042906426
246	0xbd8f4d17	-0.069971256
247	0x3e1f6e1f	0.15569352
248	0xbd3cd4d3	-0.046101402
249	0x3b97ea44	0.004636081
250	0xbdd0212e	-0.101625785
251	0xbd7bda4f	-0.061487492
252	0x3e14255d	0.14467378
253	0xbd3e3f18	-0.04644689
254	0x3dc282dd	0.094976164
255	0xbd898974	-0.0671567
