LSTM/models/sensor_data_3_pm25_lstm_model.pth (torch, 206060 bytes, 9 tensors)

lstm.weight_ih_l0 f4 [256, 1]
00000000: 29ee 343e f15e c73d ae2c 8b3d 9335 2f39
00000010: 4d29 79bd a919 22be c140 51bd 8190 983d
00000020: f735 fabc 8e1a 0d3e 2ae8 8b3d 30dd 4ebd
00000030: adc2 ad3d a854 47bd 36b9 423d 747e b63d
00000040: ede2 3ebe 83d6 073e 78c1 99bc fa2c cf3a
00000050: 59ee 82bd 9310 033e fac3 9abc ea57 66bd
00000060: 88b5 553d 76ea 84bd 4014 803c 8bdb 6cbd
00000070: 4015 fbbd 98db 833d 886c 00be de03 be3d
00000080: a41a 13bd c1cf 983d ff44 f03d f7ca 31bd
00000090: ddf5 bd3d 0406 053d 6b20 5d3b 6870 d5bd
000000a0: cce9 e93d bedc 853c 6bd6 133e c70b 89bc
000000b0: af76 11be 6984 a0bd 346f fb3c 3f43 643d
000000c0: 7d36 fd3d 8153 0e3d 4c5e bc3d e765 1bbc
000000d0: 9e64 30be c223 e03d 3460 c6bb bf19 663d
000000e0: 45fe e23d f36e 993d c095 bc3b 3437 f4bd
000000f0: 894f 663d 4ece 2cbe 1de9 e43d f930 35bd
00000100: f21f 8f3d 7759 c73c b2aa 683d ed83 06be
00000110: bee4 89bd c431 afbb f085 9a3d 0bc2 89bb
00000120: 3d0b 253d 3a6e e33c 5d24 bc3d 6858 623c
00000130: 88a0 833d c0d1 64bd 24f6 d03c d6d9 953d
00000140: 877c dabd 140f 943d e135 bebd b49a 69bd
00000150: d7f5 4abd 819e 583b 143c 3ebe 4653 09bb
00000160: 9d58 9a3d c987 023c 36d2 0fbe 3042 2fbd
00000170: 1b6a e7bc 1f0d 5abd ca63 99bd e06e b4bd
00000180: bbb9 c13c e6f1 7f3d f426 e83d 8730 2abe
00000190: 2369 88bd d0c6 9b3c a880 2b3d 7f5b 0ebe
000001a0: 99c2 90bd 85da 123d 33b2 023e c250 2dbd
000001b0: 372c cdba 0a3a 78bd d090 eebd d246 e13c
000001c0: b609 bd3c 07bd 8a3d 3d72 b43d 7ffd d73c
000001d0: 939b 98bd ff59 0b3e 818c 66bb 570a 073e
000001e0: 9952 1b3e 7d31 503c 6d71 16be 814f 2c3d
000001f0: 8f93 093e c7bc c3bc ac16 cebc a92f ea3b
00000200: b3ec 133e 0ab8 ea3d 399c 2d3e aa5d 30be
00000210: 797d 4f3e ddad 44bd c7c6 25be b9da 2a3e
00000220: 2aab ab3d caee 653e 30d5 543e d245 dc3c
00000230: c0f7 cbbd 3b86 9abd ebae c23d 22f0 9bbc
00000240: eabb 233d a57b 2abe 8e2c 3ebe d544 b1bd
00000250: 23e6 29be e8e7 3b3e 2d2d 053e 08d1 2f3e
00000260: c652 1dbe 9fe3 ca3d d89c c3bd d002 38be
00000270: c4d4 12be 2151 c4bd 905c ecbd fa5b e2bd
00000280: deb0 e2bd 0c44 a8bd a7e0 12be 042a 033e
00000290: 91a4 733d 5ba0 4c3e 1452 19be 4eef 32be
000002a0: 5e1b 4bbd 23b4 e83d 82a7 c1bd b39a 253e
000002b0: 3aed 29be 6769 3e3e f825 5fbe 8d62 47be
000002c0: bf78 36be e1cf 07be 80b1 1abe f2d8 5cbe
000002d0: 8904 06bd fab7 bdbd eba8 ebbd 55fa ddbd
000002e0: 20ec 423e 6fb3 153e 233c 11be 70f1 e93d
000002f0: 406e 47be 9968 03be 8425 403e b799 3fbe
00000300: 88e1 023e c937 953d 2ec9 fabd 99bb b63c
00000310: 65e1 273e 343f 16be 646f c23d fcca 3c3d
00000320: 1297 47bc efcc 9d3c 509c 053e 90c3 46bd
00000330: f9a0 4d3e fa4d 0e3c b0c6 3ebe ddd5 e6bd
00000340: 6f2a 293c bbb4 733d b179 96bd 0b6e 36be
00000350: e8eb 3bbc 6087 593d 0771 83bd 54c0 8939
00000360: 55ab 2f3d 4046 01be d966 27bc 3eb2 ebbc
00000370: 260d 46be 2293 f83d 8150 adbc 599e 87bd
00000380: 0c03 463e cc3f 093e 84c7 f93c 8e25 e6bc
00000390: 49f8 6a3c d524 683e f1af 8bbc bf03 093d
000003a0: bbf6 073e 73c3 273e 9878 363e cbec 05bd
000003b0: 84f2 25be 5784 d4bd 4a98 3e3d 9c64 863c
000003c0: 1025 2dbd 20b3 aa3d 7670 65bc c707 2bbd
000003d0: 295b 413c e5b3 043e 0b6f 303e 12c4 3f3e
000003e0: 72a8 493e ae1c eb3d 51f4 1d3c 0a7e 4fbe
000003f0: eab5 933d ad36 dcbd cb19 ee3c 6dec 313d
0.17668976 0.097349055 0.06795631 0.00016709258 -0.060830403 -0.15830101 -0.051087145 0.07449437
-0.03054331 0.13779661 0.06831391 -0.05050391 0.08484397 -0.04866472 0.047539912 0.08910838
-0.18641253 0.13265423 -0.01876901 0.0015806251 -0.063931175 0.12799291 -0.018892277 -0.056236185
0.052175075 -0.064900324 0.015634656 -0.05782656 -0.122599125 0.064383686 -0.12541401 0.09278081
-0.03591408 0.07461501 0.1173191 -0.043406453 0.0927541 0.03247644 0.0033741246 -0.104218304
0.11421546 0.01634061 0.14437263 -0.016729249 -0.1420543 -0.07837755 0.030692674 0.055728193
0.123639084 0.034747604 0.09197673 -0.009484745 -0.17225882 0.1094432 -0.006053949 0.056176897
0.11083654 0.07491865 0.0057551563 -0.11924592 0.056228194 -0.16875574 0.11177275 -0.044236157
0.06988515 0.024334652 0.056803413 -0.13136263 -0.06733082 -0.0053465087 0.07545078 -0.00420404
0.04029392 0.027762521 0.09186623 0.013815023 0.06427103 -0.055864096 0.025507994 0.073169395
-0.10668283 0.072294384 -0.0928762 -0.057032302 -0.049550857 0.003305346 -0.18577605 -0.0020954176
0.07536433 0.007966944 -0.14045033 -0.04278773 -0.028248837 -0.05323517 -0.074897364 -0.0881021
0.023648134 0.06248655 0.11335555 -0.16620074 -0.06660678 0.0190157 0.041870743 -0.1390209
-0.070683666 0.035852928 0.1276329 -0.042313345 -0.0015653436 -0.060602225 -0.116487145 0.02749959
0.02307592 0.06774335 0.08810852 0.026365994 -0.074515484 0.1360855 -0.0035178962 0.13187538
0.15168227 0.012707111 -0.14691706 0.04206801 0.13435195 -0.023893727 -0.025157295 0.007146795
0.14445762 0.11460884 0.16954125 -0.1722323 0.20262708 -0.04801737 -0.16189109 0.16684999
0.08382256 0.22454372 0.2078445 0.026888762 -0.09959364 -0.07545134 0.09506019 -0.019035403
0.03997413 -0.16648729 -0.18571684 -0.08655707 -0.16591696 0.18350184 0.13005514 0.17169583
-0.15363607 0.099066965 -0.095514 -0.17969823 -0.14338976 -0.095857866 -0.115410924 -0.110526994
-0.11068891 -0.08216104 -0.1434351 0.12808996 0.059483115 0.19983046 -0.14972717 -0.174741
-0.049586646 0.11362483 -0.09455778 0.16172294 -0.16594401 0.18594895 -0.21791828 -0.19471188
-0.17819498 -0.13262893 -0.15106773 -0.21567133 -0.03271917 -0.09263606 -0.11506828 -0.10838763
0.19035387 0.1461923 -0.14183097 0.11423004 -0.19475651 -0.1283287 0.18764311 -0.18710981
0.12781346 0.07286031 -0.12245403 0.02230625 0.16394575 -0.14672548 0.09493902 0.04609202
-0.012182014 0.019262759 0.1304791 -0.048526347 0.20080937 0.008685583 -0.18630481 -0.1127126
0.010325058 0.05949853 -0.073474295 -0.17815416 -0.011469819 0.05310762 -0.06418043 0.00026273972
0.042888004 -0.12624454 -0.010217392 -0.028771516 -0.19340953 0.12137438 -0.021156551 -0.06621999
0.193371 0.13403243 0.030490644 -0.02809408 0.014341422 0.226703 -0.017051669 0.03345084
0.13277714 0.16383152 0.1781944 -0.032696526 -0.16205794 -0.10376804 0.046531953 0.016405396
-0.042271674 0.08334947 -0.014003864 -0.041755464 0.011801519 0.1295925 0.1722986 0.18727139
0.19693163 0.114800796 0.009640769 -0.20262924 0.07212432 -0.10752616 0.029065033 0.043438364

lstm.weight_hh_l0 f4 [256, 64]
00000000: 769b ec3c 4abf 983c 4f25 28be 6397 4fbb
00000010: 3b66 69bd b215 12bd 95b6 bcbd 3fc2 00be
00000020: 9d06 0f3d 574c 0e3e 1293 4fbd 2113 b33c
00000030: c1ad 2bba 25cd c53d 69bf 12bd b368 063e
00000040: 56fc c7bb 090e 793d 22bd 063e 81e8 2bbd
00000050: f66e babd f5a8 b23d 2d41 66bd 89cd 573d
00000060: 77bd b23d 876a 16be 8555 0e3e 91db 243b
00000070: 81e1 323e 392e c0bd 99a1 f23d e9ae 1fbd
00000080: e61b fd3c ae1d a0bb 7eee 20be c83b 8ebd
00000090: f321 183e a99b 343e b42c 31bd c0e5 683b
000000a0: 3b14 143e 47c2 3dbd f8d6 2fbc e42b e6bd
000000b0: 3c40 953d 61ac 38be 6d52 67bd 9bd9 20be
000000c0: bd6d 71bd 6c02 e83c 8e41 0dbe 36d4 873d
000000d0: ae5e c23c 8d50 1fbe 1877 d3bd eba7 7fbd
000000e0: 0dfd bc3d 3678 3c3e dd7f de3d 0d98 9ebd
000000f0: 9756 943d 002b 8cbc a1bb e9bd 89a3 6ebb
00000100: 8521 62bc 0201 e2bd c9fe 91bd b056 d63c
00000110: 914e afbd 9ab3 503d daa9 30bd c9c1 18bd
00000120: a83c 153e 2fde e93c 68fd 443d d4c8 61bd
00000130: 9027 06bc 43de db3d 6752 ddbc b22f 9b3d
00000140: 9027 6b3d e655 553d cbbb e23d 0a4b 73bc
00000150: e221 24bd da65 413d 55f7 2f3d 4c74 0e3b
00000160: 7ad9 923d 4b3e a4bd 2942 c03d d5ff e8bd
00000170: 09b2 aa3c 5b1b 8f3d 3b4d 073e 0d2c c43c
00000180: fb08 0c3d a678 ce3c 007b f939 f2d3 b73d
00000190: 61e2 d8bb 2dd1 c93d 1012 07bd ef3e 8b3d
000001a0: b83e 903d 789e b9bc c357 efbd b657 c73c
000001b0: 7e9d 9c3d 2ffe e8bd 3c01 153d 5f8e ae3d
000001c0: bf78 e7bd 2efa 463c 4818 ebbc 69a0 b33c
000001d0: 49b6 95bc a483 afbd 4751 b1bd 79b7 c2bd
000001e0: 7f65 a43d 3a92 0e3e 609e 6dbd 0e06 883d
000001f0: e963 ab3d 31ad 76bc 7455 afbd d35f 96bd
00000200: e78d 8b3c beb7 acbd 4bed febd 5908 533d
00000210: c31d 333d eece 183b 9f58 5f3d d9da ce3b
00000220: fc19 c13c c6ea 223e 8af9 97b9 bbd7 c3bc
00000230: 78c8 813c 0142 473d 1ca6 bbbd 8e6e ad3c
00000240: e42a 003d 5dfa 8cbc 3fc8 593d 80f3 133d
00000250: 444c 7abd 6736 523e deb4 873d 6505 123e
00000260: 6396 93bd ce5d e83c fbd0 443d 2d44 ba3d
00000270: 7455 03bd ee25 99bd a882 933c 00fe 593d
00000280: 06d1 3bba 22ad 65bd d3eb 1dbe ef56 dfbd
00000290: 95ab a7bc ce2c c53d 68a3 27bd 91dd 973d
000002a0: e0fc 153e c4b9 243e c5bb f7bd 00e5 ccbd
000002b0: 9880 91bd ed6a 873c 62c1 873b c058 c8ba
000002c0: bfaf 7d3d 05b4 d73c 2bc6 f13c b727 8d3c
000002d0: 3814 15bd 1d0b 47bd 37c7 a83c b878 e0bd
000002e0: f31d 163e 7e8c af3d 28c2 a0bd b772 e4bd
000002f0: ec52 e63c 487b 22bd 0992 d4bd 483c 553d
00000300: c950 e53c 4088 c3bd 3e85 2d3d 8dee 5b3d
00000310: 8f81 a93d 9c97 95bd 305a e4bd 1592 47bc
00000320: be41 153e c8e3 833c cf26 f03c 00ac 283d
00000330: b335 eabd 2ebc 033e 39d0 f73c 2fe4 0c3e
00000340: d47c 763d 85b3 353d e266 1f3d 8930 a1bd
00000350: 6cce 15bd 3199 c2bb 6b34 a1bd c26e e03d
00000360: ba7d 313d 0130 5e3d 0f45 873d 9d5f c5bd
00000370: cd88 bfbc 8cec 9a3c 5ba9 a3bd 0282 89bd
00000380: 5029 42b8 b67d 81bd d885 04be ecd3 6abd
00000390: df47 183e cbe9 683c 72d6 b43c 0c3a e4bc
000003a0: ea31 54bd 3c60 303d 49e8 c03c 1734 5f3d
000003b0: ff77 0fbd ce88 d03d 1da1 a53d e0bd 6fbb
000003c0: 1dac 81bd 63a0 c6bd f704 23bb c69f 61bc
000003d0: ec74 abbc b436 0cbe d255 6b3d ff7e b4bd
000003e0: c954 ca3d 57b3 eb3a a2e0 793d b3c9 22bd
000003f0: 7b77 4a3d 1127 c0bd 9824 bc3d 0e56 523b
0.028882723 0.018645901 -0.16420482 -0.0031675927 -0.05698226 -0.03566522 -0.09214512 -0.12574099
0.034918416 0.13896309 -0.050677367 0.021859707 -0.00065490237 0.09658269 -0.035827074 0.13125877
-0.006103079 0.0608044 0.13158086 -0.04196978 -0.09103195 0.08723632 -0.0562145 0.052686248
0.08727544 -0.14689074 0.1389981 0.0025155286 0.17468835 -0.09383816 0.118472286 -0.038985167
0.030897092 -0.0048863506 -0.15715978 -0.06944996 0.148567 0.17637505 -0.043255523 0.0035537332
0.14460842 -0.046327855 -0.010732405 -0.1123884 0.07287642 -0.18034507 -0.05647509 -0.1570801
-0.058942545 0.028321467 -0.13794538 0.06632273 0.023726787 -0.15558071 -0.1032545 -0.062416
0.09227953 0.18405232 0.10864232 -0.07743845 0.07243078 -0.017110348 -0.114127405 -0.0036413393
-0.013801937 -0.110353485 -0.071286745 0.026164383 -0.08559907 0.05095253 -0.043130733 -0.037294183
0.1457392 0.028548328 0.04809323 -0.055123165 -0.008188143 0.107357524 -0.027016832 0.075774565
0.057410777 0.052083872 0.11070975 -0.014849434 -0.040071376 0.047216274 0.042960484 0.0021736799
0.071703866 -0.08019694 0.09387619 -0.11376921 0.020836847 0.069876395 0.13213055 0.023946786
0.034188252 0.025204014 0.00047584623 0.08975972 -0.0066187833 0.0985435 -0.03297621 0.06799113
0.07043213 -0.022658572 -0.11686661 0.024333816 0.07647227 -0.11376607 0.03637813 0.08523249
-0.11302327 0.012144608 -0.028698102 0.021927075 -0.018275397 -0.0857003 -0.086580805 -0.09507651
0.08027171 0.13922969 -0.058012366 0.0664178 0.08368666 -0.0150559405 -0.08561221 -0.07342496
0.017035438 -0.084334835 -0.12447604 0.051521633 0.043729555 0.00233167 0.054527875 0.00631271
0.02357196 0.15909871 -0.00028986885 -0.02390658 0.015842661 0.04864693 -0.09162542 0.02117088
0.031290904 -0.017209226 0.053169485 0.03612089 -0.06110789 0.20528565 0.066262946 0.1425987
-0.07206418 0.028365042 0.04805086 0.09095035 -0.032063916 -0.07477938 0.018006638 0.05322075
-0.0007164631 -0.056073315 -0.15421991 -0.10905253 -0.020467559 0.096276864 -0.04092732 0.07415307
0.14647245 0.16086489 -0.12096361 -0.10004616 -0.071046054 0.016530478 0.004142926 -0.0015285239
0.061935183 0.026330957 0.02951344 0.017230852 -0.036396235 -0.048594583 0.020602806 -0.10960525
0.14659862 0.08571719 -0.07849532 -0.111546926 0.028115712 -0.03966835 -0.103794165 0.05205944
0.027992623 -0.09547472 0.042363398 0.053694297 0.082766645 -0.07304308 -0.111500144 -0.012180825
0.1457586 0.016099826 0.02931538 0.041179657 -0.114360236 0.12864754 0.030250655 0.1375892
0.06017764 0.044360656 0.038916476 -0.078705855 -0.036573812 -0.005938672 -0.07871326 0.109586254
0.043332793 0.054245 0.06604969 -0.096373774 -0.023380661 0.018911622 -0.07991286 -0.0671425
-4.629168e-05 -0.063228056 -0.12941682 -0.05733101 0.14871167 0.014215897 0.022074912 -0.02785971
-0.051805414 0.043060526 0.023548262 0.054493036 -0.035026547 0.101823434 0.080873705 -0.003658168
-0.06331656 -0.0969856 -0.0024874785 -0.013771003 -0.020929776 -0.13692743 0.05745489 -0.08813285
0.09879453 0.0017982525 0.061005242 -0.039743137 0.04943035 -0.09382451 0.09186667 0.003209475

lstm.bias_ih_l0 f4 [256]
00000000: 4b47 af3d b704 f3bb 4ccf 4d3e c74c 9e3b
00000010: 4d8f f9bc 0835 f83c 7b52 2e3d 1b17 e53d
00000020: 6620 2c3e 647a 7fbc 2b05 1b3e 9aca 523d
00000030: 297e c3bc 7aca 303e 2b70 3a3e 82cf ef3d
00000040: 988d 313e 7b58 593e 9a83 c83d a6c9 383d
00000050: 828e 653c 8327 1bbd 5f8e 453e e621 e03b
00000060: e299 fc3d 82ab 293e aea7 2b3e 5680 e13b
00000070: 6c3a b13d 20b1 bd3d c35f f43d 7895 013e
00000080: 2f80 0f3c 2acc 4a3e 41db 313e c5de e23d
00000090: abbc fc3d 63e1 47bc 8fd0 30bd ff28 bebc
000000a0: 71ac 63bc c2f9 f1bc a764 263e cd03 2cbc
000000b0: 5b54 c83d 9632 afbc 069e bf3d 470c cb3d
000000c0: 612b 333e b543 313d 43dd c13d 3b42 d63d
000000d0: 2a39 3b3e 6a9c 9e3d de1f ef3d 69c8 9e3c
000000e0: 6ae2 843d 377a 033b e83b 55bd c462 95bc
000000f0: 53e0 e63d b0cb 153e c48f 393e 6f73 7c3d
00000100: f384 ff3c eb3b 683d a745 8bbd d553 443d
00000110: cd29 a3bd f3e9 a4bd db23 acbd 276a 013c
00000120: 94e4 c23d d62a 14bd d79c 793d 2227 f03b
00000130: 196a 80bc a53a 673d 0ed2 093e 67dd 81bd
00000140: 2a03 b63d 107c 15be 7cb0 2fbd a1fd 37bd
00000150: 1df9 03be b4cf 0ebd 10f0 823c 6ce3 59bd
00000160: 0513 893d dd14 e43c d9a4 f93d d875 863d
00000170: 3ac0 be3d c8ec 333e d02a a7bd 8153 193d
00000180: 8807 003d c639 7b3d 300a 1e3d a49b b9bd
00000190: 166d 123e c3e3 82bd e8bb c83c c13b 683d
000001a0: 1aa5 d9bd 5b61 dbbd fd7d 063e 201c 243d
000001b0: b7d0 f5bc 5624 ebbd 18ca 39bc 80b3 59bc
000001c0: b5cd 873d a6aa fabd 1030 68bd 5ae3 02bd
000001d0: 167e 563d 1358 fabc d039 93bd 1e85 bd3d
000001e0: 94c9 153c 0091 1ebb 8223 d23d f3cb 9fbd
000001f0: 9e7c 8c3d 21ef 5cbd bcbc 10be 8f91 6ebd
00000200: 4e8b 063e 2754 98bc c379 08bd 0606 cc3d
00000210: 05c6 673d b5f1 2c3e b9a4 7ebc 9782 4dbd
00000220: 12a5 f23d 2b42 303d 29d7 16bd 0219 4cbd
00000230: b5ec c4bb a454 fe3d 1f98 07be 320a 133e
00000240: b823 c13c 8d59 7f3b 871f 093e 7422 193e
00000250: e370 163d 09f0 a63d d163 0cbe 16c5 9d3d
00000260: 2569 9a3d d3a6 bd3c f23a e1bb 6f1a 9dbd
00000270: 203e 74bd 13b9 fabd 4197 4b3b d38a 0f3d
00000280: bdd4 10bc 63a8 33be 97f7 1bbe 7e66 06bd
00000290: b74e 013e 63ed 0b3e 075c d4bd 6112 ec3d
000002a0: 513a cfbc 8927 8b3c bda2 8abd ef69 03be
000002b0: 3585 4f3d 741a 17bd 4101 9a3d 665d 30bd
000002c0: 8a49 8fbd 5cc5 e63d d48f 63bd 9279 2abd
000002d0: 9090 50bc d633 2dbe e2a5 81bd 2843 12be
000002e0: ba55 0d3d f14c be3d 08c4 45bd 4bf3 26be
000002f0: 5144 89bc fb3d ca3d 90bd 48bd 7f79 f33d
00000300: a013 14bd cf18 0f3e 4314 a33d a288 983c
00000310: 3c50 1c3e 7dff 38bd 4d0d 8c3d 9215 3c3e
00000320: 1f30 4a3e 27bd 113e 3254 4b3e bfdb 823d
00000330: 91d5 9f3d 581b 2a3e 7e8d 87bd c98c 94bd
00000340: c5ca 993c dca0 e0bc 8905 20bc 49c7 383d
00000350: cf0a ae3d 83bc 1a3e 994b c73b d241 ad3d
00000360: f93e 843d 803a 153c fdb7 233e 770a 2b3e
00000370: 2bec 0c3e 09ee 28bd f6c0 833d 9c9b 7a3d
00000380: f7ca 883d 40be 6a3d 6ea4 023e b2f0 d03d
00000390: 621d e0bb 554f 7e3d f462 da3c 8f92 b6bc
000003a0: 7fef 73bd 986d fd3d bc65 163d 6b64 473e
000003b0: c01a aa3d 6dca 4e3d f658 243d 97af 073e
000003c0: 3a36 b03d 8bff 333e 06f6 183e 4738 053e
000003d0: 128f 23bd 19d9 c63d 4535 513e fbc5 d2bc
000003e0: e0b5 253e 88d7 3cbb a798 aebb 7ee8 44bd
000003f0: afc5 063e e63c 903d 1906 f13c 9484 3f3c
0.0855852 -0.0074163335 0.20098609 0.00483093 -0.030463839 0.030298725 0.04255913 0.11186048
0.16809234 -0.015593145 0.1513869 0.051462747 -0.023863869 0.17264739 0.18206851 0.11709501
0.1733917 0.21225159 0.09790726 0.045114182 0.014011027 -0.03787948 0.19292592 0.0068399785
0.12334038 0.16569331 0.16763183 0.006881754 0.08653721 0.092622995 0.119323276 0.12654674
0.008758589 0.19804445 0.17368795 0.11077646 0.12340673 -0.0121997325 -0.043167647 -0.023212908
-0.013896094 -0.02953804 0.16249333 -0.010498953 0.097817145 -0.021386426 0.093563125 0.09914451
0.17497016 0.04327746 0.094660304 0.10461851 0.18283525 0.07744677 0.11676 0.019382672
0.064884976 0.002006186 -0.052059084 -0.018235572 0.11273255 0.14628482 0.18121248 0.061633524
0.031191325 0.056697767 -0.068003945 0.04793151 -0.07966957 -0.08052435 -0.084052764 0.007898844
0.09516254 -0.036173664 0.06094059 0.0073288837 -0.015675591 0.056452412 0.13459036 -0.06341057
0.08887322 -0.14598107 -0.042892918 -0.044919614 -0.12887998 -0.03486605 0.015983611 -0.053195402
0.06693081 0.02784198 0.12189645 0.06565446 0.09314008 0.17570794 -0.08162463 0.03743315
0.031257182 0.061334394 0.038583934 -0.09062889 0.14299425 -0.06391098 0.024503663 0.05669761
-0.10627194 -0.107119285 0.13133998 0.040065885 -0.03000675 -0.1148154 -0.011339687 -0.013287425
0.066310324 -0.1223958 -0.05668646 -0.0319551 0.05236634 -0.030559575 -0.07188761 0.09253906
0.009142298 -0.0024195313 0.10260679 -0.07802572 0.06859706 -0.05393899 -0.14134496 -0.058244284
0.13139078 -0.018594814 -0.033319246 0.099620864 0.05658533 0.16889079 -0.015542203 -0.05017337
0.11847891 0.043031853 -0.036826286 -0.049828537 -0.006009663 0.12418488 -0.13241623 0.14359358
0.023576602 0.0038963289 0.13390933 0.14954549 0.03672875 0.08151252 -0.13709952 0.07703607
0.07539586 0.023150837 -0.006873482 -0.076710574 -0.05962956 -0.12242331 0.0031065496 0.035044502
-0.008839783 -0.17544703 -0.15231167 -0.032812588 0.12627684 0.13664775 -0.10369115 0.11526943
-0.025296362 0.016986625 -0.06769321 -0.12833379 0.050664145 -0.036890462 0.075197704 -0.04305782
-0.06996448 0.11268112 -0.055557087 -0.041619845 -0.012729779 -0.16914305 -0.06330468 -0.1428343
0.034505583 0.09292019 -0.048282653 -0.16303746 -0.016756209 0.09875103 -0.049008906 0.11888408
-0.03615153 0.13974307 0.07962849 0.01861984 0.15264982 -0.045165528 0.068384744 0.18367603
0.19744919 0.14232312 0.19856337 0.063895695 0.078044064 0.16611993 -0.06618784 -0.07253415
0.018773446 -0.027420454 -0.009766945 0.045111928 0.08498155 0.15110974 0.00608201 0.0845982
0.064573236 0.009108186 0.15988155 0.16703211 0.13761966 -0.041242633 0.06433289 0.061183557
0.066793375 0.057310343 0.12758037 0.10202159 -0.00683944 0.062087376 0.026658513 -0.022286681
-0.059554573 0.12374419 0.036718115 0.194719 0.083058834 0.050486017 0.040123902 0.13250576
0.08604093 0.1757795 0.149376 0.1300975 -0.039931364 0.09709377 0.20430477 -0.02572917
0.16182661 -0.002881499 -0.005328256 -0.048073284 0.13161348 0.070428655 0.029421853 0.011689324

lstm.bias_hh_l0 f4 [256]
00000000: a0ba 2a3e 89de 123d 1f58 cb3d a03d 2f3d
00000010: 4645 7b3d ef83 183e d0e3 90bc d161 403e
00000020: 3b76 523e 8870 4a3e 83e1 1dbb a39b 133d
00000030: 5617 1fbb af2b 033e 4728 4abd f871 1e3e
00000040: 4e4b 183e 75e2 153e d4cb 873d 3d7f eabc
00000050: e36c 463e 97cd efbc 7e84 c9bb 5a32 f83b
00000060: 34c4 a63d 14cc 123e ada2 b63d 4625 01bd
00000070: 9950 ac3d 9021 933d fc53 d3bc 52e8 213d
00000080: 3693 0fbd cf4c 0a3d 09dd 263e d273 0d3d
00000090: e646 213e b691 213e 6239 a13d 343d 073e
000000a0: b378 50ba 2e42 bb3d 322a 253e 0937 393e
000000b0: 6b19 db3d 023c 553d 8cdd 33bb 1870 ed3d
000000c0: 15fc 03bd face d83d f88e 113e c936 2d3d
000000d0: b835 d53c 7a6c 213e bdff 5c3e c5e6 e03d
000000e0: 131a 063d bae6 353d da44 403d 0e8e abbc
000000f0: 4200 4c3e 209e 003e 8051 c23d a157 2d3d
00000100: dd70 643d 89fa dc3c a0e5 e4bd 618b 283d
00000110: 2546 29bd 01c2 8e3d b5a5 63bc cf4f 8b3d
00000120: fa82 3ebd d2c1 a3bc 94f1 05be f2b6 a03d
00000130: f90f 953a 4c72 153b 970f b93c 717c 84bd
00000140: f2b4 b3bd 1c5b 493d ec7b 5e3d 1bd9 8e3d
00000150: e6e4 a0bd bd43 80bd 0e11 f43d e092 1b3d
00000160: fbf9 3f3c 4624 c8bd 16d5 6ebd d6eb c7bd
00000170: b0f8 e1bd 8082 573d 5cca c83c 4a4f 45bc
00000180: cd73 713d 0a6f 853d e699 163e 44f2 913d
00000190: 9fc9 043e 4d7f 9e3c df76 653a 9c4c 9cbd
000001a0: 4221 10bc 3746 6b3c fe3f 093e 23e5 893b
000001b0: c4e3 083e cc9a cebd cb22 d7bd d7ee 85bd
000001c0: bd75 91bd e231 913d ef49 dcbd ff36 dabd
000001d0: 5c18 3ebb a088 d23d a02e b03d 0380 0c3e
000001e0: 73aa aebd 0070 943c 6ed6 ff3c f4e4 e5bc
000001f0: d61f c8bd 3635 a8bd 2855 c23d 4ffb 0cbe
00000200: 2964 cdbd d280 783c 7ffe d2bd 1d38 0e3e
00000210: 05c8 123c 1991 a83d f57e c03c ddd0 88bd
00000220: 5fa7 123e 0c99 cf3d 21aa 52bd 444f 02bd
00000230: d44b 44bb 42c1 153c d6f6 adbc bce8 043e
00000240: 7b06 2dbe e511 2bbc a1b4 1e3d c9ad 6e3d
00000250: ae47 eabc 3963 e13d 9329 383d fe49 803b
00000260: aee1 eabb 1b8e b7bd f9df c03d a7b7 9f3d
00000270: 7005 093e 6a44 2fbe 345a 093e 912e 7ebd
00000280: 5916 013d 30d3 1fbe 2aec 33be 0c9a 1fbd
00000290: 7656 f53d 154b 9b3d 9580 3a3d ca97 fdbb
000002a0: f3c4 203d b7c9 bd3d 2603 8bbd 85d9 563a
000002b0: d8bc fe3d ec89 efbd 64d1 1b3d 07d8 7abc
000002c0: 5827 b63c 9013 fabd 5ca6 7bbd 1de7 8a3d
000002d0: 5f25 333e 45b0 15be 55eb e1bc 4950 f4bd
000002e0: 9508 a33d 84bf fd3d 2d96 f53d 9cc2 33bc
000002f0: 1b19 003e 6011 083e c0cc b63c 157f 053e
00000300: a07b 703c 4d88 d33d 443e 363e 5b74 8cbc
00000310: 5e2f c13d b6e5 a93d 47e8 4ebd 3a21 b5bc
00000320: 03d9 c9bc d863 803d 751f 113e d19c ea3c
00000330: bdff 743d c721 173e 0685 1e3e 8951 153d
00000340: 841b 9b3d 9888 203d 189d d53d dc9a 343e
00000350: 5c75 093b 560f 233b b0c1 6b3b 625d 5e3e
00000360: 2a49 303e fe4b bb3c bad1 db3d 62c5 fbbc
00000370: 328d c33c 8eae 2c3d 0aec a53d ce2c 113e
00000380: 1630 51bd 455e ecbc 890c 103e b58a 183e
00000390: b138 8e3c 0993 1b3e f603 8a3d 350d c63c
000003a0: 82c5 bc3d 0740 143e 6e54 033e 3b5d 3c3e
000003b0: 1662 bdba 4ec0 8b3b 00b8 5b3c 0a83 c73d
000003c0: 1ff7 06bc 784c 383e 9504 163e eb8f 573e
000003d0: 47fe d33d 046c 2f3e 6415 233d afb0 143d
000003e0: c149 093d c242 163e 27ff 2c3e 4649 093e
000003f0: b938 c6b9 2419 c23d f2d2 853d 5cb9 0e3b
0.16672754 0.035856757 0.09928917 0.04278338 0.06134536 0.14894079 -0.017686754 0.18787314
0.20552914 0.1976949 -0.0024090714 0.0360371 -0.0024275384 0.12809633 -0.049354818 0.15473163
0.14872476 0.14637168 0.06630674 -0.028625125 0.19377474 -0.029272838 -0.0061498275 0.0075743617
0.081428915 0.14335662 0.08917747 -0.031529687 0.0841381 0.07184136 -0.025796883 0.0395282
-0.0350525 0.033764657 0.16295256 0.034534283 0.15749702 0.1577824 0.07872273 0.13206941
-0.0007952556 0.09143482 0.16129377 0.180874 0.106982075 0.05205918 -0.0027445285 0.11593646
-0.032222826 0.10586353 0.14214694 0.042288575 0.026026592 0.15764037 0.21581931 0.10981516
0.03273971 0.04440949 0.046940662 -0.02094176 0.19921973 0.1256032 0.09488201 0.042319898
0.055771697 0.026974933 -0.1117661 0.041148547 -0.04132666 0.06970597 -0.013894488 0.06802332
-0.046511628 -0.019989882 -0.13080436 0.07847394 0.0011372558 0.0022803722 0.022590442 -0.06469048
-0.08774747 0.049159154 0.0543174 0.06975003 -0.07856159 -0.0626292 0.119173154 0.037981868
0.011717315 -0.097725436 -0.058308683 -0.09761779 -0.110337615 0.05261469 0.024510555 -0.01204283
0.058948327 0.0651532 0.14707145 0.071262866 0.12967537 0.019347811 0.000875337 -0.076317996
-0.008796992 0.014360002 0.13403317 0.0042082234 0.13368136 -0.10088119 -0.10504683 -0.06539696
-0.07102535 0.070895925 -0.10756289 -0.10655021 -0.0029006219 0.102799654 0.08602643 0.13720708
-0.08528604 0.018119812 0.031230178 -0.028063275 -0.09771697 -0.08213274 0.094888985 -0.13767742
-0.1002887 0.015167432 -0.103024475 0.13888593 0.008958821 0.082308 0.023498038 -0.066804625
0.1432166 0.10136613 -0.05143178 -0.031813875 -0.0029952424 0.0091403145 -0.021235865 0.12979406
-0.16897003 -0.010441278 0.03874648 0.058271203 -0.028598633 0.11005253 0.044961523 0.0039150706
-0.0071680164 -0.08962651 0.094177194 0.07798701 0.1338098 -0.17115942 0.13413316 -0.062056128
0.031515453 -0.15607905 -0.17570558 -0.03896527 0.11979382 0.0758268 0.04553278 -0.007739042
0.039250325 0.0926699 -0.0678771 0.0008195865 0.12438363 -0.116962284 0.038041487 -0.015310294
0.022235557 -0.122107625 -0.06143795 0.067823626 0.17494725 -0.14618023 -0.027578035 -0.11929376
0.07960621 0.12390044 0.119915344 -0.010971691 0.12509577 0.13287878 0.02231443 0.13036759
0.014677912 0.10328732 0.1779719 -0.017145326 0.09432863 0.08295767 -0.050514486 -0.02211057
-0.024639612 0.06269044 0.14172156 0.028639229 0.059814204 0.14758979 0.15480432 0.03645471
0.075736076 0.039192766 0.10430354 0.17637199 0.0020974493 0.0024880967 0.00359736 0.2171531
0.1721541 0.022863384 0.107333615 -0.030733768 0.023871038 0.042158656 0.081016615 0.14177248
-0.05107125 -0.028853545 0.14067282 0.14896663 0.017361017 0.15192808 0.06739037 0.02417622
0.09217359 0.1447755 0.12825176 0.1839494 -0.0014448788 0.004264868 0.013410568 0.097417906
-0.008237629 0.1799792 0.14650185 0.21050994 0.10351234 0.17131048 0.03981532 0.03630131
0.033517603 0.14673904 0.16894208 0.13406858 -0.00037807765 0.094774514 0.06534375 0.0021777963

lstm.weight_ih_l1 f4 [256, 64]
00000000: 4231 f63d 6396 7fbc e5b1 d33b 81f5 a03d
00000010: ef71 073d 0afb 033e 70e1 b4bc 56f7 bb3d
00000020: 5524 593e 7aca 20bd 5c72 4a3d f6d2 1bbe
00000030: 2524 bcbd c45d 613e 73d9 bcbd 459d 273e
00000040: f88c 0ebd 05cd eabd 544e aebd 325b 493d
00000050: 3e43 193d fa7d 113e f6de dbbd 0915 d33c
00000060: d8ec 0cbb e4b9 823c ff24 92bc 871b 363b
00000070: 4237 253e 33d6 6dbe 3775 95bc 6f4b 4bbd
00000080: 3cd6 f7bd 3afe 90bc 30a0 e1bd 65c8 f63b
00000090: 2bd4 dc3c 7aa8 713d 11ed febc 5d1d d7bd
000000a0: 35cb f23d 1fcf 17bd f0da f1bc 7657 b9bd
000000b0: 4c98 9b3d 6b13 af3c 7a7f 2cbd 2e9c 933d
000000c0: 40f8 dbbc c22d 99bd 3bde 273b 8bbd 28be
000000d0: 1bc1 e13d f896 1fbe 8fff 1cbd c6c9 383c
000000e0: cfe1 b93d 569e bd3d 7e88 85bd 69a7 d7bd
000000f0: cb99 d9bd 0870 133e 21c0 6a3d 130e cb3d
00000100: 5d75 57bc 7e53 803d 1959 ffba 45d1 4b3d
00000110: f9ff 983d d561 093e c0b9 8a3b 9771 bcbc
00000120: fd59 c33c 7063 303e bd83 2ebd dc96 0dbe
00000130: dbe3 9bba f2fc 87bd 6c98 ad3d 20ab da3d
00000140: 16a9 dabd e68d 81bd c975 133d 9221 b7bd
00000150: d686 403d 0645 4b3e b7a0 2c3d f0c3 bbbc
00000160: cdbe 34be 1b14 303e 0562 8ebd ff31 beba
00000170: 6b5b 52bd e440 1abe 856b 763d a158 aabd
00000180: 42c3 a3bd abbd 09bd d6af 8cbb f537 ed3b
00000190: c94a 4cbc acf2 45b9 4523 5abc cdef bd3c
000001a0: 86b0 08be 783e 363d 0ecb 3ebe dcce ed3b
000001b0: 3187 fcbd 0c51 003e fdc6 073d a30c e23c
000001c0: e472 8ebd c2f0 623b 38b0 24be 7313 c4bd
000001d0: 30e8 fb3d d9c7 8cbd ee94 55be df2c 38bd
000001e0: 1207 8fbc 34a8 0d3e cc8a afbd 0dfc 1fbd
000001f0: 601d 1ebe 9205 863d 3da3 723d 6c19 2ebd
00000200: cf71 553d b385 573d a531 dabc fd38 3b3e
00000210: 764e aebc 08da 21bd 2d63 403e fb7c 20be
00000220: 6e21 d93d 590a a4bd bd07 b2bc 325b 9abd
00000230: 3a34 b73c 127d 3b3e fdb4 20be 556b 083e
00000240: 11ed 263d 12b9 013d 7863 073d c647 a33d
00000250: d7aa cc3d 3dcf fc3d 3c26 19bd 7769 36be
00000260: 5332 3a3d 1571 52be 31ca a63b ac73 dd3c
00000270: 9092 ce3c 85f2 96bc 3841 073e 63a4 4c3e
00000280: 8d53 b43d a74d 03be 3296 393d f32c 52be
00000290: 3b16 233d 4d85 23bd 2ae3 1d3d 6121 c43d
000002a0: a6ce 233d ed37 c93d e9bb 203d 78c3 08be
000002b0: d5fe 563e 6f5c 28bc e709 07bd 890a a73d
000002c0: 7d9d c23c 875e dd3d 8e1f f7bc 89c5 af3d
000002d0: 36bc 073e a07f 3c3d f392 bbbd 6e85 0dbc
000002e0: d25e fb3c 1f5a ed3d 6f9b 1e3e aa94 3abe
000002f0: 2537 be3d 1bca 38ba 6355 47be ba5f dd3d
00000300: dadb eebd fb23 7a3d ac4d 52be a414 9e3d
00000310: a975 80bd 8f91 3f3e fbf4 533d 54e4 0dbd
00000320: 1426 543e 38fd d3bd 5d6e 00be 0c40 36be
00000330: 6577 0a3e c3b8 83bc 7469 42bd 96d6 143e
00000340: f3b2 0fbe 2b7c a33d fa11 413e 28b8 013e
00000350: 24c6 94b8 5035 82bc 5a83 82bd 03a5 c4bd
00000360: a778 083e 0a40 dfbc 004d 173e f434 243d
00000370: 0b71 313b 176b 81bb 4d76 3c3d 4cc5 943d
00000380: 1540 05bc 18ee 933c b963 dbbd fcee 2dbd
00000390: b6be 433e ad16 8fbd 6f3b b13c 8a38 243e
000003a0: e71e f63b a487 b2bd 0aa5 89bd 436b 3cbe
000003b0: 7b17 5b3e d485 3ebd ba59 193d 3339 933a
000003c0: dfd7 3dbc f10e 2cbd bdc2 35bd 6f23 1c3e
000003d0: 383b 113e 9f72 83bd 05f9 28bc b4f0 873b
000003e0: 3b44 0abd be09 82bd e878 adbc 54c5 67bd
000003f0: 0352 c43c 6576 193e 4ce0 883c c06f 203e
0.12021114 -0.01559982 0.0064604157 0.07859326 0.03306764 0.12888733 -0.022080153 0.09178035
0.21205266 -0.039255597 0.049425468 -0.15217194 -0.091865815 0.22008425 -0.09221163 0.16368587
-0.034802407 -0.114648856 -0.08511034 0.049159236 0.037417643 0.14208212 -0.10735886 0.025766866
-0.0021503475 0.01595778 -0.017839907 0.0027787404 0.1613436 -0.23226242 -0.018244369 -0.049632486
-0.12101409 -0.01769935 -0.110168815 0.007531213 0.026956638 0.058998562 -0.031118901 -0.105036475
0.11855165 -0.03706276 -0.029523343 -0.09049885 0.07597408 0.021371564 -0.04211376 0.07207523
-0.026851773 -0.07479431 0.0025614637 -0.16478555 0.1102316 -0.15584934 -0.038329657 0.011278575
0.09076273 0.09258716 -0.065201744 -0.10529978 -0.10625037 0.14398205 0.057312135 0.09914794
-0.01315054 0.06265925 -0.0019481509 0.04976012 0.07470698 0.13416226 0.004233569 -0.023003383
0.02384662 0.17225432 -0.042606104 -0.1382708 -0.0011893468 -0.06640042 0.08476338 0.10677171
-0.10676782 -0.06325893 0.036001 -0.0894195 0.04700359 0.19850549 0.042145457 -0.022920579
-0.1765091 0.1719517 -0.069522895 -0.001451075 -0.051356714 -0.15063816 0.060161132 -0.08317686
-0.07996227 -0.033628147 -0.004293422 0.0072393366 -0.012469002 -0.00018877786 -0.013314073 0.023185635
-0.13348588 0.04449317 -0.18632147 0.0072573256 -0.12330473 0.12530917 0.033148754 0.027593916
-0.069555074 0.0034628366 -0.16082847 -0.09574022 0.123001456 -0.068740554 -0.20857593 -0.044964667
-0.017459426 0.13833696 -0.08571395 -0.039058734 -0.15440893 0.06544031 0.059237707 -0.042504713
0.05211049 0.05261774 -0.026635 0.18283458 -0.021277647 -0.03951457 0.18787833 -0.15672676
0.10602079 -0.08009786 -0.021732206 -0.075369254 0.02236377 0.1830943 -0.15694042 0.13322194
0.040753428 0.031670637 0.033053845 0.07972674 0.099935226 0.12344215 -0.03738998 -0.17813669
0.04545815 -0.2055095 0.005090021 0.027032696 0.02521637 -0.01842619 0.13208473 0.19984584
0.088049985 -0.12822591 0.045309253 -0.2052496 0.039816123 -0.039922047 0.03854672 0.09576679
0.039991997 0.0982512 0.039241705 -0.13355815 0.20995648 -0.010275944 -0.032968428 0.08156306
0.023756737 0.10809045 -0.030166414 0.08582599 0.1325539 0.04602015 -0.09158888 -0.008637769
0.030684862 0.11589455 0.1548898 -0.18220773 0.09287862 -0.0007049159 -0.19466166 0.10809274
-0.11663027 0.06106947 -0.20537442 0.07718781 -0.06272442 0.1870787 0.051747303 -0.03464158
0.2071765 -0.10351032 -0.125421 -0.1779787 0.13522108 -0.016079312 -0.04746385 0.14534983
-0.14033107 0.079826675 0.18854514 0.12667906 -7.0940965e-05 -0.015894562 -0.063727096 -0.09601786
0.13327275 -0.027252216 0.14775467 0.040089563 0.0027075436 -0.0039495337 0.046011258 0.07264194
-0.008132954 0.018057868 -0.1071238 -0.04246424 0.19115719 -0.06986747 0.021634785 0.16037193
0.007511008 -0.08717278 -0.06720932 -0.18400292 0.21395676 -0.046514347 0.037439086 0.0011232257
-0.011587112 -0.042006437 -0.04437517 0.15247892 0.14182746 -0.064183466 -0.010313277 0.004148567
-0.033756476 -0.063495144 -0.021175817 -0.05658467 0.023964887 0.1498657 0.016708516 0.15667629

lstm.weight_hh_l1 f4 [256, 64]
00000000: 877e 4f3d aa6a bd3d 8624 c4bd 87f3 743d
00000010: 6dbf 94bc 96f5 91bb 1652 11be 18ab 923d
00000020: a4fc 373c a929 0cbe 9583 113e c93a 38bd
00000030: 0b27 a7bc 278c c83d a8dc 853c 86b0 11be
00000040: 4cb0 013e e90a 8a3b 1559 cd3b be1c 06be
00000050: d0a0 c43d 4b64 42be bbd4 e63d 71dc 91bc
00000060: ca08 1cbe d294 0ebe 1834 b7bd 432a da3c
00000070: 3630 c73d 3952 16bc 3210 d03d 29c2 2bbc
00000080: fac4 c6bc b490 48bc 0c16 0e3e de30 693d
00000090: f817 11bd 6eec 083d 4f85 c03d 4287 1d3e
000000a0: 992c 3a3e 1bd0 1cbe 0b86 e2bd fdee 4f3d
000000b0: a041 0e3c 6261 8c3d aa71 8c3c 42e6 153e
000000c0: d173 463e 22ab b8bd c75c 513d 7aa4 2fbe
000000d0: eae7 a93d 55ff 9abc 6b71 353e a3f2 b73d
000000e0: b9f1 10be a6a2 8abd 04c7 303e 7cb0 c03d
000000f0: 2efb 233d d6e0 01be f894 9bbd c0e5 7c3d
00000100: 0636 4bbc 5edd 023e a65c 17be 4805 efbc
00000110: 4342 67bd 9c48 a4bc 0ff4 06be 869b 253e
00000120: d3e0 d03d 9841 0bbe c90e 213e b6f2 473d
00000130: 28cb 3b3d ad4e 003d 1b1a 00be 8776 18bd
00000140: 26c3 133c 364c 6e3b a8ec 913c 171d 14be
00000150: 2553 f23c 1015 d9bd 7d44 d0bc 811b 8cbd
00000160: 9dad aebd 06c2 9a3d b9a3 843d 1de1 a23d
00000170: f46e 4f3d a4d7 e33c 2481 ff3d 90f7 fbbd
00000180: 4424 15bd e786 2d3d 8d2d c7bd ef16 e43c
00000190: 8409 b7bd 6b3e 2f3d a937 8bbd 8417 1a3e
000001a0: b790 f13d 630a a63d 02fd 29bd 0437 793d
000001b0: a5db a9bb e7dd 7a3d a140 613d 0ba0 95bc
000001c0: 5195 d83d db79 9d3d 6a51 d1bc ddce c6bd
000001d0: 97d8 063e e708 573d af8f bb3d 89dd 133e
000001e0: 3df3 3d3d 8bd3 20be 6827 b63d 5939 bebc
000001f0: 19ca f7bd d226 083d 7fd5 f3bd 0ced 95bd
00000200: b74d 83bb 57c2 073e a249 883d 6a9f 76bd
00000210: 3531 b8bd 2a57 81bd ae37 0bbd 0c40 14bc
00000220: c844 99bc 70fb a6bd 2280 b43d c35c 31be
00000230: 3c11 363d f7a6 073e 6b68 3ebe 0e17 9e3d
00000240: 461c ba3d 47c6 acbd cc0e 01be 1741 2bbd
00000250: c499 b83d ad3b 45bd 0e4e d2bd 5a8a f8bd
00000260: 7b48 93bc 4f80 b4bb 1705 9d3c c917 bbbd
00000270: 8e26 ea3d 8d40 17be 419d 593e 1e6b 76bc
00000280: 4a8d 88bd dfb0 de3d 6d6c 3d3d 6bec 273e
00000290: ec50 323d c768 c23d 0204 d23d f418 253e
000002a0: d49d 003e f684 0cbe 811f 0dbe a3fa 3ebd
000002b0: ad30 0f3d d18e b63d bdb3 5dbb fa7b 053d
000002c0: 440e 8e3d d222 d33d 9c1e 65bd ee45 2dbd
000002d0: f8ce d93d ee8a 00ba b77e 123e 0899 b8bc
000002e0: aacc 403b 6d8b edbc 5848 313d 123e 33bd
000002f0: 2f52 2bbe 2342 fd3c d4fd c93d 8ef6 313e
00000300: f1ba 203b f26d 513e 8fd2 843d 9059 87bc
00000310: 3035 e3bd d548 54bd 53d3 cdbd 57e4 153e
00000320: 9de8 f83d 23fe 693b 490e e73b 1a6b 703b
00000330: 8a3b 133d 673a 36bd 6958 a2bd 8f40 7dbd
00000340: be27 ccbc 2e1e 1b3e 0592 19be b1c5 443d
00000350: 9d8e 823d a3de 9c3b 16f6 f4bd 33b0 d6bd
00000360: 99dc 6b3d 1b4d c53c 7780 03bd 4288 a8bd
00000370: 67cc f83d e6d6 0bbe c78c 3f3e f128 693c
00000380: 4204 523c 48ec 6cbd 8cf0 f53d 107d 573e
00000390: 184e fcbd d5c7 e43b 6d3b 053e d4c8 933d
000003a0: 5aec 09ba 98b3 21be 5b69 0dbe 940a 663d
000003b0: b52b 16be fb5f 863d 3852 de3d 0484 abbb
000003c0: 0a7d a2bc 96b3 06bd 0fa5 c43c eb40 22bd
000003d0: 770e c8bd 0090 573d fd4d 34bd fa88 01be
000003e0: e2c8 9bbd 6982 38be 20ac 153d 50c5 4e3d
000003f0: 9c37 353d 4614 94bd 0593 1ebd 5707 cf3c
0.050657775 0.0924886 -0.09577279 0.05980256 -0.018157685 -0.004454325 -0.1419147 0.0716154
0.011229668 -0.13687767 0.14210351 -0.044977937 -0.02040436 0.09792357 0.016340569 -0.14227495
0.12664908 0.0042127264 0.006266723 -0.13096902 0.09600985 -0.18983571 0.11271044 -0.01780531
-0.15237728 -0.13923958 -0.08945483 0.02663148 0.097259924 -0.009174877 0.10159339 -0.010483303
-0.024263848 -0.012241531 0.13875598 0.05693137 -0.03542325 0.033428602 0.094004266 0.15383628
0.18181075 -0.15313761 -0.11060723 0.050765026 0.008682638 0.06854512 0.017144043 0.14638618
0.19380118 -0.09017016 0.05111387 -0.17152587 0.08296187 -0.01892058 0.17719047 0.08981826
-0.1415471 -0.06769304 0.17263418 0.09408662 0.040034465 -0.12683424 -0.07596773 0.061742544
-0.012403017 0.12779757 -0.14781436 -0.029177323 -0.056459676 -0.020054154 -0.13179038 0.16172609
0.10199132 -0.13599241 0.15728296 0.04881545 0.04584804 0.03132503 -0.12509958 -0.03722241
0.009018695 0.0036361343 0.017813042 -0.14464222 0.029580662 -0.105997205 -0.025423283 -0.068411835
-0.08529208 0.07556538 0.0647654 0.07953093 0.050642923 0.027812786 0.124758035 -0.12303078
-0.03641154 0.04236498 -0.09725485 0.027842967 -0.08937362 0.042784136 -0.06797726 0.15048033
0.1179518 0.0810745 -0.041501053 0.060843483 -0.0051836544 0.06124678 0.054993276 -0.018264791
0.10575355 0.07689258 -0.025551517 -0.09707425 0.1316856 0.052498724 0.09158265 0.14439978
0.04637455 -0.15705697 0.08894235 -0.023220705 -0.12099094 0.033240147 -0.119059555 -0.07320604
-0.004007067 0.13257729 0.06654669 -0.060210623 -0.089937605 -0.06315453 -0.033988647 -0.009048473
-0.018709555 -0.08153427 0.08813502 -0.17320542 0.04445003 0.13247286 -0.1859452 0.07719241
0.09087424 -0.08436256 -0.12603301 -0.04181012 0.090137035 -0.048152614 -0.10268794 -0.121357635
-0.017978897 -0.0055084596 0.019167466 -0.09135396 0.11433135 -0.14770718 0.21251394 -0.015040187
-0.06667574 0.10873579 0.04624598 0.1639878 0.043534204 0.09492641 0.10254671 0.161228
0.12560207 -0.13722596 -0.13781549 -0.046625745 0.03495853 0.08913959 -0.0033829056 0.032588936
0.06936315 0.10309376 -0.055937394 -0.04230302 0.10635179 -0.00049035146 0.1430615 -0.022533908
0.0029418864 -0.028997147 0.043281883 -0.043760367 -0.1673057 0.030915326 0.09862867 0.1737921
0.0024525488 0.20452097 0.06485473 -0.016522199 -0.11094129 -0.05182727 -0.100500725 0.14637886
0.121537425 0.0035704456 0.0070512635 0.0036684931 0.035945453 -0.04448929 -0.07927019 -0.061829146
-0.024921294 0.15148231 -0.14997108 0.048040096 0.063748576 0.0047872826 -0.11961 -0.10482826
0.057583425 0.024084618 -0.032104935 -0.08229114 0.12148362 -0.13656196 0.18706046 0.014230953
0.012818398 -0.057842523 0.12008771 0.21043801 -0.12319583 0.0069818296 0.1301095 0.07216039
-0.00052613544 -0.15791166 -0.13809721 0.05616243 -0.1466511 0.065612756 0.10855526 -0.0052342433
-0.019835014 -0.03288611 0.024004487 -0.03961269 -0.09768384 0.052627563 -0.044019688 -0.12649909
-0.07606675 -0.18018498 0.036541104 0.05048114 0.044242486 -0.07230429 -0.038714428 0.025272055

lstm.bias_ih_l1 f4 [256]
00000000: e350 2d3e 171d 483b 481e 3a3e e3ba 213d
00000010: a0b3 763d 5c06 193e 7ac4 183d 88c9 233e
00000020: e664 c13d a605 f63d f03e 493e 660c 0a3c
00000030: 1a30 98bd be99 06bc e1fb 513e 4df5 263e
00000040: a607 93bd c69d 9d3c 388c d33d 60bd 053e
00000050: 3688 ab3d ba59 12bd da4e 8dbc 2808 b03d
00000060: 00e8 dfbb 962d 0dbd e911 1f3e 8ec9 fc3d
00000070: 9663 3abb 1b6f be3b ef06 623d 45bb 153e
00000080: bd5b f53d 546b 233e 4eb9 a33c 6de8 963c
00000090: 4cc6 123e c3c3 303e 3268 793d 51cf 73bd
000000a0: 07e7 c13d df35 ab3d 3c57 78bc 729d c53c
000000b0: 2e34 d93a 2d4d 613e a636 ad3a 09ea 10bc
000000c0: 2fef dc3d df45 4c3d 1018 373e 955c 4d3d
000000d0: 6984 65bc 7b2e 143d 8d06 463e d4c6 3abc
000000e0: bf9c d33d cc2a 073d af70 1abd 7ff3 ab3c
000000f0: 790b 073e c73e fb3d 44a5 053e 25f2 26bd
00000100: 2762 113c 760e 34bd 2df3 c33d fe6f aebd
00000110: 43fe 05be 9af2 14bd b47c d73d b27d 7d3d
00000120: 8de3 92bd 1ad0 893b 18d7 debd 3ba3 9cbd
00000130: 979d 03bd 4030 213d 9be8 da3c 6f57 583d
00000140: da55 47ba 99c2 fdbd 2b95 c5bc 3363 50bd
00000150: f045 d63d a2c7 f53d f245 69bd 630e e33c
00000160: dbac 093d 8a31 6e3c 46e1 91bd f760 6dbd
00000170: 70ee d63c 8d81 613d f4af 25bd d581 b93d
00000180: 560c 3ebd df36 8ebd 5e49 9dbd 906d b53d
00000190: 9ac2 a03d 070c 143b 6428 9b3d 130c e0bd
000001a0: c8dc 31bd 1c64 d5bd 39a9 793d a919 753d
000001b0: bab5 7bbd 404b e1bd 299e ee3c 11cd de3d
000001c0: c8cf 82bd 280c ffbd 8c70 cb3d 0bb4 cebd
000001d0: 485a 33bb db71 8abd 9b39 65bd 0848 79bd
000001e0: b9ab d6bd 00c5 53bc b894 6abd aa44 f6bd
000001f0: d61c abbd cafe e8bd a774 463b 65ec 16bd
00000200: 36af e33c 614d 943d c729 0cbe b50c bfbc
00000210: 1272 2abd 7884 55bd 2991 09bd 232b 983c
00000220: 0c05 813d b877 edbd 21ba c33d bf5b 10be
00000230: 935b 453d 3a7e ca3d 3026 93bd 0922 f9bd
00000240: e8f6 783c bdfa 593d 0d3a 0bbe 5b66 bcbd
00000250: 125d d2bb dbde 0abe 1f18 d83d 614f dcbd
00000260: 176d b8bd 3359 ecbd de5f a7bd 0d8e ddbd
00000270: a668 f53d 42b5 93bd f910 e93d b121 afbd
00000280: e7bc 0c3d 6cde 1c3e 83d0 41ba 029f 093c
00000290: 292f 13be f27d fabb fabe 65bd 231e 0fbc
000002a0: ce93 003e 62fc 5c3d 6f12 70bd e1f7 b93b
000002b0: f305 04be 323b e63d 17ce 873b 8c96 da3d
000002c0: c6d7 093d a96e 02bd f612 1bbc 59f7 b1bd
000002d0: 70e7 fe3c b95e 78bd 933e 613d 00b0 8b3d
000002e0: 7930 89bc fd11 77bd 206b 3c3d 6cee 4a3d
000002f0: 77d6 9d3b 3ec0 3fbd 2f10 71bd 5e28 94bc
00000300: 3970 1b3b 16c3 133e 04dd 7ebc f4d6 9a3d
00000310: 3a6b da3d 468d 733d 0569 943c dd85 be3d
00000320: 77ec 5cbc a005 17bd 0499 2b3e 0949 ed3d
00000330: aa6c d93d 754c 9bbc 2785 243e 8b78 c43c
00000340: ff1d d43d 2033 ab3d 5288 973c 8e49 0f3d
00000350: dbe1 893d 4497 873d 3d8a a73d 75dd bd3d
00000360: 2c93 363e 84bd a93d 78cc 263e 6447 04bc
00000370: a202 063e 0ea5 5b3c b3a0 4bbc 2830 4d3d
00000380: b612 e93d 7ed0 bbbc 4acc 053e d797 df3d
00000390: 6973 9c3d b38a 2dbb 3450 143e b169 a4bb
000003a0: 15d5 083e b5af 203d 6cbd 46bc d848 6d3d
000003b0: 12d4 853d 0999 e43d 610f 063e e640 063d
000003c0: 1f27 523d cc17 e83d 8dbd 1d3e 74fb e83c
000003d0: 0985 5a3d 4cf1 233e f9fa 0fbd e8b5 f33d
000003e0: 4281 d43d ae0c e93d 374f 003e 1243 dcbb
000003f0: 137a 543c 44f1 aabd 18bc 5fbd 41b7 b83d
0.16925387 0.0030534917 0.18175614 0.03948487 0.060229897 0.14943832 0.03729675 0.15994847
0.09443073 0.12012796 0.19652915 0.008425808 -0.0743105 -0.008215366 0.2050624 0.16304512
-0.07179193 0.019240271 0.10329479 0.13060522 0.083755895 -0.0357301 -0.017249513 0.08595306
-0.0068330765 -0.034467302 0.15534176 0.12343131 -0.0028440706 0.0058115846 0.055182394 0.14622219
0.11980388 0.15958911 0.019985821 0.018421376 0.14333457 0.17262177 0.060890384 -0.059523884
0.09467893 0.083598845 -0.015157517 0.024122927 0.0016571337 0.22002096 0.0013215139 -0.008844861
0.10787808 0.04987132 0.17880273 0.05013712 -0.01400862 0.03617714 0.19338436 -0.011399943
0.10332631 0.0329998 -0.03770512 0.020990131 0.1318797 0.12267833 0.13051325 -0.04075827
0.008873499 -0.043959104 0.095678665 -0.085174546 -0.13085274 -0.036364175 0.10521832 0.06188745
-0.07172308 0.004205716 -0.108808696 -0.07648321 -0.03213271 0.039352655 0.026722243 0.05281776
-0.00076040404 -0.12390632 -0.02411898 -0.050875854 0.10462558 0.120009676 -0.05695147 0.027716821
0.033612113 0.014538178 -0.071230456 -0.0579538 0.026236743 0.05505519 -0.040451005 0.090579666
-0.046398483 -0.069440596 -0.07680009 0.08858788 0.07849617 0.0022590177 0.07576063 -0.10939803
-0.043423444 -0.10419485 0.0609524 0.059838925 -0.061452605 -0.11000681 0.029128151 0.10878957
-0.063872874 -0.124534905 0.09933576 -0.10092934 -0.0027367044 -0.067599975 -0.05596314 -0.06085971
-0.10481972 -0.012925386 -0.057270736 -0.120248154 -0.083551094 -0.11376722 0.0030281933 -0.036846537
0.027793508 0.07241321 -0.13687812 -0.023321489 -0.041612692 -0.052128285 -0.0335857 0.018575257
0.06299791 -0.115951 0.09556986 -0.14097498 0.048183035 0.09887357 -0.07185018 -0.12164695
0.015195586 0.05321764 -0.13596363 -0.0919921 -0.0064197863 -0.13561575 0.10551476 -0.10757328
-0.09005182 -0.11540451 -0.08172582 -0.1081811 0.11982851 -0.072123066 0.113801904 -0.08551348
0.03435984 0.15319222 -0.00073934364 0.008399727 -0.14373459 -0.0076444084 -0.056090333 -0.0087352125
0.12556383 0.05395163 -0.05861133 0.0056753014 -0.12892894 0.11241759 0.004144441 0.10673246
0.033653043 -0.031843815 -0.00946497 -0.08689756 0.031116217 -0.06063721 0.054991316 0.06820679
-0.016746746 -0.06031989 0.0460006 0.049543783 0.004816826 -0.046814196 -0.058853325 -0.018085655
0.0023718013 0.14429888 -0.015555624 0.0756053 0.10664983 0.0594609 0.018116483 0.09302876
-0.013484112 -0.0368706 0.1675759 0.11586196 0.10616429 -0.018957356 0.16066419 0.02398326
0.10357284 0.08359361 0.01849762 0.034982257 0.06732532 0.066206485 0.08180664 0.09270755
0.17829579 0.082881 0.16288936 -0.0080736615 0.13086942 0.013406051 -0.01242845 0.050094754
0.11380522 -0.022926565 0.13066211 0.10917633 0.076392 -0.0026480376 0.1448372 -0.005017482
0.13362534 0.039230067 -0.012130123 0.057930797 0.0653459 0.11162002 0.13091804 0.032776736
0.05130684 0.11332664 0.15404339 0.028440215 0.05334953 0.16010016 -0.035151456 0.1189993
0.103762165 0.113793716 0.12530218 -0.0067218626 0.012968558 -0.08346799 -0.05462274 0.09019328

lstm.bias_hh_l1 f4 [256]
00000000: 488b f83c cc59 e23d 814d 233e f464 f63d
00000010: 2a31 04bd 6f91 843d cb2c 2ebd ea02 c63d
00000020: 090d 103e 6dd9 213e 6778 d13d 84b3 0dbd
00000030: a02f 903d 7812 863d 9ddf 0d3e 1df1 8fbd
00000040: c26d 73bd f388 41bc 6d3a b43d d570 36bd
00000050: d6f5 bc3d 80a2 c8bc 20cc 42bc 8ab9 893d
00000060: 5e92 703b 096f d73c c8ab babc d0da c9bb
00000070: 7321 303d d52a cbbc 7fcb 5f3d 7b4e 32bd
00000080: f8ef 393e c2a0 263e 4680 463d a795 933b
00000090: 68b5 4abc 9b5f 5d3d 7052 a2bd 1fb5 263e
000000a0: a5a1 a63d 47c0 c7bb 0501 583d e4d4 a73d
000000b0: 94a0 ea3d 79b8 173e dd76 32bd 9e58 143e
000000c0: 642d 093e 6ff7 013e 2d88 f33c 98f8 e438
000000d0: aacc d03d 5182 ab3d 894a ac3d 0d35 353e
000000e0: 8c23 323e 9a32 983d 6585 993d 3e9a 2ebd
000000f0: 59c7 dc3d 0dbf 90bd 1977 323e 59a7 c13d
00000100: 7623 c23d 56b5 86bd e14a 07bd 54ff 70bd
00000110: b4c0 a33c 83b7 d9bd 02f8 f83d 3f9a d33d
00000120: 274a f53d 47f9 46bd 4259 cd3d 6915 e6bd
00000130: c8b0 723d 60e0 63bd ca85 e93b 2736 dcbd
00000140: cf07 81bc cf61 fbbd 45fc e23d 9003 98bb
00000150: 1b7b 58bd e77e 233d d280 43bd 5e94 003e
00000160: 45fb a0bd 98b1 de3d 4201 d03c afd3 873d
00000170: 3e43 a83c 2a4c e3bc 6861 2fbd 4998 c1bc
00000180: de64 f23d acc4 c4bc a6cf debd 1363 673d
00000190: c04e a63d 6806 973d 3eca d13d a778 883d
000001a0: f892 683d 2c31 96bd 749b 4f3c 875e f2bd
000001b0: a313 4b3d 7874 ccbd 4687 d2bd 8745 a7bd
000001c0: 6a79 ae3c 9a88 8b3d 10d0 7d3d 3133 133e
000001d0: 99b3 033d f816 cabd 4dbd ee3d 70bf f8bd
000001e0: 1826 853d b06c 1c3d 103f 7e3a d4c8 8d3d
000001f0: 8866 033e 9ad9 09bd 47d5 30bd e7eb d8bd
00000200: da29 9c3c 3074 5d3d bd3a 563d 6294 1f3e
00000210: e2f5 363d 795a 903c 89b7 09be 0978 ed3d
00000220: 7bcd 293d 1ab1 943d c477 5f3d ed1b 82bd
00000230: e983 80bd cf4b cc3c c75d 423d 3229 18bd
00000240: 4adf df3d dda6 663d 48ea 9cbd 99ec 933d
00000250: f811 573d 1616 ae3c 2fa5 b8bd 1165 e5bd
00000260: 1513 d6bc 48d2 27bd 06b4 a03b bfd7 78bd
00000270: 7a78 5ebd d0ea cdbc dffd 0b3e 3499 3bbd
00000280: 50f9 123e 0ee7 183d 7154 703d 7cca 013e
00000290: 5be8 0dbe 3f0c c73c b20e b03d 5af0 543d
000002a0: a94d ca3c 09c2 80bd 46e5 10be 15f9 853c
000002b0: f497 2abc e669 a8bd ee03 083e 7278 d83d
000002c0: 323c f33d ae47 343b 9444 313d a986 02bc
000002d0: 25cb 12bd ab99 4e3d 3b11 a83d 2a39 7dbd
000002e0: 3bff 6ebd b900 e63b de07 bd3d 8884 2f3d
000002f0: f127 86bd 3e38 69bd 1f3d 4fbd 5f29 e83d
00000300: b8c1 443e 9361 12bd 2e9a 383d 3960 bf3d
00000310: 4909 90ba 0262 2c3e 920d 7cbd a5b5 373d
00000320: 9b66 c4bd a418 123e 86bd 1b3e 86b4 1c3d
00000330: 5171 4abd 9e78 25bd 972d b93d 8427 263e
00000340: 48a3 d13d 7a5c 063e 1c8a f03c 3f4d 6f3d
00000350: 4ab4 ab3d 6cb2 bc3d c30a 8d3d d521 1d3d
00000360: 440e c73d 74f7 743c 60f5 fa3d 75b9 81bd
00000370: 071c 243e 7ff9 883d bf28 f23d b336 8cbd
00000380: dc04 f53b c7d9 223d 3c9f 533d 04d3 70bc
00000390: 5d8f c3bd 04ea fb3c 21fb a2bc a1bd 463d
000003a0: 90d0 28bc cb2b e83c efe9 a0bb 7dbb 773d
000003b0: da6b 1e3e ea6b 273d 2ca3 ad3c b0b4 88bd
000003c0: e7b2 1a3e 3fa7 293e 3200 833d 4280 1f3e
000003d0: a554 3ebc 9118 eebc 59bc 5e3d b247 503e
000003e0: de7b 343e df3c 1b3e bb84 b53d 7e21 d13c
000003f0: 0601 203e 08f5 913d 2d1b 983c dc62 9d3d
0.030339852 0.11052284 0.15947534 0.12030974 -0.03227345 0.06473052 -0.042523187 0.096685246
0.14067473 0.15805598 0.10228043 -0.034595028 0.07040334 0.065464914 0.13854833 -0.070284106
-0.059430845 -0.011812436 0.08800206 -0.0445412 0.09226577 -0.024491549 -0.0118894875 0.06724842
0.0036708335 0.026298063 -0.02278699 -0.0061601177 0.04300065 -0.024800697 0.05463743 -0.043531876
0.18157947 0.16272262 0.048462175 0.004503924 -0.012372352 0.054046255 -0.0792588 0.1628003
0.081363 -0.0060959193 0.052735347 0.081949025 0.11456409 0.14816464 -0.043570388 0.1448693
0.13396221 0.12692045 0.02972802 0.000109181914 0.101952866 0.08374465 0.08412654 0.17696019
0.17396373 0.074315265 0.07496146 -0.042627566 0.1078021 -0.0706769 0.17428245 0.09455747
0.0947942 -0.06577556 -0.033030394 -0.05883725 0.019989349 -0.10630705 0.12156679 0.103321545
0.11977034 -0.048577573 0.1002679 -0.112345524 0.059250623 -0.055633903 0.0071265446 -0.10752516
-0.015750794 -0.12274515 0.11083273 -0.0046390966 -0.052851778 0.039915945 -0.047730274 0.12556598
-0.07860426 0.10873717 0.025391225 0.06632172 0.020539876 -0.027746279 -0.042817503 -0.023632186
0.11835645 -0.024019562 -0.108794495 0.05649097 0.08120489 0.07374269 0.10243653 0.066636376
0.056780785 -0.073335975 0.01267134 -0.11834436 0.049579274 -0.09983152 -0.102797076 -0.08167558
0.02129813 0.06813164 0.061966002 0.14374997 0.0321537 -0.09867662 0.116572 -0.12145889
0.065014064 0.03818959 0.0009698728 0.069230705 0.12832081 -0.033654787 -0.043172147 -0.1059187
0.019062925 0.054065883 0.05230211 0.15583947 0.044668086 0.017621266 -0.1344892 0.115951605
0.041455727 0.07260342 0.054557577 -0.06352983 -0.0627516 0.024938492 0.047452714 -0.037148662
0.10931261 0.056311477 -0.07661873 0.07222862 0.05250737 0.021250766 -0.09015881 -0.112009175
-0.026132146 -0.040972024 0.004904273 -0.060752627 -0.054314114 -0.025136381 0.13671063 -0.045800403
0.14352918 0.037329726 0.05867428 0.12674898 -0.13858168 0.024297832 0.08596553 0.05198703
0.024695234 -0.06287009 -0.14149961 0.016354123 -0.010412205 -0.082233235 0.13282749 0.10569848
0.11876716 0.0027508545 0.04327829 -0.007966676 -0.035838265 0.050439518 0.082064115 -0.061822094
-0.058348875 0.007019129 0.09230016 0.042851 -0.06550587 -0.056938402 -0.0505954 0.11336016
0.19214523 -0.035737585 0.045068912 0.09344525 -0.0010989095 0.16834262 -0.06153638 0.044850964
-0.09589883 0.14267212 0.15209016 0.038258098 -0.049424473 -0.040398233 0.09041899 0.16226012
0.102362216 0.13121215 0.02936273 0.058423277 0.08383997 0.09213719 0.06886818 0.038362343
0.09719518 0.014951576 0.12253833 -0.06334201 0.16026317 0.066882126 0.11824178 -0.068463705
0.007477386 0.03975847 0.05166553 -0.014698748 -0.09548829 0.030751236 -0.019895138 0.048520688
-0.010303631 0.028341195 -0.0049106996 0.060481537 0.1547083 0.0408744 0.02119597 -0.066750884
0.15107308 0.16567706 0.06396522 0.1557627 -0.0116168605 -0.029064449 0.05437884 0.2033985
0.17625377 0.15159939 0.08863207 0.025528666 0.1562539 0.07126814 0.018567646 0.076848716
