LSTM/models/sensor_data_1_co_lstm_model.pth (torch, 206032 bytes, 9 tensors)

lstm.weight_ih_l0 f4 [256, 1]
-0.0016594346 -0.022060052 0.07669567 0.051709514 0.11181638 0.10553177 0.015190326 0.033517193
-0.0826296 0.0850145 0.013417258 -0.0042589162 -0.026204547 0.12982772 0.15263799 0.10812944
0.041930743 0.124294214 0.03436553 0.047087513 0.155374 -0.03211072 -0.16682762 -0.13818744
-0.16985187 -0.050922118 0.17129841 -0.079941854 0.03455068 0.031361867 0.04433735 -0.103859305
-0.17262949 0.056368142 -0.12558018 -0.12320847 -0.12297795 0.121072136 0.088062905 -0.19085318
0.028560765 -0.21722323 -0.038553104 0.09040709 0.08261629 0.05274771 -0.16827004 0.12668614
-0.0828206 0.028883448 0.049599085 -0.03243415 0.04831213 0.1609463 0.017599132 -0.18865617
-0.07992874 0.06146202 0.0445634 -0.051861186 0.028675223 -0.02449041 0.009387485 0.16454072
0.089853205 -0.13087071 0.08596845 -0.07207446 0.0049674246 -0.11817042 0.042946674 0.0033083227
0.04886033 0.03624743 -0.028493594 -0.08116557 -0.08666218 0.090449095 0.115531385 0.010350443
0.030111058 0.024366748 -0.023890337 -0.04478059 0.12912877 0.08655255 0.07239347 0.053186566
-0.04657302 0.061847467 0.18315019 0.06288503 -0.04984708 0.15369698 -0.117118195 0.008591724
-0.09345232 -0.03866225 0.015956987 -0.06666869 0.035056274 0.039939847 -0.012023592 -0.09181107
0.13286176 -0.028841058 0.08004584 -0.05598915 0.0038912178 -0.043323744 0.00083971024 0.06411451
-0.021602895 0.011231036 -0.06736175 0.0128499875 0.009291374 0.019278204 -0.06972647 -0.06289613
-0.18934931 -0.0022101146 0.16700505 -0.08795889 0.012628747 -0.19150239 0.06469728 0.19433387
-0.1687463 0.17714188 -0.17261182 0.06022141 0.18994837 -0.019559518 -0.09199631 0.13463841
0.021032656 -0.13341022 -0.100000255 0.15530811 0.1484234 0.18721296 0.052741442 -0.18144684
-0.008036983 -0.14703658 -0.17942455 -0.06995019 0.20646611 0.0819736 -0.13056257 -0.10777889
-0.21804051 -0.10716843 0.16442527 0.12263772 0.12795267 0.079070054 0.091240175 -0.11359437
-0.109817795 0.16326874 0.11108358 0.034870308 0.17464127 0.164585 0.10704652 -0.13102792
-0.12300199 -0.10208754 0.19507712 0.20654394 0.17553571 0.15212706 0.098689646 0.18675746
0.22150168 -0.1868021 -0.1208592 -0.13806197 -0.19082539 0.1774471 0.17558594 0.14127527
0.1383577 0.15356883 0.09868287 0.14259864 -0.2025631 -0.1351447 -0.16617835 -0.21609546
-0.15371154 -0.13857801 0.095428355 -0.12059833 0.049103316 0.10431374 0.12437965 0.0449383
0.014721879 0.107379615 -0.056407332 0.05378742 -0.06267044 0.05400984 0.041304685 0.03540825
0.0603224 0.16560802 0.042710427 0.13621591 0.141625 -0.12563913 -0.16361143 0.028937906
-0.12970518 -0.09511979 0.15164955 0.03134404 -0.1015859 0.006142268 -0.0110193025 -0.122238
-0.057265107 0.016025145 -0.13240385 -0.11542392 -0.15066159 0.22675902 0.013073579 -0.16495177
0.135813 -0.035974026 0.12119296 -0.011154709 -0.061897937 -0.05752238 -0.15661696 -0.001660676
0.06428892 0.16463785 -0.03515099 -0.18303363 -0.028269885 0.1291513 -0.12188673 -0.2006808
-0.17536354 -0.0031029882 0.16976851 -0.12661773 0.0049116584 -0.23535168 0.02071514 0.105949156
00000000: 6381 d9ba 48b7 b4bc 9f12 9d3d 5bcd 533d
00000010: fcff e43d 0a21 d83d d8e0 783c 5349 093d
00000020: b539 a9bd 151c ae3d 0fd4 5b3c 618e 8bbb
00000030: ebaa d6bc 8ff1 043e 224d 1c3e f872 dd3d
00000040: 92bf 2b3d f78d fe3d dfc2 0c3d d6de 403d
00000050: 5d1a 1f3e 8886 03bd dcd4 2abe 0281 0dbe
00000060: a6ed 2dbe b693 50bd da68 2f3e 8eb8 a3bd
00000070: 0485 0d3d 4d75 003d 159b 353d 30b4 d4bd
00000080: c9c5 30be 48e2 663d 1798 00be b954 fcbd
00000090: dddb fbbd abf4 f73d 535a b43d 046f 43be
000000a0: 44f8 e93c c46f 5ebe dce9 1dbd 5a27 b93d
000000b0: bb32 a93d fc0d 583d fb4e 2cbe 03ba 013e
000000c0: d99d a9bd fb9c ec3c 6928 4b3d acd9 04bd
000000d0: f1e2 453d 1bcf 243e 0e2c 903c 152f 41be
000000e0: aeb1 a3bd 99bf 7b3d 1d88 363d 656c 54bd
000000f0: 4de8 ea3c 1da0 c8bc f7cd 193c 5d7d 283e
00000100: f504 b83d f902 06be 3a10 b03d c69b 93bd
00000110: c7c5 a23b 5503 f2bd dae8 2f3d 72d0 583b
00000120: c521 483d 2f78 143d 666b e9bc 223a a6bd
00000130: f17b b1bd 603d b93d b89b ec3d e894 293c
00000140: 77ab f63c c69c c73c abb5 c3bc da6b 37bd
00000150: 553a 043e 7742 b13d 0743 943d 28da 593d
00000160: 5ac3 3ebd c553 7d3d b98b 3b3e dec9 803d
00000170: 742c 4cbd be62 1d3e aadb efbd 4dc4 0c3c
00000180: ee63 bfbd 4f5c 1ebd 3ab8 823c 9889 88bd
00000190: 2b97 0f3d f797 233d 9afe 44bc 7107 bcbd
000001a0: ea0c 083e 1544 ecbc 13ef a33d e154 65bd
000001b0: cd03 7f3b 3d74 31bd 0020 5c3a 784e 833d
000001c0: 8ef8 b0bc 6102 383c f5f4 89bd c188 523c
000001d0: d93a 183c 53ed 9d3c c0cc 8ebd b0cf 80bd
000001e0: c9e4 41be 92d7 10bb 5f03 2b3e ca23 b4bd
000001f0: cee8 4e3c 3419 44be 0280 843d 75ff 463e
00000200: d4cb 2cbe ae64 353e 27c1 30be baaa 763d
00000210: d381 423e 483b a0bc 9068 bcbd a7de 093e
00000220: ad4c ac3c b09c 08be efcc ccbd 1709 1f3e
00000230: 4efc 173e c1b4 3f3e 6907 583d 33cd 39be
00000240: 8dad 03bc c290 16be 12bb 37be 0c42 8fbd
00000250: da6b 533e c6e1 a73d 32b2 05be 2ebb dcbd
00000260: 0346 5fbe 1f7b dbbd 195f 283e 7c29 fb3d
00000270: 0606 033e 7bef a13d 21dc ba3d 2aa4 e8bd
00000280: 27e8 e0bd ec2f 273e ca7f e33d 2bd4 0e3d
00000290: 29d5 323e f888 283e 353b db3d 2f2c 06be
000002a0: 78e8 fbbd 4613 d1bd 4cc2 473e 4180 533e
000002b0: a2bf 333e 32c7 1b3e cc1d ca3d 593d 3f3e
000002c0: 56d1 623e 0d49 3fbe 0785 f7bd 1e60 0dbe
000002d0: bb67 43be b1b4 353e cdcc 333e 77aa 103e
000002e0: a4ad 0d3e 2641 1d3e 3f1a ca3d 6105 123e
000002f0: b46c 4fbe 5f63 0abe a82a 2abe 2148 5dbe
00000300: 8f66 1dbe 65e7 0dbe f16f c33d 42fc f6bd
00000310: 8f20 493d 71a2 d53d c2ba fe3d 3911 383d
00000320: 0934 713c d8e9 db3d 600b 67bd 3350 5c3d
00000330: 5c59 80bd 6c39 5d3d 1a2f 293d 3e08 113d
00000340: 9f14 773d 2695 293e 21f1 2e3d 2f7c 0b3e
00000350: 2506 113e 8ba7 00be c189 27be 300f ed3c
00000360: 6fd1 04be 2ace c2bd 054a 1b3e 9c62 003d
00000370: 450c d0bd 1445 c93b 4e8a 34bc eb57 fabd
00000380: d18e 6abd 2a47 833c e094 07be 6063 ecbd
00000390: 0847 1abe 8433 683e 9132 563c 1ee9 28be
000003a0: 9012 0b3e 8059 13bd 0434 f83d 3ec2 36bc
000003b0: b188 7dbd 969c 6bbd 3260 20be 0aab d9ba
000003c0: e9a9 833d d396 283e 7cfa 0fbd 2b6d 3bbe
000003d0: 3f96 e7bc 3d40 043e c09f f9bd 457f 4dbe
000003e0: 8092 33be 815b 4bbb ccd7 2d3e 14a8 01be
000003f0: faf1 a03b 0800 71be ccb2 a93c dffb d83d

lstm.weight_hh_l0 f4 [256, 64]
0.031176722 0.07608558 0.060686607 -0.101278186 0.014942499 0.007963119 -0.04483412 0.045627452
0.021148445 -0.0034389452 0.028208384 -0.022697177 -0.11375796 0.0841056 0.0772144 -0.057445046
0.13569829 -0.031442486 0.12545455 -0.09979919 0.061318714 -0.13054399 -0.08866452 0.11253683
0.06681499 -0.08266369 0.062241238 0.020112906 -0.124197334 -0.023352262 -0.12628993 0.07553035
0.031024797 0.14839146 0.090514794 -0.05126577 -0.115107484 0.011794466 0.012450055 0.14789638
-0.19632605 0.07116186 0.0575492 0.087117076 0.033903874 0.06121847 -0.012009146 0.01034192
0.032223355 -0.045768075 0.05646965 -0.03874467 0.005472721 0.08450197 0.03140361 -0.12182666
0.078570254 0.08048258 0.075299054 -0.01358533 0.09467682 -0.04714308 0.029410126 -0.11189315
0.07227624 0.05126658 0.032502655 0.033576224 0.045094788 -0.096127994 -0.18526337 0.005305386
-0.111377954 0.052986786 0.016822875 0.01774672 0.040483065 0.058412854 0.011752144 0.023346096
0.076768965 0.0005669099 0.096531264 -0.14378269 0.10297658 -0.05957524 0.02893648 0.005081471
0.0113113 -0.08318688 -0.035401054 -0.085006304 -0.120034635 0.10854269 0.099001236 -0.039035283
0.17651746 0.18195246 -0.14137757 -0.0538092 -0.052872926 0.13428766 -0.022392614 0.12525016
-0.085220285 -0.000116762276 -0.086668424 -0.042559367 -0.0057301046 -0.057505827 -0.09951023 0.07318388
-0.07114079 -0.046349064 -0.059395898 0.12604609 -0.02465538 0.078509256 0.058144256 -0.1730184
-0.0072653755 -0.09882909 0.23698428 -0.13834529 0.11707547 0.07809092 0.09723557 -0.15741275
-0.012746589 -0.08118054 0.0064064465 0.025100477 -0.09433728 0.02031975 0.051569145 0.028698185
0.09388127 0.06463457 0.10720366 -0.033014387 -0.13034682 0.07586918 -0.04791342 0.08171072
0.07608802 0.0727533 0.14232482 -0.0012784027 0.060475424 0.113544285 0.054284155 0.053298097
0.01319374 0.06784714 0.10357288 -0.1633025 -0.13780107 0.13254707 0.10184598 0.117677666
0.037154213 0.08075616 0.055492397 0.00077540666 -0.09630396 0.06617834 0.021162365 0.06776233
0.06264011 -0.01175041 0.023014598 -0.11878644 -0.08630905 0.082694076 -0.147281 -0.09775546
-0.005543498 0.0005400362 -0.031062614 -0.06186955 0.17894724 -0.06250289 -0.082316995 0.016449723
0.02981239 -0.048288032 0.047474544 -0.13357963 0.18174945 0.030747093 0.014109294 -0.12689741
0.047302347 -0.05243775 -0.041078508 -0.0207562 -0.059273817 -0.058369074 -0.069344856 0.14511135
-0.20901509 -0.034483545 0.08868566 0.029180067 0.007801072 0.12390885 0.13957566 0.07064202
0.037667427 -0.10748815 0.13870491 -0.017978525 0.10991634 -0.18244337 0.053487428 0.12893356
0.082756326 0.13186622 0.0029534888 0.036843438 -0.15429811 0.0051779374 0.10380065 0.108426355
0.13668886 0.09650371 -0.019747108 -0.12924357 -0.049794007 0.014105528 -0.0692279 0.14959471
-0.18118136 -0.072212875 0.07470079 0.0067268023 -0.013807921 0.09876361 -0.105186164 -0.10201205
-0.07633536 -0.09819353 0.13392888 -0.019734738 -0.0862034 0.17701821 -0.118653595 -0.042323966
-0.0034797655 0.1094034 0.017645653 -0.1074857 -0.020925183 0.080921486 0.016198304 0.035913777
00000000: 5366 ff3c c2d2 9b3d 8592 783d f06a cfbd
00000010: 62d1 743c be77 023c fba3 37bd dae3 3a3d
00000020: 813f ad3c ed5f 61bb 4515 e73c 6eef b9bc
00000030: eff9 e8bd 8f3f ac3d 9522 9e3d 7f4b 6bbd
00000040: 7ef4 0a3e d6c9 00bd 2877 003e 8563 ccbd
00000050: 5529 7b3d 53ad 05be be95 b5bd b679 e63d
00000060: 4cd6 883d 954b a9bd abf0 7e3d d2c3 a43c
00000070: 2c5b febd 3e4d bfbc 2652 01be a8af 9a3d
00000080: b727 fe3c eef3 173e d25f b93d 0efc 51bd
00000090: 79bd ebbd 933d 413c 51fb 4b3c 2672 173e
000000a0: b209 49be 4fbd 913d b6b8 6b3d 706a b23d
000000b0: cade 0a3d 38c0 7a3d 02c2 44bc 2871 293c
000000c0: a3fc 033d 4e77 3bbd b84c 673d bbb2 1ebd
000000d0: 8354 b33b 5e0f ad3d 12a1 003d 4280 f9bd
000000e0: 71e9 a03d 0dd4 a43d 6436 9a3d 0195 5ebc
000000f0: ece5 c13d 1a19 41bd 81ed f03c 3c28 e5bd
00000100: 9105 943d e8fc 513d 8121 053d 3987 093d
00000110: 50b5 383d c1de c4bd aeb5 3dbe ced8 ad3b
00000120: 201a e4bd ac08 593d 20d0 893c 9261 913c
00000130: 92d1 253d 5142 6f3d 118c 403c 5040 bf3c
00000140: 0c39 9d3d ae9c 143a 2fb2 c53d c53b 13be
00000150: 63e5 d23d 2b05 74bd 320c ed3c 7882 a63b
00000160: 0853 393c e25d aabd b200 11bd c917 aebd
00000170: b8d4 f5bd a14b de3d 29c1 ca3d 76e3 1fbd
00000180: fec0 343e bf51 3a3e 48c5 10be 0967 5cbd
00000190: 4891 58bd b482 093e b770 b7bc 9441 003e
000001a0: f987 aebd 45de f4b8 377f b1bd bb52 2ebd
000001b0: 9ac3 bbbb 3b8b 6bbd 05cc cbbd 6ee1 953d
000001c0: 43b2 91bd 84d8 3dbd 1d49 73bd 3a12 013e
000001d0: 14fa c9bc 76c9 a03d ac28 6e3d bc2b 31be
000001e0: 6312 eebb e866 cabd 02ac 723e 63aa 0dbe
000001f0: 44c5 ef3d 22ee 9f3d 7123 c73d cf30 21be
00000200: 12d7 50bc fc41 a6bd 2bed d13b 849f cd3c
00000210: e733 c1bd 9b75 a63c 2b3a 533d 7518 eb3c
00000220: d344 c03d 215f 843d 988d db3d 183a 07bd
00000230: a379 05be 4d61 9b3d dd40 44bd f357 a73d
00000240: 09d4 9b3d afff 943d 99bd 113e 1490 a7ba
00000250: 14b5 773d e889 e83d 1059 5e3d 1b4f 5a3d
00000260: 8e2a 583c 71f3 8a3d 051e d43d c538 27be
00000270: b91b 0dbe 6bba 073e a094 d03d fd00 f13d
00000280: 042f 183d 7c63 a53d ff4b 633d a944 4b3a
00000290: 033b c5bd 8288 873d b25c ad3c fac6 8a3d
000002a0: 7549 803d cb84 40bc 1c89 bc3c 4e46 f3bd
000002b0: cdc2 b0bd 835b a93d d5d0 16be 0434 c8bd
000002c0: 3ba6 b5bb 3791 0d3a 0677 febc ed6a 7dbd
000002d0: f23d 373e 8401 80bd d095 a8bd 92c1 863c
000002e0: 1d39 f43c acc9 45bd ab74 423d 19c9 08be
000002f0: 871c 3a3e 54e1 fb3c ab2a 673c 65f1 01be
00000300: 1bc0 413d f7c8 56bd f041 28bd e808 aabc
00000310: 1ac9 72bd 6914 6fbd ad04 8ebd 1298 143e
00000320: 0d08 56be 9e3e 0dbd d4a0 b53d 090b ef3c
00000330: 23a0 ff3b ecc3 fd3d ecec 0e3e c3ac 903d
00000340: 2949 1a3d bf22 dcbd a908 0e3e b347 93bc
00000350: d11b e13d 6fd2 3abe a215 5b3d 2907 043e
00000360: 267c a93d f007 073e 528f 413b 25e9 163d
00000370: 5300 1ebe b0ab a93b 6f95 d43d a30e de3d
00000380: 2af8 0b3e bda3 c53d b0c4 a1bc 6d58 04be
00000390: cdf4 4bbd df1a 673c 5bc7 8dbd 5b2f 193e
000003a0: 9b87 39be 58e4 93bd bafc 983d 826c dc3b
000003b0: 9e3a 62bc 9344 ca3d d86b d7bd b2eb d0bd
000003c0: b755 9cbd b119 c9bd a724 093e bfaa a1bc
000003d0: 688b b0bd 4344 353e a800 f3bd e55b 2dbd
000003e0: c70c 64bb e40e e03d 9e8d 903c 7621 dcbd
000003f0: 4a6b abbc 2aba a53d 4eb2 843c 531a 133d

lstm.bias_ih_l0 f4 [256]
0.055611074 0.05651026 -0.060974628 -0.029538523 0.21242438 -0.046949174 0.13378108 0.06736178
-0.01593684 0.20725022 0.11334223 -0.050378516 -0.03376699 0.02332456 0.1755799 0.16075554
-0.030893149 -0.022098806 0.15921365 0.027532542 0.1388802 0.1572502 0.17250393 0.0016549241
0.23456517 0.13365676 0.029067554 -0.036925465 -0.016350217 0.1349027 0.026927141 0.09783124
0.08282353 0.14691326 0.091399185 0.19618021 0.18279809 0.052944046 0.13851355 -0.0063607674
0.08672261 0.0382046 0.11204911 0.11323401 0.011313967 0.08065899 -0.043991808 0.16006969
0.03920527 0.07281165 0.15081985 -0.030640375 0.052668665 -0.008331335 0.015209103 -0.01579707
0.01023745 -0.044949356 -0.0173528 0.10680266 0.13502526 0.002008255 0.15601012 0.019300725
0.08267185 0.024595177 0.08580102 0.07528009 -0.031546425 -0.01473718 0.015205223 0.047117583
-0.082228675 -0.025146822 0.08413472 0.059697013 0.033416014 0.1073108 0.07454853 -0.009686356
0.00973218 0.120659776 -0.06797648 -0.002168977 0.03631457 0.0486817 0.13011809 0.08152949
-0.008273135 -0.12114945 0.03850344 -0.08064781 -0.08780273 0.023075053 0.042646214 0.06680158
0.034736764 0.06770935 -0.017265968 0.058143996 -0.0017108729 -0.077334665 0.093065985 -0.044542287
-0.06470788 0.07169713 0.018494979 -0.0401575 0.048314627 0.020045191 -0.06561987 0.0024554662
-0.09186138 -0.021486646 0.03056662 0.069984786 0.06779236 -0.026789242 -0.08620273 0.0066234805
0.005021217 0.09339097 0.14693986 -0.033265606 -0.09334689 0.017324105 0.11244208 0.027107503
0.07350629 -0.1521064 -0.106230624 -0.11693699 -0.058988996 -0.04207345 -0.0801487 0.014287116
-0.033856448 -0.11864825 0.07208108 0.11463148 -0.12627406 0.0005992716 0.034759287 0.106268905
0.036112268 -0.13653986 0.084832124 -0.12273285 0.14887075 -0.09133065 0.06612046 -0.0018408543
-0.018440912 0.028069947 0.06734327 -0.0654641 -0.11208021 -0.025503727 -0.025222743 0.06471578
0.045824055 0.12318011 -0.04799327 -0.18872598 -0.031096283 0.050178513 -0.08796306 0.059792466
-0.17344327 0.09524601 -0.052556485 -0.05852352 -0.0656968 -0.005078775 -0.1866597 0.1069578
-0.03172314 -0.06962339 -0.036868762 0.038713828 0.08445037 0.15482812 0.0122239245 -0.072727636
-0.1719088 -0.044729326 0.07585185 -0.11806368 0.07968608 0.06080823 0.024826312 -0.09659956
0.0022700173 -0.023658926 0.14647043 -0.04605584 0.021321682 -0.083086714 0.15222466 0.052941494
0.11281753 -0.024562001 -0.0043331026 0.12454562 0.069250405 0.041023057 -0.060391918 0.010804365
0.13719979 -0.004157612 -0.069935516 0.13663489 0.03005891 0.12281033 0.05413314 -0.0046553137
0.21053733 -0.06262372 0.108602054 -0.009508388 0.116534196 -0.028312027 0.15286271 0.13936076
0.058362678 0.026563914 0.11861396 -0.012839634 0.1047037 -0.008473618 0.108463645 0.17342022
0.15144949 0.14889552 0.18976738 0.08894757 -0.0065748165 0.1291377 0.14934339 0.07390822
-0.025894891 -0.012331285 -0.03400508 0.049087908 0.14368053 0.016997235 0.15633446 0.012899867
0.15708204 -0.010221852 0.17941682 0.08292058 0.068478666 0.13740806 0.04205655 0.001235287
00000000: 70c8 633d 4d77 673d 88c0 79bd c6fa f1bc
00000010: c785 593e c74d 40bd e8fd 083e f9f4 893d
00000020: fa8d 82bc 6739 543e f91f e83d b459 4ebd
00000030: 414f 0abd 2613 bf3c 38cb 333e 1a9d 243e
00000040: a113 fdbc 8e08 b5bc e708 233e ed8b e13c
00000050: 9c36 0e3e 3206 213e dfa4 303e 0aea d83a
00000060: da31 703e 51dd 083e 141f ee3c 283f 17bd
00000070: e4f0 85bc ef23 0a3e 4f96 dc3c bf5b c83d
00000080: 629f a93d 6e70 163e 7f2f bb3d 77e3 483e
00000090: 6c2f 3b3e dbdb 583d 7fd6 0d3e fc6d d0bb
000000a0: a09b b13d 6d7c 1c3d 017a e53d 3ce7 e73d
000000b0: 385e 393c 8a30 a53d c130 34bd 4fe9 233e
000000c0: b595 203d 461e 953d 8570 1a3e 8601 fbbc
000000d0: 19bb 573d 2780 08bc 9a2f 793c db68 81bc
000000e0: faba 273c d11c 38bd 7627 8ebc 5abb da3d
000000f0: 1044 0a3e ee9c 033b 1ec1 1f3e 8e1c 9e3c
00000100: dc4f a93d d37b c93c 72b8 af3d 732c 9a3d
00000110: d336 01bd 3774 71bc 541f 793c 5efe 403d
00000120: 8267 a8bd b500 cebc d34e ac3d db84 743d
00000130: 3bdf 083d c4c5 db3d e6ac 983d 86b3 1ebc
00000140: b973 1f3c 791c f73d 4137 8bbd 6525 0ebb
00000150: 96be 143d 7666 473d ad3d 053e eff8 a63d
00000160: 0b8c 07bc 341d f8bd c8b5 1d3d ae2a a5bd
00000170: ebd1 b3bd e507 bd3c ccad 2e3d 44cf 883d
00000180: 2348 0e3d 33ab 8a3d 5c71 8dbc 6628 6e3d
00000190: 5e3f e0ba a361 9ebd 6199 be3d f971 36bd
000001a0: 9185 84bd f2d5 923d c882 973c 317c 24bd
000001b0: 8fe5 453d d035 a43c b663 86bd e3eb 203b
000001c0: d221 bcbd c304 b0bc d966 fa3c 2f54 8f3d
000001d0: b9d6 8a3d 1d75 dbbc 0f8b b0bd c809 d93b
000001e0: 0589 a43b c443 bf3d 6777 163e 8441 08bd
000001f0: a72c bfbd 48eb 8d3c 0948 e63d 8e10 de3c
00000200: 778a 963d c8c1 1bbe 718f d9bd a97c efbd
00000210: 729e 71bd 3655 2cbd 0025 a4bd 8214 6a3c
00000220: 0fad 0abd dbfd f2bd 3f9f 933d e9c3 ea3d
00000230: fd4d 01be 7018 1d3a c15f 0e3d 83a3 d93d
00000240: 75ea 133d 1bd1 0bbe 77bc ad3d 5c5b fbbd
00000250: 9371 183e 900b bbbd 2a6a 873d d248 f1ba
00000260: 6511 97bc f2f2 e53c 45eb 893d 0b12 86bd
00000270: 4f8a e5bd 31ed d0bc ed9f cebc b589 843d
00000280: 01b2 3b3d da45 fc3d 9794 44bd 6241 41be
00000290: a2bd febc fc87 4d3d fa25 b4bd f2e8 743d
000002a0: 1d9b 31be 5710 c33d 7845 57bd 5cb6 6fbd
000002b0: 0b8c 86bd da6b a6bb b823 3fbe b10c db3d
000002c0: 20f0 01bd b596 8ebd b303 17bd 6492 1e3d
000002d0: 51f4 ac3d 438b 1e3e db46 483c 3af2 94bd
000002e0: dc08 30be 1936 37bd 3758 9b3d 5fcb f1bd
000002f0: 7532 a33d 0d12 793d 8d60 cb3c fdd5 c5bd
00000300: 92c4 143b 5dd0 c1bc 58fc 153e 0ca5 3cbd
00000310: cfaa ae3c 5e29 aabd c8e0 1b3e 2ed9 583d
00000320: e10c e73d 4036 c9bc b3fc 8dbb c611 ff3d
00000330: 28d3 8d3d cb07 283d 845d 77bd cb04 313c
00000340: 1a7e 0c3e 943c 88bb 5a3a 8fbd 04ea 0b3e
00000350: 1a3e f63c fb83 fb3d b6ba 5d3d 9a8b 98bb
00000360: 1997 573e dd40 80bd c16a de3d 12c9 1bbc
00000370: 7ba9 ee3d a0ee e7bc 0b88 1c3e 96b4 0e3e
00000380: b40d 6f3d 919c d93c e0eb f23d 545d 52bc
00000390: e56e d63d eed4 0abc 3022 de3d 1295 313e
000003a0: 9315 1b3e 1178 183e 6152 423e 252a b63d
000003b0: 8f71 d7bb ac3c 043e 79ed 183e 315d 973d
000003c0: 8621 d4bc 2809 4abc e948 0bbd 6710 493d
000003d0: fd20 133e c93d 8b3c 2416 203e f759 533c
000003e0: 1dda 203e 8e79 27bc 0bb9 373e 44d2 a93d
000003f0: 8b3e 8c3d b3b4 0c3e 7d43 2c3d 5be9 a13a

lstm.bias_hh_l0 f4 [256]
0.002221867 0.15171528 -0.038451683 -0.03940351 0.17856953 0.047270257 0.027460663 0.17445491
0.16543545 0.151007 0.07746588 -0.062362444 0.06979961 0.10143245 0.10487699 0.05314614
0.106867716 0.17580879 0.12992594 0.012871399 0.18345441 0.0833761 0.17871305 0.029939223
0.23268671 -0.04677016 0.13388625 -0.05451084 0.120508164 -0.020873763 -0.07219268 0.110989325
-0.06349965 -0.01608648 0.1434039 -0.024600087 0.16844527 -0.02556075 0.15939854 0.14485487
0.0815644 0.08260391 0.007552325 0.09778431 -0.06687079 0.0050957208 0.085069664 0.03594565
0.15954772 0.11091859 0.123435736 0.062213544 0.0439629 0.16987066 -0.020599926 0.09506349
0.14464101 0.0687906 0.06311835 -0.020625548 -0.015355776 0.021768441 0.12510884 0.010017605
-0.015727881 -0.043496482 -0.10791364 0.080612905 -0.1308461 -0.07750568 0.024992807 0.06493537
-0.05985094 -0.04773145 0.055806402 0.096691206 -0.004197015 0.12021841 -0.01581445 -0.09197287
0.041559704 0.06832587 0.049821295 -0.0018044922 0.00837853 0.018211126 0.038807258 0.087651335
-0.015823694 -0.12034562 0.009314737 -0.04832985 0.143074 0.107491314 0.0073499004 -0.07831642
0.10216768 0.0324006 0.051254254 0.023322627 0.013571859 0.089661494 0.03974852 0.06878701
-0.03544749 0.038194478 -0.1487872 0.07499747 -0.035979122 0.04228542 -0.06377815 0.08724207
0.113148615 0.004681266 -0.059425622 0.102095194 0.0069889864 -0.0031967917 -0.091988765 -0.017767077
-0.062219575 -0.12174283 0.038276006 -0.033067703 0.0027842768 0.02202394 -0.0272596 0.07022908
0.035470445 -0.01520677 -0.061003312 -0.15971702 0.13365449 -0.15574877 -0.02552794 0.09030712
-0.1380293 0.017279629 -0.07700705 0.023755612 -0.09659903 0.09810983 0.17211215 -0.12145325
0.16420358 -0.061947726 0.06295173 -0.12399143 0.07204053 0.07129985 0.17119412 0.020907307
0.09276125 -0.007159314 0.11111737 -0.0469076 -0.06999805 0.044278048 -0.04977319 -0.029121028
0.014947576 0.15011626 -0.12945229 -0.16284384 -0.04976286 0.064876795 0.091862425 -0.02260986
-0.15700333 0.0129801 0.033007156 0.033763036 0.106167786 0.0047934847 -0.029047307 -0.02119193
-0.019648025 -0.13188408 0.11675518 0.03980875 0.10097038 0.010101863 -0.059622653 0.005814326
-0.05385119 -0.015856585 0.1792683 0.028602283 0.11883602 0.16067974 -0.0074283113 -0.08040086
0.14778802 0.167272 0.117189 -0.03926012 0.21507068 0.062725425 0.16191912 0.035754733
0.05115884 -0.02987296 -0.054011732 0.088802785 0.05985578 -0.008757189 0.1471096 0.009208912
-0.075162254 0.20194264 0.14924298 0.15474388 0.0023852766 0.09301835 0.016039822 0.17726402
0.17360923 -0.015693318 -0.026016908 0.0011585468 -0.019592255 0.19417325 -0.06435619 0.16677314
0.14849387 -0.062495917 0.10743099 0.12532428 0.12687121 0.087760344 0.05469782 0.07989899
0.17295554 0.016788067 0.17621788 0.14713427 0.030030487 0.07558314 0.08755579 0.1530698
0.1406579 0.12481194 0.13856046 0.10748 0.002910771 -0.01181723 0.16186671 0.05298198
0.050554533 0.10822393 0.02178443 0.049479 0.10973122 0.15343374 0.03927668 0.062001612
00000000: be9c 113b 405b 1b3e 837f 1dbd 9365 21bd
00000010: eeda 363e 759e 413d 2ff5 e03c 4fa4 323e
00000020: e967 293e 94a1 1a3e 6ea6 9e3d c36f 7fbd
00000030: 19f3 8e3d d1bb cf3d bfc9 d63d c4af 593d
00000040: 76dd da3d 3807 343e 4e0b 053e 8fe2 523c
00000050: 79db 3b3e 17c1 aa3d 8e00 373e 1a43 f53c
00000060: 6d45 6e3e 1192 3fbd 7a19 093e c246 5fbd
00000070: fccc f63d 74ff aabc c1d9 93bd 5f4e e33d
00000080: 1b0c 82bd cbc7 83bc 79d8 123e 1f86 c9bc
00000090: eb7c 2c3e c764 d1bc 5f39 233e d654 143e
000000a0: 3c0b a73d 3d2c a93d 7e79 f73b 2443 c83d
000000b0: 8ef3 88bd 01fa a63b 0139 ae3d bf3b 133d
000000c0: 7a60 233e 4929 e33d e0cb fc3d a1d3 7e3d
000000d0: 7112 343d 93f2 2d3e 2dc1 a8bc a6b0 c23d
000000e0: c61c 143e 16e2 8c3d 3244 813d e9f6 a8bc
000000f0: cb96 7bbc bb53 b23c 881c 003e e120 243c
00000100: c2d7 80bc 5e29 32bd d401 ddbd 6118 a53d
00000110: 85fc 05be 4cbb 9ebd b7bd cc3c d6fc 843d
00000120: 4226 75bd 0e82 43bd 4195 643d 0a06 c63d
00000130: 1d87 89bb 1235 f63d 4e8d 81bc 465c bcbd
00000140: 823a 2a3d 6fee 8b3d 6a11 4c3d b684 ecba
00000150: 1a46 093c 802f 953c 5cf4 1e3d 8b82 b33d
00000160: b1a0 81bc c477 f6bd d79c 183c 85f5 45bd
00000170: fe81 123e 6824 dc3d 6fd7 f03b 5c64 a0bd
00000180: 4a3d d13d 7eb6 043d fbef 513d 180f bf3c
00000190: 815c 5e3c 72a0 b73d 58cf 223d 34e0 8c3d
000001a0: 6331 11bd d071 1c3d ac5b 18be 4698 993d
000001b0: d85e 13bd 7a33 2d3d 1e9e 82bd f8ab b23d
000001c0: 76ba e73d 4e65 993b 4868 73bd 4917 d13d
000001d0: de03 e53b 4481 51bb 9b64 bcbd 438c 91bc
000001e0: f4d9 7ebd 4e54 f9bd 4dc7 1c3d 0072 07bd
000001f0: 6a78 363b 8d6b b43c 864f dfbc 44d4 8f3d
00000200: 7549 113d d125 79bc 9cde 79bd dc8c 23be
00000210: b9dc 083e 9b7c 1fbe f81f d1bc f0f2 b83d
00000220: 8e57 0dbe 028e 8d3c dfb5 9dbd 219b c23c
00000230: b6d5 c5bd ceed c83d 2b3e 303e 7bbc f8bd
00000240: fc24 283e e6bc 7dbd d6ec 803d 38ef fdbd
00000250: fc89 933d a805 923d 834d 2f3e cd45 ab3c
00000260: 9cf9 bd3d ae98 eabb 8191 e33d 2f22 40bd
00000270: 235b 8fbd e65c 353d f9de 4bbd 398f eebc
00000280: aee6 743c 14b8 193e 248f 04be 89c0 26be
00000290: 24d4 4bbd 20de 843d 5e22 bc3d 5038 b9bc
000002a0: 7bc5 20be 7caa 543c 8332 073d 1c4b 0a3d
000002b0: 7f6e d93d aa12 9d3b 9ef4 edbc b39a adbc
000002c0: e5f4 a0bc 9f0c 07be 571d ef3d 800e 233d
000002d0: 8fc9 ce3d 4982 253c e236 74bd 1a86 be3b
000002e0: 1193 5cbd abe5 81bc 1c92 373e 564f ea3c
000002f0: 4d60 f33d 3b89 243e 3169 f3bb 35a9 a4bd
00000300: be55 173e 5a49 2b3e c900 f03d 38cf 20bd
00000310: 7d3b 5c3e 3076 803d 20ce 253e 8e73 123d
00000320: ef8b 513d 23b8 f4bc 683b 5dbd 3cde b53d
00000330: 562b 753d 507a 0fbc e6a3 163e fae0 163c
00000340: abee 99bd 0dca 4e3e 27d3 183e 2e75 1e3e
00000350: 4d52 1c3b 6880 be3d f265 833c b384 353e
00000360: 9ec6 313e 468f 80bc 6921 d5bc 61da 973a
00000370: f07f a0bc 5ad5 463e 2ecd 83bd 94c6 2a3e
00000380: c70e 183e b8fb 7fbd c704 dc3d 0255 003e
00000390: 87ea 013e b2bb b33d d20a 603d 15a2 a33d
000003a0: 421b 313e 2187 893c 7672 343e 5eaa 163e
000003b0: 7f02 f63c 55cb 9a3d 7350 b33d 54be 1c3e
000003c0: a008 103e 679d ff3d cbe2 0d3e 791e dc3d
000003d0: a2c2 3e3b 0e9d 41bc 63c0 253e a203 593d
000003e0: 4512 4f3d 82a4 dd3d 4375 b23c 7eaa 4a3d
000003f0: c3ba e03d bc1d 1d3e 96e0 203d 67f5 7d3d

lstm.weight_ih_l1 f4 [256, 64]
0.109406196 -0.18246183 -0.1024352 -0.17811775 0.054671377 -0.18509187 0.028529402 0.10459864
-0.020804634 0.116404936 -0.015742688 -0.09491414 -0.08808252 -0.09293734 0.15962346 -0.06164177
0.08958941 -0.12303478 -0.009160537 -0.1279653 -0.09507014 -0.24265194 0.024032423 0.18780658
0.1776569 0.08133828 0.12976103 0.0042740875 -0.047354218 0.12577689 -0.1143383 0.033091113
0.07783837 0.06269606 -0.07496746 -0.16631432 -0.12884347 -0.019129524 0.07277701 0.06675413
-0.19613332 0.18714267 0.0018590251 -0.06477283 0.035040475 -0.07480452 -0.12390556 0.0070066815
-0.086019956 -0.09886096 0.017418917 -0.026723025 0.12116856 -0.053383425 0.024028301 -0.07284911
-0.0013697837 0.060657423 0.14012453 -0.083291136 0.094447926 0.057807326 0.14317688 0.0746136
-0.077657975 -0.029305002 -0.031403508 -0.03506674 -0.0024677478 -0.020212628 -0.15739366 0.21965884
-0.001303597 0.002863232 0.0109481625 0.12932687 -0.09841299 0.16274074 0.17192276 0.008472991
0.09112336 -0.14694051 0.093834534 -0.019217733 0.11472853 0.11818394 0.07774069 -0.16273594
-0.2216397 -0.026634715 0.042135414 0.13682173 -0.004171487 0.060131595 -0.03955333 0.0108607495
0.04254027 0.2093923 -0.13221402 -0.11798181 0.15695566 0.07411916 -0.038028967 -0.071525104
-0.107397944 -0.091699116 0.1428527 0.111685 0.093779266 -0.029578686 -0.14308006 0.16925225
0.18332976 -0.0461036 -0.13881283 -0.113392435 -0.12603284 0.18909812 0.09019767 0.16384937
0.035199195 0.075534 0.17147137 -0.030358275 0.07049968 0.1297973 0.022160653 -0.063130334
-0.04880323 0.05087558 -0.030241473 0.08992948 0.0004292298 -0.010135153 -0.07763093 -0.025387298
-0.049415767 -0.16395926 -0.09117565 0.1496752 0.023840481 0.028562518 0.01083637 -0.19221765
-0.07110665 -0.16451825 -0.12307744 -0.0319039 0.09764796 0.028903404 -0.023080477 0.0027508258
-0.039174717 -0.03918833 0.1684783 0.03332316 0.09958501 0.08011627 -0.06208784 -0.020551227
-0.030410476 0.0010758487 -0.038115423 -0.099271156 -0.077063195 0.17671928 0.060325034 0.070121124
-0.003777389 -0.044410296 0.13081269 -0.04822978 -0.07496748 -0.055551093 0.10632439 0.06788587
0.0012151418 -0.18302743 -0.059623912 -0.01155977 0.05570262 0.18180054 0.1657965 0.12509283
0.019004403 0.121406764 0.0059729666 0.114933945 0.048180744 0.12091298 0.001923824 -0.14648566
0.18761556 -0.022650542 -0.05522593 -0.0683735 -0.12805542 0.0018806519 -0.013397268 -0.06872623
-0.1630315 -0.05228078 0.1545987 0.08664778 0.02800052 0.066311926 0.14742996 0.0678564
0.104832605 -0.14899029 -0.00487252 -0.028230218 -0.084224746 -0.12580113 0.22376592 0.16706893
0.03212481 0.121253334 0.14332238 0.023270907 -0.12578191 0.07330658 0.038043093 0.05994754
0.20554425 0.1899148 -0.035905544 -0.071989745 -0.013754114 0.034226146 0.058769792 0.16112073
0.029638037 -0.027490871 -0.005298868 0.015559993 0.10159777 -0.045506142 0.0020588194 -0.11449755
-0.037153486 -0.073997 0.16396321 0.029979806 0.14501354 0.059196133 -0.06395045 -0.20489302
-0.0046789185 0.046407703 0.12036719 -0.20723787 -0.031488996 0.089172274 0.07040255 0.0008268677
00000000: 5b10 e03d 46d7 3abe 8cc9 d1bd 8064 36be
00000010: 18ef 5f3d b988 3dbe 7eb6 e93c d037 d63d
00000020: 7b6e aabc b665 ee3d cff6 80bc 5862 c2bd
00000030: 9c64 b4bd ef55 bebd 5574 233e 157c 7cbd
00000040: a77a b73d a9f9 fbbd 1416 16bc 5609 03be
00000050: 22b4 c2bd c079 78be a5df c43c 5e50 403e
00000060: b1eb 353e af94 a63d 13e0 043e a50d 8c3b
00000070: 7ff6 41bd a8cb 003e 332a eabd 8c8a 073d
00000080: b969 9f3d cb66 803d 8a88 99bd 4d4e 2abe
00000090: 8bef 03be 85b5 9cbc 1d0c 953d 64b6 883d
000000a0: 2cd7 48be 54a2 3f3e 88aa f33a 9ea7 84bd
000000b0: 9a86 0f3d 1d33 99bd 33c2 fdbd 4e98 e53b
000000c0: 3b2b b0bd 9d77 cabd 1eb2 8e3c 3fea dabc
000000d0: 3927 f83d 94a8 5abd 00d7 c43c ea31 95bd
000000e0: 508a b3ba eb73 783d ce7c 0f3e 8b94 aabd
000000f0: ea6d c13d 60c7 6c3d f69c 123e 04cf 983d
00000100: 250b 9fbd 0b11 f0bc f7a0 00bd 24a2 0fbd
00000110: f0b9 21bb f494 a5bc ce2b 21be 3fee 603e
00000120: 75dd aaba 10a5 3b3b ec5f 333c 436e 043e
00000130: c08c c9bd 82a5 263e 850c 303e 4dd2 0a3c
00000140: e29e ba3d 9377 16be 522c c03d 826e 9dbc
00000150: cbf6 ea3d 6c0a f23d 8336 9f3d 40a4 26be
00000160: 84f5 62be 0c31 dabc 2f96 2c3d ff1a 0c3e
00000170: f8b0 88bb 8c4c 763d ac02 22bd 49f1 313c
00000180: b53e 2e3d ef6a 563e 1d63 07be 72a0 f1bd
00000190: fcb8 203e c9cb 973d 43c4 1bbd c17b 92bd
000001a0: 74f3 dbbd bfcc bbbd fa47 123e 1bbb e43d
000001b0: 580f c03d 004f f2bc 9483 12be 7650 2d3e
000001c0: ccba 3b3e 21d7 3cbd f324 0ebe 4b3a e8bd
000001d0: c10e 01be f0a2 413e 8eb9 b83d 21c8 273e
000001e0: 082d 103d 92b1 9a3d 3196 2f3e ebb1 f8bc
000001f0: 2362 903d 95e9 043e 428a b53c 7a4a 81bd
00000200: e5e5 47bd ea62 503d f7bc f7bc f22c b83d
00000210: 400a e139 ea0d 26bc f7fc 9ebd 06f9 cfbc
00000220: 3068 4abd f0e4 27be 4dba babd 7544 193e
00000230: 1d4d c33c f1fb e93c 088b 313c b4d4 44be
00000240: 5da0 91bd 7977 28be 0610 fcbd aaad 02bd
00000250: a7fb c73d d5c6 ec3c 4513 bdbc 3347 343b
00000260: ab75 20bd f183 20bd 9385 2c3e de7d 083d
00000270: 3af3 cb3d 0014 a43d d24f 7ebd 0c5b a8bc
00000280: 641f f9bc 7e03 8d3a eb1e 1cbd ad4e cbbd
00000290: 4fd3 9dbd e6f5 343e 6217 773d aa9b 8f3d
000002a0: 128e 77bb 92e7 35bd c3f3 053e 978c 45bd
000002b0: 8d88 99bd 8b89 63bd 9ac0 d93d bf07 8b3d
000002c0: 6545 9f3a 8b6b 3bbe 3438 74bd 3165 3dbc
000002d0: 6e28 643d ec29 3a3e 8fc6 293e 5618 003e
000002e0: 1faf 9b3c 1ca4 f83d e0b8 c33b 7d62 eb3d
000002f0: 2c59 453d 39a1 f73d d228 fc3a 5600 16be
00000300: 4b1e 403e a18d b9bc 9634 62bd 6807 8cbd
00000310: f620 03be 3580 f63a 3780 5bbc 56c0 8cbd
00000320: bbf1 26be 5f24 56bd 1f4f 1e3e 6474 b13d
00000330: 5961 e53c 8cce 873d e1f7 163e 4cf8 8a3d
00000340: 7ab2 d63d e990 18be a9a9 9fbb 0f43 e7bc
00000350: 067e acbd 03d2 00be e522 653e 1e14 2b3e
00000360: 4e95 033d ab53 f83d 1ac3 123e a1a2 be3c
00000370: f9cc 00be c321 963d 13d3 1b3d 8d8b 753d
00000380: 317a 523e 0679 423e b111 13bd 5c6f 93bd
00000390: ef58 61bc b730 0c3d 98b8 703d d5fc 243e
000003a0: 78cb f23c 8934 e1bc 20a2 adbb 57ef 7e3c
000003b0: 7e12 d03d a664 3abd 42ed 063b b17d eabd
000003c0: 412e 18bd bd8b 97bd f9e5 273e 3698 f53c
000003d0: 6e7e 143e a577 723d 74f8 82bd 7acf 51be
000003e0: 9d51 99bb 0116 3e3d 1383 f63d 2a36 54be
000003f0: 9bfa 00bd f49f b63d 362f 903d 27c2 583a

lstm.weight_hh_l1 f4 [256, 64]
0.07634244 -0.21343882 0.17876936 0.013817231 0.14547853 -0.09995159 0.15671588 0.18250388
-0.028904352 -0.081282794 -0.040532753 -0.0028368123 0.15678641 0.09814 -0.075679265 -0.16729169
-0.118614726 0.05851827 -0.1750751 -0.11786526 0.11655312 -0.033966623 -0.095462926 -0.022404384
-0.016211336 -0.03233202 0.052507244 0.14155352 0.042927835 0.08072897 -0.029797941 0.035496376
-0.008958343 -0.049610898 0.010509372 -0.060215272 0.028155291 -0.05589318 0.042284634 -0.0455124
-0.10347375 0.08475399 -0.11501513 0.09821698 -0.036657475 -0.15040094 -0.11298661 0.051859617
0.053445358 0.053796276 -0.017788094 -0.11778166 -0.064611495 0.13905711 -0.16607362 -0.028290743
-0.13423158 -0.023123598 -0.08303271 -0.01306171 -0.0019758495 0.027603284 0.03187798 -0.017253933
-0.07638823 -0.03465888 0.03845287 -0.061425377 0.05615563 -0.16733071 0.006363354 0.09021279
0.10914563 -0.068052635 0.22158472 0.061756603 0.11189077 -0.17880653 0.006421684 -0.14861311
-0.011879772 0.1930958 -0.13295889 -0.026419444 0.14269884 -0.011464997 -0.08627023 0.020706192
-0.008261515 0.18130887 0.13867073 0.07109106 0.10115741 -0.003012105 -0.12421669 -0.10451411
0.20303488 -0.113226116 -0.08130134 0.10407112 -0.15120094 0.05671337 0.109846875 0.011595031
-0.22620781 -0.005636137 0.0105735045 0.030427845 -0.09777259 0.037795305 -0.035444576 0.109506026
-0.09613492 0.11643118 0.17809281 -0.08302594 -0.08494747 -0.005983196 0.018842114 -0.045011755
-0.087974586 -0.10545282 0.007957398 -0.04246285 0.036493346 -0.021319015 0.17350173 -0.089588426
-0.041836012 -0.08878798 0.02713504 0.03019868 0.042308055 0.03977233 -0.073462196 0.07581912
-0.08575914 0.073791854 0.1497136 0.095572114 -0.062362917 0.05235188 -0.08578274 -0.12248545
-0.07628653 -0.019409169 0.008773718 -0.026507042 0.05364264 0.06426049 0.018362518 -0.06891647
-0.11985312 -0.0768513 7.2717536e-05 0.05119536 -0.092450954 0.01897832 -0.121553205 0.0054835943
0.08964966 0.09452687 -0.0044547706 0.07764928 0.061342005 -0.040111635 0.02183075 0.08490403
-0.17555277 0.047011875 0.069700696 -0.034071855 -0.15367131 -0.09997977 0.07308581 0.13833049
-0.023418305 -0.04842103 -0.05350319 0.07528794 0.08323345 0.15109839 -0.04707351 -0.04314201
-0.060644608 -0.007970329 0.057299487 -0.13542944 -0.10633049 -0.13044104 -0.047518387 0.032513205
-0.05170297 -0.23062406 0.036857568 -0.079445794 0.17807007 -0.012020928 0.13014396 0.07681392
0.0075419494 -0.053001575 0.11431909 0.19013482 0.05252637 0.027400065 -0.104675375 -0.020616742
0.005019606 0.039846174 -0.11290331 0.017258788 0.031564124 -0.00010509951 0.020136142 -0.04736605
-0.06460158 0.12001839 0.097235695 0.18260463 0.19955304 0.13821866 0.035246547 0.056497045
-0.06517378 -0.028366078 -0.043680273 0.047111668 -0.024087468 -0.08120957 0.06995489 -0.07256184
-0.054895017 0.09922252 -0.15347135 0.073916666 -0.08652814 0.032529313 -0.03673459 0.078985035
-0.041833483 0.08052698 0.15220822 -0.13582413 -0.023402805 0.025450077 -0.10789441 -0.12872645
-0.116532125 -0.16412796 -0.011365128 -0.011926291 -0.19038433 0.011022047 0.030909883 0.097397
00000000: 6d59 9c3d b58f 5abe 510f 373e ab61 623c
00000010: 53f8 143e 6bb3 ccbd 217a 203e 4ce2 3a3e
00000020: d2c8 ecbc 9877 a6bd ac05 26bd d0e9 39bb
00000030: 9e8c 203e a0fd c83d bbfd 9abd 834e 2bbe
00000040: 47ec f2bd dab0 6f3d e346 33be 5763 f1bd
00000050: 67b3 ee3d 9620 0bbd 1182 c3bd 6689 b7bc
00000060: a3cd 84bc 956e 04bd d611 573d 68f3 103e
00000070: 19d5 2f3d 3b55 a53d d01a f4bc a664 113d
00000080: 04c6 12bc cc34 4bbd 802f 2c3c 4aa4 76bd
00000090: eda5 e63c 3ff0 64bd a732 2d3d 366b 3abd
000000a0: 0cea d3bd 8093 ad3d 0d8d ebbd fc25 c93d
000000b0: 2626 16bd b402 1abe 8665 e7bd c06a 543d
000000c0: 85e9 5a3d 7c59 5c3d 56b8 91bc 8337 f1bd
000000d0: 0853 84bd fd64 0e3e 340f 2abe fdc1 e7bc
000000e0: 0174 09be b36d bdbc 0e0d aabd c800 56bc
000000f0: 417d 01bb 4820 e23c 7c92 023d 1f58 8dbc
00000100: 6f71 9cbd 78f6 0dbd c280 1d3d 2d99 7bbd
00000110: 7203 663d be58 2bbe af83 d03b 7cc1 b83d
00000120: be87 df3d 2e5f 8bbd 1be7 623e 7ef4 7c3d
00000130: fd26 e53d 0f19 37be fd6c d23b 092e 18be
00000140: 60a3 42bc e8ba 453e 6026 08be 976d d8bc
00000150: a51f 123e afd7 3bbc 72ae b0bd 08a0 a93c
00000160: 4e5b 07bc 08a9 393e b3ff 0d3e 3198 913d
00000170: 9e2b cf3d bc66 45bb 5265 febd 7e0b d6bd
00000180: 60e8 4f3e 18e3 e7bd 5181 a6bd 3d23 d53d
00000190: 6bd4 1abe 474c 683d 66f7 e03d 16f9 3d3c
000001a0: 05a3 67be 58af b8bb 7e3c 2d3c d143 f93c
000001b0: ff3c c8bd 40cf 1a3d 552e 11bd b244 e03d
000001c0: 63e2 c4bd 7873 ee3d f65d 363e 8109 aabd
000001d0: f0f8 adbd b00e c4bb c75a 9a3c 3f5e 38bd
000001e0: 052c b4bd a6f7 d7bd bf5f 023c 87ed 2dbd
000001f0: 0c7a 153d 37a5 aebc 70aa 313e 237a b7bd
00000200: 3d5c 2bbd 79d6 b5bd 4e4a de3c 3963 f73c
00000210: 364b 2d3d 50e8 223d 5973 96bd 0e47 9b3d
00000220: 7da2 afbd 2f20 973d 864e 193e 50bb c33d
00000230: 4270 7fbd ed6e 563d dcae afbd a7d9 fabd
00000240: 1d3c 9cbd faff 9ebc a4bf 0f3c 4c25 d9bc
00000250: 63b8 5b3d 019b 833d fe6c 963c 1424 8dbd
00000260: 8d75 f5bd 3764 9dbd ee7f 9838 3ab2 513d
00000270: ed56 bdbd 6c78 9b3c e3f0 f8bd b9af b33b
00000280: 3e9a b73d 4e97 c13d 53f9 91bb 9606 9f3d
00000290: c141 7b3d 194c 24bd 67d6 b23c 2ae2 ad3d
000002a0: 1bc4 33be 868f 403d 3dbf 8e3d ee8e 0bbd
000002b0: 035c 1dbe 32c2 ccbd 03ae 953d 82a6 0d3e
000002c0: bfd7 bfbc 2155 46bd 2926 5bbd 9030 9a3d
000002d0: 4d76 aa3d 89b9 1a3e 27d0 40bd adb5 30bd
000002e0: 7b66 78bd fc95 02bc deb2 6a3d 04ae 0abe
000002f0: cdc3 d9bd 5692 05be a4a2 42bd 912c 053d
00000300: 7ec6 53bd b728 6cbe f6f7 163d 7ab4 a2bd
00000310: 0058 363e 6df3 44bc 7544 053e 9e50 9d3d
00000320: 7522 f73b 2e18 59bd 2120 ea3d b4b2 423e
00000330: e425 573d 1a76 e03c 0b60 d6bd 71e4 a8bc
00000340: 827b a43b be35 233d da39 e7bd 4d62 8d3c
00000350: 6249 013d df68 dcb8 8df4 a43c e702 42bd
00000360: d54d 84bd 34cc f53d 8223 c73d b5fc 3a3e
00000370: a257 4c3e 3189 0d3e af5e 103d 7269 673d
00000380: d579 85bd fa5f e8bc 16ea 32bd 2af8 403d
00000390: 1553 c5bc 3451 a6bd 8244 8f3d 4d9b 94bd
000003a0: 99d9 60bd 2d35 cb3d 9827 1dbe 9f61 973d
000003b0: aa35 b1bd 753d 053d 0277 16bd e8c2 a13d
000003c0: 9659 2bbd 54eb a43d 79dc 1b3e 7b15 0bbe
000003d0: 3db7 bfbc ae7c d03c bff7 dcbd ded0 03be
000003e0: 65a8 eebd 2911 28be cd34 3abc 7d66 43bc
000003f0: 1cf4 42be d195 343c b936 fd3c 1478 c73d

lstm.bias_ih_l1 f4 [256]
0.15212041 0.008954456 -0.015839258 -0.010108176 0.090048 0.11015444 0.14244 0.026541818
0.09305644 0.110951275 -0.09064554 0.04300147 0.20931068 0.05834462 0.121296614 0.18905383
0.08811916 0.079667106 -0.024118992 0.1613266 -0.06448074 0.12896727 0.032460134 0.14507827
0.1346798 0.058423024 0.027892066 0.067139305 0.1667383 0.17396474 -0.035562508 -0.003396011
0.12787664 -0.017257744 0.07574373 0.19009824 0.15914217 0.05376212 0.03788351 0.12514213
0.09165163 -0.08216795 0.036413547 -0.023166949 0.0017001707 0.12348348 -0.06519774 0.046379197
0.014914658 -0.04040954 0.009687182 -0.03771418 -0.025993505 0.011257878 0.07931929 0.12265806
0.1271299 0.02109016 -0.026563149 0.16515319 0.17425735 0.061590392 -0.0054883123 0.009173418
-0.08096407 -0.11745932 0.11103586 -0.13540784 -0.0032293636 0.022038274 0.018010292 0.049756534
0.07042575 0.08649321 0.07480116 0.0028528373 -0.03995772 0.085062295 0.085253686 -0.0068635494
0.020026041 -0.1027807 0.053 0.10502812 0.06672825 0.037908513 -0.06247258 -0.06157976
0.13881476 -0.030450972 -0.07633658 -0.067333184 0.08957867 -0.016824529 0.05915084 0.023423761
-0.058545485 -0.09435567 0.04609351 0.05661128 -0.06264665 0.045798525 -0.09932214 0.04636546
0.027605258 0.075526625 0.04703957 -0.04496734 -0.028277805 0.049881957 -0.09624886 -0.01842355
0.09631031 0.033399228 -0.13137357 -0.047239956 0.10503629 0.07446934 0.03971646 -0.08099517
-0.0040404648 -0.0037661945 0.062398862 0.11082719 -0.039836336 -0.03164517 0.13139614 -0.07204398
0.0026619066 -0.10242598 0.042762622 -0.0079778945 -0.07833433 -0.04629678 0.0582267 -0.09594934
-0.0893722 0.037007157 0.07428458 0.018399652 0.027262155 -0.07899458 -0.08401844 -0.074839085
-0.07060054 0.13908039 0.01120111 0.07966967 0.11622318 -0.094783 -0.104528606 -0.04644053
-0.1657736 0.14240474 -0.02776899 0.016581869 0.045673173 0.00082076946 -0.007556059 0.042579822
0.06503292 0.089478806 0.09013246 -0.08885115 -0.0009812812 -0.103051595 0.107658595 0.06297117
0.0077523505 0.07736194 -0.13111645 0.07428835 -0.08849604 -0.048142448 0.031104947 0.10818185
0.044463 0.08477549 0.0187494 0.021524712 -0.084111616 0.09103176 0.076143965 -0.108445615
0.05302874 -0.09690585 0.01853464 0.002175664 -0.024644546 0.0004113685 0.04869507 0.01390124
0.1729118 -0.016857643 0.065654464 0.18038055 0.13644405 0.04519036 -0.01860748 0.03941048
0.024403818 0.08959527 0.08355889 0.052092534 0.037284352 0.033895973 -0.032619793 0.011772195
0.033477552 0.04279614 0.21158344 0.049758986 0.12706465 0.18210545 0.10266463 0.056046553
0.022133827 0.1489081 0.164306 0.12163735 0.1604594 0.0008576789 0.119120166 0.09802217
0.20304522 0.13791488 0.06980101 0.15952471 0.07228291 0.12538725 0.12812221 0.061941028
0.08774135 0.1347866 0.1608728 -0.016536437 0.06837905 -0.0022762753 0.0379816 0.06510995
-0.0036350915 -0.04691739 0.113320425 0.090398215 -0.057594754 0.1567436 0.093601696 -0.020555455
0.051177405 -0.02456445 0.003300066 0.047130026 0.0755657 0.04518078 -0.00028099626 0.10943502
00000000: 74c5 1b3e b6b5 123c 55c1 81bc c39c 25bc
00000010: 166b b83d a798 e13d cbdb 113e 3a6e d93c
00000020: 6094 be3d 6c3a e33d 5ea4 b9bd 4f22 303d
00000030: 8a55 563e c5fa 6e3d 5c6a f83d 5497 413e
00000040: d177 b43d 8228 a33d 3195 c5bc cd32 253e
00000050: 7a0e 84bd ff0f 043e ebf4 043d 668f 143e
00000060: 80e9 093e fb4c 6f3d e77d e43c 5580 893d
00000070: 72bd 2a3e d023 323e fea9 11bd 9c8f 5ebb
00000080: 18f2 023e 1d60 8dbc 871f 9b3d 1da9 423e
00000090: 2af6 223e ab35 5c3d bd2b 1b3d 4225 003e
000000a0: dab3 bb3d ac47 a8bd 5f26 153d 9dc8 bdbc
000000b0: 43d8 de3a e8e4 fc3d 6586 85bd 1df8 3d3d
000000c0: 9c5c 743c 7984 25bd fcb6 1e3c 2f7a 1abd
000000d0: 55f0 d4bc f672 383c 2772 a23d 2634 fb3d
000000e0: 572e 023e 45c5 ac3c f69a d9bc eb1d 293e
000000f0: 8570 323e 3546 7c3d 4dd7 b3bb 1b4c 163c
00000100: 7ed0 a5bd 838e f0bd c566 e33d 5aa8 0abe
00000110: bba3 53bb 9c89 b43c 528a 933c 82cd 4b3d
00000120: 603b 903d 5a23 b13d 5a31 993d abf6 3a3b
00000130: b5aa 23bd 2435 ae3d 7c99 ae3d a0e7 e0bb
00000140: a70d a43c b07e d2bd 8716 593d fc18 d73d
00000150: d2a8 883d f545 1b3d 3fe3 7fbd 0f3b 7cbd
00000160: 7525 0e3e 5174 f9bc 5a56 9cbd fbe5 89bd
00000170: 0675 b73d 98d3 89bc 2748 723d 30e3 bf3c
00000180: 64cd 6fbd 8c3d c1bd 8ccc 3c3d 3be1 673d
00000190: e34c 80bd 3c97 3b3d 6869 cbbd b5e9 3d3d
000001a0: 6c24 e23c b4ad 9a3d 90ac 403d ac2f 38bd
000001b0: dba6 e7bc 0651 4c3d 1f1e c5bd fcec 96bc
000001c0: 573e c53d a1cd 083d cb86 06be af7e 41bd
000001d0: 441d d73d 6283 983d baad 223d cce0 a5bd
000001e0: e065 84bb 42d2 76bb f395 7f3d 5ef9 e23d
000001f0: 6d2b 23bd 5e9e 01bd b68c 063e cb8b 93bd
00000200: 6273 2e3b b6c4 d1bd dc27 2f3d b7b5 02bc
00000210: c06d a0bd b1a1 3dbd 1f7f 6e3d 1681 c4bd
00000220: c608 b7bd d194 173d 8422 983d deba 963c
00000230: e254 df3c e9c7 a1bd dc11 acbd 3c45 99bd
00000240: 0497 90bd 176b 0e3e dc84 373c da29 a33d
00000250: 6b06 ee3d 971d c2bd 1813 d6bd 6d38 3ebd
00000260: 8ec0 29be 8cd2 113e cb7b e3bc b3d6 873c
00000270: cb13 3b3d e828 573a d198 f7bb 2e68 2e3d
00000280: fb2f 853d aa40 b73d 5e97 b83d 97f7 b5bd
00000290: 559e 80ba b70c d3bd 1c7c dc3d 07f7 803d
000002a0: 6e07 fe3b f06f 9e3d 6443 06be 7e24 983d
000002b0: 693d b5bd 0431 45bd cdcf fe3c 728e dd3d
000002c0: d61e 363d c69e ad3d 5798 993c 9854 b03c
000002d0: b642 acbd dc6e ba3d 5ef1 9b3d bc18 debd
000002e0: aa34 593d 9376 c6bd f5d5 973c 9695 0e3b
000002f0: 5ce3 c9bc f2ac d739 7b74 473d 07c2 633c
00000300: ca0f 313e 0a19 8abc d975 863d aeb5 383e
00000310: fdb7 0b3e 8719 393d b76e 98bc e26c 213d
00000320: 84ea c73c ba7d b73d ec20 ab3d fb5e 553d
00000330: 7ab7 183d 81d6 0a3d 559c 05bd 2ae0 403c
00000340: c21f 093d 014b 2f3d 54a9 583e 14d0 4b3d
00000350: 3c1d 023e da79 3a3e d541 d23d 1291 653d
00000360: 0052 b53c 5d7b 183e d53f 283e 011d f93d
00000370: 784f 243e dbd5 603a 46f5 f33d d9bf c83d
00000380: 16eb 4f3e 8f39 0d3e d5f3 8e3d 725a 233e
00000390: 1009 943d 8465 003e 7832 033e e0b5 7d3d
000003a0: bdb1 b33d 8005 0a3e d7bb 243e 6c77 87bc
000003b0: 510a 8c3d 902d 15bb 9892 1b3d 5e58 853d
000003c0: b73a 6ebb 732c 40bd 8a14 e83d b322 b93d
000003d0: 7ae8 6bbd 6581 203e 3fb2 bf3d ea63 a8bc
000003e0: 669f 513d 633b c9bc ec45 583b 6a0b 413d
000003f0: 31c2 9a3d 7b0f 393d ae52 93b9 781f e03d

lstm.bias_hh_l1 f4 [256]
0.042702332 0.01696353 0.13747162 0.18727948 -0.047511216 0.1335844 0.008047468 0.120697066
0.13368282 -0.040126674 0.016441809 0.15216096 0.16059181 -0.02029843 0.16428345 0.04187631
0.14171857 -0.0146342665 0.19487526 0.034964845 -0.022051478 0.10674568 0.20898165 0.13862574
0.0647246 0.015876874 0.1931675 -0.018819664 -0.04827644 0.04453363 -0.0906025 0.09672627
0.14067549 0.19917513 0.1065963 0.07637985 0.10899389 0.13870443 -0.06749394 -0.017338084
0.18166251 0.15043348 0.016006129 0.17916933 0.13129273 0.08382895 0.12382636 -0.04308637
-0.03905487 -0.02290326 0.11401056 -0.029170454 0.11937672 0.051307734 -0.06866762 0.14291245
0.15253328 -0.046682328 0.0069267773 -0.059126798 0.16845758 0.03858519 -0.048970807 -0.028787943
0.017420707 -0.01584051 -0.05756039 0.08599031 0.05214097 -0.001261375 0.098068886 0.009116251
-0.024446076 -0.10544503 0.07013219 0.13198555 -0.014772311 0.1117208 -0.050695054 0.014096518
0.029157145 0.051536415 -0.055868626 -0.034838367 0.08130172 0.0037323455 -0.10625322 0.07709271
0.07338784 0.05198038 -0.105070464 -0.05279373 -0.059940793 0.064724594 -0.10296127 -0.020222995
-0.072094746 -0.12197353 -0.08250761 0.08550408 -0.061228484 0.014510095 -0.030223975 -0.026377654
0.11483711 -0.009597547 -0.02394062 -0.049089998 -0.07921918 -0.05964809 -0.036119472 0.03971538
0.04330224 -0.105062276 -0.08773826 0.10543429 0.092175364 -0.09913066 -0.046478502 -0.02068431
-0.045276012 0.036528867 -0.06703793 -0.10709959 -0.076475516 0.10951588 0.08984508 0.07736224
-0.120973185 -0.02352519 0.10176409 -0.10086328 0.09583053 -0.09368479 0.1579551 0.11442551
0.09748475 -0.12021033 0.14363618 0.09359424 0.16336133 -0.0058922027 0.04836085 0.069494694
-0.032190066 0.13746054 -0.060874663 -0.06869443 0.047042917 -0.019533403 0.011189791 0.021417405
-0.06538623 0.06385302 0.051523894 0.07730566 0.08350543 0.007244601 -0.07262097 0.021077288
-0.047690645 -0.09642817 -0.09525895 0.09243738 -0.082165904 0.011620008 0.0501038 -0.054096848
-0.1034244 0.12421061 0.09131448 0.036998883 -0.023873122 -0.10045337 -0.09458798 0.066699944
-0.10077937 -0.012036931 0.06306305 -0.078407615 -0.034127913 0.083908945 -0.13783939 -0.057127718
-0.022217216 -0.011987871 -0.07932504 -0.05657279 -0.065107144 -0.106078155 0.09640389 -0.046980824
0.15487894 0.16792855 0.04693257 0.03501442 0.102196254 0.02262151 0.0037058953 0.16812204
0.1400176 -0.028391793 -0.010323434 -0.089576565 0.03955116 0.08252661 0.062386703 0.16790052
0.18705472 0.12656008 0.03818686 0.06556922 0.11482908 0.079395734 0.2443343 0.071069755
-0.015730452 0.1755337 0.12623927 0.17573828 0.019822827 -0.04602008 0.10296923 0.1817402
0.020472098 0.07337708 0.19767173 0.17548898 -0.039912894 0.0929148 0.09322322 0.09975209
0.061501216 -0.067378454 0.14576483 0.18880495 -0.055767126 0.14379919 0.04781767 0.11200191
0.09815856 0.07182648 -0.035723418 -0.079917185 0.055114966 0.13314228 -0.011331661 -0.017996546
-0.023632785 -0.06524546 0.19199817 0.14800093 0.2171137 0.11911354 -0.047649987 0.047976274
00000000: a4e8 2e3d 1af7 8a3c 5cc5 0c3e 31c6 3f3e
00000010: 1f9b 42bd 59ca 083e 87d9 033c 0630 f73d
00000020: 26e4 083e de5b 24bd f9b0 863c 15d0 1b3e
00000030: 2e72 243e e548 a6bc ec39 283e 7e86 2b3d
00000040: ac1e 113e 90c4 6fbc 618d 473e 4c37 0f3d
00000050: 4da5 b4bc 7b9d da3d 49ff 553e e8f3 0d3e
00000060: 558e 843d 3810 823c b3cd 453e b22b 9abc
00000070: 84bd 45bd e568 363d ce8d b9bd 6c18 c63d
00000080: 3c0d 103e 91f4 4b3e 294f da3d 0a6d 9c3d
00000090: 3038 df3d 8908 0e3e 433a 8abd 9908 8ebc
000000a0: bd05 3a3e 3c0b 1a3e 491f 833c 2a78 373e
000000b0: 9a71 063e 83ae ab3d ad98 fd3d 557b 30bd
000000c0: 00f8 1fbd 9e9f bbbc 5e7e e93d e0f6 eebc
000000d0: c87b f43d 0f28 523d 9ca1 8cbd a457 123e
000000e0: af31 1c3e f835 3fbd 05fa e23b f12e 72bd
000000f0: 2580 2c3e 810b 1e3d 9d95 48bd b1d4 ebbc
00000100: dfb5 8e3c f5c3 81bc 72c4 6bbd b01b b03d
00000110: c591 553d b954 a5ba 57d8 c83d 545c 153c
00000120: 2343 c8bc 90f3 d7bd 77a1 8f3d 3827 073e
00000130: 9007 72bc e0cd e43d 9ea5 4fbd 15f5 663c
00000140: f7da ee3c d917 533d 80d6 64bd adb2 0ebd
00000150: 8481 a63d 5e9a 743b 4a9b d9bd c8e2 9d3d
00000160: 5d4c 963d 61e9 543d 2f2f d7bd 3d3e 58bd
00000170: 7a84 75bd 548e 843d 5cdd d2bd b2aa a5bc
00000180: 69a6 93bd 42cd f9bd c0f9 a8bd c31c af3d
00000190: b8ca 7abd c0bb 6d3c 4598 f7bc f315 d8bc
000001a0: b82f eb3d 083f 1dbc 1e1f c4bc 9812 49bd
000001b0: aa3d a2bd 8e51 74bd 03f2 13bd 98ac 223d
000001c0: b15d 313d e42a d7bd 1eb0 b3bd efed d73d
000001d0: 70c6 bc3d 0405 cbbd 3e60 3ebd 2472 a9bc
000001e0: 5773 39bd 4b9f 153d 2f4b 89bd 0857 dbbd
000001f0: 329f 9cbd dd49 e03d b300 b83d 1870 9e3d
00000200: cac0 f7bd e6b7 c0bc b169 d03d 6891 cebd
00000210: cc42 c43d d0dd bfbd fbbe 213e ec57 ea3d
00000220: 16a6 c73d d530 f6bd 5d15 133e 56ae bf3d
00000230: 3148 273e 6113 c1bb 0716 463d 3c53 8e3d
00000240: bbd9 03bd 75c2 0c3e b657 79bd aaaf 8cbd
00000250: 13b0 403d 8404 a0bc 6355 373c 8e73 af3c
00000260: 37e9 85bd 5fc5 823d b80a 533d 6e52 9e3d
00000270: e504 ab3d 1e64 ed3b 4eba 94bd 47aa ac3c
00000280: 4457 43bd 227c c5bd 2017 c3bd cf4f bd3d
00000290: 9946 a8bd d961 3e3c a439 4d3d a894 5dbd
000002a0: 2cd0 d3bd 2262 fe3d 1603 bb3d 248c 173d
000002b0: 9191 c3bc 7fba cdbd 58b7 c1bd fb99 883d
000002c0: 6a65 cebd 8c36 45bc 3327 813d 2c94 a0bd
000002d0: b6c9 0bbd 74d8 ab3d c525 0dbe c1fe 69bd
000002e0: e100 b6bc c668 44bc 2b75 a2bd dfb8 67bd
000002f0: e556 85bd 813f d9bd 676f c53d f76e 40bd
00000300: 9698 1e3e 76f5 2b3e 5e3c 403d 486b 0f3d
00000310: 454c d13d bf50 b93c 9bde 723b 2f28 2c3e
00000320: c660 0f3e e895 e8bc 9f23 29bc eb73 b7bd
00000330: 6600 223d b603 a93d 3389 7f3d 1dee 2b3e
00000340: 468b 3f3e f798 013e d369 1c3d 2849 863d
00000350: 822b eb3d 3b9a a23d c532 7a3e 058d 913d
00000360: 26dd 80bc 1bbf 333e de44 013e bcf4 333e
00000370: 7b63 a23c 8d7f 3cbd 88e1 d23d 1a1a 3a3e
00000380: 1ab5 a73c b946 963d 756a 4a3e 62b3 333e
00000390: b47b 23bd 1d4a be3d d1eb be3d d34a cc3d
000003a0: b3e8 7b3d b7fd 89bd 6043 153e 1656 413e
000003b0: 126c 64bd 1840 133e 76dc 433d 4261 e53d
000003c0: 5b07 c93d c319 933d b852 12bd 9fab a3bd
000003d0: 3bc0 613d 7356 083e 6ea8 39bc 7e6d 93bc
000003e0: 8b99 c1bc 699f 85bd 2b9b 443e 8e8d 173e
000003f0: 0e53 5e3e cdf1 f33d a22c 43bd c582 443d
