LSTM/models/sensor_data_3_pm25_lstm_model.pth (torch, 206060 bytes, 9 tensors)

lstm.weight_ih_l0 f4 [256, 1]
00000000: 2ffc 643e e8d3 9abd ca03 42bd 9193 333d
00000010: b6e1 4abe cfe2 2f3e 3d7b f53c d4c7 283e
00000020: daab 10bd 781b fc3d 9d73 363d 3635 573b
00000030: 3d9d cdbc 1b36 3e3e 1b43 6b3e 43dd c03d
00000040: c54c 29be db25 cb3d e1d7 073e 8bf5 cf3d
00000050: 98a9 873e 2b52 05be ea0e 2f3d 797f d8bc
00000060: 8856 533e 21fb 4e3d 28a4 663d 195c 32bd
00000070: 8eba 3f39 1ee8 523d b7c8 b3bb 0c91 47be
00000080: aad8 9abd 4a9b 083e 69d8 ae3d a73b 53be
00000090: be37 683e c306 893d 011a c93d 91b4 2abd
000000a0: cc7e 3f3d 6af5 7e3e 72b7 653e 571c 6e3e
000000b0: 60e2 db3d 7d51 5d3e f408 c93d 83d7 263e
000000c0: e46b 3bbe 3770 683d a1e8 cd3d 41c0 113e
000000d0: 27b4 02bc a89f 4fbe 444f 453e 63d6 72bc
000000e0: 6e2c 913d 896b 263e 3e86 833e 8787 85bd
000000f0: bbf4 2abe c5c5 623d d0a8 d2bd e925 113e
00000100: a992 9f3c cb7f f33d 1126 553c b4b4 fa3d
00000110: f209 52be 79a7 51bd 14bb 093e 5f1b acbc
00000120: 1e23 f83c dd22 8c3d 0a6d dd3c 4f03 69be
00000130: a0bc b4bd 7e4b 2b3b 6adc 1f3e 7d10 0a3e
00000140: 7b35 d6bd a4ad 2c3d 8a6e 5f3e 7e3c 2f3d
00000150: f892 a03d 3384 81bd 02d8 9dbd 51b0 babd
00000160: 27e7 113e e373 87bd dd83 62be dffb 193c
00000170: c61f f0bc 3ca4 46bd 9e9f 073c 491a 31be
00000180: 43ee 8ebe 5def 823d 85d6 59bd a64c 47be
00000190: 12d8 ddbd 4add d83d b9d1 e839 8eb7 fdbd
000001a0: c33d c73d 2746 d43d b7fe ee3d ee86 273c
000001b0: ed0f 72bd 8e5a 083d d978 8ebd a0f1 db3d
000001c0: fa38 8bbe f636 c6bd 675f 313e 0442 edbb
000001d0: c39f 583d 6ccc 343d c66a 203b a243 bd3d
000001e0: f817 153e 05a7 103e 5628 01bd 409e cf3c
000001f0: f570 29be ca6b 3d3d 7ade 24be e77b a53d
00000200: 033e 4bbe 01fd b6bd 657b 73be 3984 7a3e
00000210: 57bb de3d 876f 3f3e d31b 703e 76f3 25be
00000220: 4a89 773e 5997 633e 4450 54be 9e8f 423e
00000230: 6aad 8b3d 7034 0ebe fbc5 5ebe 6574 4dbe
00000240: 2d6a b73d f036 0fbe 1d44 383e e873 0abe
00000250: 8e03 07be 57e0 2cbe 8c69 1b3e 6985 49be
00000260: e0ef 193e 7020 34be d166 1abe d08c 73be
00000270: c071 613e d84b 6e3e 6e8b 773e c006 44be
00000280: 2bba 4bbe bc47 573e 69d0 483e ecf7 ee3c
00000290: 34e6 663e d8be a13d 2d83 6c3e 9c05 683e
000002a0: 4a11 433e 6d04 1dbe 17ea ed3d f5e6 66be
000002b0: 76c2 ffbd a94d 1a3e b417 82be 2c41 efbd
000002c0: 6271 78bd d94e 0e3e e1c9 42be ae20 edbd
000002d0: 29c2 fc3d c378 1d3e ce8b 64be 6312 8abd
000002e0: 1bfc 68be 544b 82be 802e 60be e611 ce3d
000002f0: 8866 05be f0ff 3d3e 9d54 15be 919c 453e
00000300: ed3b 243e 800e a1bc d727 443d 7ab7 453e
00000310: 7d14 7dbe 6f3c 503e 64bb 453e de25 f4bc
00000320: 4276 a63d 7a16 623e e64d fd3d 587a d83d
00000330: 19d2 803d a00d 153e e14e 813d afa0 193e
00000340: 5524 b1bd 8398 a23d a9ec c53d a7fe f73d
00000350: e7fd 833e 6579 4bbe 84e8 693d aa02 aabd
00000360: ed80 963d 41e4 eebb a877 8d3e 02b9 a63c
00000370: 705a 2e3e 7ba3 5f3e 0467 34bd 67f3 f6bd
00000380: 3569 13be 82f0 f03c 96ed 6838 a22d 93bd
00000390: 07bc a73d 5484 6cbd 47cd 093e 2511 5fbe
000003a0: b114 d53d 9d54 873e 8ae3 973d 316c 573d
000003b0: 43e7 1a3d 8e35 143e 66e1 36bd ee25 1b3e
000003c0: 2e58 0ebe f921 43be d380 c13d 4c4a 11bd
000003d0: 89e8 95bd 9650 2ebe 4e90 703c 6a6d a9bc
000003e0: c592 683e c358 143e c06b 993d 04eb 6cbd
000003f0: eb84 79be 4df5 223e 0629 53be 06f0 0e3e
0.22361825 -0.07559949 -0.047366895 0.043841902 -0.19812664 0.17176364 0.029965991 0.16482478
-0.03532014 0.12309927 0.04454385 0.0032838113 -0.025099391 0.18575327 0.22974817 0.09417202
-0.16533192 0.0991933 0.13265945 0.101542555 0.26496577 -0.13019626 0.042738833 -0.026427971
0.20638478 0.050532464 0.056308895 -0.043544862 0.00018284676 0.051490895 -0.0054865736 -0.19488925
-0.07560857 0.13340488 0.08537371 -0.20628224 0.22677514 0.06690743 0.09819413 -0.041676108
0.046751782 0.24898306 0.2243326 0.23252998 0.10736537 0.21613117 0.09816161 0.16293149
-0.18302876 0.05674764 0.10054136 0.14233495 -0.007977522 -0.20275748 0.19268519 -0.014821622
0.070885524 0.16251959 0.25688356 -0.065199904 -0.1669492 0.05536439 -0.10286105 0.14174618
0.019479113 0.11889609 0.013009564 0.12241498 -0.20511606 -0.051185105 0.13450271 -0.021009145
0.030290183 0.06842587 0.027029533 -0.22755168 -0.0882504 0.0026137526 0.15611425 0.13482852
-0.10459419 0.042157784 0.21819511 0.0427823 0.07840532 -0.06324043 -0.07707216 -0.09115661
0.14248334 -0.066139005 -0.22120614 0.00939843 -0.029312026 -0.04849647 0.008277802 -0.17295183
-0.27916154 0.06393311 -0.053183097 -0.19462833 -0.10832228 0.105890825 0.00044406744 -0.12388526
0.09728577 0.10364943 0.11669677 0.010225041 -0.05909722 0.033289485 -0.069566436 0.10739446
-0.27191907 -0.09678452 0.1732155 -0.0072405357 0.052886736 0.044140264 0.0024477704 0.092414156
0.14559925 0.14126213 -0.031532608 0.025344014 -0.16546996 0.046245374 -0.16100493 0.08080273
-0.19847874 -0.089349754 -0.2377754 0.24464501 0.10875576 0.18694888 0.23448114 -0.16206154
0.24173465 0.22225703 -0.20733744 0.19000098 0.068201855 -0.13887191 -0.21755211 -0.20063932
0.08955798 -0.139858 0.17994733 -0.13520777 -0.1318495 -0.16882454 0.15176982 -0.19679798
0.15032911 -0.17590499 -0.15078284 -0.23784184 0.22016048 0.2327112 0.24174282 -0.191432
-0.19895236 0.21023458 0.19610752 0.029170953 0.22548753 0.07897729 0.23096915 0.2265839
0.19049564 -0.1533372 0.11616915 -0.2254904 -0.12488262 0.15068687 -0.2540871 -0.116823524
-0.060655005 0.13897265 -0.19022323 -0.11578499 0.123417206 0.15378098 -0.22318956 -0.06741788
-0.2275242 -0.25448096 -0.21892738 0.100620076 -0.13027394 0.18554664 -0.14583059 0.19298007
0.16038485 -0.019660234 0.047889557 0.19308272 -0.24714847 0.20335554 0.19309765 -0.029803213
0.08128025 0.22078887 0.123683736 0.1057021 0.06290073 0.14555979 0.06313873 0.15002702
-0.08649508 0.079392456 0.0966428 0.12109118 0.2577965 -0.19870527 0.05710651 -0.083012894
0.073488094 -0.0072903936 0.27630353 0.02035189 0.17026687 0.21839707 -0.044043556 -0.12058144
-0.14395602 0.029411558 5.553438e-05 -0.07186438 0.0819016 -0.057743385 0.13457213 -0.21783884
0.10404337 0.26431742 0.074164465 0.052593414 0.037818205 0.14473554 -0.04464855 0.15151188
-0.13900825 -0.19055928 0.094483994 -0.035471246 -0.07319743 -0.17022929 0.014682842 -0.020682056
0.22712238 0.14486985 0.07491255 -0.057841316 -0.2436711 0.15913887 -0.20621118 0.13958749

lstm.weight_hh_l0 f4 [256, 64]
00000000: 23a8 f1bd 573c 123e 8caf a93c 398e 35bd
00000010: 86f8 f13c bc16 053e 60de bdbd 1266 96bd
00000020: a69d 3bbd 61fd 853d ddb3 cb3d a0ba 7bbc
00000030: adbb 1cbd c252 0cbe 6401 9b3d de6e 99bc
00000040: e073 7fbd 276a cc3d 8e12 6a3c de49 803d
00000050: de2f b33c 4074 21bd af7d b73d 1782 c53d
00000060: eea4 a2bc 8c32 1dbe 292c e8bd d279 133e
00000070: 8f4c 963d cc74 cf3c 5dcb d2bd 1580 e23c
00000080: 1636 81bd 8292 a03c 7d98 17be c203 ffbd
00000090: c7b6 5bbc adcb e4bb 3cc4 f4bd 32da 2cbe
000000a0: bd96 163c 9153 d2bd 3ee6 45bd 10e1 2bbd
000000b0: 4905 b7bd 8efa b3bb adcd 93bb 478b 1ebe
000000c0: b16f cc3d e2df 95bc 6db6 de3d b99f 80bd
000000d0: ee08 5ebd 4163 03bc 9019 b9bd 367c 3bbd
000000e0: 1d38 9bbd e5bf cb3d 1620 ec3d 1b3d 023d
000000f0: c8eb 55bc 92e6 003e 4bce 053e 45e7 413c
00000100: cdf6 19be 1019 873d af46 abbd 0c82 f83c
00000110: 42a0 bcbd 2bed 003e 2767 f53b 56c5 2bbe
00000120: 3e2c 0c3b 0f28 113e fc31 fabd 2753 493e
00000130: d5e7 47bd 8f29 b4bd 04b9 52be aae2 4bbe
00000140: d4d6 cc3d 76fa 23bd 6030 223e 6656 23be
00000150: ada6 38be c652 b939 6924 8d3b 5c28 c0bd
00000160: 81aa 763d ff86 05bd b3be 61be ec36 c2bd
00000170: 8c70 b13b 35fa 463e 4e67 343e 352d 9fbd
00000180: d28e 8b3c 7540 fbbb ef6e a7bc 7202 42bd
00000190: 3766 e33d fc60 64bd 868d 193c 7a63 31bd
000001a0: fa92 a63d 8e92 1abe c76d 3b3e 6b78 21be
000001b0: 6419 503d 65ab 20bd 7fc0 adbd 43dc f5bd
000001c0: bc40 943c 27a9 6d3e 492a 01be 9f87 9ebd
000001d0: 5fe0 d2bd 9a31 bc3d aa7c e2bd c7bf 91bc
000001e0: 4fbe 21ba 6e8f 453b 1c4e bebd 6fd6 dabd
000001f0: 50ee 8bbd 74e3 833c ee69 3cbe ca99 423e
00000200: ebf7 16be f2f9 d93d 2231 ba3d 72c9 8f3c
00000210: 1b2c f7bd fe22 0b3e 7f0d 0ebd 8283 34bd
00000220: 36f4 b13d 1f2a d43d 22ba 0ebd 1ad8 88bb
00000230: f326 b63b 8639 9b3d 6557 ecbd c6fc b1bd
00000240: 9917 f9bd a602 b23d e97d ac3d 3b88 6bbd
00000250: 72f4 a0bd d683 283c a045 1b3e 58e6 203e
00000260: ebe3 113e b365 46be d016 70bd cfa5 52bc
00000270: 5cd3 533e aec1 e4bc 716c 8a3d 1b46 033e
00000280: 61ae af3d 3ff2 90bd 635a f4bd 6920 91bd
00000290: 519a 9d3d a570 54bd 432c ecbc 6739 9abd
000002a0: 1ac8 ccbd c5f9 10be 8382 0b3e 484f f3bc
000002b0: 7031 e9bd 3312 9b3d 8c91 3ebd 9b26 33be
000002c0: 224a 9d3c 108b 0a3d 12b3 16be 8748 3dbe
000002d0: 6e0c 3ebe d4ea 01be 0fd3 c6bb 9575 563e
000002e0: c282 5cbe 2fcc b2bd 3c76 15bd 0aac 42be
000002f0: bb1e 063d b33f cb3c 099b c73c 5c4f 513d
00000300: 38cd debd 104a 3f3d 03cb 9b3d 4779 223e
00000310: 22b0 f3bd 3275 76bd 324e fb3c 29f1 f63a
00000320: ed37 a6bd 5733 5fbd 049c 47bc a684 30be
00000330: d2b2 893d f49f 083d e578 fa3b 7b9d 643d
00000340: 0e2f fa3b ed5e 103e 531c c33d 5ef7 bb3d
00000350: 417b acbd c814 ac3c 974d 0cbd ab76 113d
00000360: 6a38 0c3e 7b8a 0cbe c1a6 e4bd cf53 e13d
00000370: 9247 5a3d 1cdf 203e 3408 123d 4250 0b3e
00000380: 4499 493e a5d3 343d 6e25 20be be72 ee3b
00000390: b159 85bd 2e8a 273d db15 f0bd 8c51 02bd
000003a0: 139d 8f3d 0ad2 39be 7788 f838 4e9f 2b3d
000003b0: 402e 38be f8b1 78bd 0853 ca3d 1aec 05be
000003c0: 8d68 253e 4822 2e3d b60e 1ebd f88b 1bbe
000003d0: 04e4 3fbe b327 08be 1810 36bc 307f 2c3d
000003e0: bffe 18bd 556f 483d 3b6a abbd fd93 13be
000003f0: a5ee 123e dbca 87bc 189d 6f3d 1bf0 863d
-0.11799648 0.1428083 0.02071359 -0.044325087 0.02953745 0.12996954 -0.0927093 -0.07343687
-0.045804642 0.06542469 0.099464156 -0.015364319 -0.03826492 -0.13703445 0.075686246 -0.018729623
-0.062366366 0.099811845 0.01428665 0.06264089 0.02187341 -0.039417505 0.08959519 0.09643953
-0.019854035 -0.15351313 -0.11336548 0.1440194 0.07338821 0.025324248 -0.10292695 0.027648965
-0.06309144 0.01960111 -0.14804263 -0.124518886 -0.013410277 -0.006982288 -0.11951491 -0.1688011
0.009191212 -0.10269845 -0.04831528 -0.041962683 -0.08936555 -0.005492515 -0.0045106024 -0.15482818
0.09982241 -0.018295232 0.10874639 -0.06280465 -0.054207735 -0.008019269 -0.09038079 -0.045772754
-0.07579062 0.0994871 0.115295574 0.031796556 -0.013056703 0.12587956 0.13066976 0.011834924
-0.15035553 0.06596577 -0.08363091 0.030335449 -0.09210254 0.12590472 0.0074891034 -0.16774496
0.0021388675 0.14175437 -0.12216565 0.19660626 -0.048805077 -0.08796989 -0.2057839 -0.19910684
0.10001913 -0.04003378 0.15838766 -0.15950927 -0.18032332 0.0003534762 0.004307319 -0.09382698
0.0602212 -0.032599445 -0.22045402 -0.09483132 0.005415028 0.19431384 0.17617533 -0.077722944
0.017035875 -0.007667596 -0.02043864 -0.047365613 0.1110348 -0.055756554 0.009372121 -0.04330776
0.08133502 -0.15094969 0.18303595 -0.15768592 0.050805464 -0.039225955 -0.08483981 -0.12004902
0.018097274 0.23209058 -0.12613787 -0.077407114 -0.10296702 0.09189148 -0.11058934 -0.017791642
-0.0006170021 0.0030145305 -0.09292242 -0.10685431 -0.06832564 0.016099669 -0.18399784 0.19003978
-0.1474301 0.106433764 0.090914026 0.017552111 -0.12068959 0.13587567 -0.03468084 -0.044070728
0.08689158 0.103595965 -0.03484548 -0.004176152 0.0055588423 0.07579331 -0.11540107 -0.08690791
-0.12162704 0.086919114 0.08422453 -0.057502966 -0.07859124 0.010285338 0.15163279 0.15712869
0.142471 -0.19374733 -0.058615506 -0.012856915 0.20686096 -0.027924385 0.06758965 0.12819712
0.08578182 -0.07077455 -0.119313024 -0.0708626 0.07695449 -0.05186524 -0.0288297 -0.0753048
-0.09999104 -0.1415778 0.13624005 -0.02970089 -0.113863826 0.075718306 -0.046525523 -0.17495196
0.019200388 0.033824027 -0.14716747 -0.18484698 -0.18559429 -0.12687236 -0.0060676406 0.20943291
-0.21534255 -0.08730351 -0.03648971 -0.1901094 0.03274415 0.024810648 0.024365919 0.051101074
-0.10878986 0.04670149 0.07607081 0.15866576 -0.11898829 -0.06017036 0.030676935 0.0018840182
-0.08116136 -0.05449232 -0.012183193 -0.17238101 0.067235604 0.03335567 0.0076438063 0.055814248
0.007635004 0.14098711 0.09526887 0.09178041 -0.08421946 0.021006003 -0.034253683 0.03551356
0.13693395 -0.13724701 -0.11164618 0.11002313 0.05329091 0.1571011 0.035652354 0.13604835
0.19687372 0.044147152 -0.15639278 0.007276862 -0.06511248 0.040903263 -0.117229186 -0.03181605
0.070123814 -0.1814653 0.0001185098 0.04189997 -0.17986393 -0.0607166 0.09879118 -0.13078347
0.16153164 0.042513162 -0.03858825 -0.15190113 -0.18739325 -0.13296394 -0.0111122355 0.042113483
-0.03735232 0.0489343 -0.08369871 -0.14411922 0.14348848 -0.016576221 0.058499426 0.06588765

lstm.bias_ih_l0 f4 [256]
00000000: af5d 123c 6485 3a3d 5ac1 673e b004 6e3d
00000010: 4c4b 50bb b9c6 003e 47db 2c3e c73a 193e
00000020: 52aa 803e 6434 003e 20e3 7c3e 57d8 b23d
00000030: 6721 8bbc 7cd0 9e3d bb39 363e 811e 6c3e
00000040: 086a d0bc daff 503e 597a 3b3e 6cd7 483d
00000050: d515 873d 3b7c ae3d 9395 5f3e f036 8d3e
00000060: 8103 013e 4390 4f3e 2bb0 dd3d 9088 283e
00000070: 3771 203c 273b 633e 0c46 073d 8abc 5b3d
00000080: c804 0f3e 7e14 d73d b56d 9f3e de56 1d3e
00000090: 1814 7b3e d9de cfbd 2696 5f3e 2548 773e
000000a0: a275 0c3e bb63 253e 372e a63d 9b9d a93d
000000b0: 4f92 b9bc f4c8 143e ddb1 393e 4256 21bd
000000c0: a524 31bd 60b7 193e cc8b f63d 923e c03b
000000d0: 9db2 143e 93dc 503d c1dc 653e 761b 8e3d
000000e0: 864e 143e 12e8 883d 0d2d 5d3e f113 143e
000000f0: b0c8 5c3d f724 5c3e 80d2 743e 4b79 0c3e
00000100: b1e1 0e3d 4f98 1fbe a948 5abd 3a0a 91bd
00000110: 0803 33bc aae6 18bc 06a3 46bd d434 83bd
00000120: 3064 b93b d901 97bd 1d30 dc3c e4ef a3bc
00000130: b57e 3f3d 4611 94bd 6ebd 37bd a992 b73d
00000140: ce45 a4bb a481 3cbd ca92 33bd 2d51 8fbd
00000150: 5e0a f8bd 9cd8 093c 1b2f 0a3c 4e90 cdbc
00000160: 264f ddbd dc05 d73d a56c 943d df1b a8bd
00000170: 9766 c8bd 691f b1bb 3747 4abd 1abf d23d
00000180: 90f5 ef3d 8248 b8bc 43d1 a4bc e07f c33d
00000190: ba69 4c3c aa1a 473d 67aa 6bbd afe2 5e3d
000001a0: aa9e f23d 0172 2abd 2cdb 0dbe 7e30 97bc
000001b0: f60a fcbc b483 7a3d b832 eabd d623 a1bd
000001c0: 5133 89bc 2e40 dd3d 0487 2dbd 39e0 663c
000001d0: f0fe aabd 1ffa ed3c 2443 ebbd 61be a43d
000001e0: 2dcb 043d ad0e eb3d 56ca b5bd 9407 ecbd
000001f0: 1873 ffbc f1a3 f83a 3db7 a53d 2de7 0dbd
00000200: faf5 0bbe fa95 823d e9df 92bb ec88 e33c
00000210: 3fa9 29bd e47c 303e fc2c 05bd 9022 e2bd
00000220: 800a aa3b 980f ca3d a46a c63d 8a1f e5bd
00000230: dbe6 373e 3a94 2a3d dfd2 f1bd 69d1 963c
00000240: a3a7 1dbe d86b a4bd 9a94 b3bc e75c 8bbd
00000250: fd0a 42be edf7 003e 9ef2 563d 92ab 0d3e
00000260: febf 8dbd d362 3dbe d528 b7bb c41d 953d
00000270: d207 3a3d a38c 023e cbaa d5bd 01ed 0f3e
00000280: 58d7 163e d1f9 373d 9a32 35bd c20d 2abe
00000290: 2c5c cf3d 0a6a 513d 7e4a 80bd 38ce d0bd
000002a0: 63d8 36bd b9df 6dbe 3e1b 253e dd02 913d
000002b0: b43a 3abe 645e fb3c 6227 9d3d e334 a9bc
000002c0: 6b5c 0b3e 9ac7 ee3c 998c 84ba 104a 08be
000002d0: 48dd 65bd 766e d1bd c435 d1bd 890c a13d
000002e0: c479 99bd 2125 e23c 7099 593d c802 83bc
000002f0: 2684 243d 57b8 663d 3988 933d 9468 013e
00000300: 27ce 133e 8186 c73d f2b2 4c3e 2696 493e
00000310: 6431 2b3e 1771 0e3d cc32 183e 486e 563e
00000320: 8c8a 673e e1a2 343d 444d ff3d 427e d53d
00000330: 122d 143e 42c9 1d3d e88b 5c3e ed30 573e
00000340: ab3e d83d 5f0d 6f3d 74c9 4a3e f04a 4c3d
00000350: 817f 2e3e 8105 363e 1c86 9c3d 34dd 353d
00000360: 01fa 143e d036 363e 638b 833e 141a d03b
00000370: e8d9 8f3d a0ed 233e 53b1 5b3e e6d7 1b3e
00000380: f353 9b3e dea5 d23d ab06 233e 7946 1c3e
00000390: e943 613e 76fa 603d fa63 c53d 2f3a 603d
000003a0: 5dca 4f3d 815a a53d d495 f93d d942 173e
000003b0: f7ee 35bc 3b7a 143e ad42 e33d c870 98bc
000003c0: 4112 f1bc 1376 c33d 22fa 543e 69bf ce3d
000003d0: 9b40 ba3d 6fe2 323e 7902 843d fdd4 1dbd
000003e0: ab06 ba3d e06d 313e 2d1e 833e 36ab 043e
000003f0: 2a09 ce3d 5126 0b3e 34d8 0c3e 628e 393e
0.008933469 0.045537367 0.22632352 0.05810994 -0.0031783162 0.12575807 0.16880523 0.14963828
0.25129944 0.12519985 0.24696016 0.0873267 -0.0169837 0.07754609 0.1779546 0.23058511
-0.025441185 0.204101 0.1830839 0.049033567 0.06595961 0.08519789 0.21834402 0.27580976
0.12598993 0.20269875 0.10824617 0.16458344 0.0097926175 0.22190534 0.033025786 0.0536466
0.13966668 0.105019554 0.31138387 0.15365168 0.24519384 -0.10149927 0.21834621 0.24148615
0.13716748 0.16151325 0.081142835 0.08282014 -0.022652773 0.14529783 0.18134256 -0.039388902
-0.043247838 0.15011358 0.12038383 0.005866834 0.1452126 0.050991606 0.22447492 0.069388315
0.1448308 0.06684889 0.21599217 0.14460732 0.053902328 0.21498476 0.23908424 0.13718145
0.034883205 -0.15585445 -0.05329195 -0.07082029 -0.010926016 -0.009332338 -0.048495315 -0.064065605
0.0056576952 -0.07373399 0.026878411 -0.02001185 0.046751697 -0.07229857 -0.04485839 0.0896352
-0.005013204 -0.046022072 -0.04384116 -0.06997905 -0.121113524 0.00841346 0.008434082 -0.025093224
-0.10806112 0.104991645 0.07247285 -0.08208441 -0.097851925 -0.0054053557 -0.049384322 0.10290356
0.11716759 -0.022495512 -0.020119315 0.095458746 0.012476379 0.048609413 -0.057535555 0.0544154
0.11846669 -0.04161263 -0.13853139 -0.01845574 -0.030766945 0.06116076 -0.11435455 -0.07868163
-0.016748102 0.10803257 -0.04236509 0.014091545 -0.08349407 0.029049931 -0.114874154 0.080441244
0.032420326 0.114774086 -0.08876483 -0.11524883 -0.03118281 0.0018969757 0.080915906 -0.034644295
-0.13668051 0.06376262 -0.0044822586 0.02777525 -0.04142117 0.17235142 -0.032513604 -0.110417485
0.00518924 0.098662555 0.09688309 -0.11187656 0.17959158 0.041645266 -0.118077986 0.018410401
-0.1539598 -0.08028382 -0.021921445 -0.06804829 -0.18949504 0.12594576 0.05247747 0.1383498
-0.06921385 -0.1849473 -0.0055895844 0.07281068 0.045417614 0.12748961 -0.10432967 0.14055254
0.14730585 0.044915978 -0.04423771 -0.1660681 0.10125002 0.051126517 -0.06264208 -0.10195583
-0.044639956 -0.23229875 0.16123673 0.07080624 -0.18186456 0.030684657 0.07673527 -0.020655101
0.13609473 0.029147912 -0.0010112702 -0.13309503 -0.056119233 -0.10226147 -0.10215333 0.07863719
-0.07493928 0.027605595 0.053124845 -0.015992537 0.04016509 0.056328144 0.07203717 0.1263755
0.1443411 0.097424515 0.19990137 0.19686183 0.1671806 0.03477582 0.14863127 0.20940506
0.22611445 0.044100646 0.12465909 0.104244724 0.14470318 0.038522013 0.21537745 0.21014757
0.10558828 0.05836236 0.19803411 0.049876153 0.17040826 0.17775537 0.07642767 0.04440041
0.14548494 0.17794347 0.2569228 0.006350765 0.07023984 0.16008615 0.21454363 0.15219077
0.30337486 0.10285543 0.15920512 0.15261258 0.21998562 0.05492636 0.0963821 0.05474299
0.050730098 0.08073903 0.121867806 0.14771594 -0.011104337 0.14499752 0.11096702 -0.018608466
-0.02942765 0.09544005 0.20798543 0.10095102 0.09094354 0.1746919 0.06445784 -0.0385332
0.09083303 0.1732707 0.2560896 0.12955937 0.10060342 0.13588835 0.1375435 0.18120721

lstm.bias_hh_l0 f4 [256]
00000000: a9b9 603e 74ed 453d a33a 573d 9d20 153e
00000010: df52 803b 021e 523d 3766 943d d76f 843d
00000020: 7cc9 c83d 107c a93d a760 533e 7aea 6d3e
00000030: 9ca0 f33d ccd2 073e 7927 6a3e 5859 943d
00000040: 61ea 35bd 5f38 6f3e 00f0 163e 36b0 823e
00000050: 363b 05bc b919 753e 5853 263e a73f 8e3d
00000060: 5210 ba3d 332f 393e cd1f ec3d c920 5b3e
00000070: 9e17 153e 1e02 c03d 66ab 7e3d fa04 6e3e
00000080: 65d0 833e ecee 333e faa0 9d3d 20f6 3c3e
00000090: 05a5 be3d f3a7 d13b 2346 ae3d 373a 643e
000000a0: 7311 923d 3e23 483d ab16 4d3d 0b12 cc3d
000000b0: 9532 393d 7f1e f03d d7bb 7b3e 7f0a db3d
000000c0: f258 9c3d 478c 613e 0243 103e 7a52 38bd
000000d0: 1fdb 463d 3e5c 0f3e 8dff c8bb d83a 43bd
000000e0: 642d 75bc 95de 403e b5b0 913e f9b6 3d3d
000000f0: 4966 723e 94fc 3b3e 1e0d 4b3e 0139 0d3e
00000100: edb6 063e 2c6a 96bd e069 f8bd 1039 e83d
00000110: 07ea 4cbc ee73 da3d 9170 043d b123 c5bd
00000120: 0b8a dabd 45bc ad3d 3aef 183b b62e 5fbd
00000130: 7180 183e 861c 8c3d 26a7 0f3d 3215 553d
00000140: f211 8bbd 5d26 1ebe e9a2 f0bb 7466 293c
00000150: b892 b6bd f485 76bc fb73 e43d 40a9 433c
00000160: 1efe b53d bbe3 153e 4444 f43c 7ff5 37bc
00000170: cbb4 b83c 4de6 683d b503 0abd 48e6 113e
00000180: 1257 c83c a1f1 f6bd a744 d9bc 7c78 0f3e
00000190: f5fa fdbd 89f2 aebc a987 2ebd 81d4 b13d
000001a0: cc7c 92bd d23e 8c3d b230 7e3d c06f 34bd
000001b0: 2252 613d ef39 62bd a621 fe3c 4877 a8bd
000001c0: 7b30 513d ce1a 86bd f1bb 00be 8608 b53d
000001d0: ea3c 04be f83f b8bd 8a4b 3d3d 990c 553d
000001e0: 7200 f83d 93d8 acbd 8fc5 e4bd 7e62 dc3d
000001f0: 9105 94bb ae5a 1bbd 0646 5f3d 8919 093e
00000200: 966d 40be 2d30 8b3d f723 d33d fec0 0f3b
00000210: 52c0 f6bd 5d36 0e3d 727f a93c ee5f a13d
00000220: f798 92bd 1c6c 66bd 7214 55bd 0fcf 0ebc
00000230: fbcb 2a3e 7b07 febc 7da3 ef3d e8c8 84bd
00000240: db25 30bd b0f3 af3d f947 6d3d 4970 a93d
00000250: 5307 07be f496 9b3b 8ad2 4a3d f964 93bc
00000260: 671a ad3d 53d4 95bd 7435 cdbd 0448 883d
00000270: 2251 ce3c 79cb 58bd f619 0b3d d665 b6bc
00000280: 02b8 103e 5262 c8ba 7f13 a4bc 5c5b b6bd
00000290: d21b 5abb 7b7f cabd 125f 89bd 540b 08be
000002a0: 7bf6 89bd 0c2b 24be b91a 43bd c134 fabd
000002b0: 72b3 e8bd 1ed8 f03d 86e1 ee3d 262a 05be
000002c0: 2800 173e 2d78 e6bd 6e77 703b 7303 2dbe
000002d0: f530 cabc 9246 b6bd fe53 a83d 25f8 c3bc
000002e0: 36b1 12bd f7f0 983c 9092 8abd 2814 c9bc
000002f0: 01a6 303e 0fdd 17bd 31ed d53d 3baf 303e
00000300: 46e0 5d3d ec99 853e fd10 1b3e 7c05 f33d
00000310: d729 813d eedd 0ebd 720f 473e ddd3 0a3e
00000320: 832a 513e f572 623d 4a18 253e 6fce 9e3e
00000330: 4acf b9bc 1322 583e 18f0 493e b01a 433e
00000340: 7049 063e f3a8 693e 138f 163d 3100 2b3e
00000350: 3bac 3b3e 6bbb c63d 72ee 683e 28d3 843e
00000360: c609 c53d d05f 9e3d a3fb 503e 83c0 7e3e
00000370: a33e e43c c01c 433e 37ae ee3d 786f ba3d
00000380: c050 943e 7f29 0a3e 5992 8a3e 14c2 633e
00000390: 40dd 6e3e bdf5 79bd 80d4 c83d 7b27 693e
000003a0: fc9e e13d b32f cd3d 86ca a63d 6b08 ee3d
000003b0: eb2d fc3d 305f 9d3d 4ec5 dd3d 1f3d 933d
000003c0: f695 1a3e 92e8 903c 266e e23b e6de b23c
000003d0: 0fac ef3d e856 ae3a 14b8 323e b3ee 083e
000003e0: 39f3 593e f8cf 893d f221 a93d eac2 fa3c
000003f0: 39f3 0f3e eb7e 1c3e 364b 8e3c 5045 453d
0.21945824 0.048322156 0.052546155 0.14563222 0.003916129 0.05129815 0.072460584 0.06466644
0.09804055 0.08275616 0.20642339 0.23233977 0.11895868 0.13264006 0.2286662 0.072436035
-0.044412974 0.23361348 0.1473999 0.25525063 -0.008131793 0.23935594 0.1624273 0.069457345
0.09085144 0.18084411 0.11529503 0.21399225 0.1455979 0.09375404 0.062175177 0.23244086
0.2574493 0.1757161 0.076967195 0.18453264 0.09308819 0.006398195 0.08509471 0.22287832
0.071322344 0.048861735 0.050070446 0.09964379 0.045214254 0.11724567 0.24583374 0.10695361
0.076341525 0.22026168 0.14088061 -0.04500053 0.048548814 0.14000031 -0.0061339797 -0.04766354
-0.014964435 0.18834908 0.2845513 0.046317074 0.23671831 0.1835807 0.19829223 0.13791277
0.13155718 -0.073444694 -0.12129569 0.11339009 -0.012506968 0.10666643 0.032333914 -0.09625948
-0.10670861 0.08483175 0.002333595 -0.054487906 0.14892747 0.06841378 0.035071515 0.052022167
-0.06790532 -0.15444322 -0.007343639 0.010339368 -0.08914703 -0.015046585 0.11154934 0.011942208
0.0888636 0.14637654 0.029817708 -0.011227964 0.022547146 0.056860257 -0.03369494 0.14248002
0.02445558 -0.12057806 -0.026521994 0.14010805 -0.12401382 -0.021355884 -0.042609844 0.0868311
-0.07152709 0.068479195 0.06205816 -0.044051886 0.05500997 -0.05523103 0.031021904 -0.08225876
0.051071625 -0.06548081 -0.12571694 0.08839516 -0.12913862 -0.08996576 0.046214618 0.052013967
0.1210946 -0.08439746 -0.11170494 0.107609734 -0.004517265 -0.037928276 0.05451014 0.13388647
-0.18791804 0.06796298 0.10309594 0.00219351 -0.12048401 0.034719814 0.020690653 0.07879625
-0.07158082 -0.056255445 -0.05202145 -0.008716359 0.16679375 -0.031009426 0.11701105 -0.06483632
-0.04300485 0.085914016 0.057929967 0.0827337 -0.13186388 0.0047482196 0.049517192 -0.017992483
0.084523015 -0.07315888 -0.10019961 0.06654361 0.025185172 -0.05292842 0.033960305 -0.022265356
0.14132693 -0.0015288091 -0.020028828 -0.08904144 -0.0033280742 -0.09887596 -0.06707586 -0.13285571
-0.067364655 -0.16032046 -0.047632907 -0.12217093 -0.113623515 0.11759971 0.11664109 -0.1300436
0.14746153 -0.112533905 0.003669228 -0.16895847 -0.024681548 -0.08900179 0.08219145 -0.023922035
-0.035813533 0.018669588 -0.06766236 -0.024545744 0.17250825 -0.037076052 0.10445631 0.17254345
0.054168962 0.26093996 0.151432 0.118662804 0.063068084 -0.034879617 0.19439486 0.13557382
0.20426373 0.055285413 0.16122547 0.3101687 -0.022681851 0.21106748 0.19720495 0.19053149
0.13113952 0.22818355 0.03675754 0.16699292 0.1832742 0.09703716 0.2274721 0.2594235
0.09621005 0.077331185 0.20408492 0.24878125 0.027861899 0.19053936 0.116543226 0.09103292
0.28967857 0.13492392 0.2706478 0.22242004 0.23326588 -0.06102537 0.09806156 0.22768967
0.11016652 0.100188635 0.08144097 0.11622699 0.12313446 0.07684171 0.108286485 0.07189392
0.15096268 0.017689023 0.0069101034 0.021834802 0.117027394 0.0013301047 0.17453033 0.13372307
0.21284188 0.0672912 0.08258428 0.03061052 0.14057626 0.1528279 0.017369848 0.048161805

lstm.weight_ih_l1 f4 [256, 64]
00000000: 17f6 04be 6a3e 3f3e da74 98bd 147d 4a3e
00000010: 77eb bcbe 1c4c a93e 94dc 203e 8840 61be
00000020: 4544 b2bd acab b13d 5109 8abe 3cd9 25be
00000030: c356 183e 479a debd c0cd acbd 113a ffbd
00000040: 3268 94be 19af b3bd 8aaf 433e 5473 e5bd
00000050: d219 b4be 9150 393e b813 8c3e 0f6c 943e
00000060: 0a0c a23e 4abb a8be 3081 8dbe 3a6f 2e3c
00000070: 9db1 b53d 582c a83d c97b e0bd 7c62 c03d
00000080: 06db ad3e 2a7e f33c eddf 65bc 2fd4 9bbe
00000090: aee7 903e 3d94 b03b f36c dc3d 3c51 78be
000000a0: 2e31 7dbd 17ad 50be 8b6a 1a3e fde4 48be
000000b0: 0cdb 01be fc28 dd3d c729 af3d 9452 6fbe
000000c0: 4af9 603e 0ad2 c3ba 17dc 56be efbe 98be
000000d0: 2574 6c3d 8a49 22be f1c9 6abe 9f35 193e
000000e0: 7fda 25be 435d 61be d7dc 0abd 8d3c 303e
000000f0: f6a6 0b3e bb26 083d bc43 843e cff6 853e
00000100: bf72 05be 0cef f03d f5ea 453d 0ae3 303d
00000110: 08f5 bdbd 02aa 833e b940 0c3e 6714 18bd
00000120: d8cd 023e 510e 493d 359c afbd dfde 0e3d
00000130: f136 543e 3994 87bd 9eaf a5bc e459 d2bd
00000140: df4a 14bd a4ee f8bd 3da7 e73c ff10 36bd
00000150: 3c65 44be f3bc d33d 5b9b e23d 7cf6 6a3d
00000160: 224f 4d3e 17b5 f5bd 2ccb 3dbe 8308 1dbd
00000170: 2a93 243e f672 513e dfee 883d e4c1 e5bd
00000180: 44f3 6f3e c7fe 463e 41eb 2ebd e4a6 7fbe
00000190: b6cc 0a3d f069 96bd 80bb a7bd 1996 d2bb
000001a0: a561 ebbc 5dbe 5bbe f154 223e fd26 46be
000001b0: b5bc 29be fdeb 1c3e 7996 243c 0dd0 bebd
000001c0: 242a 763e 0bd7 b03c df6a 3cbe bf31 513b
000001d0: 74bc 40bd bb00 113b e9fa 58bd b3f5 003d
000001e0: dabc 80bc 03fc 403c 6def 6bbe 9b91 633e
000001f0: 8503 083e fbc1 613d 7cde b63d efe2 033e
00000200: c195 a13c 1594 0d3e def0 ac3d f3b4 19be
00000210: 644f c7bd 821e a63c 4707 2abe 0f09 223e
00000220: c83e 5dbd fb47 6a3c e3b0 f3b9 c927 aebd
00000230: a084 753d 137d fb3c a934 963d d782 86bd
00000240: 1ee3 9c3d eedf e9bd 6b66 8b3d cd27 6e3d
00000250: a9bf 05bd e350 973d 2902 993c e857 173c
00000260: 85c9 f13b 4856 a3bc c4f6 c5bd a0e9 9b3d
00000270: eaa9 cb3d fd1c cbbd a4b2 3c3d aa9f e7bb
00000280: 606f 5dbd 8b6f 06be 5ff1 7ebd d23a 783d
00000290: 1653 adbd ff39 2bbe 0152 dcbd 7f85 a13d
000002a0: 2f4e b73c dec9 963d 53de 333d bbf5 f33c
000002b0: a350 fe3d 3e72 6e3d 99b3 063e 25c3 8c3d
000002c0: da93 9e3d 5f71 bf3d f964 ae3d 345a 5ebc
000002d0: cb10 47bd c705 05bd 1ad2 4cbc 2bde 203d
000002e0: 7495 153e 82d3 91bc 0435 183e ff2d 1cbe
000002f0: 19cb a93d 092f d9bc 2776 073e 8d91 91bd
00000300: 1b95 97bd 0612 333d d2bd 193e 5c2f 553d
00000310: 2125 2abe 7cc9 223e ad65 5fbd 645c 07bd
00000320: f6f0 5cbd 3cbd 053d 8a35 01bd 916d dabd
00000330: 1a7f 523e 151f fb3d e486 d83d 4362 babd
00000340: 15a2 8abd 70a1 b93d a4dd adbd 739f 933d
00000350: 2124 afbd e11e 013e 1373 013e 3d12 4a3d
00000360: 760e a3bd bd73 4bbe 41d2 29be 0706 4f3e
00000370: 3bf6 21be 9c08 943d c03b 5dbe 2eb1 4a3e
00000380: 7b7f 5a3e 3ec2 98bd 2b79 90bc b172 c2bd
00000390: c7f5 92bc 912b 473c 0790 11be 61ce 7cbd
000003a0: 3aeb 3dbd 97f1 60be bf18 1f3d 5ecb 3f3b
000003b0: 1b9e 34be 8a48 d63d 5f16 3e3e 8fa0 47bd
000003c0: 992a 033e 81ec 84bd 88e9 c23c 75d7 a7bd
000003d0: 5aa4 4ebe 00b0 fdbc 0049 cbbb e813 443e
000003e0: 1c2c 30bd 9e4a 323d d7f1 04bd 4577 f2bd
000003f0: b833 f83c 18fa ec3c c472 bf3d ccf1 3f3d
-0.12984501 0.18676153 -0.07444163 0.19774276 -0.36898395 0.3306588 0.15709144 -0.21997273
-0.08704428 0.08675322 -0.26960233 -0.1619615 0.14876847 -0.1086927 -0.08437681 -0.12462247
-0.28985745 -0.087736316 0.19109932 -0.11203638 -0.3517595 0.1809714 0.27358794 0.28988692
0.3164981 -0.3295539 -0.27637625 0.010646636 0.08871768 0.08211583 -0.1096111 0.093937844
0.33956164 0.029723246 -0.014030439 -0.3043532 0.28301758 0.005388765 0.10762968 -0.24249738
-0.06181448 -0.20378529 0.15079705 -0.19618602 -0.12681216 0.10798833 0.0855289 -0.23371345
0.21970096 -0.0014939916 -0.20982395 -0.2983317 0.05772795 -0.15848365 -0.22928597 0.14961861
-0.16196631 -0.22008233 -0.033902016 0.17210598 0.1363791 0.03324006 0.25832927 0.26164863
-0.13032053 0.117643446 0.048319776 0.04318527 -0.092752516 0.25715643 0.13696565 -0.037128832
0.12773836 0.04908592 -0.08574716 0.034880515 0.20724083 -0.06620068 -0.020225342 -0.102710515
-0.036204215 -0.12154892 0.028277988 -0.044449802 -0.19179243 0.103387736 0.11064788 0.057363972
0.20049718 -0.11997431 -0.18534535 -0.038338196 0.16071764 0.2045401 0.06686186 -0.11218622
0.23432642 0.19433127 -0.042704824 -0.24966007 0.033886634 -0.07344425 -0.0819006 -0.0064265844
-0.028733084 -0.21459337 0.15852715 -0.1935081 -0.16575892 0.15324397 0.010045641 -0.09317026
0.24039513 0.021586915 -0.18400143 0.003192052 -0.047054723 0.002212568 -0.05297366 0.031484317
-0.015715051 0.011778834 -0.23040552 0.22223513 0.13282593 0.055116635 0.08929154 0.12879537
0.019724729 0.1382602 0.08444379 -0.15010433 -0.097319394 0.02027822 -0.16604339 0.15823768
-0.05401495 0.014299388 -0.00046480363 -0.08503682 0.059940934 0.030699288 0.07334263 -0.065679245
0.07660507 -0.11419664 0.06806644 0.058143426 -0.032653484 0.07388475 0.018677788 0.009237267
0.0073787593 -0.019938603 -0.096662074 0.0761292 0.09944518 -0.099176385 0.046068802 -0.007068594
-0.054061294 -0.13128488 -0.06224191 0.06060297 -0.08463113 -0.16721343 -0.107578285 0.078867905
0.022376148 0.07362722 0.043913197 0.02978026 0.12417724 0.05821442 0.13154449 0.06873158
0.07743044 0.09347796 0.08515353 -0.013571311 -0.0486 -0.032476213 -0.012501264 0.039274376
0.14607793 -0.01780105 0.14863974 -0.15251921 0.08290691 -0.026511686 0.13228665 -0.0710784
-0.074014865 0.04371836 0.15013817 0.05204712 -0.16615726 0.15897173 -0.054540325 -0.033047095
-0.053940736 0.03265117 -0.0315452 -0.106654294 0.20556298 0.12261788 0.10572603 -0.09100773
-0.06769196 0.09063995 -0.0848954 0.07208147 -0.08551813 0.12609436 0.12641554 0.0493338
-0.079617426 -0.1986837 -0.16584112 0.20217143 -0.15816586 0.072282046 -0.21604824 0.19794151
0.21337692 -0.07458924 -0.017635902 -0.09494532 -0.017939461 0.012156383 -0.14215098 -0.061720256
-0.046366908 -0.21967159 0.03884196 0.0029265503 -0.17638437 0.104630545 0.18563221 -0.048737105
0.12809218 -0.06490422 0.023792997 -0.08195392 -0.20179883 -0.030967712 -0.0062037706 0.19148219
-0.043010816 0.04352819 -0.0324572 -0.11839155 0.030298099 0.028927848 0.09348062 0.046861455

lstm.weight_hh_l1 f4 [256, 64]
00000000: b06c 09bc 43c1 9c3e ab61 6d3c 18ce 053e
00000010: 0d6a 413e b03d dcbd dc49 99bd 46c9 02bd
00000020: 990e 083d 441e 0d3e 493d b73d 6158 ecbd
00000030: bada 24bd 6186 89bd 13ca 1d3d 593b 1dbc
00000040: 15b7 163e 8dc4 dcbd a3b5 6a3e fcae 02be
00000050: 744a 0c39 d59f 863d 72bc 8c3d a1dd 8c3e
00000060: 6162 f9bd acb6 913d 1446 9bbc 9555 83bd
00000070: ad5b 4d3e 98df 5d3d fff1 173a 4844 233d
00000080: f4ba 2f3d 436a 383e 52ba c13d 770e 1bbe
00000090: 4b82 313e 0ef5 5abe ae64 cd3c 891a 593e
000000a0: ac17 96bd 0cac 8a3e 1d83 903e e985 053e
000000b0: f174 c3bc 85ba c53c 014e 1ebd 270a 4c3e
000000c0: 17b5 9bbd 8cf4 16bc 9c1f 3f3d cb11 65be
000000d0: 5d71 3ebe 9d82 4dbe 70cd 473d fce0 7abd
000000e0: 6113 c0bd f22a 76bd e6a9 14be eb41 14be
000000f0: 9265 3d3d ddae e93d 8420 8b3d b4cd 13be
00000100: a108 e13c 3a98 18bc 165d c1bc c3bc 803e
00000110: 07a2 073e 6fe7 85bd a312 c7bd 257d e33d
00000120: 3a2f d8bd 2731 a8bc ef5a 033d 9d0d 02bd
00000130: b47e 083e 6710 e23d cc0b 873d f32a 12be
00000140: 44b3 f83d f2a0 1a3c 1fa8 54bd c56b 973d
00000150: 31d1 813d 1f79 9f3d 5ed0 6cbe 9d62 a6bd
00000160: 6072 3dbd d142 953d 005e a63d 6791 aebd
00000170: dc97 4e3e ed2d 553d 2122 ffbd a657 90bd
00000180: 29a1 553e e7a1 653e e783 11bc 04d1 c2bd
00000190: cc2d 283e bbb2 24bd 77fb 673d 17f4 e83d
000001a0: 543d dabc 163d a0bd 7028 ca3c 1398 17bd
000001b0: bbf5 493d a2b7 283e a677 33be 0938 823d
000001c0: 729d f13b 9f91 88be bff9 433d abca 11bd
000001d0: b687 693d 8d80 edbd 8810 17bc e02f 0ebe
000001e0: 6004 f1bc 71a1 3bbe 67eb 6dbe 611c 6f3c
000001f0: bb53 8abd 3ecb 363d ca59 9f3d 152a 443d
00000200: 5f66 a03d 594c ed3c e3a3 583d d20f 0ebc
00000210: 34e7 6a3c 9d34 953d 24e2 dbbd fb87 0e3d
00000220: 3727 9f3c 3eb6 6dbd 7b29 173e 63fa c9bd
00000230: b975 f0bd 7dd3 d2bd 6046 273c 9392 973d
00000240: ea1b cfbd 065d 9b3d 6c7f 61bd 9a27 94bb
00000250: 2a30 bbbd dede 79bd 7f3a 003e 55b6 1d3c
00000260: ef59 653d 072f c13d 5121 f2bd 620d f23d
00000270: e75a 1ebd c30e 353d f3d8 8fbd cb00 5cbd
00000280: ed68 bd3d b8df d53d 193f 0c3e 1f73 bc3d
00000290: 8b95 b8bd b618 823d c4aa 863c 63df 013e
000002a0: eb06 a93b 125b 433d c403 143e c57a 133e
000002b0: 9dc5 bcbb cc2d a63d 81e9 b03d ca45 8e3d
000002c0: 61aa 80bd 1f5b 1ebd 0b26 cabd 5add b3bd
000002d0: 1f9a 6fbd c9f7 b23c c0d8 413c 5b76 8c3d
000002e0: bca2 523d ba33 593d 8515 21bd 032b 3b3d
000002f0: e11c 4dbd a4b9 ffbd de5a 04be 00ef 613b
00000300: c8b4 06bd f013 8ebc 3a59 32be b26f 4e3d
00000310: ab64 b4bc 481d 35bd 5332 e0bc c7f8 0e3d
00000320: b6fe c1bd e45d 8dbd 5486 9e3d b3d0 5abc
00000330: 110a 963d 7694 253e e84c 02bd 85bf 3ebd
00000340: 3d2d 5cbd e546 6abc 47e7 65bb ee38 ebbd
00000350: 1860 013e 4894 e1bb bc25 56bd 88f9 973d
00000360: e639 0abe c976 943d 6ec3 3cbd e4bd cbbc
00000370: 03cc 76bc a52b 913d a226 0dbe 9b11 1f3d
00000380: 864f 6a3d 386e 1d3e 02a5 333c beb2 1ebe
00000390: 8b36 9fbd 0d5b 14be dcb9 4b3d cff2 363e
000003a0: 11d2 64bd c7ea c03d 3f43 623d f26a 5fbc
000003b0: 2702 15be 1927 ed3d 1df6 51bd d07e 973d
000003c0: da5f 24be 0662 c7bc fbad b5ba d5fb afbd
000003d0: 5875 943c 5a67 40be b891 853d 4861 8dbd
000003e0: 5ba6 ffbd a378 363d 8191 e3bc 196f 1f3d
000003f0: a278 233e a56b 103c 89b1 3b3e e97c 0abe
-0.0083877295 0.30616197 0.014488618 0.130669 0.18888111 -0.107539535 -0.07484791 -0.03193023
0.033217046 0.13781077 0.08947236 -0.115402944 -0.040247656 -0.06715084 0.03852279 -0.009596669
0.14718278 -0.107796766 0.22920851 -0.12762064 0.00013379176 0.06573454 0.068718806 0.2751284
-0.121769674 0.0711492 -0.018954314 -0.06412808 0.20054503 0.054168314 0.0005796253 0.03986004
0.0429029 0.18009286 0.09459366 -0.15142237 0.17334859 -0.21382543 0.025072422 0.21201529
-0.07328734 0.27084386 0.28225031 0.13039364 -0.023859473 0.024136791 -0.03864861 0.19925748
-0.076028995 -0.009213578 0.046661004 -0.22370069 -0.18597932 -0.20069356 0.048779905 -0.061249718
-0.09378696 -0.06009955 -0.14517936 -0.1447827 0.046239443 0.11410306 0.06793311 -0.14433938
0.027469935 -0.009313637 -0.023603957 0.25144014 0.13245402 -0.06538283 -0.097203515 0.11107854
-0.10555883 -0.02053125 0.032069143 -0.031751264 0.13329583 0.11038285 0.06594047 -0.14274196
0.12143567 0.009437786 -0.051918145 0.07393602 0.06338728 0.07786774 -0.23126361 -0.08124278
-0.046251655 0.07288135 0.08123398 -0.08523827 0.20175117 0.05204575 -0.124576814 -0.070479676
0.20862259 0.22425042 -0.008881546 -0.09512523 0.1642372 -0.040209513 0.0566363 0.113746814
-0.026640572 -0.07824151 0.024677485 -0.037010264 0.049306612 0.164763 -0.17526111 0.06358344
0.0073735053 -0.266736 0.0478456 -0.03559367 0.05701419 -0.11596785 -0.00922025 -0.1388545
-0.029421031 -0.18323304 -0.2323433 0.014594168 -0.067542516 0.04462742 0.07780798 0.047891695
0.07832026 0.02896707 0.05289067 -0.008670764 0.01433735 0.07285426 -0.10736492 0.03479765
0.019427879 -0.058035128 0.14761917 -0.098622106 -0.11741204 -0.102942444 0.01020965 0.07401004
-0.10112746 0.07586102 -0.05505316 -0.0045213224 -0.09140046 -0.06100356 0.12522314 0.009625991
0.05599397 0.09432798 -0.11822761 0.11818959 -0.03866091 0.04420353 -0.07023802 -0.053711694
0.09248529 0.104430616 0.13695945 0.09201645 -0.09012898 0.063523695 0.01643885 0.12682872
0.0051582954 0.047694273 0.14454561 0.14402302 -0.005760862 0.08114204 0.08638287 0.06946905
-0.06282497 -0.03866112 -0.09870537 -0.08782454 -0.05849659 0.021846669 0.011831462 0.06858512
0.051424727 0.053027846 -0.039327163 0.045695316 -0.05007637 -0.1248658 -0.12925288 0.003447473
-0.03288725 -0.017343491 -0.1741685 0.05039949 -0.022020658 -0.044217378 -0.027367746 0.03490522
-0.094724104 -0.06902674 0.07740465 -0.013355422 0.07326139 0.16169915 -0.031811625 -0.046569366
-0.05375408 -0.014299129 -0.003508048 -0.11485468 0.12634313 -0.0068841316 -0.05228208 0.07420641
-0.13498649 0.07249219 -0.046084814 -0.02487082 -0.015063289 0.07088403 -0.13784268 0.03883515
0.057204746 0.15374076 0.010964634 -0.15497872 -0.07774075 -0.14487858 0.049737796 0.17866062
-0.055864397 0.0941978 0.055239912 -0.013636338 -0.14551602 0.11579723 -0.051260103 0.073972344
-0.1605219 -0.024338733 -0.0013861054 -0.08592955 0.01812236 -0.18789425 0.06521934 -0.069033206
-0.12482902 0.044548642 -0.027779343 0.03892431 0.15963987 0.008814727 0.18329443 -0.13524212

lstm.bias_ih_l1 f4 [256]
00000000: 99da 9f3e 65bb 973e 8f89 f63c c1a8 193e
00000010: c9d4 193e 6586 fa3c f452 88bc 91a2 d33d
00000020: 1172 be3e 6a8e a23d b574 613e 9d65 203e
00000030: 49da 953d aa6f 0c39 6fe7 0e3e 8a61 053e
00000040: 5db2 663d f960 8b3d 3ccd 1f3e 6a86 ec3d
00000050: e1aa 9cbc 1b63 adbc 2443 0a3e 67e9 053d
00000060: 2619 4a3e 68fe 00bb ec0c efbb 4067 c53d
00000070: 3d83 343d a169 6dbd 2ad2 763d b04f 1e3d
00000080: 869b 403e 6c1e 613e b73d 153e 24f3 053e
00000090: 9347 2b3e 5066 113e 4cc7 8d3d b813 f53d
000000a0: 21b2 143e 3c1f 203d ace1 a13d 7ab5 1b3d
000000b0: 5ac8 803c 55e4 1ebd bf21 143e e247 ed3d
000000c0: 6105 4f3e 1b06 453e 95db ec3c 698d d63d
000000d0: b026 4c3e 9335 cb3d 9182 83bd 4da6 1f3e
000000e0: 7937 8d3c a378 f43c 8157 193e 745a 423e
000000f0: f1d4 a7bc c7d4 15bd 8a59 f6ba a87a 1b3e
00000100: 2c39 1bbe 3122 e83c 10fc 943d e4fd 71bd
00000110: cb46 0fbd 6e3d d4bd 6b45 88bd 7f61 13bd
00000120: ada6 56be 5fe7 3a3d d963 1f3d fa24 c03d
00000130: 89bd ad3d 8f76 a2bb 7be7 1abe 84ed 8abc
00000140: a213 a3bc 1657 a13a 23ca 163e bc47 d8bd
00000150: 760c 27bd f187 0e3e f737 8abd b8cc edbd
00000160: ca5d 623c dc40 b4bd 356c 0cbd f6b0 8e3d
00000170: 48ad 963c 85c9 723d 8db1 68bd 0051 843d
00000180: d180 03be aa44 cfbd dcc5 993d 598d edbd
00000190: 687e 203d 80a8 c83d bc46 ea3b 796c c1bd
000001a0: a842 97bd 9624 0b3d 46de 96bb cc1c d13d
000001b0: c20c 9c3b 8b23 89bd a9a8 4fbc 9d7b dabc
000001c0: c00e d23b ec23 16bd 0a49 b83b ef36 29be
000001d0: 91eb 0fbe b750 84bd 7c07 b5bd 7542 b2bd
000001e0: c391 8d3d 9d65 00be ce8a ecbc 3884 be3d
000001f0: 9e9d e53c 1058 183c a750 e1bc 8559 adbd
00000200: cccb eebd ce79 8a3d 11e8 f4bd ed2d c23c
00000210: ca13 41bc c466 9c3d 176c fbbd 5c65 cebc
00000220: 02fb c5bd 8469 afbd cc72 fd3d 3e0e 0bbe
00000230: c839 8bbd 972f a33d ca92 8c3d 3ddb 0dbe
00000240: d3d5 0e3e 1984 123d a0f1 a93d 2dac 31bd
00000250: d28c c03d e959 fb3c b836 27bc 7c5f 063e
00000260: 9c7e 07bd e745 ae3d 8732 b4bc fa9f 91bd
00000270: 6466 2a3e 4c29 b53d 27ba b0bd 9944 aabd
00000280: 7110 ccbc cb7a 903d 2ff0 7fbc aa6a d5bd
00000290: 2cd1 0b3e 3cae f1bd 7537 9d3d 09a4 d43d
000002a0: b439 8bbc 05db 733d 8447 9f3d 368a c7bd
000002b0: 8645 8f3b 6931 3d3d f4c4 d3bd c414 373d
000002c0: 174d 96bd d762 80bc 1d9d c4bc c26f 98bd
000002d0: 8e14 893b d04d 19be 383e cbbc f683 a8bc
000002e0: f6ca 66bd 6deb a83a 0205 a73d cd15 0ebe
000002f0: 465a 003e 9447 08bd 002e cd3d 7996 60bd
00000300: 6e77 9a3e 7961 2f3d 291d 203e 4ee0 403e
00000310: 67b5 003e e0c5 85bd 6ae4 cb3d 8283 ec3d
00000320: ae79 bd3e 8dce ee3d c59e 293e 2061 183c
00000330: caa1 963d 6c5d 753c afd7 533d 3342 833d
00000340: 65fd 043e 1493 653e c0f2 ef3d 0a63 403e
00000350: 8b61 0c3e 582e 67bc b8c8 2e3e faf6 683e
00000360: db75 603e 59a8 593e 6ee6 07bc 3add bf3d
00000370: 763f 0f3e 8c2a 1c3e 2196 0b3e 112a 503d
00000380: a3bd 4a3e ee15 4b3e 4e60 373e a0e7 973d
00000390: d3ba c33d ff17 a83d b73b 153e fbdb a83d
000003a0: 3997 6f3e 1ce4 bb3d 60a2 023e 8a3b 163e
000003b0: b362 b53d aec6 a53c 7a69 2f3e 779a bc3d
000003c0: 2fa8 033e b7fd 463d eb03 153e 149a 3c3c
000003d0: b122 e63c 404b 6fbd 0bbc ffbc 5da2 d93d
000003e0: 7a3e aabc 5e1e 06bd 5d96 9f3c 173e eb3d
000003f0: 3c11 0d3c 94bf b23d 6021 0c3d 16ef 0fbd
0.31221464 0.29635158 0.03009489 0.15005781 0.15022577 0.030581662 -0.016641118 0.103337415
0.371964 0.079373196 0.22017176 0.15663762 0.07317025 0.00013393039 0.13955472 0.1302549
0.056322444 0.068056054 0.15605634 0.11549075 -0.01912445 -0.021165421 0.13502175 0.032693293
0.19736156 -0.0019682888 -0.0072952416 0.09638834 0.04407047 -0.057962064 0.06025902 0.038650215
0.18809327 0.21984261 0.14574324 0.13081032 0.16726522 0.14199185 0.069227785 0.11966652
0.14521076 0.039092287 0.079043716 0.038014866 0.015720535 -0.038791973 0.14465998 0.11585976
0.20216896 0.1924061 0.028913299 0.104761906 0.19936633 0.09922328 -0.06421388 0.15590782
0.017238365 0.02984268 0.14974786 0.18979818 -0.02048728 -0.036579873 -0.0018794995 0.15183508
-0.15158528 0.028336616 0.072746396 -0.05908002 -0.034979623 -0.10363279 -0.066538654 -0.03598165
-0.2096202 0.04563081 0.03891358 0.09382053 0.084834166 -0.004957981 -0.15127365 -0.01695896
-0.019906823 0.0012309279 0.14725547 -0.10560557 -0.040783368 0.13919045 -0.06748956 -0.11611313
0.013816306 -0.088014334 -0.03428288 0.06967346 0.018393174 0.059274215 -0.05680995 0.06460762
-0.12842108 -0.101205185 0.07508442 -0.115992256 0.03918305 0.09797764 0.0071495455 -0.09444518
-0.073857605 0.033970438 -0.004604134 0.10210571 0.004762263 -0.066962324 -0.012674489 -0.026670272
0.0064104497 -0.03665535 0.0056239413 -0.16524862 -0.14054705 -0.06460708 -0.08839318 -0.08704082
0.069125675 -0.12538762 -0.028874781 0.093025625 0.02802926 0.0092983395 -0.027504278 -0.0846434
-0.11659965 0.06761514 -0.11958326 0.02370354 -0.011784503 0.076367885 -0.12276476 -0.025194816
-0.096670166 -0.085650474 0.123754114 -0.13579652 -0.0679813 0.079680614 0.06863935 -0.13853164
0.13948755 0.03577051 0.082980394 -0.04337709 0.09401859 0.030682521 -0.010205917 0.13122362
-0.03307973 0.085094266 -0.02199675 -0.07110591 0.16640621 0.088457674 -0.08629256 -0.08313865
-0.024910184 0.07054671 -0.015621229 -0.10420735 0.13654011 -0.11800811 0.07676593 0.1038285
-0.016995288 0.059535045 0.077773124 -0.097431585 0.0043723015 0.0461897 -0.103403 0.044697538
-0.073389225 -0.01567213 -0.024000699 -0.07443191 0.0041833585 -0.1497109 -0.024809942 -0.020570736
-0.056345902 0.0012887545 0.08155252 -0.13875504 0.12534437 -0.033271387 0.100185394 -0.054831002
0.30169243 0.042817567 0.15636124 0.18835565 0.125692 -0.06531882 0.09955676 0.115485206
0.37006897 0.1166049 0.16564472 0.0093005 0.073550776 0.014975887 0.051719364 0.06409111
0.12987287 0.22419387 0.11716223 0.1878778 0.13709085 -0.01411017 0.17068756 0.22750464
0.21919958 0.21255626 -0.008294685 0.093683675 0.13989052 0.15250605 0.13631488 0.050821368
0.19798903 0.19832584 0.17907831 0.07417226 0.09557118 0.08207702 0.1457356 0.08245083
0.2339753 0.09174368 0.12757254 0.1467115 0.08856716 0.02023634 0.1713008 0.09209149
0.12857126 0.048581805 0.14552276 0.011511344 0.028092714 -0.058421373 -0.031217596 0.106266715
-0.020781744 -0.032743804 0.019480878 0.11486452 0.008610066 0.08727947 0.034211516 -0.03514012

lstm.bias_hh_l1 f4 [256]
00000000: 2972 6f3e d9ab 5d3e d640 f2bc 1200 503e
00000010: fdfc 34ba c7e1 eebb 4091 92bb b6fb 5dbb
00000020: 23b2 2f3e 59eb 3b3e cf34 213e 662e 2bbd
00000030: bf54 793e bd6d 633e fceb 7e3d bddb cd3d
00000040: cc69 583e 0689 993d d581 483e 5aed 573e
00000050: e694 463e da2d 3b3e 0a93 2f3e 3577 083e
00000060: 3053 d13d 5f92 dd3d 35c4 b83d 1659 d53d
00000070: 79f3 1e3d 1aa6 2dbd 0145 223e 2135 48bd
00000080: be1b 493e 62e8 623e 397a 023d 9101 2a3d
00000090: bf05 68bc a7c4 e53d 87aa a23d 9eca 8b3d
000000a0: 64af 823e 6d0a 683e 4677 2a3e 2902 503d
000000b0: 7aaa 273e 0ecb 803d 080e 523e 373c 5f3e
000000c0: 92a0 053e e305 f63d 592d 433a 9c54 de3c
000000d0: d068 583e 5995 d13d d827 133d 35c5 9d3d
000000e0: 3690 d13d f60d 863d c532 3d3e 2086 dc3d
000000f0: 333b 0d3e 9e27 7ebd 23fa 2c3e 0dec e53d
00000100: bf00 fbbc 662b dabd e2de 8ebd f77c 92bc
00000110: 3d49 b0bd d7ee 183d 4c72 debd 4c4f f23d
00000120: 55d8 4dbe 37d5 1c3c 725a 95bd 0393 99bc
00000130: e0fe b53d e4da f4bd 96c2 17be f404 ecbd
00000140: 7662 07bb 7997 fbbd 5b03 273e 8b63 2bbd
00000150: 4c44 39bd 075e abbd e432 eabd c716 b23d
00000160: 8d27 1ebe 79eb d8bc 3fae 69bd c9f5 07be
00000170: 4df5 e83d 3700 083d 0686 943d d3ee 6dbd
00000180: 6640 d8bd 46f3 c2bc bcd9 a2bd f94b b53d
00000190: c645 85bd 5698 acbc 2599 8cbd ce3c 16be
000001a0: 2d74 84bc ceb9 35bd 4e54 783d cb84 19bd
000001b0: 9da1 bbbd e76d 923d ab9f ce3d cca9 a3bb
000001c0: 7459 18be a4d7 0fbe 35b2 0f3b 616b 133d
000001d0: 63ca 0bbe e872 fd3b fb0f 08be d919 c9bd
000001e0: b147 3d3d 6ed9 0bbe 966b a6bd 9bc5 debd
000001f0: 7363 093e d17e 963d 9eb0 babd a545 173c
00000200: 14a2 af3d ae99 5ebc 47e3 4cbd 5b78 7f3d
00000210: 86c6 ff3d 1ea0 8fbd 5b21 19be c94e 0b3e
00000220: cedb 8a3a 5ed9 b63c 06d7 8e3d 8ea4 563d
00000230: 23cc 003d 0757 bbbd d1d1 fbbc 335d aa3d
00000240: e1a6 6f3a 1829 cbbd ec04 a23c 0c1e d2bd
00000250: b787 29bd 4876 273d 05a4 2b3c c946 3bbd
00000260: 362e 4c3d e7b1 bb3d ff7a a4bc 0b3f 4b3d
00000270: ac92 0d3d 8a2b f03d e3c3 f83b cd78 a83d
00000280: 1bdf 373d d689 0b3e 5d3f 993c 3b93 b4bc
00000290: c0e2 afbd 6ead eebd b9e5 89bd ff79 06bc
000002a0: 8206 c83d b10a ba3d 3aa6 1a3e 60fa a6bc
000002b0: 79e2 21bd e39f 453d 8cdd 223d d8cb 873d
000002c0: 8784 aebc 4f81 17be d598 2d3d af68 113d
000002d0: 7cce e3bd abd4 48bb b79b 46bc 3f39 113d
000002e0: 4235 15be 0935 05be 76cd f9bd 2d9f ab3d
000002f0: e01a 173e c28b b43d 5231 df3d 6c59 8cbd
00000300: 7686 9c3e bed5 dc3d b899 e33d 6e28 483e
00000310: 2512 c33d 18c9 2a3e 677e b53c b647 903d
00000320: 7faa b73e aea2 683e 5fc8 42bc 63c9 b83d
00000330: c614 003e 16a4 303e 8ca3 403e 4bbc 833e
00000340: 44aa 203e 482c 103e 0b73 443d 719c 9c3d
00000350: 8be0 cb3d 6e40 243e 367f 323d 4c56 843e
00000360: f959 703e 359f cb3d 02eb c53c 8964 573e
00000370: 2464 85bd 9c1e f93d bbf3 103e 39da 1f3e
00000380: 252e 953c 2a68 3b3e 728a 19bc a2db ac3c
00000390: 4b57 cc3d c4c0 f53d 5e5b 1a3e b2bd 0b3e
000003a0: 2ce3 843e 62b8 6b3e de17 2a3d c0f3 f53d
000003b0: d92b 2d3d 3806 003e a247 103e 5b2a 523d
000003c0: 1a4d 423d 64a6 fe3d 4070 0c3c 3c7e 073e
000003d0: c329 3b3d dd84 f43d cd32 bdbd 4945 6f3b
000003e0: 960d b4bc d1eb bd3d bff0 e13d 4fbc 323e
000003f0: eacc 7c3d e0d3 7fbd fb0a c23d 5b92 a9bd
0.23383392 0.21647586 -0.029571932 0.20312527 -0.0006904153 -0.0072900984 -0.0044728816 -0.0033871955
0.17157798 0.18351497 0.15742801 -0.041792296 0.24348734 0.2220983 0.06223677 0.100516774
0.21134108 0.07496838 0.19580777 0.21086636 0.19392738 0.1827921 0.17145935 0.13326724
0.10220945 0.10818934 0.090217985 0.104173824 0.038806412 -0.042394735 0.15846635 -0.048878793
0.19639489 0.2215896 0.03185484 0.0415054 -0.014161526 0.11219149 0.07942682 0.068257555
0.25524437 0.22660227 0.16647062 0.05078331 0.16373625 0.062887296 0.20513165 0.21800314
0.13049534 0.120128416 0.0007445417 0.027139954 0.21133733 0.10233564 0.03592667 0.0770363
0.10232584 0.065456316 0.18476398 0.1076777 0.13792114 -0.0620495 0.16892295 0.11226664
-0.030640004 -0.10652809 -0.06976105 -0.017881854 -0.08607719 0.03733715 -0.10861644 0.11831531
-0.20102055 0.009572319 -0.07292642 -0.018746858 0.08886504 -0.119558126 -0.14820322 -0.11524382
-0.0020658053 -0.122847505 0.16309874 -0.04184298 -0.04523115 -0.08367544 -0.11435488 0.08695751
-0.15444775 -0.02647947 -0.05705094 -0.13277353 0.113749124 0.03320333 0.072521254 -0.05808909
-0.10559158 -0.023797642 -0.07951686 0.08852381 -0.06507449 -0.021068733 -0.068651475 -0.14671633
-0.016168678 -0.04436665 0.060627274 -0.037480157 -0.09161685 0.071498685 0.10089048 -0.0049946066
-0.14877874 -0.14047104 0.0021926288 0.035991076 -0.13651423 0.007734645 -0.13287346 -0.09819383
0.04621095 -0.13657162 -0.08125989 -0.10877534 0.13416843 0.07348407 -0.09115718 0.009232913
0.08575836 -0.013586445 -0.050021436 0.06237064 0.12489037 -0.07012962 -0.1495413 0.13604273
0.0010594071 0.022320446 0.06974606 0.052403025 0.03144468 -0.091474585 -0.030739697 0.083185576
0.00091419934 -0.099199474 0.019777738 -0.10259637 -0.041389193 0.040884286 0.010476117 -0.045721803
0.049848758 0.091647916 -0.02007818 0.04962067 0.034563705 0.117270544 0.007591711 0.08226166
0.044890504 0.13626799 0.018706972 -0.022042861 -0.08588171 -0.11654173 -0.06733269 -0.008207797
0.09766866 0.090840705 0.15102473 -0.02038306 -0.03952262 0.048248183 0.039762065 0.06630677
-0.021303428 -0.14795421 0.04238208 0.035500225 -0.11123368 -0.0030644338 -0.012122086 0.035454985
-0.14571097 -0.13008513 -0.12197392 0.0837997 0.14756346 0.08815719 0.10898079 -0.06852993
0.30571336 0.107829556 0.11113304 0.19546673 0.09524945 0.16678274 0.022155 0.07044928
0.35872266 0.22718307 -0.0118885925 0.090227865 0.12507924 0.17250094 0.18812388 0.25729594
0.15689951 0.14079392 0.047961276 0.07647026 0.099549375 0.16040203 0.04357835 0.2584709
0.23471822 0.09942476 0.024159912 0.21034445 -0.06513241 0.121640414 0.14155476 0.15610589
0.01821048 0.18301454 -0.009371387 0.021100823 0.09977587 0.11999658 0.15073916 0.13646582
0.25954568 0.23019555 0.041526668 0.12009382 0.042278145 0.12502372 0.14089826 0.051309925
0.04743681 0.1243408 0.008571684 0.13231748 0.045694124 0.11939404 -0.09238205 0.0036509803
-0.021979135 0.09273494 0.11032247 0.17454647 0.06171886 -0.06245792 0.094747506 -0.08279868
