LSTM/models/sensor_data_3_co_lstm_model.pth (torch, 206032 bytes, 9 tensors)

lstm.weight_ih_l0 f4 [256, 1]
0.099371955 -0.0010407105 -0.032186687 -0.009376549 -0.18915497 -0.20495196 -0.053726185 -0.018299924
0.081719935 0.06958005 -0.13280952 -0.035031658 -0.14580522 -0.12203981 -0.16528803 -0.0624187
-0.013820139 -0.09947861 -0.15565835 0.08334905 -0.04302845 0.017316634 0.10074091 -0.02337245
0.07842722 -0.05445568 0.063555755 -0.14001743 -0.11362739 -0.040625706 0.03992286 -0.055325765
-0.17251828 -0.039834183 0.039731756 0.020056646 -0.08932257 -0.041933235 0.12204577 0.06334184
-0.038632777 -0.10866259 0.089247 -0.14484018 -0.0556434 -0.03821267 0.044957284 -0.14680094
0.019537698 0.044762727 -0.045980126 -0.1928439 0.0023117587 0.07601159 -0.012318491 0.015429129
-0.09995866 -0.08215135 -0.15655513 -0.11712622 -0.040363558 0.09281728 -0.15280798 -0.076880015
0.0027928632 -0.07017485 -0.115469225 -0.081744134 -0.061094344 -0.01952165 0.14832471 -0.10956841
-0.13514625 -0.120911516 0.016202427 0.036878087 -0.004411081 0.028733915 0.001967486 -0.090934254
-0.076721385 0.0104205245 0.027569225 0.12730676 -0.11166839 -0.0018274998 -0.03425484 -0.18539967
0.07427917 0.020817813 -0.037542365 -0.12592949 -0.024314612 0.048756596 0.14179783 0.12929928
-0.13766718 -0.063703574 -0.09441402 0.12594214 -0.101883575 0.019044666 0.11471067 -0.0028167996
-0.10280701 -0.15546973 0.08335509 0.030458372 0.0135558015 -0.04792892 0.044136867 0.04269082
-0.10030396 0.07902163 -0.1490734 0.028716149 -0.09730976 -0.0010023128 0.06339194 0.104527585
-0.07779366 -0.08064276 0.014628555 0.021932866 0.08581425 -0.11573572 0.008596842 0.044456456
-0.19139373 0.109473705 0.17978233 -0.11118955 0.14620447 0.07632858 -0.14354624 0.089142144
-0.083425604 -0.13217999 0.18734977 0.1903222 -0.14486597 -0.0675683 0.13403791 0.15047967
-0.09929581 -0.09705471 -0.0965771 -0.16714399 -0.061870575 0.11203426 -0.15441695 0.061953153
-0.10971883 -0.14164573 0.16334324 0.039531477 -0.15397754 -0.010884462 -0.16272698 -0.16309412
-0.082359344 -0.011213657 0.21464813 -0.11448373 0.15234719 0.20994405 0.17091584 0.095247276
-0.1779195 -0.03506136 -0.1606112 -0.13387366 0.052713595 -0.16943893 0.023604946 0.09019521
-0.16215187 0.20878898 0.09233411 0.030492816 -0.08743707 0.15736823 -0.16834943 0.19824561
-0.02021761 -0.054801762 0.072712064 0.16385405 0.16407168 0.19021013 -0.17517765 -0.15992075
0.08307517 -0.116526544 -0.11442068 0.00047946625 0.042032104 -0.03710139 0.12275019 -0.124769755
-0.0988032 -0.14237377 -0.11669089 0.06883834 0.049248505 -0.046883658 -0.07649513 -0.06312481
-0.14538494 0.022709066 0.011291304 -0.098891936 0.07893296 0.089494914 -0.09384827 -0.16425748
0.0638241 -0.0986154 0.03561143 -0.20936337 0.031589117 -0.11490112 0.10106618 0.11289095
-0.102324426 -0.0059746383 -0.038526323 0.15754639 0.081869796 -0.0949622 0.0954265 -0.019564409
0.069408685 -0.0021326537 0.17791179 -0.18041612 0.16867636 0.06160469 -0.040976238 0.069252156
-0.16226469 0.0006123972 -0.17332545 -0.15285893 -0.07146571 0.14263487 0.0068505025 0.113949515
-0.15465073 -0.032487836 -0.22399914 -0.09655932 -0.041917127 0.02717505 -0.02674634 0.025098452
00000000: 8683 cb3d 7368 88ba 30d6 03bd 19a0 19bc
00000010: d7b1 41be edde 51be fd0f 5cbd b9e9 95bc
00000020: c85c a73d fc7f 8e3d 38ff 07be 5b7d 0fbd
00000030: f74d 15be 02f0 f9bd 4441 29be c0aa 7fbd
00000040: dd6d 62bc 71bb cbbd e764 1fbe e8b2 aa3d
00000050: 9a3e 30bd 9ddb 8d3c 4051 ce3d 9577 bfbc
00000060: 739e a03d eb0c 5fbd 8529 823d bb60 0fbe
00000070: 7ab5 e8bd 2467 26bd 2786 233d 459d 62bd
00000080: a2a8 30be 2b29 23bd c4bd 223d d64d a43c
00000090: c0ee b6bd 2fc2 2bbd 22f3 f93d 5eb9 813d
000000a0: 673d 1ebd 7e8a debd 22c7 b63d fc50 14be
000000b0: 55ea 63bd e384 1cbd 2125 383d fc52 16be
000000c0: 860d a03c 1f59 373d a855 3cbd df78 45be
000000d0: e080 173b f7ab 9b3d 7fd3 49bc 75ca 7c3c
000000e0: 20b7 ccbd f83e a8bd fd4f 20be dfdf efbd
000000f0: 4254 25bd fc16 be3d b279 1cbe 4573 9dbd
00000100: 7808 373b d5b7 8fbd 217b ecbd 7869 a7bd
00000110: 103e 7abd deeb 9fbc 6fe2 173e 6765 e0bd
00000120: c763 0abe 75a0 f7bd f4ba 843c 7a0d 173d
00000130: d48a 90bb 6363 eb3c f0f0 003b bd3b babd
00000140: 1a20 9dbd d9ba 2a3c dbd8 e13c b45c 023e
00000150: 66b2 e4bd b888 efba ce4e 0cbd 69d9 3dbe
00000160: ad1f 983d 1e8a aa3c 06c6 19bd a9f3 00be
00000170: 702f c7bc ffb4 473d 7333 113e 0867 043e
00000180: a0f8 0cbe 0577 82bd 235c c1bd faf6 003e
00000190: 56a8 d0bd 8f03 9c3c 6eed ea3d 0e9a 38bb
000001a0: 7b8c d2bd 7533 1fbe 13b6 aa3d d683 f93c
000001b0: 2719 5e3c 1d51 44bd dcc8 343d 92dc 2e3d
000001c0: 2a6c cdbd 18d6 a13d b3a6 18be 213e eb3c
000001d0: 574a c7bd 0960 83ba a2d3 813d 8f12 d63d
000001e0: 4852 9fbd 0828 a5bd 9bac 6f3c 8eac b33c
000001f0: 62bf af3d d906 edbd c5d9 0c3c f917 363d
00000200: b8fc 43be c033 e03d dc18 383e 59b7 e3bd
00000210: a0b6 153e 2952 9c3d c9fd 12be 2890 b63d
00000220: 0bdb aabd 315a 07be 9ed8 3f3e d3e3 423e
00000230: bf57 14be 4061 8abd 3c41 093e 5817 1a3e
00000240: 9a5b cbbd 9fc4 c6bd 37ca c5bd cb27 2bbe
00000250: 006c 7dbd 3872 e53d 7a1f 1ebe 97c2 7d3d
00000260: 44b4 e0bd 940b 11be 7343 273e c2eb 213d
00000270: 4aac 1dbe be54 32bc e7a1 26be 2502 27be
00000280: 04ac a8bd 7db9 37bc b8cc 5b3e 7276 eabd
00000290: e700 1c3e 93fb 563e 9004 2f3e 0111 c33d
000002a0: 8830 36be 809c 0fbd 4377 24be 2d16 09be
000002b0: 36ea 573d 6681 2dbe 295f c13c 44b8 b83d
000002c0: 240b 26be c7cc 553e aa19 bd3d 12cc f93c
000002d0: 3512 b3bd 2325 213e cb63 2cbe e600 4b3e
000002e0: 679f a5bc d077 60bd 10ea 943d 5bc9 273e
000002f0: 6802 283e 72c6 423e c561 33be 44c2 23be
00000300: 5123 aa3d 78a5 eebd 6455 eabd df60 fb39
00000310: db29 2c3d a1f7 17bd 7464 fb3d 4987 ffbd
00000320: 5559 cabd 6eca 11be a2fb eebd 1efb 8c3d
00000330: cdb8 493d 1409 40bd 7ba9 9cbd 9547 81bd
00000340: cadf 14be 5d08 ba3c 29ff 383c db87 cabd
00000350: 9ba7 a13d 1c49 b73d 8633 c0bd 1d33 28be
00000360: 36b6 823d dff6 c9bd 4add 113d 5a63 56be
00000370: 9763 013d 4751 ebbd c9fb ce3d 5f33 e73d
00000380: 788f d1bd e6c6 c3bb c7cd 1dbd d753 213e
00000390: 5aab a73d 8b7b c2bd f86e c33d 8a45 a0bc
000003a0: 2426 8e3d fec3 0bbb 822e 363e 01bf 38be
000003b0: 7fb9 2c3e 3355 7c3d b3d6 27bd 13d4 8d3d
000003c0: b728 26be 4889 203a 3a7c 31be 0d87 1cbe
000003d0: 9d5c 92bd e00e 123e 2e7a e03b 5d5e e93d
000003e0: c35c 1ebe f711 05bd 0860 65be e5c0 c5bd
000003f0: 4bb1 2bbd 369e de3c 241b dbbc 459b cd3c

lstm.weight_hh_l0 f4 [256, 64]
-0.08486509 0.028750183 0.10669762 0.1524914 -0.00035165533 0.049989022 -0.10537457 -0.14362659
-0.07583751 -0.10892762 0.035137083 -0.03217874 0.08402571 -0.012655736 0.058464848 0.13449852
0.106558815 0.067938335 -0.04173561 -0.12126177 0.07067183 -0.07259749 -0.14711905 -0.017076682
0.07024518 0.17147459 -0.006416403 -0.13490255 -0.057577435 0.06877601 -0.009084931 0.027386962
0.016737979 0.09450849 -0.13015845 -0.0614829 -0.12671602 0.02793407 0.015922243 -0.073740005
0.088895254 0.11523377 -0.1476074 0.13884923 0.07077328 0.08178185 0.093997285 0.09824611
-0.0324638 0.069736764 0.07367315 -0.14264683 0.00016293341 -0.02292139 -0.12050572 -0.028328601
-0.04755245 -0.08286574 0.06781675 -0.080301486 -0.07329747 0.1327918 0.011364574 -0.04835364
0.13014819 0.034229826 0.055521384 0.013946994 0.047697794 -0.09949807 0.017568089 -0.1432244
0.05257313 -0.046629217 0.026954046 0.016047735 0.022117224 0.07781075 0.0014732451 0.1041461
0.047380883 -0.07592361 -0.0633047 -0.07190942 0.076482244 0.060385007 0.07226434 0.08618355
0.09776488 -0.018785767 -0.09555526 -0.0116214175 0.043048803 -0.12104412 0.09865612 0.13778445
-0.09870539 0.0774025 -0.11778355 -0.003645148 -0.007709248 -0.039052326 -0.058787715 -0.07884948
0.04435103 -0.016391255 0.031300094 0.14382932 0.13855185 -0.07469632 0.029563822 0.09673591
-0.09616111 -0.13905652 -0.019230176 0.075618595 0.031907316 -0.0008718766 0.061348323 0.031988263
0.030203199 -0.04140879 0.10609573 -0.14954755 0.07417892 -0.03644263 -0.082020655 -0.052563976
0.036932964 0.001572649 0.10497873 0.095862456 0.019517377 -0.13937297 -0.10127894 0.009541615
-0.09421159 -0.0775221 0.0035117534 -0.10429518 -0.11132028 0.10056406 0.017806074 0.056173205
0.008499533 -0.054767426 -0.07651381 0.049855795 0.03732298 0.014806966 0.04242586 -0.034627024
-0.15590699 -0.0068678395 -0.07945204 0.047752507 -0.057002578 0.03891214 -0.120399415 -0.02743473
0.0030875853 0.10401566 0.004720825 -0.18562137 -0.13061856 -0.12396968 0.054387648 -0.014764925
-0.12664093 0.131355 0.0598939 -0.104411505 0.1886454 -0.09903246 0.13801306 0.10340037
0.021937711 0.022199249 0.012982479 0.06520562 -0.002621178 0.100755736 -0.1075526 0.08657351
-0.07148715 -0.16203475 0.0067825257 -0.15881513 0.075163186 0.060490377 0.023385353 -0.15480004
0.0144704385 0.049162682 0.0954947 -0.03187751 0.063783385 -0.052899666 -0.009347195 0.00035330057
0.07411721 -0.069544345 0.08665975 0.12147111 -0.0653655 0.048568036 0.07595617 -0.025320033
-0.096406735 -0.03876412 -0.000776806 -0.114502564 0.085166655 0.09451559 -0.052326497 -0.030702217
-0.15663727 0.014112738 -0.088036984 -0.06666464 -0.13546564 -0.010235136 0.047610685 -0.06339563
0.08920751 0.07779853 0.12731 -0.020362105 -0.0942102 -0.044275723 0.17762144 -0.1227605
-0.088754885 0.026069574 -0.13054305 0.041222636 0.008208962 0.0011798784 0.12992907 0.09802
-0.06402928 0.1500955 0.03186794 0.071900785 0.06469254 0.14195172 0.042120114 0.0999395
0.039369706 0.11968685 0.06434844 0.07584699 0.058040004 0.017871093 0.084752016 0.042505804
00000000: c0cd adbd 8185 eb3c 4884 da3d b526 1c3e
00000010: 615e b8b9 4ac1 4c3d 9fce d7bd d912 13be
00000020: b250 9bbd 7215 dfbd e7eb 0f3d dbcd 03bd
00000030: ac15 ac3d 015a 4fbc d678 6f3d fbb9 093e
00000040: 823b da3d 4123 8b3d f6f2 2abd 1758 f8bd
00000050: 64bc 903d fead 94bd 60a6 16be 66e4 8bbc
00000060: b4dc 8f3d 0997 2f3e b140 d2bb e523 0abe
00000070: 51d6 6bbd 70da 8c3d f6d8 14bc 9f5a e03c
00000080: 161e 893c ab8d c13d 4248 05be 7ed5 7bbd
00000090: d8c1 01be fed5 e43c 5d6f 823c 0005 97bd
000000a0: b70e b63d afff eb3d 6526 17be 7e2e 0e3e
000000b0: 95f1 903d 3e7d a73d a681 c03d 4235 c93d
000000c0: c3f8 04bd 26d2 8e3d f3e1 963d 0312 12be
000000d0: 1bd9 2a39 a4c5 bbbc b4cb f6bd 6211 e8bc
000000e0: 5cc6 42bd 83b5 a9bd 82e3 8a3d 1b75 a4bd
000000f0: fc1c 96bd 93fa 073e 7a32 3a3c 770e 46bd
00000100: 9145 053e 9334 0c3d 646a 633d ef81 643c
00000110: c35e 433d a5c5 cbbd f4ea 8f3c 6ba9 12be
00000120: ec56 573d 47fe 3ebd bbce dc3c 8a76 833c
00000130: 2e2f b53c 3e5b 9f3d e719 c13a 8d4a d53d
00000140: 7512 423d d67d 9bbd e5a5 81bd 3f45 93bd
00000150: b9a2 9c3d 4556 773d 54ff 933d 0081 b03d
00000160: f438 c83d 9ce4 99bc 7ab2 c3bd c267 3ebc
00000170: f153 303d fbe5 f7bd 380c ca3d 5e17 0d3e
00000180: 0d26 cabd 3485 9e3d 8038 f1bd 6fe3 6ebb
00000190: dc9d fcbb 55f5 1fbd 63cb 70bd d67b a1bd
000001a0: 6da9 353d f446 86bc 8734 003d fe47 133e
000001b0: 89e0 0d3e 62fa 98bd d42f f23c 7a1d c63d
000001c0: 1ef0 c4bd d564 0ebe 9a88 9dbc ecdd 9a3d
000001d0: 3fb1 023d a68e 64ba 6148 7b3d 2006 033d
000001e0: b36c f73c 439c 29bd b848 d93d fe22 19be
000001f0: 1eeb 973d de44 15bd 72fa a7bd 534d 57bd
00000200: 0547 173d 5821 ce3a 17ff d63d 8953 c43d
00000210: e8e2 9f3c cab7 0ebe 556b cfbd 6f54 1c3c
00000220: 02f2 c0bd e8c3 9ebd 7225 663b b698 d5bd
00000230: e3fb e3bd 88f4 cd3d 0bde 913c e015 663d
00000240: a041 0b3c cf53 60bd 46b3 9cbd 9735 4c3d
00000250: fbdf 183d eb98 723c bdc6 2d3d 11d5 0dbd
00000260: 15a6 1fbe 9d0b e1bb c0b7 a2bd 2298 433d
00000270: 897b 69bd 5662 1f3d f893 f6bd cdbe e0bc
00000280: 1659 4a3b 2a06 d53d 26b1 9a3b 8713 3ebe
00000290: dfc0 05be d1e3 fdbd 95c5 5e3d 96e8 71bc
000002a0: 29ae 01be ed81 063e 4e53 753d b3d5 d5bd
000002b0: 422c 413e 88d1 cabd 4c53 0d3e 93c3 d33d
000002c0: b7b6 b33c 33db b53c 77b4 543c 868a 853d
000002d0: 12c8 2bbb 0659 ce3d 8a44 dcbd 744d b13d
000002e0: db67 92bd 70ec 25be f33f de3b 6fa0 22be
000002f0: 28ef 993d c2c4 773d a492 bf3c e783 1ebe
00000300: 6b15 6d3c cf5e 493d ba92 c33d fe91 02bd
00000310: dda0 823d 52ad 58bd fa24 19bc 333b b939
00000320: c4ca 973d 446d 8ebd ab7a b13d d8c5 f83d
00000330: 59de 85bd 47ef 463d e98e 9b3d f56b cfbc
00000340: e570 c5bd 20c7 1ebd 91a2 4bba 5280 eabd
00000350: db6b ae3d 6491 c13d 4f54 56bd 3783 fbbc
00000360: 8565 20be 1d39 673c bc4c b4bd 7987 88bd
00000370: 81b7 0abe 46b1 27bc 6c03 433d 91d5 81bd
00000380: 6db2 b63d d654 9f3d 8d5d 023e 6ece a6bc
00000390: 47f1 c0bd 765a 35bd 65e2 353e db69 fbbd
000003a0: 1fc5 b5bd dc8f d53c 14ad 05be 11d9 283d
000003b0: e27e 063c 26a6 9a3a 200c 053e b6be c83d
000003c0: c821 83bd a2b2 193e f587 023d b840 933d
000003d0: 867d 843d cb5b 113e 2486 2c3d 15ad cc3d
000003e0: 2142 213d 611e f53d 1dc9 833d ab55 9b3d
000003f0: 5bbb 6d3d 6666 923c 7792 ad3d 911a 2e3d

lstm.bias_ih_l0 f4 [256]
0.04430412 -0.062083382 0.10204434 0.08192448 0.0027414544 -0.0073912404 -0.07523883 0.1528188
0.0060915 0.07431895 -0.008723389 -0.018037867 0.13289624 0.07625161 -0.048309915 0.0074322196
0.14636804 -0.009928411 0.0700761 0.06107278 -0.021660551 0.17482111 0.0037729642 0.15330929
-0.05031361 0.13813895 0.10786698 0.11683286 0.03444098 0.09962846 0.02541645 -0.020603169
0.043691166 -0.019143278 0.17376366 0.14140996 -0.08035771 0.14539303 0.030830117 -0.009552292
0.05796795 -0.102471925 0.10237926 0.08613882 0.11207251 0.14508384 0.11631546 0.038254153
0.1120316 0.048913617 0.039130766 -0.060274094 -0.08044764 0.07469519 0.13783748 0.08912965
-0.053814303 0.085415594 0.028785707 0.16835585 0.066952474 0.043082684 0.049884077 0.057184283
-0.041333977 -0.049325246 -0.038500648 0.026764184 -0.049783394 -0.08164234 0.103824876 -0.061727792
0.077968754 0.010158946 -0.010541238 -0.0035551025 -0.11758047 0.07759772 -0.04054957 0.09923516
0.11415428 0.07229655 0.012897978 0.012278408 0.10404355 -0.07344325 -0.0030085647 0.019114137
0.05856625 -0.09869669 -0.079147436 0.06331467 0.003705607 0.09947152 -0.044575915 0.06074227
-0.033862293 -0.064795926 -0.052325055 0.05578263 0.0816323 -0.10687666 -0.030674467 0.04460055
-0.008173815 0.05556497 -0.01950249 0.048197243 0.11144633 -0.05723719 -0.11106004 -0.09096671
-0.08182463 -0.0012958992 0.07115749 0.035371132 -0.08614166 0.14123008 0.09372182 0.029035198
0.10285435 -0.027238013 -0.11673269 0.009896694 -0.083575234 -0.06672847 0.053354416 0.13631578
-0.11519567 -0.076541245 -0.12930661 -0.03700707 -0.015768401 -0.11902917 -0.023845881 -0.10729404
-0.045103505 0.06769758 0.103976965 -0.07448943 0.009039727 -0.032789465 -0.122177586 0.11346715
0.11153674 0.09835108 0.008671253 0.023249589 0.11973698 -0.1027366 -0.060702987 -0.15928175
0.04267023 0.08973637 -0.11897206 -0.15368077 0.010127661 -0.10542716 -0.12646702 -0.013894029
0.125928 -0.03989533 0.020579487 -0.12982854 -0.10502579 -0.05687049 -0.05890949 -0.06861901
-0.043882195 0.12192385 -0.0032333925 0.10583284 0.10514393 -0.020846693 0.08921658 -0.034605946
0.076173075 0.05815401 -0.13368078 -0.09705119 0.0103423 -0.04534144 -0.019073166 0.092301145
-0.029913764 -0.085955225 -0.06694771 -0.053160567 -0.028325526 0.07915513 -0.019037051 -0.010738897
-0.05171539 0.00012004058 0.08975558 0.07555257 0.12014729 -0.0069637136 0.014840122 -0.07618504
-0.040301237 0.046909977 0.15141882 0.030120922 0.15238588 -0.08129573 0.13536902 -0.07162052
0.060727756 0.08197516 -0.021335293 0.054127514 0.024771886 0.0048780413 0.07539928 0.1334395
-0.018099021 0.17087997 -0.033665016 -0.07601136 -0.029977342 -0.09564544 -0.03352402 0.020117667
0.03864055 -0.004471501 0.100748144 -0.0810812 -0.046396352 0.018135658 0.03912485 0.09939535
0.1948101 0.092885576 0.028941782 0.12545475 0.10879059 0.14008431 -0.10166143 0.14253356
0.032564905 0.1511672 0.11640265 0.12202243 0.015721017 0.13024572 0.15487862 0.05970143
-0.06747238 0.017811432 0.09871089 0.08259427 -0.0015079613 -0.0017944056 0.008314709 0.017128522
00000000: 3d78 353d 254b 7ebd 9ffc d03d 06c8 a73d
00000010: f9a9 333b 3832 f2bb d116 9abd 887c 1c3e
00000020: 359b c73b 8934 983d 8cec 0ebc 26c4 93bc
00000030: f415 083e ce29 9c3d 9ee0 45bd fa89 f33b
00000040: 81e1 153e c6aa 22bc 0f84 8f3d 7427 7a3d
00000050: 7871 b1bc 4e04 333e d643 773b 1cfd 1c3e
00000060: a515 4ebd 4c74 0d3e 5de9 dc3d 1146 ef3d
00000070: fc11 0d3d 020a cc3d 2936 d03c fac7 a8bc
00000080: 82f5 323d 5dd2 9cbc 1aef 313e c6cd 103e
00000090: 9592 a4bd e9e1 143e 718f fc3c 3781 1cbc
000000a0: cd6f 6d3d cddc d1bd 38ac d13d 8d69 b03d
000000b0: 4686 e53d dc90 143e cd36 ee3d 63b0 1c3d
000000c0: d370 e53d a559 483d 9547 203d f8e1 76bd
000000d0: bbc1 a4bd cbf9 983d 4525 0d3e 9b89 b63d
000000e0: 636c 5cbd 5fee ae3d 01d0 eb3c 7a65 2c3e
000000f0: 611e 893d 7877 303d 3f53 4c3d 113a 6a3d
00000100: d14d 29bd 4509 4abd dbb2 1dbd 9040 db3c
00000110: ace9 4bbd 1934 a7bd 23a2 d43d 48d6 7cbd
00000120: 15ae 9f3d b571 263c 28b5 2cbc b9fc 68bb
00000130: 08ce f0bd 8eeb 9e3d 4e17 26bd ce3b cb3d
00000140: b8c9 e93d 3710 943d 0a52 533c 602b 493c
00000150: c914 d53d 6a69 96bd 572b 45bb 4095 9c3c
00000160: 2ae3 6f3d 7d21 cabd 0d18 a2bd 1fab 813d
00000170: c5d9 723b b9b7 cb3d 3c95 36bd e3cc 783d
00000180: 30b3 0abd bab3 84bd cc52 56bd 547c 643d
00000190: d62e a73d 26e2 dabd 0549 fbbc 11af 363d
000001a0: 77eb 05bc 1898 633d b0c3 9fbc 796a 453d
000001b0: f93d e43d 8b71 6abd 7273 e3bd c14c babd
000001c0: ac93 a7bd 29db a9ba 05bb 913d 52e1 103d
000001d0: 0a6b b0bd 9e9e 103e 3af1 bf3d 39db ed3c
000001e0: 4da5 d23d 4122 dfbc 8c11 efbd be25 223c
000001f0: 7e29 abbd f0a8 88bd 298a 5a3d 5d96 0b3e
00000200: b5eb ebbd a8c1 9cbd f468 04be ba94 17bd
00000210: bc2c 81bc 91c5 f3bd 7058 c3bc fabc dbbd
00000220: 74be 38bd 07a5 8a3d e0f1 d43d ea8d 98bd
00000230: 5d1b 143c 3f4e 06bd 3e38 fabd 7761 e83d
00000240: 606d e43d 4b6c c93d df11 0e3c ec75 be3c
00000250: a938 f53d 9167 d2bd b2a3 78bd c11a 23be
00000260: fbc6 2e3d b4c7 b73d a0a7 f3bd 7e5e 1dbe
00000270: 7dee 253c 32ea d7bd 9280 01be c8a3 63bc
00000280: 45f3 003e 4969 23bd 5096 a83c c6f1 04be
00000290: c317 d7bd 08f1 68bd 144b 71bd 2088 8cbd
000002a0: d1bd 33bd 36b3 f93d 53e7 53bb e3be d83d
000002b0: b355 d73d afc6 aabc 2fb7 b63d f7be 0dbd
000002c0: a100 9c3d e632 6e3d 9de3 08be c6c2 c6bd
000002d0: c072 293c f2b7 39bd 543f 9cbc 6208 bd3d
000002e0: b60d f5bc 4b09 b0bd e21b 89bd e5be 59bd
000002f0: ef0a e8bc 161c a23d 97f3 9bbc 33f2 2fbc
00000300: 84d3 53bd 4cbe fb38 c6d1 b73d 4ebb 9a3d
00000310: c80f f63d dd2f e4bb fc23 733c e706 9cbd
00000320: e912 25bd ad24 403d 890d 1b3e 27c0 f63c
00000330: 0b0b 1c3e 607e a6bd 2d9e 0a3e c7ad 92bd
00000340: abbd 783d 98e2 a73d 5ac7 aebc d0b4 5d3d
00000350: 69ee ca3c fad7 9f3b f06a 9a3d 5da4 083e
00000360: 6644 94bc 29fb 2e3e 54e4 09bd d8ab 9bbd
00000370: 0b93 f5bc c2e1 c3bd 7c50 09bd cecd a43c
00000380: 8e45 1e3d ab85 92bb 0b55 ce3d e60d a6bd
00000390: 1a0a 3ebd 3b91 943c 6141 203d ca8f cb3d
000003a0: 4d7c 473e cb3a be3d 5117 ed3c 3677 003e
000003b0: 9acd de3d 4372 0f3e de33 d0bd 51f4 113e
000003c0: c762 053d 93cb 1a3e 8364 ee3d e5e6 f93d
000003d0: 5dc9 803c 225f 053e 8098 1e3e 7d89 743d
000003e0: f62e 8abd 48e9 913c ef28 ca3d 2f27 a93d
000003f0: c9a6 c5ba 4332 ebba 6b3a 083c 1d51 8c3c

lstm.bias_hh_l0 f4 [256]
0.18080729 0.033184346 0.14915878 0.045034517 0.033947784 0.14183651 -0.009346598 0.10436043
-0.04134815 0.139049 0.1746351 0.15703309 -0.0008363952 -0.07086804 0.14761142 -0.024622558
0.07048947 -0.023733927 -0.017871631 0.13347098 -0.061305948 0.1879722 0.018486176 0.0020703718
-0.06575538 0.115965426 0.016176827 0.121927716 0.010470509 -0.08255538 0.08238148 0.0052398024
-0.043412335 0.015145645 0.038585447 0.070007786 -0.06473831 0.11954357 0.0711723 0.09741997
0.0627244 0.023011953 0.11492473 -0.02831237 -0.036919415 0.04567244 -0.082266726 -0.022107998
0.122099996 0.029665751 -0.0724331 -0.048683643 -0.016442431 0.10713857 0.014553671 0.07354545
0.13003303 0.07989618 0.1829518 0.13724856 0.090671204 -0.035596825 0.09506274 -0.011827116
0.028924638 0.04999883 0.0104502905 -0.113738015 -0.03310103 0.07284402 -0.008933503 0.12952448
0.08770805 -0.04822321 -0.006643437 -0.06483485 -0.059105836 0.034298513 0.059730537 0.05694736
0.06964727 0.00456471 -0.039837673 0.10470312 -0.022739539 0.018848369 0.024156809 -0.007583981
-0.07387984 0.11299687 0.041678164 0.004682245 -0.10830926 0.060407728 -0.0829653 0.03787399
0.040067125 -0.10426898 0.008305607 0.10351619 -0.05401702 0.05167992 0.050904527 -0.04376295
-0.039167296 -0.023089282 0.045460507 0.083831936 0.07603535 0.12635027 0.007017856 -0.07253853
0.055422135 0.09426746 0.123860285 0.016097808 0.061041772 0.027357008 0.12366952 -0.043539867
0.07740896 -0.101058565 -0.01473678 0.03243117 0.07301525 0.094979875 -0.081363276 0.12017164
0.028432721 -0.038686343 0.10155427 0.16146766 -0.13332722 -0.09692191 -0.07697775 -0.13109213
-0.10131808 -0.05494562 -0.092278376 0.065890305 0.0329372 0.020029072 -0.018893765 -0.003425337
0.051475167 -0.06426617 0.085833214 -0.057554368 -0.024877412 0.08552847 -0.018486433 -0.037479818
-0.040617097 0.14474201 0.05209939 -0.090901986 -0.06542834 -0.11313665 -0.072862126 -0.04790727
0.16470456 0.04282629 -0.11636444 0.058764733 -0.034175146 -0.06201403 0.10355517 -0.10775623
0.039324638 0.041037783 -0.12647134 0.023931015 0.11250571 0.033040494 0.09783139 -0.029755082
-0.0031277584 -0.054447554 0.071579196 -0.07262831 0.14951931 0.12445889 -0.12527062 0.0804593
-0.07212147 -0.020567512 -0.11114919 -0.12491636 -0.11911528 -0.035122998 0.07372118 -0.080750465
0.10508419 0.15872605 0.03603892 -0.04684936 0.15217401 -0.021792777 -0.06831693 0.15585315
0.08146914 0.1016221 -0.070284314 0.07330464 0.15195374 0.049939424 0.07201867 -0.037453856
0.009439394 -0.033570018 -0.00866282 -0.022394953 0.11967087 -0.028245643 0.08248498 0.049941048
0.1008031 0.091546774 -0.01664361 0.03114164 0.077329166 -0.0120552145 0.1384574 0.069071904
0.07797535 -0.026527662 0.099865474 0.0066283294 -0.06538465 0.17745258 -0.03527839 0.010417507
0.08620635 0.08389456 -0.037100036 0.016158203 -0.08752458 0.11055173 -0.008716624 0.1083657
0.029028345 -0.023560721 -0.0051696682 -0.09919817 -0.07008967 0.13350461 0.049933046 0.0119397165
-0.08097626 0.10433324 -0.020533739 0.1784333 0.03895403 0.17022835 -0.003706959 0.04844415
00000000: 8c25 393e 4fec 073d 14bd 183e 1d76 383d
00000010: d50c 0b3d 973d 113e 7922 19bc ecba d53d
00000020: ae5c 29bd dc62 0e3e 8bd3 323e 48cd 203e
00000030: 8841 5bba 4323 91bd 7327 173e 3fb5 c9bc
00000040: c95c 903d a76d c2bc 8767 92bc 9eac 083e
00000050: f21b 7bbd c97b 403e 5270 973c 13af 073b
00000060: c2aa 86bd 487f ed3d 4485 843c 3db5 f93d
00000070: 7f8c 2b3c cc12 a9bd 9fb7 a83d a6b2 ab3b
00000080: 22d1 31bd 7025 783c c60b 1e3d 3e60 8f3d
00000090: 8595 84bd 42d3 f43d c8c2 913d 1f84 c73d
000000a0: a675 803d 9083 bc3c a85d eb3d 58ef e7bc
000000b0: d038 17bd 0613 3b3d 757b a8bd d51b b5bc
000000c0: 900f fa3d 9705 f33c ce57 94bd 8068 47bd
000000d0: 47b2 86bc 776b db3d 8572 6e3c ff9e 963d
000000e0: 6127 053e 9ca0 a33d b757 3b3e e38a 0c3e
000000f0: d3b1 b93d facd 11bd 41b0 c23d 85c6 41bc
00000100: 5df3 ec3c 93cb 4c3d b237 2b3c 7aef e8bd
00000110: f294 07bd 3f2f 953d d45d 12bc 11a2 043e
00000120: 47a0 b33d b385 45bd 30b1 d9bb 22c8 84bd
00000130: f618 72bd 997c 0c3d 02a8 743d a341 693d
00000140: 3aa3 8e3d 9093 953b d42c 23bd 976e d63d
00000150: 4548 babc e567 9a3c 80e4 c53c 0b83 f8bb
00000160: 504e 97bd e76a e73d b9b6 2a3d 856d 993b
00000170: 3fd1 ddbd 186e 773d b6e9 a9bd c221 1b3d
00000180: 6d1d 243d fa8a d5bd 3e14 083c 4c00 d43d
00000190: f340 5dbd 53ae 533d 4481 503d c740 33bd
000001a0: e36d 20bd bc25 bdbc cc34 3a3d 14b0 ab3d
000001b0: 6cb8 9b3d f761 013e 0bf6 e53b 158f 94bd
000001c0: 5202 633d 4c0f c13d 76aa fd3d 8ddf 833c
000001d0: f006 7a3d ce1b e03c 7246 fd3d dc56 32bd
000001e0: 9788 9e3d cbf7 cebd 8972 71bc 8cd6 043d
000001f0: 0589 953d cf84 c23d caa1 a6bd 8c1c f63d
00000200: bdeb e83c 9275 1ebd affb cf3d c757 253e
00000210: ee86 08be ff7e c6bd 83a6 9dbd 043d 06be
00000220: db7f cfbd a90e 61bd 72fc bcbd 7ff1 863d
00000230: 28e9 063d 0214 a43c 19c7 9abc 9e7b 60bb
00000240: a0d7 523d fb9d 83bd 53c9 af3d 21be 6bbd
00000250: b7cb cbbc 8d29 af3d dc70 97bc 7084 19bd
00000260: 1d5e 26bd 4037 143e 2c66 553d d22a babd
00000270: 4bff 85bd 30b4 e7bd bd38 95bd 6a3a 44bd
00000280: 50a8 283e 9f6a 2f3d 7b50 eebd 4ab3 703d
00000290: 3dfb 0bbd 6c02 7ebd bc14 d43d 4caf dcbd
000002a0: df12 213d 3c17 283d b481 01be fa0a c43c
000002b0: 6569 e63d 7855 073d d35b c83d eec0 f3bc
000002c0: 14fb 4cbb 6604 5fbd 1d98 923d 27be 94bd
000002d0: 971b 193e 4de4 fe3d f146 00be d8c7 a43d
000002e0: 6cb4 93bd 337d a8bc 30a2 e3bd 26d4 ffbd
000002f0: b6f2 f3bd 22dd 0fbd 21fb 963d 8060 a5bd
00000300: 6136 d73d 1589 223e 8c9d 133d 1de5 3fbd
00000310: 81d3 1b3e c486 b2bc bfe9 8bbd f897 1f3e
00000320: 4bd9 a63d 3f1f d03d 39f1 8fbd be20 963d
00000330: c399 1b3e 488d 4c3d 867e 933d 3769 19bd
00000340: b0a7 1a3c b780 09bd 80ee 0dbc 9f75 b7bc
00000350: 0016 f53d 6863 e7bc e3ed a83d fc8e 4c3d
00000360: db71 ce3d e07c bb3d 2e58 88bc c11c ff3c
00000370: c15e 9e3d 3c83 45bc c7c7 0d3e 9275 8d3d
00000380: 8ab1 9f3d 8a50 d9bc 4586 cc3d 7532 d93b
00000390: 63e8 85bd 21b6 353e 1380 10bd 31ae 2a3c
000003a0: f48c b03d e9d0 ab3d 35f6 17bd 355e 843c
000003b0: 1640 b3bd f268 e23d 2cd0 0ebc d6ee dd3d
000003c0: dacc ed3c 6a02 c1bc 5266 a9bb 6928 cbbd
000003d0: 2c8b 8fbd 6fb5 083e 9886 4c3d cd9e 433c
000003e0: e2d6 a5bd aaac d53d 5f36 a8bc 38b7 363e
000003f0: 438e 1f3d 5750 2e3e 74f0 72bb 5f6d 463d

lstm.weight_ih_l1 f4 [256, 64]
-0.004174369 -0.06389087 -0.016287936 -0.017413873 -0.0044509363 -0.0050801956 -0.047642406 -0.16265556
-0.20986429 -0.11887649 0.12782593 -0.030937735 -0.014258225 -0.16118068 -0.09617928 0.22823423
0.0007031023 -0.005655667 0.08602326 -0.06453476 -0.03750682 0.21730831 -0.21386626 -0.11405507
-0.09165007 -0.04210939 0.070528105 0.015983917 -0.2296732 -0.06672349 -0.07725719 -0.05059754
0.035126165 0.021343743 0.15382902 -0.07793182 -0.06417613 0.108619064 0.07120326 0.015808502
-0.016909964 0.0941607 -0.12405274 0.11988893 0.10375736 -0.006583065 0.17151693 0.14815646
-0.111631386 0.00619248 -0.09700664 -0.15833946 0.050447244 0.085839 -0.1926507 0.01299038
-0.054754745 -0.1109872 0.020535668 0.0868701 -0.10747742 0.13970636 -0.012720547 -0.09738787
-0.09394128 0.060391307 0.011946957 -0.08730999 -0.041963205 -0.12885818 -0.043559253 -0.121714674
-0.12055905 -0.16727863 0.018752638 0.1648529 -0.050354425 -0.14904743 -0.06365078 0.13502154
-0.016864266 0.026864136 0.04767451 -0.12566188 -0.1231241 0.09927879 -0.19924317 -0.03725878
-0.16228083 0.015636317 0.048564535 -0.10340794 0.03554007 0.055174503 -0.011599548 -0.057689533
0.13010527 0.045922138 0.005108954 -0.102221735 0.10388187 0.12881501 0.123717844 0.09060262
-0.0823112 0.08140439 -0.09680718 -0.15347977 0.120152496 -0.14865887 0.03380081 0.08988082
-0.022559969 0.0564737 0.049629427 -0.15322915 -0.09478706 -0.010360443 0.029114088 -0.04387983
-0.12593609 -0.16552678 -0.018249108 0.10034395 -0.044922497 0.026532736 -0.005580712 -0.13760342
0.108741164 0.024088467 -0.14049245 0.15427758 -0.027564136 -0.0025920619 -0.13505676 -0.08979571
-0.15483512 0.05334393 -0.08504741 -0.088016845 0.10200831 0.041136935 -0.14040117 0.09364209
-0.012979168 0.11054516 0.17474462 0.08087926 0.08953135 0.051150884 0.14110227 -0.08876432
-0.052596364 0.024436539 -0.021985468 -0.1680272 0.12986524 -0.11094394 -0.075642526 -0.091958925
0.06554155 -0.0072357547 -0.108135834 -0.10564818 -0.1677573 -0.11641499 0.06286688 -0.03975445
0.18092205 0.13951413 0.0008284876 0.040607426 0.061000876 0.08158692 0.16422647 -0.0725972
0.20435217 0.014526945 -0.17510739 -0.0408144 0.043950487 0.12392237 -0.1271309 -0.09717706
-0.016048115 -0.1298828 -0.05189824 -0.11619995 -0.10885814 -0.16621397 0.15927655 0.12171473
-0.010044402 0.061522156 -0.16490163 0.15186258 0.019990876 0.03812733 -0.06636481 -0.034502942
-0.071588516 -0.020659517 -0.10936472 0.0070562395 0.08494613 -0.038282275 -0.05394019 -0.08231923
0.057417843 0.17108071 0.04095199 -0.029700732 0.019650964 0.008497093 -0.02788083 0.0761665
0.06076929 -0.021212153 -0.17278513 -0.09609129 -0.01638233 -0.07277944 -0.087810956 0.0123000145
-0.038324367 -0.09321032 0.023813792 0.055326916 -0.16289751 0.013181255 -0.1198857 -0.038622633
-0.046023052 0.04609175 -0.023961801 0.120962866 0.11501485 0.03088788 0.008989857 -0.018075889
-0.02028211 -0.034126792 0.074552804 0.07705082 -0.050399814 -0.016863482 -0.05639358 0.028722802
0.11415265 -0.119981654 -0.103785425 -0.07664693 -0.13821276 -0.06918473 -0.03611648 0.09198699
00000000: 25c9 88bb 37d9 82bd 476e 85bc 8aa7 8ebc
00000010: 29d9 91bb c577 a6bb af24 43bd 2e8f 26be
00000020: aae6 56be 8475 f3bd cde4 023e 2271 fdbc
00000030: 559b 69bc 8c0c 25be a4f9 c4bd 3cb6 693e
00000040: 6650 383a 2c53 b9bb f72c b03d cd2a 84bd
00000050: c0a0 19bd 1286 5e3e c2ff 5abe b495 e9bd
00000060: 08b3 bbbd e57a 2cbd 0a71 903d b4f0 823c
00000070: 742f 6bbe 53a6 88bd 0539 9ebd 5e3f 4fbd
00000080: 74e0 0f3d 13d9 ae3c 5b85 1d3e b89a 9fbd
00000090: c66e 83bd ac73 de3d 04d3 913d d580 813c
000000a0: c486 8abc 53d7 c03d 5d0f febd 5488 f53d
000000b0: bd7e d43d c0b6 d7bb 22a2 2f3e 54b6 173e
000000c0: ff9e e4bd 4aea ca3b 6bab c6bd bd23 22be
000000d0: c5a1 4e3d 5ccc af3d 3a46 45be 9ad5 543c
000000e0: 8346 60bd 424d e3bd 6b3a a83c f3e8 b13d
000000f0: 1f1d dcbd 2f0f 0f3e d769 50bc 4b73 c7bd
00000100: 4964 c0bd e05c 773d 2bbd 433c 94cf b2bd
00000110: 9ce1 2bbd 66f3 03be 306b 32bd 8b45 f9bd
00000120: aae7 f6bd 174b 2bbe 229f 993c 33cf 283e
00000130: 7140 4ebd e49f 18be 575b 82bd 1643 0a3e
00000140: ee26 8abc 2d12 dc3c 5946 433d 82ad 00be
00000150: 7d28 fcbd ae52 cb3d 6706 4cbe aa9c 18bd
00000160: f22c 26be bc17 803c 9beb 463d 8bc7 d3bd
00000170: 7792 113d a9fe 613d 080c 3ebc dc4b 6cbd
00000180: 513a 053e da18 3c3d 0369 a73b a159 d1bd
00000190: 05c0 d43d 15e8 033e c85f fd3d de8d b93d
000001a0: c692 a8bd 58b7 a63d d842 c6bd cd29 1dbe
000001b0: 8312 f63d 083a 18be b872 0a3d 6f13 b83d
000001c0: afcf b8bc f750 673d 3a48 4b3d 1ae8 1cbe
000001d0: b81f c2bd d9be 29bc ab80 ee3c 56bb 33bd
000001e0: 64f5 00be da7f 29be 277f 95bc 2181 cd3d
000001f0: a700 38bd 2e5b d93c 68de b6bb e9e7 0cbe
00000200: b0b3 de3d 2d55 c53c 41dd 0fbe f1fa 1d3e
00000210: 2fce e1bc 95df 29bb 524c 0abe d0e6 b7bd
00000220: 198d 1ebe 2a7f 5a3d 562d aebd 2d42 b4bd
00000230: bce9 d03d 347f 283d 53c5 0fbe 6dc7 bf3d
00000240: 94a6 54bc 8065 e23d 41f0 323e 07a4 a53d
00000250: 365c b73d 9783 513d 1d7d 103e 11ca b5bd
00000260: 496f 57bd 232f c83c de1a b4bc 530f 2cbe
00000270: 65fb 043e 9436 e3bd 78ea 9abd f654 bcbd
00000280: a63a 863d e919 edbb 5276 ddbd 135e d8bd
00000290: 92c8 2bbe fb6a eebd 5ac0 803d 90d5 22bd
000002a0: a143 393e cbdc 0e3e dd2e 593a f953 263d
000002b0: 0edc 793d 0b17 a73d fc2a 283e d7ad 94bd
000002c0: b241 513e 6c02 6e3c 5a4f 33be 002d 27bd
000002d0: 6d05 343d 03cb fd3d 9a2e 02be c404 c7bd
000002e0: 5677 83bc ffff 04be 4093 54bd 3dfa edbd
000002f0: 04f1 debd ff33 2abe 6419 233e 9345 f93d
00000300: 4791 24bc a8fe 7b3d f9db 28be dd81 1b3e
00000310: e8c3 a33c 672b 1c3d 46ea 87bd f552 0dbd
00000320: 009d 92bd 263e a9bc 9cfa dfbd 0738 e73b
00000330: 3df8 ad3d e0cd 1cbd 63f0 5cbd fc96 a8bd
00000340: f92e 6b3d c82f 2f3e 46bd 273d f34e f3bc
00000350: 0ffb a03c 6437 0b3c 5766 e4bc 2ffd 9b3d
00000360: 38e9 783d 1cc5 adbc 96ee 30be 83cb c4bd
00000370: 3c34 86bc 630d 95bd 3bd6 b3bd 0086 493c
00000380: 03fa 1cbd 0de5 bebd 2415 c33c 7a9e 623d
00000390: 9bce 26be 31f6 573c a286 f5bd c432 1ebd
000003a0: ab82 3cbd b4ca 3c3d 8a4b c4bc 61bb f73d
000003b0: e88c eb3d 9408 fd3c 314a 133c e313 94bc
000003c0: ab26 a6bc 89c8 0bbd 24af 983d d2cc 9d3d
000003d0: 0970 4ebd 4925 8abc f4fc 66bd 154c eb3c
000003e0: ddc8 e93d f1b8 f5bd 748d d4bd 11f9 9cbd
000003f0: a587 0dbe b9b0 8dbd e0ee 13bd ad63 bc3d

lstm.weight_hh_l1 f4 [256, 64]
0.16491692 -0.073159665 -0.0013088277 -0.21134038 -0.06627795 0.013040428 -0.102811605 0.20183355
0.17640975 0.06410951 0.19763641 0.054825027 0.01086922 -0.08376226 0.022367463 0.0056027044
-0.06508563 -0.08796306 -0.11588753 -0.07875414 0.12506147 0.15697159 0.028566375 -0.09279568
-0.082038045 -0.063669756 0.11928866 -0.036254555 -0.06584616 -0.088869944 0.036358118 -0.17633018
0.092277505 0.022986779 0.03274589 -0.0035980819 0.09880303 -0.02757603 -0.20194629 -0.18902788
0.018325524 0.14451003 -0.10401258 -0.14305183 -0.006543927 -0.026412502 0.030990832 -0.052036498
0.12006068 0.033395868 -0.102933824 -0.052953746 -0.16359623 0.13465723 0.09047394 0.13121502
-0.013510034 0.006814317 -0.124889925 -0.08729592 -0.09148782 0.03548562 0.04147911 0.008807464
0.06692842 -0.053185206 0.028518075 -0.043225177 0.13278969 -0.023758143 0.05394902 0.017183475
0.056434635 -0.11459821 0.08326664 -0.029030263 -0.036170386 0.03674457 -0.06260232 0.028317109
-0.081129976 -0.036886908 -0.03647105 0.043920986 -0.014500697 -0.04922556 -0.12674753 -0.096381985
-0.085897826 0.11479738 -0.10661697 0.10143461 -0.045381084 -0.07880903 -0.11370131 0.054494515
-0.06235603 -0.016076524 -0.11278924 0.041562647 0.090817735 -0.14714679 -0.061192364 0.046292733
0.070181236 0.09903617 -0.14967012 0.0030133526 0.023849145 -0.053292572 0.034257744 0.012400364
0.037040308 -0.038578324 0.098273315 -0.023686633 -0.050953023 -0.0071053156 -0.081241466 -0.04748972
0.029469956 -0.08156511 0.02601565 0.01599752 -0.0715912 -0.07266649 0.029022321 0.085013404
0.034623373 -0.023663085 0.08531897 0.035753045 0.14711629 0.23008266 -0.124398105 0.1903245
0.025453243 -0.035879947 0.18024348 0.002007746 0.086830564 -0.09249639 -0.042404853 -0.12341711
-0.02206693 -0.05578982 -0.015758002 -0.036547825 0.13371791 0.16812171 0.035474632 0.025910301
-0.026470551 0.032424457 0.1362181 0.0020883568 -0.14946246 -0.009701155 0.02029695 -0.07175006
0.09357768 0.20012164 0.006916883 0.008340585 0.02678197 -0.037023194 -0.15646145 0.05041725
0.08597732 -0.050807126 -0.1691791 0.036922507 0.0093609905 0.060647573 0.16120076 -0.10400663
0.19581167 0.14107281 -0.11162716 0.10363701 -0.10634164 0.039235476 -0.10254724 -0.06251514
-0.030836305 -0.09427815 -0.12700221 -0.12937836 -0.089998014 0.053372353 0.10361689 -0.1387651
0.20841016 -0.0957026 0.056389112 0.014608024 0.109366834 0.071184725 -0.13054372 0.052393194
-0.078017056 -0.045739606 0.13586585 -0.098855406 0.12319949 -0.08442959 -0.14514594 0.10527641
-0.013976066 -0.1556299 0.071435586 -0.17841722 -0.09735621 -0.06688489 0.039205067 0.094787486
0.007984669 0.006648233 0.10102944 0.03422204 -0.051669065 0.00932037 -0.074258015 -0.029185882
-0.00074260676 0.15563291 -0.0037088515 -0.032067597 -0.020073285 0.09767066 -0.016976714 -0.09649054
-0.07206116 -0.02710545 -0.16677943 -0.048614744 0.011671735 -0.042298373 0.08031926 0.09500482
-0.05625718 -0.009072378 -0.08262118 -0.008813911 0.11613611 -0.022401374 0.0042962255 -0.02944892
0.09677614 0.026011003 -0.05883023 -0.049955234 0.02540207 -0.06494021 0.09716229 -0.08746314
00000000: fbdf 283e bcd4 95bd f88c abba 9d69 58be
00000010: bcbc 87bd 85a7 553c e48e d2bd 74ad 4e3e
00000020: c2a4 343e d94b 833d 3361 4a3e 3590 603d
00000030: d014 323c 8c8b abbd f83b b73c e496 b73b
00000040: 9d4b 85bd fa25 b4bd 7156 edbd da49 a1bd
00000050: 1d10 003e 29bd 203e 0804 ea3c a90b bebd
00000060: 9003 a8bd 4a65 82bd 9d4d f43d a87f 14bd
00000070: 5ada 86bd 7201 b6bd 40ec 143d e68f 34be
00000080: fdfb bc3d c54e bc3c 8e20 063d cccd 6bbb
00000090: 3e59 ca3d 20e7 e1bc 02cb 4ebe 8690 41be
000000a0: 691f 963c 70fa 133e 8c04 d5bd 2e7c 12be
000000b0: 706e d6bb 085f d8bc 7ce0 fd3c 3924 55bd
000000c0: 60e2 f53d 1bca 083d f8ce d2bd 07e6 58bd
000000d0: c585 27be 96e3 093e 674a b93d 3b5d 063e
000000e0: 3159 5dbc a24a df3b 4ac6 ffbd 34c8 b2bd
000000f0: f75d bbbd 5f59 113d 00e6 293d 2e4d 103c
00000100: c411 893d bbd8 59bd bd9e e93c e20c 31bd
00000110: 05fa 073e 70a0 c2bc a6f9 5c3d 5cc4 8c3c
00000120: 0128 673d 77b2 eabd b387 aa3d e0d0 edbc
00000130: 6627 14bd 7981 163d a535 80bd 48f9 e73c
00000140: 7927 a6bd ba16 17bd ab62 15bd 7ee6 333d
00000150: 5594 6dbc bea0 49bd 1bca 01be eb63 c5bd
00000160: 33eb afbd e41a eb3d ff59 dabd f3bc cf3d
00000170: 84e1 39bd a166 a1bd 3bdc e8bd a435 5f3d
00000180: 0969 7fbd eab2 83bc 0cfe e6bd 983d 2a3d
00000190: a6fe b93d a6ad 16be d8a4 7abd 739d 3d3d
000001a0: 2ebb 8f3d 7ad3 ca3d 2043 19be ab7b 453b
000001b0: 485f c33c 5049 5abd d951 0c3d e52a 4b3c
000001c0: 94b7 173d 4e04 1ebd 8543 c93d 780a c2bc
000001d0: 1eb4 50bd b5d3 e8bb ed61 a6bd 9584 42bd
000001e0: fa6a f13c 9c0b a7bd c61e d53c 3b0d 833c
000001f0: 689e 92bd 2bd2 94bd 38c0 ed3c 821b ae3d
00000200: 3dd1 0d3d 16d9 c1bc b6bb ae3d c971 123d
00000210: a7a5 163e ca9a 6b3e 6fc4 febd 6de4 423e
00000220: 5283 d03c daf6 12bd bf91 383e 6394 033b
00000230: 39d4 b13d bf6e bdbd b6b0 2dbd 1cc2 fcbd
00000240: b5c5 b4bc de83 64bd ed16 81bc 2cb3 15bd
00000250: 59ed 083e 1928 2c3e d94d 113d d741 d43c
00000260: c5d8 d8bc 82cf 043d c27c 0b3e d0dc 083b
00000270: b00c 19be 98f1 1ebc ca45 a63c b2f1 92bd
00000280: a8a5 bf3d b0ec 4c3e 05a7 e23b f3a6 083c
00000290: dd65 db3c a2a5 17bd 6e37 20be 5182 4e3d
000002a0: e114 b03d 221b 50bd 493d 2dbe 0e3c 173d
000002b0: d75e 193c 9769 783d d011 253e 6e01 d5bd
000002c0: db82 483e 6475 103e c89c e4bd a43f d43d
000002d0: a5c9 d9bd 61b5 203d 4a04 d2bd f007 80bd
000002e0: 6b9c fcbc e714 c1bd de0c 02be c37b 04be
000002f0: e150 b8bd f89c 5a3d 1835 d43d 7018 0ebe
00000300: 7969 553e baff c3bd 45f8 663d 7e56 6f3c
00000310: b8fb df3d 4cc9 913d 41ad 05be 3f9a 563d
00000320: 68c7 9fbd 7459 3bbd 6b20 0b3e b474 cabd
00000330: 0450 fc3d 6ce9 acbd 23a1 14be 299b d73d
00000340: dffb 64bc 725d 1fbe d24c 923d 01b3 36be
00000350: b162 c7bd f2fa 88bd 7e95 203d f11f c23d
00000360: 21d2 023c 6cd9 d93b 86e8 ce3d 692c 0c3d
00000370: f1a2 53bd 77b4 183c 9614 98bd 3b17 efbc
00000380: 7fab 42ba 3c5e 1f3e 3410 73bb 5059 03bd
00000390: bb70 a4bc 8e07 c83d c012 8bbc d59c c5bd
000003a0: cd94 93bd 400c debc 3ac8 2abe 4120 47bd
000003b0: ce3a 3f3c 0f41 2dbd 6d7e a43d e391 c23d
000003c0: ee6d 66bd 50a4 14bc 4b35 a9bd 3968 10bc
000003d0: c5d8 ed3d 1683 b7bc 5ac7 8c3b dd3e f1bc
000003e0: 9232 c63d 0715 d53c f8f7 70bd dc9d 4cbd
000003f0: 0018 d03c 5fff 84bd 06fd c63d e01f b3bd

lstm.bias_ih_l1 f4 [256]
-0.025543764 -0.046806816 0.06579765 -0.051619843 0.12908937 -0.03053296 0.07291243 0.122892976
0.009507913 0.024940187 0.16648568 0.053317543 0.025211709 -0.06355672 0.046150394 0.0057284893
0.0054083266 -0.048744142 0.06278253 -0.042661246 0.17497976 0.07011498 0.1668807 0.18453519
0.06569929 0.024969999 0.051299572 0.04837105 0.09791195 0.050153624 0.091260664 -0.0047450946
-0.042901784 0.14283781 0.14825895 0.049280003 0.04768339 0.025369782 0.033182286 0.010573407
0.029151015 0.13120097 -0.049202505 0.05161453 0.067847475 -0.017827867 0.07099845 0.053538453
-0.041340087 -0.021301286 0.041052114 0.016639628 -0.011671094 0.034320273 -0.04095575 0.039454732
0.08331822 -0.054921597 0.028454693 -0.022704253 0.07853832 0.021770312 -0.040776353 0.063921355
-0.04449649 -0.09130008 0.031636536 -0.06725553 -0.08376023 0.053160887 0.088709325 -0.008663833
-0.09403166 -0.020642074 0.119308405 0.090493515 0.105708204 0.07351483 -0.027965551 0.029144198
-0.0911604 0.089156464 0.026087234 -0.052338842 0.09306787 0.111366875 -0.020314049 0.010300991
-0.0666479 -0.086031534 0.06492167 -0.06797828 -0.018653234 -0.00968349 0.1145274 -0.0631388
0.054473672 -0.004359008 0.120766304 0.037659466 0.07203946 0.11189771 -0.07112877 0.016353143
-0.036593013 0.100286216 0.00036360766 -0.041314974 -0.061749414 -0.12329823 0.11331237 -0.08770589
-0.12514096 0.05410037 0.020709107 -0.047965385 -0.13179018 0.08023248 -0.04924266 0.121745646
0.11504483 0.048542462 0.12024966 0.004519762 -0.02960863 -0.061689373 0.020087633 0.119639985
0.062430326 -0.10082217 0.06462153 -0.088199496 0.0930048 0.07819335 -0.0830115 0.12931378
0.062363785 -0.010874881 0.09885898 0.118151866 0.114163324 0.08547547 -0.10999009 0.0530978
0.101887345 0.0048809573 -0.08895053 -0.1113741 -0.07480772 0.00064032845 -0.017005065 -0.08599198
0.07457605 0.11576715 0.08104162 -0.06764824 -0.10032121 0.011225443 -0.0634579 -0.001397873
0.040721126 0.117538825 -0.054665916 -0.04578745 0.066491164 -0.14045176 -0.041807957 -0.043413065
-0.07229306 -0.030448163 -0.12381933 -0.09674969 0.05894131 0.0046848175 0.117739074 -0.05705224
0.035045646 0.09871702 0.07745073 0.088740826 0.028030036 -0.07790959 0.046320785 0.08101861
-0.087004855 0.032065444 -0.041195266 -0.038560815 0.026560305 0.11834746 0.10850544 -0.11653229
-0.022507308 -0.06488185 0.07799526 0.11081219 0.08647339 -0.07846602 0.15822951 -0.029905858
-0.04624276 0.1503774 0.031828612 0.11470483 0.017948274 0.07371043 0.090668224 0.06427056
-0.04577099 -0.05285389 0.08047785 0.095553726 -0.052466683 0.12207005 0.1647379 0.14973877
0.063102074 0.09006842 -0.061372474 0.0050407117 0.14134942 0.008238245 -0.015292865 -0.058327198
0.075875625 0.12784936 0.046975188 0.12094406 0.02738217 0.056095637 -0.07399135 0.170432
-0.03734697 0.101563185 -0.040607248 0.07270035 -0.06304406 0.16089493 -0.022749694 -0.07491766
0.20570031 -0.056136258 -0.040305298 0.06858575 0.09702177 0.13126789 -0.012640736 0.13501309
0.10867899 0.057012934 -0.06935639 -0.10069471 0.07338128 0.11456986 0.06788454 0.15842637
00000000: 2841 d1bc 81b8 3fbd ebc0 863d 546f 53bd
00000010: 0130 043e 4220 fabc 1d53 953d 50af fb3d
00000020: 14c7 1b3c 5d4f cc3c 397b 2a3e 7f63 5a3d
00000030: c988 ce3c 072a 82bd 3208 3d3d 0db6 bb3b
00000040: 5538 b13b f0a7 47bd 2194 803d 8fbd 2ebd
00000050: e52d 333e 7198 8f3d c6e2 2a3e cbf6 3c3e
00000060: 598d 863d e28d cc3c 801f 523d b920 463d
00000070: 0f86 c83d e36d 4d3d dfe6 ba3d bd7c 9bbb
00000080: c8b9 2fbd 1344 123e 32d1 173e d4d9 493d
00000090: a94f 433d 4ad4 cf3c 26ea 073d 153c 2d3c
000000a0: 1cce ee3c 8c59 063e 9188 49bd c269 533d
000000b0: 9ef3 8a3d bf0b 92bc a367 913d 234b 5b3d
000000c0: 3954 29bd 0980 aebc 4326 283d d44f 883c
000000d0: 1e38 3fbc 6a93 0c3d 37c1 27bd 499b 213d
000000e0: bea2 aa3d 78f5 60bd d119 e93c 45fe b9bc
000000f0: b3d8 a03d a757 b23c 1b05 27bd 33e9 823d
00000100: f441 36bd 89fb babd 5095 013d 44bd 89bd
00000110: 7c8a abbd 3bbf 593d 3cad b53d c0f2 0dbc
00000120: ac93 c0bd 9119 a9bc f757 f43d aa54 b93d
00000130: 8b7d d83d f18e 963d 0318 e5bc d0bf ee3c
00000140: 4eb2 babd aa97 b63d e5b4 d53c 4161 56bd
00000150: 5e9a be3d 5114 e43d a669 a6bc 7dc5 283c
00000160: b27e 88bd 4d31 b0bd a7f5 843d 3238 8bbd
00000170: abce 98bc 80a7 1ebc 578d ea3d ea4e 81bd
00000180: c91f 5f3d 02d6 8ebb 5354 f73d d040 1a3d
00000190: 6d89 933d a02a e53d f6ab 91bd 07f7 853c
000001a0: 8ee2 15bd dc62 cd3d 98a2 be39 e439 29bd
000001b0: f4ec 7cbd c883 fcbd 5110 e83d 259f b3bd
000001c0: f424 00be 5998 5d3d 25a6 a93c 5a77 44bd
000001d0: 01f4 06be ed50 a43d acb2 49bd c855 f93d
000001e0: a09c eb3d 76d4 463d 7445 f63d 831a 943b
000001f0: cc8d f2bc ffad 7cbd d28e a43c cf05 f53d
00000200: f1b6 7f3d db7b cebd 4b58 843d f0a1 b4bd
00000210: 4d79 be3d d623 a03d ef01 aabd d56a 043e
00000220: 2b71 7f3d 8f2c 32bc 9476 ca3d 9bf9 f13d
00000230: 76ce e93d c30d af3d 7c42 e1bd 147d 593d
00000240: 50aa d03d 70f0 9f3b b22b b6bd 1b18 e4bd
00000250: ca34 99bd b7db 273a 354e 8bbc 901c b0bd
00000260: 54bb 983d 5417 ed3d 26f9 a53d 298b 8abd
00000270: 3575 cdbd ecea 373c 37f6 81bd d638 b7ba
00000280: 32cb 263d 32b8 f03d 5ee9 5fbd 9f8b 3bbd
00000290: 852c 883d 96d2 0fbe d23e 2bbd e6d1 31bd
000002a0: 620e 94bd 6d6e f9bc fd94 fdbd b424 c6bd
000002b0: 716c 713d 1983 993b 2f21 f13d 9caf 69bd
000002c0: 068c 0f3d 262c ca3d 7d9e 9e3d c0bd b53d
000002d0: 3f9f e53c 108f 9fbd ddba 3d3d 16ed a53d
000002e0: 9a2f b2bd 0e57 033d 5ebc 28bd f2f1 1dbd
000002f0: ff94 d93c 2760 f23d 1a38 de3d 7ba8 eebd
00000300: 3f61 b8bc c6e0 84bd fbbb 9f3d 80f1 e23d
00000310: f618 b13d cbb2 a0bd eb06 223e 21fd f4bc
00000320: 0c69 3dbd 88fc 193e b85e 023d 5eea ea3d
00000330: 4208 933c 7ef5 963d 43b0 b93d 49a0 833d
00000340: 5d7a 3bbd 527d 58bd 92d1 a43d acb1 c33d
00000350: 4ee7 56bd ddff f93d 0db1 283e 1f55 193e
00000360: a93b 813d cb75 b83d b461 7bbd 8e2c a53b
00000370: e7bd 103e b4f9 063c ed8e 7abc 80e8 6ebd
00000380: ae64 9b3d f1ea 023e 0e69 403d 85b1 f73d
00000390: 9350 e03c 8ac4 653d c788 97bd ba85 2e3e
000003a0: 23f9 18bd 5c00 d03d c953 26bd ece3 943d
000003b0: 3e1d 81bd a4c1 243e 915d babc 6e6e 99bd
000003c0: 1aa3 523e 22ef 65bd 2b17 25bd b076 8c3d
000003d0: 5ab3 c63d 176b 063e 171b 4fbc df40 0a3e
000003e0: 1793 de3d 6586 693d b90a 8ebd 0739 cebd
000003f0: ed48 963d 9aa3 ea3d 0d07 8b3d 863a 223e
