LSTM/models/sensor_data_2_co_lstm_model.pth (torch, 206032 bytes, 9 tensors)

lstm.weight_ih_l0 f4 [256, 1]
00000000: 3c91 1cbe edfa c5bd 749b b7bd 1d68 dd3c
00000010: 93e3 0cbb 0120 b73d 86d2 1c3e 6501 4b3e
00000020: 0569 d4bc 52f3 233d e798 4e3c d902 d73b
00000030: 573b 27be 41f3 2cbd c6e8 13bd d40e 81ba
00000040: 794d b73d 6c14 1fbe 60c6 3d3e 4a3b ef3b
00000050: 7fca 433e 00fb fb3d a9d6 b73c c09d 2a3e
00000060: 0cf3 0e3e a681 a33d 2ade 103d 3374 433e
00000070: 0991 8c3d 0e56 f13c 3f05 c73c 0fc2 0d3e
00000080: a57e d43d b17b 4f3e 4767 73bd 78f6 77bc
00000090: 65fa 0bbe 4c78 443e 7960 febc bc32 ef3c
000000a0: 9a2c 03be b811 e03b c0d9 c43c 005c 01bb
000000b0: 567b 9abd 90b7 843d 6121 fe3d 765f 04bd
000000c0: 0a1b b0bc d95d b5b9 fb99 31bd 4e33 b03d
000000d0: 1b8b 1fbd c47e 16ba 52b9 343d b9ec a03d
000000e0: d6ff 79bc 5d16 64bc 26ea 7e3d 50f1 13bd
000000f0: d385 9ebc 499f 203e b41d ef3d 0211 a5bd
00000100: 3369 0dbe 04c7 babd 6bca e7bd 204e a6bc
00000110: fb9c 2e3d 1ced dfbd e175 113c 3c62 993d
00000120: 17e0 97bd 07b9 42bc 634b 123d d91b 04bb
00000130: 5190 d9bd def1 9abd 5fee fcbd 6ce9 bebd
00000140: a6a4 a03d b7a1 0dbd 4c72 ae3d b299 58bc
00000150: da55 0abd f0d1 1cbe 843e e2bd 25c6 013e
00000160: b271 af3c 3841 2abd 0d31 a7bd fb91 9b3d
00000170: 7b8b 29bd 095a 90bc 8505 22bb bfeb 303d
00000180: b473 3f3e 84e8 d13d b438 8abb 54cf 0a3e
00000190: a853 a7bd 14f8 5bbb a723 0e3d 4817 42be
000001a0: 6271 83bd 81bc febc 6e7b c93d cc32 383e
000001b0: b2c1 cabd 9702 0f3e b5a8 5cbc 3429 093d
000001c0: 246e 9dbd 075d 863d c527 10be 47a9 743d
000001d0: ac72 77bd 2365 13be d288 193e 29f7 953d
000001e0: 675f 173e 2049 a7bd 69da 2fbd 2a2d 18be
000001f0: 8401 a1bc 8547 283e 7f56 383e 1c63 8fbd
00000200: 5781 183d ddb2 063e 30fe 18be c72f 483e
00000210: 7d05 32be d9c9 31be 0f19 ec3d c502 353e
00000220: d03f 57be 68f5 21be 64c1 e73d e4fc 20be
00000230: b4ef e5bd 7616 063e 732a 4dbe 8981 40bd
00000240: 1604 813d 9967 ddbd 9bb3 513e daca 303e
00000250: 888a 01be 557a 183e 30b0 e6bc bc22 38be
00000260: 3134 333e d5f0 593e c47e eb3d 6775 4d3e
00000270: 0e88 46be 0897 d0bd 0a62 1abe 0db0 ea3d
00000280: 854d 403e 325e 9bbd 1120 27be 534c 8b3d
00000290: 709c 543e 9a5c 52be 44bc 19be c04b fdbd
000002a0: a441 c13d cf4c 08be 1f76 3f3e ded2 d73d
000002b0: efb1 f7bd cdd7 3a3e bd9d 193e ff65 273e
000002c0: 0fd8 e5bc 7f7a 5b3e 3811 063c 13ea 723e
000002d0: 5ec6 143e 1c23 163e 8a5c 5a3e 6f3f 05be
000002e0: 4b27 5bbe f6c8 013e a0dc 19bd d557 a03c
000002f0: a6a4 61be c2c9 2fbe 2dee 6a3e 1e4f 5f3d
00000300: 5a4f 41be db74 4dbd 254c 3ebd 8d4c 23bd
00000310: c181 fabd d2c2 85bc 4edf 4e3e 7308 903d
00000320: 051e c9bc bf0b 0e3d c856 bebc 91cb 153e
00000330: 3d6a 45be b496 51bd 27b6 17be 4fc4 5abd
00000340: d8d1 6e3e 79e2 15be 79e6 a63d 5f28 7c3d
00000350: 835f 4e3e 9b0e af3d bea1 4abc 19a3 093d
00000360: 03cc 203e 0f20 f23d 1fad 84bd c78e 523e
00000370: 7664 47be a65b 15be 036c 2a3d 8489 923d
00000380: c691 693e d700 363e 563b 273d 9d72 b4bc
00000390: efdd fabd 192f 8f3d 6bd1 603d 64fc 86bd
000003a0: 2dff ccbd 4afe 0ebe eac6 0e3e 3fa0 103e
000003b0: 63d1 1cbe 0cfb dd3d 8b47 543e dbbc 1a3e
000003c0: 982d 48be ee1c a23c c3f5 1fbd 46bb dc3d
000003d0: 9c32 06bc be47 cebd dce5 8bbd 2afb 1e3e
000003e0: bb5c f9bc b8b1 bcbc c262 23be 5157 8fbc
000003f0: 87bc c23d 82f6 3a3e dafb c13d 2293 95bd
-0.15289778 -0.09667001 -0.08965197 0.027027184 -0.002149795 0.08941651 0.15314683 0.1982475
-0.025928983 0.04002697 0.012609697 0.0065616188 -0.1633123 -0.042224173 -0.036110662 -0.0009846338
0.089503236 -0.15535134 0.18532705 0.007300769 0.19120215 0.12303734 0.022441225 0.1666174
0.13959903 0.07983713 0.035368122 0.19087295 0.06863601 0.02945998 0.024294494 0.13843559
0.10375718 0.20262028 -0.059424665 -0.015134446 -0.13669737 0.19186515 -0.031051861 0.029198997
-0.12809983 0.0068380497 0.024029613 -0.0019738674 -0.07543056 0.06480324 0.1240871 -0.0323176
-0.021497268 -0.00034592932 -0.043359738 0.086035356 -0.03895102 -0.00057409354 0.044122048 0.07857651
-0.01525875 -0.013921347 0.06223502 -0.036118805 -0.019350922 0.15685762 0.11675587 -0.080598846
-0.13809662 -0.091199905 -0.11317905 -0.020300925 0.042630177 -0.10933897 0.008878202 0.0748944
-0.074157886 -0.011884934 0.035716426 -0.00201582 -0.10623229 -0.07565664 -0.12350153 -0.093218654
0.07843904 -0.03457805 0.08517894 -0.013220238 -0.03377328 -0.1531446 -0.1104708 0.12673242
0.021416519 -0.041566104 -0.081636526 0.07596203 -0.041392785 -0.017621057 -0.0024722528 0.043193575
0.18696481 0.10249427 -0.0042181853 0.13555652 -0.08170253 -0.0033564614 0.03470197 -0.18954194
-0.064181104 -0.031095745 0.098379955 0.17988127 -0.09900226 0.13965832 -0.013467957 0.03348656
-0.07687023 0.06560712 -0.14077671 0.059731748 -0.060412094 -0.1439405 0.14993599 0.07322533
0.14782487 -0.08168244 -0.0429329 -0.14860979 -0.019654043 0.16433533 0.18001746 -0.070013255
0.037232723 0.13154168 -0.14940715 0.19549476 -0.17384906 -0.17362155 0.11528217 0.17676838
-0.21020436 -0.15816271 0.11316183 -0.1572147 -0.1122736 0.13094506 -0.20035724 -0.046998534
0.062996075 -0.10810775 0.2047867 0.17264882 -0.12650502 0.14890416 -0.028160185 -0.17982
0.17500378 0.21283276 0.11498788 0.20064317 -0.19387838 -0.10185057 -0.15076461 0.1145936
0.18779571 -0.07586326 -0.16320826 0.06801667 0.20762801 -0.20543137 -0.15013224 -0.12367964
0.09436348 -0.1331055 0.18697403 0.105382666 -0.12094485 0.18246384 0.15001579 0.16347502
-0.028057126 0.21433447 0.008182816 0.23722105 0.14528796 0.1466183 0.21324363 -0.13012479
-0.21401708 0.12674317 -0.03756392 0.019573132 -0.22035465 -0.17166808 0.2294242 0.05451881
-0.18877926 -0.05016027 -0.046459336 -0.039867926 -0.1223178 -0.01632825 0.20202371 0.070328616
-0.024550447 0.03467917 -0.02323474 0.14628436 -0.19278808 -0.051169112 -0.1481558 -0.05340987
0.23322237 -0.14637174 0.08149428 0.06156194 0.20153622 0.08547708 -0.012367664 0.033602808
0.15702824 0.11822521 -0.06478333 0.20562278 -0.19471917 -0.14585742 0.041606914 0.07155135
0.22809514 0.17773758 0.04082807 -0.022027308 -0.12249362 0.06991405 0.054887217 -0.065911084
-0.100096084 -0.13964191 0.13943067 0.14123629 -0.1531425 0.10838899 0.20730416 0.15111105
-0.19548643 0.019789185 -0.039052736 0.10777907 -0.008190777 -0.100722775 -0.068309516 0.15525499
-0.030439725 -0.023033962 -0.15955642 -0.01749769 0.09508615 0.18258098 0.09471865 -0.07303454

lstm.weight_hh_l0 f4 [256, 64]
00000000: 7c62 b3bd a5e6 f4bd 851f b23d 4c17 c4bd
00000010: 4379 723d 0ac1 49bc 8bb5 30bd 2b9f be3d
00000020: 6b26 0b3e c1f3 61bd 5c1a ddbc f166 24be
00000030: 7684 c7bc 0651 c1bd f9e4 143e 5d29 27be
00000040: fe2d 87bc c614 053e f6ea 503d 427f 193e
00000050: cb91 d23b 29a0 1a3c 576d d23c 1915 4dbe
00000060: 64c5 eb3d db3e d73d 39e0 f3bd 21c1 17bd
00000070: e074 943d 50cd 073d 4a35 c2bb 0ab8 923d
00000080: c5a3 57bc feaf 46be c48b f03d 0e0e 52bc
00000090: 8fa2 40bd dd45 23be ef0a c4bc d4ae 003d
000000a0: 00b0 33be abb7 283e 22b1 893d 8b16 d3bc
000000b0: f716 a13b ad1b 0f3e 721a 693d 2c73 003d
000000c0: 9534 c93c 5cef bb3d b671 48bd 7792 eb3d
000000d0: 635a 0abe 598d b0bd b580 503d 82da 17be
000000e0: df9c 4d3d 2674 51bd 105a b8bc efbd a6bd
000000f0: 03f2 5bbd 5f97 5ebe 58b9 373e edec 6fbd
00000100: abff 0dbe e4ea f9ba 35e7 83bd 2402 febd
00000110: 8642 823d 9186 173d 132a 263e 31d8 bf3c
00000120: f0c6 f4bd 214d c03b 76f7 a2bd 8cf4 10be
00000130: 9ae9 b53d 2ac5 40bd 44db ba3d 4afc abbd
00000140: 86d3 b83d 0f34 0c3e ea3f f4bc b056 8a3d
00000150: 1905 01be 2f41 81bc e66b 51bd de0b babd
00000160: 1099 0ebd 7f1c 533c e9a9 00bc 4951 42bd
00000170: cb4f 4abc eac1 9c3d d48b a33b 0083 ad3d
00000180: a997 7e3d 120f 6e3c 9ab5 013e 0511 203d
00000190: cab2 83bd 7d99 9fbd 6da6 063c c56e 203e
000001a0: 3a19 20be b12f 943d e332 dd3d 1747 c73d
000001b0: a63b cabc 23e7 873c ac3c dc3c a26c 2abd
000001c0: e899 0d3e 5749 8ebc b9bc 11be 8503 1c3c
000001d0: e1b3 1ebc 0987 1ebc c37b 0c3e 9451 88bd
000001e0: 2786 40be 8e67 1f3e 7c23 8f3d 12d5 6ebd
000001f0: 3001 893b 66a4 c83c 95a3 e23d f8ae 223e
00000200: 6267 30be 6963 113e 8bfb 08be d4e2 c83d
00000210: 260d b83d a585 6fbd 6401 0e3e 9100 e5bc
00000220: 050d 3abd 911a 10bd 3e42 28be 6b61 05be
00000230: 6664 193e b0f9 233e 903d 0b3e 4998 3fbe
00000240: e35d 0f3e 43bb 94bd 9a54 383e 3bbf bb3d
00000250: 0f99 91bd c4bc 593c 454b 40be 75e4 b2bd
00000260: 1668 abbd 241a 033e efc0 40bd 11b0 25bd
00000270: 0c25 e23d dd9c c63d 4a89 93bc cffa 683d
00000280: dc1c 393e 7e44 0cbe bc5b 91bd 6d8c 043c
00000290: f618 8cbc 2d35 05be 87c8 303e a24b 1a3d
000002a0: f690 21be 957a 523d 49a7 57bb 747e 7dbc
000002b0: d388 313d 474e 2abd 2218 413d fab9 743c
000002c0: f8fc 903d 5de8 e53d 9488 50be 7849 b23d
000002d0: 1cc6 36bd e8c6 b7bc a395 af3d 0d97 60be
000002e0: 4981 8d3c fb65 2bbd a995 0d3e 4c8a 79bd
000002f0: b728 d1bd b387 0dbd c3c1 b23d 3f41 a8ba
00000300: 0e61 25be d3f9 47bc be44 9ebd 9f3d db3c
00000310: 4d92 fc3d a933 b83d 5bf2 203e aa46 133d
00000320: e6b5 6dbd 349d 3bbe 7f28 38be 1079 fbbd
00000330: 3cc5 00bd 1b7c 9f3d 6e34 813c 0ed9 d6bd
00000340: adc9 c13d 8db0 c53d 2330 993d c13e c13d
00000350: a953 f3bd f14e b93a 8c7c dcbb b0c6 5dbe
00000360: 2caf 2a3d 0bfe 843d 6330 b43b ff28 d63c
00000370: 80e8 9a3d fab9 8e3d dd57 68bd b9ba 613c
00000380: 0dca bc3d 7f33 e1bd 7fd9 783c 763e 4c3e
00000390: 64c4 a83c e921 ebbd c996 c23d e0d9 e73d
000003a0: c922 2f3d 2ebb 303e 1c30 cabc 2566 3d3d
000003b0: 08ab 313e dedf 913d 0bc3 953d 236e 953d
000003c0: 9638 393e 9c48 a03c 80a2 12be 3b42 1cbd
000003d0: 50f5 8dbd c880 b3bc a713 4bbd 0e2e e4bc
000003e0: 5e19 33be 520f b33b f0b9 d339 6f44 043d
000003f0: 72c5 afbc 8542 0c3c 6392 513e faef ea3d
-0.08759019 -0.119580545 0.08697418 -0.09574756 0.059197675 -0.0123140905 -0.043141883 0.09307703
0.13588874 -0.055164102 -0.026990108 -0.16054894 -0.024355154 -0.09439282 0.14540471 -0.16324373
-0.016501423 0.12996206 0.051005326 0.14989951 0.0064260713 0.009437599 0.025686903 -0.2002758
0.11512259 0.105100356 -0.119080015 -0.037049416 0.07248855 0.033154786 -0.0059267627 0.07164009
-0.013161604 -0.19403073 0.11745408 -0.012820734 -0.047030028 -0.1594462 -0.023930995 0.03141673
-0.17547607 0.16476314 0.067232385 -0.025767585 0.0049160677 0.13975401 0.056909986 0.031359836
0.024561206 0.091765136 -0.04893657 0.11502545 -0.13511042 -0.0862071 0.050903995 -0.14829448
0.050198432 -0.05113616 -0.022503883 -0.08141696 -0.053697597 -0.21737431 0.17941797 -0.05857556
-0.13867061 -0.0019067195 -0.064405836 -0.12402752 0.063603446 0.036993567 0.16226988 0.023418518
-0.11952007 0.0058685695 -0.07957356 -0.14155787 0.088824466 -0.04706303 0.09123853 -0.0839773
0.0902472 0.13691734 -0.029815633 0.067548156 -0.12599601 -0.015778152 -0.05112829 -0.09084295
-0.03481394 0.012885212 -0.00785301 -0.0474408 -0.012348126 0.07654174 0.004991034 0.08472252
0.062156353 0.01452996 0.12666932 0.03907873 -0.06430586 -0.077929474 0.00821839 0.15667255
-0.15634623 0.07235659 0.108007215 0.09730356 -0.024686646 0.016589707 0.0268844 -0.041607507
0.13828242 -0.017368956 -0.14232148 0.0095223235 -0.009686441 -0.00967575 0.13719086 -0.06656185
-0.18801175 0.15566847 0.0698919 -0.05830867 0.0041810498 0.024492454 0.11066357 0.15887058
-0.17226937 0.14198078 -0.13377206 0.09808889 0.08986883 -0.058477063 0.13867718 -0.027954372
-0.045422573 -0.035181586 -0.1643152 -0.13025443 0.14979705 0.16013217 0.13597703 -0.18710436
0.14000659 -0.0726228 0.18001023 0.09167334 -0.07109272 0.013289634 -0.18778713 -0.08734981
-0.08369462 0.1280294 -0.047058996 -0.040451113 0.110422224 0.09697888 -0.0180098 0.056879815
0.18077415 -0.13698003 -0.07097575 0.008090121 -0.017101746 -0.13008566 0.17263995 0.037669785
-0.15777954 0.051386435 -0.0032906106 -0.015472043 0.043343376 -0.041578557 0.047142155 0.014936918
0.070795 0.112259604 -0.203646 0.08705419 -0.044622526 -0.022433713 0.08573463 -0.21932621
0.017273562 -0.041845303 0.13826622 -0.060922906 -0.10212844 -0.03455324 0.08728363 -0.0012836828
-0.16150305 -0.012205559 -0.07727955 0.026762782 0.12332592 0.089942284 0.15717451 0.035956062
-0.0580348 -0.18321687 -0.17984198 -0.1227895 -0.031438097 0.07787343 0.01577207 -0.10490619
0.09462295 0.09652815 0.074798845 0.094357975 -0.11881191 0.0014137906 -0.0067287143 -0.21657825
0.041670963 0.06493767 0.005498932 0.026142595 0.07563877 0.06969066 -0.056724418 0.013777428
0.09218226 -0.1099615 0.015188574 0.19945702 0.020601459 -0.11481077 0.09501416 0.11320853
0.042757783 0.17258903 -0.024681143 0.04623999 0.173504 0.071227774 0.07312592 0.072963975
0.18087992 0.019565873 -0.14319801 -0.0381491 -0.06931555 -0.021911994 -0.04957929 -0.027853992
-0.17490146 0.005464473 0.0004038359 0.032291826 -0.021456454 0.008560781 0.20465998 0.11471553

lstm.bias_ih_l0 f4 [256]
00000000: ecb9 22bd 03c0 1e3e 967e 6ebc c092 de3d
00000010: 1341 383e 24ea 413e f7fe 033e 1b29 96bc
00000020: b9ab 053e bfce 633e 1ad6 dfbc afe5 a0bc
00000030: 8539 033d 400b 3e3e a4be 27bd e555 ec3d
00000040: 9dba f63c c69a 51bd c47a 943d ddc8 1b3e
00000050: 6cb9 b9bc 55ff ee3d 0985 083d d4bd 563d
00000060: d5bc 163e a74b 4e3d be5f 563e 4605 5a3d
00000070: 33e7 6b3c 061e 9f3d a680 223e 891f 703d
00000080: 6840 8a3d 8710 763d b0b7 86bc e796 823d
00000090: afe8 cdbc e134 273d ef1e 89bd f429 023e
000000a0: 1b40 6dbd 1c75 5fbd 3602 6f3b a62c 2a3e
000000b0: 9449 0c3e 6605 4d3e d21a 973b d16d b73c
000000c0: ecb1 73bb 17af 2d3d 5a53 843d faf6 e03d
000000d0: 636d 5c3e 242a 703b 3bba 843d 2a7b 4bbc
000000e0: 4a41 c43c b9bd 023e 63d5 02bd da96 98bc
000000f0: a5d7 113e 65bc 0a3e 3d42 80bc caca f63d
00000100: 69c0 373e 02ad 48bd a0b0 923c 80d9 cdbd
00000110: 9722 913d 3319 cdbd 5935 043d 6433 ba3c
00000120: 72de a2bd dea4 8abb 8ea8 aabd 8be3 72bd
00000130: afbc a73c e7d8 99bd a490 403c 5d48 073e
00000140: 3a95 6e3d 87cc f63d 5a6e 0c3d 777b 4cbd
00000150: 33b5 003e 66f8 47bc 3f89 b9bb 54a7 28bd
00000160: 2f79 87bd 766b 08bd 5254 cc3d 7785 b9bd
00000170: 0952 a53d 1fc7 bdbd af7f 483c 59da 0c3e
00000180: f78d 1bbd 79f4 713d 4453 813d 7392 ee3d
00000190: 9a77 07bd 8dc9 cb3d e7b9 84bd 11c5 b73d
000001a0: 15f4 523d 80e4 a1bd c496 edbc 71a2 a9bd
000001b0: 4a2c ba3c d8e4 343b e111 9fbd 89df 1abd
000001c0: 4300 1e3e 609e 913d 6033 0b3d 6444 c8bd
000001d0: 762f 923d 577f c7bd a7c4 de3d b826 ac3c
000001e0: 6c1d 9fbd 5e60 d0bd dbb6 fa3d 2979 653d
000001f0: eb29 0cbb 64b0 353b ccc6 ef3d 2541 c23c
00000200: 054c e3bc f77c 4ebd 3965 77bd d244 783d
00000210: 36ed 72bc 8def 7d3d 4b5f c6bd a8d8 a03d
00000220: ee7f 5dbc 1ce3 0ebe 0398 e8bd 9e91 7b3d
00000230: 9c24 103e 8b84 d9bd 37db 033e 90f8 30be
00000240: 9cda 143e f202 693d 845c b73c 9733 88bd
00000250: 8f8c bebb f5c9 8abc 7877 1ebe fae1 51bd
00000260: e94a 60bb ba20 ba3d bd92 b7bd ec16 be3c
00000270: 9e75 083e 2d41 b33c 1d76 cdbd 0087 0b3e
00000280: 7acc cc3d 0094 06bd b284 12bc e388 cf3d
00000290: d69a 06be b9a4 8ebc b1d7 0a3e 3a84 3f3e
000002a0: 655b cdbd f8d5 043e e088 833d 6bda 7d3c
000002b0: 7229 743d 3583 a53d 9096 e43d 60fe d5bc
000002c0: 0bcc 283e e6bb 5d3d cc2d 15be ab1e 29bd
000002d0: 7dfa c03d 8ed0 21be de2b 04be d423 54bd
000002e0: 7d2f 84bd 72fb 003e ddbe 0a3d 4b87 99bd
000002f0: 1ff5 bcbd 5ce0 04be ae75 043e 540a ce3d
00000300: 5a6f 513d 630f ebbb 0215 303e b097 3d3b
00000310: a5e2 02bd c184 323e 7c46 56bd 3097 003e
00000320: be13 113e 9310 da3d dcbd e23d 4e2d 373e
00000330: 22b8 71bb d15b 4a3c 7166 ea3d 77dc 9d3d
00000340: 2d86 33bd 5a47 af3d 29ef 133e 4e2a 713e
00000350: a8e6 b13d ee3f 1b3e 663d e03d 6353 133e
00000360: ca55 013d fe54 913d f6b5 9abc 7d70 2a3d
00000370: 7d40 9e3d 8212 373e bd27 cd3d de3a f5bc
00000380: 0170 f83d f739 983d b3e5 883d 687f c3bc
00000390: 5014 11bd b8c7 043d 61c2 92bd 3bd7 243e
000003a0: 63b0 ec37 1819 043c 39ce 073e 11a5 353e
000003b0: edd3 33bd c170 573e 59a5 43bc 5cd4 f93d
000003c0: 8404 313e 1aff e5ba 17e9 203e e5c7 f03c
000003d0: 8962 023e 85df 113d 9c41 5b3e 2133 d8bc
000003e0: d56f b93c 7ae4 573d 6f4e a3bd 9a37 0abc
000003f0: c7c5 0abd b565 423d 311d 3a3d b3b4 003e
-0.03972809 0.15502934 -0.014556548 0.10867834 0.17993574 0.18936974 0.1289023 -0.018330147
0.13053788 0.22246836 -0.027323771 -0.019640772 0.032037277 0.18558979 -0.040953293 0.115398206
0.030118281 -0.051172994 0.07249978 0.15213342 -0.022671424 0.116697945 0.033329997 0.052427128
0.14720471 0.050365116 0.2093496 0.053227685 0.014398384 0.077693984 0.15869388 0.058623824
0.06750566 0.060074355 -0.01644501 0.063764386 -0.025135366 0.040821914 -0.06695353 0.12711316
-0.057922464 -0.054555044 0.0036469824 0.16618595 0.13699943 0.2002159 0.0046113515 0.022391232
-0.0037184907 0.042403307 0.064612105 0.10984607 0.21526103 0.0036646212 0.06480833 -0.012419501
0.023956914 0.12767686 -0.031941783 -0.01862662 0.14242418 0.1354843 -0.015656585 0.12050398
0.17944492 -0.048993118 0.017906487 -0.100512505 0.070866756 -0.10014572 0.03227744 0.022729583
-0.07952584 -0.0042310795 -0.083329305 -0.059299033 0.020475714 -0.07512074 0.011753235 0.13211198
0.058247782 0.12050729 0.034284927 -0.049922433 0.12569122 -0.012205219 -0.005662113 -0.0411752
-0.06614911 -0.033305608 0.0997702 -0.090586595 0.080722876 -0.09266495 0.012237473 0.13755168
-0.037977185 0.059071038 0.0631471 0.11649027 -0.033073045 0.09950552 -0.064807706 0.08973134
0.051502306 -0.07904911 -0.029002555 -0.08282936 0.022726197 0.0027602222 -0.07767082 -0.037810836
0.15429787 0.07110286 0.033984542 -0.097786695 0.07137959 -0.09741085 0.10877352 0.021014556
-0.07769284 -0.101746306 0.12241908 0.05602375 -0.002138729 0.0027723545 0.11707839 0.023712704
-0.02774621 -0.050412145 -0.060399268 0.060612507 -0.014827063 0.06199603 -0.096861444 0.07853824
-0.01351927 -0.13953823 -0.11357119 0.06141817 0.14076465 -0.10620984 0.12876593 -0.17282319
0.14536518 0.056887574 0.022382982 -0.06650465 -0.0058150957 -0.016942004 -0.15475261 -0.0512409
-0.0034224337 0.09088273 -0.08963535 0.02320429 0.13326117 0.021881664 -0.10032294 0.13625717
0.09999938 -0.032855988 -0.00894277 0.10133531 -0.13145003 -0.01741253 0.13558842 0.18702784
-0.10027198 0.12972248 0.06422591 0.015493969 0.059609838 0.080816664 0.1116153 -0.026122272
0.16484086 0.054134272 -0.14568251 -0.041289013 0.09422777 -0.15802214 -0.12907359 -0.05179198
-0.0645437 0.12595919 0.033873428 -0.07496508 -0.09226441 -0.12976211 0.12935516 0.10060564
0.051131584 -0.007173465 0.17195514 0.0028929524 -0.031954426 0.17433454 -0.052313313 0.12557673
0.14167687 0.106476925 0.11071369 0.17888376 -0.0036883433 0.012350992 0.114453204 0.07708066
-0.043829132 0.08558531 0.14446701 0.23551294 0.08686572 0.15161106 0.10949211 0.14387278
0.031575955 0.07096289 -0.018885594 0.041611183 0.07727144 0.17878154 0.10017345 -0.029935297
0.12130738 0.07432931 0.06684437 -0.023864463 -0.035419762 0.03241703 -0.07165981 0.16097729
2.8215529e-05 0.008062623 0.13262261 0.17738749 -0.04390328 0.21039106 -0.011941277 0.121987075
0.17286879 -0.001754734 0.15713917 0.029392192 0.127329 0.035613555 0.21411747 -0.026391568
0.022636333 0.052708127 -0.079739444 -0.008436108 -0.03388002 0.047460277 0.045437995 0.12568931

lstm.bias_hh_l0 f4 [256]
00000000: 68db 363e 24f5 823d 0f9f 603e d898 f73d
00000010: 14c7 0ebd a08b 6ebc c7dc 4bbd 3504 983d
00000020: 6241 693e 07a0 a33d 8f45 0a3d 1cc1 2f3e
00000030: 8aa2 103e 463c 6f3e a229 8a3d f6b1 f5bc
00000040: 2e44 fd3b 8af5 dc3d b380 1c3e 73e8 2d3e
00000050: 2969 f83d 215c bc3d a3b7 52bc 1171 623d
00000060: 052c 9bbc 9f4d 263e 589e 003e d6be 203e
00000070: 9b9e 68bd 1be6 243e d865 363d 0994 853d
00000080: 7117 cd3c a22a 5d3d 24ba 0f3c b741 3b3d
00000090: b67b 14bc 8d7f 0a3e 7d2f 293e 9e11 7dbb
000000a0: 8da4 033e 9025 81ba 6056 2a3e 40a4 1b3e
000000b0: b4f4 323c 5f2f 223e 8400 1dbc 7b6f 0b3e
000000c0: 962e 893d 3bc8 413e 8684 023e c509 433d
000000d0: 0dd3 ef3d 8a7d f13d 7af4 593b da74 853d
000000e0: ff32 e73c e577 bebc 48a2 0e3c f641 42bd
000000f0: 05fd e03d ab4a 2e3d 1f17 243e e20d a7bc
00000100: 7b3b cc3b 578c dd3c feec d0bd 68b7 92bd
00000110: 09a2 29bd 2abf 63bd 3543 bfbd ee75 8ebc
00000120: 829b ddbd 67c3 873d aa83 3dbd 136d ab3d
00000130: e79c d83d 3dcf 34bd f772 cfbb b777 6c3d
00000140: 359a aebc 2dbb 063e ae3d 953b 25ad 19bd
00000150: 4a95 0c3d f8d4 b5bd a614 053d ac16 f93c
00000160: 9039 a33d cb4a dcbd 95e1 013d 91b5 a1bd
00000170: 69c8 be3d 7919 41bd 6da5 c83d c553 86bc
00000180: db14 f03c a4f8 0d3e 23e2 803c f4ab bbbc
00000190: a687 53bd efc4 8b3d 1389 eebd 38ce 073e
000001a0: 9195 093e 047c 923d aa12 87bc 9da9 113e
000001b0: cfb5 8f3d 2086 b0bd 2103 1ebd f717 df3c
000001c0: 0a90 0e3d b68a e4bd 1b62 d23d fcb7 6bbc
000001d0: e8af ffbc bd35 0a3e cf43 aebd 4b9b 573d
000001e0: 016f b53d 4bb1 abbb 5db4 073e d409 053e
000001f0: 41f4 52bc 29a9 843c d79e 11bd 1e79 14bc
00000200: 929a 08be 4767 093d baa0 683d 0948 6dbd
00000210: 4017 cf3d 361a cb3b afe8 cd3d e409 8a39
00000220: 3e7c 883d f0e2 f9bd 0160 0ebd 9774 d6bd
00000230: 9ea0 c93d 23b5 ba3d 50a4 833d 9dbc 9dbd
00000240: d065 2b3d b30e e83d ccc3 073e c5ef 763d
00000250: 2e17 b4bd 7acf 26bc c25c 2ebe 127b 45bd
00000260: ba39 b73b f85b e7bd 8add 153d ff2b 533d
00000270: ceb0 8fbc bf69 c33d 0f4a acbd 9e4c 433e
00000280: 7bae a43d 123c 1bbe fe59 293c f98f 353e
00000290: a76c 85bd e9e2 01be 0073 f53d dc98 483d
000002a0: 64c1 88bd a57f e23c 54be 913d 79ed 333e
000002b0: da04 1c3e 7624 cbbc 9a97 dabd b8f8 9ebc
000002c0: dd0e 243e 8b95 f33d 76d9 1cbe d821 813c
000002d0: bf51 0cbe 4cd1 debb 77a9 b83d d896 fabd
000002e0: e2f3 5e3d b2a8 f5bd 1a89 da3d 3352 21be
000002f0: 8576 29bd 603f fcbd 397d f63b 704b a43d
00000300: 6776 213e a679 27bc 5c0d 633d 1117 4d3d
00000310: 766b 273e 371f 153e 57b2 9ebd 111c b83d
00000320: 0831 5d3e c201 8c3d 03e9 ac3d b201 afbc
00000330: faa6 153e 567b b93d 8f93 413d 9914 893d
00000340: b71d 0c3d 1997 033e ac5c 9b3d 6f16 d23d
00000350: e722 69bc 0ceb 173d ba55 8fbd 79a5 233d
00000360: 72b7 8e3d a7f1 41bb 3605 533d a99f 3e3d
00000370: 7c5f df3c eac9 b13d 81ad 0dbd fe72 393e
00000380: 878e 2e3e 9b57 153e 4eae 9dbc 364e c23d
00000390: 99f6 023e fe07 233c 87e5 28bd 7dac 1d3e
000003a0: cc21 863d 0bb8 023e bd50 1a3e 9b34 0f3d
000003b0: 4a76 2a3e c2c2 bc3d 42d3 3b3e e1f4 613d
000003c0: 6084 7d3d 5ccf 343e e04c 143e 51c6 2a3e
000003d0: 118d 8d3d b0f4 253e c127 253e af31 9fbd
000003e0: e8f3 2c3e 704e 713c 1341 033e b420 91bb
000003f0: 4d47 e73a 0331 113e e9f4 133e 137f 5cbd
0.17857134 0.06394413 0.21935676 0.120896995 -0.034857824 -0.014559656 -0.049771097 0.074226774
0.22778848 0.07989507 0.033757742 0.17163509 0.14124504 0.23362836 0.06746222 -0.029992085
0.007729075 0.1078902 0.1528347 0.16983204 0.12129433 0.0919726 -0.012861165 0.05528361
-0.018941889 0.16240548 0.12560403 0.15697798 -0.056791883 0.16103403 0.04453072 0.06522376
0.025035592 0.053995736 0.008772407 0.045716967 -0.009062698 0.1352522 0.16522022 -0.0038615237
0.1285574 -0.0009853113 0.16634512 0.15199375 0.0109226 0.15838383 -0.0095826425 0.13616745
0.06698339 0.18924038 0.12745866 0.04761674 0.117101766 0.11791523 0.0033257292 0.06516428
0.028222559 -0.02325053 0.008705683 -0.047426187 0.1098576 0.042551678 0.16024445 -0.020392362
0.0062326766 0.027044458 -0.10201453 -0.07163888 -0.041414294 -0.05560223 -0.093389906 -0.017390218
-0.108206764 0.06629067 -0.046268143 0.08370414 0.10576802 -0.04414295 -0.0063308435 0.057731356
-0.021313766 0.1315734 0.004554472 -0.03751864 0.03432206 -0.08878511 0.032490395 0.030406319
0.079699636 -0.10756453 0.031709272 -0.07895959 0.09315569 -0.047143433 0.097971775 -0.016397366
0.02930682 0.1386438 0.01573283 -0.022909142 -0.051643036 0.068246715 -0.116472386 0.1326226
0.13435961 0.0715256 -0.016488392 0.14224859 0.07017099 -0.08619332 -0.038577203 0.027233107
0.034805335 -0.111592695 0.102726184 -0.014387127 -0.031211808 0.13497062 -0.08509027 0.052638333
0.08859063 -0.005239641 0.13252397 0.1299203 -0.0128756175 0.016193943 -0.035551872 -0.00906208
-0.13340214 0.03354576 0.056793906 -0.057930026 0.101118565 0.006198193 0.100541465 0.0002632878
0.06664322 -0.12201488 -0.034759525 -0.104714565 0.098450884 0.0911658 0.064278245 -0.07701991
0.041845143 0.11330929 0.13258284 0.060287256 -0.08793484 -0.010181302 -0.17027572 -0.048213072
0.0055915983 -0.112968385 0.03658823 0.05155563 -0.017540362 0.09541654 -0.08412563 0.19072196
0.08041092 -0.15159634 0.010336397 0.17730702 -0.065148644 -0.12684216 0.11984825 0.048973903
-0.06677511 0.027648756 0.0711638 0.17571057 0.15236226 -0.02479766 -0.10673447 -0.019405708
0.16021295 0.118937574 -0.1531733 0.015763208 -0.13703059 -0.0067998525 0.09016698 -0.122358024
0.054431804 -0.11995067 0.10670681 -0.15754013 -0.041372795 -0.12316775 0.007522252 0.08022201
0.15767823 -0.010221874 0.055432662 0.050070826 0.16349587 0.14562689 -0.077488594 0.08989728
0.21600735 0.06836273 0.08442881 -0.021363113 0.14614478 0.090567276 0.047259863 0.06693382
0.034208026 0.12850608 0.07586035 0.10258185 -0.014229513 0.037089393 -0.06998773 0.03995273
0.06968583 -0.00295935 0.05151864 0.046538983 0.02726721 0.0868109 -0.034589294 0.18110272
0.17046557 0.145842 -0.019248154 0.09487574 0.12789382 0.009950636 -0.04123452 0.1539783
0.06549415 0.1276552 0.15069862 0.034962278 0.16646686 0.092168346 0.18342307 0.055165175
0.06189382 0.17657226 0.1448245 0.16677214 0.06911672 0.16206622 0.16128446 -0.07773148
0.16889918 0.014728174 0.12817793 -0.0044289473 0.0017645151 0.14178853 0.14448895 -0.053832125

lstm.weight_ih_l1 f4 [256, 64]
00000000: 9c41 093d a1c8 aabd b6b1 da3a ac42 3cbd
00000010: 912a c63d 67eb 9abd 5b68 ea3d 0f1a 503d
00000020: f8a3 ae3d 552f 94bd 9980 30bd f7bf d43d
00000030: 7bec 2b3e 9ea2 0abe 82a2 a43d 400f 143d
00000040: 6b1c 663d 7b83 a53b e0ee 823d 71e2 3fbc
00000050: 832d f03c 2db0 b0bd 1483 83bd 9908 f9bd
00000060: 8713 95bd 27ba a5bd afd7 e8bc 0d63 2e3d
00000070: 54b2 af3c c875 163d de0e 473d 8f62 d93b
00000080: 175a 1c3e d035 9aba 9ebc 033e 3287 873d
00000090: 4121 15be 4354 3fbe a443 08bd 1e76 85bd
000000a0: 97b6 e4bd 6a9e 033d 62a7 68bd a286 d9bb
000000b0: 2b92 5a3c d7bf 89bd 4d89 b73b cdd6 373d
000000c0: 33f4 7d3d b338 3abd a016 06be 18e3 eabd
000000d0: ad33 1bbd 236e 0abe 2603 cfbd 4b7a d6bc
000000e0: 5fb4 793d 931c 24bd 7d2e d83d aa24 d0bd
000000f0: b68d 04bd d04b 01bd 2a21 f03d a3cb 903b
00000100: 8463 febd fd13 e43b da4b 60ba 42ca b53d
00000110: 0bd7 673d be85 043d e5c3 583e cfab 0d3e
00000120: d702 29bc 1ca4 04be 6653 80bd eee8 7f3c
00000130: dfba 9fbc a99c 193e 3877 433d efc0 bbbd
00000140: 8b69 b03c bc48 b2bc 11e4 b7bc f650 a33c
00000150: c707 dc3c 7f80 d93d 72c6 dbbc da53 03be
00000160: 0717 9e3b 558a 723d 0d2f c83d 3bf0 8c3b
00000170: 35c1 dc3d 435f 88bc 2e16 b4bd 1787 063d
00000180: 9d6e ee3d cdb0 11be 0729 11bd c318 783c
00000190: 9cd8 9dbd d48a d4bd c386 be3d 4162 e23d
000001a0: ef0c 30be 2fce d63c edbc 4d3e ac33 cb3d
000001b0: 67f7 363c 27aa 3e3d 0064 913c 3831 233e
000001c0: 8b7a 323e 75e1 5a3e f5a9 9ebc 12ef a33c
000001d0: b71c fa3d b2ad 763d 634d 4f3e 8e86 15be
000001e0: 2bc9 edbd c52a 503e 40d0 283e 086e 0fbe
000001f0: d789 d9bd 2e4f 91bc 34a1 513e 6ed1 3a3e
00000200: 61df 94bd 9062 39be e9cf 61bd 32b3 d33c
00000210: 83e1 dd3d dc4d 243d 6dc0 6fbc 6d88 d53c
00000220: 6cf8 1d3e 2e78 0bbe 8b10 debd 020e c03d
00000230: a39c 233e 9ab1 67bd e9f5 4bbd b031 70bd
00000240: 0244 c33d 05f1 cc3d 6810 dcbd 1921 5d3d
00000250: 9b81 c2bd 61c1 abbd 8d4d 4abd 3a51 523d
00000260: 95d9 ac3d c97d 55bc 6d8b 8abc c1d7 95bc
00000270: 529c 89bd 35de a73d b7a0 b23c 2aba ffbc
00000280: 4444 bb3d f74b 963b 1a09 87bd 8201 91bc
00000290: 0ab8 863d 7785 61bd ee86 c23d 9441 a33d
000002a0: 744c 10bc 6935 503d 7728 54bd 7a34 7ebc
000002b0: 3853 26bc ffb2 16be 86d8 d1bc 6f60 a33c
000002c0: c753 1c3e d543 e33d ac32 debd ee71 893d
000002d0: 13c2 073d b164 21bc 2135 d1bd 060e cd3d
000002e0: 469f acbd 71fa 10be 6bf0 013e d43b 783d
000002f0: 787b dd3d 205f ac3d 0e7c 843d c7b2 bf3d
00000300: 062f efbd 84d4 073d c90c 8f3d 1f5f 65bc
00000310: e399 123e 16df 0e3e 1e3b 8a3d 31fe 80bd
00000320: 8c02 0e3e fa58 02bc efb0 483d f2ce 2b3d
00000330: 5a55 fa3d b1e8 663c cc12 023e 7c15 b7bd
00000340: caca 79bd 26ce 5dbd 6af4 e93d 6675 7d3c
00000350: 8cca 983c d482 e7bd 970f 5e3c d88a b5bd
00000360: f509 d1bd 7d5d cd3c e9bf d0bd 3e42 133d
00000370: 0520 afbd 215c fc3d f2bf f8bd c379 8e3d
00000380: 6428 493d 1b9d 0c3d 3389 0e3d 1aeb 203e
00000390: 9241 b43c cd7d 12be 8ca5 10bb 63b5 58bd
000003a0: 2b8d 25be 19d5 043e b03b 59bd c733 d43d
000003b0: 49a2 c63d a0d9 703d 8581 cb3d 0301 06be
000003c0: 7274 b73d d36b bc3d e244 b0bd 6a9d 04bd
000003d0: 1e07 943c 749c 09be a41f 4cbd 6c73 643d
000003e0: 4a25 93bb 22e6 bdbb 03b2 cb3d f1a5 6b3d
000003f0: 4436 15be 6cbe c4bd c23e 19bd e623 8cbd
0.033509836 -0.08339048 0.0016685042 -0.04596202 0.09676088 -0.07564431 0.114456855 0.0508061
0.08527368 -0.0723559 -0.04309139 0.10388177 0.16789429 -0.13538596 0.080388084 0.036147356
0.056179445 0.005051074 0.06393218 -0.011711703 0.029318577 -0.08627353 -0.064214855 -0.12159843
-0.07279115 -0.08092146 -0.028423158 0.04257493 0.021447338 0.03673342 0.048598163 0.0066340636
0.15268742 -0.0011765305 0.1286492 0.06617583 -0.14563467 -0.18684487 -0.033267632 -0.0651667
-0.11167639 0.032133497 -0.056800254 -0.006638364 0.013340513 -0.06726044 0.0056010843 0.044882584
0.062000465 -0.04546423 -0.13094568 -0.11469096 -0.03789108 -0.13518576 -0.101080224 -0.02618136
0.06096303 -0.040066313 0.10555742 -0.10163243 -0.03236171 -0.03156644 0.117250755 0.0044188066
-0.12421325 0.0069603906 -0.00085562246 0.08876468 0.056601565 0.03235411 0.21168478 0.13835071
-0.0103156185 -0.12953228 -0.06265907 0.0156195 -0.019498287 0.15001167 0.047721118 -0.091676585
0.021534702 -0.021763198 -0.022447618 0.019936066 0.026859177 0.10620212 -0.026828025 -0.12824956
0.0048245224 0.059213955 0.09774599 0.0043010986 0.10779039 -0.016646987 -0.08793293 0.032843675
0.116421916 -0.142276 -0.035439517 0.015142622 -0.077073306 -0.10378042 0.093030475 0.11053897
-0.17192434 0.026221363 0.200916 0.09921965 0.011167384 0.04654899 0.017747879 0.15936744
0.17429559 0.21375068 -0.019368151 0.020011459 0.12212508 0.060224243 0.20244364 -0.1460211
-0.11610635 0.20328815 0.16485691 -0.14006817 -0.10621994 -0.017737951 0.2047165 0.18243954
-0.07269169 -0.18104005 -0.05512992 0.025842283 0.108340286 0.040113315 -0.01463328 0.02606603
0.15426797 -0.13620064 -0.10842999 0.09377672 0.15977721 -0.05656586 -0.049795065 -0.058641136
0.09534456 0.10006908 -0.10745317 0.053986643 -0.094973765 -0.083864935 -0.049390364 0.051346995
0.08439938 -0.013030478 -0.016912187 -0.018291356 -0.06719269 0.081966795 0.02180515 -0.0312167
0.0914388 0.0045866924 -0.06593533 -0.017700914 0.065780714 -0.055058923 0.09498392 0.079714924
-0.00880729 0.050832186 -0.051796403 -0.015515441 -0.010151677 -0.14716719 -0.025615942 0.019943444
0.15266334 0.11096922 -0.10849509 0.067111835 0.033144068 -0.009850667 -0.10215212 0.100124404
-0.084288165 -0.14158036 0.12689368 0.06060393 0.108145654 0.08416581 0.06468974 0.09360271
-0.11678891 0.033161655 0.069848605 -0.013999729 0.14316516 0.13952288 0.06749557 -0.06298483
0.13868159 -0.007955784 0.048996862 0.041945405 0.12223311 0.014093564 0.12702483 -0.08939645
-0.06098441 -0.054151677 0.114235714 0.0154698845 0.01865127 -0.1130425 0.013553522 -0.08864373
-0.10206977 0.025068993 -0.10192854 0.035951845 -0.08551029 0.1232226 -0.12145986 0.06956818
0.049110785 0.034329515 0.034798812 0.15714684 0.022003923 -0.14305802 -0.002207133 -0.05290736
-0.16167133 0.12971915 -0.053035438 0.10361438 0.09698922 0.058801293 0.09936813 -0.13086323
0.08957757 0.09200253 -0.08606888 -0.032376684 0.0180698 -0.13438588 -0.049834862 0.055774137
-0.004490529 -0.0057952562 0.099460624 0.0575313 -0.14571482 -0.096066326 -0.037413366 -0.068427846

lstm.weight_hh_l1 f4 [256, 64]
00000000: 3086 923c 521d 1a3d 9004 e53d 9344 ddbd
00000010: 5fc6 20be 1021 743d 1c13 133e b318 ab3d
00000020: 8c30 9b3d c75d c93c 9940 fcbc 3141 d6bc
00000030: 516e dabd c3e2 eabd 0215 523c ff51 ae3b
00000040: 2fa0 c83d bf6f 13be 56fb 963d e4cf d0bd
00000050: 3657 833d 8c43 ccbb 1fe4 b13d 4b22 2abe
00000060: f72f 6abc 4dd7 193d 791d cabc 3351 4a3e
00000070: 2aa9 96bd 82c7 9b3d 9065 98bd 2d79 843b
00000080: b023 8bbd 61a2 1c3d 9c42 903d 1ce4 463d
00000090: 070e 86bd 09d2 89bd b5dc 843c f2cc 3a3d
000000a0: 470f fbbc 718f fcbd 7b76 23be 7024 2abb
000000b0: 0f87 043c c9d1 5b3c 6d27 4fbc 3573 4f3c
000000c0: 3006 cdbc 24e3 8ebd c640 8fbc bf57 403d
000000d0: 3a29 debd 78cd 81bd cfc3 b7bc 9007 fa3d
000000e0: c923 2cbe e965 9a3c f63e f2bd 556a 873d
000000f0: 9232 a83d e3d8 9b3d 8386 2a3d 2a03 b0bd
00000100: e12c 2abe 3708 1b3d f410 ca3d 0932 4b3d
00000110: c84e 2ebc 4baa 403e 8209 1b3e 4bb0 00be
00000120: 2dda 8cbd 09f5 283c b19c a03d 9f69 82bc
00000130: b5c4 96bd bbe0 21be 5bc5 58bd d59b 73bd
00000140: f587 f23a 5d1a b23d adc3 063d b508 39be
00000150: 4f71 b03c 9a68 24be 9a03 dd3c 1db8 f93d
00000160: 85fc f9bd 197a b4bd 55e3 a73d 85e8 6cbc
00000170: eee7 c7bd 752d c53d 057d 43bd 42c9 e43c
00000180: d0b6 fb3c c1f5 b93d 52b6 a13c 1629 543c
00000190: 6588 09be 5547 a7bc ad85 9a3c de8a 153e
000001a0: 357f 90bd 3fd1 dcbd f097 9b3c 00e8 74bd
000001b0: 7118 43bd fb16 1fbe a4f2 c43b 497d 523e
000001c0: f6f8 55be 5737 813c ceb0 2f3e b0dc 903d
000001d0: f7ca 003e e693 92bd 7f05 3f3e ee68 b5bc
000001e0: 6cd5 2b3c 989f 48bc 6f6c 8cbc bedf 06bd
000001f0: 470e 1c3d 62aa 4abe 537e 01be 161e 643d
00000200: 31b4 e33b fa90 c53d ccc7 b23c 1ef7 c63d
00000210: 2f3b b13d 26d7 97bd b424 8b3d 8e47 6c3c
00000220: de36 60bd 3c37 e03c 9dc5 b6bd 557f 2b3d
00000230: dfc9 eabd 1825 babd d547 d1bd 248f afbd
00000240: 0b4a e83d 8193 bebc ca4d 84bd e3c1 54bc
00000250: 7677 4c3d aba0 00be 35ca 503d 9398 e9bd
00000260: 1449 d9bd 4b14 bf3d 552f 8cbd 8c05 a3bc
00000270: 7a19 59bd d403 ebbb 0917 6c3d 7c05 333d
00000280: 3d3d cc3d 6141 183d ae69 be3d f002 1dbd
00000290: 6a8e 9abd cdcb febd a499 d2bd 947a 353d
000002a0: 6b53 cc3d d26a c4bd fdd9 b8bd 161f 293b
000002b0: 9e0d c7bd b387 c33d 3d7f e3bd b42c 7abd
000002c0: f98f 743a 1550 adbd bde9 a7bc 456f 023d
000002d0: 0bdd a93d 7367 29bb a75d cb3b 8d21 4f3d
000002e0: ddb2 5ebc c877 ecbd 9077 893d 4d40 7cbd
000002f0: 008b f63d 8488 18bb 1b56 073d 6ef7 fc3b
00000300: 45c4 a43d fd0d 34bd ad3f f23d cf5e a9bd
00000310: efcc 03bd c6cb c5bd 6550 7b3d 4216 07bc
00000320: a241 07be 1dfb 633d 176a ba3d ae65 213d
00000330: b67a bcbd 1d19 3b3c 3409 9dbc c670 2dbe
00000340: c2bf 783d 24f4 c8bd 1ad8 e3bd 7535 81bd
00000350: a9b2 1d3e 9d1c 513d 101b 0e3d c237 5b3d
00000360: 9ebc 0cbe ecd1 06be 3b6e a23d f239 083d
00000370: 847f c6bd 5d4a e23d e7d6 173d df67 f0bd
00000380: f77d e13d 3718 93bd b0bf 7d3c 9bae b1bd
00000390: 4dca 40bd 1d5a 113d 470c dbbc 74a5 da3c
000003a0: 840e 923d 2c43 83bb 654f c9bd 8ee6 26bd
000003b0: 0b81 dbbd b7df b2bd 4dd5 95bd 08dc 49bc
000003c0: 21fe dfbd 98f8 113d 2532 95bd da87 c4bd
000003d0: 5ea6 cfbd 7078 813d 12e8 163e e306 c43d
000003e0: be79 69bc e2cd 433d 4eea c9bd ee2d bf3c
000003f0: e7b4 8a3c 3c41 033d f14e 17be 4074 38bd
0.017886251 0.03762562 0.11182511 -0.10804095 -0.15700673 0.059601843 0.14362758 0.083543204
0.07577619 0.02458085 -0.030792521 -0.026154133 -0.106655724 -0.114690326 0.012822391 0.0053198333
0.097961776 -0.14398097 0.07372157 -0.10195902 0.064131185 -0.006233638 0.08686089 -0.16614644
-0.014293662 0.037558842 -0.024672257 0.19757538 -0.07356484 0.076064125 -0.074412465 0.0040427656
-0.06793916 0.038240794 0.07043955 0.048557386 -0.06545644 -0.06729514 0.016218523 0.045605607
-0.030646933 -0.12332047 -0.15963165 -0.002596166 0.008088841 0.013416716 -0.012643677 0.012661745
-0.025027364 -0.069769174 -0.017486941 0.04695868 -0.10847707 -0.06338018 -0.022432236 0.12208474
-0.16810526 0.018847423 -0.11828415 0.06612078 0.082127705 0.07609727 0.041632187 -0.085943535
-0.16618682 0.03784963 0.09866515 0.049608264 -0.0106389 0.18814962 0.15140346 -0.1256725
-0.06877551 0.010312327 0.078423865 -0.015919505 -0.07361738 -0.15808384 -0.052922588 -0.059474785
0.0018503653 0.08696435 0.032901455 -0.18069728 0.021538405 -0.16055527 0.026979256 0.1219332
-0.122063674 -0.08812351 0.08197657 -0.014459734 -0.09761034 0.09627811 -0.04772665 0.027927998
0.03072682 0.09080077 0.019740257 0.012949249 -0.13430937 -0.020419756 0.01886257 0.14603755
-0.07055513 -0.10782098 0.018993348 -0.059791565 -0.04763073 -0.1553611 0.0060103703 0.20555605
-0.20895752 0.015773458 0.1715729 0.07073343 0.12577425 -0.07157116 0.1865444 -0.022144761
0.010487895 -0.012245081 -0.017141549 -0.03292822 0.038099553 -0.19791558 -0.12645845 0.055692755
0.0069489707 0.09646793 0.021823786 0.097151026 0.086538665 -0.07414083 0.0679411 0.014421357
-0.054739825 0.027370088 -0.089244105 0.04186948 -0.11464285 -0.09089106 -0.10218779 -0.08572224
0.113422476 -0.023263695 -0.064601496 -0.012985679 0.049918614 -0.1256129 0.05097409 -0.11406054
-0.10609642 0.093300425 -0.06844965 -0.019900106 -0.053002812 -0.007172087 0.057639156 0.043706402
0.09972618 0.037171725 0.092975006 -0.03833288 -0.075466946 -0.12441216 -0.10283211 0.044306353
0.09976848 -0.09590687 -0.09025953 0.0025805882 -0.09719394 0.09547367 -0.11108253 -0.06107779
0.0009329315 -0.0846254 -0.020497197 0.031844396 0.08294114 -0.0025849014 0.0062062326 0.050569106
-0.013592449 -0.11546284 0.06712258 -0.06158476 0.12038231 -0.002327473 0.0330411 0.0077199256
0.08045248 -0.043958653 0.118285514 -0.082700364 -0.03217786 -0.09658007 0.061355967 -0.008245053
-0.1320863 0.055659402 0.09102266 0.03940361 -0.09203093 0.011419562 -0.019169427 -0.16937551
0.06072975 -0.09812191 -0.111252025 -0.06309024 0.15400185 0.05105268 0.034693778 0.05351997
-0.13743827 -0.13166016 0.07931181 0.033258386 -0.096922904 0.1104934 0.03707018 -0.11738562
0.11010354 -0.07182353 0.015487596 -0.086758815 -0.04706793 0.03548633 -0.026739253 0.026690222
0.07131675 -0.0040058102 -0.098295964 -0.040747218 -0.10717972 -0.087340765 -0.073160745 -0.012320526
-0.10937143 0.035637468 -0.07284955 -0.09596224 -0.10139154 0.063218 0.14736965 0.09571626
-0.014250217 0.047803767 -0.09859143 0.02333733 0.016931964 0.032044634 -0.14776208 -0.04503274

lstm.bias_ih_l1 f4 [256]
00000000: 155e 003e 356d f73d 521c 58bd 91a4 84bd
00000010: 5c40 a6bd 42a8 57bd 4386 103e a3cd 6cbd
00000020: e6a0 f93c 9b20 d43d 660c 50bd c4eb e33c
00000030: 3987 5e3e 3bde 3f3d 1946 193e 0706 703d
00000040: 899f c53d 1ae6 233e 36ee 9f3d dfff bf3b
00000050: fa8d b63d 95ca 253e e5c7 0c3e 2219 bdbb
00000060: 1d62 393e 442f 163e ddb1 653e 6559 7a3d
00000070: 2bff ee3d 306b 4abd f2f3 5f3d c5ef ed3b
00000080: 0467 9bbb 6bd0 213e ba9b 7dbd 788b 473c
00000090: 66c5 1f3e 8a35 803c e8c0 ed3c 6128 3d3e
000000a0: 7959 313e ce44 ea3d 6dbf 7f3c 6c3a f93d
000000b0: a339 b3bc 4143 efba e036 833d 4d8f a53d
000000c0: 372a 76bd 3a8b b33d 87b7 1b3e 4b7c 983c
000000d0: 367e 38bd 8ab4 0f3e 84d0 1c3e 0bea eb3c
000000e0: f8af 423e 899b acbd 2c12 1b3e 9662 38bd
000000f0: b656 213d 4808 123e 4a78 84bd 136d 39bc
00000100: 2350 d43c 5cc5 953d 7954 b83c 920c 013e
00000110: eb59 4bbd 674b 313d 6d25 01be d714 1ebd
00000120: 2799 f2bc 2de4 4b3d e0b3 43bd 7370 6dbd
00000130: 0ebf 573d 9a9b acbc 1419 b3bd 9364 73bd
00000140: b778 00bd 2833 19bd 8373 83bd fc5e be3d
00000150: 415c 6abd 131f ca3d 04b0 0c3d ba2e b63c
00000160: 9b73 823d 1a66 e93b 88d9 a33d 89b1 6dbd
00000170: 7e8a f83d 1089 e0bd c205 0ebd 6b51 b93c
00000180: 099a a6ba 5380 a13d 5049 a03d 8eee db3d
00000190: 12ce 73bd e294 0bbd 5a13 703d 13fe bf3c
000001a0: c423 903c c8f5 bfbd 0f82 25bc 93f1 9d3d
000001b0: abec 713c dfc8 74bc 9c73 9abb d275 0f3d
000001c0: 5463 bf3d 003f 7b3d 9ac7 5abc 3d5b 93bd
000001d0: 8354 b7bd a4d0 de3d 58a6 333d ec99 0abe
000001e0: 63c2 b93b f420 7c3d bd9d 9a3d cf7f d8bd
000001f0: 0ecb 853d 0776 953d 9779 6b3c 0cae 5abd
00000200: 8577 443d 9c9a c33c b81a ca3d de33 bc3c
00000210: 347c 65bd d397 0b3e 8e8f 92bd 6e66 0b3d
00000220: 1c29 5a3d 0240 21bc 6f76 e3bb 8d07 6f3d
00000230: 7dd8 bfbd 6239 04be 35c4 0a3e 1dca ecbc
00000240: 44d3 9f3d 01f1 03bc 88b4 af3d 79a5 883d
00000250: 5488 983d 1297 d5bd ede5 323d ba61 f9ba
00000260: 11e4 52bd ec01 b43a e598 4b3d 3b22 2a3b
00000270: 6d80 10bd fa44 d43d 63df 273c 58e2 0dbe
00000280: 0b5e 743b 9d12 febb 3cd2 113c ed44 ecbd
00000290: d86c 90bd fd1a 23bd e589 e2bd ab08 503d
000002a0: b083 a43d bb9e f6bd a665 69bd 6764 38bd
000002b0: 4298 03be cd54 ecbd 48f8 ce3d 0b37 1f3e
000002c0: a5b5 4a3d f407 fcbd 4665 643c c2c0 d63d
000002d0: cafb 0d3e bf23 91bd 88d4 e33d a8d2 6d3b
000002e0: 04c0 96bd c5a6 81bd fcf7 00be 998f 913d
000002f0: 102c 5e3d 4854 4e3d cb67 54bd f753 853d
00000300: b968 60bd e720 7f3d 04b7 953d 76c3 bcbc
00000310: fa54 823d 88c7 a43c 22d2 c73d a012 7c3d
00000320: 8618 843b 7db0 3d3e 877a 043e 83d0 2f3e
00000330: 65a6 373d c591 a33c 5dde 4ebd f52f 493e
00000340: 31c9 a1bd 6c0c 34bc 6c9c e13d d012 e53c
00000350: 1b87 eb3d 4561 9d3d 7214 423d c7c4 5b3e
00000360: 9849 383e ea11 593e f414 2c3e 0d30 833d
00000370: 2c01 153e f147 303d 2f52 02bd a0bc 08bb
00000380: 83e6 c93c 334b 62bd ccfb bf3d e741 ddbc
00000390: d6b8 373d c6fc b03d bcd7 18bd f9cc 2d3e
000003a0: 9192 413d 3971 0fbd e6f0 703d 867d a53d
000003b0: e4d8 9f3d 40c5 0cbd c91f 8e3d 12cf 403c
000003c0: bf0a 6dbd 32d5 cdbd 2830 383e 12ae 553d
000003d0: ba9e ab3d 9d9b e23d 1edd 48bc 0a72 4c3e
000003e0: 2cca 2b3e 2f1c 3dbb 337c 2f3e 29fa 283e
000003f0: ef7f 313d 34fb cb3d 57dc 0c3e 0ce6 9f3d
0.1253589 0.120813765 -0.052761383 -0.06476701 -0.08117744 -0.052650698 0.14113717 -0.057813298
0.03047223 0.103577815 -0.050793074 0.027822383 0.21731271 0.046842795 0.14968146 0.058599498
0.096495695 0.16005746 0.07809107 0.0058593596 0.08913799 0.1619056 0.13748129 -0.0057708183
0.18103833 0.14666468 0.2243113 0.06112041 0.11669763 -0.04941863 0.054676004 0.007261249
-0.004742505 0.15802161 -0.06191609 0.012179248 0.15602645 0.01565053 0.029022649 0.18472435
0.17319287 0.11438905 0.015609604 0.12169346 -0.02187807 -0.0018254296 0.06406951 0.08083973
-0.060098853 0.0876679 0.15206729 0.018613955 -0.04504224 0.14033714 0.15313917 0.028798124
0.19012439 -0.084281035 0.15143651 -0.045015894 0.039389335 0.14260972 -0.06468256 -0.011317509
0.025917118 0.07313034 0.022501217 0.12602451 -0.0496463 0.0432848 -0.12611933 -0.038594093
-0.029614044 0.049778152 -0.047778964 -0.057968568 0.05267244 -0.02107029 -0.08745018 -0.059422087
-0.031365123 -0.037402302 -0.064185165 0.092954606 -0.057216886 0.09869208 0.03434755 0.022239078
0.06369706 0.007122767 0.08000475 -0.05803064 0.1213579 -0.109636426 -0.03467346 0.02262183
-0.0012710701 0.07885804 0.07826483 0.1073886 -0.059522696 -0.034077533 0.058612205 0.023436582
0.01759518 -0.09373051 -0.010101809 0.07712092 0.014765899 -0.0149404695 -0.0047134887 0.03502447
0.09345117 0.06133938 -0.013353253 -0.07195137 -0.08951666 0.10879639 0.04385981 -0.13535279
0.0056689247 0.061554864 0.075496174 -0.105712526 0.0653287 0.072979026 0.014372251 -0.05338864
0.047965545 0.023877434 0.098683774 0.022973951 -0.056026652 0.13632135 -0.07156287 0.03403323
0.05326186 -0.009841921 -0.0069416086 0.05835681 -0.09367464 -0.12912515 0.1355141 -0.028904969
0.078039676 -0.008053065 0.085793555 0.066721864 0.074478775 -0.10429205 0.043676306 -0.0019026317
-0.051487032 0.0013733483 0.04970636 0.0025960344 -0.035278726 0.10364719 0.010246131 -0.13855875
0.00372875 -0.0077536837 0.008900221 -0.11536584 -0.0705201 -0.03982066 -0.110614575 0.050789516
0.0803293 -0.12041994 -0.056981705 -0.045017626 -0.1285105 -0.11539612 0.1010595 0.15548341
0.049489636 -0.123062044 0.013940161 0.104859844 0.13865581 -0.07086896 0.111245215 0.003628889
-0.07360843 -0.06330637 -0.12594599 0.07107467 0.05424124 0.050373346 -0.051856797 0.06510156
-0.05478737 0.062287237 0.07310298 -0.023042422 0.06363864 0.020114675 0.097568765 0.0615412
0.0040312437 0.18524356 0.12937365 0.17169385 0.04483642 0.01996697 -0.05050503 0.196472
-0.07899702 -0.01098929 0.11016163 0.027963072 0.11500379 0.07684568 0.04738278 0.21461783
0.17996824 0.2119824 0.16804868 0.06405649 0.14551228 0.04303736 -0.031816658 -0.0020864382
0.02464605 -0.055247497 0.09374198 -0.027008964 0.044854008 0.08641963 -0.037315115 0.16972722
0.047258917 -0.035020087 0.05882349 0.08080582 0.078050405 -0.0343678 0.06939656 0.011768119
-0.057871576 -0.100504294 0.1798712 0.05216796 0.08379884 0.11064837 -0.01225975 0.19965377
0.16776341 -0.002885591 0.17137222 0.16501679 0.043334898 0.099600226 0.13755928 0.0780755

lstm.bias_hh_l1 f4 [256]
00000000: 2044 74bc fcf8 a8bc 8dc3 033e 265f 853d
00000010: 4609 fdbc 809b a33c 5b9a 6d3e 2cb3 073e
00000020: 42c0 063d b90a 053e fb18 67bc aeaf 4e3e
00000030: 0126 c93d 49b4 ec3d 7bcd 443d 2213 aabc
00000040: 8d49 0a3e 0ec5 adbc d050 85bb 8cd5 08bc
00000050: 4e62 e7bc 1c37 c73c 9b74 0b3e 1839 413e
00000060: d02c 343c e3d9 663c 1579 ad3d 4271 e2bc
00000070: 1bdc 3f3d 3b58 053e 5c97 aa3d e7d6 a53d
00000080: 4b50 c33d 4056 81bd a676 8dbd a5c9 f13d
00000090: c50f 553d 3cc2 873d 7a6b ff3d 3855 0b3e
000000a0: 54bc b13d 3756 343e 207f b7bc 2940 833d
000000b0: 25da 753d d914 153e ad2f b73d 60e1 ed3d
000000c0: f6e1 29bd 38bb 043d cded 9b3d 9a65 b73d
000000d0: e16d 9dbc 93fb 50bd 7eee c73d d402 8d3d
000000e0: ae80 c03c e4cf 65bd 5090 4c38 477a 263e
000000f0: 5df9 803d 5a98 b13d aeeb 1e3d 416b f83d
00000100: 21bc f83d 282e d33d b1f9 d23d cad4 02bd
00000110: 379c cebb 83f9 38bc c139 84bd bafe c8bd
00000120: f764 eabd 4243 43bd bf77 b8bd 7b5d 02be
00000130: c6ff 3a3d 2570 883d 672c 013e ec34 b73c
00000140: 719d 0b3d 7f3f a93d e9fd 593d 6407 e83c
00000150: 2fa9 a63d 31cb 0a3e 187f 97bd 85a8 edbd
00000160: 2df9 d43d 32b4 213d 7441 5fbc e989 273d
00000170: 94a1 f73d b1a6 883d b923 aebd 41db b33c
00000180: 65d6 3b3d 1eef d8bb 5643 98bd e064 193d
00000190: 6b38 473d d280 56bc 9c2e c53b 8b7e bb3d
000001a0: 0d09 08be f6df cb3d 2200 45bd 1382 c53c
000001b0: 13d4 d63d ea8a 263c ede5 f63d 6063 d53b
000001c0: d409 cebd ec61 b2bc f93d eabd 3647 a03c
000001d0: f1ae e63c b0cd a23d a451 5fbc 429c 0cbe
000001e0: a750 60bd c198 f23b 6b4e 1a3d 0d6a a03d
000001f0: c815 ecbc 0080 40bd 8ffe 71bd 182f 2b3d
00000200: 29d1 0ebe dc2b 133e 96d1 80bd b37d 34bd
00000210: e37a f7bd ff93 f63c 22d4 923d c7cf f7bd
00000220: ef6f 14be 06ed a0bc 5991 a23d 3b8d a2bd
00000230: e9d8 d63d 87f6 7ebd 77b1 96bd 7368 afbd
00000240: e3c7 89bd 7eba 1fbd 48ec 92bd 5d4d bfbd
00000250: 080e 25b8 1c30 c0bd 2065 cbbd efa5 65bd
00000260: 1aa3 d8bd 3663 efbb a258 bebd af85 eb3d
00000270: 9b23 d53b b87a 903d a192 283c cf04 99bb
00000280: cf7f 003d 7d12 e53d 8eff ecbd 51a6 92bc
00000290: a758 0abd 4104 fabd cd42 a43c 04c9 e63d
000002a0: e293 a6bd 9f2a 93bd ab9f d8bd afe0 ae3d
000002b0: e41d 753c b532 aebd 3c4e 043e cf73 113e
000002c0: 83a5 8dbd 7000 b3bd 0456 9d3d 9012 903b
000002d0: 96e3 603c fd87 813d fe06 6f3d a35e 833d
000002e0: d612 f8bd 8ee5 42bb 56ab e8bd cc7b 13bd
000002f0: 0177 d0bb 9c60 c2bd 3e1b 13be 1555 8fbd
00000300: f7e5 803b 09b5 243e 1a1b 003d 50e8 133e
00000310: 0131 3fbd 8175 8d3c 19d1 263e 7294 b23d
00000320: 6312 a53d f04c be3d d989 7c3d d17e 993a
00000330: a36c 2c3d 489c c73d 8de6 cb3b 9d08 ce3d
00000340: bcc0 28bd c4b2 46bd b0f3 ac3d 823b db3d
00000350: fa9a f53d c704 003e e53e b83d 20c0 1f3e
00000360: 5939 f23c 5b58 af3d c287 2c3e fae1 9b3d
00000370: b659 463e ec2c dc3d c957 b43a 7d2e 1ebd
00000380: 6aef b3bd ae18 8bbd 047d aabd b3f6 c73d
00000390: dbbf 643c 8a10 b03d ff46 3c3d 9757 463d
000003a0: 096f 003d 06cd 73bd ec39 5c3d 221f 00bd
000003b0: 9b23 113e 5b44 fb3c 4f56 813d 56d2 7d3c
000003c0: 23ba ff3c a18b e6bc 2db9 1e3e 4474 243d
000003d0: ae8b 243e 871a f23d 620a 263e 793a dc3d
000003e0: eeea 6c3c 4710 6dbd c499 0cbd 99e6 28bd
000003f0: 309f 4abc 1ce0 013d eb73 063e 2ff2 a73c
-0.01490882 -0.020626538 0.12867565 0.06512289 -0.030888211 0.01997161 0.23203413 0.13251942
0.032898195 0.12992372 -0.014105077 0.20184204 0.09821702 0.11557824 0.048047524 -0.020761076
0.1350462 -0.021212127 -0.0040684715 -0.008351695 -0.028245118 0.02431827 0.136187 0.18869436
0.010997012 0.014090034 0.0847036 -0.027641896 0.04684077 0.13021939 0.08329651 0.0809763
0.09536799 -0.06315279 -0.06907396 0.11806039 0.052016992 0.06628844 0.124716714 0.13606727
0.08678499 0.17611013 -0.022399485 0.06408722 0.060022492 0.14558734 0.0894464 0.116152525
-0.04147526 0.03240511 0.07613716 0.08954926 -0.019217433 -0.05102117 0.09762286 0.06885305
0.02349886 -0.056106463 4.877179e-05 0.16257583 0.06297562 0.08671637 0.03879898 0.12129832
0.12145258 0.10311538 0.10301531 -0.031941213 -0.0063052434 -0.011289957 -0.06456328 -0.0981421
-0.11445039 -0.047671564 -0.09007215 -0.12730972 0.04565408 0.06662015 0.12614594 0.022364102
0.034085695 0.08264064 0.053220663 0.028323837 0.08137738 0.13554074 -0.07397288 -0.11604408
0.10399089 0.03947849 -0.013626445 0.040903006 0.120913655 0.06672419 -0.08502907 0.021955134
0.04585876 -0.006620302 -0.07434718 0.037449718 0.04863779 -0.013092237 0.006017519 0.091549955
-0.13284703 0.099548265 -0.04809583 0.024109876 0.10489669 0.010164956 0.120555736 0.0065120906
-0.10060468 -0.021775208 -0.114376016 0.019565206 0.02815959 0.07949388 -0.0136303045 -0.13731483
-0.054764416 0.0074034636 0.03767244 0.078327276 -0.02881898 -0.04699707 -0.059080657 0.04179296
-0.13946976 0.143722 -0.06289975 -0.04406519 -0.12083986 0.030099867 0.071693674 -0.12100177
-0.14495824 -0.019644272 0.07937879 -0.07937094 0.10490591 -0.062246826 -0.073580675 -0.08564844
-0.067275785 -0.038996212 -0.07173973 -0.09340928 -3.9352133e-05 -0.09384176 -0.099313974 -0.05606645
-0.10577984 -0.007305528 -0.09294249 0.115001075 0.0065044886 0.07054657 0.010288865 -0.0046697627
0.031371888 0.11185167 -0.11572181 -0.017901571 -0.03377595 -0.122078426 0.020051384 0.112688094
-0.08133675 -0.07185864 -0.10577329 0.08538949 0.01496074 -0.08505765 0.12920469 0.14204334
-0.069163345 -0.08740318 0.07682422 0.004396744 0.013726136 0.06324766 0.058356278 0.06414535
-0.12112968 -0.0029738876 -0.11360805 -0.036006734 -0.0063618426 -0.09491083 -0.14365861 -0.0699865
0.003933664 0.16084684 0.031275846 0.14444089 -0.046677593 0.017267944 0.16290702 0.0871972
0.080601476 0.092920184 0.0616549 0.0011710768 0.04209579 0.09746605 0.006222552 0.100602366
-0.04119943 -0.048510328 0.08444917 0.107047096 0.1199245 0.12501822 0.08996371 0.15600634
0.029568361 0.08561774 0.16848662 0.07611461 0.1937016 0.10750756 0.0013759072 -0.038618553
-0.08785899 -0.06791817 -0.08324626 0.09763851 0.0139617575 0.085969046 0.045966145 0.048423376
0.03135589 -0.059521697 0.053766176 -0.03127969 0.14173739 0.030672243 0.0631529 0.0154920425
0.031216687 -0.028142752 0.15500326 0.040149942 0.16068909 0.11821466 0.16214898 0.1075334
0.0144603085 -0.05787685 -0.03432633 -0.04123554 -0.012367055 0.031707868 0.13130157 0.020501224
