LSTM/models/sensor_data_3_pm1_lstm_model.pth (torch, 206046 bytes, 9 tensors)

lstm.weight_ih_l0 f4 [256, 1]
0.09138968 -0.027938522 0.022543278 0.06315828 0.14230914 0.077805005 -0.15676159 -0.060458068
0.12779716 -0.09038723 0.09041116 -0.06482181 0.06408291 -0.052974924 0.15341759 -0.069631204
-0.07111896 0.055548087 0.05145846 -0.05318962 0.06268718 -0.056496024 -0.03235181 0.048777092
0.044477437 0.05678202 -0.14970045 0.048796646 -0.020525645 0.10858089 0.07951776 0.110257
0.15955652 -0.07557229 -0.050449714 -0.14031777 -0.036260802 0.13312294 -0.08826036 0.18335226
0.005887541 -0.043097183 -0.1708759 0.15404545 -0.07693633 -0.16368446 0.15268439 -0.08243684
0.10399651 0.02701033 -0.06194061 0.13320524 -0.012275778 0.12090339 0.16556093 -0.04002931
-0.1657511 0.117663056 0.028162299 0.02781708 -0.025696684 -0.026728166 -0.1279056 -0.19180979
-0.12539776 0.016403928 0.09896569 -0.053925026 0.10230323 -0.04003591 -0.009815734 -0.09380805
-0.06218692 -0.076632686 0.032190684 -0.15499455 0.16684379 -0.07047584 -0.023027016 -0.08165792
-0.04075735 0.0695525 -0.056617353 -0.18820544 -0.15413435 0.09917172 0.055259563 0.0792714
0.08627747 0.14031693 -0.19625366 -0.06278102 0.10095235 0.13961446 0.08237102 0.03715134
0.118342526 -0.10282147 0.0059629846 -0.017225115 0.08437012 0.13677724 0.047380507 0.087132074
-0.15598173 0.1304822 -0.14457555 0.09327053 0.05248091 -0.053220477 0.083348386 -0.13268317
-0.051586743 0.020312738 0.092626214 -0.037715312 -0.01893013 0.057917655 -0.031637494 0.021541161
-0.07855308 -0.05634989 -0.0044195857 0.036749512 -0.024390569 -0.03230105 -0.08969701 -0.14277299
0.16654797 -0.19092855 -0.10669658 -0.12383042 -0.2208595 0.13714586 0.13622789 0.13583654
0.21469168 -0.11094539 -0.16056518 -0.04245699 -0.17863642 0.012400497 -0.036630165 0.078351356
0.14372176 0.13606648 -0.104785286 -0.17608275 0.13411926 -0.17484865 -0.20546617 -0.11471638
-0.10038383 0.11647887 0.10768215 0.17776443 -0.09420857 0.13389654 -0.13804731 -0.16114125
0.117301114 0.19678713 -0.17183249 -0.122997835 -0.12735355 0.14406078 -0.14124823 -0.13590829
-0.052998204 -0.14448678 0.098180875 0.12901255 0.09030016 0.17677756 -0.15808056 0.0719019
-0.17787552 0.19186428 -0.04291043 0.13426259 -0.07371217 -0.20170987 0.16473125 -0.18251382
-0.10865466 0.03298711 0.19524771 -0.15019217 0.090190366 -0.18150882 -0.07391493 0.13486543
0.06288028 0.05411591 0.012642867 0.14991143 0.17685279 0.1554271 -0.09787499 -0.17813759
-0.016110858 0.0065111076 0.105872676 -0.08927204 0.04322819 0.028017385 0.15085845 -0.13389927
0.0040953 0.039041676 0.022762472 0.010150462 -0.016553283 0.16835797 -0.13735302 0.15330149
0.08576455 0.0935544 0.00068546226 -0.076253265 0.100754544 0.07641406 0.19864239 0.05895507
0.07478452 -0.16984555 -0.064153284 -0.20152743 -0.08859068 0.02499232 -0.0077151833 0.16853152
-0.14161494 0.18929973 -0.13143119 -0.021895291 0.042611435 -0.15768339 0.04916941 0.027619502
0.0023810389 0.14984608 -0.10216533 0.05723323 -0.10220561 -0.041088086 -0.0019430891 -0.024211299
-0.05599054 0.14030379 0.024413778 -0.032155085 -0.10323484 -7.8153455e-05 -0.22659151 -0.13320747
00000000: 832a bb3d 54df e4bc aeac b83c 2159 813d
00000010: 7db9 113e 3b58 9f3d 1c86 20be e1a2 77bd
00000020: 42dd 023e f11c b9bd 7c29 b93d 4cc1 84bd
00000030: e73d 833d 3cfc 58bd 8019 1d3e ce9a 8ebd
00000040: d1a6 91bd 6486 633d 1bc6 523d 5cdd 59bd
00000050: 2362 803d 6068 67bd 5583 04bd 7dca 473d
00000060: f92d 363d 4394 683d 134b 19be fede 473d
00000070: 6625 a8bc a85f de3d 35da a23d 6cce e13d
00000080: c962 233e a5c5 9abd 5ca4 4ebd 76af 0fbe
00000090: 3586 14bd 6151 083e d9c1 b4bd b2c0 3b3e
000000a0: 46ec c03b ac86 30bd 18fa 2ebe 17be 1d3e
000000b0: cb90 9dbd e69c 27be 4c59 1c3e a5d4 a8bd
000000c0: 1ffc d43d c544 dd3c 70b5 7dbd f466 083e
000000d0: 5820 49bc 329c f73d ce88 293e c6f5 23bd
000000e0: a8ba 29be 54f9 f03d 9fb4 e63c a5e0 e33c
000000f0: da81 d2bc 07f5 dabc b0f9 02be c969 44be
00000100: 4568 00be 8861 863c 86ae ca3d 7de0 5cbd
00000110: 5b84 d13d b2fc 23bd 2cd2 20bc 6f1e c0bd
00000120: b6b7 7ebd 99f1 9cbd 61da 033d e4b6 1ebe
00000130: 19d9 2a3e a355 90bd 27a3 bcbc 443c a7bd
00000140: 2ef1 26bd 8b71 8e3d 99e7 67bd edb8 40be
00000150: 65d5 1dbe 8b1a cb3d da57 623d 0b59 a23d
00000160: 3eb2 b03d 3eaf 0f3e b8f6 48be 5693 80bd
00000170: 1bc0 ce3d 18f7 0e3e 23b2 a83d 012c 183d
00000180: 915d f23d 1094 d2bd 2465 c33b af1b 8dbc
00000190: 3eca ac3d 550f 0c3e 1012 423d 4d72 b23d
000001a0: adb9 1fbe 209d 053e 9d0b 14be 9f04 bf3d
000001b0: 39f6 563d b7fd 59bd 8fb2 aa3d 19de 07be
000001c0: 9f4c 53bd e666 a63c d0b2 bd3d 5f7b 1abd
000001d0: 5c13 9bbc 103b 6d3d 5196 01bd 1777 b03c
000001e0: 70e0 a0bd 24cf 66bd 2cd2 90bb a886 163d
000001f0: bbce c7bc 1b4e 04bd 11b3 b7bd 1533 12be
00000200: 8d8b 2a3e c682 43be bd83 dabd ce9a fdbd
00000210: fe28 62be f76f 0c3e 537f 0b3e bc18 0b3e
00000220: 23d8 5b3e 5637 e3bd 336b 24be 61e7 2dbd
00000230: 77ec 36be 742b 4b3c 8309 16bd ad76 a03d
00000240: cc2b 133e 0355 0b3e ab99 d6bd 094f 34be
00000250: 8f56 093e 860b 33be b965 52be 6cf0 eabd
00000260: 0a96 cdbd 798c ee3d 7688 dc3d e107 363e
00000270: 6cf0 c0bd 2d1c 093e 465c 0dbe 3602 25be
00000280: 913b f03d 9182 493e dbf4 2fbe 4ae6 fbbd
00000290: f868 02be ab84 133e 60a3 10be 8b2b 0bbe
000002a0: a514 59bd 58f4 13be 0e13 c93d de1b 043e
000002b0: 4aef b83d 2d05 353e dfdf 21be 4e41 933d
000002c0: 0025 36be 1278 443e d9c2 2fbd 227c 093e
000002d0: 68f6 96bd 088d 4ebe 4faf 283e e7e4 3abe
000002e0: 5686 debd 7e1d 073d 04ef 473e facb 19be
000002f0: bab5 b83d 73dd 39be b660 97bd 2a1a 0a3e
00000300: 60c7 803d a5a8 5d3d 0724 4f3c 6282 193e
00000310: e618 353e 4828 1f3e af72 c8bd b369 36be
00000320: ebfa 83bc 215b d53b c6d3 d83d 42d4 b6bd
00000330: 0b10 313d b784 e53c a37a 1a3e e41c 09be
00000340: de31 863b 2aea 1f3d 5d78 ba3c 204e 263c
00000350: c09a 87bc 0866 2c3e 45a6 0cbe 11fb 1c3e
00000360: 53a5 af3d 7399 bf3d 98b0 333a ac2a 9cbd
00000370: 6658 ce3d fa7e 9c3d e968 4b3e df7a 713d
00000380: a028 993d feeb 2dbe cc62 83bd 355d 4ebe
00000390: 086f b5bd b2bc cc3c a6cf fcbb 8793 2c3e
000003a0: 8203 11be cad7 413e e695 06be c15d b3bc
000003b0: 5489 2e3d c177 21be dd65 493d 4b42 e23c
000003c0: 340b 1c3b 4071 193e 0e3c d1bd 646d 6a3d
000003d0: 2d51 d1bd fb4b 28bd 40af feba c656 c6bc
000003e0: 5656 65bd ccab 0f3e 67ff c73c 0db5 03bd
000003f0: ca6c d3bd 51e6 a3b8 9b07 68be 8a67 08be

lstm.weight_hh_l0 f4 [256, 64]
0.022864196 -0.049084283 0.014592164 -0.008998742 -0.19354938 0.045845985 0.058084987 -0.10461251
0.06979549 0.0008103954 -0.07246169 0.12638687 0.07601683 0.06301382 0.047199503 -0.103711165
-0.09090341 0.042847626 -0.11533241 0.10331431 0.044275686 -0.052257933 0.14350449 -0.11876946
-0.105609685 0.0011021484 0.073216885 -0.11567477 -0.052293867 -0.07828145 -0.17266585 -0.024562683
0.13580701 -0.07256374 0.102088675 0.15650162 -0.07496106 0.0023913034 0.15406649 0.01098735
0.086290866 -0.12834497 -0.038712963 0.035496593 0.05478325 0.061740458 -0.08310876 0.10328227
0.08821778 -0.043574043 -0.002289406 -0.017073449 -0.028923798 -0.008278339 0.17074041 -0.07033903
-0.083355546 0.15752847 0.073202334 -0.049730163 -0.08290708 0.09468023 0.17512299 0.061098926
-0.01799539 -0.11030355 -0.06056958 -0.13446148 0.017087856 0.13988453 -0.13188288 -0.030247794
0.042011756 -0.0506104 -0.07686101 0.02044256 -0.07907794 0.06298624 -0.14135095 -0.13982907
0.059792377 0.12625022 -0.041248266 0.033210404 0.023795076 0.060978673 0.11814271 -0.15469998
-0.16695383 0.049627166 -0.055826537 -0.07599673 -0.17624564 0.15053764 -0.18092531 -0.14689694
0.1128995 -0.040428698 0.06709435 0.10780694 0.13441543 -0.03673042 0.15138073 -0.097985856
-0.003005678 0.014858766 -0.17157447 0.09767067 0.1269667 -0.024707723 -0.11175337 0.18403398
-0.064694576 0.009385916 -0.012957817 0.022066796 0.0010131132 -0.0072929133 0.19106367 0.018404283
0.08256723 -0.008951837 -0.077213585 0.069607414 -0.023277283 0.11064861 0.0031064248 -0.087253705
-0.13032216 -0.0280977 0.033649012 -0.12518345 0.002456063 -0.054010898 -0.03010393 -0.041529253
-0.08099709 0.07540879 0.06851854 0.050461806 -0.028608669 0.12914649 0.09866423 0.0040714983
0.08389171 0.08053468 0.07143761 -0.017323235 0.057613548 0.04045909 0.053683866 0.0542309
0.06917128 0.08202508 0.0051765176 -0.0029676831 -0.13815731 -0.03433326 -0.03727505 0.02134079
0.08467513 0.030101273 -0.04377996 0.10696899 0.060417835 0.0035991021 -0.08455646 0.08071009
0.11628069 0.0692656 -0.100038856 -0.06508855 0.11414923 0.008340251 0.015106684 -0.08892148
0.062273517 0.08431015 0.036739293 0.021471975 0.02950408 -0.11448677 -0.09715747 0.06654528
0.104132906 0.047045726 -0.06730706 0.018215263 -0.0142350085 -0.04206145 0.03729688 0.06076666
-0.03683309 0.012064343 -0.17571758 -0.054007147 -0.120532304 0.05431359 0.0044609606 -0.0141378315
0.10488538 0.060824025 -0.123525165 0.024381328 -0.09429679 0.1287495 0.050671194 0.015549461
0.1283461 0.076659866 0.05057503 -0.04423913 0.039628673 0.07481248 -0.022199897 0.039372608
-0.15383434 0.17240974 0.05952662 -0.11541087 -0.17462173 -0.070115276 -0.03712912 -0.014388448
-0.0018102364 -0.09969091 0.07272059 0.12836652 0.06300277 0.061045654 -0.03924423 0.043939013
-0.030474508 -0.08867576 -0.06252907 0.046270758 -0.034656275 -0.15160194 -0.06757418 0.059626613
0.07288093 0.07497432 0.13911706 0.004372438 0.08707985 -0.11164893 -0.036255095 -0.03195517
0.098070376 0.099872716 -0.058307294 -0.036303796 -0.1532675 0.06502983 0.17313208 0.064707026
00000000: b24d bb3c 9a0c 49bd f913 6f3c 766f 13bc
00000010: cf31 46be 00c9 3b3d 86ea 6d3d 153f d6bd
00000020: f0f0 8e3d b770 543a cb66 94bd 8f6b 013e
00000030: b6ae 9b3d 640d 813d 4454 413d 8566 d4bd
00000040: 912b babd fe80 2f3d 6633 ecbd 7496 d33d
00000050: 6c5a 353d 6a0c 56bd d7f2 123e 673d f3bd
00000060: e449 d8bd f775 903a bcf2 953d e5e6 ecbd
00000070: 1832 56bd 0652 a0bd 51cf 30be ae37 c9bc
00000080: fe10 0b3e 4c9c 94bd de13 d13d f641 203e
00000090: 2f85 99bd 6ab7 1c3b 9bc3 1d3e 4904 343c
000000a0: 44b9 b03d dd6c 03be 7c91 1ebd e064 113d
000000b0: 6764 603d 90e3 7c3d ed34 aabd a885 d33d
000000c0: 86ab b43d b27a 32bd dc09 16bb 9edd 8bbc
000000d0: 9af1 ecbc dfa1 07bc 93d6 2e3e e90d 90bd
000000e0: 50b6 aabd 254f 213e 1beb 953d dbb1 4bbd
000000f0: 30cb a9bd b5e7 c13d 7153 333e de42 7a3d
00000100: 116b 93bc d4e6 e1bd cf17 78bd 45b0 09be
00000110: d5fb 8b3c e43d 0f3e 4e0c 07be 39ca f7bc
00000120: 8514 2c3d da4c 4fbd 4e69 9dbd 2877 a73c
00000130: 9df3 a1bd eefe 803d 4ebe 10be 5a2f 0fbe
00000140: dae8 743d bd47 013e f1f3 28bd a207 083d
00000150: e4ed c23c c6c4 793d cef4 f13d ac69 1ebe
00000160: f2f5 2abe db45 4b3d 5eaa 64bd 2ca4 9bbd
00000170: bd79 34be 8a26 1a3e 7c44 39be 276c 16be
00000180: da37 e73d 9098 25bd c368 893d e3c9 dc3d
00000190: 33a4 093e a372 16bd 8d03 1b3e cfac c8bd
000001a0: e9fa 44bb 2f72 733c 38b1 2fbe 8f07 c83d
000001b0: 8f03 023e da67 cabc f3de e4bd 6773 3c3e
000001c0: 977e 84bd 63c7 193c 064d 54bc 6dc5 b43c
000001d0: 70ca 843a 64f9 eebb 32a6 433e 94c4 963c
000001e0: 0219 a93d baaa 12bc 2822 9ebd 558e 8e3d
000001f0: 00b0 bebc bd9b e23d 2995 4b3b 12b2 b2bd
00000200: 2c73 05be 262d e6bc 8cd3 093d 1730 00be
00000210: e6f5 203b 883a 5dbd 849c f6bc 941a 2abd
00000220: cde1 a5bd ec6f 9a3d 7353 8c3d 0ab1 4e3d
00000230: ba5c eabc fa3e 043e 7910 ca3d 346a 853b
00000240: 6bcf ab3d 5eef a43d e24d 923d 75e9 8dbc
00000250: 2ffc 6b3d 6eb8 253d 9de3 5b3d 3821 5e3d
00000260: aca9 8d3d c4fc a73d c79f a93b 767d 42bb
00000270: 1c79 0dbe 08a1 0cbd b9ad 18bd e1d2 ae3c
00000280: 286a ad3d f296 f63c 9e52 33bd 8f12 db3d
00000290: b178 773d eade 6b3b f02b adbd 554b a53d
000002a0: 9224 ee3d 1fdb 8d3d 2ce1 ccbd 254d 85bd
000002b0: 12c7 e93d 8ca5 083c 0682 773c 771c b6bd
000002c0: 8412 7f3d cdaa ac3d f17b 163d ffe5 af3c
000002d0: 8ab2 f13c 0a78 eabd 7ffa c6bd e448 883d
000002e0: a243 d53d 05b3 403d 49d8 89bd 2d38 953c
000002f0: f439 69bc a148 2cbd 9dc4 183d 76e6 783d
00000300: 4bde 16bd 86a9 453c 4fef 33be 9936 5dbd
00000310: a4d9 f6bd ed77 5e3d 402d 923b 5da2 67bc
00000320: 25ce d63d 9d22 793d c3fa fcbd 5abb c73c
00000330: ad1e c1bd e9d6 033e 998c 4f3d 2bc3 7e3c
00000340: 296d 033e d9ff 9c3d c327 4f3d 1734 35bd
00000350: ad51 223d 4937 993d 8fdc b5bc 2c45 213d
00000360: c086 1dbe 2e8c 303e 2fd2 733d 895c ecbd
00000370: 0ad0 32be 9998 8fbd b414 18bd 86bd 6bbc
00000380: 7445 edba bf2a ccbd 88ee 943d 8372 033e
00000390: 9907 813d 020b 7a3d 8fbe 20bd 65f9 333d
000003a0: ada5 f9bc a39b b5bd 3e0f 80bd 6886 3d3d
000003b0: bdf3 0dbd 8a3d 1bbe 5564 8abd 093b 743d
000003c0: 9942 953d 238c 993d b474 0e3e ab46 8f3b
000003d0: ec56 b23d 32a8 e4bd 3980 14bd 6de3 02bd
000003e0: 1fd9 c83d 118a cc3d a1d3 6ebd 4ab3 14bd
000003f0: 28f2 1cbe 5c2e 853d 8949 313e 1e85 843d

lstm.bias_ih_l0 f4 [256]
-0.010085765 0.051754218 0.08873695 0.01350464 0.18141171 0.16136257 -0.039351687 0.05559865
0.20532586 0.043545093 -0.021190153 0.13611217 -0.023323873 0.08049589 0.12432894 0.054786023
0.15428992 0.13463028 -0.008689229 -0.035158083 -0.059530802 0.1280207 -0.014353519 -0.01812769
-0.029944988 -0.055226184 -0.0037322724 0.057632037 0.077782504 0.06235234 0.12916662 0.10693404
0.17097428 0.18225211 0.15040296 0.18524817 0.19690694 0.16755512 -0.024529291 0.085263
0.10396559 0.026910508 0.14683217 0.013556221 -0.05963572 0.15532772 -0.017299658 -0.024996191
0.050783955 0.03411294 -0.07375995 0.0034168537 -0.028753977 -0.008614208 -0.03808634 0.22024661
-0.04111653 -0.027300963 -0.017985517 0.042448275 0.12712361 0.12095453 0.14106318 0.02502884
-0.0822296 0.07246078 0.026464531 0.02935743 0.0094034085 -0.054554444 -0.018280491 -0.043919742
-0.060784515 -0.08057638 -0.09970126 0.14642422 0.103639424 -0.06566666 0.06014974 0.06936096
-0.08287841 0.11394828 0.084672526 0.038299847 -0.024474686 0.030476741 -0.011685459 0.074914046
0.12230316 0.08082681 0.07601885 -0.077949464 0.062434617 -0.11288957 -0.019664114 0.05426548
0.035920076 -0.04997635 -0.013368134 -0.04357339 -0.037928253 0.17464365 -0.000848528 0.09342376
-0.038997285 0.011107234 0.050562363 0.00078120054 -0.0435844 0.0035005186 0.060457975 0.086481765
-0.024101032 -0.028160049 0.036257464 -0.028850857 0.030634528 -0.10576347 -0.02415725 -0.08135955
-0.08977465 0.15300654 0.08800229 0.06936124 0.05131368 0.030267343 -0.02863221 -0.02455233
-0.09711225 0.04653078 -0.07615939 -0.043157253 -0.11743674 0.023659496 -0.111702025 -0.052351993
0.07587861 0.11082854 -0.12530968 0.17578606 0.010143059 0.14602077 -0.12880348 -0.10265305
-0.034406465 -0.026844746 0.022600485 0.14573754 -0.04735116 0.09128929 0.07706088 -0.10631227
-0.16406915 0.122350894 -0.09516045 -0.118387766 -0.036305174 -0.025257781 -0.018906632 0.037460648
-0.103426576 -0.07188816 0.08294341 0.081114344 0.00018970744 0.19740793 0.08745402 -0.020209866
0.14352912 -0.11453101 -0.16150889 0.006498079 0.11827584 -0.100460455 -0.002502301 0.14719513
0.04479494 -0.07835693 0.05560856 0.0038265588 0.036690686 -0.031800743 0.029760314 0.054412223
0.136732 0.11251199 0.068438545 0.039166555 -0.08276022 -0.04363866 0.10442543 -0.09643715
0.17123514 0.12337652 0.0655703 0.031413916 -0.016098987 0.12599473 0.15033461 0.10694975
0.043346293 -0.05757592 0.20241858 0.06540424 0.16967376 0.1418194 0.17024969 0.094510324
0.111381926 -0.008717885 0.09500274 0.1242468 0.0032401648 0.17129852 0.14149816 0.11888027
0.05265839 0.17235455 0.006868848 0.013556532 0.0848689 0.08504283 0.1022772 0.043360133
0.018290348 0.17450002 0.07248716 0.055745505 0.047760583 0.051947754 0.13348915 0.081602566
0.13196434 0.055738155 -0.05625894 0.12772188 0.14888287 0.17712687 0.043987133 -0.024970755
0.04018892 0.053004134 -0.020807443 0.17896894 -0.07997168 0.10738363 0.168042 0.088905066
0.15341133 -0.011242488 0.060471766 0.021127045 0.09846598 0.097047575 0.08371429 0.21325685
00000000: c43e 25bc 3bfc 533d b8bb b53d 9142 5d3c
00000010: fec3 393e 3b3c 253e 3c2f 21bd 69bb 633d
00000020: f140 523e 575c 323d f996 adbc fd60 0b3e
00000030: b511 bfbc 07db a43d 2ca0 fe3d 4f67 603d
00000040: 2dfe 1d3e 85dc 093e 455d 0ebc ec01 10bd
00000050: 92d6 73bd dc17 033e 062b 6bbc 8580 94bc
00000060: 314f f5bc da34 62bd 2499 74bb 920f 6c3d
00000070: 6f4c 9f3d 2b65 7f3d 4144 043e 3c00 db3d
00000080: e213 2f3e 4ca0 3a3e 3c03 1a3e b2b1 3d3e
00000090: f9a1 493e 9293 2b3e a7f1 c8bc 5e9e ae3d
000000a0: e9eb d43d 6d73 dc3c 2c5b 163e e91a 5e3c
000000b0: 9644 74bd 3b0e 1f3e 03b8 8dbc d0c4 ccbc
000000c0: d602 503d 03ba 0b3d 750f 97bd 4bed 5f3b
000000d0: 768d ebbc 9b22 0dbc 6c00 1cbd 5488 613e
000000e0: ce69 28bd 45a6 dfbc 5d56 93bc 3ede 2d3d
000000f0: b12c 023e 02b7 f73d de72 103e 4809 cd3c
00000100: fe67 a8bd 5166 943d 25cc d83c fe7e f03c
00000110: c110 1a3c 7b74 5fbd f8c0 95bc 30e5 33bd
00000120: 2ff9 78bd 3b05 a5bd 2d30 ccbd 3bf0 153e
00000130: e840 d43d 3e7c 86bd 935f 763d 1e0d 8e3d
00000140: 28bc a9bd b75d e93d ca68 ad3d 4de0 1c3d
00000150: 237f c8bc 5caa f93c 5e74 3fbc 896c 993d
00000160: 147a fa3d 8788 a53d c5af 9b3d f8a3 9fbd
00000170: 71bb 7f3d a632 e7bd a316 a1bc 7b45 5e3d
00000180: ee20 133d 00b4 4cbd 0506 5bbc 037a 32bd
00000190: a85a 1bbd c9d5 323e c06f 5eba f554 bf3d
000001a0: 9ebb 1fbd 1efb 353c 7b1a 4f3d 7bc9 4c3a
000001b0: 8e85 32bd f568 653b c8a2 773d 5a1d b13d
000001c0: 876f c5bc e7af e6bc b582 143d a258 ecbc
000001d0: 43f5 fa3c 859a d8bd 6de5 c5bc d69f a6bd
000001e0: c6db b7bd bfad 1c3e 8b3a b43d 440d 8e3d
000001f0: 4b2e 523d 38f3 f73c 198e eabc f821 c9bc
00000200: cae2 c6bd 0f97 3e3d 74f9 9bbd a9c5 30bd
00000210: ac82 f0bd 8fd1 c13c 08c4 e4bd 0b6f 56bd
00000220: 3f66 9b3d 13fa e23d 2e51 00be 4301 343e
00000230: 132f 263c 7886 153e 0fe5 03be c33b d2bd
00000240: cbed 0cbd 83e9 dbbc a724 b93c 393c 153e
00000250: 4af3 41bd e1f5 ba3d 18d2 9d3d 3fba d9bd
00000260: be01 28be 1b93 fa3d 7be3 c2bd 4975 f2bd
00000270: bcb4 14bd 68e9 cebc 15e2 9abc 5670 193d
00000280: 50d1 d3bd 1a3a 93bd 3cde a93d 471f a63d
00000290: 34ec 4639 4e25 4a3e 181b b33d 298f a5bc
000002a0: 4cf9 123e 3c8f eabd 9662 25be d6ed d43b
000002b0: 9b3a f23d 36be cdbd a5fd 23bb 52ba 163e
000002c0: e67a 373d 9979 a0bd cdc5 633d 01c7 7a3b
000002d0: f948 163d 7f41 02bd e7cb f33c 5adf 5e3d
000002e0: 7903 0c3e b06c e63d 8229 8c3d 1c6d 203d
000002f0: 317e a9bd 74be 32bd 00dd d53d d780 c5bd
00000300: 4458 2f3e d4ac fc3d b949 863d e1ab 003d
00000310: 06e2 83bc c304 013e 51f1 193e 7808 db3d
00000320: e28b 313d bad4 6bbd d146 4f3e a8f2 853d
00000330: f5be 2d3e 1b39 113e ef55 2e3e a18e c13d
00000340: 351c e43d 76d5 0ebc cc90 c23d 1b75 fe3d
00000350: f258 543b e168 2f3e e5e4 103e 8077 f33d
00000360: 53b0 573d b67d 303e 1314 e13b 371c 5e3c
00000370: bfcf ad3d ef2a ae3d b576 d13d 659a 313d
00000380: a4d5 953c 22b0 323e 2674 943d 6655 643d
00000390: 9aa0 433d 2bc7 543d 61b1 083e 3f1f a73d
000003a0: a921 073e b14d 643d c66f 66bd 86c9 023e
000003b0: c074 183e bf60 353e da2b 343d 788f ccbc
000003c0: 239d 243d dd1a 593d 5f74 aabc a243 373e
000003d0: 31c8 a3bd f3eb db3d 3413 2c3e dc13 b63d
000003e0: dc17 1d3e 6a32 38bc 3eb1 773d a012 ad3c
000003f0: 88a8 c93d e1c0 c63d 6672 ab3d 0160 5a3e

lstm.bias_hh_l0 f4 [256]
0.0448541 0.18129167 0.050558228 -0.022226237 0.015403605 0.09766271 0.056845456 0.0919205
0.049683098 -0.027372953 0.068893395 0.19394584 0.15605466 0.022111295 0.002615957 0.066511124
0.1502732 0.19477595 0.058418494 0.046496242 -0.054127663 0.20196998 0.14635506 0.1370315
0.11186054 0.10705827 0.07240514 0.18650919 0.14324026 0.09869421 0.1476654 0.13493419
0.03348178 0.025741527 0.117257714 0.18067726 0.07194336 0.119520016 -0.028037457 0.022707064
0.06938924 0.01487763 -0.06103214 0.109500185 0.09223789 0.007874536 0.09130054 0.1164405
0.21318665 0.07844754 -0.08111178 0.17643021 0.14643492 0.14017242 0.13601376 0.1310907
-0.038452245 -0.061770823 -0.032808907 -0.005930823 0.07476895 0.04877544 0.0554751 0.057426367
-0.029259192 0.05913168 0.089406624 -0.0436438 -0.089479685 0.0672698 0.034306265 0.101309255
0.097007625 0.12197751 -0.08326829 0.011708522 -0.10044272 -0.110608116 -0.031850208 -0.017413685
0.07085131 -0.022201076 -0.057847198 0.119178824 -0.035785098 -0.08884766 -0.058455303 -0.036417477
0.062293287 0.12846297 0.08670477 0.112226784 0.11670781 -0.07240896 0.10548924 0.117367856
-0.0845077 -0.054197453 -0.11096498 0.15647104 -0.020474298 0.14615585 0.0849912 -0.09822854
-0.0553281 -0.09298166 0.029110044 0.0047294227 -0.04572246 0.09226091 0.028778153 0.08541304
-0.07795962 -0.110410884 -0.046662044 -0.083960235 -0.019550307 0.11926461 -0.032035526 0.049159832
0.039303724 -0.06849892 0.060692124 0.06540097 -0.022868276 0.08148469 0.024514725 0.033161946
0.0067018666 -0.044201676 -0.097759314 -0.16158608 -0.050801564 -0.02423463 -0.06679693 -0.14900853
-0.0895421 0.014506066 0.086681336 0.15437557 -0.048185013 0.059025884 -0.12782925 -0.09582008
0.033930656 0.06631591 -0.117767885 0.051796746 -0.09536705 -0.093757056 0.02600825 0.034841545
-0.14697106 0.05226118 -0.1582513 -0.062492147 -0.025294147 0.029107131 -0.087391384 -0.059780605
0.10625303 -0.077391356 0.11516474 0.18256024 0.08757477 0.17062306 0.091318965 -0.13229021
0.00046519891 -0.10152149 -0.110981025 -0.017896282 0.0109287705 -0.07409853 -0.14440474 0.14979318
-0.028276602 0.051917404 0.10419283 0.010248148 0.01328832 0.091859736 0.12276138 -0.07012551
0.034347832 0.04438802 -0.021030867 0.1067126 -0.11774049 0.069727615 0.15098909 -0.10884595
0.02937558 0.12647693 0.09396476 0.18223952 0.1152226 0.023444962 0.12435873 0.083606385
0.07077024 -0.043277614 0.2048018 0.17422396 -0.012592715 -0.051270172 0.063981265 0.042971056
0.14984944 0.0052048783 0.15270917 0.11124359 0.13261993 0.14239974 0.21052371 0.14959936
0.029671105 -0.059388906 0.064981855 0.14732501 0.1599863 -0.031460624 0.105399705 0.060665704
0.18996309 0.022929102 0.099567965 -0.0388069 -0.0031572278 0.20943268 0.054990504 0.041539866
0.098768234 0.16994636 0.051512312 0.19602375 0.12546937 0.09764339 0.073235385 0.13335373
0.067434415 0.11627591 0.04615763 -0.022364274 0.11658359 0.09919814 0.09589471 0.084777296
0.039801624 -0.06224633 0.14636515 0.06596389 0.00061577087 0.15071084 0.010759193 0.18779378
00000000: efb8 373d 86a4 393e 2516 4f3d cc13 b6bc
00000010: 675f 7c3c 6303 c83d c8d6 683d d140 bc3d
00000020: 8180 4b3d 3e3d e0bc fb17 8d3d bd99 463e
00000030: cbcc 1f3e bf22 b53c 7a70 2b3b fc36 883d
00000040: 38e1 193e 5973 473e 3b48 6f3d d872 3e3d
00000050: f8b4 5dbd 38d1 4e3e 1ade 153e fc51 0c3e
00000060: 2417 e53d 5e41 db3d 2549 943d 44fc 3e3e
00000070: 93ad 123e 3120 ca3d 9935 173e 302c 0a3e
00000080: 3124 093d e5df d23c d024 f03d 7603 393e
00000090: 0a57 933d e9c6 f43d cfae e5bc 2a04 ba3c
000000a0: f21b 8e3d 4ec1 733c d6fc 79bd a241 e03d
000000b0: 38e7 bc3d 3304 013c c7fb ba3d 5b78 ee3d
000000c0: 9a4d 5a3e 1ba9 a03d ef1d a6bd 1faa 343e
000000d0: 09f3 153e 5c89 0f3e 3147 0b3e a43c 063e
000000e0: 1a80 1dbd 6703 7dbd a262 06bd 5957 c2bb
000000f0: 7720 993d c1c8 473d dc39 633d e937 6b3d
00000100: f9b0 efbc 0f34 723d d21a b73d d7c3 32bd
00000110: 2041 b7bd c0c4 893d ba84 0c3d 3a7b cf3d
00000120: efab c63d 58cf f93d 9188 aabd 1ad5 3f3c
00000130: eab4 cdbd 8286 e2bd 5d75 02bd 25a7 8ebc
00000140: 7e1a 913d 08df b5bc 2ff1 6cbd 0714 f43d
00000150: 6593 12bd c3f5 b5bd d46e 6fbd 7e2a 15bd
00000160: 3f27 7f3d cc8b 033e 4592 b13d 28d7 e53d
00000170: 8104 ef3d 264b 94bd be0a d83d 8f5e f03d
00000180: 5f12 adbd 26fe 5dbd 9c41 e3bd f239 203e
00000190: b7b9 a7bc e1a9 153e de0f ae3d 0b2c c9bd
000001a0: b89f 62bd 2b6d bebd 3078 ee3c 46f9 9a3b
000001b0: 7947 3bbd 4af3 bc3d 29c0 eb3c 08ed ae3d
000001c0: 4ba9 9fbd 1a1f e2bd b320 3fbd 58f3 abbd
000001d0: f727 a0bc 0141 f43d af37 03bd d25b 493d
000001e0: f1fc 203d 2949 8cbd 4e98 783d f2f0 853d
000001f0: 4056 bbbc 72e1 a63d 1bd3 c83c d2d4 073d
00000200: 559b db3b d10c 35bd 0936 c8bd d276 25be
00000210: 4d15 50bd b487 c6bc d4cc 88bd b195 18be
00000220: d961 b7bd daaa 6d3c fc85 b13d a114 1e3e
00000230: a65d 45bd 20c5 713d ace5 02be 513d c4bd
00000240: dffa 0a3d a3d0 873d 4a30 f1bd d328 543d
00000250: cd4f c3bd b303 c0bd 410f d53c 02b6 0e3d
00000260: 957f 16be d20f 563d a10c 22be c4f7 7fbd
00000270: ac35 cfbc 1472 ee3c 41fa b2bd 82dc 74bd
00000280: 309b d93d 5c7f 9ebd 7edb eb3d 12f1 3a3e
00000290: 675a b33d d0b7 2e3e 7005 bb3d 1677 07be
000002a0: f1e5 f339 80ea cfbd 054a e3bd 399b 92bc
000002b0: 960e 333c f8c0 97bd d6de 13be 6263 193e
000002c0: 55a4 e7bc 58a7 543d 0d63 d53d d9e7 273c
000002d0: 41b7 593c f520 bc3d 526a fb3d f79d 8fbd
000002e0: 50b0 0c3d 36d0 353d ed48 acbc 238c da3d
000002f0: ed21 f1bd 5acd 8e3d e29c 1a3e a0ea debd
00000300: 0ea5 f03c 2b83 013e 9970 c03d ff9c 3a3e
00000310: d4f9 eb3d a60f c03c caaf fe3d d339 ab3d
00000320: fdef 903d de43 31bd 90b7 513e c467 323e
00000330: ad51 4ebc ac00 52bd 9c08 833d 6b02 303d
00000340: 2272 193e af8d aa3b cb5f 1c3e aed3 e33d
00000350: 85cd 073e 3dd1 113e 8793 573e 9330 193e
00000360: d110 f33c c841 73bd 3515 853d 5edc 163e
00000370: 73d3 233e dbdc 00bd cddb d73d 9a7c 783d
00000380: af85 423e d0d5 bb3c 4aea cb3d fcf3 1ebd
00000390: 7ee9 4ebb 8575 563e b93d 613d b525 2a3d
000003a0: 0047 ca3d 6b06 2e3e 93fe 523d 73ba 483e
000003b0: 0b7b 003e 42f9 c73d 6ffc 953d e18d 083e
000003c0: 0e1b 8a3d 1022 ee3d c80f 3d3d 4835 b7bc
000003d0: 61c3 ee3d 6528 cb3d 7264 c43d b89f ad3d
000003e0: 0707 233d 02f6 7ebd bfe0 153e 1318 873d
000003f0: af6b 213a f153 1a3e 5447 303c 034d 403e

lstm.weight_ih_l1 f4 [256, 64]
-0.14204419 -0.03832186 -0.127636 -0.056639746 0.087482646 -0.021848992 -0.14231603 0.009678965
-0.16011778 0.030068807 0.14574683 -0.03717879 0.13922442 0.008410966 0.055463888 -0.10846579
-0.14293094 -0.04301354 0.030113263 0.13636295 -0.06658259 0.03868719 0.05458431 0.025573581
-0.05595328 -0.12246326 -0.12111732 -0.19199625 0.14215478 -0.119610436 0.14127007 -0.0017415358
-0.16643254 -0.08796831 0.10295509 0.15964898 0.19371748 0.055265468 0.14460185 0.0741323
-0.021993576 -0.051743638 -0.046307728 -0.18443792 0.030033987 -0.11416722 0.14093468 -0.03895935
0.05998583 0.0062324665 0.00237519 -0.09116674 0.018253874 0.05563334 0.038788263 0.15655273
0.08368631 -0.002499951 -0.13184546 0.10276373 -0.042815965 0.013433019 0.00834806 -0.055410407
-0.02859158 -0.052709483 -0.20211725 -0.07708412 -0.017652761 -0.013079415 0.06359168 -0.0971954
0.023522127 -0.10857606 -0.15236312 0.14058211 -0.19187847 0.017384006 -0.107935235 -0.05664007
0.06997874 0.1569617 -0.04446193 -0.02849137 0.13246067 -0.12733173 0.007849138 -0.013360422
-0.095643096 0.1747383 -0.044856448 0.0014442794 -0.109352365 0.051338993 -0.18163092 -0.18404464
0.12925078 -0.036579903 -0.13151771 0.03357713 0.047063474 0.18926255 0.031191977 -0.2008794
-0.08441005 -0.1009511 -0.026992029 0.13113268 0.20557927 0.082683645 -0.01701152 -0.031895258
-0.022009317 0.15993828 0.091799535 0.20908962 0.026923394 -0.2063606 0.102902465 -0.035362057
0.076586775 -0.012788422 0.115153246 0.048886083 0.054101966 -0.17103538 0.06908954 0.061805733
-0.18965012 -0.04560135 0.0030622014 -0.08895113 -0.0060359724 -0.009728632 0.027818969 0.013617186
-0.10915486 0.15857753 0.13179432 0.16556415 0.10215661 0.011405028 -0.06976384 -0.062894784
0.039537568 -0.100022465 -0.016163766 0.1275499 0.018958826 0.04398069 0.19447832 0.0823515
-0.13245063 0.060415834 -0.1572242 -0.0780736 0.07651216 -0.054942083 0.049158093 -0.035880692
-0.09271493 -0.17268066 0.057408582 0.13735943 0.11296438 -0.067685954 -0.015224369 0.038233858
0.12359777 -0.07234066 -0.17284241 -0.03449465 0.071236975 -0.044069774 0.045072734 0.04481801
0.054345384 0.06862649 0.16102183 -0.04529099 0.2061364 0.017689735 0.04860017 -0.03857613
0.09060385 0.17298235 -0.12581849 0.080454476 -0.1087755 0.16234355 0.16402613 -0.08964831
0.07535639 0.13656569 -0.07527173 0.075591594 0.048973408 0.007470305 -0.0044253953 -0.040184125
-0.13821395 0.14869007 0.094247326 0.08618674 -0.011588322 0.03372505 0.047209613 0.008756952
0.068864055 -0.12838535 0.13372122 0.07619759 -0.13824761 -0.035130385 0.09135147 -0.016990889
-0.058924455 0.107817106 -0.04508206 -0.034231078 -0.004389683 0.0055683353 -0.0764756 0.13691343
-0.012422151 -0.017092869 0.1143343 0.098106176 0.14189228 0.016389644 0.04174745 0.10688153
0.048057023 -0.022976916 -0.098617576 -0.12884447 0.023268918 -0.17312868 -0.01718747 -0.046752736
-0.07560373 0.100635655 0.16523133 -0.12950937 0.13473769 0.00960028 0.06561808 -0.03969126
-0.017209418 0.041559886 0.04879504 0.15122691 0.013381263 -0.049971886 -0.015109356 0.00963211
00000000: 0874 11be 62f7 1cbd 03b3 02be 14ff 67bd
00000010: 1a2a b33d a8fc b2bc 4bbb 11be 8694 1e3c
00000020: eaf5 23be dc52 f63c a83e 153e c948 18bd
00000030: d990 0e3e 26ce 093c 1a2e 633d 5023 debd
00000040: 7d5c 12be f72e 30bd 17b0 f63c bba2 0b3e
00000050: 745c 88bd 7576 1e3d cc93 5f3d b07f d13c
00000060: 442f 65bd 05ce fabd 5c0c f8bd aa9a 44be
00000070: 0691 113e 51f6 f4bd 1aa9 103e 3f44 e4ba
00000080: 4b6d 2abe bb28 b4bd 1eda d23d 067b 233e
00000090: e05d 463e 0b5e 623d 8212 143e add2 973d
000000a0: df2b b4bc 23f1 53bd 2cad 3dbd 4bdd 3cbe
000000b0: d609 f63c 81d0 e9bd 2e51 103e d793 1fbd
000000c0: b4b3 753d b839 cc3b 13a9 1b3b a1b5 babd
000000d0: 2689 953c c9df 633d 71e0 1e3d 5c4f 203e
000000e0: ba63 ab3d 38d6 23bb 7f02 07be ca75 d23d
000000f0: cb5f 2fbd 2a16 5c3c 4dc6 083c 06f6 62bd
00000100: e438 eabc e6e5 57bd d3f7 4ebe 47de 9dbd
00000110: 869c 90bc 0b4b 56bc 5b3c 823d 620e c7bd
00000120: 7ab1 c03c 205d debd 1405 1cbe c2f4 0f3e
00000130: ca7b 44be e768 8e3c 260d ddbd 6bff 67bd
00000140: 0351 8f3d 91ba 203e b61d 36bd bc66 e9bc
00000150: c5a3 073e 4063 02be ac99 003c ace5 5abc
00000160: 87e0 c3bd 99ee 323e 65bb 37bd fa4d bd3a
00000170: 22f4 dfbd d648 523d 75fd 39be 3376 3cbe
00000180: 515a 043e cfd4 15bd 94ac 06be 2c88 093d
00000190: a1c5 403d 0bce 413e 5186 ff3c 54b3 4dbe
000001a0: 2ddf acbd 73bf cebd 631e ddbc a547 063e
000001b0: 5f83 523e 0b56 a93d be5b 8bbc 9aa4 02bd
000001c0: e24c b4bc dcc6 233e 6501 bc3d 971b 563e
000001d0: 738e dc3c 3150 53be 87be d23d ced7 10bd
000001e0: 87d9 9c3d 8886 51bc 77d5 eb3d c63c 483d
000001f0: 069a 5d3d e623 2fbe d17e 8d3d 0228 7d3d
00000200: a433 42be 7bc8 3abd 37af 483b 032c b6bd
00000210: 68c9 c5bb d764 1fbc 9be4 e33c 9e1a 5f3c
00000220: 958c dfbd 2662 223e 17f5 063e a689 293e
00000230: 7c37 d13d 28dc 3a3c 58e0 8ebd fbce 80bd
00000240: 25f2 213d 94d8 ccbd e069 84bc 719c 023e
00000250: 8a4f 9b3c 1925 343d 5325 473e e7a7 a83d
00000260: 23a1 07be 9876 773d 61ff 20be 0de5 9fbd
00000270: 68b2 9c3d f30a 61bd ff59 493d a2f7 12bd
00000280: 53e1 bdbd 33d3 30be 4325 6b3d f3a7 0c3e
00000290: de59 e73d ef9e 8abd a26f 79bc 1b9b 1c3d
000002a0: d420 fd3d 5727 94bd 9afd 30be 434a 0dbd
000002b0: b1e4 913d 8282 34bd 309e 383d 1793 373d
000002c0: 4499 5e3d 0c8c 8c3d e8e2 243e 0c83 39bd
000002d0: 6c15 533e 10ea 903c f910 473d 0102 1ebd
000002e0: 838e b93d 4922 313e 90d6 00be 51c5 a43d
000002f0: b0c5 debd 633d 263e 77f6 273e 8899 b7bd
00000300: 7354 9a3d e0d7 0b3e 1128 9abd c4cf 9a3d
00000310: 5798 483d 76c9 f43b e802 91bb 1c98 24bd
00000320: f587 0dbe 3642 183e be04 c13d ac82 b03d
00000330: f2dc 3dbc 4723 0a3d de5e 413d 5279 0f3c
00000340: 9908 8d3d 7377 03be 37ee 083e 7b0d 9c3d
00000350: c890 0dbe e1e4 0fbd 7b16 bb3d 7a30 8bbc
00000360: c55a 71bd 37cf dc3d f7a7 38bd e335 0cbd
00000370: 54d7 8fbb 9576 b63b 3d9f 9cbd 0933 0c3e
00000380: 4786 4bbc 5806 8cbc 1a28 ea3d e4eb c83d
00000390: 364c 113e 9343 863c 60ff 2a3d b4e4 da3d
000003a0: 71d7 443d 163a bcbc 03f8 c9bd ceef 03be
000003b0: 759e be3c a548 31be bdcc 8cbc cc7f 3fbd
000003c0: 21d6 9abd 111a ce3d 6732 293e 1b9e 04be
000003d0: adf8 093e 7e4a 1d3c c662 863d 4d93 22bd
000003e0: c4fa 8cbc b33a 2a3d 4fdd 473d 3adb 1a3e
000003f0: 163d 5b3c 52af 4cbd 3b8d 77bc ffcf 1d3c

lstm.weight_hh_l1 f4 [256, 64]
0.085379146 -0.04812579 0.115558945 0.025117649 -0.17036894 0.07768154 -0.10901387 -0.0889165
0.11510229 0.11382126 0.0688781 -0.04631836 -0.0011576695 0.06890493 -0.03338235 0.02687122
0.004762523 -0.014370519 0.10213392 0.12575994 -0.04711602 -0.11158256 0.03848747 -0.00919506
-0.05044054 -0.09962279 0.05820329 -0.08307376 0.06201268 -0.130848 0.04706741 -0.039858505
-0.0024261617 -0.08705588 0.047896214 -0.054662794 -0.08389051 0.02022871 0.11037484 -0.03448419
0.039392542 0.062665954 -0.023740616 0.012409486 -0.019816395 0.062180936 -0.027730752 -0.07050575
0.0049460144 0.13278772 -0.04575121 -0.10927233 0.014637841 0.17994595 -0.13462918 0.07606265
-0.07189926 -0.077639095 0.008057487 0.06554836 -0.001722037 -0.08039133 0.038203932 -0.019049637
-0.05287011 -0.07566233 -0.029136378 -0.0041646417 -0.09057162 0.009530737 0.1307483 -0.055750716
-0.099343285 0.068595596 0.03711775 0.06406421 0.07635939 -0.080651276 -0.10033729 -0.06019082
-0.06857808 -0.13770258 -7.185374e-05 0.0464002 -0.009441091 -0.004374964 0.085841894 -0.061451767
-0.14737341 0.047656037 -0.13323209 0.015623889 0.1299894 -0.13253678 -0.018738035 -0.030567357
0.07521753 0.030737314 -0.123788625 0.010218755 0.05396879 0.07384366 -0.06256055 -0.03151923
0.1278203 0.14112063 -0.087718956 0.046322245 0.18385014 0.077440225 0.13503501 0.15024345
-0.019163765 0.051592354 0.06728665 -0.1542263 -0.05473412 0.18363933 -0.16650234 0.050277855
0.013628213 -0.08414255 -0.17159206 0.014194707 0.047180638 0.045604482 -0.016908405 -0.11175401
-0.023769878 -0.031180108 -0.11348519 0.08854137 0.030368313 -0.09629147 0.011667729 0.008260448
0.13188 -0.0105744125 0.050570186 0.09938039 -0.14741054 0.06361695 -0.041876607 -0.028574953
0.07969032 0.013453123 0.0019399617 -0.022232797 -0.06220495 0.08703537 0.11314864 -0.15087382
0.05386112 -0.049886573 -0.08099537 0.1110678 -0.060960993 -0.18529473 -0.008782856 0.0994937
0.07408858 0.015452147 -0.19597384 -0.045919925 0.09669599 -0.0527519 0.08730272 -0.12645864
0.06443557 0.18025629 0.14951774 0.12881434 -0.012693596 0.049660485 0.06656609 -0.052816916
0.123042725 -0.080871254 0.098904215 -0.123175085 -0.06638155 -0.035490803 -0.120660864 -0.017644793
0.010061528 -0.07366869 0.046399146 0.0042738155 -0.03164595 0.10101977 0.05145083 -0.10740636
-0.067044675 -0.086069584 -0.06518043 4.7564034e-05 0.056369606 -0.14411296 0.089268506 0.0013011504
0.13388991 0.15424919 0.03587942 0.012148932 0.091271095 -0.021633008 -0.09939499 -0.079958096
0.11295056 0.087255076 0.017137809 -0.011060911 0.047534052 0.037291408 0.015997885 0.00974921
-0.033605173 0.021903789 -0.0127981845 0.08967739 -0.013508219 0.050635666 -0.03713857 0.08053214
-0.06681353 -0.023023283 0.048488665 0.10055953 0.015842136 0.0041858815 0.015018786 -0.13919355
-0.031725217 0.059303872 -0.04560882 -0.08440049 -0.019081159 -0.034117088 0.10109173 0.1461425
0.16875783 0.0025138182 -0.004368215 -0.1617277 -0.081395976 0.030340418 -0.104462266 0.038361084
0.0034167527 -0.09016468 0.036091715 0.118960306 0.061787512 -0.11329631 -0.039171208 0.045296792
00000000: 43db ae3d 8c1f 45bd 2baa ec3d 87c3 cd3c
00000010: 3275 2ebe 8017 9f3d aa42 dfbd db19 b6bd
00000020: c0ba eb3d 1f1b e93d f60f 8d3d 52b8 3dbd
00000030: f1bc 97ba 071e 8d3d eebb 08bd 0821 dc3c
00000040: f00e 9c3b 5372 6bbc 972b d13d 37c7 003e
00000050: bafc 40bd 6685 e4bd 0aa5 1d3d e0a6 16bc
00000060: bd9a 4ebd 0907 ccbd 9366 6e3d 9322 aabd
00000070: 0201 7e3d 05fd 05be c2c9 403d ac42 23bd
00000080: 3d00 1fbb 5a4a b2bd d22e 443d 18e6 5fbd
00000090: cace abbd aeb6 a53c 340c e23d 4b3f 0dbd
000000a0: 135a 213d 0257 803d ae7b c2bc 2851 4b3c
000000b0: fe55 a2bc 70b1 7e3d 9a2b e3bc 5265 90bd
000000c0: 2d12 a23b 81f9 073e 9f65 3bbd 2cca dfbd
000000d0: 8ed3 6f3c c043 383e 3bdc 09be bcc6 9b3d
000000e0: eb3f 93bd 3f01 9fbd 8d03 043c 383e 863d
000000f0: f9b5 e1ba 36a4 a4bd ba7b 1c3d fc0d 9cbc
00000100: 548e 58bd daf4 9abd 6aaf eebc 8c77 88bb
00000110: 9d7d b9bd cf26 1c3c e2e2 053e dd5a 64bd
00000120: 7e74 cbbd d97b 8c3d c808 183d 1934 833d
00000130: 5062 9c3d 7f2c a5bd a37d cdbd a68a 76bd
00000140: aa72 8cbd e801 0dbe 2fb0 96b8 230e 3e3d
00000150: ceae 1abc dc5b 8fbb e0cd af3d d9b4 7bbd
00000160: 0ee9 16be fa32 433d fe6d 08be 57fb 7f3c
00000170: f11b 053e b9b7 07be 8280 99bc 6568 fabc
00000180: a60b 9a3d d2cc fb3c e484 fdbd 916c 273c
00000190: 610e 5d3d 583b 973d bf1f 80bd 4f1a 01bd
000001a0: 53e3 023e ed81 103e ffa5 b3bd 65bc 3d3d
000001b0: 3643 3c3e fb98 9e3d 9e46 0a3e 6bd9 193e
000001c0: 54fd 9cbc 8152 533d 95cd 893d 80ed 1dbe
000001d0: e230 60bd f30b 3c3e 977f 2abe 27f0 4d3d
000001e0: de48 5f3c ee52 acbd d4b5 2fbe eb90 683c
000001f0: 7c40 413d c4cb 3a3d 7f83 8abc 49df e4bd
00000200: 0cb9 c2bc 6d6d ffbc ec6a e8bd 2e55 b53d
00000210: f8c6 f83c 7634 c5bd 012a 3f3c d556 073c
00000220: 8d0b 073e 4d40 2dbc af22 4f3d f287 cb3d
00000230: caf2 16be 9a49 823d ce86 2bbd 0516 eabc
00000240: ae34 a33d 7d6a 5c3c 5046 fe3a 8e21 b6bc
00000250: 9eca 7ebd 9a3f b23d 79ba e73d ab7e 1abe
00000260: 7a9d 5c3d dd55 4cbd e7e0 a5bd 8477 e33d
00000270: 3cb2 79bd e7bd 3dbe f8e5 0fbc 5ac3 cb3d
00000280: c1bb 973d 012b 7d3c 5ead 48be 8816 3cbd
00000290: 8c08 c63d 6012 58bd c5cb b23d 607e 01be
000002a0: ccf6 833d 1b95 383e 2e1b 193e e8e7 033e
000002b0: cdf8 4fbc cb68 4b3d cd53 883d 8d56 58bd
000002c0: d3fd fb3d d49f a5bd 4b8e ca3d 3843 fcbd
000002d0: 0df3 87bd ce5e 11bd 0b1d f7bd d08b 90bc
000002e0: 1bd9 243c 9cdf 96bd 080d 3e3d 5d0b 8c3b
000002f0: 2f9f 01bd 74e3 ce3d 1bbe 523d def7 dbbd
00000300: b84e 89bd 4045 b0bd 517d 85bd 7e7f 4738
00000310: d1e3 663d 5992 13be 68d2 b63d 5d8b aa3a
00000320: 701a 093e 80f3 1d3e 4cf6 123d 500c 473c
00000330: 57ec ba3d b537 b1bc 9a8f cbbd 12c1 a3bd
00000340: a052 e73d cab2 b23d 9764 8c3c d338 35bc
00000350: 11b3 423d e0be 183d ff0d 833c 27bb 1f3c
00000360: 94a5 09bd 936f b33c 7aaf 51bc c8a8 b73d
00000370: 9451 5dbc 5867 4f3d 9d1e 18bd 09ee a43d
00000380: 88d5 88bd 539b bcbc 0d9c 463d 28f2 cd3d
00000390: 5ec7 813c b829 893b 5b11 763c c188 0ebe
000003a0: 4df2 01bd 9ee8 723d 50d0 3abd 2ada acbd
000003b0: 1750 9cbc 5cbe 0bbd 2e09 cf3d 61a6 153e
000003c0: dace 2c3e dfbe 243b 3e23 8fbb f29b 25be
000003d0: efb2 a6bd 788c f83c 50f0 d5bd 8320 1d3d
000003e0: 99eb 5f3b 42a8 b8bd e8d4 133d 76a1 f33d
000003f0: e714 7d3d e507 e8bd fd71 20bd 2189 393d

lstm.bias_ih_l1 f4 [256]
0.010449871 0.12442086 0.12759697 0.17114884 0.15174192 -0.015186753 0.061911345 0.09740993
-0.0713361 -0.045170866 0.09123943 0.13005294 0.08847894 -0.05576945 0.11397215 0.02836597
0.087792434 0.1291134 0.20777547 0.10188397 0.16369602 -0.05962186 0.0143752415 -0.022072788
0.020960752 0.011432285 0.10006332 0.06666226 0.08704335 0.16379489 0.124880366 0.18872988
0.0806006 0.10113812 -0.0370037 0.011792505 0.11172905 0.10628955 0.18515638 0.083025366
0.12695102 -0.030146366 0.0412676 0.09216743 0.10766378 0.17782319 -0.000754426 -0.034159992
0.14713074 -0.0040843887 0.028256966 -0.02651923 0.17233135 0.13339688 0.0072916048 0.13212924
0.14372167 0.10883973 0.059814606 -0.00010568844 0.04467083 0.12132805 0.1355386 -0.022777837
0.10835888 0.07772756 0.11369954 0.042557023 0.012690601 0.021000931 -0.107323095 -0.07567995
-0.08068895 0.115210235 -0.08930357 0.0037089468 -0.10948215 0.04287156 0.05545057 -0.015211024
0.089709945 -0.08841572 -0.102647044 0.021160388 -0.12240669 0.121526144 -0.025200546 -0.046036944
0.060509875 0.074995875 0.124437176 0.037799884 0.08972981 0.050650246 -0.091773406 0.013565514
-0.002021635 -0.047017742 0.14288308 -0.13464057 0.067167 -0.056391865 -0.094188415 -0.011613136
0.088745214 -0.026171515 -0.010143006 0.11411731 -0.124535404 0.07197124 -0.08521144 -0.09515528
0.050954886 -0.083353415 -0.1321605 -0.084426306 -0.06490169 -0.056153428 0.0067892424 0.08880222
0.022771602 0.04714807 -0.11699691 0.02114098 0.08176887 0.09433502 0.08086022 0.054102793
-0.13977699 -0.14777191 -0.14312117 -0.02223338 -0.11877829 -0.099619344 -0.0027803613 -0.012918699
0.07590551 0.032446537 0.0010095828 0.0011882611 -0.10124285 -0.09455555 0.074115 -0.062373523
-0.07775187 0.10577819 0.003439078 0.056735408 -0.07469594 -0.05662736 0.16043879 -0.078700505
-0.047750946 -0.15228948 -0.1161463 0.023674294 0.10322663 -0.124079905 -0.13202497 0.07918397
0.01970817 0.0013386083 -0.0063553555 0.118925296 -0.100655004 -0.06555263 0.024580052 0.019427331
0.0066185785 0.13092211 0.12745439 0.10862061 0.11862426 0.01050011 0.07394537 0.015405506
0.015403978 0.06731392 0.009304618 -0.02733568 0.089310944 -0.020247534 -0.064126395 -0.017644243
-0.07975594 0.061687663 -0.015923588 0.084634505 -0.12311417 0.015188106 0.033556204 0.06724785
-0.023840751 0.05555052 0.17243788 0.096275456 0.15833119 0.0010775735 0.12681831 0.12629265
0.16128248 -0.053201362 0.056589715 0.005889338 0.1388268 -0.06338275 -0.046427947 0.17488968
0.16044734 -0.025667785 0.16394731 -0.025961168 0.14695033 0.06744101 -0.04713508 -0.004071976
-0.014983313 0.030185193 0.106055304 0.07084529 0.041534446 -0.03597488 0.094322614 0.10505206
-0.05699282 0.17972757 0.09654883 0.018591069 0.08040863 0.09958968 0.04451861 -0.037733573
0.1194502 0.026012396 0.05457268 -0.06636289 -0.0008828637 -0.05176326 -0.042594437 0.036076725
-0.017263358 0.09930646 0.08170432 0.153024 0.035061646 0.03408525 0.16580036 0.00072411925
0.09640709 0.11375724 0.07122041 -0.07052241 0.022285335 0.051761728 -0.0005445374 0.032261517
00000000: f035 2b3c 5dd0 fe3d c8a8 023e a441 2f3e
00000010: 3c62 1b3e dcd1 78bc c096 7d3d db7e c73d
00000020: a918 92bd 1605 39bd bddb ba3d 992c 053e
00000030: 7234 b53d 826e 64bd 3b6a e93d c05f e83c
00000040: 85cc b33d 4e36 043e 18c3 543e 8ba8 d03d
00000050: ee9f 273e 0d36 74bd 2286 6b3c fed1 b4bc
00000060: e2b5 ab3c 7b4e 3b3c ffed cc3d 3986 883d
00000070: c943 b23d d9b9 273e 47c1 ff3d 6842 413e
00000080: ed11 a53d 8121 cf3d 3191 17bd 5a35 413c
00000090: 33d2 e43d 56ae d93d a299 3d3e 3409 aa3d
000000a0: 73ff 013e 83f5 f6bc 3708 293d 47c2 bc3d
000000b0: d47e dc3d 4817 363e acc4 45ba 59eb 0bbd
000000c0: 71a9 163e 56d6 85bb 277b e73c db3e d9bc
000000d0: a177 303e 3199 083e 6aee ee3b e34c 073e
000000e0: c62b 133e 5de7 de3d 2900 753d 0da5 ddb8
000000f0: c3f8 363d d77a f83d a1ca 0a3e 9698 babc
00000100: 43eb dd3d a12f 9f3d 4edb e83d 4650 2e3d
00000110: 3dec 4f3c 250a ac3c 36cc dbbd 17fe 9abd
00000120: 4040 a5bd 58f3 eb3d cae4 b6bd cd11 733b
00000130: 2d38 e0bd 179a 2f3d 2320 633d a937 79bc
00000140: d9b9 b73d 4d13 b5bd 9d38 d2bd 8d58 ad3c
00000150: 5cb0 fabd b3e2 f83d 6071 cebc 3c91 3cbd
00000160: 34d9 773d 7097 993d ebd8 fe3d 0dd4 1a3d
00000170: 43c4 b73d a276 4f3d b2f3 bbbd e441 5e3c
00000180: 687d 04bb ad95 40bd f14f 123e 38df 09be
00000190: da8e 893d 28fb 66bd dbe5 c0bd 0645 3ebc
000001a0: 0dc0 b53d a565 d6bc da2e 26bc 56b6 e93d
000001b0: 6b0c ffbd a865 933d 5683 aebd c5e0 c2bd
000001c0: 12b6 503d 32b5 aabd 1555 07be b3e7 acbd
000001d0: 2deb 84bd 2301 66bd 4b78 de3b f0dd b53d
000001e0: 838b ba3c 561e 413d 139c efbd d92f ad3c
000001f0: 7076 a73d b832 c13d 0b9a a53d e49a 5d3d
00000200: b321 0fbe 8551 17be 5b8e 12be c722 b6bc
00000210: 0842 f3bd 3a05 ccbd b936 36bb f3a8 53bc
00000220: 5974 9b3d a9e6 043d fa53 843a 6dbf 9b3a
00000230: 6958 cfbd 57a6 c1bd 9bc9 973d 617b 7fbd
00000240: 5f3c 9fbd 3ca2 d83d 2862 613b 6363 683d
00000250: 2ffa 98bd 17f2 67bd 114a 243e bb2d a1bd
00000260: 7f96 43bd c6f1 1bbe 1dde edbd 98f0 c13c
00000270: 7c68 d33d 9b1d febd 8e31 07be 352b a23d
00000280: 0773 a13c 3e74 af3a 9640 d0bb 1b8f f33d
00000290: 3624 cebd 7540 86bd 1b5c c93c 1126 9f3c
000002a0: a9e0 d83b 7210 063e 6783 023e 7b74 de3d
000002b0: 47f1 f23d a708 2c3c ac70 973d 6067 7c3c
000002c0: f760 7c3c e1db 893d 6672 183c 13ef dfbc
000002d0: a8e8 b63d 28de a5bc b354 83bd a98a 90bc
000002e0: 1557 a3bd 34ac 7c3d 2f72 82bc db54 ad3d
000002f0: 4823 fcbd 89d7 783c 3b72 093d 3eb9 893d
00000300: ae4d c3bc f188 633d 8e93 303e 112c c53d
00000310: 9221 223e 5e3d 8d3a a9dc 013e dc52 013e
00000320: 3c27 253e ace9 59bd 9eca 673d 59fb c03b
00000330: 9d28 0e3e d1ce 81bd 3b2b 3ebd 4816 333e
00000340: 4f4c 243e 3f45 d2bc cee1 273e 84ac d4bc
00000350: 267a 163e 831e 8a3d b710 41bd 366e 85bb
00000360: 927c 75bc f046 f73c 8633 d93d 5617 913d
00000370: 0620 2a3d 655a 13bd 372c c13d 8925 d73d
00000380: 4e71 69bd 810a 383e 65bb c53d 4c4c 983c
00000390: 48ad a43d adf5 cb3d 2559 363d 858e 1abd
000003a0: 4ea2 f43d f317 d53c 9a87 5f3d 44e9 87bd
000003b0: fb6f 67ba b605 54bd 8177 2ebd 30c5 133d
000003c0: e36b 8dbc 2f61 cb3d 9854 a73d 53b2 1c3e
000003d0: cd9c 0f3d fa9c 0b3d 92c7 293e d2d2 3d3a
000003e0: 1571 c53d 8ef9 e83d 02dc 913d 0e6e 90bd
000003f0: bc8f b63c 1b04 543d 49bf 0eba a724 043d

lstm.bias_hh_l1 f4 [256]
0.16391884 -0.0018242477 -0.010943487 0.07468703 -0.0632541 8.677051e-05 0.14446227 0.12218686
0.040078156 0.12121091 -0.010975112 0.07883817 0.15460983 0.004722893 0.14425123 0.07254012
0.07823713 -0.028984668 0.09421928 0.1700251 0.06858421 -0.07051263 0.11764381 -0.015142547
-0.043480508 0.07328884 0.020533642 0.13582993 -0.019328833 0.17652112 0.022792503 -0.0016385145
0.14946918 0.039862957 -0.016242791 0.054820247 0.078915566 -0.040649336 0.13892773 0.05750367
-0.021370998 0.09102322 0.020532228 -0.07168033 0.15546493 0.06605538 0.14214405 0.024998812
-0.014677798 0.17009372 0.10912374 0.21402048 0.108100615 0.017761152 0.11502744 0.014322048
0.17811763 0.105277605 -0.0030119221 0.07271718 0.081704706 0.10380666 0.007107188 0.092005596
-0.07722872 0.07563477 0.009524877 -0.042632468 -0.03204409 0.024613222 -0.09201504 0.07492422
-0.019768633 0.06940363 0.043073066 0.01546171 -0.050500147 -0.08286062 0.107706256 0.01828912
0.1103247 -0.06669163 -0.13233179 -0.07332758 0.056050688 -0.06607582 0.120323114 0.12544182
-0.04617041 0.0038893577 0.07684158 -0.09699541 0.10644198 0.07475204 -0.0582609 -0.10034995
-0.05842079 -0.016282508 -0.07748294 -0.13553666 0.07646078 0.12476541 0.12223045 -0.11402797
-0.07186299 -0.096517555 -0.10069075 0.018954296 0.046811685 -0.067857735 -0.063367255 -0.10229284
0.123307064 0.057428632 0.05162871 -0.10101517 -0.11924164 -0.10005068 0.017049879 -0.07299403
-0.0024205619 0.0731092 0.082200296 -0.11047935 -0.08090839 0.080183 -0.029973721 -0.052172005
-0.09706657 -0.07138331 0.031868655 -0.048674032 -0.1182003 -0.11966847 0.073796764 0.13017154
-0.042859707 0.13543898 0.14252983 -0.017999206 0.0026913271 -0.13324885 -0.0029888726 -0.0890567
0.10383249 -0.10866235 0.09387497 0.12558368 0.084791385 0.12142153 0.13165762 0.08271652
-0.08467848 -0.09539721 -0.04192581 -0.060928423 -0.071061105 -0.025795251 -0.13896999 -0.090204276
0.14052106 0.09248706 -0.13835457 -0.06479008 -0.07169835 -0.039900746 -0.082883574 -0.113032915
0.08212436 -0.004645238 -0.0093265595 -0.016939938 -0.013370302 0.043019187 0.10197021 0.10024824
0.10446859 0.09324311 0.025703892 -0.053012088 0.03496446 0.13188414 0.07232631 0.08244661
0.0882537 -0.056392845 0.07090251 0.018311787 -0.11182071 -0.015434676 0.048980553 -0.109350055
-0.061295774 0.075128675 0.118755765 -0.018652527 -0.046066444 0.10196401 -0.012735978 0.120077856
0.06603044 0.14488052 -0.0029862544 0.09902855 0.1673976 0.1248161 0.11051868 -0.01427889
0.055578165 0.030562175 0.09978727 0.14699416 0.09525797 0.035375275 0.09200673 0.12538218
0.17226088 0.12045032 -0.022204552 0.13079406 -0.0005971575 0.0675077 -0.009307412 0.123768695
0.030937431 0.20306574 0.06553561 0.13725623 0.12298549 0.003907485 0.1274062 0.13853826
0.14992689 0.077349804 0.101268984 0.10103111 -0.030932609 0.0648417 0.06313229 0.029956473
0.18972895 0.070002384 0.20422535 0.18684268 0.124740064 0.06404118 0.05228438 -0.007128716
0.026741218 0.07156292 0.08544338 -0.047168653 0.17310326 0.107844576 0.1399478 -0.09231178
00000000: 57da 273e 981b efba 504c 33bc 83f5 983d
00000010: 5e8b 81bd 90f8 b538 ebed 133e 1b3d fa3d
00000020: fe28 243d 6d3d f83d f5d0 33bc e875 a13d
00000030: 0a52 1e3e 7fc2 9a3b 98b6 133e ea8f 943d
00000040: ca3a a03d 4171 edbc 0af6 c03d 0f1b 2e3e
00000050: e175 8c3d ed68 90bd 3def f03d 7218 78bc
00000060: 9e18 32bd 7618 963d 2b36 a83c 0017 0b3e
00000070: 8057 9ebc f4c1 343e 58b7 ba3c 6cc3 d6ba
00000080: 730e 193e 5747 233d 9a0f 85bc 328b 603d
00000090: 7c9e a13d eb7f 26bd 1243 0e3e f888 6b3d
000000a0: 3b12 afbc 626a ba3d 3433 a83c 23cd 92bd
000000b0: 3332 1f3e 0b48 873d 368e 113e 4fca cc3c
000000c0: 267b 70bc 0c2d 2e3e 447c df3d 2f28 5b3e
000000d0: db63 dd3d d67f 913c 8293 eb3d 06a7 6a3c
000000e0: 7864 363e c99b d73d ab63 45bb bfec 943d
000000f0: cc54 a73d 9698 d43d 6ae3 e83b 6e6d bc3d
00000100: 172a 9ebd 67e6 9a3d 3b0e 1c3c 629f 2ebd
00000110: aa40 03bd aba1 c93c 6272 bcbd df71 993d
00000120: d4f1 a1bc 7e23 8e3d 626d 303d 1d53 7d3c
00000130: 3ed9 4ebd d4b2 a9bd 1995 dc3d 11d3 953c
00000140: ebf1 e13d 9f95 88bd fc81 07be c52c 96bd
00000150: 6895 653d c252 87bd f76b f63d d273 003e
00000160: 2f1d 3dbd 98e4 7e3b 1e5f 9d3d 88a5 c6bd
00000170: 41fe d93d 9917 993d fba2 6ebd 4684 cdbd
00000180: a34a 6fbd e562 85bc 60af 9ebd 1fca 0abe
00000190: 7897 9c3d 0285 ff3d f553 fa3d 7f87 e9bd
000001a0: e72c 93bd ffaa c5bd f436 cebd 0a46 9b3c
000001b0: 9cbd 3f3d fff8 8abd b1c6 81bd e97e d1bd
000001c0: 6a88 fc3d 493a 6b3d a078 533d 0be1 cebd
000001d0: f634 f4bd 5fe7 ccbd 30ac 8b3c e57d 95bd
000001e0: 4aa2 1ebb 47ba 953d a158 a83d ff42 e2bd
000001f0: 4cb3 a5bd fc36 a43d 738b f5bc 50b2 55bd
00000200: d6ca c6bd 6a31 92bd b588 023d 6c5e 47bd
00000210: 0013 f2bd be14 f5bd c222 973d b04b 053e
00000220: a98d 2fbd 84b0 0a3e 57f3 113e 1273 93bc
00000230: fa60 303b 6372 08be f6e0 43bb 5c63 b6bd
00000240: 21a6 d43d 5e8a debd 8541 c03d 0299 003e
00000250: 1ba7 ad3d daab f83d 41d1 063e 4767 a93d
00000260: e96b adbd 9d5f c3bd 66ba 2bbd 1590 79bd
00000270: 7c88 91bd 9050 d3bc 264e 0ebe 05bd b8bd
00000280: c1e4 0f3e db69 bd3d d2ac 0dbe a9b0 84bd
00000290: 96d6 92bd f76e 23bd ddbe a9bd cd7d e7bd
000002a0: d130 a83d 1537 98bb 6dce 18bc a0c5 8abc
000002b0: 1c0f 5bbc e334 303d c2d5 d03d f34e cd3d
000002c0: a1f3 d53d 3ef6 be3d f890 d23c 3423 59bd
000002d0: e536 0f3d a30c 073e d11f 943d c5d9 a83d
000002e0: 5bbe b43d 2ffc 66bd 5635 913d 9a02 963c
000002f0: 4202 e5bd b9e1 7cbc d59f 483d ecf2 dfbd
00000300: 4711 7bbd 10dd 993d 3936 f33d 2fcd 98bc
00000310: 2bb0 3cbd 82d2 d03d 90aa 50bc 61eb f53d
00000320: f83a 873d 8f5b 143e 09b5 43bb 7bcf ca3d
00000330: 476a 2b3e 959f ff3d 9e57 e23d 01f2 69bc
00000340: eea5 633d 875d fa3c 455d cc3d a385 163e
00000350: 9c16 c33d aae5 103d 066e bc3d 3064 003e
00000360: 2865 303e a8ae f63d 52e6 b5bc e1ee 053e
00000370: 908a 1cba 7a41 8a3d 1e7e 18bc 717a fd3d
00000380: 7f70 fd3c 77f0 4f3e 8937 863d e68c 0c3e
00000390: d1df fb3d 5c0a 803b c576 023e f9dc 0d3e
000003a0: 6f86 193e 9369 9e3d 1d66 cf3d 66e9 ce3d
000003b0: 6266 fdbc bacb 843d 814b 813d 4767 f53c
000003c0: 4e48 423e 695d 8f3d 7320 513e b053 3f3e
000003d0: b877 ff3d 0628 833d 2528 563d 0198 e9bb
000003e0: 6610 db3c 958f 923d f0fc ae3d eb33 41bd
000003f0: fb41 313e 9edd dc3d 7a4e 0f3e f50d bdbd
